system/models/FashionMNIST/FedPer_FedAvgCNN_FashionMNIST_server.pt (torch, 348330 bytes, 6 tensors)

weight f4 [32, 1, 5, 5]
0.017773472 0.02813097 -0.2688909 -0.36152646 -0.1859496 0.14475748 -0.0065554883 0.11202882
-0.20478998 -0.066770054 0.070283905 0.041050766 -0.13527192 -0.21228173 -0.14120808 0.14433752
0.18190478 0.17856053 -0.15277201 -0.10171128 0.21124524 0.30676073 0.061494526 0.13404308
-0.02122096 0.08476781 0.12498213 -0.25259534 -0.20565957 -0.13330534 -0.009896289 0.13060695
-0.17986156 -0.18447651 -0.20877416 -0.13977283 -0.13897058 0.13194674 0.0015179387 0.023514275
0.052614994 -0.10705228 0.015608238 -0.21031457 -0.1809262 -0.062282447 0.08918255 0.093078285
-0.09342101 -0.058886245 0.17379995 0.23413011 0.07805851 -0.0073415334 0.057172876 -0.11441828
0.033138894 -0.2077797 -0.20640865 -0.19377245 0.111259386 0.067092925 -0.1871875 -0.0034986355
0.016189348 -0.00996505 -0.009083581 0.058411706 0.12857965 0.17071442 -0.18716922 -0.12689146
0.12727883 0.19547093 0.17294747 0.26525095 0.10136242 -0.16583295 -0.045021668 -0.27936372
-0.068835646 0.29703072 0.23072585 -0.23723565 -0.19009298 0.013395531 0.08312842 0.030467097
0.05084073 -0.3332084 0.07880332 0.1901966 0.20381275 0.053977776 -0.41507939 -0.12519753
0.1966448 0.14821199 -0.12502071 -0.31722003 0.18905549 0.080031544 -0.19203663 -0.17019203
-0.17995976 -0.0018489028 -0.20166358 -0.25250393 -0.07268282 0.108550794 -0.096886545 0.033366263
-0.17734624 0.19026686 0.23824733 -0.16303463 -0.08962713 0.009590911 0.078991555 0.13700078
0.08744485 -0.014081431 -0.08709258 0.12817983 -0.13503705 -0.19446127 -0.16626129 -0.2555989
-0.29884204 -0.26017338 -0.041687436 -0.027330086 -0.23881517 -0.1764773 0.09973824 0.07432059
0.08847392 0.08936846 0.03588846 0.12559679 0.27329242 0.24677801 0.27652636 -0.0229915
-0.14547096 0.009934532 0.26390764 0.083081104 -0.09054651 -0.11453987 -0.23272115 -0.3253332
-0.1944836 -0.058761496 -0.002075818 -0.22678855 -0.13254967 -0.36705655 -0.21628915 -0.13970226
-0.011693706 -0.12932217 -0.27450502 -0.22624768 -0.088542536 0.08623551 -0.041712396 0.020958299
-0.17340846 -0.008958504 0.21558793 0.0124147395 0.12495005 0.07276045 -0.09803267 0.19477595
0.07558859 0.07956064 0.35575208 -0.04580292 0.12597667 0.110601164 0.36940625 0.31111494
0.23705734 0.065380014 0.0070700115 -0.0020245875 -0.11572062 0.07895465 0.031439558 -0.0042469464
-0.29273134 -0.1634306 -0.31146735 -0.25616416 -0.29218873 -0.13041258 -0.33654782 -0.2110988
0.09680655 0.13843864 -0.13462359 -0.23618941 -0.2829034 0.24807192 0.0068132854 0.24205276
0.015059364 -0.16859056 0.06558959 0.027631236 0.10254372 -0.050383583 -0.18416388 0.073397845
-0.058636475 0.0058909897 0.18005756 -0.33705688 0.02078113 0.28701898 0.16450648 0.04479076
-0.34922773 0.16210407 -0.020197399 -0.20717205 -0.055272613 -0.0036247645 0.11932386 0.31558326
-0.16598131 0.18967359 0.1700396 -0.062521964 0.25756103 -0.3757648 -0.05254522 0.09371361
0.0523607 0.30571327 -0.3401644 -0.048098437 0.12783983 -0.19942693 0.27277684 -0.4336477
-0.09469418 -0.014970217 -0.2373892 -0.04476848 0.2983736 0.016790243 -0.10708413 -0.22170822
00000000: ac99 913c ec72 e63c 11ac 89be ff19 b9be
00000010: 9269 3ebe 4e3b 143e 6ccf d6bb 5e6f e53d
00000020: 77b4 51be bdbe 88bd 02f1 8f3d d924 283d
00000030: b984 0abe 6260 59be da98 10be 37cd 133e
00000040: 3f45 3a3e 92d8 363e 4470 1cbe 014e d0bd
00000050: ac50 583e be0f 9d3e afe1 7b3d 9742 093e
00000060: 94d7 adbc bf9a ad3d a2f6 ff3d 2d54 81be
00000070: 6c98 52be 3281 08be 0b24 22bc d4bd 053e
00000080: a12d 38be 69e7 3cbe e5c8 55be 9c20 0fbe
00000090: 4e4e 0ebe 0c1d 073e 92f5 c63a 02a1 c03c
000000a0: d282 573d 3a3e dbbd b2b9 7f3c b45c 57be
000000b0: b844 39be e11b 7fbd 57a5 b63d d49f be3d
000000c0: 8453 bfbd b432 71bd 9df8 313e cebf 6f3e
000000d0: 24dd 9f3d 3f91 f0bb 1b2e 6a3d 2254 eabd
000000e0: a6bc 073d 34c4 54be ca5c 53be 496c 46be
000000f0: f6db e33d 0468 893d 14ae 3fbe 5d49 65bb
00000100: 869f 843c 7344 23bc 4dd3 14bc 1d41 6f3d
00000110: 62aa 033e c3cf 2e3e 4aa9 3fbe d6ef 01be
00000120: 6255 023e 8829 483e 2419 313e f9ce 873e
00000130: 1a97 cf3d 1dd0 29be a468 38bd c308 8fbe
00000140: b4f9 8cbd 6914 983e 6643 6c3e e7ed 72be
00000150: bca7 42be ee78 5b3c 3c3f aa3d 2296 f93c
00000160: 5f3e 503d 4b9a aabe a363 a13d e6c2 423e
00000170: 4ab4 503e cd17 5d3d 4985 d4be c833 00be
00000180: 415d 493e e2c4 173e 6e05 00be aa6a a2be
00000190: c397 413e 94e7 a33d 40a5 44be d246 2ebe
000001a0: 5f47 38be e256 f2ba e680 4ebe 3248 81be
000001b0: bbda 94bd e14f de3d 746c c6bd 10ab 083d
000001c0: 419a 35be 51d5 423e 1cf7 733e 8df2 26be
000001d0: 6e8e b7bd 3223 1d3c 53c6 a13d ef49 0c3e
000001e0: 4916 b33d cdb5 66bc 985d b2bd 9341 033e
000001f0: 2747 0abe db20 47be 6640 2abe dcdd 82be
00000200: d301 99be 7235 85be 72c0 2abd 58e3 dfbc
00000210: f78b 74be 77b6 34be 9043 cc3d 6535 983d
00000220: d131 b53d d006 b73d c7ff 123d 729c 003e
00000230: fcec 8b3e 60b3 7c3e dd94 8d3e ac58 bcbc
00000240: 57f6 14be 73c4 223c e71e 873e 6d26 aa3d
00000250: 7370 b9bd e193 eabd 744e 6ebe 1392 a6be
00000260: b526 47be e5af 70bd 720a 08bb 423b 68be
00000270: 1abb 07be d6ee bbbe e77a 5dbe 1c0e 0fbe
00000280: f596 3fbc 086d 04be ec8b 8cbe 79ad 67be
00000290: ca55 b5bd 3e9c b03d 9eda 2abd bdb0 ab3c
000002a0: fd91 31be b0c6 12bc 15c3 5c3e 3167 4b3c
000002b0: d0e5 ff3d 6e03 953d 5ac5 c8bd 5973 473e
000002c0: 31ce 9a3d b0f0 a23d 2325 b63e d89b 3bbd
000002d0: 0700 013e dd82 e23d d122 bd3e 754a 9f3e
000002e0: 29bf 723e f5e5 853d 8eab e73b f1ae 04bb
000002f0: effe ecbd fab2 a13d c4c6 003d f829 8bbb
00000300: e2e0 95be 5a5a 27be a678 9fbe f327 83be
00000310: c399 95be e08a 05be ff4f acbe 492a 58be
00000320: 8342 c63d dcc2 0d3e c4da 09be a3db 71be
00000330: b7d8 90be 9106 7e3e fb41 df3b aedc 773e
00000340: 8dbb 763c 01a3 2cbe d653 863d e75a e23c
00000350: 7102 d23d 045f 4ebd 7595 3cbe 9c51 963d
00000360: cd2c 70bd 3409 c13b 0261 383e b892 acbe
00000370: 303d aa3c 27f4 923e 6374 283e 8476 373d
00000380: facd b2be 9cfe 253e 0475 a5bc e924 54be
00000390: 8965 62bd 758d 6dbb 1160 f43d 2194 a13e
000003a0: 01f7 29be cb39 423e dc1e 2e3e 840b 80bd
000003b0: 0adf 833e 3e64 c0be a839 57bd ecec bf3d
000003c0: 2c78 563d 7386 9c3e 072a aebe de02 45bd
000003d0: 72e8 023e 9336 4cbe 68a9 8b3e 1207 debe
000003e0: 06ef c1bd a445 75bc 2816 73be 275f 37bd
000003f0: 6dc4 983e b18b 893c ed4e dbbd 7b07 63be

bias f4 [32]
-0.00853871 -0.45404255 0.2746942 -0.25709185 -0.19159539 0.1289313 -0.49214256 -0.09136163
-0.054714765 -0.013215651 -0.2719682 -0.041666903 -0.034153596 -0.19730349 -0.17641908 0.14965351
-0.07755552 -0.23117688 -0.062507525 -0.0027118388 0.26720092 -0.37466782 0.09865863 -0.042205002
-0.05229464 -0.2266881 -0.024776421 -0.017359903 -0.039183237 -0.04278581 0.07594513 -0.31140745
00000000: f2e5 0bbc 4478 e8be b8a4 8c3e 8ba1 83be
00000010: 9531 44be 9106 043e 1cfa fbbe ce1b bbbd
00000020: 971c 60bd 7586 58bc 6a3f 8bbe eaaa 2abd
00000030: a4e4 0bbd ed09 4abe 34a7 34be c53e 193e
00000040: 6ed5 9ebd a2b9 6cbe f203 80bd 1bb9 31bb
00000050: 8fce 883e 76d4 bfbe 890d ca3d 27df 2cbd
00000060: e832 56bd ed20 68be ecf7 cabc 5b36 8ebc
00000070: 9a7e 20bd 2c40 2fbd 1f89 9b3d cc70 9fbe

weight f4 [64, 32, 5, 5]
-0.0020080667 -0.036952417 -0.036838576 0.029923161 0.023884136 -0.00985954 -0.026562829 0.005833584
-2.2841705e-05 0.03490142 0.004922205 0.0013322972 0.014561126 0.002406707 0.030396502 0.032609917
4.1528547e-05 0.011258574 0.019829642 0.046154115 -0.014798397 -0.02821993 0.002892288 -0.026109617
0.0009357156 -0.01612826 0.0033556023 -0.045246676 0.020389847 0.05981774 0.0039798557 -0.018521613
0.024490485 -0.021148335 0.020774752 -0.02031137 -0.018904591 -0.001805081 0.0013472296 0.011471359
-0.03834211 -0.0071301367 -0.010423989 0.0011868451 0.031601075 0.03514078 -0.025158247 -0.012254416
-0.012071905 -0.03135885 -0.026663158 0.039577916 0.014564075 0.02279945 0.013891516 -0.035899285
0.012098767 0.031331304 -0.011205364 0.028805647 0.004614869 0.031797618 -0.013921436 0.027355919
-0.032115493 -0.0012985406 0.0271284 0.023504285 0.04402736 0.03261754 0.020805925 0.028966032
0.03264753 0.007898027 -0.02175386 -0.016624555 -0.036883086 -0.017105924 0.032950547 0.031143185
0.001983285 -0.020055857 0.035088424 0.018037777 -0.017241739 -0.03198943 -0.006973695 0.007553736
0.019950366 -0.022490017 -0.04598944 -0.0009388537 0.016496653 -0.0316332 0.019698739 -0.049358755
0.012042094 0.000115949326 0.03180121 -0.043967616 -0.026343487 0.021121677 0.018458579 0.02129791
0.02099525 -0.023977313 0.023813594 -0.043152966 0.007450337 -0.03015332 -0.016662832 -0.0011518938
-0.026461259 -0.0069409707 -0.037928727 -0.031727444 0.008338886 -0.024683563 -0.02549121 -0.025279686
-0.023604805 -0.028830756 0.022934454 0.011771582 -0.0023698066 -0.025520451 -0.0060114237 0.004599108
-0.017932488 0.021758737 0.04381202 -0.037374675 -0.015870703 0.010890273 0.037457723 -0.010031569
0.006889662 0.03695041 0.02148001 0.024809979 0.043811433 0.027552888 -0.005722399 0.019707587
0.03818421 0.045835044 -0.01867906 0.038165115 0.008030938 -0.02011951 0.027638257 -0.023099504
-0.030991236 -0.03761546 0.018359978 0.016965775 -0.011110699 -0.008698879 -0.0026005856 0.057136778
0.021171963 -0.009480372 0.0015058012 -3.8928178e-05 0.03054303 0.008101552 0.006398591 -0.018979676
-0.005237176 -0.011173824 0.024496106 -0.0226627 -0.027797394 0.0034966655 -0.021283012 -0.03488603
-0.014154321 -0.013492513 0.0027965058 -0.007568712 0.009590812 -0.032288186 -0.018926814 0.011680786
0.016615277 -0.009955305 -0.029386094 -0.005615432 0.010648357 -0.03942285 -0.038232785 -0.0012571614
-0.037247285 -0.054121498 -0.047080867 0.027547479 0.005706058 0.03565429 0.04460244 0.009934099
-0.0031515325 -0.028242696 0.0051045325 0.027542342 -0.012669764 -0.012025059 -0.044306006 0.020424295
-0.023822641 0.03666053 -0.01768931 -0.03093106 0.02277465 0.008451941 0.038028546 0.0030927625
-0.038974017 0.022967795 -0.007069773 -0.002459896 0.0059956196 0.021594316 -0.042260703 -0.013949946
0.02977116 0.015884642 0.04150738 -0.015262827 -0.0027632683 0.030273192 0.019037936 0.042987354
-0.017519526 -0.011744373 -0.01453919 -0.024571829 0.026590675 0.028551303 0.028827103 -0.009085935
0.023300968 -0.016079936 0.040802747 -0.014085769 -0.04550951 0.009796177 0.04193403 0.0368542
0.046846997 -0.029665805 0.020311365 0.00095195725 0.013529598 -0.0020516193 0.008141301 0.013699576
00000000: c599 03bb 6b5b 17bd 0ce4 16bd 6b21 f53c
00000010: aaa8 c33c e889 21bc 4a9a d9bc a627 bf3b
00000020: 309c bfb7 cbf4 0e3d 734a a13b 7aa0 ae3a
00000030: ca91 6e3c d8b9 1d3b 1602 f93c fa91 053d
00000040: f02e 2e38 e275 383c c671 a23c 190c 3d3d
00000050: fa74 72bc 7c2d e7bc 8a8c 3d3b d6e3 d5bc
00000060: d04a 753a 6a1f 84bc aae9 5b3b 9454 39bd
00000070: 9c08 a73c 7203 753d 7369 823b a3ba 97bc
00000080: 45a0 c83c 463f adbc d02f aa3c 0864 a6bc
00000090: cddd 9abc 7898 ecba 8695 b03a 5ef2 3b3c
000000a0: 9e0c 1dbd eca3 e9bb 61c9 2abc ea8f 9b3a
000000b0: 2170 013d c7ef 0f3d ab18 cebc bfc6 48bc
000000c0: 3dc9 45bc 2372 00bd b26c dabc 741c 223d
000000d0: 289e 6e3c eac5 ba3c 3e99 633c 210b 13bd
000000e0: e839 463c 4155 003d b496 37bc d2f9 eb3c
000000f0: 5438 973b 383e 023d bc16 64bc 8519 e03c
00000100: 898b 03bd cb33 aaba 613c de3c 0f8c c03c
00000110: 0856 343d f899 053d 3071 aa3c 2c4a ed3c
00000120: 6bb9 053d ba66 013c 2735 b2bc 3830 88bc
00000130: b812 17bd b921 8cbc 27f7 063d fe1f ff3c
00000140: 00fa 013b 2e4c a4bc e1b8 0f3d f6c3 933c
00000150: 8c3e 8dbc 5907 03bd 9883 e4bb 5585 f73b
00000160: f36e a33c fc3c b8bc 6c5f 3cbd 681d 76ba
00000170: fd23 873c d091 01bd 405f a13c 682c 4abd
00000180: 344c 453c d229 f338 fc41 023d 6317 34bd
00000190: 4cce d7bc 5e07 ad3c 7236 973c f478 ae3c
000001a0: 3bfe ab3c 126c c4bc ba14 c33c 2ac1 30bd
000001b0: f521 f43b 1804 f7bc 7e80 88bc 24fb 96ba
000001c0: 48c5 d8bc 1571 e3bb 275b 1bbd a3f4 01bd
000001d0: d39f 083c 2f35 cabc f1d2 d0bc 5817 cfbc
000001e0: dd5e c1bc 7a2e ecbc 09e1 bb3c 98dd 403c
000001f0: c24e 1bbb 4410 d1bc 7afb c4bb 1db4 963b
00000200: 27e7 92bc 613f b23c 3c74 333d 3016 19bd
00000210: 4703 82bc 1e6d 323c 456d 193d 735b 24bc
00000220: acc2 e13b 5059 173d d9f6 af3c 4c3e cb3c
00000230: 9e73 333d 98b6 e13c f682 bbbb ce71 a13c
00000240: 0c67 1c3d 87bd 3b3d d404 99bc 0653 1c3d
00000250: 3294 033c acd1 a4bc a069 e23c 2c3b bdbc
00000260: 55e1 fdbc ab12 1abd aa67 963c cffb 8a3c
00000270: a609 36bc be85 0ebc 966e 2abb 4108 6a3d
00000280: d370 ad3c 9053 1bbc 4e5e c53a d046 23b8
00000290: 6035 fa3c 5fbc 043c 46ab d13b 447b 9bbc
000002a0: 9e9c abbb 6a12 37bc 0fac c83c 20a7 b9bc
000002b0: 5cb7 e3bc 5028 653b b659 aebc a7e4 0ebd
000002c0: 86e7 67bc b40f 5dbc 9545 373b f502 f8bb
000002d0: c822 1d3c 9e40 04bd 680c 9bbc c460 3f3c
000002e0: c31c 883c 931b 23bc 1bbb f0bc a801 b8bb
000002f0: 7276 2e3c db79 21bd fb99 1cbd 56c7 a4ba
00000300: 9c90 18bd 81ae 5dbd ded7 40bd 40ab e13c
00000310: e2f9 ba3b 3c0a 123d 0cb1 363d a2c2 223c
00000320: f189 4ebb 3a5d e7bc ec43 a73b 7aa0 e13c
00000330: d894 4fbc c104 45bc 377a 35bd da50 a73c
00000340: b327 c3bc 5a29 163d 2ce9 90bc 2263 fdbc
00000350: e791 ba3c 037a 0a3c d2c3 1b3d f2af 4a3b
00000360: 38a3 1fbd f526 bc3c 8ea9 e7bb 3536 21bb
00000370: e776 c43b 90e6 b03c 8f19 2dbd 508e 64bc
00000380: a6e2 f33c 8220 823c a403 2a3d f010 7abc
00000390: f317 35bb 7cff f73c 72f5 9b3c 8213 303d
000003a0: 1c85 8fbc 786b 40bc c835 6ebc dc4a c9bc
000003b0: b0d4 d93c 6ce4 e93c d126 ec3c 2cdd 14bc
000003c0: ace1 be3c 12ba 83bc c820 273d ffc7 66bc
000003d0: 2e68 3abd 2580 203c 04c3 2b3d 6ef4 163d
000003e0: a3e2 3f3d b405 f3bc 0564 a63c c58c 793a
000003f0: 3fab 5d3c 7674 06bb 1763 053c 3074 603c

bias f4 [64]
0.04929156 -0.036073633 0.055929173 0.016495615 -0.04278723 0.01722946 -0.0059391973 0.050625898
0.03322539 0.041095495 -0.039342795 0.011205017 0.025991032 0.09005929 -0.037540615 0.05166062
-0.0027214086 0.025966695 0.033602428 -0.06774204 0.003314112 -0.040229637 0.10499418 -0.05285342
0.0022672315 -0.015249025 -0.08509605 0.07446535 -0.003451798 0.024097696 0.008138537 0.02058592
0.05849927 0.07612399 -0.02141806 0.06128773 -0.015283619 0.08128189 -0.049502864 0.018183429
-0.031950917 0.0021287098 0.012360147 -0.009872408 -0.022765638 0.052771416 0.14339276 -0.005361602
-0.01112671 0.0024307235 0.0474188 0.041030973 -0.060430884 -0.045621168 -0.026695944 -0.06770736
0.025850542 -0.043438 -0.0015453325 -0.036376547 -0.0037423437 0.06579914 -0.09193596 0.04916375
00000000: f2e5 493d f2c1 13bd fd15 653d d021 873c
00000010: aa41 2fbd cc24 8d3c 999d c2bb 1a5d 4f3d
00000020: 5917 083d c053 283d e925 21bd 3f95 373c
00000030: 25eb d43c 0171 b83d 30c4 19bd 169a 533d
00000040: a959 32bb 1bb8 d43c b3a2 093d 57bc 8abd
00000050: 9331 593b d5c7 24bd 3007 d73d d47c 58bd
00000060: d595 143b 0cd7 79bc d646 aebd 4a81 983d
00000070: 9037 62bb 8868 c53c 8057 053c cea3 a83c
00000080: ee9c 6f3d e5e6 9b3d ed74 afbc d808 7b3d
00000090: 2568 7abc 1f77 a63d 84c3 4abd 6af5 943c
000000a0: f7de 02bd d381 0b3b 3782 4a3c e1bf 21bc
000000b0: 017f babc d726 583d 8dd5 123e 61b0 afbb
000000c0: ce4c 36bc c64c 1f3b 373a 423d 1810 283d
000000d0: 6086 77bd 43dd 3abd 74b1 dabc 28aa 8abd
000000e0: 84c4 d33c 0bec 31bd c18c caba 93ff 14bd
000000f0: 1c42 75bb b3c1 863d ec48 bcbd ee5f 493d

weight f4 [512, 64]
0.10137591 -0.12715867 -0.057444595 -0.092132956 0.091553584 0.10855781 0.087397404 0.12754251
-0.03824747 -0.028656049 0.039358806 -0.023272641 0.13736223 0.06427251 -0.05755398 0.100387596
0.11628442 0.09999473 0.054914027 -0.0051450236 -0.13183954 0.038719937 0.0327731 0.08578446
0.009679029 0.068492435 0.05820406 0.068128094 0.024689456 -0.14362893 -0.116215356 0.15269276
-0.071683556 0.06951145 0.071923 -0.08112627 -0.011543465 0.086163454 -0.08380657 -0.027644003
0.05176629 -0.033454385 0.043027226 0.0002728663 -0.085812725 0.0803483 0.1349319 0.13024545
-0.109244294 0.105071425 -0.068321966 0.025458891 0.07786533 -0.0074953726 -0.0113290455 -0.17170994
0.019455276 0.022635896 0.086978294 -0.10173311 -0.073038355 0.13159089 0.030587317 -0.031123564
0.10702675 0.02883688 0.12004046 0.09617959 0.033375643 0.06485459 -0.010221354 -0.029548068
0.11633096 -0.013172631 -0.039162338 -0.08996997 -0.049457327 -0.13632013 -0.10993539 0.046593275
-0.11944131 0.04509752 0.04361598 0.08589181 0.08120635 0.056134786 0.08945823 -0.14358693
0.06750104 0.104936644 0.10965028 -0.10829053 -0.10872968 0.104974285 -0.09138525 -0.12847091
0.02698249 0.037233315 0.11560382 -0.08677858 0.07230018 -0.017987946 0.021044277 0.06081048
0.09915044 0.010446792 0.057560716 -0.07903414 0.09386911 0.10814254 0.05960898 -0.087393165
0.10507869 0.02805801 0.05035856 0.056074683 -0.023354508 0.113363385 -0.080409065 0.12843657
0.029440857 -0.017747117 -0.13107309 -0.017046962 -0.10692652 -0.12393039 -0.08909786 0.09304585
0.054644883 -0.049739137 -0.02559539 -0.048946194 -0.0021525826 0.05546469 0.12667882 0.100300595
0.014874062 0.08016734 -0.06502638 -0.0053056814 0.031279426 -0.078419365 -0.010343737 0.020301651
-0.02745592 0.12451695 -0.11859971 0.05157985 0.085770115 -0.10377076 -0.10246995 -0.048272617
0.047175255 0.029069442 -0.029906712 -0.06778098 -0.08179785 -0.12374573 -0.06838299 0.12078642
-0.020073907 -0.010213327 -0.11182036 0.07917638 -0.052540876 -0.031135937 -0.060169436 0.01164504
-0.021793569 0.06640467 -0.030211166 -0.07698951 -0.071257755 0.0011372325 0.13335258 0.07104441
0.017749695 -0.08583866 0.133148 0.081065066 0.057920486 0.005455235 -0.049184356 -0.039634544
0.020412952 0.08201317 0.0055429186 0.055013426 0.011588939 -0.017482523 -0.021725632 -0.073957674
0.05163978 -0.03655395 -0.020786457 -0.11577884 0.031899076 -0.07463534 0.011240789 -0.018639442
0.12599318 -0.11502998 0.07136677 0.04530771 0.117225975 -0.113041356 0.09018798 0.066716984
0.0952317 0.10790836 0.100881785 0.03156146 -0.045667242 -0.033572167 -0.014835939 -0.014128218
-0.09525768 0.03424143 -0.10471529 -0.09871808 -0.033367023 -0.10672274 0.085992016 -0.04995818
-0.006974314 -0.08253601 0.011459526 0.007770893 -0.023209073 -0.104632646 -0.06043459 0.10253932
-0.04237511 -0.110538684 -0.056259308 0.09550349 0.025757197 -0.0153538985 -0.07644709 -0.11673672
0.07907491 0.0753767 -0.09828286 0.06818175 0.10675109 -0.034454197 0.07092537 0.10850948
-0.027987052 0.049737487 0.052013874 -0.09043178 0.047116093 -0.11830324 0.015571335 0.06934259
00000000: 2c9e cf3d e235 02be 064b 6bbd 34b0 bcbd
00000010: 7280 bb3d 8f53 de3d 69fd b23d 819a 023e
00000020: 61a9 1cbd 17c0 eabc b336 213d 44a6 bebc
00000030: afa8 0c3e 4ea1 833d b9bd 6bbd 0398 cd3d
00000040: 8726 ee3d 09ca cc3d 88ed 603d 9697 a8bb
00000050: f200 07be cc98 1e3d 163d 063d c3af af3d
00000060: ca94 1e3c c345 8c3d 6167 6e3d be86 8b3d
00000070: 8b41 ca3c 7613 13be 5102 eebd 7e5b 1c3e
00000080: d4ce 92bd 055c 8e3d 5e4c 933d 8825 a6bd
00000090: cd20 3dbc 7776 b03d c7a2 abbd ad75 e2bc
000000a0: e408 543d 7707 09bd 513d 303d 7f0f 8f39
000000b0: 95be afbd a68d a43d 972b 0a3e 105f 053e
000000c0: 79bb dfbd b02f d73d 63ec 8bbd 2a8f d03c
000000d0: dc77 9f3d be9b f5bb 769d 39bc bbd4 2fbe
000000e0: ac60 9f3c ea6e b93c ad21 b23d 7359 d0bd
000000f0: 2295 95bd c3bf 063e 4192 fa3c d8f6 febc
00000100: d730 db3d 523b ec3c c6d7 f53d cef9 c43d
00000110: e6b4 083d 7cd2 843d 7777 27bc ca0e f2bc
00000120: ed3e ee3d 05d2 57bc b068 20bd 2d42 b8bd
00000130: c493 4abd 8197 0bbe ce25 e1bd 97d8 3e3d
00000140: a59d f4bd 2db8 383d aba6 323d 0ce8 af3d
00000150: 844f a63d 97ed 653d e035 b73d 7408 13be
00000160: fc3d 8a3d 06e9 d63d 5390 e03d 6dc7 ddbd
00000170: abad debd c2fc d63d 3128 bbbd e18d 03be
00000180: 620a dd3c f681 183d b2c1 ec3d f8b8 b1bd
00000190: 1e12 943d 755b 93bc 0c65 ac3c 6914 793d
000001a0: 630f cb3d 0529 2b3c c9c4 6b3d a7dc a1bd
000001b0: 733e c03d d679 dd3d 8c28 743d 30fb b2bd
000001c0: 7f33 d73d e9d9 e53c c744 4e3d 91ae 653d
000001d0: f451 bfbc 102b e83d 82ad a4bd e084 033e
000001e0: f42d f13c 6762 91bc 0638 06be 12a6 8bbc
000001f0: 4bfc dabd 37cf fdbd f078 b6bd d38e be3d
00000200: 50d3 5f3d 44bb 4bbd 6cad d1bc ce7b 48bd
00000210: 5812 0dbb f12e 633d 18b8 013e 666a cd3d
00000220: 56b2 733c c62e a43d 8d2c 85bd 48db adbb
00000230: db1e 003d 559a a0bd c778 29bc a64f a63c
00000240: 3deb e0bc be02 ff3d 68e4 f2bd 6545 533d
00000250: 3ea8 af3d c485 d4bd c4db d1bd 82b9 45bd
00000260: d73a 413d 0a23 ee3c ecfe f4bc c1d0 8abd
00000270: a285 a7bd 676e fdbd 620c 8cbd df5e f73d
00000280: 0972 a4bc cc55 27bc 1302 e5bd 3a27 a23d
00000290: 1a35 57bd cb10 ffbc 3a74 76bd d6ca 3e3c
000002a0: 6d88 b2bc 2cff 873d 687d f7bc adac 9dbd
000002b0: 96ef 91bd 310f 953a 948d 083e bb7f 913d
000002c0: cf67 913c 2ecc afbd f357 083e 7105 a63d
000002d0: 083e 6d3d d4c1 b23b 8975 49bd d557 22bd
000002e0: 1039 a73c 85f6 a73d 5fa1 b53b c255 613d
000002f0: 89df 3d3c 8237 8fbc f4f9 b1bc 1f77 97bd
00000300: 3c84 533d 98b9 15bd 5c48 aabc 751d edbd
00000310: 9ba8 023d 6ada 98bd 492b 383c beb1 98bc
00000320: 5b04 013e d794 ebbd be28 923d 9494 393d
00000330: 2c14 f03d 3a82 e7bd 7ab4 b83d eaa2 883d
00000340: d608 c33d 0fff dc3d 1c9b ce3d 9746 013d
00000350: 930d 3bbd f882 09bd 7012 73bc 0b7a 67bc
00000360: 7516 c3bd be40 0c3d f874 d6bd b42c cabd
00000370: dcab 08bd 7491 dabd 951c b03d f3a0 4cbd
00000380: c988 e4bb a408 a9bd bcc0 3b3c faa2 fe3b
00000390: f420 bebc a449 d6bd 438a 77bd 2300 d23d
000003a0: 8691 2dbd 1b62 e2bd 2970 66bd 5597 c33d
000003b0: c200 d33c eb8e 7bbc 4b90 9cbd a913 efbd
000003c0: 07f2 a13d 195f 9a3d 8648 c9bd e0a2 8b3d
000003d0: 51a0 da3d d81f 0dbd 5241 913d 383a de3d
000003e0: 1a45 e5bc 89b9 4b3d 800c 553d 4c34 b9bd
000003f0: cefc 403d f848 f2bd ea1e 7f3c 7d03 8e3d

bias f4 [512]
0.12742934 -0.12368656 -0.08257631 -0.08176996 0.073016725 -0.090173304 -0.09500235 0.04295852
-0.083595805 -0.095877476 0.13702008 0.089748725 -0.09932098 0.042557757 0.026886309 0.06833115
0.08191712 0.12864892 0.052108742 0.021348357 -0.013442077 0.03690236 -0.040635865 0.11254007
0.11747758 -0.015350243 0.03510501 -0.103971526 -0.10002588 -0.08088063 -0.032634985 0.07847254
-0.007857738 -0.097762085 0.037502483 0.06993737 -0.13379267 -0.11645519 -0.051646657 0.030993786
0.03981268 -0.06870265 0.023961497 -0.009250747 -0.010303797 0.12380044 0.04887005 -0.012368036
0.04930113 -0.07690287 0.09950712 -0.0027271952 0.0740096 -0.035917915 0.033576865 0.07365182
0.07326257 -0.009091044 -0.060945865 0.06008679 0.110683724 -0.03651765 -0.020326335 0.011258608
0.09847435 0.045421172 -0.010298225 0.052412987 -0.04427471 -0.05019795 0.13522235 -0.09375783
-0.11245687 -0.0033714313 -0.113526285 -0.010684219 0.07439312 0.0050326516 0.02048386 0.124973655
-0.077526756 0.10085122 0.091027565 0.037891395 0.07000254 -0.09650147 0.020446423 -0.018963203
-0.056293998 0.030049568 -0.12312746 0.10846309 -0.11926424 0.14159024 0.0467354 0.104363635
-0.069242045 -0.06948671 0.030832523 -0.08458452 -0.0815191 -0.12244046 0.075890444 -0.0041122218
0.10096781 0.12264908 0.04758772 0.045337055 -0.080617286 0.049766876 -0.0018570276 -0.11809554
0.009922238 -0.12199079 -0.121977 -0.08832571 -0.05011346 -0.11039202 0.04050313 -0.11684616
0.02684365 -0.085433856 0.07353973 0.08319049 0.00895804 -0.12264437 0.081977755 0.05970732
-0.1085246 0.06122007 -0.10748898 -0.0977352 -0.018123139 -0.060112357 -0.05134316 0.08594334
-0.026288612 0.021041624 -0.121326804 0.009172039 0.036207665 -0.12290804 -0.052398205 -0.014769001
-0.11234712 -0.033429 0.110205404 0.14416602 0.16584755 0.12968113 0.15686016 -0.09102192
0.04331345 -0.103394955 0.11419382 -0.03319422 0.13219598 -0.011597704 -0.02705465 0.09232734
0.11410543 0.052654248 0.039951406 0.06855779 -0.08527628 0.009946255 -0.017299691 -0.08887622
0.045867223 0.042342827 -0.04883529 0.009762296 -0.117210105 0.13456526 -0.028810386 0.08323466
-0.10190335 0.022248227 -0.059871595 -0.12033319 0.13409117 0.048513997 -0.04281844 0.06790525
-0.101567104 0.12633666 -0.08609553 -0.020915095 0.076137304 -0.121666156 0.06998497 0.00933091
-0.036842518 0.05566377 -0.05996649 -0.02895198 -0.06755993 -0.030843047 -0.053408343 -0.05272928
0.04821808 0.051736824 -0.09019327 0.021543145 0.108417355 -0.054566484 0.055048782 -0.08995495
0.09656122 0.030962167 -0.05420612 0.10423717 0.002428142 0.046766058 -0.06982803 -0.013609629
-0.07157124 0.089959644 0.09721266 -0.058105335 0.019214835 0.032880016 0.0440688 -0.06925915
0.018412387 0.07218072 -0.09647989 -0.03218201 0.04117634 0.09347951 -0.027186628 -0.0715633
0.022762926 0.03442812 0.13176897 0.09445501 -0.0057031936 -0.015822487 0.043362007 -0.120866165
0.099237725 0.09570482 0.058360815 -0.08825582 0.013653022 0.087359205 0.074113324 -0.05151124
-0.03149436 -0.0726516 0.008909252 -0.120097324 0.099352345 -0.039710198 0.07897778 -0.037619617
00000000: d67c 023e 614f fdbd c51d a9bd 0277 a7bd
00000010: cb89 953d c8ac b8bd 9890 c2bd 46f5 2f3d
00000020: 4734 abbd 695b c4bd fe4e 0c3e 2ece b73d
00000030: cc68 cbbd 0b51 2e3d ad40 dc3c 34f1 8b3d
00000040: 2ac4 a73d 8bbc 033e fa6f 553d c0e2 ae3c
00000050: 283c 5cbc ee26 173d cb71 26bd 697b e63d
00000060: 1698 f03d 967f 7bbc 45ca 0f3d 06ef d4bd
00000070: 5eda ccbd bea4 a5bd 43ac 05bd 36b6 a03d
00000080: bebd 00bc 7d37 c8bd 349c 193d 533b 8f3d
00000090: f200 09be 0f80 eebd 728b 53bd aee6 fd3c
000000a0: 9f12 233d fab3 8cbd e74a c43c 7290 17bc
000000b0: 42d1 28bc 168b fd3d f62b 483d 4ea3 4abc
000000c0: fbef 493d 407f 9dbd 64ca cb3d beba 32bb
000000d0: 5892 973d aa1e 13bd e587 093d c4d6 963d
000000e0: b00a 963d 9af2 14bc 5fa2 79bd 911d 763d
000000f0: 26ae e23d 8893 15bd 6a83 a6bc 0676 383c
00000100: ecac c93d 8d0b 3a3d e3b9 28bc 00af 563d
00000110: 6659 35bd 5e9c 4dbd ba77 0a3e 1b04 c0bd
00000120: ca4f e6bd 3bf3 5cbb 7880 e8bd dd0c 2fbc
00000130: 6c5b 983d f1e8 a43b c5cd a73c 30f2 ff3d
00000140: 59c6 9ebd 168b ce3d a96c ba3d 0234 1b3d
00000150: 7e5d 8f3d 90a2 c5bd 427f a73c b858 9bbc
00000160: 8994 66bd 832a f63c 402a fcbd e621 de3d
00000170: cf40 f4bd 08fd 103e 9e6d 3f3d 9abc d53d
00000180: c6ce 8dbd 0c4f 8ebd 7d94 fc3c a63a adbd
00000190: 7cf3 a6bd 10c2 fabd 736c 9b3d d1bf 86bb
000001a0: 36c8 ce3d 712f fb3d 57eb 423d 59b3 393d
000001b0: ad1a a5bd 5ad8 4b3d 8267 f3ba 13dc f1bd
000001c0: e290 223c 4fd6 f9bd 14cf f9bd 1ce4 b4bd
000001d0: c543 4dbd 3615 e2bd 9ce6 253d 0a4d efbd
000001e0: 37e7 db3c f2f7 aebd ff9b 963d c75f aa3d
000001f0: bec4 123c f92c fbbd f4e3 a73d aa8f 743d
00000200: 2542 debd e5c1 7a3d 2f23 dcbd 6429 c8bd
00000210: fa76 94bc 6038 76bd 354d 52bd 1003 b03d
00000220: 375b d7bc 7c5f ac3c 307a f8bd 5246 163c
00000230: 7d4e 143d 36b7 fbbd 809f 56bd aef9 71bc
00000240: 3f16 e6bd d9ec 08bd 5fb3 e13d 42a0 133e
00000250: f1d3 293e 21cb 043e f39f 203e b369 babd
00000260: 7269 313d bcc0 d3bd 73de e93d aaf6 07bd
00000270: 625e 073e 4c04 3ebc b7a1 ddbc 1e16 bd3d
00000280: 1cb0 e93d fbab 573d 16a4 233d 0768 8c3d
00000290: 55a5 aebd 9ef5 223c 15b8 8dbc bc04 b6bd
000002a0: 45df 3b3d ac6f 2d3d 8307 48bd 0af2 1f3c
000002b0: da0b f0bd 7acb 093e c203 ecbc ef76 aa3d
000002c0: b4b2 d0bd ea41 b63c eb3b 75bd 3f71 f6bd
000002d0: 324f 093e 9db6 463d 6362 2fbd e811 8b3d
000002e0: 6a02 d0bd 665e 013e da52 b0bd 2256 abbc
000002f0: e0ed 9b3d 1b2c f9bd 4854 8f3d ace0 183c
00000300: 2ee8 16bd b1ff 633d 6c9f 75bd b42c edbc
00000310: dc5c 8abd 8faa fcbc b5c2 5abd a8fa 57bd
00000320: 5280 453d fee9 533d 40b7 b8bd 407b b03c
00000330: eb09 de3d 1b81 5fbd d57a 613d 4d3a b8bd
00000340: e4c1 c53d 5fa4 fd3c 3d07 5ebd 4c7a d53d
00000350: 7621 1f3b c48d 3f3d 0002 8fbd ecfa 5ebc
00000360: f193 92bd c33c b83d 6e17 c73d dcff 6dbd
00000370: 6e68 9d3c 32ad 063d 7c81 343d bed7 8dbd
00000380: 93d5 963c 7cd3 933d 4097 c5bd 49d1 03bd
00000390: 86a8 283d 2f72 bf3d 7eb6 debc c88f 92bd
000003a0: 5179 ba3c 8004 0d3d 72ee 063e a171 c13d
000003b0: dbe1 babb 299e 81bc 5c9c 313d ae88 f7bd
000003c0: 263d cb3d e300 c43d c00b 6f3d 78bf b4bd
000003d0: edb0 5f3c 62e9 b23d bac8 973d 73fd 52bd
000003e0: 3b00 01bd 5dca 94bd 1cf8 113c 96f5 f5bd
000003f0: 3e79 cb3d 29a7 22bd 1abf a13d 0717 1abd
