system/models/Cifar10/FedPer_FedAvgCNN_Cifar10_server.pt (torch, 31760 bytes, 4 tensors)

weight f4 [32, 3, 5, 5]
00000000: 84fa 24bd b486 e03d eaa7 0dbd 43b9 92bd
00000010: 73ef 30bc b253 05be dc47 8cbd b0a3 383c
00000020: bd74 edbd eddf 2cbd 11a2 8abe 1f37 13be
00000030: 59b4 98be c09e 92be 88c0 4cbe 783a e2bd
00000040: a587 623c 66ba 97bc 3bf7 46be 70c6 fbbd
00000050: 57e5 033d 6255 173e 6c08 9bbc 3e68 0c3d
00000060: f91d cbbb 05f2 933c 9ade 4f3e 7893 6abb
00000070: 4667 c4bc 6fe2 293d ce44 01be 7e8a fe3d
00000080: a837 8abd eb5a 9ebd 7a6c 93bd 09b1 76be
00000090: 91fe 92bd a7f8 e13c 687a 46bd 54dc 6b3c
000000a0: a3d9 1ebb 49c5 b73c 8074 2a3d cfe3 f3bd
000000b0: a94d 4dbd d88b 643c 1458 563e 16c0 1c3e
000000c0: 0cdc 01bd b7a0 a63d 21d2 063e ab1e 823e
000000d0: bf6a 543e e6c6 093e 74da 5b3e e243 9dbd
000000e0: d471 df3d 1f65 cebb 2ce0 9fbc 5b1a ec3c
000000f0: 2602 293b a431 f03d e84a 73bd 7683 a33c
00000100: 4d14 ca3d a22b 3e3d ed73 113e e318 d53d
00000110: f5b1 f13d c659 4b3e 6f59 ed3c 5f0c fa3d
00000120: dcad 1e3e d267 103e 9919 553e 2261 803e
00000130: 8ac0 353e 7c17 d43c 749a a53c c261 69bd
00000140: 29bd 0cbe d458 003e a862 393e 0eb8 47bd
00000150: 5fb2 263e 60fe 5dbe 01ae 7abe 6baf 99bd
00000160: e4ef 8d3e 7efb 2a3e 0c2e 893a 5631 3ebd
00000170: 249e 223d e738 17bd 4274 80be 2289 243c
00000180: b269 9a3d 770b 1abe 54d0 f6be bf24 c9be
00000190: 32d1 3f3e 6d9f 243e 56b8 353c 2c5f bcbd
000001a0: 46e0 25be 85de 66bd 3109 bfbd 247a 9dbc
000001b0: 2b3b e13c 18ac 0c3e f564 55be 1d08 f8bd
000001c0: 0659 2dbd 9eb1 c43e 7a83 bc3e 18ea 59bd
000001d0: 8535 41bd eb4f 843d c8b8 263d 6660 29bb
000001e0: 6e92 833e b264 163e e314 cdbd 6726 52be
000001f0: a188 98be 6dbd c7bd dafe c0bd 453d 1fbe
00000200: ea82 7cbe c47e 87be 84cf ddbd 7ab2 65bd
00000210: a243 e1bd adbd a9bd 95e9 de3d 654b 04be
00000220: 7af3 41be 302c 0fbd 5fa8 633e 2b27 9d3e
00000230: 1a9e 7e3e 9818 da3d 00e6 3e3e 1de0 de3c
00000240: d64a b1bd c19f ad3e e20e b93e cff4 ab3d
00000250: 73d7 35be c817 debd 47b1 2d3d 2492 1f3c
00000260: f51b 163d ee30 183d 4822 3e3c d293 873d
00000270: 19af 2e3e 263e 9abd c0c4 b0bd 14a7 09be
00000280: 252c 463e 944f f73d 6dea 84bd b00b 10be
00000290: 1960 ccbd f1dc 193e 5e5d 123d 38e5 143d
000002a0: 7615 14be 3601 3abd d479 343e c982 cebc
000002b0: 1c60 773d 55dd 063a 9c73 06be 6aab fc3d
000002c0: 94a8 c73b 6882 75bd 205a 503c 2a2d 4ebe
000002d0: 9739 d13d fefd b1bb 7353 ea3c b001 c2bd
000002e0: 370e e4bd d6d5 3d3e 5186 443d 9ce9 53bd
000002f0: 8eca 52be 6a82 e4bd 1909 483e fac8 f83d
00000300: c278 14be 57fb d5bd 82c1 59be 3c14 0cbd
00000310: 9b19 b4bd c3e2 81bd 96a9 3fbe 4b0a 02be
00000320: daba 073e e001 213e 00eb 8fbd 04f3 2cbe
00000330: fb53 43be 23ff 933e 8083 a33d e277 ca3d
00000340: bd8a a1bd 028e 1fbe 8056 933e 6ad0 373e
00000350: 10ac 813d 9c00 e7bd a745 27be 2218 913e
00000360: 164f c93d e70d ddbc 6bc2 f43c 46ed 45be
00000370: 354b 423e 0241 813e 3066 6c3d 06fc 1fbd
00000380: 5ae0 1fbe 49ac 8bbd c260 44be 2f6e b9bd
00000390: a412 d9bd aa03 10be 9dd8 d0bd d450 95bb
000003a0: 1e4f 1ebc 80e9 f53d a346 943a 24b7 43be
000003b0: fe28 e4b9 9d06 b8bd 6851 d3bc 8517 1c3d
000003c0: d415 9fbd 0d7f 033e 6b73 72bd 909c 423c
000003d0: 4a22 d43d e868 02be 8400 5e3e c26e 91bd
000003e0: 857a b33d 615c a23d 7f95 b1bd 29cc 21bc
000003f0: 58e3 df3d 2d63 d1bc 0998 cfbd f249 8ebd
-0.040277973 0.109631926 -0.034583963 -0.07164242 -0.010799277 -0.13020208 -0.068496436 0.011269495
-0.11594532 -0.04220574 -0.27076772 -0.14376496 -0.29825094 -0.28636742 -0.1999532 -0.11046308
0.0138262855 -0.018521499 -0.19430248 -0.12293708 0.032201137 0.14778665 -0.018924914 0.0342791
-0.0061986414 0.01805974 0.2029976 -0.0035793465 -0.023975026 0.04147571 -0.12623903 0.12428759
-0.06748897 -0.07732185 -0.07198425 -0.24090971 -0.07177461 0.027584387 -0.04845658 0.014395792
-0.0024238608 0.02243294 0.04161501 -0.119086854 -0.05012289 0.013949357 0.20932037 0.1530765
-0.031703994 0.08136123 0.13166095 0.25414023 0.20743845 0.1345478 0.21470052 -0.07678963
0.10910383 -0.0062986757 -0.019516073 0.028821161 0.0025788634 0.11728218 -0.059397608 0.019960146
0.09867153 0.04642833 0.14204378 0.104051374 0.11801521 0.19858465 0.02897331 0.12209391
0.1549601 0.14102104 0.20810546 0.25074106 0.17749229 0.025890104 0.02021525 -0.056977995
-0.13744034 0.12533885 0.1810404 -0.048759513 0.1627898 -0.21679068 -0.2448044 -0.075041614
0.27722085 0.16697499 0.0010465994 -0.04643377 0.039701596 -0.0369195 -0.25088698 0.010042461
0.07539691 -0.15043436 -0.48205817 -0.39285848 0.18732145 0.16076441 0.011091312 -0.0919784
-0.16198835 -0.056364555 -0.09327925 -0.01922328 0.027494034 0.13737524 -0.20839293 -0.121109225
-0.042321227 0.3841676 0.3681906 -0.053201765 -0.04717018 0.06460556 0.040703565 -0.0025844811
0.25697654 0.1468685 -0.100137495 -0.20522462 -0.2979174 -0.09752927 -0.09423609 -0.15550716
-0.24659315 -0.26463902 -0.10830596 -0.05607841 -0.10999228 -0.08288131 0.10884396 -0.12919386
-0.18940535 -0.03495425 0.22232197 0.30693945 0.24864998 0.10649222 0.18642426 0.027206475
-0.08656852 0.33910945 0.36144167 0.08396303 -0.17757969 -0.1084438 0.042405393 0.0097394325
0.036647756 0.037156038 0.011604853 0.06619991 0.17058982 -0.07531385 -0.08631277 -0.13442641
0.19352777 0.12075725 -0.06490026 -0.14066958 -0.09979267 0.15025689 0.035733573 0.036351413
-0.14461312 -0.04541131 0.17624599 -0.025208848 0.06039439 0.00051446754 -0.13130039 0.12337382
0.006093094 -0.05993882 0.0127168 -0.20134416 0.102160625 -0.0054318896 0.028604245 -0.09472978
-0.11135524 0.18538603 0.047979657 -0.05173646 -0.20585081 -0.11157687 0.1953472 0.12147708
-0.1449919 -0.1044833 -0.21265224 -0.034198985 -0.08793946 -0.063420795 -0.18717036 -0.12699239
0.13254872 0.15723372 -0.070272446 -0.16889578 -0.19075005 0.2890559 0.07984066 0.09886147
-0.0788779 -0.15581515 0.28776932 0.17950597 0.063316464 -0.11279413 -0.16335164 0.28338724
0.098295376 -0.026984168 0.029877862 -0.19328794 0.18974002 0.2524491 0.05771464 -0.039058708
-0.15612927 -0.0681997 -0.19177535 -0.09054219 -0.105992585 -0.14063898 -0.10197566 -0.0045567546
-0.009662418 0.12007427 0.0011312555 -0.19112831 -0.0004351809 -0.089856364 -0.025795653 0.038108367
-0.07767835 0.12841435 -0.059192102 0.011878148 0.103581026 -0.12735331 0.21679884 -0.071012035
0.08763603 0.07927776 -0.08671092 -0.009875336 0.10932034 -0.025559986 -0.1013642 -0.06947698

bias f4 [32]
00000000: 668b e93e edbe c73d fbad 42bd 4eee be3e
00000010: 8351 26bd 8498 95bd 0680 cbbd 8c60 c1bd
00000020: c467 48be 9742 2bbe 5088 abbe 972d 733e
00000030: c6cf c3be c616 f4bd f859 ea3e 27db 91bd
00000040: f7d3 e8bd 15bd 3fbe 0568 16be 390d c13e
00000050: ce20 7abc 0d8a 52be 33e4 92be 532c 42be
00000060: 60ba ed3e 7002 c8bd 907c bbbe 6cb5 8ebd
00000070: 4bc9 593c edb5 2f3e 14ee b53e 7248 6d3e
0.45614165 0.09753213 -0.047529202 0.37291187 -0.04060508 -0.07304481 -0.09936528 -0.09442243
-0.19570833 -0.16724621 -0.33502436 0.2374786 -0.38244456 -0.11918406 0.45771766 -0.07121878
-0.11368554 -0.18724473 -0.14688118 0.377054 -0.01526661 -0.20560475 -0.28689727 -0.18962221
0.46431255 -0.0976609 -0.3661847 -0.06968197 0.013292621 0.17159243 0.35533202 0.23172167

weight f4 [128, 32]
00000000: 556b d8bc c39a 713e 8fef 7d3e 7af3 253e
00000010: 476a 0c3e 9b9d cabc 3e01 e2bd 8691 403d
00000020: 5645 393d e5e6 ce3c 9203 37bd 948c 31be
00000030: f9da 5dbe da2f 2c3e 177d 42bd f23d 2c3d
00000040: 9ff4 efbd 4d6a 70bd bd69 17bc 27ea b83d
00000050: 2584 a7bc e48f 0abe fbf4 2e3e c94e c2bd
00000060: 0944 d0bd 5a4f 99bc ec65 6b3e 1cc3 893d
00000070: cbfd 8abc 2a62 ceb9 44a1 3e3e 7230 13be
00000080: 5091 f43d d0bc 2c3d c752 a13c 7b3d ca3c
00000090: 020f dfbd 42b1 063e 4e1c be3d a3ab 0dbe
000000a0: 9d51 28be 3551 3abd 0e40 f03d 5276 b2bd
000000b0: 84d1 273e 8a8a b5bd 0eb2 22be 411e a23d
000000c0: a0e5 dabd f6a2 e3bc 25e6 61bd b5cd 6abc
000000d0: 7d5e 1dbe b101 26be d5c1 9b3d 4e31 a3bc
000000e0: 51fb dabd 9a88 91bb 2a1c 25be e15f 403d
000000f0: 9110 ac3d 9054 303e a485 13be 3b25 afbc
00000100: b0c5 8c3d fc39 913e 30ca 97bd 3c87 ea3d
00000110: 96e1 313d 96fb 0a3e 299c 1bbe 7b6a 0d3e
00000120: 9d86 10be 8d3e 33be d93c a93c 483b e73d
00000130: 0dd7 71be 0b2b 273d 6fce 6bbd 4d7a 563d
00000140: 2643 d53d 19b0 5d3d ce2f 22be 4f9f 1ebd
00000150: 3be7 813d 5b9e 43be e879 5bbc 3aa0 e5bd
00000160: 19f3 973b e175 2b3d 6c0d ffbd b653 93bd
00000170: 50a6 6e3d a464 43be 18aa 5c3e 5e8c 28be
00000180: 5023 d5ba d81e 133d a048 913d 08dd e0bd
00000190: 90ce bf3c 7904 a63d a74b 223e 2cad 06be
000001a0: 2d17 b4bd ce34 563d 1677 9dbb 08cd ebbd
000001b0: a720 17be 17c4 1fbe 963a fabd 76ed 99bd
000001c0: 3184 fabd dbef 1dbe f96a da3c e83c d13d
000001d0: 284c a7bd e4f7 cb3c 5b0c 00ba 8dfc af3d
000001e0: fbbe f3bd 045a 133c 8446 293e 02ad 013e
000001f0: 54a9 31be 5a25 d1bc 2e2c 8b3c cca2 65bd
00000200: cab6 aebd 084e 1ebe c44d 0c3e 5e84 8fbc
00000210: bf53 dcbc ff85 9e3d 5b90 d6bd ec5e 773c
00000220: ac8e 063e 8cca 78bd 8e8c dc3c 9f29 733d
00000230: d4ed 493e 9a6a 363e 10a7 e53d a5b4 063d
00000240: c156 08be b847 a93d 8dad 073e 0d4c 4ebd
00000250: fce5 03be 3042 113e d6a5 10bd 2048 7d3d
00000260: d601 36bd ad33 023e c2e0 293e 1a96 913d
00000270: 35bb 91bc 0853 3b3e 378d ca3d f522 223d
00000280: 00c6 11be 5e00 9cbd 3e45 33be 20e3 ee3d
00000290: face 313e 64e7 cc3d 9c70 663d 1f52 2a3d
000002a0: b72b 2e3e 0985 b7bd be1f 73bd 2fca 22be
000002b0: 4cb8 8fbc dcfb 443c 61a1 333d 9922 fdbd
000002c0: 5604 a8bc f294 15be a66b 14be 8e37 c13c
000002d0: ac5b 33be 09f8 3f3d 2002 27be 063d fcbd
000002e0: f9eb 16bd 8ec8 2cbe 770d 123e 91a9 123e
000002f0: 6418 bfbd c2b8 113d b08a b43d 9ece 613d
00000300: c0e7 c8b7 9e9d 1cbe aeda f13d 49f9 24be
00000310: d909 15bd c2d0 973b 6cd7 b4bc b2ca 96bd
00000320: 5cd9 29be 8233 163c d861 a3bb 3a76 3e3e
00000330: 4deb 64bd 7022 043e c5c6 c2b9 da54 82bd
00000340: 24aa a4bc 8d36 1e3c f010 2a3d faa4 ecbc
00000350: 17c2 0d3d 012a 593e 8dec f63c 9e8c c73d
00000360: 8e4c 1d3e 52ca 183d 654c ea3d 08a0 f33d
00000370: 84bc 4d3e 93b7 26be a477 b03d 9938 063d
00000380: 38eb d1bd 5e25 1cbe 2177 6a3e 3cf4 8a3e
00000390: a6e7 0cbe 8a05 573e 24df 443e 3475 213e
000003a0: 2a03 7dbc 6ffe 433e 1d53 e23d 0524 13bd
000003b0: 4a00 d33b 92e6 933d 4882 653e d5ef 8abc
000003c0: 800a 1f3a 5a19 41bd 8da7 0cbe f242 a0bc
000003d0: d434 9b3e b33c 783d 188a 4cbd c0a7 163d
000003e0: 5dd6 1cbe 44a2 c3bd 46f3 77be cfeb 013e
000003f0: af3b 50be e6fe ab3d 0e49 d5bd bdbd 9ebb
-0.026418367 0.23594193 0.24798416 0.1620616 0.13712417 -0.024733355 -0.11035393 0.047013782
0.04523214 0.025256583 -0.04468114 -0.17338783 -0.21665563 0.16815129 -0.047482576 0.042051263
-0.1171658 -0.058695126 -0.009241519 0.09029036 -0.020448754 -0.13531452 0.1708564 -0.09487683
-0.10169227 -0.018714596 0.22988099 0.06726667 -0.016966721 -0.0003936452 0.18616205 -0.14373949
0.11941779 0.042172253 0.019692792 0.02468752 -0.108915344 0.13153556 0.092827424 -0.13835005
-0.16437383 -0.0454876 0.117309675 -0.08713974 0.16388518 -0.08864315 -0.15888235 0.07915927
-0.10688329 -0.027787667 -0.055151124 -0.014331271 -0.15368076 -0.16211583 0.0760533 -0.019920971
-0.10692466 -0.004441333 -0.16124025 0.046966437 0.08401597 0.17219758 -0.14406449 -0.021380058
0.068736434 0.2836455 -0.07411611 0.11451575 0.043428026 0.13572535 -0.15196289 0.1381015
-0.14113851 -0.1750433 0.020658897 0.11290604 -0.23617192 0.040812533 -0.057569917 0.05236273
0.10413198 0.054123018 -0.15838549 -0.038726147 0.06342932 -0.19103377 -0.013395764 -0.112122014
0.004637134 0.041860465 -0.12453732 -0.07193701 0.058264077 -0.1908136 0.2154926 -0.16459796
-0.0016261134 0.035918087 0.0709393 -0.10979658 0.023413926 0.08106322 0.15849172 -0.13151997
-0.08793483 0.052296452 -0.004805456 -0.11513716 -0.1475855 -0.15602146 -0.12218206 -0.07515995
-0.12232245 -0.15423529 0.026662337 0.10216695 -0.081688225 0.024898477 -0.00048846536 0.08593092
-0.11901661 0.008993629 0.16530806 0.12663653 -0.1734975 -0.025530506 0.01698884 -0.05606346
-0.08530958 -0.15459454 0.1370154 -0.017519172 -0.026895402 0.077404015 -0.10476752 0.015098315
0.13140363 -0.06074004 0.02692249 0.059365865 0.1971963 0.17814103 0.11213505 0.03288712
-0.13314344 0.082656324 0.13249798 -0.050365496 -0.12880701 0.14185405 -0.035314403 0.061836362
-0.044435345 0.12715025 0.16589645 0.07108708 -0.017789463 0.18293393 0.09890216 0.03958412
-0.14235687 -0.076172575 -0.17506883 0.116644144 0.17364112 0.10005072 0.056259736 0.041582223
0.17008863 -0.08960921 -0.059356444 -0.1589744 -0.017543934 0.012022939 0.043855075 -0.123601146
-0.02050988 -0.146076 -0.1449419 0.02358606 -0.17515439 0.046867404 -0.16309404 -0.12316327
-0.036846135 -0.1687338 0.14262949 0.14322497 -0.09330824 0.03557659 0.08815515 0.055128686
-2.3949775e-05 -0.15294501 0.11809288 -0.1611072 -0.036386345 0.00463304 -0.022075377 -0.0736288
-0.16586822 0.009167554 -0.004986029 0.18599787 -0.055888463 0.12903762 -0.00037150658 -0.063638404
-0.02010066 0.009656561 0.04152006 -0.02888726 0.034608927 0.2120743 0.030142093 0.097436175
0.15361235 0.037302323 0.11440352 0.11895758 0.20091444 -0.16280966 0.0861657 0.03276882
-0.102499425 -0.1524863 0.22897007 0.2713946 -0.13760242 0.20998207 0.19225746 0.15767366
-0.015442649 0.19140027 0.11051009 -0.035923023 0.0064392434 0.07221712 0.2241298 -0.016960064
0.0006066933 -0.047143318 -0.1373579 -0.019563172 0.30313742 0.060604762 -0.049936384 0.036781073
-0.15316148 -0.09552434 -0.24213895 0.1268761 -0.20335267 0.083982274 -0.10414325 -0.004844396

bias f4 [128]
00000000: ea1c 8cbd 40a8 d5bd 6061 3a3e 8abf a23d
00000010: 0cb8 a53e 84d5 2cbe 1037 e5bd 3588 ae3e
00000020: ccb6 4d3e 0b3a a53e a65c 90bd 7e15 cf3e
00000030: 770e df3d 620e 8abd 9841 1cbe 4496 1c3e
00000040: 8d94 8b3c 1e20 bbbc d708 f2bd a8bd 983d
00000050: d7c1 393e 509c e23e d2dc 043e fc91 cdbd
00000060: 1352 62bd 1ea4 f5bd 6e06 ac3e d89f 1dbe
00000070: 2c4e aabd 62a1 953e 1f64 a53e 7c77 3abe
00000080: 45a1 9fbc 643d 3c3d ce8b 563d eec4 c8bd
00000090: f6df 11be 0050 03be 6cb6 7b3d 910c a0bd
000000a0: 7924 3abe 1b13 943e a9c7 043e 1409 43bd
000000b0: 5a60 483e 0400 c53b a8ba aabd 9c60 21be
000000c0: aeb8 123e a801 27be 3dcb e3bd 88e2 713e
000000d0: 7628 7cbd 3b9e 69bd 7152 3e3c e4c5 21be
000000e0: e217 13be 1564 12be 1bae be3d 8130 a9bd
000000f0: 3db7 e63e ab7c ed3d 8035 c03e 55ab 60be
00000100: a0d2 d4bd c761 da3d bca0 003e 4734 f2bd
00000110: c772 953e 91bf b9bd b6ca cb3e 6734 10be
00000120: f066 4c3e e72c c93c a20f 0cbe 6935 a23e
00000130: a83d 74bd 8729 3c3b 22c1 9bb9 dc86 beba
00000140: 4573 39bd c3de e03d 18dc bcbc 1f98 803e
00000150: dcbe 5f3e 2f5e 873d d4bd 1a3e 0f6b 66bd
00000160: d8f3 2fbe 8484 dbbd 06d3 02be 96f5 f5bd
00000170: e3ae 0f3e 3728 6dbc bc30 383c 357b 7f3e
00000180: b5c3 7c3e bcbd ca3e 411e 123e bed2 0a3c
00000190: 729f 833e 75e6 13be 71ac 663c 257c 103e
000001a0: c3d5 373e 6a55 153d db20 823d b6df 5a3e
000001b0: 6c26 af3d ec85 0b3d 470e ad3e c8b9 9e3e
000001c0: 4356 08be 6a70 a53e 40a0 b23c b761 7f3d
000001d0: 5a01 bb3e c53d b7bd 2aad 363e 062d 713d
000001e0: eb97 a7bd b034 ed3b 0a9d a33e 4f86 6f3e
000001f0: f0e6 f8bd 8b27 a23e 90f0 b63d 016f 6a3e
-0.068414524 -0.10432482 0.18201208 0.079466894 0.3236698 -0.16878325 -0.11192143 0.34088293
0.20089263 0.32270846 -0.07048921 0.40446085 0.10891431 -0.067410246 -0.15259397 0.15291697
0.017038608 -0.022842463 -0.11818092 0.07458049 0.1814035 0.44259882 0.12974861 -0.1003761
-0.055254053 -0.119941935 0.33598655 -0.15393007 -0.08315691 0.29224688 0.3230295 -0.18209642
-0.019486079 0.045956984 0.052379422 -0.09803186 -0.1424559 -0.12823486 0.061453268 -0.07814897
-0.18177976 0.28920826 0.1296679 -0.04761608 0.19568005 0.0060119648 -0.08336383 -0.1575951
0.14328262 -0.16309226 -0.11122749 0.23621571 -0.061562024 -0.057035666 0.011616335 -0.15798146
-0.1436458 -0.14295991 0.09310552 -0.082612045 0.45061675 0.11596044 0.37540817 -0.21940358
-0.10391736 0.10663181 0.12561315 -0.11826377 0.2918913 -0.090697415 0.39803094 -0.1408249
0.19961143 0.024557544 -0.13677838 0.31681374 -0.059629112 0.0028711276 -0.000297078 -0.0014536041
-0.045275945 0.109799884 -0.023054168 0.2511606 0.21850151 0.06609761 0.15111476 -0.056254443
-0.17182863 -0.10718635 -0.12775812 -0.120097324 0.14031558 -0.01447492 0.011242088 0.24949344
0.24684031 0.3959788 0.14269353 0.008473096 0.25707585 -0.14443381 0.014079199 0.14109857
0.17952637 0.03645841 0.06353923 0.21374401 0.0855225 0.034063265 0.33799955 0.31001115
-0.13314156 0.32312328 0.021804929 0.062349048 0.3652447 -0.089473285 0.17839494 0.05888083
-0.08183273 0.007238947 0.3195575 0.23391078 -0.12153423 0.31670794 0.089326024 0.22893907
