system/models/Cifar100/CNN/FedPer_BaseHeadSplit_Cifar100_client_4.pt (torch, 726826 bytes, 10 tensors)

weight f4 [32, 3, 5, 5]
00000000: 304e b93e d0cd 383f 5bda adbe 4fa4 5fbf
00000010: 2fa2 08bf 429a 023f f37b 683e 257c 0fbf
00000020: 2e66 28bf 7c65 53bd 07a8 ffbc 0671 ebbe
00000030: 92f7 d0be 5485 b43d 2e75 763e dcb8 09bf
00000040: df71 b6be fd62 113f f166 1b3f 2983 8a3e
00000050: 4dab afbe 69e6 103e 6380 3c3f e6d8 3b3f
00000060: 709b 353e c9fe 533e cf15 2b3f 5e9e c3be
00000070: c2a7 5bbf 153b 04bf 7612 583e 3f3d 213e
00000080: 06f4 59bf 2e7f 4cbf cf2c 7fbe a6a0 abbe
00000090: a4ac 37bf c4d9 d5be 5161 02bd 33bc f53d
000000a0: ab28 47bf 967d 35bf c78a 513e 85af 513e
000000b0: ef14 90bd b1f4 36bf 9167 33be c748 ed3e
000000c0: 4fa8 473e 46ee f6bd 3116 2b3f f628 903f
000000d0: ea9f 923e 376f 78be 7f79 9a3d 4b4c 233f
000000e0: 0288 1e3f c4b4 9dbe c716 abbe 00c3 483e
000000f0: 330d 743e 327a 03be 20ee 06be 062b ae3e
00000100: c317 f33e e024 e7be 541e 92be ce99 053f
00000110: 098d 283f abe1 d23e 0b19 f3be ccef 19bd
00000120: 7399 293f 24f8 0f3f a0f1 793e 2abf c93e
00000130: c796 d33c f677 c1be 9f8c 043e 1ccc d63e
00000140: e40d 993d 953d d7bd abcd fdbe d73a fb3c
00000150: 2bc9 433f 8a24 80be fdbd 82be c456 b0bd
00000160: 77d5 aa3e cb8e 07bd e55c 04bf 1fdc 763e
00000170: e362 883f b14d edbd 8dc8 aebf 9b4b dcbe
00000180: 7c4e c63e 4180 273f 484e 3dbf b775 b5bf
00000190: 9a79 473e c75b bebd ee7f d7be 8e63 abbb
000001a0: a008 973e e771 243e 7824 8dbe f8d1 1abf
000001b0: 4eb5 5a3e fbb6 563f 1f60 3cbe 9c8e 4cbd
000001c0: cf88 a43c 0ab5 173f c7ed b73e 3c9a e1be
000001d0: e9d2 af3e b398 963f 2c6e 4e3e d66d 4bbf
000001e0: a55e ed3c 5fc3 233f 81e1 673f 7d51 03be
000001f0: ccc7 6dbf c13a 6dbe 7ff2 f1be cd62 2ebf
00000200: fb26 c5be aa73 06be 36ff 953c f305 b3be
00000210: bce6 49bf 6940 bcbd 6d3c 083f bc08 36be
00000220: 67ce 78be 8d8d f9bd 307a 863e 2be2 133e
00000230: 4743 48be 850d b93e 56e4 8d3f 36fc 823d
00000240: 70b8 74bf 007c 553c b689 383f d7ae 743f
00000250: 4f26 53be 63d9 5ebf c8b3 8dbe 8a88 c4be
00000260: 5b44 a7be deb4 80be 5f8f 8fbe 8ee0 52be
00000270: f067 c4bd 104b b0be d132 a0be 7cce bcbe
00000280: bffc a63c 16a0 acbd 0ef8 aebe 7dd3 b0be
00000290: 484a a2be 26b8 743d 4242 9abd b848 57be
000002a0: 479d c3be dc3a 9dbe fe7c c63d d601 0cbe
000002b0: 6c20 74be 9b81 b8be 0682 fdbe be20 903d
000002c0: b7d6 0cbe b8ca 54be 9d04 a9bd 98e4 adbe
000002d0: 4b59 dd3d 4aed b0ba 28a9 7dbc 13f4 0ebe
000002e0: 5726 52be 0343 9e3e 84dc 0d3e a2fc 88bd
000002f0: 15db 4ebe 9f55 20be b2f5 c63e 86b2 9a3e
00000300: 4445 e0bd 9be6 ccbd ee78 86be 8e5a 303e
00000310: 4274 c83d 5e35 69bd a824 8ebe 862b 7ebe
00000320: 2e3b 7f3c c2e7 0abd f244 52be fe70 57be
00000330: 0b08 87be 5c6e 3e3e bbab 01bc e4a3 063d
00000340: 45d2 babd 00b4 4abe b0d4 833e bec1 0a3e
00000350: 079d e0ba 3a9e cdbd 7312 33be 44f6 8f3e
00000360: 318b eb3d 8a27 49bd 646d 0e3d fba4 58be
00000370: 6799 813e 75ae a43e 4af6 433d 144e afbd
00000380: a519 5ebe 3022 35bf e2b7 a4be 87cd f93c
00000390: 6dbb 7b3e 3423 d23e a099 3ebf 3d60 9cbe
000003a0: eaca 603d 7736 153f 1e38 223f 09ff 3dbf
000003b0: 3a4d d5be 7565 22be 46c9 ea3e d834 2f3f
000003c0: 7105 02bf 5b1d 96be 2716 4fbe eb49 8b3e
000003d0: 3572 123f 9453 41bf 0b39 abbe 6de2 adbe
000003e0: 923e 46bd 2a5d 8b3e 3a53 94be 7bf2 063e
000003f0: c7d1 833e 739d 1e3e 7989 3c3e f03d 8bbe
0.36192465 0.72189045 -0.33955655 -0.8736009 -0.5337247 0.5101663 0.22703533 -0.56048805
-0.65780914 -0.051610455 -0.031208051 -0.45984668 -0.4081388 0.08814493 0.24068138 -0.537977
-0.35633752 0.5679167 0.6070395 0.27053192 -0.3431038 0.14150394 0.736334 0.73377836
0.17735076 0.20702662 0.6683015 -0.38206762 -0.85802853 -0.5165265 0.21100792 0.1574602
-0.85137975 -0.7988156 -0.24919437 -0.33521003 -0.71747804 -0.41767704 -0.03183109 0.11998787
-0.7779643 -0.70894754 0.20463096 0.20477112 -0.07035243 -0.7146712 -0.17519976 0.46344587
0.19497798 -0.12057166 0.66830736 1.12625 0.2863763 -0.24261175 0.07542705 0.6378829
0.6192628 -0.30801976 -0.33415815 0.19605637 0.2383316 -0.12839583 -0.13176775 0.340172
0.47479066 -0.4514532 -0.28538764 0.5218781 0.658402 0.41187796 -0.47480044 -0.037582204
0.6624977 0.5623801 0.24408579 0.3940366 0.025828732 -0.37786835 0.12944268 0.41952598
0.074733526 -0.10509793 -0.49570975 0.030667705 0.7647883 -0.25027877 -0.25535575 -0.08610299
0.33365986 -0.033095162 -0.51704246 0.24107407 1.0655178 -0.11587084 -1.3654953 -0.43026432
0.38731754 0.65430075 -0.7394757 -1.4176549 0.19479981 -0.09294849 -0.4208979 -0.0052303737
0.29498768 0.16059075 -0.27566886 -0.60476637 0.21358225 0.83872956 -0.18396042 -0.04994069
0.020084767 0.5926062 0.35923597 -0.44062984 0.343406 1.176535 0.20159215 -0.7946447
0.028975794 0.6396999 0.90578467 -0.12824054 -0.9288299 -0.23166944 -0.47255322 -0.6811951
-0.38506302 -0.1313006 0.01831017 -0.34965476 -0.788677 -0.09191973 0.532172 -0.1777677
-0.24297486 -0.12185202 0.26265097 0.14441745 -0.19556914 0.36143127 1.1085308 0.06395762
-0.9559393 0.013030052 0.7208513 0.95579284 -0.20620082 -0.87050456 -0.27676225 -0.3838542
-0.3266934 -0.2513799 -0.2803907 -0.20593473 -0.09590137 -0.34432268 -0.3128877 -0.36876285
0.02038419 -0.084289715 -0.34173626 -0.34536353 -0.31697297 0.05974593 -0.07532169 -0.21023834
-0.3820593 -0.3070897 0.09691809 -0.13672575 -0.23840493 -0.3603638 -0.49513263 0.07037495
-0.13753782 -0.20780456 -0.08252833 -0.33963466 0.10808047 -0.0013498452 -0.0154822245 -0.13960294
-0.20522438 0.309105 0.13853651 -0.06688811 -0.2020076 -0.15657662 0.38859326 0.30214328
-0.10950711 -0.10004922 -0.26264137 0.17222044 0.097877994 -0.05693566 -0.27762341 -0.2482129
0.015578074 -0.033912428 -0.20534113 -0.21039197 -0.26373324 0.18596786 -0.007914479 0.032871142
-0.09122137 -0.19795227 0.25748205 0.1355047 -0.0017136642 -0.10039945 -0.17487507 0.28117573
0.11501158 -0.049109973 0.03477229 -0.21156685 0.2531235 0.3216435 0.0478423 -0.08559814
-0.2168947 -0.7075529 -0.3217154 0.03049351 0.24583216 0.41042483 -0.74453163 -0.30542174
0.054881014 0.5828623 0.6336688 -0.7421728 -0.41660482 -0.15859015 0.45856684 0.6844001
-0.5078955 -0.2931927 -0.20223294 0.27204832 0.57205516 -0.75518155 -0.33441958 -0.33961812
-0.048399515 0.27219516 -0.28969747 0.13178436 0.25745985 0.1548975 0.18411817 -0.27195692

bias f4 [32]
00000000: fba9 d8bf a528 05c0 08ea 46c0 1799 cdbf
00000010: 12c7 b9bf 8d1f dfbf 0675 30bf 9d85 53bf
00000020: f437 abbf 1432 35bf ef9a 4ebf c960 85bf
00000030: fb44 a0bf ff45 b8bf 6d7c 16c0 81f0 05c0
00000040: d197 fabf b345 9abf 8274 1bc0 145c 99bf
00000050: d918 b0bf a386 cabf 9cd9 c5bf a972 e0bf
00000060: 19fe 5cbd e194 c3bf b20c 01c0 52e5 38c0
00000070: 8c60 c5bf bd51 a5bf 77b0 0ac0 1594 b7bf
-1.6926874 -2.0806057 -3.1080341 -1.6062344 -1.4513876 -1.7431504 -0.68928564 -0.8262575
-1.337645 -0.7077954 -0.8070516 -1.0420161 -1.2521051 -1.4396361 -2.3513443 -2.0928042
-1.9577581 -1.205252 -2.428986 -1.1981225 -1.3757583 -1.5822338 -1.5457034 -1.7534992
-0.053953264 -1.5279809 -2.0163999 -2.8889966 -1.5420089 -1.291557 -2.1670206 -1.4342066

weight f4 [64, 32, 5, 5]
00000000: 1ba7 893e 59f9 943e b3a8 2f3e 7e89 eebb
00000010: 2339 bcba 57fd 6dbd 0b87 dcbd 1eb0 b8bd
00000020: a93b afbd f023 be3a ac90 aabd 6175 0fbe
00000030: b0e0 eebd 9d16 2ebd e32d cd3c c602 deba
00000040: bebe 2ebd 5d19 a8bd ba22 8d3c f715 7c3d
00000050: 304d 4b3e a30b 693d 8b22 6ebc 3eda 4d3c
00000060: 52b8 453d 20b8 e1bd 19c9 07be b709 053d
00000070: f172 6d3e b749 de3e 735a 55be 0f84 62be
00000080: b49f d6bd ab38 753d 1f23 663e 2bc0 2bbe
00000090: 5dd8 67be 0763 f2bd 84e4 cbbd ec9e 533d
000000a0: 86a5 98bd e51b 23be dead 9ebd 0d9f c3ba
000000b0: d06c 703d b8d8 4bbe 4675 4abe cacd a5bd
000000c0: 14d6 9a3d 9c3b 813e f45a 03be 6671 39be
000000d0: deb9 40be e5c4 a3bd f151 143e 8a35 b5bd
000000e0: 0bb8 02be 80bf d8bd a4f8 35be f96c 8cbd
000000f0: 7dd5 c3bd d8d4 9ebd 8db8 ffbd c7b4 21be
00000100: f065 57be 3992 bdbd 0756 2abe d487 b8bd
00000110: 6f17 dbbd 6d43 2bbe ae06 cbbd 1730 eebd
00000120: cbfc 14be d1af c3bd 0a87 2abc e8cf 9e3d
00000130: 1038 0bbd 124a 04be 7b2f 3dbe 6f0c 3d3d
00000140: 9483 433e bee7 a33c 249e fabd d7bb 2cbe
00000150: b3ca e53c c78e eb3d 8a26 e0bd 471d 49be
00000160: bda8 38be fc39 d13c 6d43 bd3c bedd 87be
00000170: bb68 84be 0449 7fbe 3135 423d 9abc 013e
00000180: 3a09 07be 17fb 9bbe 2f15 38be 7122 34bd
00000190: 94d2 17be c28b 02be 8ffe 1fbd 3073 8ebc
000001a0: 7937 863e 7d18 eabd 9f14 18be 1074 4dbe
000001b0: 4eb2 0ebe 0640 cebd 5ee8 ccbc ae94 adbc
000001c0: 9ab8 dfbd a97d c7bd 1297 a53c a417 983d
000001d0: a4e2 a2bd 160a c0bd e7ad c43b 4801 e03d
000001e0: b5cd bd3c 32eb 58bb 846f 98bd e80b f93c
000001f0: 9255 0f3e 98fc 0f3e fc3b 053e 4221 fbbd
00000200: 48dc a5be 098a c7be 371c 5b3e 6776 323e
00000210: 40fe 55bd a4c1 45be 9b09 aabe 4a96 f73d
00000220: c9f3 d93d 3f05 e1bd 3b8f 16be d426 86be
00000230: 11e9 5dbb 4316 ae3a 0226 12be 602b 17be
00000240: c74c 54be d4df 4dbd a0eb 04bc 909c 67bc
00000250: 37ed febc 7e52 34bc fc65 c7bd cb07 89bd
00000260: f63e c9bd ad48 b13d de76 873e 8148 9bbd
00000270: 8b8e 2abd cd1d 22bd 8e9b 1fbc c024 fc3d
00000280: 64aa fdbd cb43 53bd 25e7 b5bd f1c7 6aba
00000290: adb9 da3d cfd3 56bd f1ed b1bd fc0f 9ebd
000002a0: ba9e b93b 3c05 9d3c 27a6 64bb 2892 10be
000002b0: 7fdb d6bd d431 03bd 9e4f 113d 41f5 463e
000002c0: 4339 1f3e 0959 f1bd c8f8 4ebe e1eb 98bd
000002d0: 09e9 353e acaf 973d 9c49 7ebe 6212 0cbe
000002e0: db4a e83d 3757 b1bd 2423 34be 91f8 80be
000002f0: 2073 fdbd bdfe 543e 3a21 7bbe 7ab1 93be
00000300: ac0b 5bbe 3641 d5bc fea8 8f3e b92a 2ebe
00000310: cb40 1fbe 17b6 80bd 044a 633e e276 e43e
00000320: bc5e 4ebe 9e90 2fbe eb67 f6bd b04a 20be
00000330: c861 9bbd 24a1 cebd 8b87 6dbe 3497 53be
00000340: 294e 76be 4421 c5bd 9d35 fbbd cbcc 64be
00000350: 45f3 5cbe 273f 62be 2843 a8bd c3f4 67bc
00000360: b652 2bbe 6771 1ebe 8e0d 60be 8cb2 a0bd
00000370: b754 ffbc 25e5 11be d62d a0bd 458a 43be
00000380: df69 42be ea68 a33c d331 9dbd b83f aebd
00000390: 8d68 d2bd de72 12be 549c 943d 5c04 13be
000003a0: 35bc 7abd 2881 18bd 9a90 2dbe bc2a 163e
000003b0: ed32 e2bd d600 97bd b47f 0ebe a7f6 6dbe
000003c0: 4f6c 933e 5c0b 0d3b 8b87 19be ccf3 40be
000003d0: ef3a 6cbe 768a 9e3e f41d 2d3e 1941 aabb
000003e0: db2b 0ebe 7d38 0fbe d859 263c 636b 2b3d
000003f0: b360 9abd c1fa 11be 3fab 97be 478c e53d
0.26885304 0.29096487 0.17154197 -0.007279574 -0.001436029 -0.05810293 -0.10767945 -0.09017967
-0.08556301 0.001450656 -0.08328375 -0.1400962 -0.116639495 -0.042502034 0.025046295 -0.0016938082
-0.042662375 -0.08207963 0.017228473 0.061544385 0.19853663 0.056895863 -0.014534603 0.01256424
0.048271485 -0.11021447 -0.13260306 0.032479968 0.23188378 0.43415615 -0.20835285 -0.22120689
-0.1047968 0.059868496 0.22474335 -0.16772525 -0.2264113 -0.11835294 -0.09955695 0.05166523
-0.07453446 -0.1592861 -0.07748006 -0.001492472 0.05869752 -0.1990689 -0.19771299 -0.08095892
0.075603634 0.2524079 -0.12827665 -0.18109664 -0.18820903 -0.07996539 0.14484383 -0.088481024
-0.1276552 -0.10583401 -0.1777063 -0.068567224 -0.09562204 -0.077554405 -0.12486372 -0.15791617
-0.2103498 -0.092564054 -0.1663438 -0.09010282 -0.10697829 -0.1672494 -0.099133834 -0.11630266
-0.14549558 -0.09555019 -0.010408172 0.07754499 -0.033989012 -0.1291888 -0.18475144 0.046154436
0.19093162 0.020007964 -0.12237194 -0.1686853 0.028050756 0.11501842 -0.10944851 -0.19640075
-0.18033119 0.025540344 0.02310344 -0.26536363 -0.25861153 -0.24930197 0.04741401 0.12669602
-0.13187113 -0.30465004 -0.17976831 -0.04397816 -0.14826423 -0.12748626 -0.039061125 -0.01738891
0.26214197 -0.11430452 -0.14851616 -0.20063806 -0.13935205 -0.10070805 -0.025013145 -0.02118906
-0.10923882 -0.09740765 0.020213638 0.07426384 -0.079533845 -0.09376924 0.006002176 0.109377444
0.023169378 -0.0033099172 -0.07443145 0.030401185 0.13997486 0.140612 0.13011163 -0.12262203
-0.32394624 -0.389725 0.21397482 0.1742798 -0.052244425 -0.1931215 -0.33210453 0.12089212
0.106422015 -0.10987329 -0.14703076 -0.26201499 -0.0033860842 0.0013281781 -0.14272311 -0.1476264
-0.20732413 -0.050262287 -0.008112818 -0.0141364485 -0.031118972 -0.011005996 -0.09736249 -0.066909395
-0.09826462 0.0865644 0.26457876 -0.075821884 -0.041639846 -0.0395792 -0.009741677 0.12311697
-0.12386015 -0.051578324 -0.08881978 -0.0008956185 0.10679946 -0.05244809 -0.08687962 -0.077178925
0.0056646736 0.019167535 -0.0034889074 -0.14118254 -0.10491084 -0.03202994 0.03547632 0.19429494
0.15549187 -0.1178456 -0.2021209 -0.07466865 0.17764677 0.074065536 -0.24832767 -0.13678887
0.113424025 -0.08659213 -0.1759153 -0.2518964 -0.12375474 0.208003 -0.24524394 -0.2884634
-0.21391171 -0.026032072 0.28058618 -0.17008485 -0.1555206 -0.06284731 0.22196203 0.4462195
-0.20153326 -0.17145011 -0.120315395 -0.15653491 -0.0758701 -0.10089329 -0.23196237 -0.20663148
-0.24053253 -0.096254855 -0.12266085 -0.22343747 -0.21577175 -0.22094403 -0.08215934 -0.014157477
-0.1673077 -0.15472947 -0.2188017 -0.07846555 -0.031168325 -0.14247568 -0.078212425 -0.19095714
-0.18985699 0.019947488 -0.07675519 -0.08508247 -0.10273848 -0.14301631 0.0725638 -0.14357132
-0.061214644 -0.037232548 -0.16949692 0.1466474 -0.110448696 -0.07373206 -0.13915902 -0.23238622
0.2879357 0.0021521663 -0.14993112 -0.18843001 -0.23069356 0.30965012 0.16905957 -0.0051957485
-0.13883917 -0.13986392 0.010153256 0.04185046 -0.07537975 -0.14255811 -0.29622838 0.112083964

bias f4 [64]
00000000: cda1 2dbf 6b17 1fbf a7b1 173f 97f1 aabc
00000010: ecd7 d9bd 2dbe d0be c10d 81bf dee6 033e
00000020: 8076 22c0 1549 eabe 4b61 003b 0dd9 acbe
00000030: 2fee cabe e5dc 2cbf 3fc8 fdbe 0144 b33e
00000040: fc8d 193f 460b 8a3e 8348 0fbf 3167 93bd
00000050: 9841 323e 2966 8abf 8e14 08bf 5d73 463e
00000060: 9879 50be 5451 a3be 8b89 77be 1f46 9ebf
00000070: fcac 35bc 3d02 d9be c6a8 123f 92f5 46be
00000080: 4ea4 55be 4bef aebd 31f4 61be 4d1d 78bd
00000090: c993 2fbe 44fc 7e3e 21fb 323e 3cf8 2cbf
000000a0: 8e15 e6be 9236 bfbf eea2 933f 68c0 64bf
000000b0: b929 f4be a120 bcbf 8ff7 693d 96d3 a7bf
000000c0: f029 063f 0a21 c2be 536d 28bf f43a 313e
000000d0: 12ff 8ebe e00c 08bd 5eeb 8abf e63d 0dbf
000000e0: 63fd f2be 2513 8f3d 299e 313d 10bb 89bf
000000f0: f2bb 0fbf a375 14bf 2207 d43f 0439 37bf
-0.67825013 -0.6214511 0.5925545 -0.020867152 -0.10636887 -0.40770093 -1.0082322 0.12881038
-2.5384827 -0.45758882 0.001958924 -0.33759347 -0.39634845 -0.6752456 -0.49566838 0.3501282
0.59982276 0.26961726 -0.5597002 -0.071974166 0.17407835 -1.0812427 -0.53156364 0.19379945
-0.20358884 -0.31897986 -0.24173562 -1.2365149 -0.011088606 -0.4238452 0.5728878 -0.19429615
-0.20863459 -0.08541735 -0.22065808 -0.06057482 -0.1714622 0.24900919 0.1747861 -0.67566276
-0.4493832 -1.4938529 1.1534097 -0.8935609 -0.47688082 -1.4697458 0.057120856 -1.3111446
0.5240774 -0.37915832 -0.65791816 0.17307645 -0.27928978 -0.033215404 -1.0853078 -0.55172575
-0.47458944 0.069860734 0.043363724 -1.0760212 -0.56146157 -0.57992 1.6564677 -0.71571374

weight f4 [128, 64]
00000000: 2f4e 46bc a2fd d53e 5450 583e 999c 11be
00000010: d887 cdbe fcde 763d 1212 babd bfdf 4abe
00000020: 2ae5 5d3d df7a 9c3e 2ef0 533e ad6a b4be
00000030: 9367 1bbe 9800 bf3c 0140 afbd 6e1c aabb
00000040: 025b c53e c33a 963e afb3 293d fd03 213e
00000050: 860b 053f 5375 9dbe 2ac8 debe a19a 8e3d
00000060: ee59 813d d569 c23e eb6b 903d 4c62 54be
00000070: 533f 7ebd 740c b8be 5c07 8b3e f047 7cbd
00000080: d003 e2be 6451 2abe d9f4 5c3e db5c d53d
00000090: 7527 da3e 1eab 83bd 8163 2a3e 262c 9b3d
000000a0: d016 bcbd b027 15bf e2a9 6f3d b4a6 913e
000000b0: 55a7 7dbe f54e 04bf 8fcf 09bf ffff d3bd
000000c0: 0b51 013e bbf4 063e 6215 4d3d 59fa e1bc
000000d0: 4eb1 b73c d956 a1be 2d95 b1be 5d44 b93e
000000e0: ba4e 71bc 859a 6b3e 4cb1 253d dc2f 05be
000000f0: 2faa a4be 9034 7fbd e11a 3f3e f650 a9be
00000100: 9d7c a9be c951 edbe f78e e7be 07ac 89bd
00000110: 5938 32bd 17b3 c2be 4c03 a7bc 20f4 d63e
00000120: 5abd babe aec2 653e 65ea 403e 77d8 d43e
00000130: 3454 fbbb 5326 8dbe ea5f 62be 529c dc3d
00000140: 1db5 65be 77ae 103e 4142 6e3e 77d7 21be
00000150: ba5e ccbd fe1f 84bc 4fac 153d db36 d43d
00000160: c9d8 eabd 8eff 8b3d 5b84 78bc c31b eabe
00000170: 63c2 07be dd80 f03e b9ce 7a3e 19a4 58be
00000180: 0423 04be 0c18 a5be 1fa6 aebe e179 813d
00000190: f3ad b03e e3d3 95be 0268 fabd 021f 3cbd
000001a0: 08b1 08bf 8e26 d9be 6c8a 11be cfaa 81be
000001b0: 6684 913d a9b0 ed3e 86bf 88bd 72f7 453d
000001c0: 4e56 573e 050d 3c3e 9241 863d 17ab 84be
000001d0: 0609 1cbe 76e8 413e bf54 9ebd bc81 aebd
000001e0: 50a0 2f3d 96f3 b93e 8de0 4ebc b947 aa3e
000001f0: e292 ce3e 920f 703d 1734 3ebd 781c 8b3c
00000200: 757c b03e d8c5 25bc 96f4 803e 169a b2bc
00000210: 8fb4 48bf 2e09 393e 8558 24bd af7b cc3e
00000220: 6f05 ef3d baf2 2f3d 3b24 3b3e 37e9 87bc
00000230: 3b89 e5bd ad84 47bd 42a4 923d 35ea 653e
00000240: ce93 eabe e686 ed3e 8f3b 5a3e d583 bdbe
00000250: b868 4b3e c368 e6bc 27e8 d6be 6836 71bd
00000260: d4e0 b13d 089c 643e b28e 843e 7a12 893e
00000270: 0c8a 03be 876a 0bbd 45ca 523e 251c 723d
00000280: 45cd 91be f15d eabe 79ac b6be 708b 1c3e
00000290: 9e6d 813e cb17 05bf 51ec ef3c 143f d03e
000002a0: 05c3 34be 68a8 45ba c9e3 4b3e 08b2 bf3e
000002b0: ce45 503c a9f9 033d 417f acbe 7898 9c3e
000002c0: 2563 463d b7b3 c13e bc88 19bd a73f 36be
000002d0: c313 753e 93af 8ebd c77d 0e3f 88c2 813d
000002e0: 5b7e 94bc ce1e fd3e 6e8f 11bf 58a0 b93e
000002f0: 579a 653e 241e fcbe 5abd 6dbf a081 55be
00000300: 2a1e 363e 2563 1e3d 6007 b1be 5eb2 0bbd
00000310: c612 223e eb99 56bd cb56 cc3d 2aac 223e
00000320: 2121 09bf f51f 67be 2c94 89be 2b44 b5be
00000330: cb5c 43be d9b5 7f3d 9ae5 b23d f01f dabd
00000340: a320 57be 1bba 35be 1546 5abe 4d1b 903e
00000350: b53a 123f b479 ddbe fbfa a4be 962a f6bd
00000360: 5fb9 18be eb66 003f d366 86be 1276 9d3e
00000370: e198 02bd ae55 27bf b8fc 133f e44c 19be
00000380: 836c 8a3e fa86 be3e 0fe6 483e 3497 0cbe
00000390: f509 08be a9a5 bf3d 4d01 103e 7d1d 553e
000003a0: 2ce0 943e 4c79 cdbe c548 77bd 599d ccbe
000003b0: 4283 27bf 6604 67be 6201 31be 3341 68be
000003c0: 34e7 d8bc 23cd a3be 8f17 703e 012a 2a3e
000003d0: be41 993e df93 71bd db27 383f a514 b5be
000003e0: ad17 84be b9fc e33d 473f 19bf 80f6 15be
000003f0: 3fa2 08be 1649 fcbe 50f9 c93e 9b76 7e3e
-0.012103601 0.4179507 0.21124393 -0.14219894 -0.40142703 0.06027125 -0.09085478 -0.19811915
0.054173626 0.30562493 0.2069709 -0.35237637 -0.15176229 0.023315713 -0.0855713 -0.0051913774
0.38545996 0.29341707 0.041431125 0.15724178 0.5197071 -0.30753574 -0.43512088 0.06963087
0.06315981 0.37971368 0.07051834 -0.20740622 -0.06207211 -0.35947 0.27154052 -0.061592042
-0.44143534 -0.1663261 0.21577777 0.104181014 0.42608228 -0.064291224 0.1663952 0.0757678
-0.09184039 -0.58263683 0.058511622 0.28447497 -0.24770863 -0.5168298 -0.53832334 -0.10351562
0.12628572 0.13179295 0.05006922 -0.027585195 0.022423413 -0.31511572 -0.34684125 0.3618497
-0.0147282425 0.23008163 0.040452287 -0.13006538 -0.3216109 -0.062305987 0.18662597 -0.3306958
-0.33102885 -0.4635146 -0.4522626 -0.06722265 -0.04351077 -0.3802726 -0.020387314 0.41983128
-0.3647259 0.22437546 0.18839414 0.415714 -0.00766995 -0.27568302 -0.22106901 0.10772003
-0.2243237 0.14129053 0.23267461 -0.1580485 -0.09979005 -0.016128536 0.03654128 0.10362025
-0.1146713 0.068358526 -0.015168275 -0.45724306 -0.13257746 0.46973315 0.24492921 -0.21156348
-0.12903982 -0.3224491 -0.34111115 0.06322075 0.34507713 -0.2926322 -0.12226869 -0.04592801
-0.5339513 -0.42412227 -0.1421296 -0.2532563 0.07105331 0.46423844 -0.06677155 0.048331685
0.21029016 0.18364342 0.06555475 -0.2591178 -0.15237817 0.18936333 -0.07731008 -0.085208386
0.042877495 0.36318654 -0.012626779 0.33257845 0.40346438 0.0586086 -0.046436395 0.016981348
0.34469953 -0.01011797 0.25186604 -0.02180199 -0.7840051 0.18069908 -0.04012348 0.39938113
0.11670958 0.04295609 0.1827554 -0.016590698 -0.11207815 -0.048710514 0.07160236 0.22452624
-0.4581589 0.46391982 0.21311782 -0.37014642 0.19864166 -0.028126126 -0.41973993 -0.058889776
0.08685461 0.22325146 0.25890118 0.2677191 -0.1284563 -0.03403714 0.20584972 0.059108872
-0.2847692 -0.45774797 -0.3567846 0.15287566 0.25278944 -0.5198943 0.02928749 0.40673125
-0.17652519 -0.0007540048 0.19911112 0.37440515 0.012711955 0.032220516 -0.33690837 0.30585074
0.048434395 0.37832424 -0.037483916 -0.17797719 0.2393332 -0.06967082 0.5566067 0.06335932
-0.018126657 0.49437565 -0.5685948 0.36255145 0.22422157 -0.49241745 -0.9286705 -0.2085023
0.17784944 0.03866877 -0.3457594 -0.03410565 0.15827474 -0.05239288 0.09977492 0.15885988
-0.53566176 -0.22570784 -0.2687086 -0.3540357 -0.19078366 0.062429283 0.08735199 -0.10650623
-0.21008544 -0.17746775 -0.21315797 0.2814583 0.5712083 -0.43256915 -0.32222733 -0.120198414
-0.14914463 0.5015704 -0.26250324 0.30754143 -0.031884078 -0.6536511 0.57807493 -0.14970738
0.27035913 0.37212354 0.1961901 -0.13729554 -0.13285048 0.09357769 0.14062996 0.2081203
0.2907728 -0.40131605 -0.060372133 -0.39963797 -0.6543466 -0.22560272 -0.17285684 -0.22681122
-0.026477434 -0.31992444 0.23446487 0.16617586 0.2993297 -0.05897891 0.71935815 -0.35367313
-0.25799313 0.111321874 -0.5986218 -0.14644814 -0.13343142 -0.4927451 0.39448023 0.24849932

bias f4 [128]
00000000: e6f8 39bd d0ab 1b3d c8fe d5bf b2a1 493f
00000010: 8632 5e3f e745 ecbd a64b 1b3f 5797 843b
00000020: a8d0 273f 7391 903f 2f2c 923f 27fa 023f
00000030: a68e 91be 9bb5 8dbf 2060 9abe 5acc dabd
00000040: 99e5 bb3e 6b9d e03e bbaa 613f ef94 c43d
00000050: f3e9 d0bb 9d8b 07bf 2a5b 993e 010c 40bf
00000060: 672a ed3d 4a04 983f 1c0e 183e 6989 063f
00000070: 895f 8fbf d60e e63d 2d6e 343f 3222 e3be
00000080: bbe0 243f 5741 f6be db37 603f 30b9 0dbf
00000090: 184b ca3e 6de0 70be 9578 833d b33f b93e
000000a0: 99f7 bfbf 1e88 27bd a333 59be 76b4 d9bb
000000b0: 7b86 34bf 1c3b 45bd 9ad8 7f3e 6aad 183f
000000c0: b55c b0be f3cc db3d 29b5 afbd 0802 c83d
000000d0: f685 663f 7c0a 8b3f 4a7b 83bf ad1c b13d
000000e0: dcf1 86bf 4be2 94be 2045 bebe 93ea ffbd
000000f0: c59a f4be 0375 f8be 7da9 333f ab3e 87bd
00000100: f9dd 533f f37b a53e 64f3 963f d829 0c3f
00000110: 03b4 aebf 2edb b3bd ec99 0f3f 0305 913f
00000120: 00f5 903e 00c6 803b 9df3 9fbe 652b 92bf
00000130: 34a1 c93c 0357 abbd 88a6 37bf 94a8 0cbf
00000140: 8565 e1be 9a87 de3e 8247 213f 8a31 08bf
00000150: d5f4 86bc cea5 8d3f c8b6 ab3e 75cc c7be
00000160: 5f1e e53d 1f23 17be 3fcc 2c3e b98b 34bf
00000170: 215e 7c3e dcbc 99bd c175 743e db20 863e
00000180: e841 28be 6357 6c3f 2bbb 07bd 0cc0 4c3f
00000190: 079c 513f 0de7 343f c89c 893e 1052 df3f
000001a0: 7f61 cdbd 48fd 3bbf 64b9 afbe be19 76bd
000001b0: a627 133f f135 efbd 416e 10bf 4b14 1b3f
000001c0: 50fa 103f 346a 60bf 2b62 663f 0375 acbe
000001d0: 273c b5bf 2acb 023f 7764 313f 28d7 63be
000001e0: 38e5 bb3c b849 c73d 917c 603f b35f 003f
000001f0: 015d 3d3e 04fd d93e 6d5d 9d3d ea25 b73e
-0.045403384 0.03800565 -1.6718378 0.7876235 0.8679584 -0.1153677 0.60662305 0.0040463614
0.6555276 1.1294388 1.1419734 0.5116295 -0.28429145 -1.1071047 -0.30151463 -0.10683508
0.36698607 0.438701 0.8815114 0.09598719 -0.006375545 -0.5294741 0.29952365 -0.75018317
0.11580353 1.1876309 0.14849132 0.5255342 -1.120103 0.112332985 0.70480615 -0.44362026
0.6440541 -0.48096725 0.8758523 -0.553607 0.39510417 -0.23523112 0.064194836 0.3618141
-1.4997436 -0.040901296 -0.21211104 -0.006643827 -0.705177 -0.048152074 0.2498497 0.5963961
-0.3444573 0.1073245 -0.085794754 0.097660124 0.9004816 1.0862575 -1.0272 0.086480476
-1.054256 -0.29078898 -0.37162113 -0.12495913 -0.4777433 -0.48526773 0.70180494 -0.0660375
0.8276058 0.32321128 1.1793027 0.5475135 -1.3648685 -0.087820396 0.5609424 1.1329654
0.2831192 0.0039298534 -0.3124055 -1.1419493 0.024613 -0.083662055 -0.7173848 -0.5494473
-0.44022766 0.4346283 0.6299974 -0.5320059 -0.016474167 1.1066225 0.3353789 -0.39023176
0.111874335 -0.14759491 0.16874789 -0.705257 0.24645282 -0.07506725 0.23873045 0.26196942
-0.16431391 0.9232084 -0.03313748 0.7998054 0.81878704 0.70665056 0.26877427 1.7446918
-0.100283615 -0.7343335 -0.3432113 -0.060083143 0.57482374 -0.116802104 -0.56418234 0.6057784
0.56631947 -0.87662053 0.8999354 -0.33683023 -1.4158982 0.51091254 0.6929392 -0.22250044
0.022936448 0.097308576 0.87690073 0.50146025 0.1849251 0.42575848 0.07683835 0.35771114

weight f4 [512, 128]
00000000: a6cf 76bd b52c 583d ff8f 27bd 4a45 abbd
00000010: 58ab 473c f2ac 89bd b78e 03bd b89e 363e
00000020: be03 b3bd 10d1 083e d29d 34be b21a 943c
00000030: ae7b 1abd 708d 0d3e f3cd 083e 6c80 e7bc
00000040: b221 a0bd 8648 20bd 2e81 b4bd bba9 033d
00000050: f9ac ce3d ddea 0abe ca32 5abe a7e4 54bc
00000060: 8bdb bf3a 8461 3abe 52a4 85bc dbad 03be
00000070: b4d9 de3c b3db c83c a465 ffbd 42d3 373d
00000080: 77de 21bd 4fd3 9c3d 0d9b 01bd 2228 c93c
00000090: fac2 b43d c1ce 333e ad1f e2bd 8551 d9bd
000000a0: e5c6 983d 18db e1bc 2501 8abc 980f 07be
000000b0: 5fb9 863e 4cf5 e4bd 9d44 7fbd 6bbb 9b3d
000000c0: 053e 853d bfb0 103d 1485 d7bb 23e9 673d
000000d0: 4ed2 9a3d 90d3 e6bd 43c4 403d d64b 11be
000000e0: 50ec f9bd 659a 883d 6445 ac3c 4552 6c3c
000000f0: 845a 763a 44fc 80bd b4cd f43d cb8c f0bd
00000100: 0bf6 e43b c033 0bbd 2770 cebd 7a7b 07bc
00000110: 0a80 8c3d 377c 2abe 81e4 89bd c2f9 2bbe
00000120: c453 243c e3db 14be 472c c4bd 6aa1 a2bd
00000130: 0bac 8dbd 2869 90bd bd6a 7f3d 0928 d3bd
00000140: 6e12 7ebe b51a b13d 885a 713c 50d0 d2bd
00000150: 2eea c93d de66 1abe 8c04 513d fd52 c5bd
00000160: 2e08 633e 1112 073e e9ee 213c d563 86bd
00000170: d1e1 8d3d cde2 673d d00d c63d f316 713d
00000180: 7cb2 6b3d ff43 033e d444 293e f1c2 edbd
00000190: 725a fbbd f4e3 463e 7d90 4d3d 275b 42be
000001a0: 1eea 11bd cdd4 54bc 0412 debd 7332 91bd
000001b0: 2a7e 73bc 766f 07bd 0fd4 99bd 3548 dfbb
000001c0: abbf 3cbd 43b9 34bd 39c4 a93d 938b 0ebd
000001d0: c73e 85bd 1a55 573e fbf1 75be d697 69bc
000001e0: cb92 21be a137 d3bd 8580 33bd 90b5 c23d
000001f0: 6512 8d3d b7e3 a2bd a9a8 1dbd 3b61 df3d
00000200: ee9b 353b 9882 a93b db3f 8abe 34a9 42be
00000210: 33ec 0ebe 6eac babd d47e b83d b734 1abe
00000220: ccd9 4fbd b1e0 75bd 364c cfbd 8f4f dbbd
00000230: 1b41 d3bd a77e 23bd 80ec 4b3d 7c4f 90bd
00000240: 1776 c4bd dfba dbbd 9b85 003e 4c41 83ba
00000250: 8d26 ce3d 3aab b53d c57d d83d 3bf1 9abd
00000260: cd83 b53d 3ec2 23be 85cd 92bd 0512 62bd
00000270: 5535 9c3e f873 803d 27d1 c8bd eda0 c5bd
00000280: b5a0 31bd f912 0a3d 4312 abbd f8a4 1dbe
00000290: 80a6 4cbe 57d8 f7bc 6f96 c2bd 941f 1dbe
000002a0: 5609 533d efda 2abd 6d07 643e 2ca0 b9bd
000002b0: bb16 03be 64d8 28bb 6c39 a8bd 6936 3cbe
000002c0: 2723 b8bc f81d 45bd 7f4e 363e 9492 d9bd
000002d0: 3506 92be 0258 62be 50da 8bbd 3379 f4bd
000002e0: 472f a2bc 8264 2b3b 66ab 09be e3e9 54bd
000002f0: 04db 3abd eb99 cbbd 23db 7e3d e864 b53b
00000300: ad2a 04be 17ed 213c 4d50 0bbe 90c3 573d
00000310: 25b7 863d 22c1 aa3d 5916 7b3d a77f 65be
00000320: d0bf 43be 63b7 c3ba 6192 f33b 9373 3dbe
00000330: a1f6 39bd 8fcc 303c 0eee efbd d73b 5b3d
00000340: 9140 bfbc b210 123e bd46 02bc d833 0dbd
00000350: 1cb0 f8bd cd6a a43d 6bf5 adbd 6492 123d
00000360: a5c7 20be 143a ffbd 90eb c7bd c187 ba3d
00000370: 3ea8 bcbd cc5e e8bc a209 533d 70d5 823c
00000380: b82b 673e 4556 76be 9773 543d 7894 83bd
00000390: 73d5 ffbd 1530 2abd 3897 8cbd 3552 1c3e
000003a0: 692e b5bd 4e16 48be 6971 1f3d 8a3e 30be
000003b0: 87ea 33be e06e 6dbe 62c0 313e db98 e73d
000003c0: 6518 243e edee babc ebb0 6abd 49d8 063d
000003d0: eb7b 4f3c ed1b 333d 1f6b 373e 273d a53d
000003e0: e73b 52bd f6db d63b bfc8 89be ba36 6fbd
000003f0: 9fe9 02be 977f e53d 6f59 163d 36b7 97bd
-0.060256623 0.05277701 -0.04090881 -0.08362825 0.012186848 -0.0672244 -0.032118525 0.17833984
-0.08740948 0.13361001 -0.17638329 0.018079136 -0.037715606 0.13823485 0.13359813 -0.028259479
-0.07818927 -0.039131664 -0.088137016 0.03214429 0.10091586 -0.13566156 -0.21308437 -0.012993968
0.0014637572 -0.18201262 -0.016313706 -0.1285929 0.027203418 0.024518823 -0.12470558 0.044879206
-0.0395188 0.076574914 -0.03164201 0.02455527 0.08826251 0.17559339 -0.11041198 -0.10611252
0.07459811 -0.027570292 -0.016846249 -0.13189542 0.26313302 -0.11179599 -0.062321294 0.076041065
0.0650597 0.03532481 -0.0065771434 0.05661882 0.07559644 -0.11270821 0.04706217 -0.14189085
-0.12203276 0.066700734 0.021029182 0.014423911 0.0009397643 -0.06298116 0.11953297 -0.11745604
0.0069873384 -0.0339849 -0.10079985 -0.008269185 0.06860359 -0.16648947 -0.06733037 -0.16794494
0.010029737 -0.14537005 -0.09578758 -0.079409435 -0.0691758 -0.07051307 0.062357653 -0.103103705
-0.24811718 0.08647672 0.014731057 -0.10293639 0.09859119 -0.15078303 0.051029727 -0.096349694
0.22171089 0.13190486 0.009883621 -0.0656201 0.06927837 0.05661278 0.09670603 0.058859777
0.057543263 0.12818907 0.16530162 -0.11609448 -0.122731104 0.19422895 0.050186623 -0.18980084
-0.035623662 -0.012990189 -0.1084328 -0.070897005 -0.014861623 -0.03306528 -0.0751115 -0.0068140277
-0.046081226 -0.04412199 0.082893796 -0.034801077 -0.065061145 0.21028557 -0.2401809 -0.014257392
-0.15778653 -0.10313345 -0.043823738 0.095072865 0.06888274 -0.079535894 -0.038490925 0.10907217
0.002771135 0.0051730387 -0.27001843 -0.19009858 -0.1395729 -0.091149196 0.090085655 -0.15059172
-0.050744817 -0.060028736 -0.10121958 -0.10708534 -0.10315152 -0.039915707 0.04978609 -0.070464104
-0.09592836 -0.10729002 0.12550966 -0.0010013967 0.10065947 0.088705495 0.10570864 -0.07565542
0.0886303 -0.15992066 -0.07168106 -0.055192966 0.3050944 0.06272119 -0.09805518 -0.09649835
-0.043366153 0.0337095 -0.083530925 -0.15394962 -0.1998539 -0.030254526 -0.09501349 -0.15344077
0.051522575 -0.041712698 0.22268458 -0.090637535 -0.1280164 -0.0025763744 -0.08214077 -0.18380131
-0.0224777 -0.048124284 0.17803381 -0.10623661 -0.2852036 -0.22103885 -0.06828749 -0.119371794
-0.019797934 0.0026152437 -0.1344429 -0.051980864 -0.045619026 -0.09941467 0.062220704 0.0055357106
-0.12906905 0.009883187 -0.13604851 0.052676737 0.06577901 0.083376184 0.06130061 -0.22411977
-0.1911614 -0.0014931973 0.007433221 -0.1850112 -0.04540122 0.010790958 -0.11715327 0.053523865
-0.023346217 0.14264181 -0.007951436 -0.03447327 -0.12142965 0.08028183 -0.084940754 0.03578414
-0.15701158 -0.124622494 -0.09761727 0.09107924 -0.09211777 -0.028365515 0.05152286 0.015970916
0.22575271 -0.24056347 0.051868048 -0.064248025 -0.12491884 -0.04154976 -0.0686478 0.15265734
-0.08846743 -0.19539759 0.038926516 -0.17211357 -0.17569934 -0.23186827 0.17358544 0.11308452
0.16024931 -0.022819007 -0.05729763 0.03292111 0.012663822 0.043727804 0.17911957 0.080683045
-0.05132666 0.006556983 -0.2691097 -0.0584018 -0.12784432 0.112059765 0.036706384 -0.074079916

bias f4 [512]
00000000: cbbe dfbb c778 713e 3580 3abd 289b 443e
00000010: dbdc 5cbc bed4 cd3e fe2e 173f d89a a1be
00000020: 8414 17bd f7c6 18be cb86 19be e25c bd3d
00000030: 735b d93e 9b39 073f eb5f 1ebe 2956 643f
00000040: b118 3dbd b660 f3bd 0d6b ef3e 15b7 873e
00000050: 8ff8 7f3d d7ce 7a3e 13e8 7c3e 7e25 533d
00000060: 3430 84be 242d 05be dc5a 9b3e 74aa d93e
00000070: b05e 943d 80d8 2c3d 55a3 6d3f ab3f 1a3e
00000080: ff76 01be 8183 e5bd 7ff0 0c3d 6c69 083f
00000090: 4ce4 d73d 4ff1 013e ea7b 07be 2f16 d23d
000000a0: 9994 c1bd 57cd c73d 0969 c4bd e770 fcbc
000000b0: ef26 5ebe 5e58 053f 6a86 e73c 2ae3 2a3e
000000c0: de44 9c3d d73f 7e3e 072d e63d 82af 593f
000000d0: 1191 32be 1d66 e13d b68e 54bd f76e ce3e
000000e0: 968d 99bc 7ad2 363e bab9 37be c1f4 883e
000000f0: 0f13 893e f958 8ebd 2018 99bd afba 0f3f
00000100: 005f 1bbe c5a2 6f3e fb77 733d f0ab 9fbd
00000110: c394 fa3d ce72 0fbd 2ba2 2b3d 5ab1 163f
00000120: 97f3 953d 857b d3bd 1f32 05be f882 5c3e
00000130: cc0b bb3e eeee 1f3f ada2 f43e 3393 02bd
00000140: b050 e83e 99a3 d23e abe4 06be 20a1 3cba
00000150: 9f43 a2bd f433 4b3d 187c dc3e 5ae5 063e
00000160: 0ce9 17be b246 9bbd a55c 87bd f5b6 f9bc
00000170: b1d5 2e3f 1a3a ca3e fb41 23be 60ee 1a3f
00000180: d1ae 12bd e066 243f b191 8c3d 6803 28be
00000190: 78c2 f93d 2f46 b0bc eee2 debd 694a 12be
000001a0: 236b 20be 48f9 073e a7e2 e43e 2c82 263e
000001b0: d2b1 34bd 907e 803c 9032 483e 8cfa 193e
000001c0: 2799 d13e a4d2 9cbd 6e75 2ebe bf45 2bbe
000001d0: 1bae 213f 13e8 d9bd 9927 4b3e 9c71 07be
000001e0: 8c80 ab3e 45bc 2a3e aab8 0c3e 48e6 c23e
000001f0: eafc 20be b7d6 113e 7136 fbbb 46c7 0f3c
00000200: de66 1bbd 75ca f33e f96f 923e 00d4 0b3f
00000210: 04e4 463e 1513 5fbd 100d 84bd 9ef6 f53e
00000220: c634 23be 7a7e 45be 8592 52be 5fcf 31be
00000230: 2b79 843e dae2 cebd 6524 413f 992c 75be
00000240: 2e13 773e d957 f23e 94ca bd3e 2d30 3b3f
00000250: 48f0 f0bd 8cd3 b93e d7f7 073d 4fc8 4dbe
00000260: 36e2 f23e 74ca dabd 7b89 20bc 817c 173f
00000270: ed1c 963d 8e74 84bd 5b85 e2bd 300a 29be
00000280: 4cdb 1bbd c5e9 d23e 2391 46bd 0fb6 2cbe
00000290: dd63 33bd b465 fc3e 0c2e 06bc 4451 42be
000002a0: 9763 8cbc 85c5 8f3b 9735 bb3e fffe 76bd
000002b0: fbea b1bc ba10 003f 6959 bd3e 554b f8bc
000002c0: 8d99 1a3f 6fe2 c83e d811 783e 57ca 5abe
000002d0: b76a 233e af7b 1e3d 26f0 003f 3925 253e
000002e0: 28be 8d3e 894c 32be 9c2d 343e 7d55 86bd
000002f0: a38a ca3d 1087 173f f920 303d 85a4 ed3d
00000300: d85a df3e 8585 85bd 9381 ce3c 10d3 b93e
00000310: c636 253e e503 12be d8b1 463e 9728 babe
00000320: a8a4 843d 7095 003f d8e2 11be 9a47 3dbe
00000330: 5f33 2b3f 2912 143f 8775 b63e d772 7fbe
00000340: 47fb debc 24ff 923d ad22 b53e 6061 033f
00000350: 73f3 14be d02e 38be 13f0 e6bd 22d4 2fbe
00000360: e3e6 6bbd 0705 55be b801 c63d aca4 9c3e
00000370: d7e8 02be 4daa fd3d 6ac3 d4bb 2212 ae3e
00000380: 4ee6 edbd 4f2f 86be 99ec d23d 3e87 4c3e
00000390: ec1e aabd cabd 443d 61d3 22be b8c0 65bd
000003a0: 577b cebd 925f c43e 27ba a93d f916 613e
000003b0: eabc 0cbe e2e1 07bd db2b 3fbe 6711 babb
000003c0: 0388 c9bc 21ad 1e3d 2179 123f aebd 823d
000003d0: 1aac 17be 85b6 123e 0868 1cbd f576 ef3e
000003e0: f4a3 5bbe 8289 37bd 7b02 db3c 13ef 6d3e
000003f0: f405 863e 2cc1 7ebd 1e9f 863e c9a7 b7bd
-0.006828164 0.23581229 -0.045532424 0.19199812 -0.01348039 0.40201372 0.5905608 -0.3156345
-0.0368848 -0.14919649 -0.14992826 0.092462316 0.42452583 0.52822274 -0.15466277 0.8919397
-0.046166126 -0.118836805 0.4676136 0.26506868 0.062492903 0.24492966 0.24697904 0.051549427
-0.25818026 -0.13005501 0.30342758 0.42512858 0.07244623 0.042198658 0.9282735 0.1506335
-0.1264305 -0.11206723 0.034409042 0.5328586 0.10541591 0.12689708 -0.13230863 0.102581374
-0.09452171 0.09755962 -0.09590346 -0.030815555 -0.2169454 0.5208796 0.028262336 0.16688219
0.07630323 0.2482904 0.11239057 0.8503343 -0.17438151 0.11005805 -0.051893912 0.40319034
-0.018744271 0.17853728 -0.17941943 0.26749232 0.26772353 -0.06950564 -0.074753046 0.5614423
-0.15172958 0.23401935 0.059440594 -0.07796466 0.12235405 -0.035021596 0.041902702 0.58864367
0.07321852 -0.10326294 -0.13007401 0.21534336 0.36532438 0.6247395 0.47780362 -0.03187866
0.4537406 0.4114044 -0.13173167 -0.00071956404 -0.07923054 0.049610093 0.43063426 0.13173428
-0.14834994 -0.075818434 -0.066094674 -0.030482749 0.6829482 0.39497453 -0.15943138 0.6051998
-0.03581125 0.64219475 0.06863726 -0.1640755 0.12195295 -0.021517841 -0.10883127 -0.14286198
-0.1566587 0.13278687 0.44704172 0.16260594 -0.044114895 0.01568535 0.19550538 0.15036982
0.40937158 -0.07657364 -0.17036983 -0.16725825 0.6315629 -0.10639968 0.19839324 -0.13226932
0.3349651 0.16673382 0.13742319 0.38066316 -0.15721479 0.14242063 -0.007666402 0.008775538
-0.0379399 0.476154 0.28601053 0.5462036 0.19422919 -0.054461557 -0.06447804 0.48039716
-0.159381 -0.19286528 -0.20563705 -0.17364262 0.25873694 -0.10101862 0.7544616 -0.23942794
0.2412841 0.47332647 0.37068617 0.73120385 -0.1176458 0.3629421 0.033195343 -0.20095943
0.4743821 -0.10683146 -0.009798403 0.5917435 0.07329736 -0.064675435 -0.11060592 -0.16507792
-0.038050935 0.41193977 -0.048478257 -0.16866325 -0.04379641 0.49296343 -0.008189689 -0.18976313
-0.017137332 0.00438756 0.36564323 -0.060301777 -0.021718493 0.5002552 0.36982277 -0.030309359
0.6039055 0.39235255 0.24225557 -0.21366249 0.15958677 0.038692173 0.5036644 0.1612748
0.2768414 -0.17412008 0.17595524 -0.06559274 0.09889724 0.59190464 0.043000195 0.11603645
0.43623996 -0.065196075 0.02520827 0.3629384 0.16134176 -0.14259298 0.1940378 -0.36359093
0.06476718 0.50228024 -0.1424669 -0.18484345 0.6687526 0.5784021 0.3563654 -0.24946152
-0.027219428 0.071775705 0.35378018 0.5132046 -0.14545994 -0.17986608 -0.11276259 -0.17170766
-0.057593238 -0.20802699 0.096682966 0.30594385 -0.12784134 0.12385998 -0.0064930217 0.3399821
-0.11616193 -0.2620797 0.10299034 0.19973466 -0.08306679 0.04803256 -0.15900947 -0.056091994
-0.10082119 0.38354164 0.08287459 0.2198142 -0.1374394 -0.033174403 -0.18669073 -0.005678344
-0.024600988 0.038739327 0.5721608 0.06383835 -0.14811745 0.14327438 -0.03818515 0.46770445
-0.21449262 -0.044808872 0.026734581 0.23235731 0.26176417 -0.06219594 0.26293272 -0.08967549

weight f4 [100, 512]
00000000: a374 c8bc 9bf2 a0bd 5c2f 17bd 5f02 a1bd
00000010: 4e54 2b3c f52f 84bd a946 60bd b474 823a
00000020: ddd2 873c 6f9c d93d f157 6c3d 7c58 08bd
00000030: 4f77 49bc a0c2 eebd b6bc bbba 2004 16be
00000040: aff6 0e3d 2af5 b8bc f15f aa3d b03d f6bc
00000050: 09bd 963c 5289 ebbc 6eea abbd 1173 f1bb
00000060: 4086 823d cdb6 293d 56d2 5abd 104d 853b
00000070: 25ef dabd a9b7 06bd b61f c1bd 2600 04bd
00000080: 7b36 5ebc d70f 20bc 2d3c c43c d70e abbd
00000090: 78c2 20bd dfad f73d 1a68 91bb b9e0 41bd
000000a0: 707c 9e3d 3188 343e c1ae cb3c 4ee6 64bc
000000b0: 4ac6 81bc 3781 4bbd f404 15bd 2a69 14bd
000000c0: 1e43 f8bc b257 98bd 2ba3 1d3d 5764 78bd
000000d0: 434d 503e 2911 063e 287d 1fbb a3a8 9cbd
000000e0: 48a9 91bb 965b 983c 625f 77bc 3960 9abc
000000f0: 2346 77bd 9c06 e4bc cb8b f5bc 5e7b 38bd
00000100: dbb8 b23d cdc8 40bd aae8 09bc 3b0c 883a
00000110: e72a dd3c e60c e1bc 414f e43c 3edf cdbd
00000120: 2d7f 4c3c 44cd fc3b ab2a 92bc 4b74 ad3b
00000130: e180 3c3d 23ca a4bd 00a8 63bb 8e47 433b
00000140: 7d16 78bd 0182 5ebb babb 2cbb 677e 60bb
00000150: 06a4 c03e 7856 da3d 30d0 8a3e 00d0 37bd
00000160: 7e5d 233e 5dcd fa3c 8f12 b73c 668a 09bd
00000170: 0c44 ea3c 2ed0 b3bc f45d 4fbc dddb 8d3e
00000180: c78a fabc 81f9 9c3d d452 113e 3a20 0dbd
00000190: 9b95 843c ae0d b83d 31f7 67bc e3a6 f0bb
000001a0: 15f9 c03c a435 85bd bc2f e93d 911e 9fbc
000001b0: 1927 c7bb 4926 413d 4fde e6bb 9d6c b13c
000001c0: f5e9 9cbd 60b9 133e bcb5 493e b7b1 f7bc
000001d0: bf6c 41bd f799 0abd a44b 0abd a9a0 8e3d
000001e0: 69cc 293e e9ff 0bbd fb3b 303d b092 acbd
000001f0: dd88 543b 0453 043c ff91 183d c5b9 df3c
00000200: e070 5f3c 2319 a7bc 44b2 84bd 34c5 ddbd
00000210: 74f5 cabd ea39 e7bb 0c7d 02bd 0615 05be
00000220: cce6 f83b 53c9 3cbc 46f7 c8bc 98ef 0a3c
00000230: 1d6e 15bd 18f7 17bd 3463 94bd a4e4 62bd
00000240: 98e5 1fbd 0460 87bd 93c1 2fbd bc80 e8bd
00000250: 2ae8 2a3d 1c33 873c f194 9a3e afb2 98bd
00000260: ca1b d73d a59a 10bd 367d 43b9 05bf 55bd
00000270: 1fb5 f4bd 34de f3bc d998 2a3c 4c1a eabc
00000280: ac64 9cbd ff98 babd 656d 733c 800f 35bd
00000290: 2668 113d 66fd 2c3e e69c 2abd 4b29 48bc
000002a0: 32a1 dfbc 5df5 423d 8b29 18bd a4d3 d5bc
000002b0: 9de1 99bd c1dd 2bbd 065c c73d df97 e83c
000002c0: 85a2 97bd e9f3 563c 54f6 bcbc 783d 39bd
000002d0: 4a49 20bd 3f1d 90bc fe8c 853d e669 09bc
000002e0: eb91 c4bb ecee 92bd 80ef ee3c 3a2d 07bd
000002f0: b8cb 703d e9e4 51bd a30a abbc 5119 22bd
00000300: 06e3 56bd 392c c9bd 880f 80bd 2d1f 75bc
00000310: e8af 6a3e c3c2 36bd 4903 e3bd 435e 7d3d
00000320: da66 173b da17 573b 64db 0a3e 667c 4f38
00000330: 761b 9bbd cdb1 f7bb b00c 1abd caa8 f7bc
00000340: e47a bb3c d2ff 873d 1f6d 56bd 1e5e 48bd
00000350: bcdd 213b 5fe1 583e 3c10 753b c4fe 723c
00000360: eb18 b7bb 39af 59bd 615f 03bd 8df7 5fbd
00000370: 1804 e63e 1065 a73b 7576 d93d 145b 91bd
00000380: d209 1c3c 26c0 62bd 18aa 9d3c 81cd 8fbb
00000390: 2aee 473d 2cdf 033e 31b9 02bb 7db3 973d
000003a0: 4f71 f23c efd0 5f3d 7cfd c03d 2e39 653d
000003b0: aadb 1fbd d10f 42bd 2707 353e 62a3 013d
000003c0: 1e10 843e 049d 353c 6da5 1abe 03f1 293e
000003d0: 4146 d8bc f4b6 9bbd 60d7 0f3a e350 04be
000003e0: e7a2 81bd 8002 1abd dc36 1c3d 4fcc 29bc
000003f0: e6b5 2ebd 9f9a 833d 3125 c9bb 4549 d33b
-0.02446968 -0.07858773 -0.0369104 -0.078617804 0.0104571115 -0.064544596 -0.054754887 0.0009952993
0.01658004 0.106255405 0.057701055 -0.03328751 -0.012296512 -0.116582155 -0.0014323208 -0.14650011
0.034903225 -0.02257784 0.083190806 -0.030058712 0.018400686 -0.028752003 -0.08394323 -0.0073684533
0.063732624 0.041434098 -0.05342325 0.0040680245 -0.106901444 -0.032889996 -0.094298765 -0.032226704
-0.013562794 -0.0097694015 0.023954475 -0.0835244 -0.03924796 0.1209371 -0.0044374587 -0.047333453
0.07738578 0.17630078 0.024863603 -0.013970925 -0.015841622 -0.049683776 -0.036381677 -0.036233105
-0.030305441 -0.074386016 0.038485687 -0.060642567 0.20341973 0.13092484 -0.0024336074 -0.076493524
-0.0044452287 0.01859836 -0.015098425 -0.01884471 -0.060369622 -0.027835183 -0.029973885 -0.045039527
0.08726665 -0.0470665 -0.008417288 0.0010379622 0.026997996 -0.02747197 0.027869822 -0.10052346
0.012481493 0.0077148993 -0.017842611 0.005293404 0.046021346 -0.08046367 -0.0034737587 0.0029797289
-0.06056832 -0.0033952 -0.002635701 -0.003425503 0.3762514 0.10661024 0.2711196 -0.0448761
0.15953633 0.030615503 0.022347717 -0.033579253 0.0285969 -0.021949854 -0.0126566775 0.27706805
-0.030583752 0.076647766 0.14191753 -0.03445456 0.016184619 0.08986984 -0.014158056 -0.007344113
0.023556272 -0.06504372 0.11386058 -0.019423755 -0.006077659 0.047155652 -0.007045544 0.021658236
-0.07661811 0.14426184 0.19698232 -0.030236108 -0.04722285 -0.03383824 -0.033763543 0.06964237
0.16581883 -0.0341796 0.04302595 -0.08426416 0.003243021 0.008076433 0.037248608 0.027310262
0.013637751 -0.020397728 -0.06479314 -0.10828629 -0.09910098 -0.0070564644 -0.031857535 -0.12996301
0.0075958725 -0.011522609 -0.024531972 0.008479975 -0.036481965 -0.03710088 -0.07245484 -0.05539383
-0.039037317 -0.066101104 -0.042909216 -0.11352679 0.041725315 0.016503863 0.30191758 -0.07455956
0.10503347 -0.03530373 -0.00018643294 -0.052184124 -0.119486086 -0.02976904 0.010412418 -0.028576992
-0.07636389 -0.09111213 0.014857625 -0.044204235 0.035499714 0.16893539 -0.041653536 -0.012216876
-0.027298544 0.047597278 -0.037148993 -0.026101895 -0.075137354 -0.041959528 0.09734349 0.02839273
-0.07404045 0.013119676 -0.023066677 -0.045224637 -0.039132394 -0.01759207 0.06521033 -0.008387065
-0.00599884 -0.07174477 0.029166937 -0.033002116 0.05878803 -0.051243696 -0.020879095 -0.039574925
-0.0524626 -0.09822888 -0.06252962 -0.014961046 0.22918665 -0.044619333 -0.11084611 0.061857473
0.0023102076 0.0032820613 0.13560253 4.94685e-05 -0.07573597 -0.0075590373 -0.037609756 -0.030231852
0.022885747 0.06640591 -0.05235016 -0.048917882 0.0024698814 0.21179722 0.003739371 0.014831249
-0.0055876873 -0.05314562 -0.032073382 -0.054679442 0.44924998 0.005108483 0.10618297 -0.0709745
0.009523826 -0.05535903 0.019246146 -0.0043885116 0.048811115 0.12878102 -0.0019946808 0.074072815
0.029595045 0.054642614 0.09423348 0.055962734 -0.039027847 -0.047378365 0.1767851 0.031649955
0.25793546 0.011084799 -0.15102167 0.16595845 -0.026400687 -0.07603255 0.00054871105 -0.12921481
-0.06329899 -0.03760004 0.038138255 -0.010363652 -0.04265394 0.06425976 -0.0061384668 0.0064479434

bias f4 [100]
00000000: e9f8 07be c9af 87be 23d5 6fbe 3643 83be
00000010: ef0b 86be 31a2 ef3e afaf 93be ab9d 57be
00000020: a96b 59be 57a9 eebd 2035 79be 64d2 b43d
00000030: 972c 1d3f c8ea 83be 448a 91be 374a 76bd
00000040: 8a9e 89be 73c1 e23c 8c57 4f3e 8f1e 8bbe
00000050: 9ccb 24bd fc74 91be ab38 86be 4d23 64be
00000060: b3b0 9ebd 8746 86be 6fde 863c 423b 86be
00000070: 0fba 313f d6bc 58be f606 923e 8c51 353e
00000080: 6e7a f33e 17a8 e73e 21c9 0d3d afd0 8abe
00000090: 84f6 2c3e c9ec 83be 716d 163f 404c 8bbe
000000a0: 4724 89be 4bd7 61be 3dee 72be 01ad 1a3d
000000b0: 7c56 81be d00e de3c 6772 233f 8ced 403f
000000c0: 0266 1dbe 67b5 9f3d 8c9e c63c 133b 88be
000000d0: 00ef 303f 2960 78be a739 653f 27c1 85be
000000e0: e80a 843e 2824 823d 88f5 80be 9a05 92be
000000f0: ad76 66bb 462f 64be c927 76be 496c f33c
00000100: 239e 8a3e 7262 283d 114e 84be 9282 9fbd
00000110: 5da9 66be 00cb 6fbe b463 d83e 5717 033f
00000120: 8c7e b53e 9813 cabe c2b9 6fbe c991 6ebe
00000130: 7d97 8dbe 931b 88be b922 88be 86c2 5dbe
00000140: d9d3 073d 2d9d 65be b421 8ebe 656f 55be
00000150: 7131 9fbd 34d1 3c3e e885 83be d79c 453f
00000160: c334 8abe 93e4 233d bded 823f 8ad5 1e3e
00000170: aad0 1ebd 6574 b33d 6f4a 90be dee5 353f
00000180: 5364 b43f a0bb 7ebe 7e30 7bbe ba01 73be
-0.13278545 -0.265013 -0.23421149 -0.25637215 -0.2618098 0.4680343 -0.28844973 -0.2105624
-0.21232475 -0.11653393 -0.24336672 0.08829191 0.61396164 -0.2576506 -0.284258 -0.06012937
-0.26878768 0.027680134 0.2024824 -0.27171752 -0.04023324 -0.28409564 -0.2621511 -0.22279091
-0.077485465 -0.26225683 0.016463486 -0.26217085 0.6942453 -0.21165785 0.28520936 0.17706889
0.47554344 0.4524543 0.03461564 -0.27112338 0.16890913 -0.2576659 0.58760744 -0.27206612
-0.2678549 -0.22054784 -0.23723693 0.037762646 -0.25261295 0.027106673 0.6384644 0.7536247
-0.15370944 0.077982716 0.024245523 -0.2660757 0.69114685 -0.24255432 0.89541095 -0.26123926
0.2578957 0.063545525 -0.25187325 -0.285199 -0.003516595 -0.22283658 -0.24038614 0.02971472
0.27073774 0.04110951 -0.2584081 -0.07788576 -0.22525544 -0.23417282 0.42263567 0.5120749
0.3544811 -0.39468074 -0.23410705 -0.232978 -0.2765464 -0.26583537 -0.2658899 -0.21656236
0.033161018 -0.22423239 -0.27760088 -0.20843275 -0.07773102 0.1843918 -0.256881 0.77192444
-0.2699338 0.040012907 1.0228802 0.15511146 -0.038773216 0.08762435 -0.28181788 0.71053874
1.4093117 -0.24876261 -0.24530217 -0.23731127
