system/models/Cifar100/CNN/FedPer_BaseHeadSplit_Cifar100_client_0.pt (torch, 726826 bytes, 10 tensors)

weight f4 [32, 3, 5, 5]
00000000: d5ba 033f 14fa 6f3f 1a45 50be 7fa6 2ebf
00000010: b7d4 bbbe b37b 213f e5b9 8d3e 3941 26bf
00000020: 465e 24bf f0ad 14bd 73e7 0d3d 8c10 06bf
00000030: 77d8 e5be 10c6 033e d850 453e 9dd5 fabe
00000040: 49e2 cfbe 4583 103f ca91 1d3f 77c6 353e
00000050: 414d 97be f9b2 ff3d a243 2d3f cb55 2a3f
00000060: dbda 023e 5adc 7b3e 68da 453f 10e2 b7be
00000070: 45a1 34bf da6d a1be e128 a63e 663f 5f3e
00000080: a37d 6ebf 9d7f 39bf ca0f 14be 59f1 81be
00000090: 2348 3fbf 649a cabe 17ce cf3d ae68 253e
000000a0: 189e 3cbf db90 3dbf 6da5 8b3e 958d 903e
000000b0: 460c 06be 62f4 33bf 29b3 41be d3b6 e33e
000000c0: 811d 133e 0f60 54be 9d99 2c3f d67a 913f
000000d0: e3a8 283e 62d0 6abe c0a1 193e 6d75 333f
000000e0: b4f4 143f 8da7 02bf 951a c3be 21ff 413e
000000f0: 04b8 8e3e 219c 58be 1e72 44be b714 c83e
00000100: 2743 e23e 61b7 ecbe 9eb7 b8be 9df9 073f
00000110: 6130 313f da10 9b3e 8e77 0fbf e3ef 07be
00000120: 75c8 173f cc0e fb3e ec04 eb3d 0976 e33e
00000130: ee97 0c3c 726c aebe c1e0 2f3e d0d6 a93e
00000140: c1b6 2d3e 475e 843d 5934 c1be 84fa 883d
00000150: 3fe8 3a3f d923 2ebe 71db 2bbe 7299 d9bd
00000160: db87 a33e fda8 a2b7 65d5 d6be 7c8d 5c3e
00000170: a19a 813f 8b61 4cbe bfdf b6bf b4c3 a0be
00000180: 767a a33e 01fc 333f 41b1 48bf 683c bfbf
00000190: 89c7 863e 8d15 d3bd 6284 c5be 8818 523d
000001a0: fdd2 433e 0666 8a3e 9773 13be bf21 0fbf
000001b0: 83a2 5a3e 0353 4a3f 4111 a2bd 1a73 1ebb
000001c0: 4873 88bd 0ab7 083f ab15 c63e 4dc3 bebe
000001d0: 252d 733e 272b 853f 29f2 923d 9837 62bf
000001e0: 204b 733d b4c9 e63e a303 583f cb5e 5dbe
000001f0: d446 86bf 8b5d b1be 30f1 21bf f6cf 48bf
00000200: 7513 e9be 69b3 a7be d41d 3bbd 26d5 aebe
00000210: 0d96 50bf e4e1 0abe 4e30 e53e 848f 25be
00000220: e34d 77be 8cd8 5cbe 8df7 6d3e fb92 4a3e
00000230: e166 22be 8ed1 7b3e 2a92 763f ec62 bcbc
00000240: 56e0 80bf 7889 163d 4357 0c3f 9eaa 623f
00000250: a541 79be 5330 76bf 95cc 8bbe 08ea dcbe
00000260: 50ec babe 1c43 68be 467e b0be 129f 66be
00000270: 1407 4abe cef6 d1be b6db 9cbe db04 d0be
00000280: 170f 07bd f604 30be 6f51 cebe 29c8 bfbe
00000290: bddd c2be 88fb 853a f405 54be 314f 99be
000002a0: 404b e2be d0aa d2be 90b3 1e3d 6f13 87be
000002b0: 967c a1be 908b debe e65b 18bf eed3 393e
000002c0: 2b6c 98bd a038 09be 449e 023d 422d a6be
000002d0: 1d5a 533e c7e4 613c ded7 0a3d 2f48 31bd
000002e0: c9f9 2dbe 5f2a ad3e 199e 063e 50ec fcbc
000002f0: 8122 1bbe 9b57 16be c1a4 bd3e 8d98 683e
00000300: df53 c9bd d256 75bd 446a 8bbe fe0c 013e
00000310: 246f a03c 2229 c2bc f3d0 69be 04f1 69be
00000320: 4640 823c 54dd 75bd 9aed 65be ae99 5cbe
00000330: bcad c0be 6c79 723e ae06 2bbd 9851 fd3b
00000340: fcb9 dbbd a416 94be f9d2 a03e aba3 f93d
00000350: a303 dcbb 3da5 00be 1e10 7dbe 194a b43e
00000360: 7198 a73d b104 0bbd 635b 6a3d bde5 78be
00000370: 461d ad3e 4f9a a33e 298c e63d 1ed8 dcbc
00000380: f8e2 3bbe 3484 29bf be4f cabe 877c d03d
00000390: 6793 9b3e 1ce0 943e 87ae 42bf 8b90 c4be
000003a0: 8db9 343e 3076 353f 17d5 143f b075 46bf
000003b0: 4a63 dfbe 65b7 0abc 6849 163f dc8b 293f
000003c0: 7dd1 ffbe bc12 73be 5968 ac3c 8190 d23e
000003d0: 7460 083f 6257 23bf 01d9 0ebe 3890 c4bd
000003e0: cedd 573e 0182 b03e 9e02 bcbe 6ff1 99bd
000003f0: 45d3 643e 76e1 b93d 6e5f 37bd df71 c4be
0.5145696 0.93740964 -0.2033886 -0.682228 -0.36685726 0.63079375 0.2768089 -0.6494327
-0.6420635 -0.036298692 0.034644555 -0.52369 -0.44891712 0.12868524 0.1926912 -0.489911
-0.4060233 0.564503 0.6155058 0.1775149 -0.29551128 0.12485308 0.67681324 0.6653716
0.12778799 0.24595776 0.77286386 -0.3591466 -0.7055858 -0.31529123 0.32453063 0.21801528
-0.93160456 -0.7246035 -0.14459148 -0.25379446 -0.74719447 -0.39570916 0.101467304 0.16153213
-0.7367873 -0.74049157 0.27274647 0.2823302 -0.1309062 -0.70294774 -0.18916 0.4447542
0.14366724 -0.20739768 0.67421895 1.1365612 0.16470675 -0.22931054 0.15003109 0.7010105
0.5818589 -0.5103691 -0.38106218 0.1894498 0.27874768 -0.21153308 -0.19184157 0.39078304
0.44191858 -0.46233657 -0.3607759 0.53115255 0.69214445 0.30286294 -0.560418 -0.13275103
0.5929025 0.49034727 0.11475548 0.4442599 0.008581145 -0.34067112 0.1717558 0.331717
0.16964246 0.064632945 -0.3773525 0.06688407 0.7301063 -0.17005862 -0.16782929 -0.106249705
0.31939587 -1.9390596e-05 -0.41959682 0.21538347 1.0125314 -0.19959085 -1.4287032 -0.3139931
0.31929368 0.703064 -0.7839547 -1.494031 0.26324108 -0.10306845 -0.38577563 0.051292926
0.19123454 0.27030963 -0.14399563 -0.5591087 0.21351056 0.79032916 -0.07913447 -0.0024177493
-0.06662613 0.53404295 0.38688406 -0.37258378 0.2374769 1.0403794 0.07175095 -0.8836608
0.059397817 0.45075762 0.8438055 -0.21618192 -1.0490365 -0.3464168 -0.6325865 -0.78442323
-0.45522657 -0.32754067 -0.045682743 -0.34146994 -0.8147896 -0.13562733 0.44763416 -0.16168028
-0.24150805 -0.21566981 0.23238964 0.19782631 -0.15859558 0.24591658 0.9631678 -0.022996388
-1.0068462 0.036752194 0.5482065 0.8854159 -0.24341448 -0.96167487 -0.2730452 -0.43147302
-0.36508417 -0.2268185 -0.3447134 -0.22521618 -0.19729263 -0.4100861 -0.30636376 -0.40628704
-0.032973375 -0.17189392 -0.40296504 -0.37457398 -0.38059798 0.0010222057 -0.20705396 -0.2994323
-0.44198036 -0.41145945 0.038745463 -0.26382014 -0.31540364 -0.43465853 -0.59515226 0.18147251
-0.074425064 -0.13400507 0.031889215 -0.32456404 0.20639844 0.013787455 0.033897273 -0.04328173
-0.16989817 0.3382139 0.13146247 -0.030874401 -0.15149881 -0.14681856 0.3703976 0.22714444
-0.0983045 -0.05989725 -0.27229512 0.12602612 0.019584246 -0.023701254 -0.22833614 -0.22845846
0.015899789 -0.060025528 -0.22453919 -0.21542999 -0.3763255 0.23679131 -0.041754417 0.007730674
-0.10728833 -0.28923523 0.3141096 0.1218942 -0.0067143007 -0.12563033 -0.2471318 0.35212782
0.08183373 -0.03394002 0.05721606 -0.24306388 0.33811396 0.31953666 0.11257202 -0.026958521
-0.183483 -0.6621735 -0.39513963 0.10180002 0.30385897 0.29077232 -0.7604756 -0.38391528
0.17648907 0.70883465 0.5813765 -0.77523327 -0.4363044 -0.008466576 0.5870576 0.66229033
-0.49964514 -0.23737615 0.02104585 0.41125873 0.53272176 -0.6380521 -0.13949968 -0.0959782
0.21080706 0.34474185 -0.36720747 -0.07516753 0.22346218 0.090762064 -0.044768743 -0.38368127

bias f4 [32]
00000000: 237a c2bf 5f2f 09c0 ed5f 41c0 42ad 00c0
00000010: aedb b0bf d5b2 e7bf 2fba 24bf 8ab5 83bf
00000020: 4dba bbbf 3b06 69bf c20f 27bf d8dd 88bf
00000030: c9dd 9bbf 6577 d9bf 0ec8 22c0 798d 02c0
00000040: 0d5b ebbf f998 afbf ce02 16c0 6e1f 9ebf
00000050: 734b 95bf 4a38 acbf c680 e3bf c7c0 f3bf
00000060: 1bfc c0bd 0cff c4bf 5719 f3bf a3bd 3bc0
00000070: edf2 bcbf a3f0 9ebf 3a3a 0cc0 aabc ecbf
-1.5193523 -2.1435163 -3.0214798 -2.0105748 -1.3817041 -1.810145 -0.64346594 -1.0289776
-1.466623 -0.9102513 -0.6525842 -1.0692701 -1.2177058 -1.6989561 -2.5434604 -2.0398848
-1.8387161 -1.3718559 -2.3439212 -1.2353342 -1.166365 -1.3454678 -1.7773674 -1.9043206
-0.09423085 -1.5390334 -1.8992108 -2.9334495 -1.4761635 -1.2417186 -2.1910539 -1.8495076

weight f4 [64, 32, 5, 5]
00000000: 8785 9f3e 6deb 203e 87de 133e cf12 873d
00000010: 2729 a9bb 7de2 8c3e 572d c1bd 1477 9dbd
00000020: 9f06 363c e5a8 43bc f7bd 963d db3b 7fbc
00000030: 36cc 77bc ecaa f7b8 567e 1ebd d0b1 1e3d
00000040: 3410 bf3c fdf7 d9bc 5a40 b0bd 89da f5bb
00000050: aa6c 4e3e 02e9 2c3b f366 09bd 30a0 3c3d
00000060: b296 a83d 0b94 2cbe 49aa cebd 2158 b5bd
00000070: 110a 003d 9b88 a83e d2f3 51be d479 2ebe
00000080: 0bea 98bd 6c3c 923c c161 313e a4e3 00be
00000090: 53d1 9dbe 836e 33be e349 23bd d39a 49bc
000000a0: 61f0 3dbe b25e a5be 6a58 46be 7083 57bd
000000b0: 02b6 57bd bd84 54be 9a58 88be f47a f8bd
000000c0: 43a3 82bd 6a69 423c 9684 07be ffd5 34be
000000d0: f870 1abe c93f acbb d058 903d 5188 e6bd
000000e0: 3d26 0ebe 5f11 90bd 48d8 99bd 4b42 37be
000000f0: f42f d4bd 0df6 b6bd aaa9 efbd b315 a8bd
00000100: 2f38 91be 2d49 e7bd 3210 4dbe 9b24 e7bd
00000110: 6d77 bfbd 9821 7ebe b9d5 e1bd dab5 23be
00000120: c84d 5fbe e19d 22be 5542 23be 11f5 25bd
00000130: 91f2 043d 93a5 b6bd 8412 60be b124 0dbc
00000140: 11bd 053e 58d6 2dbd d449 0fbe 91bc 39be
00000150: a031 28bc 6cb6 0c3e 86a8 78be f4a4 77be
00000160: d9f1 59be c6c1 7a3d 11a7 54bc aa7e bbbe
00000170: 79a9 94be 3199 8fbe ef02 a43d 86d1 8e3d
00000180: 74d4 45be e9d0 5dbe 9be1 20be 3127 4ebd
00000190: 2079 f2bd e573 73bd 133f 60bd 0a05 debc
000001a0: a8b4 043e 3863 03be 5437 cbbd a053 5abe
000001b0: 0ce5 13be 5e97 aebd cf95 bb3d 887e e7bd
000001c0: 54e7 2bbe d4aa e1bd 7b1b 9d3d 6e3b 3d3c
000001d0: e9f5 10be 2eb9 31be bab3 f8bc 6e1c 423e
000001e0: 0097 46bd b599 cbbc e897 cebc f6c4 f8bc
000001f0: e07d d83c 1303 193e bd47 263e 3c95 d5bd
00000200: c468 92be 74ec b2be 253a a23e c6bc 8c3e
00000210: 594c 603c 3b38 48be ea43 a2be d108 393e
00000220: a36f 093e 764c a9bd b980 2ebe aca5 4cbe
00000230: c276 da3b 8aae f63c bd7a 9ebd 3ac3 2cbe
00000240: 8da5 38be 429c f13c e28c fc3d a34d f23c
00000250: 0680 d7bd a6f5 f3bb fa55 8dbd c3b8 04bc
00000260: 113f 10be 15e5 3fbd a259 f23d 8f08 16bd
00000270: 233a e13b 82d6 69bb 560f 77bd 5dcf 4b3d
00000280: 6181 71bc 028f 503d 64f8 5d3d 92b4 6d3c
00000290: 3495 2f3c 39f7 c93b e74c 413c 87c6 d03d
000002a0: 3bf6 cb3d 810c 8cbc 8766 55bd 3de5 dfbd
000002b0: a19d 19bc d499 623d 6a1a e23d 5760 993e
000002c0: 10c8 573e 4f69 8abe f9db 95be 996d 5cbd
000002d0: 3c5e dc3e 5043 e73d 2b91 73be c3ef 4dbe
000002e0: c8d7 9ebc 7739 043e 3320 edbc a6d6 b1bd
000002f0: b06d e0bd 076a da3d 98db 12be aa00 d0bd
00000300: c9f6 94bc b176 95ba 6e38 9f3e bf11 1dbe
00000310: 14fa 00bc 98e7 ff3c f768 5f3e eef6 063f
00000320: 22da a7be c70d 87be e181 40be 550e 85be
00000330: 9d24 1fbe 7792 61be d3af 94be 8927 92be
00000340: 4efa b2be c893 20be a812 39be 69ae 76be
00000350: c568 c8bd ed9f 91be 67a2 74bd c30a 2ebd
00000360: a62d 41be 7eee bfbd 74f7 61be 1e11 823d
00000370: 37ec a0bd 273c acbd 4fd1 34bd fb8f 2bbe
00000380: a956 17bd 3b17 0c3d 74f5 9ebd d9a3 323d
00000390: f58c 893d 238f cb3c 92fc c53d 42f2 54bd
000003a0: 0dd4 883c f183 bc3d b222 8f3d 9417 043e
000003b0: 7411 4cbd b17b 833c 8ebe 6cbc 9286 cdbb
000003c0: 6ef3 433e 4a5d 8ebc 1fa4 67bd 5cde 5dbd
000003d0: 7d0c 1dbd f9b8 f03d 8853 a03a bcfb 6e3d
000003e0: 50ba b9bd e68b 13be 72cf 373d 4b94 353d
000003f0: c605 a0bd 8dbd 23be 424a adbe 11e6 3f3e
0.3115656 0.15714808 0.14440356 0.06595384 -0.0051623764 0.27516547 -0.09432476 -0.07688728
0.011109977 -0.011942123 0.07360452 -0.0155782355 -0.015124371 -0.000118097145 -0.038694702 0.038743794
0.023323156 -0.026607508 -0.08606024 -0.007502858 0.2015864 0.0026384 -0.033545446 0.046051204
0.08231868 -0.16853349 -0.10091073 -0.088547 0.0312596 0.32916722 -0.20503166 -0.17038661
-0.07466515 0.017851077 0.17322446 -0.12586838 -0.30823764 -0.17522626 -0.039865386 -0.012304979
-0.18548729 -0.3229881 -0.19369665 -0.052615583 -0.05266381 -0.2075376 -0.26630098 -0.121328264
-0.06378796 0.011865953 -0.13234171 -0.17659758 -0.15082157 -0.005256627 0.0704819 -0.11256469
-0.13881774 -0.07034563 -0.075119555 -0.17896383 -0.10360709 -0.08933649 -0.11702283 -0.08207264
-0.28363177 -0.11293254 -0.2002571 -0.11286279 -0.093489505 -0.24817502 -0.110270925 -0.1598734
-0.21807015 -0.15880539 -0.15943272 -0.040516917 0.03245789 -0.089182995 -0.21882063 -0.008614705
0.13060404 -0.042440742 -0.13993007 -0.18138339 -0.010265738 0.13741463 -0.24283037 -0.24184018
-0.21283664 0.061219953 -0.012979285 -0.36620075 -0.29035547 -0.28046563 0.08008372 0.06973557
-0.19319326 -0.21661724 -0.15711062 -0.050330345 -0.11839509 -0.059436698 -0.054747652 -0.027102012
0.1295954 -0.12830818 -0.099226624 -0.21320963 -0.14442843 -0.08524965 0.09159433 -0.11303431
-0.16787463 -0.11018911 0.07671257 0.011549814 -0.14156307 -0.17355797 -0.030359138 0.18956158
-0.04848385 -0.024853567 -0.025218919 -0.030367356 0.02642721 0.14942579 0.16238303 -0.10428855
-0.28595555 -0.34946024 0.31684986 0.27487773 0.013690078 -0.195527 -0.3169244 0.1806977
0.13421492 -0.08266537 -0.17041291 -0.19985074 0.006666989 0.030112524 -0.07738254 -0.16871348
-0.18031903 0.029493455 0.12331559 0.029578036 -0.105224654 -0.007445055 -0.06901164 -0.008100691
-0.14086558 -0.04684933 0.11833502 -0.036629256 0.0068733855 -0.0035680835 -0.06031736 0.049758304
-0.014740319 0.050917633 0.054191962 0.014508383 0.010716725 0.0061635044 0.01179812 0.10194116
0.09959074 -0.017095806 -0.05209973 -0.109323956 -0.009375961 0.055322483 0.11040194 0.29956314
0.21072412 -0.2703347 -0.29269388 -0.053815458 0.43040645 0.11292136 -0.23785846 -0.20110993
-0.019390002 0.12912546 -0.028946018 -0.08683519 -0.10958421 0.10664754 -0.14341581 -0.10156377
-0.018184083 -0.0011403171 0.3109774 -0.15338801 -0.007872123 0.031238362 0.21817385 0.52720535
-0.3278361 -0.263777 -0.18799545 -0.25987497 -0.1554131 -0.22028528 -0.29040393 -0.28545788
-0.34956592 -0.15681374 -0.18073523 -0.2408997 -0.09785608 -0.28442326 -0.05972519 -0.042490732
-0.1886507 -0.09371661 -0.22067052 0.06350921 -0.078575544 -0.08409911 -0.044144925 -0.16754143
-0.03694788 0.03420184 -0.0776166 0.04361329 0.067163385 0.024848526 0.096673146 -0.051988848
0.016702676 0.09204853 0.069890395 0.1289962 -0.049821332 0.016050192 -0.014449729 -0.0062721455
0.1913583 -0.017378468 -0.056553002 -0.054167137 -0.038341988 0.11754031 0.0012231926 0.05834554
-0.090687394 -0.14408836 0.04487557 0.044330876 -0.07813601 -0.15990277 -0.33845717 0.18740107

bias f4 [64]
00000000: 1663 49bf be0a 05bf 843c 223f a366 22be
00000010: 0a07 803e 5181 d2be 213b 67bf 696d 31bd
00000020: 9a17 21c0 072e cabe 772c 973e d2a2 edbd
00000030: ea14 fbbe 74db 56bf 5e9a 09bf 6fdb c83e
00000040: 3e12 803f 3a46 ef3e 0691 f9be c8d2 cf3d
00000050: b752 533c 46d2 7abf 6a83 16bf db6c 2c3e
00000060: bbf7 28be 61fd eebe 4dd3 bdbd d2b7 97bf
00000070: 807a 6dbd 949d cbbe d68b 1f3f bb16 12be
00000080: e2ff bdbd 44a9 d5bd b5f1 9dbe 3a62 61bd
00000090: 6aaf a4be 7fb7 273e c4e3 d93d a351 2fbf
000000a0: 8bb9 0fbf 92cf bdbf 6466 a53f 33a3 46bf
000000b0: dbaf 12bf 3441 b8bf 21f4 8abd 954c c5bf
000000c0: 0d34 cb3e c983 84be d3bb 29bf 053b a73c
000000d0: edd0 52be fbf4 ffbd 4c69 c0bf 14e1 2abf
000000e0: 42fa 1ebf 5418 7b3d 8805 3d3d 44b1 8bbf
000000f0: 5b68 10bf 7ee6 7bbe f16e 9f3f 21bb 63bf
-0.7866682 -0.51969516 0.6337359 -0.15859465 0.2500537 -0.41114286 -0.903246 -0.043317232
-2.5170655 -0.3948824 0.2952611 -0.11603321 -0.49039394 -0.8392861 -0.5375117 0.39229915
1.0005567 0.46733266 -0.48743457 0.10147625 0.012898139 -0.979771 -0.5879427 0.168384
-0.16500752 -0.46677688 -0.09268818 -1.1852973 -0.057978153 -0.3976866 0.6232275 -0.14266483
-0.092773214 -0.104326755 -0.3084847 -0.055025317 -0.3216508 0.16378592 0.10639146 -0.6848394
-0.5614249 -1.482897 1.2921872 -0.7759277 -0.57299584 -1.4394898 -0.06784845 -1.5413996
0.3968815 -0.25881794 -0.6630222 0.020413885 -0.20587511 -0.12497898 -1.5032134 -0.6674969
-0.62100613 0.061302498 0.046147853 -1.0913472 -0.56409234 -0.24599645 1.2455732 -0.8895741

weight f4 [128, 64]
00000000: aed2 d8bc d04c 913e 584b 843e e0ed 23be
00000010: 65c8 f5be 051e 9dbd f751 afbc f8be 93bd
00000020: 621d 4a3d fd13 093f 0027 603e b4ac d5be
00000030: 751a 0cbe 8b4b 0f3e 4df5 83bd 1122 7a3d
00000040: 8f55 583e 209a a73e 12b3 43bd 8036 e83d
00000050: dbd7 9c3e 6482 21be 8d28 e2be c746 3f3e
00000060: 4dc3 76bd b379 733e 6c07 ea3d 371a 83be
00000070: 3207 8cbd 4069 9fbe 31b3 113f 9ae9 a23c
00000080: 2fdf e4be ccab fd3d 6d7b 513e c474 d3bd
00000090: d6ee 9c3e 2da4 473e fc79 803e 2f02 2dbc
000000a0: 2052 8abd ce67 11bf 7ff0 1dbd 476d 8d3d
000000b0: 9132 3fbe ccc3 afbe 78bf 0cbf 1bab 25bf
000000c0: b74a 913e 7665 823d 2e4b 223e 0774 043e
000000d0: 2902 93bd a5d1 c5be 7b94 b5be b60b 4e3e
000000e0: 3f04 7b3e a940 d73d 2aa4 0dbe 7ec6 8bbb
000000f0: caad 8fbc afcd 76bd 0e92 a03d ab72 b8be
00000100: de51 d9be 10f4 00bf 0507 4ebe 8ff2 dcbd
00000110: 494f 70be 55ae ddbe 069e d33d 819b 9e3e
00000120: 5cfc 68be ec06 9f3d a37d a63d e63e d53e
00000130: 66d6 fd3c 3c36 4ebe dc06 f3bd f1d6 a13d
00000140: 70f3 123e 9f84 bf3e 963d c73d ac80 26be
00000150: ddaa a0be 3240 d73c 3f21 773e 255c 3ebd
00000160: ff13 0cbd 7958 b13d 3b74 a4bd a408 c0be
00000170: f3e4 81be 4894 d13e 918e 9b3e dcaf 15be
00000180: a30b 12be a9da c9be 4d30 91be 52c5 123e
00000190: f545 533e 001a 6abe e55d c03d 6df8 bd3e
000001a0: 571e 0cbf c31d 08bf 2272 dfbd a996 cfbe
000001b0: 5dfe 113e 99ed b43e a066 59be b39c 893d
000001c0: 2fb9 3a3d 043c a83e 6ec1 853d aec5 9fbe
000001d0: 534a a1be de62 363e 8a88 2dbe 527b 333d
000001e0: 0596 6f3d e82a e33d cdde 9dbd 22d2 6f3d
000001f0: bf3d a53e a787 753e 583a 923e 543e 9e3e
00000200: 7a2e 593e a63f b4bd 6e92 753c 04ae e7bd
00000210: cc0f 40bf cbf6 e83c d598 3d3b 6ac2 983e
00000220: 1841 0c3e fdea 61bd b425 82bd 4e73 193e
00000230: e7d5 8dbd 32dd 02be bbee 983d 03e8 713e
00000240: 82e3 debe db65 4a3e 01e6 173d fc96 e5bd
00000250: ca75 223f 0153 533d bd30 72be be71 863d
00000260: 7f42 a43c 4a1b 1e3e 0e3e bf3e 0dd2 8a3e
00000270: 8435 e53d de65 543e 30cf 4f3d 8b29 1cbe
00000280: 24d5 21bf fbc7 15bf def8 c1be deb3 123d
00000290: f82d 893e bb2f e5be a273 043d 9a01 f23e
000002a0: e8d9 23be ef13 cd3d 8149 0d3e 82d5 793d
000002b0: af09 c3bd d7dd af3a ab18 b4be 0c27 143e
000002c0: c9a5 8c3e 0e5d f03e e76f fcbd aa16 bcbe
000002d0: 8714 333d 2682 fbbc 5d9a 173f 31d9 0e3e
000002e0: 7470 cb3b 9d2c 0c3e eeff 07bf 80f1 6c3e
000002f0: b22b c23e ffaa eabe 8818 6bbf ae84 063a
00000300: ad31 cb3e 57de 563d 8a72 62be fd11 f73c
00000310: 0691 d73e f742 58be 514f b83e e6d5 af3c
00000320: 95bf dbbe 56bc b9be 1035 c7bd ef9d c1be
00000330: 2fc0 b3be 4ec5 463e 6ecc 44be 0c79 383e
00000340: 72e6 04bf a2d1 86be d584 45be 2294 453e
00000350: a3a8 6f3e 3529 9cbe d5b0 93be b019 efbd
00000360: 667a 84be 21bb d13e 7233 99bd d60a a23e
00000370: 2818 df3d 6e61 1dbf 4a06 0a3f 31bb 503d
00000380: 9717 543e 460e 953e 45de 5e3e 2fb4 55bc
00000390: 8ef3 40bd a633 a13d 796d a1bc 2459 273d
000003a0: 50c3 943e 5467 13bf 3878 c73c 147f 0fbd
000003b0: 2813 48bf ceb5 aebe c99d c8be d28e 4e3e
000003c0: a24a 9fbd 6fea 91be b2db 8e3e 4f77 2e3e
000003d0: f7ba d53e 517a bc3e 129a 803e 0718 24be
000003e0: bc49 85be 65e4 c1bd 2df8 17bf 0b54 84be
000003f0: 61d6 abbe cb43 b6be 9a0f af3e 1550 d2ba
-0.026467647 0.28378916 0.25838733 -0.16008711 -0.4800445 -0.076717414 -0.021401389 -0.07214159
0.049344428 0.53546125 0.21889877 -0.41733325 -0.13681968 0.13993661 -0.06443272 0.061067645
0.21126388 0.32734776 -0.047778197 0.1133852 0.30633435 -0.15772396 -0.44171563 0.18679343
-0.060244847 0.23776893 0.11427197 -0.25605938 -0.0683731 -0.31134987 0.5691405 0.01988678
-0.44701526 0.12386283 0.2045724 -0.10325006 0.30650967 0.19496222 0.25093067 -0.010559603
-0.06753945 -0.5679902 -0.038559433 0.069056086 -0.18671633 -0.3432907 -0.5497966 -0.6471421
0.28377315 0.063670084 0.15848991 0.12934886 -0.071781464 -0.3863651 -0.35464844 0.20121655
0.24513339 0.1051038 -0.13832155 -0.0042656055 -0.017538924 -0.06025475 0.07840358 -0.36024985
-0.42445272 -0.5037241 -0.20119865 -0.10788452 -0.23467745 -0.43297067 0.10332875 0.30978015
-0.22752517 0.07764992 0.08129432 0.4164955 0.030986022 -0.20137876 -0.11866543 0.07902325
0.14350677 0.3740587 0.097285435 -0.16260022 -0.31380358 0.026275728 0.24133776 -0.046474595
-0.034198757 0.08659453 -0.08029982 -0.37506592 -0.25369987 0.40933442 0.30382207 -0.14617866
-0.14262252 -0.39424637 -0.28357163 0.14333084 0.20632155 -0.2286148 0.09392909 0.37103596
-0.54733795 -0.5317041 -0.10910441 -0.40544632 0.14257188 0.35337523 -0.21230555 0.06719341
0.04558676 0.32858288 0.065310344 -0.31205505 -0.31502017 0.17811152 -0.16946617 0.04381878
0.05849268 0.11092168 -0.077085115 0.058550008 0.3227367 0.23977529 0.28560138 0.30906928
0.21209136 -0.088012025 0.014988525 -0.11312488 -0.75024104 0.028437993 0.0028930206 0.29835826
0.13696706 -0.055155743 -0.063548476 0.14985391 -0.06925564 -0.12779692 0.07467409 0.23623662
-0.4353295 0.19765417 0.037084583 -0.112104386 0.6346098 0.05159283 -0.23651405 0.06564663
0.020051239 0.15440097 0.3735203 0.2711338 0.11191848 0.20741984 0.0507347 -0.15250222
-0.6321585 -0.5850827 -0.37885183 0.035816066 0.26792884 -0.44762978 0.03233684 0.47266847
-0.16001093 0.10013568 0.13797571 0.060994633 -0.095233314 0.0013417554 -0.3517507 0.1446802
0.27470234 0.46945995 -0.12326031 -0.3673604 0.04372075 -0.030701708 0.59219915 0.1395004
0.006208474 0.13688894 -0.5312489 0.23139 0.37923962 -0.45833585 -0.91834307 0.0005131465
0.39686337 0.052458134 -0.22114006 0.030159945 0.42102832 -0.21119295 0.35998014 0.0214643
-0.42919603 -0.362765 -0.09726918 -0.37815806 -0.35107562 0.19411203 -0.19218609 0.18014926
-0.5191413 -0.26331812 -0.19288953 0.1929479 0.23404174 -0.30500188 -0.2884585 -0.116748214
-0.25874633 0.4096308 -0.074805155 0.31648892 0.10893279 -0.6147679 0.53915846 0.05095977
0.20712124 0.29112452 0.21764477 -0.013043447 -0.04710727 0.07871179 -0.019705521 0.040856495
0.29055262 -0.5757954 0.024349317 -0.0350333 -0.7815423 -0.3412308 -0.3918288 0.20171669
-0.07777907 -0.2849917 0.2790199 0.170377 0.41744205 0.3681207 0.25117546 -0.1602479
-0.26032817 -0.09467391 -0.5936306 -0.2584537 -0.33561996 -0.35598597 0.3419159 -0.0016045595

bias f4 [128]
00000000: c2a5 603d 770e 19bd f883 d9bf 9397 453f
00000010: 03b6 6d3f 1ebb 63bd b3cd 143f 0d34 fd3c
00000020: 413f 3c3f 80a7 973f fee0 a43f f2f4 b93e
00000030: b178 71be 92ac 95bf e3aa d6be fa6a 13be
00000040: 7eda ad3e b907 8c3e 1df7 923f a584 a23e
00000050: e9a6 0d3e 48a9 dabe 6197 ca3e 1572 50bf
00000060: 076d 5d3e e953 803f d69f 793e 6cd2 d33e
00000070: bc82 8abf 5e80 653d 6a5b 623f 7c06 f8be
00000080: cf7e 093f 23c1 01bf ed01 483f 9dbe 1cbf
00000090: 48ff da3e 6c64 553c ff33 0abe f07a 0a3f
000000a0: de66 d8bf f3e3 1b3d 9308 dabe 89b5 64be
000000b0: 7b86 31bf 61a9 ebbd 000c 473e 580d 2a3f
000000c0: 47ba a3be 31f0 313e 52d9 0bbe 39ac df3d
000000d0: 4f21 813f 3781 803f 00db 54bf 491b 043e
000000e0: 1683 75bf 48e1 50be 73f1 92be 8853 13be
000000f0: 4268 96be b3b4 04bf 2720 143f 5c1e a9be
00000100: f00b 083f e343 d73e db02 793f f348 1a3f
00000110: a115 9ebf ea1d 99be e305 183f 48f6 3d3f
00000120: c822 d73e 52e9 7c3c dba6 73be df72 8abf
00000130: 1ea9 39bc d7b5 a8be 3731 16bf 3da1 ddbe
00000140: 7d10 cebe cad0 2b3f 95b3 293f 698a 32bf
00000150: 1dde f3ba b41f 8b3f 4df1 8c3d 4bc4 e1be
00000160: 59ac 0c3c ad00 0cbe ec8c 213e a1fd 6bbf
00000170: 7763 3e3e 5b4d 9f3c bf90 34bd deb9 bf3d
00000180: b9b3 5abd 0859 803f 819c 75bd 21f6 123f
00000190: 3be4 283f 5eb7 333f 4f8b cb3e 75ce e13f
000001a0: 6779 4cbc fb34 4bbf 3db3 c2be 3f61 d4bd
000001b0: 69cf e83e d7b3 2ebe a4bf 04bf 2f1d 163f
000001c0: c5b7 ee3e c224 85bf 85af 333f 704e 00bf
000001d0: a5e9 a1bf dfa4 ef3e ab1f 353f 0449 8ebe
000001e0: de4b e8bd 405f 483e 360d 593f 31fa 3c3f
000001f0: 7e6c 043e 460c 983e 919a 663e e9c6 a93e
0.05484558 -0.03736731 -1.6993399 0.7718441 0.9285585 -0.05559837 0.5812637 0.030908609
0.7353402 1.1847992 1.2881162 0.3631969 -0.23581196 -1.1693289 -0.4192725 -0.14396277
0.3395576 0.27349642 1.1481663 0.31741825 0.13833202 -0.42707276 0.39568618 -0.81424075
0.21623622 1.0025607 0.24377379 0.41371477 -1.0821147 0.056030624 0.88420737 -0.48442447
0.5370912 -0.5068533 0.7812794 -0.6122835 0.4277289 0.013024431 -0.13496397 0.5409384
-1.6906393 0.038059186 -0.42584667 -0.22334875 -0.69345826 -0.11506916 0.19438171 0.6642661
-0.31978056 0.17376782 -0.1365712 0.10921521 1.008829 1.0039433 -0.8314667 0.12901033
-0.95903146 -0.20398438 -0.28699836 -0.14387333 -0.29376417 -0.51838225 0.5786156 -0.33030975
0.53143215 0.4204398 0.9726998 0.6026756 -1.2350351 -0.29905635 0.5938398 0.7420392
0.42018723 0.015436487 -0.23794119 -1.0816306 -0.011331825 -0.32951233 -0.58668846 -0.43287078
-0.40246955 0.6711546 0.66289645 -0.6974245 -0.0018605624 1.086905 0.06881962 -0.44095072
0.008586013 -0.13672133 0.15776414 -0.9218388 0.1859263 0.019446066 -0.044083353 0.09361623
-0.053394053 1.002717 -0.059963707 0.5740681 0.6597325 0.7020167 0.39754722 1.7641131
-0.012480116 -0.79377717 -0.38027373 -0.10370111 0.4547074 -0.17060791 -0.5185492 0.5863828
0.4662458 -1.0401843 0.70189697 -0.50119686 -1.2649428 0.46805474 0.70751446 -0.27790082
-0.113425955 0.19567585 0.84785783 0.7381926 0.12932011 0.29696864 0.225199 0.3315957

weight f4 [512, 128]
00000000: f0c3 adbd 2699 3a3d f05d 15be 3da8 13be
00000010: 01e1 ebbc 6792 a8bd aa74 19bd df59 863e
00000020: 04b3 c5bc 34f7 7f3e 64d3 66be d741 363d
00000030: 7d64 91bd 27cf 91bd 1e88 de3d 7796 88bd
00000040: 41b7 0bbd 8132 5abd fede d0bd f5e6 013e
00000050: 349c 663d 6373 c8bd b40f a1bd b0eb 2d3c
00000060: 68f2 5dbd a1a2 3dbe 36aa c4bc 8277 85bd
00000070: 0f69 72bc 640c fb3d 9b39 34be 5bb1 17bd
00000080: 6b6d 063d 9435 3e3e ad24 d93d 969f 813d
00000090: aae1 0d3e cc58 a63b efb5 15bd da9e 7a3d
000000a0: 695f 1bbd a1bf a13a 086e 343d 166f c5bd
000000b0: 2993 173e b1e7 7cbd 1d29 afbd d9bd 1dbb
000000c0: 295e 6ebd f2e6 2e3d cb7f 38bd 457d aa3d
000000d0: a01a 1f3e 4378 68bd 47e3 19bd f1b5 10bd
000000e0: e345 7bbd b749 573d f0de 05bd 6f91 e93d
000000f0: 78e3 153d c4a5 9bbb d851 fd3d 980a fabd
00000100: ef38 ad3d 290e 20bc f524 a53c e760 27be
00000110: 3c38 0cbc f893 fdbd 507b 38be 02ff d6bd
00000120: 985b dfbd 8fe8 2cbe 104d f8bd b569 ddbd
00000130: 090b 12bd f97b e0bd 6daf f93d 75bd 04be
00000140: 8df7 16be 00af 963d c1c4 ac3d eccc a6bd
00000150: e801 a43d 1450 efbd 7361 4ebd e047 5cbd
00000160: 209b 963d 6e2b fc3d a568 f13d f7f2 3ebd
00000170: b094 a63c 23ad cdbc b449 95bc 6193 f83c
00000180: ff67 5b3d 33bf 543e c424 093d 3cfd 153d
00000190: 7874 0bbe ec60 e5bc 0f75 c33d 4e4b 31be
000001a0: d50f e03c 025c 13bd 4f1c 00bd b535 d0bd
000001b0: 6136 99bd 169b 8d3c 03de 1fbe d0dd 3bbd
000001c0: eade c1bd 54e2 103e 2d4d ed3d 8d68 1b3d
000001d0: 103f efbd 4590 453e 59f6 03be 52f1 87b9
000001e0: a590 cbbd e132 acbd 4669 d0bd e879 fab9
000001f0: ef9c fc3c 7cd3 ac3c 14f7 4f3c 323b ac3c
00000200: c85d b13d 39df 3d3d 31e9 94be 5990 bbbd
00000210: 699d b7bd 1a10 2ebd 8b45 07be 9343 d73b
00000220: c444 94bd d825 95bd b753 57be 8954 41be
00000230: f8bf ecbb 0818 e63d 360a eeba 785f 6dbd
00000240: 4853 083d c59b a6bd cae1 253e a0aa 90bd
00000250: a133 313c d4be b33d 3bad 6c3d 66ad d3bd
00000260: 551b f43d ddf5 2cbe 2400 b8bd bdef 5d3d
00000270: 7560 963d cfd9 be3d 722a 67be 3b0b 4abe
00000280: 3306 bdbc 4c38 5abe 806d 34be f1d4 d9bd
00000290: 2759 f2bd 1754 923b 9ec7 20be 67a5 dcbd
000002a0: 3dae 7b3e a062 42bc 225e c7bb 0735 8c3b
000002b0: 10d0 f7bb f6a9 a13d 8704 c5bd 1fff 1dbe
000002c0: 9290 f53c 3586 1cbd 4712 553e b6f6 8abd
000002d0: a7fc 8abe 47e6 7abe d654 ce3d 9c50 dabd
000002e0: 3775 05bd f37b b33c 31d9 d5bd 6569 433d
000002f0: 4529 b3bd c575 04be c2b5 573c a5b9 acbd
00000300: 14d3 c3bd c9d7 05bd 43c6 c2bd 6118 2b3d
00000310: f90a 7a3d 68f7 3a3d 7577 75bb ac42 8abe
00000320: 9485 1abe 4267 80bc 2d92 30bd 4cf7 1cbe
00000330: ddbf 13bd 1ba0 2c3d 0206 56bd 6052 523d
00000340: 7169 a6bd aabc 243e e122 90bc d1a8 ac3d
00000350: d3c7 25be 7d94 02be 5daf 1f3c 786d bbbd
00000360: 30b4 2fbe edae 44be 23f8 d4bc 6fab f33d
00000370: 5575 08be 0d1a e2bd 4d2c e6bd 6a03 c43c
00000380: 1c37 753e da9c 59be c5df 3d3a 6d7b 82bd
00000390: 45e1 d7bd d0f3 04be 35a2 cfbd b338 dc3c
000003a0: b208 10be 22ac 16be 68de 0b3e 7152 80be
000003b0: 17b6 35be 4da9 2dbe 92a0 063e cfdc 843d
000003c0: 87b6 e53d b447 6cbd 4924 d5bd 46a2 1b3d
000003d0: 0fdb 21bd aec2 9a3d 8d0e 953e 7ade 4e3d
000003e0: 91eb d8bd fe9c 36bd 5b0f 73be eda7 dcbc
000003f0: 23ac 90be c105 243e acce a3bd a060 3ebe
-0.08484638 0.04555621 -0.14586616 -0.14419647 -0.028793814 -0.08231049 -0.037464775 0.2624044
-0.024133213 0.24996644 -0.22541577 0.044496384 -0.07099245 -0.07119589 0.10865806 -0.06669324
-0.03411031 -0.05327082 -0.101987824 0.1268576 0.05630131 -0.09787633 -0.07864323 0.010615274
-0.054186255 -0.18519069 -0.024006944 -0.06516935 -0.014795556 0.12258223 -0.176001 -0.037034374
0.032819193 0.18575126 0.106026985 0.06329267 0.13855615 0.0050765034 -0.03655046 0.06118665
-0.037932787 0.0012340435 0.044050246 -0.096403286 0.14802231 -0.061744396 -0.085527636 -0.0024069457
-0.058195267 0.042700715 -0.045043748 0.083246745 0.155375 -0.056755316 -0.037570264 -0.035329763
-0.061345946 0.052560534 -0.032683313 0.114046924 0.036593884 -0.0047499854 0.12369126 -0.12209052
0.08458125 -0.009769001 0.020159224 -0.16345559 -0.008558329 -0.123817384 -0.1801579 -0.10497858
-0.10906142 -0.16885589 -0.121240735 -0.10811178 -0.035655055 -0.10961146 0.12191663 -0.12962897
-0.1474287 0.07357597 0.08435965 -0.081445545 0.08008176 -0.116851956 -0.050385904 -0.053779483
0.073538065 0.12312971 0.117875375 -0.046618428 0.020334572 -0.025106972 -0.018223621 0.030343713
0.053565975 0.20776062 0.033482328 0.036618456 -0.13618648 -0.028000318 0.095438115 -0.17313883
0.0273513 -0.035976417 -0.031276997 -0.10166494 -0.07481075 0.017285865 -0.15612034 -0.045865834
-0.094663456 0.14148837 0.11586986 0.037941504 -0.1168195 0.19293316 -0.12886943 -0.00025929004
-0.09939698 -0.08408142 -0.10176329 -0.00047774543 0.03083655 0.021096937 0.012693185 0.02102432
0.086604655 0.04635546 -0.2908416 -0.091583915 -0.089655705 -0.042495824 -0.13210122 0.006569335
-0.072396785 -0.07282609 -0.21028028 -0.18879904 -0.007225033 0.11235052 -0.0018161002 -0.057952374
0.03328255 -0.081351794 0.16199413 -0.07063794 0.010815532 0.08776632 0.057782393 -0.103358075
0.11919276 -0.16890664 -0.08984402 0.05418371 0.073426165 0.093188874 -0.22574785 -0.19730847
-0.023074245 -0.21310538 -0.17619896 -0.106363185 -0.11833411 0.0044655907 -0.15701148 -0.107737355
0.24578185 -0.011864334 -0.0060842196 0.0042787823 -0.007562645 0.078937456 -0.09620004 -0.15429352
0.029976163 -0.038213927 0.20807754 -0.067853376 -0.27145883 -0.24501906 0.10074775 -0.10659906
-0.032582488 0.02190969 -0.104418166 0.047707934 -0.08748106 -0.1293555 0.013165893 -0.084338464
-0.09561744 -0.032676492 -0.09510472 0.041771296 0.06104562 0.0456461 -0.0037455235 -0.27003992
-0.15090019 -0.015674237 -0.043108154 -0.15328711 -0.036071647 0.042144876 -0.052251823 0.05134809
-0.0812558 0.16087595 -0.017594757 0.08430637 -0.16189508 -0.12751956 0.0097464 -0.09151739
-0.1715858 -0.19207354 -0.025997227 0.11897933 -0.13326009 -0.11040125 -0.112389185 0.02392741
0.23946804 -0.2125124 0.0007243122 -0.06371198 -0.10541014 -0.12983632 -0.101383604 0.026882505
-0.14065817 -0.14714101 0.1365906 -0.25062898 -0.17745243 -0.16959114 0.1314719 0.064874284
0.11216455 -0.05768557 -0.104073115 0.037996553 -0.03951555 0.075566635 0.29112664 0.05050514
-0.10591806 -0.044583313 -0.23736326 -0.026935542 -0.2825633 0.1601782 -0.07998404 -0.18591547

bias f4 [512]
00000000: c79c 2e3d b7ca 643e 60ee f6bb 2c6c 9b3d
00000010: 62aa 89bd 279f da3e 0a9f 053f ef35 a5be
00000020: da23 88bc 6671 65be 4ec7 50be 2dd1 303d
00000030: 8ef1 833e f7db 023f 5d98 16be 5e94 783f
00000040: 015e 93bd 5e5b f6bd 4a89 be3e 8826 a13e
00000050: 5cae 933c 6cfd c13e bb6d 3c3e 3657 803d
00000060: 44f5 82be 12b3 0cbe e128 bd3e 2ad1 a43e
00000070: 55fa 833d dc11 923d 81ad 443f b710 e83d
00000080: 6fc5 46bd 115c 27be c725 603c 5587 db3e
00000090: d9fe 263e 66dd ab3d a159 3dbe f2e5 f93d
000000a0: b60f 20be 0bf2 b33d 6230 dcbd c404 eabd
000000b0: 03c7 97be 2b39 153f c72a 15bd 9c97 c23d
000000c0: 71d3 7b3d 0c2c 6a3e 69eb 7a3d bafa 5e3f
000000d0: f7f6 2fbe 5cb7 bf3d c1a2 56bd 4bca c13e
000000e0: fff4 aebc 4097 1f3e 8413 fbbd 8e82 833e
000000f0: fe28 333e c700 f3bd 53f6 01be 27c7 0e3f
00000100: bb06 2ebe 0b32 953e 07ba 2a3e 6db5 c9bd
00000110: dc3f f43d fe24 ce3c 56cc b6ba 7eb5 f83e
00000120: 5876 023d 133b 16be cd3b 17be 9e58 183e
00000130: 2805 c53e ffb5 253f c808 de3e 9eb2 b7bd
00000140: 044c d13e 425e fa3e de02 20be acf7 8039
00000150: 5781 83bd 4c76 53bd e678 fa3e fb6a 983d
00000160: d04b 02be b4a0 61bd a657 6fbc e347 4cbc
00000170: 4ba9 2a3f fa35 fb3e 95cb d1bd dc86 1b3f
00000180: d8e8 99bc ae03 f83e da70 64bc a62b 7ebe
00000190: 3df2 ed3d 2a3b debc 6b16 eebd 4acd ffbd
000001a0: 4a69 bcbd 7d5d 173e 6244 d03e 73cf 83bc
000001b0: 7ef7 f7bc f158 b23d 385f 2e3e 7b53 1e3e
000001c0: 55a8 0a3f e918 b5bd 6939 afbd 2a72 02be
000001d0: 0212 e23e 019f 0ebe e24e 573e 788c 52be
000001e0: f3e3 963e 9ec7 323e bc37 c63d b26c 943e
000001f0: 79ad 4abe 1e27 083e c94f 093b 6aac 9fbd
00000200: 52b7 61bd a51f f93e 5612 903e 0fcf f23e
00000210: b394 243e fce1 eebd dc25 13be b77f 203f
00000220: d2fa 1bbe ff8b 8abe 347d 2abe 1f46 27be
00000230: 12d6 a83e 39d6 bfbd 5a9d 303f 8bba 2bbe
00000240: 549a 973e a23d 063f 5592 ad3e bcee 263f
00000250: 9e23 eebd 3fac df3e c3ed 223d b039 0fbe
00000260: 19c8 b93e 4027 ecbd 90fb 44bd 2849 0c3f
00000270: 6076 cf3d 2063 05be c8eb d4bd 59c0 3abe
00000280: 0d95 f4bc 89aa ca3e 6ecb 67bc c04e 8cbd
00000290: b37b 29bd e345 f33e 63f0 523c d536 22be
000002a0: 532f 41bd 8f4e 4d3c 4098 ce3e f2f5 173d
000002b0: d7f2 fe3d b4e8 e53e 7f5f 9a3e 2d53 a63d
000002c0: 8bee 113f f872 a63e e33e 3e3e 0c49 19be
000002d0: ad8e 1f3e 8ac1 3b3e 9e92 053f 511f 183e
000002e0: 704d 853e c739 04be 7489 a93c 1b3b 63bc
000002f0: bbc1 9b3d 6773 213f 21c0 ca3d df32 ab3d
00000300: 3363 b33e 65d2 a9bd ccf8 b93d 69e9 653e
00000310: 847f 0c3d b445 b4bd 35ff 583e e5f5 b0be
00000320: 3769 94bb 69e0 153f 5639 e8bd 99f3 f6bd
00000330: 3d10 5b3f 5cac 1a3f 74cc 893e 9211 45be
00000340: 6fd4 8ebd dbba c23c bac7 a93e 6845 033f
00000350: 64d3 57bd 5d03 8cbe 43af 1cbe 0593 08be
00000360: 1781 1dbd 6ede 58be 14ec 9e3d f847 923e
00000370: c17d d0bd 36f3 e4bc 6e43 56bd 2a98 ac3e
00000380: 6f49 30be 56d5 45be 234c 533c 1ab6 5b3e
00000390: d72d 973c 3375 88bb f271 17be 68a5 86bd
000003a0: df00 6dbd 0d83 f93e c0a7 573d 8da3 623d
000003b0: f085 07be 544f 7f3b 8b9e 52be e39b 61bd
000003c0: d43d 90bd 9298 1c3d 6408 333f 76d6 ea3d
000003d0: de39 33be fbc7 603e 6419 03bc 6efa 093f
000003e0: a4f3 e0bd db59 c7bc 27dc 933d bf50 593e
000003f0: 3bc8 933e 6081 33be 1cd5 033e 0732 213c
0.042629983 0.22342955 -0.0075357407 0.075889915 -0.06721951 0.4269955 0.521958 -0.3226771
-0.016618658 -0.2240654 -0.20388529 0.043168236 0.2577023 0.5111689 -0.1470656 0.9710139
-0.07195664 -0.12029146 0.37214118 0.3147471 0.018027477 0.37888658 0.18401234 0.06266634
-0.25577748 -0.13740185 0.3694525 0.3219083 0.064442314 0.07132313 0.76827246 0.11331313
-0.04852813 -0.16343714 0.013680882 0.42876688 0.16308154 0.08391838 -0.18491222 0.12202062
-0.15630993 0.087864004 -0.10751416 -0.1142669 -0.2964402 0.58290356 -0.03641775 0.095015734
0.061480943 0.22868365 0.06125966 0.8710133 -0.17184053 0.09361145 -0.052401308 0.3784965
-0.021357058 0.15585041 -0.12259582 0.25685543 0.17496106 -0.11865383 -0.12691621 0.5577263
-0.16994755 0.29139742 0.16672526 -0.09849057 0.11926243 0.025164124 -0.0013946395 0.48575968
0.031851143 -0.14670973 -0.14768906 0.14877555 0.38480496 0.6473083 0.43366075 -0.089696154
0.40878308 0.48900038 -0.15626094 0.00024598592 -0.06421154 -0.05162649 0.48920363 0.0744228
-0.12724233 -0.0550849 -0.014608299 -0.012468311 0.6666457 0.49064618 -0.10243908 0.60752654
-0.018787786 0.48440307 -0.0139429215 -0.24821338 0.11618469 -0.027127821 -0.1162537 -0.12490328
-0.0919977 0.14781757 0.40677172 -0.01609013 -0.03026938 0.087083705 0.1702851 0.15461533
0.54163104 -0.08842642 -0.08555872 -0.12738863 0.44154364 -0.13927843 0.21026185 -0.20561397
0.29470786 0.1745896 0.09678599 0.28989178 -0.19792737 0.13296172 0.0020952097 -0.07796557
-0.05510647 0.48656955 0.2813899 0.47423598 0.16072349 -0.11664197 -0.14369911 0.6269488
-0.15232399 -0.27059934 -0.16649324 -0.16335343 0.32975823 -0.093670316 0.689901 -0.16770379
0.2960993 0.52437794 0.33900705 0.6520803 -0.11627887 0.436861 0.03977753 -0.1398685
0.36285475 -0.11530924 -0.04809147 0.5479913 0.1013 -0.13026094 -0.10396534 -0.18237437
-0.02985623 0.39583233 -0.0141476225 -0.06850958 -0.041377734 0.47514257 0.0128746955 -0.1584123
-0.047164273 0.012530937 0.40350533 0.037099786 0.12448662 0.449041 0.30150983 0.08121333
0.5700461 0.3250959 0.18578677 -0.14969271 0.1558177 0.18335548 0.52176845 0.14855696
0.26035643 -0.12912665 0.020695426 -0.013869072 0.076053105 0.63066715 0.09899927 0.08359312
0.3503662 -0.08292083 0.09080657 0.2245232 0.034301296 -0.08802357 0.21191104 -0.34562603
-0.004529144 0.5854555 -0.11339061 -0.12058181 0.8557165 0.6041925 0.26913798 -0.19244984
-0.06974112 0.02377074 0.33160192 0.5127778 -0.052691832 -0.27346316 -0.15301232 -0.13337334
-0.038453188 -0.211786 0.07759872 0.28570533 -0.10180236 -0.027948003 -0.0523104 0.33709842
-0.17215513 -0.19319662 0.01289657 0.21456185 0.018454475 -0.004164362 -0.1478956 -0.065745175
-0.05786216 0.48732796 0.052650213 0.055331755 -0.13234687 0.0038957195 -0.20568292 -0.055080306
-0.07043043 0.03823144 0.6993468 0.114666864 -0.17502543 0.21951286 -0.008001659 0.5389775
-0.10983971 -0.024334839 0.07219725 0.21222208 0.288637 -0.17529821 0.12874264 0.009838588

weight f4 [100, 512]
00000000: 1793 3fbc 8a51 fdbc 3537 44bd 3ffc 4ebd
00000010: 9ad4 bb3c 6556 3e3b 53b3 19bd 6009 063c
00000020: 5071 0f3d 0be2 253c 25f3 15bd 1297 b2bc
00000030: 5c29 17bd 20ed a0bd 5f06 553c a9bc 53bd
00000040: 5560 ec3c 0761 2cbd 66ef 32bd 267a eabc
00000050: 5210 313b 0754 a7bc 965a 2e3c e2eb ce3b
00000060: 3420 dabc af29 7fbb b120 ddbc d874 3f3c
00000070: eed6 e8bc 9452 21bd e589 b8bd af3f f83c
00000080: 6554 6fbc b3ec adbc e3c5 c6bc 6fd0 88bd
00000090: cf03 af39 c229 453a eb19 29bc 7fa9 e8bc
000000a0: c071 823c bb35 093c f2ee 39bc bc44 d23a
000000b0: 9046 c5bb 9035 92bd e07f 00bd 6ad4 46bd
000000c0: 99b2 b13a 6a72 8abb 770d 25bd 8938 e1bc
000000d0: 09be 513c af39 debc 2253 ff3b 730b 6bbd
000000e0: 405a 7a3c 01e6 be3c e646 fabb 46eb a6bc
000000f0: 9cc8 33bd db9a ebbc 5633 143c f224 7bbd
00000100: f383 113d 05d7 1ebc f516 bcbb 1157 94bd
00000110: e037 313c d094 7abc 4aee 103d 89e0 18bd
00000120: aa3c 983b 0366 afbc 03e7 5fbd 6b85 3abd
00000130: 4e4b 57bc b6e5 d6bd 6ac0 d8bc d60a 493c
00000140: b7f2 5dbd 77d8 56bc 519e c5bc bfde 323c
00000150: da3c 0f3d 63c1 b3bc 56d7 af3c a7bb 8b3b
00000160: 36c0 52bd 1e86 0c3d 9f2a fdbc 9f76 b9bc
00000170: 5479 04bd c2f7 5fbb 3a7e c4bc 7fbd 8abd
00000180: abdd 13bd 50a6 11bd 941b c13c 07df 9dbc
00000190: 0827 673c 8369 08bc be5d abbb 452f 283c
000001a0: 82d4 c93c d71c a9bd eea3 f3bc 2a46 86bc
000001b0: 995b 853c 5764 243d 0d95 89bc fed2 59bc
000001c0: fce4 50bd 2ddf ccbb dd80 c13c 0837 44bc
000001d0: 7d1d e7bb 2520 07bd 035f dcbc c85d ff3c
000001e0: 7863 87bd b43c a1bc 86c8 873c b66a 2bbd
000001f0: 2b75 dd3c a8ea b03c 4de2 bd3c d3a2 203c
00000200: 8c78 a43c 03f1 6ebd d7cf 9bbd 4bd0 9ebd
00000210: 09d8 67bd ac21 3abd f6fd 22bd 1558 b6bd
00000220: e523 9e3c 0ba7 13bd 30e0 d1bc f332 9ebb
00000230: 2ff3 b2bc cefd 35bd 4c6f 02bd cceb d3bb
00000240: f477 e8bc c2e9 86bd 379e 4dbc 8f5f 7ebd
00000250: 7393 b6bc 13c9 163c 122a bebb f43d e6bc
00000260: b3e2 ac3c 583f 94bc d6d2 cd3c 282e 84bd
00000270: fa9a 46bd 9bc2 8e3c 7313 143d 526f f1bc
00000280: f3a6 65bd 3770 67bd 7da7 b83c 99e9 0abd
00000290: b78b 183d 1535 81bd 8de4 cabc 35b6 cd3b
000002a0: 7ded 9ebb 2b81 0c3d 2fd8 a3bc 8248 06bd
000002b0: d6a9 16bd fe4f b1bd 484f 343c 4493 c23c
000002c0: 21ba 18bd 67b7 b8bc 15c6 a4bc d32b 03bd
000002d0: a125 d3bc fc08 d33b 38d7 1dbc e272 ba3b
000002e0: 1ab6 efbc 831a efbc 69f0 9dbd 615d bbbb
000002f0: 7718 de3c 9918 5abd 44e5 f33b c002 dd3a
00000300: 1f62 e8bc cdf6 65bd aff4 f5bc 3d0b 9239
00000310: 5cb4 3fbc c1f2 b6bc fb54 67bd 5f39 a8bc
00000320: 92f4 623c 36b9 0dbd dc46 ccbc bbdd 5fbb
00000330: e9bb cdbd f2fd 97bc 7f44 97bd 961a c1bc
00000340: cfc0 223d 40ea 87bc 8cad 8abd 04b8 62bd
00000350: fce8 e83c 40e5 fcbc 15ed 78bd b36e f93c
00000360: 8ca2 383b ff6c 09bd 5b94 ecbc a56c 7cbd
00000370: 464c 873c e266 4abd e55d 0fbd 48fa b2bc
00000380: 4843 b43c c231 08bd 61b3 47bc e762 25bd
00000390: bc46 b93c a4fb 49bd 9612 263c 558a 903c
000003a0: b1d9 133c 3bca be39 5b26 29bd 83de f63c
000003b0: c2fe eebc 11f9 a5bc 2e87 89bc 2f51 0e3c
000003c0: 65c0 28bb 60bb 123b 216a a9bd 2a4f 36bc
000003d0: 9cab 09bd 55d1 10bd 5ad5 14bc 2610 49bd
000003e0: e060 38bd 9c99 fcbc 4669 e13c b28a 8b3c
000003f0: 833e cebc 0436 a43b 2687 1eba 0da9 2fba
-0.011692784 -0.03092267 -0.047904212 -0.05053353 0.022928525 0.0029043194 -0.037524533 0.008180946
0.035020173 0.010124694 -0.036608834 -0.021800552 -0.036904678 -0.07857728 0.013002007 -0.051693592
0.028854528 -0.04208472 -0.04368534 -0.028622698 0.0027017784 -0.02042581 0.010641715 0.0063147405
-0.026626684 -0.0038934757 -0.026993128 0.011685573 -0.028422799 -0.039385393 -0.09010676 0.030303804
-0.014607524 -0.021231031 -0.024264282 -0.066803806 0.0003338144 0.0007521176 -0.010321121 -0.028401135
0.01592338 0.008374627 -0.011348473 0.0016042213 -0.0060203746 -0.071391225 -0.03137195 -0.048542418
0.0013557255 -0.004225065 -0.040296044 -0.027492778 0.012801656 -0.027127115 0.0077918926 -0.057383966
0.015280306 0.023303034 -0.0076378463 -0.020375859 -0.043892488 -0.028760364 0.009045443 -0.06131453
0.035526227 -0.009694819 -0.0057400414 -0.07243169 0.010816544 -0.015294269 0.0353835 -0.03732351
0.0046459036 -0.021410948 -0.05466367 -0.045537394 -0.013140513 -0.10493033 -0.026458938 0.01227065
-0.05418655 -0.013113133 -0.024123343 0.010917365 0.034970142 -0.0219428 0.021464985 0.0042643133
-0.051452838 0.03430759 -0.030904112 -0.02263957 -0.03234227 -0.0034174775 -0.02398597 -0.06774425
-0.03610007 -0.035559 0.02357272 -0.019271387 0.014108427 -0.008325937 -0.005229681 0.010265176
0.024637464 -0.08257454 -0.029741254 -0.016390879 0.016279029 0.040134754 -0.016794706 -0.013294933
-0.050999627 -0.0062521906 0.023621017 -0.011976011 -0.007053076 -0.03298964 -0.026900774 0.031172648
-0.06610769 -0.019682266 0.01657511 -0.041849814 0.02703341 0.021596268 0.023179198 0.009804445
0.020077012 -0.058335315 -0.07608002 -0.077545725 -0.05660251 -0.04544227 -0.039792977 -0.08903519
0.019304225 -0.036047976 -0.025619596 -0.004827851 -0.021844475 -0.0444315 -0.031844422 -0.006467318
-0.02837751 -0.065875545 -0.012549928 -0.06210285 -0.022287106 0.009203213 -0.005803355 -0.028105713
0.021104192 -0.01809661 0.025124948 -0.06454116 -0.04848764 0.01742678 0.03615136 -0.029472027
-0.05606742 -0.0565035 0.022540802 -0.033914182 0.037242617 -0.06308953 -0.024767185 0.0062778243
-0.004850088 0.03430287 -0.020000545 -0.032783993 -0.036783062 -0.086578354 0.01100523 0.023751862
-0.03728688 -0.02254839 -0.020113984 -0.032024216 -0.025774779 0.00644028 -0.009633832 0.0056899646
-0.029261637 -0.029187446 -0.0771187 -0.0057179187 0.027111275 -0.053246114 0.007443102 0.0016861781
-0.0283671 -0.05614357 -0.0300239 0.00027855663 -0.011700716 -0.022332551 -0.056477528 -0.02053517
0.013852255 -0.03460046 -0.024936132 -0.0034159261 -0.10045607 -0.018553708 -0.073861115 -0.023572247
0.039734658 -0.016591191 -0.06771383 -0.055351272 0.028431408 -0.030871034 -0.060772974 0.030448293
0.0028173057 -0.033551212 -0.028879335 -0.06162705 0.016515862 -0.049414523 -0.035001654 -0.021847859
0.022004738 -0.033250578 -0.012188763 -0.040377524 0.022616737 -0.04931225 0.010136267 0.017644087
0.00902407 0.00036390297 -0.041296344 0.030135399 -0.029174212 -0.020260366 -0.016788092 0.008686348
-0.0025749442 0.0022389516 -0.082721956 -0.011127273 -0.033610925 -0.035355885 -0.00908407 -0.049087666
-0.045014262 -0.030834965 0.027516019 0.017033909 -0.025176292 0.005011322 -0.00060473604 -0.0006700911

bias f4 [100]
00000000: 1e0c 83be 5579 6a3f c4b3 e53f cedd 963e
00000010: f266 6ebe 63ff 793e affd 82be 6d11 56bb
00000020: 76e9 803e 18ac 3dbe e666 57be b893 74be
00000030: 0f43 cabd 2da2 67be f23d 82be 8b98 50be
00000040: 845c 6abe 15f1 50be 3045 4ebe 1d7b 76be
00000050: fe02 56be 823d 80be 8105 57be 40dd 44be
00000060: d092 5ebe 0707 423e f371 e1bb c19d 68be
00000070: bffc 37be a89e 36be 5c1d 66be 4264 8f3d
00000080: d420 45be ff79 753f 993a 383e f9bb 74be
00000090: 442b 6cbe 33db 64be c04e 50be f1bc 73be
000000a0: fcde af3d 7b77 8d3d 556e 50be 298c c83e
000000b0: 56b9 0c3e 0cc2 4abe e39e 44be e81e c43d
000000c0: 593d 3ebe 838e 15be f25f ae3f 3ad0 70be
000000d0: 659a 4cbe 55cd bbbe aaf9 7dbe fd90 c83f
000000e0: 33c1 123f 1f94 563d dd5f 61be 49c3 01be
000000f0: 796b 03bf 7754 863d 125c 4fbe cebf b13e
00000100: d45a 7dbe 5d22 313f 83a3 503e 4f1a 5dbe
00000110: 0e53 6b3f f0f2 373f 6e5e 17bf 006d 4abe
00000120: fa8e 69be 3198 8bbd 9e03 50be 0ec6 59be
00000130: cfd5 fbbd ce51 8a3f 4a10 14be aafc 3abe
00000140: 9945 3bbe 3fb5 2f3e a274 513f d4da 30be
00000150: b8d4 823f c996 7dbe c9a0 62be ad35 40be
00000160: c05e 73be f081 2ebe 29c5 33be c14f 69be
00000170: 246d 3ebe e274 5cbe cb3d 7bbe ce7c 38be
00000180: c363 56be 40dc 5bbe 23bc 5dbe decd 4fbe
-0.25595182 0.9159139 1.7945485 0.294661 -0.23281458 0.24413829 -0.2558417 -0.0032664195
0.25178117 -0.1852268 -0.21035346 -0.23884475 -0.09876072 -0.22620459 -0.25437886 -0.2037069
-0.22886854 -0.20404465 -0.2014358 -0.24070401 -0.20899579 -0.25046927 -0.20998193 -0.19225025
-0.21735692 0.18947993 -0.006880039 -0.22716428 -0.17967509 -0.1783396 -0.22472137 0.070015445
-0.19250804 0.95889276 0.17991103 -0.23899831 -0.2306338 -0.22349243 -0.2034254 -0.23802544
0.08587453 0.06907555 -0.20354588 0.39169434 0.13742575 -0.19800586 -0.19201235 0.095762074
-0.1857809 -0.14605145 1.362303 -0.23516932 -0.19980772 -0.36680093 -0.2480227 1.5669247
0.5732605 0.052387353 -0.22009225 -0.12672152 -0.51335865 0.06559079 -0.20249966 0.34716648
-0.2474168 0.6919306 0.20374875 -0.21592067 0.91923606 0.7185507 -0.59128463 -0.19768143
-0.22808447 -0.068161376 -0.2031388 -0.21266958 -0.1229664 1.0806215 -0.14459339 -0.18260446
-0.18288268 0.17158984 0.8181859 -0.17270976 1.0221167 -0.24764551 -0.22131647 -0.18770476
-0.23766613 -0.17041755 -0.1755568 -0.2278433 -0.18596321 -0.21528962 -0.24535291 -0.18016359
-0.20936494 -0.21470737 -0.216538 -0.20293376
