system/models/Cifar100/CNN/FedPer_BaseHeadSplit_Cifar100_client_1.pt (torch, 726826 bytes, 10 tensors)

weight f4 [32, 3, 5, 5]
000000 7f 28 fe 3e 92 8e 3d 3f 80 3b a6 be 80 0c 3b bf
       0.4964027 0.7404567 -0.3246727 -0.7306595
000010 fb 19 be be a6 2e 33 3f 98 f4 9c 3e 3d 8d 1f bf
       -0.37129197 0.69993055 0.3065536 -0.6232489
000020 94 a5 25 bf 43 79 33 3c a7 0c d7 3d 3b 0b ed be
       -0.6470578 0.010954204 0.1050046 -0.4629763
000030 b2 28 f0 be c9 0e 03 3d 1b dd 63 3e e4 ad e6 be
       -0.46906048 0.031996522 0.22252314 -0.45054543
000040 b4 27 e9 be 5e de f5 3e 4f 5b fb 3e 78 df 1c 3e
       -0.45538104 0.48021215 0.490931 0.15319622
000050 2e 13 b0 be fb 65 14 3c 2b 36 1d 3f 31 a8 16 3f
       -0.34389633 0.009057517 0.6141078 0.5885039
000060 c2 8c 6c 3d f5 3a 92 3e 9b 76 28 3f 67 e7 d9 be
       0.057751425 0.28560606 0.6580598 -0.42559358
000070 81 8e 4b bf f3 9f d2 be 39 49 d1 3e 1e e7 91 3e
       -0.7951432 -0.41137657 0.40876177 0.2849664
000080 77 4b 5b bf 14 09 39 bf 6c 50 f4 bd 9d 7b 22 be
       -0.85662025 -0.7227948 -0.11929402 -0.15867467
000090 fa 9b 29 bf ee 79 b1 be 66 51 b4 3d 63 29 78 3e
       -0.66253626 -0.34663337 0.08804588 0.24234538
0000a0 04 e6 21 bf 38 6a 3d bf fe 96 98 3e 59 57 9a 3e
       -0.632416 -0.739902 0.29802698 0.30144766
0000b0 ad df 4b bd 2c 35 22 bf 5c 57 55 be ae ce fb 3e
       -0.04977386 -0.63362384 -0.20834106 0.49181122
0000c0 b0 ee 53 3e 37 3b 04 be 18 b2 34 3f cc d2 81 3f
       0.20696521 -0.12913214 0.7058425 1.0142455
0000d0 26 92 cd 3d 9b 16 a8 be da bf 2f 3d 48 a4 3c 3f
       0.10037641 -0.32829747 0.042907573 0.73688173
0000e0 c6 5c 1a 3f 53 30 f1 be f4 c1 c5 be a7 b2 55 3e
       0.6029781 -0.4710718 -0.38624537 0.20868932
0000f0 7f 7f 85 3e 34 d8 5f be d2 8a 4e be 85 4e b8 3e
       0.26073834 -0.21859819 -0.20170143 0.35997406
000100 1f 07 00 3f dd c0 ec be 9c dd e6 be f8 e7 fb 3e
       0.50010866 -0.46240893 -0.4509095 0.49200416
000110 e9 c8 2b 3f 9b d9 ae 3e 77 30 09 bf bf 95 4a be
       0.6710344 0.34150395 -0.53589576 -0.19783686
000120 03 ab 16 3f 54 eb 01 3f 9b bd 11 3e 70 9e b7 3e
       0.58854693 0.5074971 0.14232485 0.35863066
000130 18 d9 8d bd 37 42 bf be b3 fc 9a 3d 3e 61 d3 3e
       -0.06926173 -0.37355205 0.0756773 0.41285127
000140 7e 90 0d 3e e3 02 5a 3a b3 b7 f5 be 95 ea ad bd
       0.1382465 0.000831647 -0.47991714 -0.084920086
000150 00 e9 3a 3f 88 6d c1 bd 8a 6b e1 bd 34 59 b5 bd
       0.7301178 -0.094447196 -0.110068396 -0.08854905
000160 57 83 7d 3e 3d 8b 23 bc 19 a8 c1 be d9 30 a1 3e
       0.24757133 -0.009981927 -0.3782356 0.3148258
000170 17 5f 92 3f 7a 55 11 be 53 b5 a7 bf d1 93 b8 be
       1.1435269 -0.14192763 -1.3102211 -0.36050275
000180 3e 92 97 3e 8c 85 31 3f 9f 83 35 bf 3f 04 b1 bf
       0.2960376 0.693444 -0.7090396 -1.3829421
000190 61 bd 50 3e 1d e3 22 be 02 6a d8 be 9b 97 e0 bd
       0.20384742 -0.1590695 -0.42268378 -0.109664164
0001a0 95 43 41 3e 66 b7 53 3e a3 54 56 be 8f a9 28 bf
       0.18873437 0.2067543 -0.20930724 -0.65883726
0001b0 2a 0f 68 3c 54 f5 37 3f 55 23 8c bd ab be 94 bb
       0.014163772 0.71858716 -0.068426766 -0.004539331
0001c0 3b 84 d9 bd 36 8a c7 3e 5c 06 8f 3e 1b 57 ca be
       -0.10620924 0.38972634 0.2793454 -0.3951958
0001d0 98 b8 93 3e 9e 0a 8e 3f 3b bc 4c 3d c3 9b 5d bf
       0.2885177 1.109699 0.049984198 -0.865658
0001e0 b4 25 75 bc 76 6d db 3e b5 ac 51 3f 5e a5 5b be
       -0.014962602 0.4285695 0.81904155 -0.21449801
0001f0 99 59 81 bf d9 9f a7 be 06 63 0f bf 36 1c 2e bf
       -1.0105468 -0.32739142 -0.5601047 -0.68011796
000200 e5 93 ef be 0f 03 34 be f0 30 0c bd ec 18 95 be
       -0.46792522 -0.17579292 -0.034226358 -0.29120576
000210 70 86 4e bf 9b 01 80 be 9f 94 f4 3e a4 5b e0 bd
       -0.80673885 -0.25001225 0.4776964 -0.10954979
000220 85 a2 44 be 42 3a 6c be 2e 0e a4 3d 54 82 d6 3d
       -0.19202621 -0.23069099 0.08010517 0.10474077
000230 ab bf 0b be 59 d6 ad 3e d5 b5 87 3f 40 aa 6b bd
       -0.13647334 0.33952597 1.0602366 -0.05753541
000240 26 1d 7b bf 74 93 e6 3c 2e 50 1c 3f 82 f0 6e 3f
       -0.9809135 0.028146483 0.61059844 0.93335736
000250 ca 63 62 be 78 ac 5f bf 01 a0 8c be ab 9a ae be
       -0.22108379 -0.8737254 -0.27465823 -0.34102377
000260 8f c2 98 be 6e bc 78 be c7 f1 b8 be 48 6c 6e be
       -0.29835936 -0.2429063 -0.3612196 -0.23283494
000270 27 9d f7 bd 00 00 ac be 2b 9a 85 be 9e f5 bd be
       -0.12090521 -0.3359375 -0.26094183 -0.37101454
000280 9b 9e 8c 3d 41 05 d6 bd 41 8b b1 be 63 76 9f be
       0.06866189 -0.10450221 -0.34676555 -0.3114501
000290 25 e3 ae be 48 02 61 3e 11 06 bd bc 6c e5 68 be
       -0.34157673 0.21973526 -0.023074182 -0.22743767
0002a0 5e 62 d1 be 31 33 d0 be 74 fa 5e 3e 35 ce af bd
       -0.4089536 -0.40664056 0.21775228 -0.08584253
0002b0 63 68 8d be 93 dc e1 be 07 cf 1a bf 5b 94 01 3e
       -0.27618703 -0.44113597 -0.6047215 0.1265425
0002c0 6d 7e db bd 83 b2 72 be 32 85 0f be 59 08 f7 be
       -0.10717473 -0.2370091 -0.14015654 -0.48248556
0002d0 47 be 16 3e 32 0a 28 bd 77 f2 96 bd 4f 9a 2c be
       0.14721023 -0.041025348 -0.07370465 -0.16855739
0002e0 8c 67 94 be 0d d7 da 3e 99 89 ca 3d d4 38 25 be
       -0.2898525 0.42742196 0.09889526 -0.1613496
0002f0 8c 67 80 be 93 23 77 be e5 15 21 3f 1c 28 bd 3e
       -0.25079 -0.24134664 0.62924033 0.36944664
000300 c6 ae 34 be 36 47 37 be 1d 35 c7 be 1a ac bd 3e
       -0.17644796 -0.17898259 -0.3890771 0.37045366
000310 f0 a5 4e 3e c4 80 9d bd b8 ee b3 be aa bb ad be
       0.20180488 -0.07690576 -0.35143065 -0.3393224
000320 02 85 07 3e 97 d5 d9 3d 90 c6 a4 bd 5d 7b bf bd
       0.13234332 0.10636442 -0.08045685 -0.093497016
000330 46 86 6e be c0 6e 75 3e e8 68 d3 3c d0 05 db 3d
       -0.23293409 0.23968029 0.02580686 0.10694468
000340 1e 72 07 3d 8f 45 00 be 82 aa bf 3e 9c 9f 2c 3e
       0.033067815 -0.12526534 0.37434775 0.16857761
000350 a4 9c 13 3d a4 b4 aa 3b e6 1b c0 bd d1 63 00 3f
       0.036038056 0.0052095223 -0.09380321 0.5015231
000360 b4 db 78 3e 39 c5 ba 3b ff 1f 07 3e 2b c9 0c be
       0.2430256 0.0056997803 0.131958 -0.13748614
000370 15 30 c6 3e 31 dc d7 3e 16 8e d2 3d ca 19 e6 3b
       0.3870856 0.4216018 0.10281007 0.0070221173
000380 b1 a5 dc bd 14 93 3b bf 87 00 08 bf 49 45 f2 bd
       -0.10773791 -0.732713 -0.53125805 -0.11829621
000390 b2 e1 9f 3d 8c 90 63 3e f9 67 2b bf ae 6e a2 be
       0.0780672 0.22223109 -0.66955525 -0.31725067
0003a0 95 17 3b 3d ab 99 f9 3e 30 37 b8 3e 9d 5d 40 bf
       0.045676786 0.48750052 0.35979605 -0.7514284
0003b0 84 28 ef be 23 7f d4 bd 5c 20 d8 3e 5e 1f d9 3e
       -0.46710598 -0.10375812 0.42212188 0.42406744
0003c0 ec dc 0e bf ae a9 ae be 8d 6e fa bd cb 3a ab 3e
       -0.5580585 -0.3411383 -0.12228117 0.33443293
0003d0 d1 6c ca 3e af 11 4a bf 10 75 79 be b3 02 db bd
       0.39536145 -0.78933233 -0.24361062 -0.10693874
0003e0 8a 91 2c 3e ce 99 67 3e 2c 2e c9 be 61 67 d4 bd
       0.16852394 0.22617266 -0.3929304 -0.103712805
0003f0 de 40 09 3e 0d 1e be 3d a6 ec 14 3e 2a e1 9b be
       0.13403651 0.092830755 0.14543399 -0.30445224

bias f4 [32]
000000 f3 f0 d3 bf dc 13 25 c0 c9 ed 50 c0 a7 ed e9 bf
       -1.6557907 -2.5793371 -3.2645133 -1.8275651
000010 04 74 cc bf 71 45 d4 bf 70 7b 40 bf 14 46 aa bf
       -1.5972905 -1.6583692 -0.7518835 -1.3302636
000020 32 15 e0 bf 81 ef 83 bf fa 13 86 bf 04 00 a7 bf
       -1.7506468 -1.0307466 -1.0474846 -1.304688
000030 31 9a b3 bf 3f b0 e8 bf e3 3a 18 c0 69 bf 07 c0
       -1.403143 -1.8178786 -2.3785942 -2.1210577
000040 03 f2 f9 bf b5 fe ac bf 68 73 22 c0 e0 b3 8d bf
       -1.9526981 -1.351523 -2.5382938 -1.1070518
000050 b4 e1 bc bf 73 af b1 bf 4d 43 d6 bf 29 98 fe bf
       -1.4756379 -1.3881668 -1.6739289 -1.9890186
000060 14 59 ce 3d bd 21 c9 bf 39 6b e0 bf ee f2 3d c0
       0.10075584 -1.5713421 -1.7532722 -2.9679523
000070 b6 67 e8 bf 98 47 ad bf 09 4e 01 c0 ea ba 04 c0
       -1.815665 -1.3537474 -2.020388 -2.0739083

weight f4 [64, 32, 5, 5]
000000 66 9d b9 3e 9b a6 a5 3e 28 fc 97 3e 47 dc 68 3d
       0.36252898 0.32353672 0.29684567 0.056850698
000010 62 10 da bd b7 96 79 3d 61 ee d9 bd 5f d5 39 be
       -0.10647656 0.06093475 -0.1064117 -0.18147801
000020 54 c8 19 bd 46 e5 15 be be 81 0e bd 75 bf 1b be
       -0.037544563 -0.14638242 -0.0347917 -0.15209754
000030 c2 ca 2f be 71 4f 47 bd 2a 01 35 be 3b 09 83 bd
       -0.1716719 -0.048659746 -0.17676225 -0.06398245
000040 3d af 10 bd af 14 a0 bd 45 d5 26 be 02 9a 98 bd
       -0.03532337 -0.07816445 -0.16292293 -0.0745125
000050 13 c1 ed 3d 31 75 11 3d e7 e3 a4 ba 68 97 ed bd
       0.116090916 0.035512153 -0.0012580127 -0.11601144
000060 8e b5 af bd c0 99 79 bd ea 94 df bd 30 b9 85 3d
       -0.08579551 -0.060937643 -0.10917075 0.06529462
000070 25 f6 7a 3e d7 06 e9 3e 5a e2 74 be 2a 7f 47 be
       0.24507959 0.4551303 -0.23914471 -0.19482103
000080 8e 42 f1 bd 7c d0 b0 bc b1 da 96 3e 4d 2d 02 be
       -0.117802724 -0.021583788 0.29463723 -0.12712593
000090 f0 24 89 be ba 83 c8 bd bb 70 94 bd c3 5e a5 3d
       -0.26785994 -0.0979075 -0.07248064 0.08074715
0000a0 90 77 b0 bd 7c 89 55 be f6 e3 40 bd 28 d6 b3 bd
       -0.08616555 -0.20853227 -0.0470924 -0.087810814
0000b0 3b f6 04 be 91 05 6d bd 0b 2b f7 bd 06 ec 2a be
       -0.12984554 -0.057866637 -0.12068757 -0.16691598
0000c0 f8 d4 10 be 47 ac 87 3c 88 02 e4 bc b2 47 f3 bd
       -0.14143741 0.01656164 -0.027833238 -0.11878909
0000d0 34 26 cc bd 5d 98 28 3e c4 73 c4 3e 0a b4 38 bd
       -0.09968224 0.16464372 0.38369572 -0.045093574
0000e0 aa 3b fb bd 96 6d a6 bd b9 d0 d4 bd 3a 9b 27 3e
       -0.122672394 -0.081263706 -0.10391373 0.16367808
0000f0 50 98 bc bd 54 fa c7 bd 89 d8 db bd b2 aa 13 be
       -0.09208739 -0.09764543 -0.1073466 -0.14420584
000100 0d c1 70 bd e0 20 b5 bd 2a 86 42 be c7 08 9c bd
       -0.058777858 -0.08844161 -0.18996492 -0.07618862
000110 5d 59 af bd 05 e2 b1 bd c2 42 93 bd f5 9a b7 bd
       -0.085619666 -0.08685688 -0.071904674 -0.089651026
000120 0b da a8 bd 81 f4 60 bd 50 e2 3c 3c 99 c7 d1 3d
       -0.082447134 -0.054920677 0.0115285665 0.10243148
000130 15 c1 0d 3e 9e cd fe bc 58 6b 5d be 0b bc 51 bd
       0.13843186 -0.031103905 -0.2162298 -0.051204722
000140 3a c5 60 3e b7 3d e5 3d bb 99 95 bd 1a 20 33 be
       0.21950236 0.11193412 -0.073047124 -0.17492715
000150 6e 32 77 bc 74 a1 45 3e 6c f1 2b be b1 3d 2d be
       -0.015087707 0.1929987 -0.16791314 -0.16918065
000160 01 f8 7a be cd 25 55 bd 3e ef 25 3d 56 37 b5 be
       -0.24508668 -0.052038003 0.040511362 -0.3539378
000170 05 00 53 be 9b 48 aa be 2b 42 8b bd f8 b9 03 3e
       -0.20605476 -0.3325852 -0.0679973 0.1286391
000180 94 0d 2d be 2b ee 69 be 5e 41 74 be 5a 94 b2 bd
       -0.16899711 -0.2284476 -0.2385306 -0.08719702
000190 a9 45 a2 bd 3b 12 2b bd 01 0d 1b bd ed b6 74 3c
       -0.07923443 -0.041765433 -0.0378542 0.014936191
0001a0 02 4f 7f 3e 7a 09 39 be f5 2a cc bd b6 0f 40 be
       0.24932483 -0.18070021 -0.09969131 -0.18755993
0001b0 e3 e1 30 be c0 55 c6 bc 69 cc ac bc ad c4 77 bd
       -0.17273669 -0.02421081 -0.021093564 -0.0604903
0001c0 9d 28 2b be 87 a2 26 be d4 ae 7e 3d e7 57 1e 3e
       -0.16714711 -0.16272937 0.062178448 0.1546322
0001d0 6d b7 1a be c8 7c 23 be 25 08 f8 bd e4 dc 26 bc
       -0.15109034 -0.15965569 -0.121109284 -0.0101845
0001e0 93 00 94 3d 1b 2b a3 3c 9c 87 c4 bd 3f 72 d6 bd
       0.07226672 0.019918015 -0.09596178 -0.104710095
0001f0 96 91 58 bd e2 b3 21 3e 99 c5 8a 3d f4 3f 82 be
       -0.052873217 0.15791276 0.0677597 -0.25439417
000200 59 9f ec be e9 df ff be 47 6a a3 3e ad 61 1f 3e
       -0.46215323 -0.49975517 0.3191702 0.15564604
000210 bb ce 08 be dc 2b a5 be 2c a4 ed be 65 59 5a 3e
       -0.13360111 -0.32260025 -0.46414316 0.21323164
000220 a3 3e c7 3d 10 ee cf bd a1 f2 04 be 97 eb 9c be
       0.09728744 -0.10152829 -0.1298318 -0.3064849
000230 ac db 1e 3d 6c 98 02 3d 7d 26 0b bd 05 2f d6 bc
       0.038783714 0.031883642 -0.033972252 -0.026145468
000240 06 89 6a be 63 db 90 bb dd 6c 03 3e f1 31 f5 3d
       -0.22903833 -0.004420684 0.12834497 0.11972416
000250 6f 51 a8 3c 00 cf 87 bd d7 ce 0f 3d c6 2e 4e 3d
       0.020546643 -0.06631279 0.035109367 0.050337575
000260 98 5c 91 bd ef 5f a4 bc ee ca 04 3e cb c2 7b 3d
       -0.07097739 -0.020065276 0.12968037 0.061465066
000270 c2 6c 21 3d d4 57 5c 3d 6e 4e e8 3c 78 2e 60 3d
       0.03941036 0.053794697 0.02835771 0.054731816
000280 ae c8 56 3d 5c 34 67 bc c3 5d 13 bd 50 b8 4f 3d
       0.052437477 -0.014111605 -0.03597809 0.050712883
000290 62 17 42 3d f7 c2 64 3d 9b d9 81 bd 89 79 93 bc
       0.04738558 0.055849995 -0.06340333 -0.018002288
0002a0 64 4e 4f 3d b0 b7 34 bc 0e d9 96 3c e5 24 de bd
       0.05061187 -0.011030123 0.018414047 -0.10846881
0002b0 7b 1d 17 bc e3 c9 5c 3c 20 87 a5 3c 94 22 cc 3e
       -0.009223337 0.013475868 0.020206034 0.3987013
0002c0 1b 87 b4 3e c3 83 2c be d7 8f a4 be 18 f1 a3 bd
       0.35259327 -0.16847138 -0.3214099 -0.08004969
0002d0 79 b9 d3 3e 78 d9 f8 3d f5 a6 8f be 9b c9 4e be
       0.41352442 0.12150854 -0.28057066 -0.20194094
0002e0 69 1d 06 3d 69 4f 1e 3e e8 ee 2a be d1 00 26 be
       0.03274289 0.1545998 -0.16692698 -0.16211249
0002f0 42 ab 71 bd 81 6b 2f 3e 39 93 cf bd b9 fb 44 be
       -0.059001215 0.17130853 -0.10135502 -0.1923665
000300 08 3e b0 bd 1a 08 e2 3c f2 62 35 3e 4d 26 30 be
       -0.086055815 0.027591754 0.17713526 -0.1720211
000310 03 79 6c bd 86 05 af 3d 33 da 2c 3e 0d ab 58 3e
       -0.057732593 0.085459754 0.16880111 0.21159
000320 6e 30 7c bd 4a 4e b2 bd 82 b1 ea bd 93 1f 34 bc
       -0.061569624 -0.08706339 -0.11459638 -0.010993856
000330 7e 9e 35 be 34 9e d8 3b 1b 68 59 be 45 1a 89 be
       -0.17736241 0.006610656 -0.2123112 -0.26777855
000340 c7 f2 2c be aa 90 ce bd 15 89 59 bc c8 3f 3e be
       -0.16889487 -0.10086186 -0.013277312 -0.18579018
000350 1d 49 67 be dd d8 1e be 68 6f 8d bd 9f 5e db 3c
       -0.22586484 -0.15512414 -0.06906015 0.026778517
000360 2e 6b 5f be 08 17 29 be 7c 4e 2c be 35 c5 9c bd
       -0.2181823 -0.16512692 -0.16826814 -0.07654802
000370 12 fd 9e 3c 00 48 a6 be 16 27 51 bd ef 35 13 be
       0.019407783 -0.32476807 -0.051062666 -0.14376043
000380 f4 e9 2c be a1 b4 59 bd 3c 11 5d bd fb 2e 59 3c
       -0.16886121 -0.053150777 -0.053971514 0.01325583
000390 2f 2d d1 3c e1 29 35 bd b6 c0 69 3d a3 eb c4 bc
       0.02553424 -0.044229392 0.05706855 -0.024038142
0003a0 7c 55 15 3d fe 14 7e 3d 7e 90 1c bb d1 8d e0 3d
       0.036458477 0.06203174 -0.0023889835 0.10964549
0003b0 0c 6c 6a 3c bc bf 18 bd 1d b4 c3 bd 3b f3 77 bd
       0.014307987 -0.037292227 -0.09555838 -0.060534697
0003c0 3e 62 3d 3e a0 17 c1 3c 6f 5d 0c be e7 ca 4d be
       0.18494508 0.023570836 -0.13707517 -0.20096932
0003d0 3c 02 b0 bd fb 92 47 3e 71 db 98 3d 53 9f 16 3b
       -0.08594176 0.19489662 0.0746373 0.0022983148
0003e0 48 da 1c be 1d fb 86 bd 5a 47 e8 3d 99 bf 91 3d
       -0.15317643 -0.06590865 0.11341734 0.071166225
0003f0 b9 a6 ee bd 84 af 36 be dc a3 83 be bd 37 22 3e
       -0.116528936 -0.17840391 -0.25710952 0.15841575

bias f4 [64]
000000 b9 98 4c bf 16 6e 10 bf 0c a2 18 3f e1 2a c0 bc
       -0.79920536 -0.5641798 0.59622264 -0.023457946
000010 6b 9e 67 be 2a 62 df be 23 54 84 bf b7 8f c5 bd
       -0.22619025 -0.4362958 -1.0338176 -0.09646552
000020 ee 8d 39 c0 47 29 1a bf 0f 3b ef 3d 06 e1 54 bd
       -2.8992877 -0.60219234 0.116811864 -0.05197241
000030 c7 4c 13 bf 1a 0c 23 bf b0 39 2c bf 4a 58 b2 3e
       -0.5753903 -0.6369034 -0.67275524 0.34832984
000040 5f 42 2c 3f 84 f1 e4 3e 9d 27 32 bf d9 6f 48 3d
       0.67288774 0.44715512 -0.69591695 0.04893479
000050 d8 5b bb bd 90 b6 83 bf 08 2b 24 bf 7a c0 09 3d
       -0.09148377 -1.0290089 -0.6412816 0.033630826
000060 0b 30 8e be d1 9f 00 bf d1 8c 95 bd 86 4c 9f bf
       -0.2777103 -0.5024386 -0.07302249 -1.2445228
000070 a1 cd 00 bd ce 62 9a be 92 c4 05 3f 46 c5 1a 3c
       -0.031446103 -0.30153507 0.5225307 0.009446448
000080 d9 74 f8 bd 83 09 55 bd da d1 62 be 35 14 3f be
       -0.12131662 -0.052011024 -0.22150365 -0.18660052
000090 40 aa e9 bd 14 5f 26 3a 6d ec 27 bd 20 f2 41 bf
       -0.11409426 0.0006346565 -0.040996958 -0.7576008
0000a0 c9 1c 0f bf 5f de c2 bf 70 9c 8d 3f b7 a6 56 bf
       -0.559033 -1.5224112 1.1063366 -0.83848137
0000b0 29 e8 0b bf 91 62 bf bf 7f 92 91 bb 6a b4 b0 bf
       -0.54651123 -1.4951955 -0.0044425125 -1.3805058
0000c0 5c 05 ef 3e 0d 2c d1 be ff f1 07 bf 36 68 aa 3d
       0.46683776 -0.4085392 -0.5310363 0.08320658
0000d0 6d ed 6e be 7f fc c1 bc 67 3c 90 bf 25 6e 0d bf
       -0.23332758 -0.02367997 -1.1268433 -0.5524619
0000e0 5e 0f 30 bf 17 14 98 3e f4 de 50 3e dc 8b 9b bf
       -0.6877345 0.29702827 0.2039755 -1.2152057
0000f0 8e ab 21 bf e6 c9 fd be 7c f0 ab 3f 0d f1 74 bf
       -0.63152397 -0.495681 1.3432765 -0.95680314

weight f4 [128, 64]
000000 24 52 5e 3d 3a 59 1e 3e 66 e1 24 3e 3a 9e 9c bd
       0.054277554 0.15463725 0.16101608 -0.07647367
000010 d3 4a de be f5 3d 0d 3e 3c 68 cd 3d 73 69 2a bd
       -0.4341646 0.13793166 0.10029647 -0.04160447
000020 44 1a 1f be c0 10 dd 3e fd 95 8f 3e 65 6f 07 bf
       -0.15537363 0.43176842 0.2804412 -0.5290435
000030 4b 28 f9 be 00 8b ee 3d 8e eb 66 be 52 ca 60 be
       -0.48663554 0.11647606 -0.22550794 -0.21952179
000040 e0 0a 08 3f 8e 76 e8 3e 21 b6 5c 3e e2 b8 66 3c
       0.53141594 0.4540295 0.21553852 0.014082165
000050 66 7e ce 3e 22 8e 84 be a6 c4 2b bf 4e cb 14 3e
       0.4033081 -0.2588969 -0.67096937 0.1453068
000060 0c 1c 72 be 67 39 5d 3e 26 bf 9f 3e 96 84 f1 bd
       -0.23643512 0.21603929 0.31200522 -0.11792867
000070 30 05 9e be d1 89 48 be 4e ed 1c 3f fe 14 43 be
       -0.30863333 -0.19583823 0.612996 -0.19050977
000080 e5 d7 7e be 95 d8 17 3e 77 e6 04 bd 4e ad dd 3b
       -0.24887045 0.14828713 -0.03244635 0.0067650443
000090 d2 42 b8 3e 5f 7e 4b 3e 56 d3 6d 3e 33 ca 24 be
       0.3598848 0.19872425 0.2322515 -0.16092758
0000a0 b6 b3 ad 3d e5 71 20 bf a1 77 1d be a3 a9 ce 3d
       0.08481543 -0.6267379 -0.15377666 0.100909494
0000b0 d3 cf e9 be 2f 3a fd be 94 8c 51 bf 48 65 9c be
       -0.4566637 -0.49458453 -0.8185513 -0.3054602
0000c0 60 70 5e 3c fc 94 1c be d6 63 82 3e 8f b5 92 bb
       0.013576597 -0.15291208 0.25466794 -0.00447721
0000d0 4a d3 06 3e 2b 8c 39 be 4b 4d 11 be 2a b8 08 3e
       0.13166538 -0.18119876 -0.14189641 0.13351503
0000e0 cd 9a 89 3c 97 ca 84 3e cf a8 4e 3e a8 68 2d be
       0.016797448 0.25935814 0.20181583 -0.16934454
0000f0 27 25 0f be 11 68 80 bd 9a cd 8b 3e 35 12 83 be
       -0.13979016 -0.06269849 0.273053 -0.25599828
000100 14 14 12 bf 5d ae 20 bf 49 46 00 bf 08 a0 cb bc
       -0.57061887 -0.6276606 -0.50107247 -0.024856582
000110 76 ec bb bd 97 1e 08 bf 7a e0 06 3e 88 ed cc 3e
       -0.09175961 -0.53171676 0.13171569 0.40024972
000120 27 ff 6c be b7 9b 77 3c 2f ec e6 3e 61 65 ea 3e
       -0.23144208 0.015112809 0.4510207 0.4578047
000130 dc 57 24 bd 83 86 84 3c e5 e1 8c be df f4 ad 3d
       -0.04012285 0.016177421 -0.27516094 0.08493971
000140 97 81 bb bd 62 88 38 3d 7c 08 f5 3b f3 71 4e be
       -0.09155577 0.04505194 0.007477818 -0.20160656
000150 0f 4e 66 be b2 75 46 bc af c1 9b 3e 17 5c 1b bd
       -0.22490714 -0.012113022 0.30421206 -0.03792962
000160 4f 46 44 bd 04 ad 21 be 9f fc c4 be d4 07 c1 be
       -0.047918614 -0.15788656 -0.38473985 -0.37701285
000170 d6 9a 15 be c2 2c 84 3e 91 01 c9 3d 1d f7 dd be
       -0.14609846 0.25815398 0.09814752 -0.43352595
000180 d8 b4 f9 3b ec a5 91 be b1 b0 81 be cc 95 b0 3d
       0.007620435 -0.284469 -0.25330117 0.086223215
000190 28 ac c1 3e 4d 67 0a bd f6 be b4 bd 23 89 01 bd
       0.37826657 -0.03378992 -0.088254854 -0.031624924
0001a0 26 d4 1f bf 6f e1 69 bd f0 1f 10 bc d1 14 39 be
       -0.6243309 -0.057099756 -0.008796677 -0.18074347
0001b0 19 3a 14 3d 8d 63 b4 3e 0b 6f 20 bc 5a db 0d 3e
       0.03618822 0.352322 -0.0097921 0.13853207
0001c0 a2 70 e1 3d 3a 49 1d 3e df df c2 3e fe c9 db bd
       0.11007811 0.15359965 0.38061425 -0.10731886
0001d0 04 66 8a be 58 17 a6 bb 4b 9d dd bd 6a ed 72 be
       -0.27030957 -0.0050687008 -0.10821017 -0.23723379
0001e0 5e de 13 bd b6 f3 48 3d ad 25 a1 bd 3b e1 65 3e
       -0.036100738 0.049060546 -0.07868514 0.224492
0001f0 18 5e 98 3e 94 58 45 3e c4 1b 86 3e ac d0 81 3e
       0.29759288 0.19272071 0.26193058 0.25354517
000200 ae dc 27 3e 04 a1 1c 3e be c4 39 3e f5 6e 87 be
       0.16392776 0.15295798 0.18141457 -0.2645184
000210 e4 ed 2f bf 4f 5b f9 bd 07 52 f1 bd 2f 6d 04 3f
       -0.6872237 -0.12175619 -0.117832236 0.517291
000220 72 1a 9d 3d e3 26 c6 3d a9 d1 4f be d8 d4 c9 3c
       0.0767106 0.09675386 -0.20294823 0.024637625
000230 6c ee 89 3d 92 3c 16 3e 8c e5 cf 3e 18 3b 2f 3e
       0.067349285 0.14671543 0.40604818 0.17112386
000240 be 74 07 be f5 94 07 3f f3 2d 59 bd f0 d5 ad 3d
       -0.13228127 0.52961665 -0.053022336 0.08488071
000250 52 db a2 3e 39 85 a6 3b 42 d1 14 bf 82 f9 a9 ba
       0.31807953 0.0050817993 -0.581318 -0.0012968036
000260 f3 11 84 3e 93 4c b4 3e 0d 8a a3 3e 19 16 81 3e
       0.25794944 0.35214671 0.31941262 0.25212172
000270 ba a4 a3 3c 6c 01 da bd 02 ae d6 3e a7 2f 84 3e
       0.019976009 -0.106448025 0.41929632 0.25817606
000280 dc 47 f0 be 97 00 d3 be 2f 41 5c be 95 50 ad bd
       -0.46929824 -0.41211388 -0.2150924 -0.084626354
000290 a6 c2 9b 3e 4e 0b fe be d2 f8 15 3d 94 78 05 3f
       0.30421942 -0.49618 0.036614247 0.5213711
0002a0 72 18 85 3d f1 cc 40 3e 2f db 0f 3e e1 ac b9 3e
       0.06498803 0.18828179 0.14048456 0.3626471
0002b0 23 e7 ed bd 24 f4 80 be ff 7d 3b be 8d 95 8d 3d
       -0.116163515 -0.25186265 -0.18309782 0.0691329
0002c0 58 f0 1c 3e 8d 27 2e 3f 7d 0c 93 be 7d b9 7d be
       0.15326059 0.680291 -0.28720465 -0.2477779
0002d0 23 2c 85 3e e5 f7 38 be 56 0a d6 3e f0 e5 ed 3d
       0.26010236 -0.18063314 0.4180476 0.11616123
0002e0 f3 1b 93 3d 57 70 aa 3e 44 bf 19 bf 52 d0 b7 bd
       0.07183065 0.33288833 -0.60057473 -0.08975281
0002f0 76 c3 4f 3e 3f c4 91 be d0 55 62 bf c5 c6 d6 bd
       0.20289406 -0.28470036 -0.8841219 -0.10487131
000300 11 19 94 3d 3f f5 83 3e 87 9c c2 be 69 d3 89 3d
       0.072313435 0.25773045 -0.38010046 0.067297764
000310 2a 8e 19 3f 4a 5e 1f 3d a9 0a bb 3d ce 4a c1 3c
       0.5998255 0.03890828 0.09132893 0.02359524
000320 31 be 59 be f7 82 1d bf 16 45 b3 be 11 f6 c9 be
       -0.21263959 -0.6152796 -0.35013646 -0.39445546
000330 ac 83 b6 be 76 0a 15 be e2 ab 34 be 4c 13 ba 3d
       -0.35647333 -0.14554772 -0.17643693 0.09085712
000340 55 cb 0d bf 8d 97 19 be 0e 33 cf be 7f e9 7c 3e
       -0.55388385 -0.14999218 -0.4046864 0.24698447
000350 ac 28 13 3f 7c 82 eb be e0 32 88 be db 9a e3 3d
       0.57483935 -0.4599799 -0.26601315 0.11113521
000360 7d ab 97 be cc 5a f2 3e 6a cf e9 3e 32 80 93 3d
       -0.29623023 0.47334898 0.45666057 0.07202186
000370 96 17 2d 3e a2 37 6a bf a2 90 17 3f 89 38 27 be
       0.16903529 -0.9149114 0.5920507 -0.1633016
000380 3a e7 a6 3e 71 94 2f 3e bf 4a 92 3e ef ec 48 bc
       0.32598287 0.1714647 0.28572652 -0.012263521
000390 02 15 a2 3e 57 9f 97 3e cc de 21 be 5c 38 aa 3e
       0.31656653 0.29613754 -0.15807647 0.33246124
0003a0 b0 7a 05 3e b9 3f 28 bf e2 57 b0 3e c5 fd c1 be
       0.13035083 -0.65722233 0.3444205 -0.37888923
0003b0 4d d6 47 bf 3d 5c d4 be f2 28 15 bd 93 cf 10 be
       -0.7806137 -0.41476622 -0.036416 -0.14141683
0003c0 f3 04 b5 bb b0 b7 e0 be f3 52 f9 bd ff 51 f9 3d
       -0.0055242716 -0.43890142 -0.121740244 0.12173843
0003d0 0b c2 90 3e ec 9d 30 3e cb b1 db 3e 63 dc 1a be
       0.28273043 0.17247742 0.42909083 -0.15123133
0003e0 29 b7 31 be ca 63 f4 3d 52 3b 97 bd 2a 5e 37 bc
       -0.17355026 0.11933096 -0.07384361 -0.011191884
0003f0 1f 3e 72 be eb 52 2e be 1f a7 05 3e 37 e5 53 3e
       -0.2365651 -0.17023818 0.13052033 0.20692907

bias f4 [128]
000000 91 fb 72 3d 7b 01 56 3d 69 e6 c7 bf 32 da 30 3f
       0.059321944 0.052247506 -1.5617191 0.6908294
000010 10 52 9c 3f 80 ba 39 bd 85 13 21 3f a8 52 6a be
       1.2212543 -0.045343876 0.6292041 -0.22883093
000020 ed ab 36 3f 33 50 a5 3f 0c 13 8d 3f 49 49 4e 3e
       0.7135609 1.29151 1.1021438 0.20145144
000030 90 d0 57 be 0c 4a 77 bf b8 54 8c be c1 f9 b9 bd
       -0.21075654 -0.9659736 -0.27408385 -0.0908084
000040 85 d9 43 3e d1 a8 d1 3e 93 d8 8b 3f 71 ed 67 3e
       0.19125946 0.4094911 1.0925468 0.2264917
000050 3c e9 39 3e c8 60 bd be 33 b6 f1 3e 6c 89 39 bf
       0.18155378 -0.369879 0.4720932 -0.72475314
000060 c4 b2 6f 3e 2c 4f 96 3f 96 a8 15 3e 14 c5 13 3f
       0.23408037 1.1742911 0.14615092 0.5772259
000070 a5 22 95 bf 98 de da 3e 07 ed 37 3f 55 ea bd be
       -1.1651198 0.4274795 0.7184605 -0.37092844
000080 19 1f fd 3e 44 0b 20 bf af c6 3d 3f 0a 1c 2d bf
       0.49437788 -0.6251719 0.7413129 -0.6762091
000090 81 d6 b8 3e 63 b5 15 bc 92 ba a7 bc 86 10 0d 3f
       0.36101153 -0.009137484 -0.020474706 0.5510334
0000a0 e3 9b c7 bf 49 c6 50 3e e5 4b 26 be 07 45 ce bd
       -1.5594448 0.2038814 -0.16239889 -0.1007176
0000b0 d7 d2 3c bf 0e 7b 9e bd 7e 6b 4f 3e 51 7f 33 3f
       -0.73759216 -0.077383146 0.20255849 0.70116144
0000c0 64 8e 4c be 26 76 1d 3e ad 51 cc bd 91 cc 5a 3d
       -0.19976193 0.15377101 -0.09976516 0.053417746
0000d0 b6 f2 5b 3f 56 60 91 3f d7 4f 5c bf 0f fa 2f 3d
       0.8591722 1.1357524 -0.86059326 0.042963084
0000e0 53 72 5f bf 74 55 a7 be d2 3d a2 be 53 d9 9f 3d
       -0.8728382 -0.32682383 -0.3168779 0.07805123
0000f0 36 7d b2 be eb 7b fa be 1e b1 6c 3f 62 91 21 be
       -0.34861153 -0.48922667 0.9245776 -0.15778115
000100 4f b8 31 3f 8e 1e 8a 3e 5a ec 7b 3f 9b ae 19 3f
       0.6942186 0.26976436 0.9840752 0.6003205
000110 7c d1 a5 bf b1 e2 41 be b2 e2 01 3f 0e 36 7a 3f
       -1.2954555 -0.18934132 0.50736535 0.9773873
000120 2a d9 0b 3f 88 53 40 bd ff ab d5 be 9c 71 a4 bf
       0.5462824 -0.04695466 -0.41732785 -1.2847171
000130 63 c5 4e bd f5 ed 68 bd 43 d0 0f bf e7 97 e0 be
       -0.05048121 -0.05686756 -0.5617716 -0.43865892
000140 77 62 e5 be 34 63 ac 3e e7 f8 0d 3f 0b a7 18 bf
       -0.44801685 0.33669436 0.5545792 -0.5962989
000150 89 77 40 be 56 c7 8e 3f 41 44 88 3d 71 90 a9 be
       -0.18795599 1.1154583 0.066536434 -0.33118013
000160 1d ac 33 bc 43 3d 09 be 31 1a fc 3d 38 ee 49 bf
       -0.010966328 -0.13402276 0.12309683 -0.7887912
000170 48 db 0c 3e e4 29 a4 3d 74 7e 61 3e c3 f5 ec 3d
       0.13755524 0.080158025 0.22020894 0.11570313
000180 7c 2d 5e bd 91 50 83 3f 46 35 28 3d 6c eb 3f 3f
       -0.054242596 1.0258962 0.04106643 0.749686
000190 5e 66 75 3f 8b 74 78 3f 83 5c a1 3e f1 4e 02 40
       0.95859325 0.9705283 0.31515893 2.0360682
0001a0 ce 06 9c 3e 08 52 70 bf 59 e3 80 be dc fc 84 bd
       0.30473942 -0.9387517 -0.25173452 -0.064935416
0001b0 d6 e8 20 3f 98 6f 2b be a4 d4 22 bf 55 e6 16 3f
       0.6285528 -0.16741788 -0.63605714 0.5894521
0001c0 9e e2 05 3f 10 0c 86 bf a8 58 44 3f 40 80 b1 be
       0.52298915 -1.0472431 0.7669778 -0.3466816
0001d0 bd 92 a3 bf b3 d9 a2 3e 74 17 59 3f 2b f6 8d be
       -1.2779156 0.31806716 0.8480141 -0.27726874
0001e0 49 5d 78 be f8 2c 30 3e 96 03 9c 3f ab a7 39 3f
       -0.24254335 0.17204654 1.2188594 0.72521466
0001f0 2d 2c 24 3d 6a 7c 68 3e ad df 70 3d 22 f5 0a 3e
       0.04008119 0.2270371 0.058807064 0.13570073

weight f4 [512, 128]
000000 7a 4d e7 bc 49 b7 d9 3d b1 22 3a bd 65 d0 95 bd
       -0.028235186 0.10630662 -0.04544324 -0.07315139
000010 d9 15 d7 3c c3 72 66 bd 07 ef 4b 3d c4 04 4d 3e
       0.026255535 -0.05626179 0.0497885 0.20021349
000020 b0 2c 8b 3c dc 96 e9 3d 3b 17 fb bd ce c4 fe bc
       0.016989082 0.11405727 -0.1226029 -0.031099703
000030 f6 40 3d bd 22 f7 54 bd 8a 84 d9 3d 92 38 31 bd
       -0.04620453 -0.051993497 0.10620983 -0.04326684
000040 b6 0c 8e 3d 89 9f b6 bd 19 8d e0 bd ad 32 ae 3d
       0.06936018 -0.08917148 -0.10964412 0.085057594
000050 59 20 a3 bd 7c 31 95 bd ce 4f 4a be db 22 c2 3d
       -0.07965154 -0.07284829 -0.19757006 0.094793044
000060 07 60 12 be 4b 54 41 be aa 54 a6 bc b1 7b a7 bd
       -0.14294444 -0.18879811 -0.020304043 -0.08177889
000070 6f 0f 3b 3e a6 42 d9 3d 18 a2 e8 bd 50 a9 28 bd
       0.18267606 0.10608415 -0.11359042 -0.041177094
000080 ce f9 27 3d d1 59 99 3d e8 53 1d be e6 e9 e1 3d
       0.041009717 0.07487834 -0.15364039 0.11030941
000090 7d 00 45 bd 05 8d d3 bd ab 33 b3 bd 30 11 01 be
       -0.04809617 -0.10329632 -0.08750089 -0.12604213
0000a0 4d a8 0d 3d 02 48 19 bd 6d 5c e4 3b cd 2e 1e be
       0.034584332 -0.037422188 0.006969026 -0.1544754
0000b0 1e ca 19 3e 33 7a 37 be 06 b0 93 bd d9 9d 06 3e
       0.15018508 -0.17917709 -0.07211308 0.13146152
0000c0 cb 24 04 bd 31 d5 2f bc a4 e8 65 bd d7 ea 64 3d
       -0.03226165 -0.010731981 -0.056130067 0.055888023
0000d0 31 8e 83 3d e4 fb e4 bd 93 11 b0 3c f2 09 f9 bd
       0.06423605 -0.11180857 0.021492755 -0.121601
0000e0 9c fd 0c be 38 96 e3 3d 7e 9d 95 bd e4 21 bd 3b
       -0.1376862 0.11112636 -0.0730543 0.0057718623
0000f0 b1 cb ae ba 4b c4 40 be a5 68 c5 3d 2d db eb bd
       -0.0013335851 -0.1882488 0.096391 -0.11516414
000100 16 6b 6f 3d 05 b8 0b 3a 1b d7 24 3c 38 1d e0 bd
       0.058451734 0.000532985 0.010061051 -0.10943073
000110 7e d3 5e 3c 39 5f 22 be e3 20 ce bd 02 d0 6f be
       0.013600228 -0.15856637 -0.100648664 -0.23419192
000120 63 50 82 bd 85 d8 fd bd 11 0a 93 bd b9 70 89 bd
       -0.06362989 -0.123948134 -0.071796544 -0.06710953
000130 c7 3a 30 bd 93 f0 a0 bd ec d6 10 3d df 80 9e bd
       -0.043024804 -0.07858386 0.035361215 -0.07739424
000140 70 83 24 be 15 35 98 3c b4 ca 5c 3c 2d fa 93 bd
       -0.16065764 0.018579999 0.013476063 -0.072254516
000150 ed db 89 3d b6 ce 37 be db cd c2 3a 0a 59 16 be
       0.06731401 -0.17949948 0.0014862375 -0.14682403
000160 aa 8b 47 3d dd 25 0e 3e 20 2a d8 3d ce e7 a1 bb
       0.04871718 0.13881631 0.1055491 -0.0049409634
000170 d1 b8 6d 3d eb 1a 7b bc 0c c5 6d 3b 9f 8b 9b bc
       0.058037583 -0.015326242 0.003628078 -0.018987475
000180 41 cb 53 3d 54 21 65 3d 2b 5a 15 3e b8 18 e5 3d
       0.05170751 0.055939987 0.14585178 0.11186355
000190 1d 81 21 be 25 ac fb 3c d1 34 aa bb 43 3c 85 be
       -0.15771909 0.030721733 -0.0051942845 -0.2602254
0001a0 fe 70 66 bc c8 7f b0 3c 2f c9 8d bd 7f 79 31 be
       -0.014065025 0.021545306 -0.06923138 -0.17331503
0001b0 d1 35 11 be 04 67 9d bc 71 e2 37 be 70 ed 46 bd
       -0.14180686 -0.01921416 -0.17957474 -0.04856628
0001c0 c2 b4 1c be 9c b1 db bd 85 76 11 3e 8e ee 28 3c
       -0.15303329 -0.10727236 0.14205368 0.010310782
0001d0 73 49 45 bc ad 9d d2 3d 07 e1 73 be 61 ce 37 bd
       -0.012041437 0.102839805 -0.2381631 -0.044874553
0001e0 19 98 49 be 94 0d d9 bd 45 12 4f bd 5a 8f dd bc
       -0.19686927 -0.10598293 -0.050554533 -0.027045894
0001f0 a3 1c c8 3d b1 bb 21 be c3 ce 21 bd 1e 35 6b 3d
       0.09771087 -0.15794255 -0.039503824 0.057423703
000200 5a bd 8b 3c a4 49 e9 3d 9e 83 4c be b4 d9 82 be
       0.017058063 0.11390999 -0.19972083 -0.2555672
000210 73 79 48 be ca ed 1b bd 71 0e 2b 3e a9 8b 9e bb
       -0.19577579 -0.03806857 0.16704728 -0.004838426
000220 cd 7a c3 bd a0 f6 18 3c 80 d1 df bd b2 f8 77 be
       -0.09544907 0.009336144 -0.10928631 -0.24215963
000230 8a 6b 9c bd fa 47 fd bd 73 50 f5 3c ad 0c 2d bc
       -0.07637699 -0.12367244 0.029945588 -0.010562104
000240 0e 4b 34 3c ed e0 a6 bd a7 14 4e 3e 7e fa 29 bc
       0.011004223 -0.0814837 0.20125066 -0.010374663
000250 aa d8 5c 3e d3 85 d4 3d e9 9b 75 3e d5 9e b4 bd
       0.21567026 0.103770874 0.23985256 -0.08819357
000260 0b f1 1e 3e e7 db 1b 3d fc c0 fb bd 25 75 ac 3d
       0.15521638 0.038051512 -0.12292668 0.08420781
000270 bf 4f 12 3e e5 b4 12 3b cf e1 1c be 66 e3 8c bd
       0.14288233 0.0022385654 -0.15320514 -0.0687931
000280 0c 20 b8 3c 92 83 05 be a8 1b 55 be f8 5e 8d be
       0.022476219 -0.13038471 -0.20811331 -0.27611518
000290 e6 ae 75 be ee 5e 38 3d ce 47 ed bd f5 d8 f6 bd
       -0.239925 0.045012407 -0.11585961 -0.120531
0002a0 e5 b9 26 3e c1 f2 ca 3d fc 2b 32 3e 42 e7 f4 3d
       0.1628185 0.09909583 0.17399591 0.119581714
0002b0 56 f2 b2 bc 20 80 f8 3c 77 b1 ae bd 01 9a 1b be
       -0.02184407 0.030334532 -0.085299425 -0.15195467
0002c0 93 f6 4b 3e d7 59 35 bd 9e d0 cc 3d 2e 96 9d bd
       0.1991828 -0.04427513 0.10000728 -0.0769466
0002d0 51 c7 b4 be 94 6c 2f be d8 24 84 bc bb f3 eb bc
       -0.35308316 -0.17131263 -0.01613085 -0.028802743
0002e0 5e d9 bb bd 12 7c b5 bc ea 78 09 be 84 1d 88 bd
       -0.09172319 -0.022153888 -0.13425031 -0.06646255
0002f0 07 19 91 bd 1f b0 03 be 77 c2 b1 bd 19 5c 2d 3d
       -0.07084852 -0.12860154 -0.08679669 0.04232416
000300 ab 8d 1e bd 69 b8 00 3c fb 49 d8 3b 2f 55 eb 3d
       -0.038709324 0.007856467 0.006600616 0.11490857
000310 40 2e 04 bd 97 5a eb 3d cf 52 48 3d 6b 4e 82 be
       -0.03227067 0.11491888 0.048907097 -0.25450453
000320 76 8a 3f be 25 c5 1a 3e 26 30 c4 3d c8 d3 77 be
       -0.18705162 0.15114267 0.09579496 -0.24201882
000330 c8 27 32 bd e6 bf c6 3d 00 29 3b bd 4a 75 93 bd
       -0.04349497 0.097045705 -0.045693398 -0.072001055
000340 1f 42 df bd f2 88 45 3c 97 02 51 3d 69 ee 27 3d
       -0.109012835 0.012056576 0.05102786 0.04099885
000350 fc 66 3c be 4b e9 ee 3c a9 f1 21 3c 04 c9 02 be
       -0.1839866 0.029163977 0.009884276 -0.12771994
000360 21 65 a9 bd a9 e1 e2 bd cf 8c a2 bd 5e 3d f0 3d
       -0.08271242 -0.110781975 -0.07937013 0.11730455
000370 a5 c2 32 be d7 f9 fb bd 62 16 9b bd a3 b8 fb 3d
       -0.17457063 -0.123035125 -0.075726286 0.12291076
000380 c5 94 7a 3e 93 50 42 be b7 ac 38 3c f3 49 26 bd
       0.24470814 -0.18976049 0.011271647 -0.040597867
000390 8c 2b c2 bd fc 75 be 3c f8 b0 6b bd 1c 7f a1 3e
       -0.09480962 0.023249619 -0.057541817 0.3154229
0003a0 78 2f 6e bd b7 e1 36 be 21 aa 23 3e d2 2d 84 be
       -0.05815074 -0.17859541 0.15982868 -0.25816208
0003b0 98 25 68 be 59 c9 97 be e0 cf 6d 3c c7 80 22 3d
       -0.22670591 -0.29645804 0.014514893 0.039673593
0003c0 70 6c 8c 3e f8 ac 21 be 45 18 e2 bd 71 08 07 3e
       0.2742648 -0.15788639 -0.11039785 0.13186814
0003d0 6a 10 25 bc 71 e5 e5 bc 33 56 0f 3e 7a e4 73 3e
       -0.010074714 -0.028063508 0.13997726 0.23817626
0003e0 df b6 29 be a5 0b 54 bd 96 2a 5a be e4 75 80 bb
       -0.16573666 -0.051768918 -0.21305308 -0.0039203037
0003f0 28 b8 92 be 78 f1 98 3d 38 76 df 3c 44 d6 d2 bd
       -0.28656125 0.074679315 0.02727805 -0.10294774

bias f4 [512]
000000 ef d7 df bd 3a f7 64 3e b6 83 87 bc 64 44 bb 3d
       -0.10929858 0.22359934 -0.016542297 0.09143904
000010 42 a9 d6 bc 24 42 c7 3e b3 cf fe 3e 64 52 81 be
       -0.026203755 0.3891765 0.49767837 -0.25258172
000020 0d 85 1a 3d 3b 88 4f be ab 1c 3e be d6 c4 2c 3d
       0.037724543 -0.20266812 -0.18565623 0.042179905
000030 b7 5c 8d 3e 86 cf 03 3f a4 69 0f be 5b d8 50 3f
       0.27609798 0.5148853 -0.14005142 0.8158013
000040 b9 80 6c bd c7 30 f7 bd 70 35 d3 3e 44 54 aa 3e
       -0.057739947 -0.120698504 0.41251707 0.33267415
000050 30 fc d0 3b 58 24 8e 3e b3 55 97 3e b9 6a 4b 3d
       0.0063777193 0.27762103 0.2955757 0.049662326
000060 37 32 ca be a0 49 bd bd 33 5f 2a 3e 6b 71 9f 3e
       -0.39491436 -0.092425585 0.16637878 0.3114122
000070 41 9a 46 3d 9f 4d f7 3b dc a6 42 3f 88 c3 50 3e
       0.04848695 0.007547095 0.7603586 0.20387089
000080 33 d1 f8 bd e0 8f 38 be 8b 46 90 bc 9d ed 03 3f
       -0.121492766 -0.18023634 -0.017611763 0.51534444
000090 6e 40 30 3e d5 4c 9f 3d 42 6a 56 be c2 6f e4 3d
       0.17212078 0.077783264 -0.20938972 0.111541286
0000a0 9c cc 24 be 16 93 a8 3d 43 94 1d bd c0 c2 08 be
       -0.16093677 0.082311794 -0.03847147 -0.13355541
0000b0 4b 8f 79 be 1e d8 25 3f 52 a0 d9 ba 82 21 0a 3e
       -0.24371068 0.64782894 -0.0016603565 0.13489345
0000c0 35 89 08 3e d6 99 81 3e 9c 1e 26 3d f6 40 5a 3f
       0.1333359 0.2531268 0.040556535 0.8525537
0000d0 5a 45 3c be 66 a4 6c 3d c6 f8 de bc 11 1f d9 3e
       -0.1838583 0.05777397 -0.027218234 0.42406514
0000e0 65 e1 81 bd e2 e5 4a 3e b6 9f de bd 89 9c 42 3e
       -0.06341819 0.19814256 -0.10870306 0.19005026
0000f0 1d 54 69 3e f6 45 84 bd 25 d5 14 be 61 8b 29 3f
       0.22785993 -0.064586565 -0.14534433 0.662283
000100 59 8a 3c be 6e 5a 80 3e 8c c1 43 3d ba 1d 75 bd
       -0.1841215 0.25068992 0.047792003 -0.059842803
000110 78 ca fb 3d 52 c9 56 bd f3 93 74 bd d1 83 0c 3f
       0.12294477 -0.052438088 -0.059711408 0.54888636
000120 90 f1 a8 3d 3b 16 d2 bd f8 c0 50 bd 6d c0 83 3e
       0.082491994 -0.102581464 -0.05096528 0.25732747
000130 8f df cd 3e fc 50 3e 3f 41 52 a3 3e 86 6e 68 3c
       0.40209624 0.7434232 0.31898692 0.014186507
000140 a0 fc 06 3f d0 16 de 3e 16 f1 0c be 49 ea 57 bd
       0.52729225 0.4337678 -0.13763842 -0.052713666
000150 96 12 b6 bd 8c 6b cf bd 36 16 05 3f 61 a5 a7 3d
       -0.08890264 -0.10127935 0.51987016 0.081858404
000160 4e 18 1c be 3a fc a2 bd 76 58 e0 bd 2b 73 15 bd
       -0.15243647 -0.07958265 -0.109543726 -0.036486786
000170 7d b0 42 3f bf e6 f3 3e e7 95 2a be cf 0a 0a 3f
       0.7605055 0.47636983 -0.16658746 0.5392274
000180 11 6d 4e bd 90 2c 12 3f f0 a0 be bd 6d b5 b4 be
       -0.050396983 0.57099247 -0.0930804 -0.35294667
000190 4b 81 02 3e cd 23 38 bd 63 64 b9 bd 82 ff 0a be
       0.12744634 -0.044956017 -0.0905235 -0.13574031
0001a0 08 cf c8 bd df 9e 1d 3e 02 21 b0 3e e0 bf aa 3d
       -0.09805113 0.15392636 0.34400183 0.083373785
0001b0 3c 33 6f bd 52 33 5a 3d d3 30 a5 3c a6 2f 43 3d
       -0.05839847 0.0532716 0.020164883 0.047652863
0001c0 4b 17 0f 3f f4 c9 bf bd a3 c1 39 be 3b 7a 5d be
       0.5589492 -0.093646914 -0.18140273 -0.21628658
0001d0 34 ff 19 3f 26 76 03 be 69 e2 44 3e e6 25 3d be
       0.60155034 -0.12838039 0.19226994 -0.18471488
0001e0 d5 d4 8f 3e 00 5b 44 3e 1b a1 3c 3e c2 1d df 3e
       0.28092065 0.19175339 0.18420832 0.4357739
0001f0 3f de 1f be 25 68 ff 3d 79 0c 02 bd 7f a7 e3 3c
       -0.15612124 0.12471036 -0.031750176 0.02778983
000200 c6 10 22 bd 45 da df 3e 45 6e 65 3e 91 47 e5 3e
       -0.039566778 0.43721214 0.22405346 0.44781163
000210 5f e2 88 3e 48 33 23 be 25 fc 88 bd e9 76 3d 3f
       0.26735207 -0.15937531 -0.06688718 0.7400957
000220 82 c5 0f be 3a c7 88 be 02 8f 64 be 37 66 20 be
       -0.14040187 -0.26714498 -0.22320178 -0.15663992
000230 cb 4e 54 3e 9e 4f f1 bd bf ff 44 3f 60 35 4c be
       0.20733182 -0.11782764 0.7695274 -0.19942236
000240 3b 86 9b 3e 75 4d ae 3e c1 22 a4 3e e0 2a 28 3f
       0.30375847 0.3404347 0.32057765 0.6569042
000250 48 ba 37 be e7 59 5c 3e 21 49 3b 3b af 5b 56 be
       -0.17942154 0.2151867 0.0028577524 -0.20933412
000260 52 c6 b5 3e 1a ad ba bd 15 9d 7f bd 15 db cb 3e
       0.3550287 -0.09115048 -0.062405664 0.39815584
000270 61 0e 0d 3e 4c c6 20 be ed c8 12 be d2 d5 42 be
       0.13775016 -0.15700644 -0.1433446 -0.19026878
000280 e4 d8 40 3d a5 4a e9 3e 50 3a 25 bd bc 82 c9 bd
       0.047081843 0.45564762 -0.040338814 -0.09839389
000290 40 fc a8 bd 31 0a ca 3e 37 11 ca bc 65 c4 4b be
       -0.08251238 0.394609 -0.024666412 -0.19899137
0002a0 17 c6 fa bc 70 3c 86 bd 27 6e bc 3e ec 08 40 3d
       -0.030612035 -0.06554496 0.3680279 0.04688351
0002b0 12 64 67 3d 85 67 16 3f b7 61 c0 3e 2c 73 ad 3b
       0.05649192 0.5875171 0.3757455 0.0052932706
0002c0 be 08 3d 3f 44 5e c3 3e cc bb 6b 3e 24 bf 08 be
       0.73841465 0.38157856 0.23020858 -0.13354164
0002d0 ff 70 43 3e 57 e2 1a 3e f0 0f e5 3e e5 b0 a0 3d
       0.19086073 0.15125404 0.44738722 0.0784624
0002e0 19 0c 67 3e 23 f0 13 be b3 6a 12 3e 8e 07 6e 3d
       0.22563209 -0.14447074 0.14298515 0.058112673
0002f0 d0 d6 6a 3d 82 fc 22 3f 8e 18 ae 3d 96 28 c1 3c
       0.057333767 0.63666546 0.08500777 0.023578923
000300 c9 8f a7 3e 14 df e7 bd 41 56 05 3e 30 62 bc 3e
       0.32726887 -0.11321846 0.13021185 0.3679366
000310 97 dc e7 3d f2 ba 7d bd a7 97 2b 3e fc a5 9f be
       0.11321371 -0.061945863 0.1675707 -0.31181324
000320 a4 66 13 3d 11 96 07 3f 7c 5c e0 bd 76 19 31 be
       0.035986558 0.5296336 -0.1095514 -0.17294869
000330 ba 96 37 3f 8f c8 1e 3f 04 50 ab 3e db 8b 92 be
       0.71714365 0.6202478 0.33459485 -0.28622326
000340 97 9e fc bb db c3 a0 bc 40 cb e8 3e e1 8d fb 3e
       -0.007709335 -0.019624641 0.45467567 0.49131683
000350 8d b2 ff bd 86 3b 83 be 2a 40 f8 bd 66 c4 d5 bd
       -0.12485228 -0.2563135 -0.12121613 -0.10437851
000360 70 a6 80 bd bc ea 93 be b5 2f 08 3d 36 33 90 3e
       -0.062817454 -0.28890026 0.033248622 0.2816407
000370 bd 6e 12 be 80 b1 2c bd 34 ae 56 bd ee 4e 90 3e
       -0.14300056 -0.042161465 -0.052412227 0.2818522
000380 7b 90 44 be 71 5d 92 be 50 99 a5 3d 2f 73 1d 3e
       -0.1919574 -0.28586915 0.08085883 0.1537597
000390 cd 81 81 bd 5d 80 0e 3c 77 9a 23 be 43 fc 87 bd
       -0.06323586 0.008697596 -0.15976892 -0.06639912
0003a0 52 8d aa bd dc 75 d7 3e 82 f4 18 3e a9 2b 0a 3d
       -0.08327736 0.42082107 0.14937022 0.033733044
0003b0 83 66 2e be 42 22 b6 3d 77 97 34 be 02 36 45 bd
       -0.17031293 0.08893253 -0.17635904 -0.04814721
0003c0 30 56 70 bd 68 e8 a2 3d 4d 86 15 3f 87 9a 2c 3e
       -0.058675945 0.07954484 0.5840805 0.16855823
0003d0 dd 7d 01 be e0 32 3a 3e a2 90 0d bd 24 df 0d 3f
       -0.1264567 0.1818347 -0.03456176 0.5541861
0003e0 eb 44 51 be 56 09 ff bd 9f b9 75 3d 0c f9 5b 3e
       -0.20436446 -0.124529526 0.059991475 0.21481723
0003f0 8c 26 a4 3e 4e 66 eb bd 03 06 5e 3e 95 ee 68 bb
       0.3206066 -0.114941224 0.21681981 -0.0035542597

weight f4 [100, 512]
000000 6b 3e 96 bc dd 32 49 bd 8d 36 36 bd a1 4c 8e bd
       -0.01834031 -0.049120773 -0.044485617 -0.069482096
000010 dc 9c 0b 3d 4f bd 02 3c e1 f2 2c bd 92 e5 45 3b
       0.03408514 0.007979705 -0.042223815 0.003019665
000020 0c d5 7c 3c 26 64 3d 3b 42 c2 22 bd fe 29 14 bd
       0.015431654 0.0028898804 -0.03973604 -0.03617286
000030 e6 bc b0 bd 8c cb cc bd 7e 25 7a 3c da a0 ab bd
       -0.086297795 -0.09999761 0.015267728 -0.083802894
000040 e7 a3 ec 3c 09 a2 5c bd 02 35 4d bd d3 5e 8c bd
       0.028886748 -0.053865466 -0.05009938 -0.06854024
000050 10 50 96 3c 3b 13 83 bd 5b 1a 57 bc d4 9e fd ba
       0.018348724 -0.06400152 -0.013128842 -0.0019349703
000060 70 7f dc bc f3 95 75 3c 67 c8 8a bd ad 64 88 3c
       -0.026916236 0.014989364 -0.06776505 0.016649568
000070 d6 fe 5a bd 95 45 e3 bc 80 1e fc bd 50 4c a9 bb
       -0.053465687 -0.02774314 -0.12310505 -0.005166568
000080 0b 33 86 bc 9f 5f a6 bc 41 27 d3 bc 7b 07 81 bd
       -0.016381761 -0.020309268 -0.025775554 -0.06300255
000090 a1 c2 93 bc 0a 67 cc 3c cb 57 be bb a9 d4 a1 bc
       -0.018037142 0.024951477 -0.0058088056 -0.019754725
0000a0 dd 1c 8a 3c 31 63 d7 ba 8e d1 d8 bb a2 94 86 3b
       0.016859466 -0.001643276 -0.0066167777 0.004107074
0000b0 ca b6 ac bb 14 29 64 bd 6d 04 03 bd da 5f b5 bd
       -0.0052708136 -0.055703238 -0.031986643 -0.08856173
0000c0 04 62 d1 bb c3 1a c2 bc aa 6f 21 bd b9 a1 b4 bd
       -0.006389858 -0.023694402 -0.03941313 -0.08819909
0000d0 0d 3b 2f 3c 7b 97 01 bd 3e eb ed 3b 88 d9 b8 bd
       0.010695231 -0.031638604 0.007260709 -0.09025866
0000e0 a8 c9 02 3c 36 e7 bb 3c fc f3 63 bc 42 ba 79 bc
       0.007982649 0.022937398 -0.013913151 -0.015242161
0000f0 d6 17 97 bd bc c3 2c bd 55 34 38 3c f7 d6 e8 bd
       -0.07377593 -0.042178854 0.011242946 -0.11369126
000100 25 11 fb 3c 89 fb ff bc 6c cc b5 bb d1 26 9f bd
       0.030647824 -0.031247871 -0.0055480506 -0.077710755
000110 be 8a a4 3c 5a e4 96 bc ae 32 aa 3c 93 ff 47 bd
       0.020085689 -0.018419433 0.02077612 -0.04882772
000120 5a a6 90 3b 12 de b6 bc fa f5 57 bd de f9 aa bd
       0.004414362 -0.022322688 -0.052724816 -0.0834844
000130 15 88 db 3b 19 d5 ce bd 61 b7 02 bd 67 bf 45 3c
       0.006699572 -0.10099239 -0.031913165 0.01206956
000140 85 2d 39 bd 3a 66 01 bd f3 8b cd bc cc 8c fa 3b
       -0.045209426 -0.03159163 -0.025091147 0.007646179
000150 f2 05 0f 3d 87 10 20 3a 79 5d 5e 3b ed cd 2f 3b
       0.03491778 0.00061059784 0.0033930226 0.0026825622
000160 07 d7 6a bd b3 81 11 3d b0 85 bc bc 84 04 b8 bc
       -0.057333972 0.03552408 -0.023012966 -0.02246309
000170 7b f4 85 bd 5c f9 25 ba b7 b6 39 bc 0c 75 73 bd
       -0.065407716 -0.0006331408 -0.0113350665 -0.059437796
000180 9b 17 c1 bc c0 cf a5 bb 32 ef 98 3c 27 ae 8d bc
       -0.023570826 -0.005060166 0.018668745 -0.017294956
000190 07 b2 de 3b 7d ad c4 bb c1 ef 38 ba 25 81 91 3b
       0.006796125 -0.0060021267 -0.0007054769 0.004440444
0001a0 5f 3d c2 3c c2 fa 59 bd 51 be 2a bd c0 d1 0a bd
       0.023710905 -0.053217657 -0.041685406 -0.03389144
0001b0 49 63 86 3c 77 06 ca 3c 06 14 e5 bc 85 bf 31 bd
       0.016404765 0.024661286 -0.02796365 -0.043395538
0001c0 86 81 d9 bc 1e c5 2a 3c 48 5d 02 3d 9b 6f 4c bc
       -0.02655102 0.010422973 0.03182724 -0.012477781
0001d0 40 ac 16 bd c2 21 3e bd f1 9b ec bc 98 85 05 3d
       -0.036785364 -0.046418913 -0.028882952 0.032598108
0001e0 b2 5d c7 bc 9c ff ac bc e9 8f 80 bc a5 0b 75 bd
       -0.02433667 -0.021117978 -0.015693622 -0.05982556
0001f0 53 2c 4f 3c ef fa 3a 3c d8 3b 7f 3c 5f 39 0f 3c
       0.012644845 0.011412366 0.015578233 0.008741706
000200 cf 97 a6 3c 29 be a6 bd b4 c7 3c bd 6b f2 60 bd
       0.02033606 -0.08141739 -0.04608889 -0.054918688
000210 dd d1 74 bd 04 07 55 bd 01 a2 10 bd 2e a3 07 be
       -0.059770454 -0.052008644 -0.03531075 -0.13245842
000220 dc f0 b2 3c 8b 94 1f bd 1c 74 e7 bc d4 0d d8 bb
       0.021843366 -0.03896002 -0.028253607 -0.0065934453
000230 a5 df b3 bc 9b 64 38 bd af 8c 94 bc 6d c6 99 bb
       -0.021957228 -0.04501782 -0.01813349 -0.0046928436
000240 5d 9b e8 bc 46 df 80 bd 5e 15 a4 bc d2 97 9a bd
       -0.028394395 -0.06292586 -0.02002972 -0.07548489
000250 4b eb 0d bd 8d 9c 66 bc 54 9a b7 bb c8 ee d1 bc
       -0.03464822 -0.014075411 -0.005603114 -0.025626555
000260 0a ed 90 bc 88 42 00 bd 85 71 6c 3c 7d d3 d2 bd
       -0.017691154 -0.03131345 0.014431362 -0.102942444
000270 e8 9f 68 bd ca c4 b2 3c 26 d4 0b 3d ed de 27 bd
       -0.056793123 0.021822352 0.034137867 -0.040984083
000280 89 ed 89 bd ae 84 72 bd 42 29 9c 3c 3e 54 89 bc
       -0.06734759 -0.059208564 0.019062642 -0.016763803
000290 f4 b1 18 3d 9e 09 18 bd 19 1c 1a bc f8 b7 33 3b
       0.037279084 -0.037118547 -0.009406113 0.0027422886
0002a0 d0 1b 72 bc ba 05 e6 3c f5 b9 e3 bc 69 c0 0b bd
       -0.014777139 0.028078903 -0.027798632 -0.034119043
0002b0 97 39 47 bd 38 45 ad bd 75 e4 cb bc 05 45 0c 3d
       -0.048638906 -0.08460468 -0.02488921 0.03424551
0002c0 00 e4 97 bd e8 2e 0f bd f6 64 03 bd c0 f1 0f bd
       -0.074165344 -0.034956843 -0.032078706 -0.03514266
0002d0 8a e6 b4 bc c0 27 f8 3b c8 f1 86 bc 5f 2f fd bb
       -0.022082586 0.007573098 -0.016472712 -0.0077265943
0002e0 44 1a 5a bc 08 31 14 bd 75 ca ff bd 02 66 9f bb
       -0.013311926 -0.036179572 -0.124897875 -0.004864455
0002f0 2d 1f 52 3c be b0 bb bd e8 37 42 3c 30 34 51 bb
       0.012824816 -0.0916457 0.011854149 -0.0031921975
000300 95 4a 41 bc 4c 9b 62 bd 26 82 ed bc 19 8a 50 b9
       -0.011797567 -0.055323884 -0.028992724 -0.00019887871
000310 32 5f c5 bc 29 26 ca bc 37 93 e5 bd 9b be 9b bc
       -0.024093244 -0.0246764 -0.1120972 -0.019011786
000320 ca 9a 8d 3c fc 62 43 bd 6b 2b d3 bc 96 9f bd bc
       0.017285723 -0.04770182 -0.02577754 -0.023147386
000330 24 77 f7 bd be ec 16 bd a8 9e a4 bd a6 54 bb bc
       -0.12083271 -0.03684687 -0.08038074 -0.022867512
000340 7d 07 29 3d 91 54 02 bd ff 13 9f bd 8e 59 03 bd
       0.041266907 -0.03181893 -0.07767486 -0.032067828
000350 6a 19 f1 3c fd 4e cf bc e7 1e 22 bd 58 1c fd 3c
       0.029431064 -0.02530622 -0.039580252 0.030897304
000360 ec f2 65 ba a6 2e 04 bd 3c 79 fc bc 20 88 64 bd
       -0.0008771855 -0.03227105 -0.030819528 -0.05579388
000370 da 3b ae 3b 3e 7b 4d bd 2c 6a b9 bc ce 5e 61 bd
       0.0053171935 -0.05016636 -0.022633635 -0.055022053
000380 7b 40 6c 3c 50 ee 71 bd f9 b3 d0 bc ee cc 64 bd
       0.01441967 -0.059065163 -0.025476443 -0.0558595
000390 8a 9b 11 3d 7d a6 4e bd d0 a3 22 3c b5 74 3c 3c
       0.035548724 -0.050451744 0.009926751 0.0115024345
0003a0 e8 cb 10 3c 3c ac 26 bd a0 5a 82 bd 26 5e cb 3c
       0.008837678 -0.0406916 -0.063649416 0.024825167
0003b0 14 b4 ef bc 6e 0f 2c bc 62 a5 db bc 80 a9 04 3c
       -0.029260673 -0.010501726 -0.02681226 0.008097053
0003c0 f9 c2 cc 3c d0 5d 98 3c da 0c cf bd b1 5f 94 bc
       0.024995314 0.01859942 -0.10109873 -0.018112035
0003d0 e0 fe 03 bd ba 7f c3 bc 92 38 10 bc 66 00 75 bd
       -0.03222549 -0.023864616 -0.00880255 -0.059814833
0003e0 80 1a 85 bd c8 ab 03 bd a7 ca ed 3c 62 e5 60 3c
       -0.06499195 -0.032146245 0.029027296 0.013726564
0003f0 da 32 79 bd 70 1b b0 3c ff b9 54 3c 16 5c ea 3b
       -0.06083951 0.021497458 0.012983798 0.007152091
