system/models/Cifar100/CNN/FedPer_BaseHeadSplit_Cifar100_client_5.pt (torch, 726826 bytes, 10 tensors)

weight f4 [32, 3, 5, 5]
00000000: 7abf 0c3f 3fc0 413f 7a00 a7be 1869 5dbf
00000010: f621 05bf 3852 223f f896 193e f394 1dbf
00000020: f37d 31bf 39a2 0dbd 04a8 7d3d 1036 03bf
00000030: 87d7 e5be 3a3b 24bc 75d9 783e 5d9c f3be
00000040: 767f ccbe a310 d93e 14dc f43e 06a0 843e
00000050: a1dc b5be e207 773d 1419 183f c71c 343f
00000060: 0764 853e 522a a83e 8c97 2e3f 0106 aebe
00000070: 343b 48bf e018 c1be b5b5 b23e 00e9 213e
00000080: 8800 4bbf eafc 38bf e7fd b2bd d25f 11be
00000090: 552d 26bf acae a6be af71 41bc b5c4 6b3e
000000a0: 3c1f 13bf 09ff 20bf 1a3b 4a3e c8a0 343e
000000b0: ffa4 4fbd ddcb 18bf c4f3 21be 6275 d53e
000000c0: 40d4 4d3e 6cd3 b7bd a854 323f bcdc 813f
000000d0: 7111 613e 9625 72be 2f6e 1d3e 3513 2a3f
000000e0: c83b ef3e d78f c0be 12ef a2be 36c3 9c3e
000000f0: 6947 a03e 0147 48be c506 21be 2f21 8e3e
00000100: b289 003f e595 c9be 63d0 b6be 12e6 bf3e
00000110: 7729 013f 7e9a 9c3e 8c73 08bf 2de9 42be
00000120: c2b9 e93e fd36 d33e 14a2 033e edc2 923e
00000130: 06f8 f0bd 24e0 dbbe 29d4 063e 7aae d93e
00000140: ea1f 083e 2ba6 0c3d b953 c5be 2fe8 47bd
00000150: dee4 243f e926 363d f9ae a9bc 62aa 00be
00000160: 579c dd3d 4569 27be 34cc 4dbe ad1f b73e
00000170: 8b05 6e3f 0e8c 63be cbe5 a5bf 4822 9dbe
00000180: a41b b63e c15f 263f 7606 1bbf 549e a4bf
00000190: 07a9 1e3e e378 11be 3a82 cfbe 0382 0fbb
000001a0: 1eec 813e 8c15 2d3e 4802 45be 35d7 08bf
000001b0: c42c e93d 90dd 2e3f a1e0 9e3c d4ed 8d3d
000001c0: ade5 ddbd 5992 a93e 6ebf 523e 956b 84be
000001d0: a709 ab3e 93d7 6e3f 2f95 bf3c 6095 47bf
000001e0: 8c32 7cba eef1 f53e 6ecb 473f 4c37 cabd
000001f0: c6f1 5dbf 50eb d8be 4307 16bf 926d 34bf
00000200: e909 cabe c32d 01be 50c2 81bd aa57 8dbe
00000210: 3476 31bf ba6d 12be 2a43 ee3e 1599 923a
00000220: d0c2 d4bd d881 50be 3a39 b73d 03cc e03d
00000230: 59d0 3abb 1c6f d43e a3b0 6f3f 6999 85bc
00000240: 5baa 53bf d587 8b3b ae7d 253f b52f 693f
00000250: df11 bdbd 2628 36bf 8fa4 b4be 9c95 c3be
00000260: 990a 9cbe 599b 89be dff0 91be c360 9abe
00000270: fcec ffbd ae3b b8be 4474 c1be 9df9 dabe
00000280: c216 b7bd 8bf5 c7bd c30f c8be 89b4 ecbe
00000290: b670 ddbe bf91 363c c5df aabd 98be 94be
000002a0: 8616 04bf 7296 f6be 99e8 153e 7662 d5bd
000002b0: 1cde 81be a15a d7be 6697 1fbf 6373 273e
000002c0: 5880 b93c 66d0 52bd 7a7e 513c 4574 7ebe
000002d0: 47cd 183e 91c1 bd3d 370e 9f3d 94bf c9bd
000002e0: a8ec 22be 0f06 8a3e 7e13 4d3e 85de 09bd
000002f0: 7961 64be 2e7f 30be a777 bb3e 8056 b23e
00000300: 3f74 e8bd 3836 1cbe 79c7 b5be feac 573e
00000310: 52c3 1a3e 57ee a9bc 05a1 8dbe 68b5 9fbe
00000320: 7c5f ff3d 9173 253e 746f 95bc 5dc4 aabd
00000330: a1ff 20be 9f28 713e 58e3 d53d 6303 153e
00000340: e686 e8bc 213d 13be c012 873e f902 733e
00000350: fc39 8c3d 1c5f 8fbd eafc 21be 2770 ad3e
00000360: fea8 673e 11a5 643b 95b1 4a3d 9e9b 80be
00000370: dcb3 ab3e 231e ce3e eb64 de3d 8657 69bd
00000380: eea1 84be 1bc4 13bf f54b 9bbe 3ad5 ad3d
00000390: 6afa 883e 5fc3 9e3e 5756 3dbf 1f4f 6cbe
000003a0: 055f 763e b2fa 1f3f 995f 063f 378c 42bf
000003b0: 2854 95be c1da b73d 9524 0b3f 92bd 253f
000003c0: d92a eebe 75c9 15be c742 dd3c 1b2a c73e
000003d0: 7c41 263f fdf4 2abf 2e04 d3bd ef32 41bc
000003e0: f0a0 073e bd57 b53e d111 98be 9c41 8eba
000003f0: be53 473e 44a7 c73d b24f 343d ac2a d3be
0.5497967 0.7568397 -0.3261755 -0.86488485 -0.52004945 0.63406706 0.14998996 -0.61555403
-0.6933281 -0.034578536 0.06192781 -0.5125437 -0.44890997 -0.010023886 0.24301703 -0.47580233
-0.39940995 0.42395505 0.47824156 0.25903338 -0.3551989 0.060310252 0.59413266 0.7035641
0.26052877 0.32844788 0.6819999 -0.33988956 -0.78215337 -0.3771429 0.34904256 0.15811539
-0.79297686 -0.72260916 -0.08739834 -0.14196709 -0.6491292 -0.3255514 -0.011806889 0.23024257
-0.57469535 -0.6288915 0.19749108 0.17639458 -0.050694462 -0.5968607 -0.15815645 0.41691118
0.20100498 -0.089758724 0.69660425 1.0145488 0.2197931 -0.2364715 0.15374063 0.6643556
0.46725297 -0.3760974 -0.3182302 0.30617684 0.31304482 -0.19558336 -0.15725239 0.27759692
0.50210106 -0.39372173 -0.3570586 0.37480217 0.50453895 0.30586618 -0.5330131 -0.19034262
0.45649534 0.4125289 0.12854797 0.28664342 -0.11766057 -0.42944443 0.1316687 0.42515928
0.13293424 0.034338158 -0.38540438 -0.048805412 0.64411724 0.0444707 -0.020713316 -0.12564996
0.10820835 -0.16348751 -0.20097429 0.35766354 0.9297721 -0.22221395 -1.2960752 -0.30690217
0.35567963 0.6498986 -0.60556734 -1.2860818 0.15494166 -0.14206271 -0.40529042 -0.0021897561
0.25375456 0.1690275 -0.19239151 -0.5345338 0.113854915 0.6830683 0.01939422 0.06930128
-0.10834823 0.33119467 0.20580837 -0.2586333 0.33405802 0.9329769 0.023386566 -0.77962303
-0.0009620569 0.4803614 0.78044784 -0.09873828 -0.8669704 -0.4236703 -0.5860483 -0.7047969
-0.39460686 -0.12615113 -0.0633589 -0.27605945 -0.6932099 -0.1429967 0.46535617 0.0011184538
-0.1038872 -0.20362031 0.08946462 0.10976412 -0.0028505533 0.4149102 0.936289 -0.016308503
-0.82681817 0.004258136 0.64644897 0.9108842 -0.09231924 -0.7115501 -0.35281798 -0.3820008
-0.30476835 -0.26876333 -0.28504083 -0.30151948 -0.12496373 -0.35983032 -0.37784016 -0.42768565
-0.089398876 -0.097636305 -0.39074525 -0.46231487 -0.43250054 0.011143147 -0.08343462 -0.29051661
-0.5159687 -0.48161656 0.1463951 -0.104191706 -0.25364769 -0.42061332 -0.6234039 0.1635261
0.022644207 -0.051468275 0.012786502 -0.24849041 0.14922057 0.092654355 0.07766383 -0.09850994
-0.1591059 0.26957747 0.20026967 -0.033659477 -0.22302808 -0.17236015 0.36614725 0.3483162
-0.11350297 -0.15255058 -0.35503748 0.21062085 0.15113571 -0.020743532 -0.2766191 -0.3119309
0.12469384 0.16157366 -0.018241622 -0.083382346 -0.15722515 0.23550652 0.10443753 0.14552073
-0.028384637 -0.14378788 0.26381493 0.23731603 0.06846997 -0.070005625 -0.15819135 0.33874628
0.22623059 0.0034888426 0.04948576 -0.25118726 0.3353566 0.40257367 0.10859092 -0.056968234
-0.25904793 -0.5772111 -0.30331388 0.08487935 0.2675355 0.3100843 -0.7395987 -0.23077057
0.24059685 0.62491906 0.5248962 -0.759952 -0.2916577 0.08977271 0.54352695 0.64742386
-0.46517065 -0.14627631 0.027009381 0.3889931 0.6494367 -0.6678007 -0.103035316 -0.011791929
0.13244987 0.35418501 -0.29701093 -0.0010853293 0.19465539 0.097487 0.044021316 -0.41243494

bias f4 [32]
00000000: 38c6 aabf ed43 f8bf dc53 33c0 8157 c3bf
00000010: 32a2 96bf ecd2 d4bf b5c2 1ebf a9c1 78bf
00000020: 1615 96bf a5ea 14bf 8227 6cbf 7eab 6dbf
00000030: 4ede abbf 378c c5bf c365 0cc0 6ba5 debf
00000040: 87fa d7bf 2079 b9bf 53e4 febf f099 82bf
00000050: cfa4 70bf 35fc b1bf 56a9 c4bf 3072 e4bf
00000060: 6eb7 2c3d f7c7 a7bf 186d edbf 37a9 26c0
00000070: 0b7d c6bf 6881 a7bf 025b d5bf 0289 bebf
-1.3341742 -1.9395729 -2.8019934 -1.5261079 -1.1768248 -1.6626868 -0.6201585 -0.971705
-1.1725185 -0.5817054 -0.92247784 -0.928398 -1.3427217 -1.5433415 -2.193711 -1.7394232
-1.687333 -1.449009 -1.9913429 -1.0203228 -0.9400148 -1.3905092 -1.5364177 -1.7847347
0.04216712 -1.31079 -1.8548918 -2.604078 -1.550691 -1.3086367 -1.6668398 -1.4885561

weight f4 [64, 32, 5, 5]
00000000: e105 cd3e ba4f bd3e e7af 043e b5e5 c3bd
00000010: acf1 9dbd 683d 653d 35eb 09be d932 c5bd
00000020: 76f1 17be e975 1fbe 4581 71bd e569 0cbe
00000030: 5eb7 09be bc95 bfbd bac8 f1bb a413 0ebd
00000040: 350c c1bd 1b18 f0bd c369 d13d 8c4c 6a3e
00000050: 882a 1f3c 405e f73b 7fcd 403e 5625 6f3e
00000060: 0d5c c93d 917f 1bbd d94d 0ebe 4d7d 89bd
00000070: 9e5c 8a3e cfcc fc3e 6fbf c8bd 17ef 67be
00000080: e536 0fbe 3a58 393e ab46 b13e 28c1 abbd
00000090: 8060 80be d4f8 84bd 0c09 6cbd 37c9 fb3c
000000a0: d199 5fbc 9663 2dbe 7738 f4bb 8835 98bd
000000b0: 3f39 bd3c 5f29 f2bd 0484 25be ea89 0cbe
000000c0: c965 aabc 33c4 c63d b301 3abc f71a bdbd
000000d0: 5dee 9ebd 155a dc3d 1ef7 a53e 8bb1 58bc
000000e0: 9141 d5bd 0ab9 8bbd 0b1b a8bd 83df d43d
000000f0: bd29 c7bc 5e66 60bd 6241 fabd c155 eabd
00000100: 8899 9fbd 6bcc cabb 2dd1 fabd 0270 8cbd
00000110: aad8 80bd af0b 8bbd cf86 aebc a4cd 80bd
00000120: f7e6 b7bd 1975 4dbc b747 b93d d1f1 2a3d
00000130: bcc8 98bd 41e6 9fbc ccf9 e6bd ee6a 223e
00000140: 737c 0a3e 670a 10bd 61de fc3c 1420 e4bd
00000150: 58e2 e03c 6d21 ad3d 7dfa 54be 9b7d 89bd
00000160: 3726 c2bd 8de4 703c 58ef 76bd 9114 b6be
00000170: 1b3d 47be 5db8 77be 5b97 593c 3cc8 0b3d
00000180: 89a9 10be d4c4 42be b159 58be 994a d3bd
00000190: ac4b 51bd 7691 a2bd 5152 13bd e111 32bd
000001a0: f391 523e 8ba3 1dbe a048 25be bc7c 56be
000001b0: 2389 43be fb8c 8cbd 1ed3 acbd 9cbd cdbd
000001c0: a294 08be 390b 0cbe 94d0 4fbc e9f8 50bb
000001d0: 4954 11be 80a4 08be 81dd 4bbd 7b3f 3a3d
000001e0: eb62 dfbd 3c84 93bd 06dd 13be d6a2 c4bd
000001f0: 2986 03bd ef1f a03d 85cb 7cba 7a36 20be
00000200: c902 9bbe 4cd4 abbe a943 233e a484 c43d
00000210: 2daf 3c3c 8058 47bd 63e9 7cbe 11b6 b73d
00000220: d94b e73d 0c73 b13d 083a 773d dcc7 12be
00000230: 47de 03bd 6c03 3e3d a13d 923c 5fc4 423b
00000240: 0c6e 21be d6f6 b2bd b43b 70bd 177a 083b
00000250: 9a5a 093b 7444 c83c b5c3 c7bd 804e bbbd
00000260: d44a 15be 9f86 debc c8bf 343e 0784 ecbd
00000270: 2663 d2bd 2e94 7dbd 6687 21bd 0ce9 943c
00000280: 2d09 2bbe 1e1a 29be bf46 07be 7b31 01bd
00000290: 4049 e63c cfd5 16be 9a8c 1fbe 0994 14be
000002a0: 9bcc 42bd 5e69 09bd e257 e7bd eba7 39be
000002b0: c2f1 12be e8f4 96bd c792 343c 5aec b23e
000002c0: 1b90 413e b609 2cbe b5b0 bfbe f666 9ebe
000002d0: 7c33 123e 3bd7 e3bd c5e3 b1be 8f47 72be
000002e0: 213d 43bd e5d3 63be 1367 7cbe bd31 6ebe
000002f0: 60a9 dfbd 5744 963d 5274 98be 098c 5dbe
00000300: eff2 4cbe f016 83bd 7315 dc3d a74e 7cbe
00000310: 1145 ebbd f564 c0bd ecfe 373e 248e 803e
00000320: 741b fdbd 7372 68be c4e0 8bbd 3e10 a1bd
00000330: 19f9 6bbd ce12 33bd 6339 a0be 3060 11be
00000340: c183 49be c19a 4a3d a1c0 28bd 2852 9dbe
00000350: 9148 39be 936d 82be fa0e aa3d 3b0d 92bc
00000360: 2398 70be 0821 50be 4033 9ebe 36e5 163c
00000370: 7697 29bd 9a94 9cbe e7c7 68be 5695 97be
00000380: 6788 25be 18d8 46be 2d82 04be 3ab1 b9bd
00000390: 0f19 acbd 0a40 14be d297 8cbc 8045 17be
000003a0: 83f2 f4bd e06f bcbd 82e1 f7bd 4a7b c93d
000003b0: eb97 c7bd 697e 27be d98f 49be dbdc 38be
000003c0: a34e 153e 7253 5cbb 5ec2 4cbe d78c 7cbe
000003d0: cb00 52be c695 203e 1ca5 2e3e f7c4 283d
000003e0: 54bc 2dbe cd55 12be 5169 2ebd 8319 a8bb
000003f0: 2c9f 02be f6a5 3bbe e842 acbe 9ae9 ca3d
0.40043548 0.3697489 0.12957726 -0.095652975 -0.07712111 0.055966765 -0.1346863 -0.09628839
-0.14838204 -0.15572323 -0.05896117 -0.1371227 -0.13448855 -0.093547314 -0.007378665 -0.0346867
-0.094261564 -0.11723348 0.102252506 0.22880763 0.00971473 0.0075490773 0.1882839 0.23354086
0.098320104 -0.037963454 -0.13896884 -0.06713352 0.27023786 0.49375007 -0.09802138 -0.226498
-0.13985784 0.18100062 0.34624228 -0.08386451 -0.25073624 -0.06492773 -0.057625815 0.030735595
-0.0136475125 -0.1693252 -0.00745302 -0.07432085 0.023098586 -0.11824297 -0.16163641 -0.13724485
-0.020800488 0.09705391 -0.011352944 -0.09233659 -0.07760308 0.10759369 0.32415098 -0.013225923
-0.104128964 -0.06822403 -0.08208283 0.10394194 -0.024311895 -0.054785125 -0.12219502 -0.114421375
-0.07792956 -0.0061889193 -0.12246928 -0.06857301 -0.062913254 -0.06789338 -0.021304516 -0.06289223
-0.089796 -0.012540125 0.09046882 0.04173452 -0.07460162 -0.019518973 -0.11278114 0.15861103
0.13524036 -0.03516617 0.030867757 -0.11138931 0.02745168 0.08453641 -0.20798679 -0.067134105
-0.09479945 0.014702928 -0.06028685 -0.35562566 -0.19456904 -0.24191423 0.013280715 0.034126505
-0.14127173 -0.19020396 -0.21127965 -0.10316963 -0.051097557 -0.07937901 -0.035967175 -0.043474082
0.20563488 -0.15394418 -0.16140985 -0.2094602 -0.19095282 -0.068628274 -0.08438705 -0.10045931
-0.13337949 -0.13676156 -0.012684006 -0.0031886643 -0.14192308 -0.13344002 -0.04977179 0.045470696
-0.10907539 -0.07202956 -0.14439783 -0.09601371 -0.032110367 0.07818591 -0.0009643364 -0.15645781
-0.30275562 -0.33560407 0.15943779 0.09595612 0.011516375 -0.048668385 -0.24698405 0.08970273
0.11293764 0.086645216 0.060358077 -0.14334053 -0.032194402 0.046389982 0.017851653 0.0029719097
-0.15764636 -0.087384865 -0.058650687 0.0020824724 0.0020958544 0.024446703 -0.09754125 -0.09145832
-0.14579326 -0.027163802 0.17651284 -0.1154862 -0.10272817 -0.061908893 -0.039435767 0.018177532
-0.16702719 -0.16513869 -0.13210581 -0.03154133 0.0281111 -0.14729999 -0.15580979 -0.14509596
-0.04755841 -0.03354775 -0.11296059 -0.18130462 -0.14350036 -0.07370931 0.011021323 0.34945947
0.18902628 -0.1680058 -0.37439504 -0.30937928 0.14277452 -0.11125036 -0.34744087 -0.2366011
-0.04766572 -0.222488 -0.24648695 -0.23261161 -0.109209776 0.073372535 -0.29776245 -0.2163545
-0.20014547 -0.06400859 0.107462786 -0.24639378 -0.11487783 -0.09394256 0.17968339 0.25108445
-0.12358752 -0.22699909 -0.0682998 -0.07864426 -0.057610605 -0.043719105 -0.31293783 -0.14196849
-0.19679166 0.04946399 -0.04119933 -0.30726743 -0.18094088 -0.25474223 0.08303638 -0.017828574
-0.23495536 -0.203251 -0.30898476 0.009209922 -0.04140421 -0.30582124 -0.22732507 -0.29606122
-0.16165315 -0.1941837 -0.12940283 -0.090670064 -0.08403217 -0.14477554 -0.017162237 -0.14772606
-0.11960318 -0.09201026 -0.12103559 0.09837969 -0.09745773 -0.16356815 -0.1968378 -0.18053
0.14580779 -0.0033619073 -0.1999602 -0.24663101 -0.20508115 0.15682134 0.17055172 0.041203465
-0.16966373 -0.14290543 -0.042580906 -0.0051299944 -0.12756032 -0.18325028 -0.33644795 0.09907837

bias f4 [64]
00000000: 5ff2 02bf 7c54 0fbf 3f27 343f cad7 c33d
00000010: 3b3f a9bd 97e1 ebbe f896 4abf 9cb1 923e
00000020: edef 10c0 57d3 05bf a2d3 7f3e 8c40 3fbd
00000030: f09c bdbe 6d52 2bbf 05d9 0dbf 6a8d b13e
00000040: 5db2 5d3f fda9 213e 01d9 e3be 8cb2 bd3d
00000050: a089 8c3e e710 67bf 68f6 fcbe cafc 4c3d
00000060: e4da bdbe 90fa 70be c143 5fbe 939c 9ebf
00000070: 3faf babd 5c33 22bd 9190 1e3f d1b0 d3bd
00000080: 3c8c cebe 8551 a5bd 63af 6fbe 30ff f1bd
00000090: acf4 52be f109 d63e 83dc 0abd 4e4e c8be
000000a0: bf45 cdbe d541 a6bf 0712 923f 3922 1cbf
000000b0: 5d83 05bf 95f3 b0bf ba1a 4e3e 7f3f 83bf
000000c0: 823c 103f e968 cebe 37bf 0fbf 8f43 33bb
000000d0: 88f6 c2be c685 2bbd f4c5 7bbf e8e0 cebe
000000e0: 14e7 bbbe bc08 aa3d 1132 193d c7bd 54bf
000000f0: b6d7 ccbe d8be 84be d68c 7f3f dcae 71bf
-0.5115108 -0.5598829 0.70372385 0.09562643 -0.082640134 -0.4607055 -0.7913661 0.2865113
-2.264644 -0.52275604 0.24983075 -0.046692416 -0.37033796 -0.66922647 -0.5540927 0.34678203
0.86600286 0.15787502 -0.44501498 0.09262571 0.2744875 -0.90260166 -0.49406743 0.050045766
-0.37081063 -0.23533082 -0.2180319 -1.2391533 -0.09115457 -0.03959976 0.6193934 -0.103364594
-0.40341365 -0.08072189 -0.23406748 -0.11816251 -0.20601147 0.4180446 -0.033901703 -0.39122242
-0.40092275 -1.298884 1.1411752 -0.6098972 -0.5215357 -1.3824335 0.20127383 -1.0253752
0.5634233 -0.40314415 -0.56151146 -0.00273535 -0.38078713 -0.041875623 -0.9834893 -0.40405965
-0.36699736 0.08302447 0.037401263 -0.8310208 -0.40008324 -0.25926852 0.99824274 -0.9440744

weight f4 [128, 64]
00000000: ae6d 3c3e 2796 5f3e c7f2 b53d 7af4 d8bd
00000010: 45a7 fabe e6ac af3e aacf 1abd 7d3b 1bbe
00000020: a5c3 963d a696 4a3e 1c43 783e bfe3 bbbe
00000030: 33d1 bdbe 1fa5 853d 072d 57be 3114 83be
00000040: 2378 7c3e 8ece a63d 4995 ad3d 7d2f ea3d
00000050: 5bf4 b33e defa a4be b44d 22be 30e0 d7bd
00000060: 170a 5f3d 442f aa3e 330c ff3d 85f4 6bbd
00000070: 41a6 a3bc e518 62be d9b8 273e c9e6 56bc
00000080: 1f42 96be bc9f 8d3d 8d50 e3bd 3724 913d
00000090: a316 6c3e 7758 6dbc e3d2 e23c d2e2 17be
000000a0: b97a bfbd ffc5 2ebf 999d a03c 7fcd 173e
000000b0: f1ba 93be c914 09bf a1d9 eebe 188e 5fbe
000000c0: 351e 163e 034e 08bc 2603 283e 1310 243e
000000d0: 36f0 8cbd b98a be3c c476 47be 23bb e23e
000000e0: 74b2 613e aa4e 8b3d 036b 833e 26c1 c0bd
000000f0: 29e7 d3bd 67d6 94bd ecca b33c a279 e8be
00000100: 1343 d5be b91e b7be 8c85 6dbe 77af a93d
00000110: 808f 483d 433b c3be baec 9abc e73c 863e
00000120: 3de1 b8be af09 8e3e ddfb 883e 8e1a bf3e
00000130: 88ed 4ebc dbae d7bd 5988 bdbe 380e d03d
00000140: 293d 8cbc 3238 a73e 64c4 b53d a12c b2be
00000150: 7dd3 43be 3d7a 26bd e237 d83d be0c 163e
00000160: 5496 2fbe b44f 363c 4e61 41be d319 5bbe
00000170: 3d88 cabd 8815 7f3e 7f8d f73c c662 2ebe
00000180: b3ef 09bd e98d b5be f2e2 80be 755a 183e
00000190: 4668 593e 2c0b 4bbe a376 893c 90d8 613e
000001a0: 9183 d2be 8a98 72bd 580b 88bd 301b aebe
000001b0: bf65 fd3d 00c2 b93e 9ce3 38be 8543 2b3e
000001c0: b2ae 083e 9c68 973e e162 b0bd 0f12 17be
000001d0: ca55 5fbe 8301 843d db51 30be d110 5bbc
000001e0: e61c 58bd 241f d63e 8761 5bbd a391 863d
000001f0: e664 6a3e 444a 3b3e 46da 373e 903e 2b3e
00000200: 3d3b ad3e 1abb de3d 2bfd b5bc 119a f2bd
00000210: 462f 41bf 5dd5 a8bc 485d 083c d62b c73e
00000220: bc26 5a3e be17 563d 9d5d 2fbd cc46 a5be
00000230: 4d42 1d3e aba9 803e f78e 753e 0b6f 893d
00000240: 9925 f8bd 1ffa cb3e 0a1a 113e 9564 40be
00000250: 5301 103f 68ef cd3b 7c16 b0be 32d7 2b3e
00000260: 2f17 8c3e 26e5 20be 2976 b83e 107c 243e
00000270: 18c5 4e3d 44db 81bd fd50 243d f2b8 16be
00000280: 87b0 ccbe fdfb debe 6634 22be 89f5 6b3e
00000290: fc6f 5b3b 3b28 a9be 4c77 bc3d 79f0 d73e
000002a0: d9aa cabd c108 f63b a3af e7bd 48cf 6dbc
000002b0: 649a bdbd ad4f 29bd 7465 24be 9af8 503e
000002c0: 4a09 ca3c d908 d03e 51ee 16be 82e0 8fbd
000002d0: c450 c23e 3dcf a6be 99a9 4d3f 9aa5 1ebe
000002e0: 4d49 d73c 6108 b13e 44d1 c8be 5bb3 693c
000002f0: f160 0f3e caa9 efbe 5272 4cbf b0c4 2e3d
00000300: 5d46 333e 49d4 b93e 7ca7 1fbe ee2d 1f3e
00000310: 382e d83e d0da 82bd b7e5 283e 9262 60bd
00000320: f24f afbe dc8e e3be 3334 2ebe 2a0b f1be
00000330: 0d1a 52be b058 743c 5de0 053d 40a0 613e
00000340: 46ec b3be 0350 69bd 274a 45be fadd 853e
00000350: 94db b73e bd43 06bf cc56 27be 3edb 8b3c
00000360: 424d 52be 675b 053f 99f9 17bd 8aab 053e
00000370: 1453 4c3e 4aec 31bf c7a1 d13e 7f9e 9bbe
00000380: 462e 0bbd bb53 9b3d 3d82 723e 5475 ce3d
00000390: 047c 3d3d 80b0 8f3d d7e1 7bbd 1693 063e
000003a0: 920b 053e 8322 37bf ea1c ff3d eda9 9abe
000003b0: d7f6 08bf 6a4c 88be b1a7 433a 7b87 883d
000003c0: 9d5e babd 756d c2be 2736 e03d 6d14 633e
000003d0: 9354 2e3d 61f8 c639 de20 fb3e eb6f 80be
000003e0: a235 98be 7cbd bebd cb09 9fbe 2196 1b3e
000003f0: e012 ebbd 1e8e 30be f8bc a53d 6b2b febd
0.18401214 0.21834622 0.08884197 -0.10593505 -0.48955742 0.343116 -0.0377957 -0.15159412
0.07361535 0.1978403 0.2424435 -0.36697194 -0.3707367 0.06525635 -0.2101327 -0.25601342
0.24655204 0.08144866 0.084757395 0.11434839 0.35147366 -0.32222646 -0.15849954 -0.10540807
0.05445298 0.33239186 0.12453499 -0.05760624 -0.019976737 -0.22079809 0.16379108 -0.013116547
-0.2934732 0.069152325 -0.11099348 0.070869856 0.2305551 -0.014486424 0.02768845 -0.14832619
-0.09349579 -0.6827087 0.019606398 0.14824484 -0.28853562 -0.5354734 -0.46650413 -0.21831548
0.1465996 -0.008319381 0.16407451 0.16021757 -0.06881754 0.023259507 -0.19478899 0.442834
0.2204073 0.06802113 0.2566758 -0.0941184 -0.10346825 -0.072674565 0.021947347 -0.45405298
-0.41652736 -0.35765627 -0.23195475 0.082854204 0.048964977 -0.3813115 -0.018911708 0.2621834
-0.36109343 0.27741763 0.26754656 0.37324947 -0.012629874 -0.10531398 -0.37018088 0.10158962
-0.017119007 0.3266006 0.08875349 -0.34799674 -0.19123645 -0.04064392 0.10557534 0.14653298
-0.1714719 0.011127401 -0.18884775 -0.2139657 -0.09889267 0.24910557 0.030218838 -0.17029867
-0.03367586 -0.3545983 -0.25173146 0.14878257 0.21231183 -0.1982848 0.016780203 0.22055268
-0.41116002 -0.059227504 -0.06642789 -0.34005117 0.12372922 0.36280823 -0.18055576 0.16724975
0.13347891 0.29571998 -0.0861261 -0.14752983 -0.2181007 0.06445601 -0.17218725 -0.013370709
-0.052761935 0.41820633 -0.053559806 0.06570747 0.22890052 0.18290049 0.17954358 0.16723084
0.33834258 0.108755305 -0.022215446 -0.11845792 -0.7546276 -0.020609552 0.008323021 0.38900632
0.21303838 0.052268736 -0.042813886 -0.32280576 0.15357323 0.25129446 0.23980318 0.06710633
-0.12116546 0.39839265 0.1417009 -0.18788369 0.5625202 0.006284643 -0.34392154 0.16781309
0.27361438 -0.15712413 0.3602765 0.16062951 0.050480932 -0.0634065 0.0401163 -0.14718989
-0.3997843 -0.43551627 -0.15840301 0.23042883 0.0033483496 -0.33038506 0.092024416 0.42175654
-0.09895868 0.0075083678 -0.11312797 -0.014514752 -0.09257963 -0.04133575 -0.16054326 0.20407334
0.024662632 0.4063175 -0.14739348 -0.07025243 0.37952244 -0.32579985 0.8033691 -0.1549286
0.02628007 0.34576705 -0.39222157 0.014263953 0.14001824 -0.46809226 -0.7986194 0.042668045
0.1750731 0.36294773 -0.15591234 0.15544865 0.42222762 -0.063893914 0.1649388 -0.054781504
-0.3424068 -0.4444493 -0.170121 -0.4707883 -0.2051775 0.014913723 0.032684673 0.22033787
-0.351412 -0.05696107 -0.19266568 0.26145917 0.35909712 -0.5244711 -0.16341704 0.017072316
-0.20537284 0.52092594 -0.03710327 0.13053718 0.19953567 -0.69501173 0.4094374 -0.3039436
-0.033979677 0.0758433 0.23682494 0.10080972 0.04626085 0.070160866 -0.061494675 0.13142046
0.12992695 -0.71537036 0.12456687 -0.30207768 -0.5350165 -0.266208 0.00074636476 0.06666466
-0.09100077 -0.37974134 0.10947829 0.2217576 0.042561125 0.0003795056 0.49048513 -0.25085387
-0.2972842 -0.09313485 -0.3106216 0.15193988 -0.114782095 -0.17241713 0.080926836 -0.12410625

bias f4 [128]
00000000: 3e52 dc3d e8dd fe3d c0b5 b1bf 80d6 533f
00000010: 7d4b 573f 6d66 d3bb 6d6f 1a3f 49d0 dcbd
00000020: d3ee 1b3f 54c3 8b3f 5c47 673f 5f72 c13e
00000030: 4446 3bbe a902 4ebf bb34 88be c6d8 2dbc
00000040: 803c dd3e dcc3 643e 99b1 503f 274e e83d
00000050: cb52 95bc bb63 90be b207 043f c662 38bf
00000060: 53d7 c33d 08c6 713f db73 f23d 785a 0c3f
00000070: b965 50bf e81d e33d e826 513f 283e adbe
00000080: d8c6 103f 63fa e7be 6454 2d3f 6a0a 25bf
00000090: 49c6 c83e 6c43 ab3c a8db 51be 790a 4a3e
000000a0: b0a3 a7bf 4ab2 9f3d 6f2e 39be be43 15be
000000b0: a643 09bf beb3 15be 7760 613e a6d3 023f
000000c0: c44d 42be 6fba 813e 8a50 9ebd e7b3 d83b
000000d0: af78 803f 9bcb 503f a745 23bf 0995 b53d
000000e0: d0c1 2dbf 86d2 5dbe aa1d 91be 943c ccbd
000000f0: e347 c4be 9565 debe 92c8 283f 1b2b 06be
00000100: 8fd3 063f dfe8 a33e 6d54 633f 4910 eb3e
00000110: e4ed 8fbf 6fe8 d3bd 885f b63e ccf3 323f
00000120: 9ba9 c93e 70d7 1e3e cdac 87be 07f2 61bf
00000130: b1ca bbbd 3c0c aabd b7a9 c6be ea69 e4be
00000140: c813 9dbe e8ba a53e be8c db3e 3486 19bf
00000150: d837 a0bd c95b 773f 7ff0 a53e c86b cabe
00000160: fd38 86bd 5dfc 47bd 929e 8f3d 1e8b 2cbf
00000170: af85 eb3d 4957 153b dcbd 8f3e 301a fa3d
00000180: 9079 ccbd bb3f 6d3f d506 f53d 7257 343f
00000190: 4f07 473f 47d5 563f 4ce3 933e 1d43 e03f
000001a0: 42e0 3dbc d9fb 47bf 5213 65be 732a d4bd
000001b0: 67d7 e03e ee91 65be 775a c7be 0e7a df3e
000001c0: a5c0 163f aa08 69bf ed9c 383f e69c 61be
000001d0: 6d47 a6bf efde d63e 2c3c 6a3f 5fc1 8abe
000001e0: ee51 01bd 3da0 283e dcad 473f 3dc9 bd3e
000001f0: ef06 873e 75ad fe3d 9234 523e c725 983e
0.10757874 0.12444669 -1.3883591 0.82749176 0.8409956 -0.006451419 0.6032627 -0.10781915
0.6091129 1.0918984 0.9034326 0.3778257 -0.18288523 -0.8047281 -0.2660273 -0.010610765
0.4321022 0.2234034 0.8152099 0.113430314 -0.018227955 -0.28201088 0.5157424 -0.72025716
0.09562554 0.94442797 0.11838504 0.54825544 -0.81405216 0.110896885 0.8169999 -0.33836484
0.5655341 -0.45308217 0.67706895 -0.64469016 0.3921378 0.020906173 -0.20493948 0.19730558
-1.3096828 0.07797678 -0.1808412 -0.14576623 -0.5361885 -0.14619347 0.22009455 0.511042
-0.18974978 0.2533755 -0.07730205 0.006613243 1.003683 0.8156068 -0.63778156 0.08866317
-0.6787386 -0.2166234 -0.28342944 -0.09972492 -0.38336095 -0.43436876 0.65931046 -0.13102381
0.5266656 0.32013604 0.888007 0.45910862 -1.1244473 -0.103470676 0.3561976 0.69903255
0.3938721 0.1551187 -0.26499024 -0.8825993 -0.0916952 -0.08303115 -0.38801357 -0.44612056
-0.30679154 0.3236916 0.42880815 -0.599704 -0.07823151 0.9662443 0.32410046 -0.39535356
-0.065538384 -0.048824657 0.07012667 -0.67399776 0.115001075 0.0022787622 0.2807454 0.12212026
-0.09984124 0.9267537 0.11964194 0.7044593 0.7774553 0.83919185 0.2888435 1.7520481
-0.011589112 -0.78118664 -0.22370651 -0.10359659 0.4391434 -0.22418949 -0.38936207 0.43647808
0.588877 -0.91028845 0.7211445 -0.22032508 -1.2990547 0.4196696 0.91498065 -0.27100655
-0.031572275 0.16467376 0.77999663 0.37067595 0.26372477 0.12435428 0.20527866 0.29716322

weight f4 [512, 128]
00000000: ae4d 9ebd a516 063e 29da 1dbe 4789 d6bd
00000010: 31c5 503d 8597 bbbd 3731 3dbd dfe4 303e
00000020: 6ce4 96bc a5ac 0a3e 7774 e8bd d4bb 27bd
00000030: 952b 41bb ce36 8e3d a9a6 ac3d ef7e 6bbd
00000040: b455 2ebd f02b 75bd 6150 ebbd 4585 f73b
00000050: 1c22 3f3d a449 99bd 7795 d8bd bdbe 8d3d
00000060: a2ed d9bd 5c4b 47bd 490c ecbc 8f79 7abd
00000070: 0e14 173d 7c15 c53c 6520 aebd 0658 2cbd
00000080: a103 883d 09c8 373e 3641 493d c657 f33c
00000090: 07af 0e3d 5b45 ecbc b4f3 5cbd 2e21 51bd
000000a0: 2c05 d63d e4e6 0d3b 6099 e33d 474c cbbd
000000b0: 6019 b83d b225 f3bc 2f6d c5bd 6135 e03c
000000c0: 81d3 e4bc d0cf 05bd 4dcf 2abd 510e cb3d
000000d0: c691 233d 985a 8fbd 1101 823d a2db ecbd
000000e0: f532 e3bc 6879 8b3d 976f 8ebd 7cb4 ce3d
000000f0: e6a7 9d3d da70 76bd b7d8 ee3b e43f dcbd
00000100: a28f 353c 62c3 19bd 43d1 acbc dc96 05bd
00000110: 14fe 98bd 7778 a1bd 0fcd 04be c121 c3bd
00000120: 8d7f a83c 3c54 e2bd 794d b1bc 3de5 73bd
00000130: b69b adbd f313 e3bd 8d80 dc3d 0c0d d1bc
00000140: 2223 c6bd 0ca9 213d 2bfc 7c3d 96f7 bbbd
00000150: 0d84 3abd 9e74 bdbd 7f1c 313d 1f2d 9ebd
00000160: d0a8 133e e557 ca3d 4e2c 76bc 03d5 3c3a
00000170: feba e3bc f03b 57bc d512 e63c 8448 e53c
00000180: a03f fb3b 7463 183e 7506 0abc 2907 863c
00000190: ff31 08be b4b4 913c bcf5 3c3d 612c 29be
000001a0: 7dcd 09bd 3551 ca3d fc1b 4cbd c358 23be
000001b0: 160a 69bd 360b ea3c 25da fbbd 85c6 293d
000001c0: 7d29 1b3b a250 013d b772 aa3d 49b2 0e3d
000001d0: 08d6 44be 5855 033d ffba 18be 0b43 733d
000001e0: de39 9abd 6b14 c1bd 4576 24bd 1c9d 653d
000001f0: b445 fd3c bfb0 86bd 2625 5e3d 7884 c83d
00000200: 9054 1f3c 2103 9c3d 41f5 d4bd f948 14be
00000210: 0cb7 f5bd 4fb1 14bd 7d0d e43c 8276 48bd
00000220: 943f 23bd 6718 19bd 335c 92bd 0e44 00be
00000230: 76e2 823b 2f63 9b3d acc5 413d 606e 06bd
00000240: a790 11be 5765 913c 43cf 6c3e a3fa 313d
00000250: 53c3 4fbb c76a 943c 571a 4a3e fe45 04bd
00000260: c6ec 483d 4d46 a0bd 9d41 04bd 12b0 163d
00000270: c64d 063e 4adc 42bd d045 14bd 4bd8 d4bd
00000280: ab19 07bd 63ad 02be 0cc1 bcbd 8811 08be
00000290: 6833 06be 3709 e03b 5af9 0cbe 2cb6 46bd
000002a0: 583e 3d3e 4173 27bd e68b 233d aaae b2bc
000002b0: 57fe 15bd 489b 6f3d d189 8abc 0ecf fabd
000002c0: 315e 5d3d b348 7fbd f6da b23d 5a1f 92bd
000002d0: 3434 46be 030c 44be 7b19 1e3d 9d1d e3bd
000002e0: c01c 3a3d b0b7 c13c 07ad 82bd b718 c03c
000002f0: f220 45bd bdf0 2dba e817 debc d75b a03d
00000300: 572b 6ebd 18e0 e4bc a95a 1ebc 4073 d03d
00000310: 20b5 113e e629 c03d 0974 febc 056d 0cbe
00000320: 79c9 6cbc 30f9 cd3c 7675 6e3c 42de 3fbe
00000330: 5648 203d 93b7 8e3d 99de 21be b5a9 3bbd
00000340: 9624 0cbd 381e aa3d a0d5 77bc 196e 4bbd
00000350: 57a8 8abe a719 aabb 401f 63bd f91b 423d
00000360: 6964 733c 776c 11bd b912 14be 4999 343d
00000370: db82 abbd 051d e9bd 8178 3dbd d5d1 8b3d
00000380: b6a4 323e 2102 46be c900 a43d a87d 5d3d
00000390: 665c 8abd 8fe8 123d 8102 f9bd 5887 bb3d
000003a0: 80e1 94bd 81b2 11be 0bc4 fb3d 9f2c 52be
000003b0: 0e96 ddbd 7e16 59be 56b1 0d3e 17b8 f33d
000003c0: 9c23 913d 0d28 cbbc 725c 97bd 19e1 82bc
000003d0: 007e bfba b524 863d ef9d d83d 2a8a a33d
000003e0: d5ad b3bd d8b3 8cbd 7783 37be 0398 2cbe
000003f0: cb93 39be 40a0 d63d f835 7bbd b5ff 07be
-0.0772966 0.13094576 -0.15415253 -0.10475402 0.050969306 -0.091597594 -0.046189513 0.17274807
-0.018419467 0.13542421 -0.11350339 -0.04095061 -0.002947544 0.06944047 0.084302254 -0.0574941
-0.0425622 -0.059856355 -0.114899404 0.0075537288 0.04666339 -0.07484749 -0.10575383 0.06921146
-0.10641028 -0.048655853 -0.028814452 -0.061151084 0.03688436 0.024058096 -0.085022725 -0.042076133
0.06641317 0.17947401 0.049134456 0.02970494 0.034834888 -0.028841665 -0.05394335 -0.051057033
0.10450205 0.0021652514 0.11113238 -0.09926658 0.08989215 -0.02968106 -0.09639966 0.027369203
-0.027932884 -0.03266889 -0.041701604 0.0991484 0.039933942 -0.06999701 0.0634786 -0.11565329
-0.02773426 0.06810266 -0.06954878 0.100930184 0.0769804 -0.060166217 0.007289018 -0.10754374
0.011081608 -0.037539847 -0.021095878 -0.032614574 -0.074703366 -0.07884305 -0.12968849 -0.095279224
0.020568633 -0.11051223 -0.021643387 -0.05954479 -0.08476965 -0.110877894 0.107667066 -0.025518917
-0.0967467 0.039467856 0.061763924 -0.09178083 -0.04553609 -0.092507586 0.043240067 -0.0772345
0.14419866 0.09880046 -0.0150252115 0.0007203372 -0.027799126 -0.013136849 0.028085152 0.02798868
0.007667497 0.14881688 -0.008424391 0.016360836 -0.13300322 0.017786361 0.046132788 -0.16520835
-0.033643235 0.0987877 -0.049831375 -0.15951829 -0.056894384 0.028569799 -0.12297467 0.04144909
0.0023675852 0.031571038 0.08322661 0.034837995 -0.19222271 0.032063812 -0.14915083 0.05939011
-0.075305685 -0.094277225 -0.040151853 0.056058034 0.030917026 -0.065766804 0.054234646 0.097908914
0.009724751 0.07617784 -0.10398341 -0.14480962 -0.11997804 -0.036301907 0.027838463 -0.048941143
-0.039855555 -0.037376788 -0.07146492 -0.12525961 0.0039942814 0.07587277 0.047307655 -0.032820106
-0.14215337 0.017748518 0.23125939 0.043451916 -0.0031702116 0.018117322 0.1973661 -0.032293312
0.04905393 -0.07825909 -0.032289136 0.036789007 0.13115606 -0.047573365 -0.03619939 -0.10392817
-0.032983463 -0.12761454 -0.09216508 -0.13287938 -0.13105547 0.006837036 -0.13766995 -0.048513576
0.18480814 -0.0408814 0.03992834 -0.021811802 -0.03661951 0.058497697 -0.01691142 -0.12246524
0.054044906 -0.06232519 0.0873317 -0.07134886 -0.19355851 -0.19145207 0.03859852 -0.11089633
0.045437574 0.02364716 -0.063806586 0.023449285 -0.048127122 -0.0006635299 -0.027111009 0.07830017
-0.0581468 -0.027938887 -0.00966517 0.10178232 0.1422925 0.093829915 -0.03106119 -0.13713463
-0.014452332 0.025143236 0.014554372 -0.18737128 0.039131485 0.06968608 -0.1580757 -0.045816142
-0.03421458 0.08306545 -0.015126616 -0.049665544 -0.27081558 -0.0051910463 -0.055449724 0.047389958
0.014855483 -0.03550383 -0.14460267 0.044091497 -0.08374568 -0.11382488 -0.0462575 0.06827132
0.17445645 -0.1933675 0.08007962 0.054074913 -0.06755905 0.035866316 -0.12158681 0.09156674
-0.07269573 -0.1422825 0.122932516 -0.20524834 -0.10819636 -0.21199986 0.1383718 0.11900347
0.0708687 -0.024799371 -0.073906794 -0.015976476 -0.0014609694 0.0654997 0.105769984 0.07985337
-0.0877339 -0.0687024 -0.17921244 -0.16854863 -0.18122785 0.10479784 -0.061330765 -0.13281138

bias f4 [512]
00000000: 13b7 033d 3a0c 803e e440 0ebd d859 b23d
00000010: d0b1 c13c 1002 b73e 9ad8 053f c9f2 8fbe
00000020: 3259 72bd 59a3 36be bdee 79be d163 023d
00000030: bb17 be3e 7231 d93e 51de f3bd 7399 3f3f
00000040: bb2b 4abd 12ad c1bd 8bb3 a43e 625b 3c3e
00000050: 1bd0 973c 449b 983e 14d8 493e 4ada 24ba
00000060: 8887 debd 2833 05be c0d7 933e 131f 9d3e
00000070: e748 c93d a74d 633c cfdd 493f cb0f 183e
00000080: 3f6c efbd 3bc7 eebd a5ba 4d3b 234d f53e
00000090: 9182 e43d 07c3 263e e858 22be bffa 1a3e
000000a0: 2621 e0bc 617f 39bd cb3a 47bd a55a bbbd
000000b0: 8005 47be 7113 333f a47d 81bb 8533 0d3e
000000c0: f067 afbc 8d80 923e 5808 ddbc fca4 603f
000000d0: 5ace 1fbe 1acc f73d d89e 9cbc dca1 d03e
000000e0: 3108 eebd e0af 2b3e a46c c0bd 8867 1c3e
000000f0: f888 843e 6cad e9bd 3b90 fbbd 62dc 093f
00000100: 61b0 1abe a15a 623e 0994 133e abf4 a0bd
00000110: 7078 023e d823 b0bd 7158 943d 53c9 f93e
00000120: 17be 5b3d 203a 1cbd dd69 55bd 74e9 793e
00000130: c7c3 9c3e 0a6a 1b3f e49c e33e f5a4 2a3d
00000140: 123c d53e 740c c63e 70d6 2cbe 0b5b 2d3b
00000150: 27b9 e03c fb77 9b3b 5654 083f c825 2a3e
00000160: 4e56 4cbd 417f 81bd ba26 003b 5c84 82bd
00000170: ac74 333f 2690 c93e 92a6 02be 19c8 e43e
00000180: ed4a 2b3d 94c3 ff3e c0d1 1abc 13cd 52be
00000190: 3fed 683d 9ff2 4dbc efdb 2fbd 699b 2cbd
000001a0: cef4 01be 7e17 203e 3558 b83e ca56 3e3d
000001b0: 2ad5 24bd 19bd 653d a5e7 ef3d 616a 393e
000001c0: 1410 e33e 9104 28bd eb74 1ebe 4dd5 b7bd
000001d0: b839 073f 556c 04be 7f22 123e bab5 fcbd
000001e0: 830a ac3e d893 5f3e 38ed 0c3e ccf2 ed3e
000001f0: 860d 2bbe 4ed3 5d3e 559c 173d aca7 25bd
00000200: 40e2 173b 4557 df3e 23fc 953e 531d 003f
00000210: 55f5 193e 6b31 88bd 4a15 a7bd e56d 053f
00000220: ea58 cdbd 7353 29be 01ba 15be 3b00 c3bd
00000230: 1b87 553e 0b5d b8bd 825b 353f 8df1 43be
00000240: b951 393e f9b2 ac3e 9305 7a3e 5325 e83e
00000250: c583 12be e30e 863e ecb2 633c 9853 17be
00000260: e727 ad3e 53c9 dfbc 84cb 40bd 4a64 f83e
00000270: a056 003e 90e6 d7bd 3857 d3bd 2901 e3bd
00000280: 9b44 b73b 4b25 9f3e 1681 18bd 3f58 02be
00000290: 0639 0bbd d882 e53e 2b8b 1abd 3125 22be
000002a0: 6a18 09be ce2b 86bc 6fb5 bc3e aa25 21bd
000002b0: a437 fa3d 43a3 fb3e 33fa c73e 7802 883c
000002c0: 93c2 0b3f 7115 943e 9389 4e3e ef12 19be
000002d0: c865 433e 9f7f f53d b233 073f 8a1f f33d
000002e0: 5a00 373e 54e7 88bd 01d6 863d a17b 15bd
000002f0: 444a 283d 5df7 033f 2659 953d 57a7 393e
00000300: cf15 513e 237a b8bc 1a8f ec3d 7bb2 ae3e
00000310: 30ed de3d 84e9 32be 26fa 5c3e a881 6bbe
00000320: 6784 763b 939b d43e 7635 eebd bc81 02be
00000330: 103e 293f cc2e be3e 7755 693e a0d9 53be
00000340: f671 2ebc 4323 d73d 6462 c13e 2d2c cd3e
00000350: cac8 d0bd d9ca 38be 2b9d d5bd 1796 f7bd
00000360: 70f0 9bbc 8ba2 19be e88f e33d 0b0f a63e
00000370: 7eac 07bd 269a 093d fc2e 5fbc 1626 923e
00000380: d2c1 0cbe c402 1dbe 392d db3d 1bf3 4e3e
00000390: 89f2 923a 1bb9 82bd 881f e2bd 071c 97bc
000003a0: 6b19 d1bd 46e8 ab3e bf84 2f3d eb1c 143e
000003b0: bdb2 ebbd c4b5 5b3c 6164 03be b330 373c
000003c0: 80ac 00be 0faa 9abd 7008 ff3e f30d bf3d
000003d0: 8f10 3abe b608 433e f944 d0bc 9384 1c3f
000003e0: 979f 3ebe 9b9a 87bd 613a 7c3d 809e 7e3e
000003f0: 0a46 7f3e c8ef bfbd c7e7 4c3e 0d3b 033d
0.032157015 0.25009328 -0.034729853 0.087085426 0.023644358 0.3574376 0.5228363 -0.28114918
-0.059167095 -0.1783575 -0.24407478 0.031833474 0.3712748 0.42420536 -0.11907638 0.7484352
-0.04935811 -0.09456839 0.3216823 0.18394235 0.01853185 0.29805958 0.19711334 -0.0006288631
-0.10865694 -0.13007796 0.28875542 0.3068777 0.09828358 0.013873494 0.7885408 0.14849775
-0.11690568 -0.11659094 0.0031391766 0.47910413 0.11157716 0.16285335 -0.15854228 0.15134715
-0.027359556 -0.045287494 -0.048640054 -0.091481484 -0.19435692 0.6995154 -0.003951745 0.13789184
-0.021411866 0.286137 -0.026981518 0.87751746 -0.1560606 0.12099476 -0.019118711 0.4074849
-0.11622656 0.1676631 -0.093957216 0.15273869 0.2588575 -0.11410031 -0.12283369 0.538519
-0.15106346 0.22104885 0.1441194 -0.07859167 0.12741256 -0.08600587 0.07243431 0.4878641
0.05364808 -0.03814137 -0.052102912 0.24405462 0.30618116 0.6070868 0.44455636 0.04166122
0.41647393 0.38681376 -0.16878676 0.002645197 0.027432038 0.0047445274 0.53253686 0.16615975
-0.049886994 -0.063231 0.0019554333 -0.06372902 0.700999 0.3936779 -0.12758854 0.44683912
0.0418195 0.49953902 -0.009449422 -0.20586042 0.05686688 -0.012570052 -0.042934354 -0.0421404
-0.12691042 0.15633962 0.36004797 0.046469487 -0.04024235 0.05608854 0.117141046 0.18106987
0.44348204 -0.04101998 -0.15474288 -0.08976231 0.52822447 -0.1293195 0.14270972 -0.12339349
0.3360177 0.21833742 0.13762367 0.46474302 -0.16704378 0.21662638 0.037014324 -0.040443107
0.0023175627 0.4362127 0.29293928 0.50044745 0.15034993 -0.06650051 -0.081583574 0.5212081
-0.10026725 -0.1653574 -0.14621736 -0.09521528 0.2085232 -0.090021215 0.70842755 -0.19135113
0.18097581 0.33730295 0.24416189 0.45340976 -0.14308079 0.26183233 0.013897639 -0.14777982
0.33819506 -0.027317679 -0.047069088 0.48514014 0.12533045 -0.10542023 -0.1031937 -0.11084206
0.005592895 0.3108314 -0.03723248 -0.12728976 -0.03398993 0.44826388 -0.037730377 -0.158345
-0.1338822 -0.01637831 0.36857173 -0.03934256 0.12217644 0.49147996 0.39058074 0.01660274
0.5459377 0.28922608 0.20169668 -0.14948629 0.19081795 0.119872324 0.52813256 0.1187125
0.17871228 -0.06684747 0.06583787 -0.036494855 0.04108645 0.5154932 0.07292394 0.18130241
0.20418476 -0.022519177 0.11550732 0.34120545 0.10885084 -0.17471892 0.21579799 -0.22998679
0.003761554 0.41524944 -0.116312906 -0.12744802 0.66110325 0.37145078 0.22786509 -0.20688486
-0.010647288 0.105047725 0.3777038 0.40072766 -0.101945475 -0.1804613 -0.10430368 -0.12089174
-0.019035548 -0.15003411 0.11111432 0.32433352 -0.033123486 0.033594273 -0.013622042 0.28544682
-0.13745812 -0.15333086 0.10701985 0.20209925 0.0011211197 -0.06382962 -0.1104117 -0.018445982
-0.10209926 0.33575648 0.042851206 0.14464156 -0.11508701 0.0134100355 -0.1283126 0.011181044
-0.12565804 -0.07551967 0.49811125 0.093288325 -0.18170379 0.19046292 -0.025423514 0.6113979
-0.18615566 -0.066212855 0.061579112 0.2486515 0.24929062 -0.093719065 0.20010291 0.032038737

weight f4 [100, 512]
00000000: 6e1a 89bd 65da cb3d b4c5 24bd f310 aebd
00000010: 7747 c53d e81a 90bd 58b6 d83b 7ebb da3d
00000020: a376 5c3e 1219 bf3c e51c bf3b d535 30bd
00000030: b772 df3d 64de c4bd cf12 ce3a dcf8 563d
00000040: 1cfc f93d cd71 23bd 8679 4e3a 8488 363d
00000050: 46e9 8a3d 4106 47bc d06b 893d 5906 e03d
00000060: 378a 59bd 3763 ba3b f2c9 9fbd 1328 b53c
00000070: 2bc5 a4bc 308f a73b 839e 8cbd 8136 333b
00000080: 11b4 15bd 069a 673c d61f 023d 58e7 bcbd
00000090: c14d ed3b fc31 9abc 38e3 29bc f19e 113d
000000a0: d3fa b53c 4feb d53d e1d5 213c c0c2 b13d
000000b0: 88fa abbc c8e9 b0bd f892 16bd 8601 98bc
000000c0: f063 853d 1004 253d 40a9 663d e72d bd3c
000000d0: b041 993b 3174 7b3c c67d 43ba 241d f9bd
000000e0: d93e 7f3b 2a71 b63c 286a d8bc ec54 543d
000000f0: 0855 fc3c cccf faba 3d73 d23b e534 b9bd
00000100: 0c25 893d 4821 92bd 982a c9bc b32f 6fbd
00000110: 86c7 d23d 6a2a 603d ebca eb3c ee3e 423e
00000120: fd4c 233d 1e2a 50bc 5a43 5bbd 556f 913d
00000130: 7d96 fe3d 52a7 15bd ecfe bbbc 4374 9dbb
00000140: d057 3d3e d856 183d 4f4b 3dbd dc1e 153e
00000150: 0731 043d e993 613e d528 423e e507 9f3c
00000160: 9749 733c 9caf ed3d ed40 8f3c 35c6 04bd
00000170: fe18 c53e b0ba fa3c 8a60 b8bb c8f7 a1bd
00000180: 66b5 22bd b8fc 1cbb db4f b43e 6738 27bc
00000190: e92c 203e 97da ca3c 88d6 17bc 574d a2bc
000001a0: 3139 833d f35e 6bbc 65e5 883d 8f53 91bd
000001b0: 323a ca3c 4938 d23d 3b91 4d3e 2441 153c
000001c0: f302 7ebd 798e fb3d eda6 b03c 5884 3a3d
000001d0: cc75 d93d af37 4dbc 4e87 51bc a7ef 6f3d
000001e0: c8ac 233e d6de 103c a5d2 8fbc bfe6 80bd
000001f0: 8875 e23c 201a 913d e121 fe3c 3d02 74bc
00000200: 179a ae3d bbe6 cfbb 8250 91bd 18d5 bd3d
00000210: 80a5 99bd bb2c 38bd e69e cabc 97dd 16bd
00000220: 9754 9f3c 18c7 793d f81e ad3c 0b43 273d
00000230: 5886 0b3c f57d 0bbd e467 3dbc cd39 103c
00000240: 1ddf c4bd 5311 acbd d652 8a3d ec3b 2d3d
00000250: 1b9d fc3d 42d1 213b 5865 9c3d c21c c63c
00000260: e114 143d 1a40 373e f041 dabb 4656 423c
00000270: e7a8 bcbd 91a1 f63c 2f1f 073d 87d8 943c
00000280: bb3e 8cbd 1757 38bd 9920 7f3c c683 ab3d
00000290: f50b 133d 6702 d0bd 6997 2b3c 626e 683c
000002a0: fe1b 01bd 0750 6e3d ffee d0bc cc4e 8f3d
000002b0: 7d86 6b3d 3ec3 023e ad45 cfba 942f f03c
000002c0: 0c81 e9bb 497d d3bb ace2 37bd b903 963d
000002d0: d52a 81bc 619e 063d e1c7 383e 3c11 4f3b
000002e0: 5f37 08bd 05c5 9dbd 0ea1 1b3e d31b e6bc
000002f0: 74a1 bfbc 08a6 b23b a5e7 2dbd 4b2a 0b3c
00000300: 6d6d f53d 14a8 abbd 12cf e7bc d7d5 87bb
00000310: cea5 ae3e cbe1 88bd 7885 7fbd d4e5 17bc
00000320: 42bd 863d 1613 81bd c1f2 04bc ac91 96bc
00000330: 4c9e d8bd 1967 1a3d d345 33bd 7fa4 0abd
00000340: ac4e 1c3d 9684 4b3d 8abb 8d3a 0e8d 36bd
00000350: 5c87 2e3d b413 20bd d1b8 393d 04a0 3d3e
00000360: c90e a8bb 7d7c 88bd c941 d6bc b835 1fbb
00000370: 8d78 a4bc 9d5e 62bd d90e 403d 1c44 1cbc
00000380: 56cd bf3d c420 89bd 8dbf 7bbc b608 23bd
00000390: d2a6 b5bc 8da7 023c efbd a5bb a0e9 a43d
000003a0: 399a b43c 48ed 033d f53b 1dbd adc8 f33d
000003b0: 476e 03bd 74f7 a7bc 8b7b ea3d 2ea5 fb3b
000003c0: b903 103f c80d a3bb 01db 8f3e 7530 1abd
000003d0: 316d 05bd c811 f83c 1ac2 703d 0992 d23c
000003e0: 3a31 0e3e a694 02bd 9007 4f3e fc01 ffbb
000003f0: 4607 d53d e63e fa3b 57af 51bd aa08 e6bb
-0.06694494 0.09953765 -0.040227607 -0.084993266 0.096327715 -0.07036382 0.006613534 0.106802925
0.21529631 0.023327384 0.005832302 -0.04302009 0.10910552 -0.0961273 0.0015722158 0.052483425
0.12206289 -0.03990345 0.0007876385 0.044563785 0.067827746 -0.012147487 0.06710017 0.10938711
-0.053110328 0.005688097 -0.0780219 0.022113835 -0.020113548 0.005113505 -0.06866171 0.002734572
-0.036548678 0.014135843 0.031768642 -0.09223813 0.007241935 -0.018822663 -0.010369115 0.03555197
0.022214329 0.10445272 0.009877653 0.08679724 -0.020993486 -0.0863834 -0.036761254 -0.018555414
0.06513202 0.040287077 0.056313753 0.023093177 0.00467702 0.015347526 -0.00074574014 -0.12163761
0.0038947372 0.022270758 -0.026417807 0.0518388 0.030802265 -0.0019135415 0.006422429 -0.09043292
0.06696519 -0.07135254 -0.024556443 -0.0583951 0.10291962 0.05472795 0.028783282 0.18969318
0.039868344 -0.012705354 -0.05353103 0.07101313 0.12431047 -0.036536522 -0.022948705 -0.0048051192
0.18490529 0.037192196 -0.046214398 0.14562553 0.03227332 0.2202908 0.18960889 0.019412944
0.014849088 0.116057605 0.017487014 -0.032415587 0.3849563 0.030606598 -0.0056267427 -0.07908589
-0.039723776 -0.0023954343 0.35217175 -0.010206318 0.15642132 0.024762435 -0.009267457 -0.01981227
0.06407393 -0.014365899 0.066843785 -0.07096016 0.024685953 0.10264642 0.20074932 0.009109769
-0.06201453 0.12283034 0.021563971 0.04553637 0.10618171 -0.012525483 -0.012788607 0.05857816
0.1598388 0.008842191 -0.017556498 -0.06294011 0.027643934 0.07085061 0.031022014 -0.014893112
0.08525484 -0.006344644 -0.07095434 0.0926916 -0.0750227 -0.044964533 -0.024733972 -0.03683242
0.019449515 0.060980886 0.021132931 0.04083542 0.008515917 -0.03405567 -0.011560414 0.008802843
-0.09612868 -0.08401742 0.06754081 0.042293474 0.12334653 0.0024691378 0.07636517 0.024183635
0.036152724 0.17895547 -0.0066606924 0.0118613895 -0.09211903 0.030106338 0.032988723 0.018169655
-0.068479024 -0.04500493 0.015571737 0.08374743 0.035900075 -0.10156708 0.010473111 0.014186474
-0.031520836 0.05818179 -0.025504587 0.06997451 0.057501305 0.12769791 -0.0015813612 0.029319562
-0.0071259793 -0.006454144 -0.044893906 0.07324929 -0.015767494 0.032865886 0.18044998 0.0031595966
-0.03325593 -0.07703594 0.15198156 -0.02808944 -0.023392417 0.0054519214 -0.04245724 0.00849397
0.11983762 -0.08381668 -0.028296981 -0.0041453647 0.34110874 -0.066836916 -0.062383145 -0.009271104
0.06579067 -0.063024685 -0.008114518 -0.018380009 -0.10577068 0.037695978 -0.04376776 -0.033848282
0.038160965 0.04968699 0.0010813337 -0.044568114 0.042609558 -0.03908129 0.04534227 0.18518072
-0.0051287157 -0.06664369 -0.026154416 -0.0024293493 -0.020077014 -0.05526601 0.04688916 -0.009537723
0.093653366 -0.06695703 -0.0153654935 -0.03980323 -0.022174273 0.0079745175 -0.0050580422 0.08052373
0.022046195 0.03220871 -0.038387258 0.1190351 -0.03208759 -0.020503737 0.11449345 0.007679603
0.5625568 -0.004976008 0.28096774 -0.03764387 -0.032574836 0.030281916 0.05877886 0.0257044
0.13885966 -0.031880043 0.20217729 -0.007782219 0.10401778 0.0076368926 -0.051192608 -0.007020076

bias f4 [100]
00000000: 220b 573c 70dc 2ebe 378b 57be fb6b 6bbe
00000010: 8fb4 73be 89b7 9d3c b5dc 88be 050f 953c
00000020: 8dae 3fbe 7765 47be 114a 0c3f 9403 83be
00000030: a4ac 81be 7f06 6fbe c919 86be cccb a03e
00000040: 1ba2 d53a bef0 59be 0b84 54be f853 993c
00000050: bf8d 323f f373 1b3f d2f8 60be fc0b 543d
00000060: 0990 0dbe 4743 6d3f c402 3abe 064e 73be
00000070: d579 42be 5874 3fbe 9978 6fbe 9de2 82be
00000080: df2d 4abe 032d 6ebe 9a31 47be a492 7cbe
00000090: ec35 63be 73ef 69be 00b5 143f 500c 98be
000000a0: 8581 e3bd 60f6 46be ca25 143e f04b 7bbe
000000b0: 9a34 ae3c 0e76 063d bc69 9dbd 5209 ba3d
000000c0: 6a2f b83e 7462 f73c 22c0 5ebe e342 6ebe
000000d0: c01c 883e c923 85be d531 84be 90c4 75be
000000e0: af33 57be 95cc 2fbd 2892 873d adeb 84be
000000f0: 4123 7fbe 8af6 49be d87b 97bd f763 83be
00000100: eb76 a13c f66a 4b3f 29eb 363e a92b 64be
00000110: 04ef 4ebe c3a5 56be a279 1abd f914 f73d
00000120: 6685 863f 4b82 313e ae48 58be 90cd babe
00000130: c5da 80be 9065 773e a556 4d3d c752 2f3f
00000140: 0b4d 46be f8b1 bd3d 7724 1fbe 508c 3ebe
00000150: 48cb 75be 2e1f 8e3f 8873 73be 35dc 4abe
00000160: ea3a 893f 2918 38be cc0d 873d 72b5 283e
00000170: 09ec 843d f57a 983e dfe2 1d3f c48b 42be
00000180: 5238 5ebe be4e 64be f857 c03f 086c 5dbe
0.013125213 -0.17076278 -0.210492 -0.2299041 -0.23799346 0.019252555 -0.26730886 0.018195638
-0.1871893 -0.194723 0.54800516 -0.25588667 -0.25327027 -0.23342322 -0.26191548 0.31405485
0.0016298922 -0.21283242 -0.20753495 0.018716797 0.6974754 0.607238 -0.21969917 0.05176924
-0.13824476 0.9268078 -0.18165118 -0.23760232 -0.18991788 -0.18696725 -0.23385848 -0.25563517
-0.19744061 -0.23259358 -0.19452515 -0.24665314 -0.22188538 -0.22845249 0.58088684 -0.29696894
-0.11108688 -0.19429922 0.1446754 -0.24540687 0.021265317 0.03282743 -0.07686183 0.09083809
0.35973674 0.030198313 -0.2175298 -0.23267703 0.26584435 -0.26003864 -0.2581927 -0.24000764
-0.2101581 -0.042919714 0.06619674 -0.25961056 -0.24915792 -0.19722953 -0.07396668 -0.25662205
0.019710025 0.79460084 0.17863144 -0.2228228 -0.20208365 -0.2096167 -0.037713654 0.12064547
1.050946 0.17334859 -0.21121475 -0.36484957 -0.25166908 0.24159837 0.05013146 0.68485683
-0.19365327 0.092624605 -0.15541254 -0.18608212 -0.24003327 1.1103265 -0.2377454 -0.19810565
1.0721104 -0.17977966 0.065944284 0.16475466 0.06490333 0.2978131 0.616743 -0.18998629
-0.21701172 -0.22295663 1.5026846 -0.21623242
