system/models/FashionMNIST/CNN/FedPer_BaseHeadSplit_FashionMNIST_client_6.pt (torch, 760036 bytes, 8 tensors)

weight f4 [32, 1, 5, 5]
00000000: 2709 963c 3bdf fb3c a5b0 89be 5f83 b5be
00000010: 8940 40be e279 133e a5f3 59bb 3623 e13d
00000020: 1089 4dbe f134 8bbd 9db6 943d 319f 2d3d
00000030: bfb2 0cbe c3a4 58be 1fbe 11be d135 153e
00000040: 0e00 373e 1358 343e 566b 1fbe a67a dabd
00000050: da66 583e bdd0 9a3e f186 683d d2c3 033e
00000060: 8356 e0bc 1e13 a33d aed1 fd3d 8f24 82be
00000070: 98a7 54be ccae 07be db2e 54bc ff43 043e
00000080: 1faa 39be 2624 3ebe 0223 55be d75b 0ebe
00000090: 048f 0ebe e3e4 043e bd10 8eb8 c2f7 b43c
000000a0: 8691 563d 01ce dcbd 9f66 613c 0476 5abe
000000b0: 8a1c 3bbe 114d 80bd 96ee b53d f295 ba3d
000000c0: 989b c5bd 9702 7abd 0cfe 313e f38c 733e
000000d0: 7020 a03d a84e 70bb abf4 6d3d b994 e4bd
000000e0: 04d4 1a3d fd01 54be 1923 4ebe 5bf7 43be
000000f0: 0e3b e43d b6dd 973d dbbb 39be 60f5 38ba
00000100: 5257 903c 2797 a6bb 75c2 44bb 8717 733d
00000110: 3732 053e 11ae 303e d2fd 34be 35bc f4bd
00000120: ac6c 003e 741f 483e d60e 303e c372 853e
00000130: 9dbc ce3d c1c6 26be dcac 3dbd 00a6 90be
00000140: 605a 93bd 6db8 953e e7bb 6a3e abcb 71be
00000150: 881d 42be 2e9c 5f3c 2057 a43d 38a1 e03c
00000160: 0135 483d a203 abbe 6a59 a43d f1c3 423e
00000170: 7f29 523e 31b4 563d e953 d5be 5c19 fcbd
00000180: 65e1 473e 2809 153e 8912 02be 3282 a3be
00000190: 7b4e 413e dc30 a13d 6da8 43be 2e0e 29be
000001a0: 838c 37be 4ece 14bb 1473 4fbe df76 81be
000001b0: e955 93bd c9a2 d73d a001 c2bd c05c 0b3d
000001c0: d14b 38be 95f2 3e3e 0c51 703e 397a 26be
000001d0: 82fb b9bd 6f7c c93b 72c4 9b3d 017a 093e
000001e0: dd4e b33d fe8e 80bc 3530 bcbd 885d 003e
000001f0: c217 0dbe 2776 45be fa55 2bbe 4504 82be
00000200: 8a22 98be 44b9 86be 2de0 36bd 83ca dcbc
00000210: 45a7 72be 348a 33be 5092 bb3d 6695 993d
00000220: 79bc b93d ca4a b13d 31de 053d 650b fc3d
00000230: 2f4f 8d3e 2536 7b3e 875f 8c3e ce4f d2bc
00000240: e3a9 17be 0c37 063c c4b6 853e 1ec7 a03d
00000250: 50bb c1bd f036 f8bd 0b4b 73be edee a8be
00000260: 6bf9 50be 9c18 88bd a2f1 c2bb 6ae7 6cbe
00000270: 7803 05be 9120 bebe 8306 5fbe 5f5d 11be
00000280: 9942 83bc 7c1f 05be e44c 90be eb4b 6cbe
00000290: d477 b8bd 2fbd a53d 6f35 4dbd 28af 063c
000002a0: d4cb 3bbe 35a1 7cbc a862 583e 295a c23b
000002b0: 06d2 e83d b23e 813d 7998 dabd ac27 493e
000002c0: 8d78 9e3d c292 9e3d 3629 b53e 5855 42bd
000002d0: 6405 023e 7ee2 dd3d 7925 b93e af6f 9b3e
000002e0: 6abb 6c3e cc2c 8c3d 8eb3 f33b 6b35 d8ba
000002f0: 0b7c f0bd 76a2 9b3d e45c 193d a76a 053b
00000300: ab9e 92be bf0c 22be dc5f 9ebe 75af 7cbe
00000310: 7644 91be c662 ffbd 8241 a9be 021c 53be
00000320: 6c20 c33d 78a6 0b3e cc55 0abe c407 73be
00000330: 7323 91be 55ec 7b3e 4a3f aa3b b716 763e
00000340: a15d 5c3c 5c35 2abe b3df 843d f99b d43c
00000350: a651 d03d 85f7 5abd 5879 3abe bd93 993d
00000360: 802f 7abd 4155 993b cf80 363e be9a abbe
00000370: 0b9c b03c ff08 923e 128d 263e 4ef2 303d
00000380: 72a0 b2be 27f2 223e a8c0 c6bc 090b 53be
00000390: f69a 6ebd 821e a1bb 5fd9 db3d edf9 9c3e
000003a0: bae0 2bbe 34b1 3d3e a391 293e e214 8fbd
000003b0: 6589 7f3e bf70 c2be 52c6 70bd 25eb ba3d
000003c0: e7d3 3d3d 4973 963e 6c09 b1be 9fc5 54bd
000003d0: 30d5 013e 3451 4fbe ae22 873e d119 debe
000003e0: 4e6e bdbd 3eca 6cbc 2d6d 73be 1381 3ebd
000003f0: 9c3f 953e 55bf 863c 311c d7bd e8c2 63be
0.018314911 0.030746093 -0.26892582 -0.3545179 -0.18774618 0.14401963 -0.0033256796 0.10993044
-0.20071816 -0.06797207 0.07261393 0.042388145 -0.13740061 -0.21156602 -0.14232682 0.1457131
0.17871115 0.17611723 -0.15568289 -0.106679246 0.21132985 0.3023738 0.056769315 0.12867668
-0.027385002 0.07962631 0.12393509 -0.25418517 -0.20767057 -0.13250273 -0.012950624 0.12916563
-0.18131302 -0.18568477 -0.20814136 -0.13902222 -0.13921744 0.12977938 -6.7742054e-05 0.022090796
0.052384876 -0.107814796 0.013757377 -0.21334082 -0.18272606 -0.06264699 0.08883397 0.09110631
-0.09648818 -0.061037626 0.17382067 0.23784237 0.07818687 -0.0036667977 0.05809466 -0.11161179
0.03779985 -0.20703883 -0.20130576 -0.19137327 0.11144076 0.07415335 -0.18138067 -0.00070556067
0.017619763 -0.0050839367 -0.0030023132 0.05934861 0.13007437 0.17253901 -0.1767495 -0.1194996
0.12541455 0.19543248 0.1719316 0.2606412 0.10094569 -0.16286756 -0.04630743 -0.28251648
-0.07194972 0.29242268 0.22923242 -0.2361285 -0.18956578 0.013648076 0.0802443 0.027420625
0.048878673 -0.3340121 0.08024867 0.19020058 0.20523642 0.052417938 -0.4166558 -0.123095244
0.19519575 0.14554274 -0.12702383 -0.3193527 0.18877594 0.07870647 -0.19107218 -0.16509315
-0.17924695 -0.0022705975 -0.20258743 -0.25286004 -0.071941204 0.10529096 -0.09472966 0.034024
-0.17997672 0.18647225 0.23468417 -0.16257562 -0.090811744 0.006148867 0.07605828 0.13425447
0.08755276 -0.015693184 -0.09188882 0.1253568 -0.13778594 -0.19283353 -0.16732016 -0.25393882
-0.2971385 -0.2631322 -0.044647384 -0.026952034 -0.23696621 -0.17533189 0.09158766 0.074991986
0.090691514 0.08656843 0.0326826 0.12306861 0.27599475 0.24532373 0.27416632 -0.02567282
-0.148109 0.008191835 0.26116002 0.078504786 -0.09459555 -0.121198535 -0.23759095 -0.32994786
-0.20407645 -0.06645319 -0.005949215 -0.23135152 -0.12989604 -0.3713422 -0.21779828 -0.14195774
-0.016022967 -0.13000292 -0.28183663 -0.23075835 -0.090072304 0.080927245 -0.050099786 0.008220471
-0.18339473 -0.015419294 0.21131384 0.005931158 0.11368184 0.06310786 -0.10673613 0.1964404
0.07737837 0.077428356 0.35383004 -0.04744467 0.12697369 0.108342156 0.36161402 0.30358645
0.23118368 0.06844482 0.007437176 -0.0016495412 -0.11742409 0.07599346 0.037442103 0.002035776
-0.2863668 -0.15825175 -0.3093251 -0.24676307 -0.28372544 -0.124700114 -0.3305779 -0.20616153
0.09527668 0.13637722 -0.13509291 -0.23733431 -0.28347358 0.24601872 0.005195533 0.24032103
0.013450057 -0.16621917 0.0648798 0.02595328 0.10171823 -0.05345871 -0.18210351 0.07498882
-0.061080456 0.0046793525 0.17822574 -0.33516496 0.021558782 0.28522488 0.16264752 0.04319983
-0.34888035 0.15912686 -0.024261788 -0.20609678 -0.05825325 -0.004916967 0.107348196 0.30659428
-0.16784945 0.18524629 0.16559462 -0.06986405 0.24954756 -0.37976643 -0.058782883 0.091268815
0.046344664 0.2938483 -0.345775 -0.05194628 0.12678981 -0.2024582 0.26393646 -0.4337907
-0.092495546 -0.014452515 -0.23772116 -0.046509814 0.29150093 0.016448656 -0.10503424 -0.2224232

bias f4 [32]
00000000: 39aa d63b d59a e4be c03d a03e 05cd 7ebe
00000010: f882 42be e730 233e 1be6 efbe 1122 b6bd
00000020: e08c 6ebd e679 9ebc 02e2 87be 3a6f 1bbd
00000030: 41e7 23bd 5e71 47be 5c86 27be fd3d 363e
00000040: bdd3 a5bd 9786 58be f43d 8fbd 236d 1e3c
00000050: 5d00 983e 4a6e bbbe 6ed1 053e 6e4e 5dbd
00000060: c789 f1bc eef8 65be 2ccf 04bd 2f4d bfbc
00000070: fe40 11bd 2fa6 63bd 319b ad3d ed5d 9abe
0.006551054 -0.44649377 0.31297112 -0.24882896 -0.18995273 0.15936624 -0.46855244 -0.088932164
-0.058239818 -0.019345235 -0.26539618 -0.03794787 -0.040015463 -0.1947684 -0.16359848 0.17797084
-0.080970265 -0.21145092 -0.069942385 0.009669575 0.29687777 -0.3660758 0.13068172 -0.054029875
-0.029484643 -0.2245824 -0.032424137 -0.023352234 -0.035462372 -0.055578407 0.08476866 -0.30149785

weight f4 [64, 32, 5, 5]
00000000: c193 9aba 585e 13bd 83f0 13bd fc66 fb3c
00000010: 9448 c93c a870 1cbc ac0a d6bc 8164 cb3b
00000020: 4aa4 473a c4c0 123d 59b6 a33b 54c4 c13a
00000030: abd6 6d3c f045 533b aa61 ff3c 8d04 073d
00000040: 88df 2339 84b1 2f3c 6fec a53c 83a5 3e3d
00000050: 6997 6ebc 2f14 e3bc 31db 343b 6470 cfbc
00000060: 0954 083b b3df 81bc 625b 6f3b c5c2 38bd
00000070: 4ebf a83c 3295 753d 27e4 913b bf7f 96bc
00000080: de30 c83c 5461 a9bc 42c9 a93c a365 a3bc
00000090: 2358 9bbc 9fa3 00bb e128 e63a 1a69 3c3c
000000a0: 28ab 1abd 77ee e4bb 048d 2cbc 38d5 d53a
000000b0: ffad 023d 9d2f 123d 121c cbbc 9f40 43bc
000000c0: 85ee 3dbc 1fef fbbc 3817 d1bc 0b8f 283d
000000d0: d5f1 823c 1537 c53c c137 763c 84cc 0cbd
000000e0: e68b 563c b372 043d 9767 29bc e4ce f13c
000000f0: 5151 b23b c39f 053d c993 4ebc 8de6 e83c
00000100: 6e8f 01bd ff90 e3b9 f637 e03c 00a1 c53c
00000110: e0a0 363d 0398 083d 2e96 b33c 50cf f03c
00000120: 4d19 093d 50b7 0b3c 6eb7 aebc 18df 84bc
00000130: 1f9f 14bd bbae 86bc 2460 093d b97a ff3c
00000140: fe64 183b 63a1 a2bc b214 123d 5937 993c
00000150: 891f 89bc 63c6 02bd d109 e0bb 7333 fa3b
00000160: e977 a83c b9e4 b3bc 4216 3bbd 817e c9b9
00000170: a5c9 873c f182 febc 96b7 a63c f336 48bd
00000180: 85cc 513c a7dd 1439 f95a 063d 1fcd 2dbd
00000190: 88e0 d9bc 4116 b43c 8ca1 993c 3c44 af3c
000001a0: d819 ad3c b615 c3bc 9e1c c63c 0c75 30bd
000001b0: 5ace f43b e4af f4bc 7cb1 86bc 4d7e 5bba
000001c0: 935d d6bc a830 e2bb c1fb 1bbd f3f9 01bd
000001d0: cb21 0f3c bcaf c7bc b10b d2bc 4bc3 cdbc
000001e0: 9715 c2bc 756f ecbc 10ab bc3c 1c3b 423c
000001f0: 4737 0cbb e3de c6bc b6c2 9cbb 785f bd3b
00000200: 6344 87bc c110 bc3c 3403 353d 23e5 16bd
00000210: caf1 83bc 7797 3c3c a9b3 1c3d d6fb 24bc
00000220: 7db8 dd3b 7efc 153d 90d6 b53c fb81 cf3c
00000230: 9d73 353d d12f e53c c1b2 c8bb 2104 a53c
00000240: 8b25 1e3d 76a4 3d3d 4483 96bc 39a2 193d
00000250: 0f71 063c d869 9fbc b393 e43c fbdb b8bc
00000260: 6b31 f8bc 4067 16bd f0d0 973c 4a41 8e3c
00000270: d6a3 2abc 9bd3 08bc b3c7 06bb c9cf 6c3d
00000280: 883c af3c 4505 14bc 00a3 f43a 3f4e 8139
00000290: 1c79 ff3c 8540 0e3c 12b9 e53b 0292 99bc
000002a0: 6c69 acbb 6f93 2abc 27cb ce3c 86aa aebc
000002b0: feb5 dbbc 068b 8a3b ec89 a3bc bf6e 07bd
000002c0: c0df 51bc 7938 4abc cbbb 893b 27f5 c2bb
000002d0: a17b 253c 6f65 02bd f6b6 91bc 29a2 523c
000002e0: 46ab 913c b8e6 1abc 619c e9bc 5ab6 a2bb
000002f0: a4bd 353c 2c61 1ebd a865 1abd 8457 99b9
00000300: 133b 10bd 75e5 57bd c3f9 3bbd f981 e03c
00000310: 8b55 b53b 5bcb 113d 1e50 363d 99bc 273c
00000320: ab6e 1ebb a49d e0bc df4c cc3b 0c61 e73c
00000330: 0466 3ebc 9292 39bc 1ce9 33bd d34e b03c
00000340: 3536 bbbc d0d7 1b3d 9f54 8cbc 6fcd fbbc
00000350: 8e45 bc3c 7fbd 153c 746d 1f3d 1872 783b
00000360: 53a3 1ebd c7cc bc3c a056 ccbb a30a c4ba
00000370: c707 d83b d4b8 b53c 129a 2cbd 6dee 50bc
00000380: 4ba2 ff3c cef0 8c3c 1f45 2d3d 5b49 77bc
00000390: 7420 a0ba fbcd f93c 79cb a13c 0882 323d
000003a0: 5012 90bc effb 25bc 0a47 67bc b5b7 c5bc
000003b0: d8b7 dc3c 202c ed3c 3038 f43c 312e 12bc
000003c0: 1a57 c13c 02b5 82bc bd82 2a3d b2df 58bc
000003d0: 35d9 37bd 1161 273c 0691 2b3d ab0e 193d
000003e0: 36ed 403d ede1 ebbc a7f6 a33c dcdf 863a
000003f0: b311 6c3c 4e79 e7ba fad4 063c 2dc9 573c
-0.0011793302 -0.035978645 -0.03611804 0.030688755 0.02457074 -0.009548344 -0.026128136 0.0062070494
0.00076157285 0.035828367 0.004996103 0.0014783242 0.014516513 0.003223773 0.0311745 0.032963324
0.00015628163 0.010723475 0.020254342 0.046544563 -0.014562466 -0.027719585 0.0027596469 -0.025322147
0.0020802042 -0.015853738 0.0036522974 -0.04510762 0.020599034 0.059956737 0.0044522467 -0.018371461
0.024437364 -0.020676292 0.02072585 -0.019945925 -0.018962925 -0.0019628776 0.001755979 0.011499668
-0.037760884 -0.006986435 -0.010531668 0.0016314154 0.031904217 0.03568994 -0.024793658 -0.011917262
-0.011592512 -0.03075367 -0.025523767 0.04115204 0.015984455 0.024074117 0.015027941 -0.03437473
0.013094878 0.03233595 -0.010339639 0.029517598 0.0054418226 0.032623064 -0.012608477 0.028430248
-0.031630926 -0.00043404844 0.027370434 0.024124622 0.044587016 0.033348095 0.021922197 0.02939573
0.033471394 0.008527592 -0.0213277 -0.01621966 -0.036284562 -0.01644074 0.033538952 0.031186448
0.0023253555 -0.019852346 0.035664268 0.01870315 -0.01673867 -0.031927478 -0.0068371077 0.0076355278
0.02056499 -0.02195965 -0.045675524 -0.0003843196 0.016575644 -0.031068297 0.020351212 -0.04888053
0.012805109 0.00014196952 0.032801602 -0.042431947 -0.026596323 0.021983268 0.01875379 0.021394841
0.021130487 -0.023814064 0.024183568 -0.043080375 0.007470888 -0.029869027 -0.016442053 -0.00083730073
-0.026167667 -0.006902773 -0.038081888 -0.03173251 0.008736084 -0.024375789 -0.02564034 -0.025117537
-0.023691935 -0.02886174 0.023030788 0.011854913 -0.0021395253 -0.024276203 -0.0047839535 0.005779203
-0.016512102 0.022957208 0.044192508 -0.036839616 -0.016106505 0.011510721 0.038257275 -0.010069808
0.0067663775 0.03661775 0.022197038 0.025330534 0.04429971 0.027976902 -0.0061248248 0.02014357
0.038610023 0.04629942 -0.01837314 0.037508223 0.008205666 -0.01945965 0.02790246 -0.022565832
-0.030297002 -0.03671956 0.018532246 0.017365117 -0.010415038 -0.008351232 -0.0020565807 0.057815347
0.021391168 -0.0090344595 0.00186643 0.00024663095 0.03118568 0.008682375 0.0070105875 -0.01874638
-0.0052615907 -0.0104111275 0.025243355 -0.021321546 -0.02682018 0.0042279987 -0.019963227 -0.0330646
-0.012809694 -0.012342566 0.004203295 -0.0059496346 0.010100276 -0.031835016 -0.017787438 0.012856045
0.017781865 -0.009454422 -0.02851695 -0.0049655857 0.011092577 -0.03866689 -0.037694603 -0.00029247638
-0.035212588 -0.05270906 -0.04589249 0.027405726 0.005533879 0.035594326 0.04451 0.010237836
-0.002417485 -0.027418919 0.0062347497 0.028244518 -0.011621002 -0.011326449 -0.043923482 0.021521961
-0.022852996 0.03804761 -0.017130194 -0.030737607 0.022982385 0.009139418 0.038922742 0.0037909802
-0.038729977 0.023046864 -0.0062359124 -0.0014956783 0.006592724 0.02218286 -0.04213912 -0.012752158
0.031205317 0.017204668 0.042302247 -0.015093173 -0.0012216703 0.030493727 0.019750344 0.04358104
-0.017586857 -0.010130866 -0.014116058 -0.02413545 0.026943132 0.028951705 0.029811949 -0.008922146
0.023601104 -0.015955452 0.041628588 -0.013236927 -0.04488488 0.0102160135 0.041886352 0.037367504
0.047101222 -0.028794253 0.020015074 0.0010290104 0.014408517 -0.0017660053 0.0082294885 0.013170523

bias f4 [64]
00000000: 61e1 4c3d b9e4 09bd 90d1 663d 5d3a 8e3c
00000010: 65c0 2ebd 5077 933c 434c 1b3a a604 653d
00000020: 2335 233d 8378 2c3d 9b4b 21bd 5f7f 7e3c
00000030: 18bb dc3c b6be b93d 5a30 1dbd 884b 513d
00000040: 802b debb 40fb cb3c 2771 193d 66d4 83bd
00000050: e8dd c43b a333 1abd 1f53 d53d e2e5 56bd
00000060: e03f 8f3b 7b3b 52bc 41ad a8bd 576c 9c3d
00000070: f74d fbbb 9bce ec3c b7cc 703c ee44 6f3c
00000080: 93f6 833d 8392 9d3d 4730 adbc 1511 723d
00000090: b139 5bbc 0040 a73d faa2 42bd 17c2 b73c
000000a0: 52d9 f7bc 6bfa 473b 8eab 973c 3bd6 1dbc
000000b0: b254 b0bc 9650 5e3d f865 183e 5f25 9abb
000000c0: 9970 05bc 74c1 3b3b d29c 553d 0bef 263d
000000d0: 3576 72bd eca6 40bd 2c3a dabc 32c4 80bd
000000e0: 8f25 c93c 2653 1abd d728 9e39 65ae 14bd
000000f0: c8f4 0ebc f540 823d 7af9 b6bd d184 6b3d
0.050019626 -0.033665393 0.056352198 0.017361814 -0.04266395 0.018001229 0.00059241446 0.055912636
0.039845597 0.042107116 -0.039378744 0.015533297 0.026944682 0.09069578 -0.03837619 0.051097423
-0.006780088 0.024900079 0.037461426 -0.06436996 0.0060078986 -0.0376469 0.10416245 -0.052465327
0.004371628 -0.012831564 -0.082361706 0.07637852 -0.0076692062 0.02890711 0.014697245 0.014603836
0.06443515 0.076939605 -0.021141184 0.059098322 -0.013380454 0.08166504 -0.047518708 0.022431416
-0.030254994 0.003051425 0.01851442 -0.009633596 -0.02152476 0.05427607 0.14882648 -0.004704162
-0.008144521 0.0028649243 0.05215151 0.040755313 -0.059194762 -0.04703419 -0.026639067 -0.06287421
0.024554042 -0.037676953 0.00030166536 -0.036299128 -0.008725353 0.06360046 -0.08934303 0.05749971

weight f4 [512, 64]
00000000: b116 cd3d f0e2 02be ce78 6dbd bed9 b9bd
00000010: 0b9f bb3d 724d dd3d 1ccb b23d 6196 023e
00000020: 2e49 21bd cdf9 ecbc aca0 1c3d e1de bdbc
00000030: edcd 0b3e ba4d 843d 030c 6ebd 3103 cb3d
00000040: 831b f13d f817 d03d 4b99 5d3d 4c38 b7bb
00000050: 9bb7 07be c3f0 1f3d 9865 0a3d aa93 af3d
00000060: baed 1f3c 4bb9 8c3d c410 6d3d 8421 8a3d
00000070: a26f de3c 2c8d 12be 381f eebd a937 1e3e
00000080: 4184 93bd 23c7 8c3d 7b13 953d c5b0 a4bd
00000090: de47 46bc 9021 b03d 2f6a adbd 4818 e1bc
000000a0: 3a6b 4f3d 6b95 07bd 947b 313d 177a 88ba
000000b0: fa47 afbd 558c a53d 2051 0a3e c2b6 053e
000000c0: 07cf debd 511b d73d 222c 8bbd 57d8 c83c
000000d0: fe71 9e3d ed67 97bb 1861 3fbc 9f9e 2dbe
000000e0: c35a a83c 4cb3 ae3c 8a0d b33d 80e5 d0bd
000000f0: a14a 94bd 0f66 063e 5892 f73c 2b5e f8bc
00000100: 051d df3d 8c08 fa3c bdd8 f83d a630 c23d
00000110: 3e33 0d3d 9035 873d 29aa 0dbc a77e ecbc
00000120: 48ef ef3d 9979 2cbc 7bd5 19bd 5ccf b8bd
00000130: ccea 3ebd 8bc3 0abe 1c1c dbbd 9d43 463d
00000140: 0d51 f5bd 6732 353d 6d94 393d a30c b13d
00000150: 43eb a73d b440 673d 9831 b63d 8c89 12be
00000160: 8200 8a3d bfe8 d63d e9fd e23d ae6d dabd
00000170: e67d dfbd 3d00 d63d f6f8 b9bd 3857 03be
00000180: ddac e33c b810 203d cd56 ed3d 67a7 b2bd
00000190: 83c2 953d 6614 8ebc 3001 bb3c 8c5f 7b3d
000001a0: dcb2 cd3d 491b 2b3c f686 6c3d 87fd 9ebd
000001b0: b647 c03d c7aa dd3d d3cf 783d 4778 b2bd
000001c0: 1798 d63d 3fa3 ec3c 69d4 4b3d 26f2 6a3d
000001d0: 23d0 b3bc aeb7 e33d 9987 a3bd 814e 023e
000001e0: f918 eb3c 4d2a 7fbc ed91 05be 315d 88bc
000001f0: 7d25 dcbd 589a febd e328 b5bd 8689 bd3d
00000200: 10c9 5a3d 69e7 4bbd 21ce dabc ded2 4bbd
00000210: 84d4 f1ba 8e3d 613d 82c8 003e 877b cb3d
00000220: f505 613c cf48 a23d 8dfb 84bd 8ec2 b2bb
00000230: c308 f43c 53eb a1bd cc04 39bc 7f64 a43c
00000240: b931 e1bc 37a9 fe3d a7cf f4bd 8462 513d
00000250: 76a2 ae3d a36c d5bd 0429 d4bd 1f14 46bd
00000260: fd47 3e3d c323 e93c e056 f4bc 3878 8cbd
00000270: b6c2 a6bd d195 fdbd 14f5 8cbd add7 f63d
00000280: 0914 afbc e55d 37bc 9a0f e7bd 3a9a a13d
00000290: 070b 5abd 3255 01bd 4d6c 78bd 035d 2f3c
000002a0: 311c b5bc a790 873d 81f4 fbbc 9689 9ebd
000002b0: 01bb 93bd 69ad 753a c0d2 063e c315 913d
000002c0: fa47 883c d29a b0bd 8e30 073e ffb3 a33d
000002d0: 3989 6a3d 271d c63b 2fad 49bd 594f 20bd
000002e0: c66d a43c 4000 a73d 40ac b43b cef7 603d
000002f0: ac58 3e3c 4825 96bc 9526 b2bc 8dfd 9abd
00000300: 0c59 553d 54a2 12bd e0b0 a9bc 2677 edbd
00000310: 1727 053d ee37 98bd 8261 423c d3e9 96bc
00000320: 8cdb 003e 2c52 e9bd 2945 923d 7251 383d
00000330: a7a8 f23d bc8c e5bd d46d ba3d 8c52 893d
00000340: ad70 c33d 3a67 dd3d 5a6a cf3d 1885 013d
00000350: 8215 3bbd beef 08bd a650 74bc b5f4 67bc
00000360: fa28 c3bd 937f 0b3d 3eb3 d5bd 15d9 c9bd
00000370: a39e 07bd e0a9 dabd 6258 b03d 8548 48bd
00000380: 0d26 e1bb de4b a8bd e785 403c 7acb fe3b
00000390: 618e bcbc 97be d5bd 7587 75bd e195 d23d
000003a0: a1a1 2dbd b950 e2bd 81bb 66bd 03f6 c33d
000003b0: d04c d43c 982b 76bc 5626 9cbd 2df8 eebd
000003c0: 6f99 a13d e8cf 9a3d c268 c9bd b3a1 8b3d
000003d0: 801c db3d d013 0dbd a549 913d f89c de3d
000003e0: 779e e5bc b5ca 4c3d 03f1 533d 5ff3 b8bd
000003f0: d13f 413d aaaf f2bd f444 813c 4fa6 8d3d
0.10014094 -0.12781882 -0.057976536 -0.09074734 0.091611944 0.10805787 0.08730146 0.12752678
-0.03937643 -0.028927708 0.038239166 -0.023177566 0.13652773 0.06460138 -0.058116924 0.09912718
0.117728256 0.10160822 0.05410127 -0.005591428 -0.13253634 0.039047968 0.033788294 0.085730866
0.009761268 0.06871279 0.057877317 0.06744674 0.02715284 -0.14311665 -0.11627048 0.1545092
-0.0720296 0.0687392 0.07279106 -0.080415286 -0.012102095 0.086001515 -0.084675185 -0.027477399
0.05063937 -0.03310148 0.043330744 -0.0010412362 -0.0855865 0.08083407 0.13507509 0.13057998
-0.10879331 0.10503257 -0.06795527 0.024517221 0.07736586 -0.004620543 -0.011680864 -0.1695504
0.020551091 0.02132573 0.08742817 -0.10200024 -0.07240797 0.1312487 0.03022115 -0.03031834
0.10894207 0.030521654 0.121507145 0.09481935 0.034472696 0.06602013 -0.008646526 -0.028868986
0.11715561 -0.010527038 -0.037557106 -0.09023926 -0.04661064 -0.13551156 -0.10698721 0.048404325
-0.1197835 0.04423752 0.045307565 0.086449884 0.081991695 0.05645819 0.08896178 -0.14310282
0.06738378 0.104936115 0.11083586 -0.10665451 -0.10912685 0.10449264 -0.09080689 -0.1282624
0.027792389 0.039078444 0.115888216 -0.08723336 0.07312491 -0.017343711 0.022827715 0.061370417
0.1004388 0.010443517 0.057745896 -0.077632 0.09388678 0.10823589 0.06074507 -0.08714347
0.104782276 0.028886436 0.049763117 0.057359837 -0.021949833 0.111190185 -0.079848476 0.1272526
0.028698431 -0.01557405 -0.13043948 -0.016646 -0.10749338 -0.124317825 -0.08845689 0.09254746
0.053414404 -0.049781237 -0.026709618 -0.049761645 -0.0018450175 0.054990344 0.12576488 0.0993567
0.01373433 0.079240434 -0.06493292 -0.0054553216 0.029789334 -0.07906213 -0.011292648 0.020067452
-0.02748953 0.12434619 -0.11953669 0.051119342 0.08527081 -0.104211114 -0.103593856 -0.048359033
0.046455372 0.028459435 -0.029826581 -0.068588674 -0.08142607 -0.12382091 -0.068826824 0.12052856
-0.021371858 -0.01119182 -0.11282273 0.078907445 -0.053233173 -0.03157539 -0.06065016 0.010703328
-0.02210817 0.06619387 -0.030756237 -0.07741086 -0.072134025 0.00093718484 0.13166332 0.07084229
0.016635884 -0.0862328 0.13202116 0.07993316 0.057259772 0.0060459557 -0.049237426 -0.03913817
0.020071875 0.081543446 0.005513698 0.054923825 0.011617821 -0.018328324 -0.021746913 -0.07567892
0.052086875 -0.03579934 -0.020714223 -0.115949914 0.032507982 -0.07432543 0.011864068 -0.018422043
0.1258375 -0.11392626 0.071420975 0.044999547 0.11848574 -0.112084836 0.09102979 0.06705198
0.095429756 0.108107045 0.10127707 0.03162107 -0.04567481 -0.03343176 -0.014911806 -0.014157464
-0.095293 0.03405721 -0.10434578 -0.09855858 -0.033110272 -0.10676932 0.08610608 -0.048897285
-0.006870991 -0.082175955 0.011750675 0.007775721 -0.02301711 -0.10436743 -0.059943635 0.102824934
-0.04239047 -0.11050553 -0.05633116 0.095684074 0.025915533 -0.015025042 -0.076244995 -0.116684295
0.07890593 0.07559186 -0.09834434 0.06817951 0.10698795 -0.034442723 0.07094125 0.10869783
-0.028029663 0.049998004 0.05174352 -0.09030794 0.04718 -0.118499115 0.01577995 0.069164865

bias f4 [512]
00000000: 061b 013e 041c f9bd a3ad abbd 23a4 a6bd
00000010: fb05 993d 7f09 b9bd afb5 c2bd 8348 333d
00000020: a05a abbd d7a4 c3bd d7f2 0b3e daae b83d
00000030: 9292 cbbd c0b8 2b3d 170c ec3c b004 8c3d
00000040: fab9 ac3d a679 043e b00a 583d c0e2 ae3c
00000050: 41e0 5bbc f4a6 1a3d b5f9 20bd dfc3 e73d
00000060: 5b9c ef3d fa4d 7bbc b968 0e3d 2478 d4bd
00000070: 60e9 ccbd 2b62 a4bd f21b f5bc 4989 a03d
00000080: 2f78 f8bb 7621 c8bd 921f 1c3d ced5 8e3d
00000090: 4860 09be 0180 eebd 684f 52bd aee6 fd3c
000000a0: b834 213d fab3 8cbd 7cce c33c b7a5 1dbc
000000b0: e823 30bc c389 fd3d fce2 4a3d 8cce 3ebc
000000c0: 3725 553d 5437 9dbd 92d0 cc3d 8e92 30bb
000000d0: 9990 943d 0c17 04bd b972 033d 14d7 963d
000000e0: c497 963d 07e1 18bc 3d89 78bd 0106 7f3d
000000f0: ae70 df3d aec9 13bd 0424 aabc 4c28 363c
00000100: 7563 c93d 3a6c 3b3d 1171 0abc 935f 573d
00000110: 1863 35bd 31d9 4dbd da89 0a3e 4491 c0bd
00000120: 77cc e5bd 48c9 6abb 9bb7 e8bd c842 1dbc
00000130: 6c5b 983d 15a4 be3b c0fe 9f3c 9bd7 003e
00000140: 4c3c 9fbd 7066 ce3d 7804 ba3d 1134 1b3d
00000150: 48d3 8e3d 03af c5bd 31b0 a43c bd22 96bc
00000160: e21f 67bd 182a f63c 3727 fcbd d5df dd3d
00000170: ce40 f4bd 8a97 123e 2c8b 473d c39c d73d
00000180: 4ebc 8cbd aed3 8abd 7a8e e03c dc39 adbd
00000190: af7d a4bd e0c1 fabd 325f 9a3d 8420 adbb
000001a0: 4cce cf3d ab12 fe3d 7795 403d 59b3 393d
000001b0: eb5e a1bd 974c 4e3d 9202 0fbb 0893 edbd
000001c0: 0c89 2b3c f0c3 f9bd 54f4 f9bd 94cb b4bd
000001d0: 0660 44bd 3615 e2bd 1d52 1e3d 418d edbd
000001e0: d741 d73c f2f7 aebd 5f55 963d 9d46 aa3d
000001f0: 3c1a 133c 462e fbbd 5249 a63d 345c 743d
00000200: 74f9 dcbd 940e 7b3d 2e23 dcbd ea4b c8bd
00000210: 1078 96bc 3d5c 76bd c5c1 52bd 5eac b03d
00000220: 67bb c2bc fa1e b23c 62bb f4bd 8b40 0d3c
00000230: 8e8b 153d bf3c fbbd 809f 56bd 3f88 64bc
00000240: b31b e6bd 8bbf 04bd 0f82 e13d f8be 133e
00000250: 0de5 2d3e 78f5 053e b759 203e 88fe bdbd
00000260: cb2d 393d 15c7 d2bd 56b4 e93d 77a0 07bd
00000270: 5fae 063e 6d1f 2cbc ec6e d6bc f160 b93d
00000280: 9542 eb3d 1702 5a3d 63d4 263d 41dd 8d3d
00000290: 21b3 adbd a110 2d3c 9206 86bc c804 b6bd
000002a0: 2974 3d3d 5c2d 293d 60ea 44bd 19f5 1f3c
000002b0: 6d96 edbd 276b 0a3e 2d0d ecbc 9141 ac3d
000002c0: b4b2 d0bd 1300 bf3c eb3b 75bd e420 f6bd
000002d0: bc88 083e bc85 413d 9d14 2fbd 04f5 8c3d
000002e0: 6b02 d0bd 1634 033e cbf7 b1bd 9d46 b1bc
000002f0: 562e 9c3d c131 f9bd 5144 913d b17d 123c
00000300: 6e73 17bd 5963 643d 46b6 75bd ab2c edbc
00000310: 59a1 86bd e325 ffbc 8faa 5abd affc 57bd
00000320: f862 453d 39b1 543d 47c5 b9bd 7e2d ba3c
00000330: c834 e03d 183b 5ebd f644 5e3d ede0 b7bd
00000340: b0eb d03d 5fa4 fd3c 27fb 5dbd e767 d43d
00000350: 095f 253b cf25 433d 3db9 91bd c123 41bc
00000360: f193 92bd 0015 b73d a8ca cb3d bd53 6dbd
00000370: 0922 9b3c 33bd fc3c 7d81 343d 9d20 8ebd
00000380: 9f8c 9a3c baa9 923d 8651 c6bd 5f2b 06bd
00000390: e44d 2d3d fadb be3d 5ce2 debc f005 90bd
000003a0: 84b2 ba3c 6567 123d c30c 083e d236 c23d
000003b0: e74c d3bb 299e 81bc b178 283d d0a6 f7bd
000003c0: 1f94 cb3d 190f c53d c0ee 6e3d 3649 b4bd
000003d0: e2ec 3e3c b633 b53d 83c7 973d 28ff 52bd
000003e0: 5e3f 00bd 1c66 97bd 1056 333c c01c efbd
000003f0: acb0 d03d c750 27bd 5db2 a33d 4f35 1abd
0.12607965 -0.12163547 -0.08382728 -0.08136775 0.07471844 -0.09035014 -0.0950731 0.043770324
-0.08366895 -0.09552925 0.13666855 0.09017725 -0.099400654 0.04192424 0.028814359 0.068368316
0.0843391 0.1293703 0.052744567 0.021348357 -0.0134201655 0.037756875 -0.03930064 0.11316656
0.11699744 -0.015338415 0.03476784 -0.103744775 -0.1000545 -0.080265366 -0.029920552 0.07838685
-0.0075826864 -0.09772007 0.038116045 0.06974374 -0.13415635 -0.116455086 -0.05134526 0.030993786
0.039356917 -0.06870265 0.02390217 -0.009622029 -0.010750748 0.123797916 0.049532875 -0.011645924
0.052037444 -0.076765686 0.10000719 -0.0026942822 0.07254142 -0.03224854 0.03209183 0.07365242
0.07353166 -0.009330994 -0.060677756 0.062261585 0.10910164 -0.03608101 -0.020769127 0.011118006
0.09833423 0.04575751 -0.008449809 0.05258138 -0.044283956 -0.050255958 0.13529149 -0.09402707
-0.11220639 -0.003582554 -0.11363145 -0.009598441 0.07439312 0.0058179 0.019530654 0.12582247
-0.077751726 0.10078132 0.090828836 0.03789145 0.069738925 -0.096525215 0.020103546 -0.018327111
-0.05642689 0.030049369 -0.12312167 0.10833708 -0.11926423 0.1431562 0.04871671 0.10527947
-0.06871854 -0.06778656 0.027411688 -0.084583014 -0.08031785 -0.1224401 0.07537688 -0.005283417
0.1014677 0.124059044 0.04701754 0.045337055 -0.07879432 0.05036601 -0.00218216 -0.116003096
0.010469686 -0.12195575 -0.12204805 -0.08827892 -0.047943138 -0.11039202 0.038652528 -0.11599208
0.026276512 -0.085433856 0.07340502 0.0831425 0.008978423 -0.12264685 0.081194535 0.059658244
-0.10789767 0.0612932 -0.107488975 -0.097801045 -0.018367797 -0.06014656 -0.051454324 0.086266264
-0.023771001 0.021743286 -0.11949803 0.008621345 0.036510043 -0.12267446 -0.052398205 -0.013948499
-0.11235752 -0.032409232 0.11011135 0.14428318 0.16981907 0.1308192 0.15659223 -0.092770636
0.045209687 -0.10291878 0.114113495 -0.033112016 0.13152455 -0.010505539 -0.026175939 0.09051693
0.11487309 0.05322465 0.04072989 0.069269665 -0.08481432 0.010563047 -0.016360555 -0.08887631
0.046253357 0.041303024 -0.04807508 0.009763026 -0.11600957 0.13517438 -0.028814876 0.08410943
-0.10190335 0.023315465 -0.059871595 -0.12017992 0.1333341 0.04724668 -0.042744268 0.068826705
-0.10156711 0.12812838 -0.08689841 -0.021640116 0.076260254 -0.12167693 0.070931084 0.0089411
-0.036975317 0.055758808 -0.059988283 -0.028951963 -0.065737434 -0.031145995 -0.053385314 -0.052731212
0.048190087 0.051926825 -0.09070831 0.02272677 0.10947567 -0.054255575 0.054264985 -0.08978448
0.10201204 0.030962167 -0.054194596 0.1037138 0.0025233647 0.04764348 -0.071154095 -0.01178831
-0.07157124 0.08939552 0.09950763 -0.057941187 0.018937128 0.030851936 0.044068802 -0.06939814
0.018865881 0.07161279 -0.09683518 -0.032756206 0.04231061 0.09319301 -0.027207546 -0.070323825
0.022790201 0.035743136 0.13286118 0.094831124 -0.0064483765 -0.015822487 0.041130725 -0.12092364
0.09940361 0.0962202 0.05833316 -0.088030264 0.011653157 0.08847754 0.07411101 -0.051512867
-0.03131043 -0.07392523 0.010945812 -0.116754055 0.101899475 -0.04084852 0.079930045 -0.037648495

weight f4 [200, 512]
00000000: b637 79bc 1337 03bd bf16 ed3c beec d13c
00000010: 3518 053d 81c1 233d 5673 603c 50c7 203c
00000020: 4bcf a63c 1791 bdbc fea5 f8bb 548c 9d36
00000030: ab37 b4bc e940 aabb 727c f1ba 4054 9cb9
00000040: 8b5d 9f3b 3cfa aabc 485c 2d3d acf7 7e3c
00000050: 8052 14bc 0a06 efbc 6b19 e7bc df96 a13c
00000060: 3f26 0ebd 16dd 67bc 7c43 abbc 8597 03bc
00000070: 27b8 0cbd 8481 65bc 00b2 9dbc 499c 4c3b
00000080: 8276 193b 30dc 9ebc bfcc fe3b 8f74 d2bc
00000090: 2d1f 16bc a013 97bc 6d2d 11bd b974 87bb
000000a0: 932f 023a 2179 013d a408 95bc 9403 2cbc
000000b0: 6dbf 253d 1f32 15bc 511a e73c 462f 5aba
000000c0: de93 ad3c 7a2d 21bd 149c 27bd 5c01 273d
000000d0: 3724 ee3c 3065 713c 576e 8bbc 37f8 2d3d
000000e0: daeb d23b c179 11bb 2836 513c 99f7 d43c
000000f0: a6b3 a5bc e488 da3c a07b 18bd 06b1 22bd
00000100: d7f4 b1bc 2274 30bd 2626 b4bc 0764 583a
00000110: 8fe8 2c3d c2d8 04bd 8452 193d 54fd 1d3c
00000120: 205a 22bb 16d0 923b f835 00bd ba98 1bbd
00000130: b74a 30ba 4e9b bd3b 0b04 c2bc 71cd 86bc
00000140: 8f9c 1a3d 5c26 07bd 1e83 133d 68d8 983b
00000150: 113d 21bd 2a87 d7bb 1b0c bdbc f63e b13c
00000160: 227c 083d 6ccc acbc 9c9a cbbc 361b 14bb
00000170: f0e9 11bc 5e3e 793c 07c1 fa3c 21c9 a03c
00000180: 0655 da3c 567d a33c 4871 cbbc 6665 24bd
00000190: e8fb 25bd a993 223d 1785 b1ba ec7e 08bd
000001a0: 03d1 0a3d 3507 813c 03ef acbc 96a7 0fbc
000001b0: d97f 7db9 2d63 203d 39c7 e4bc 6524 b33c
000001c0: 3f1e afbc 42e6 bf3c e119 273d 1037 0b3c
000001d0: aacb 40bc 434b 32bd 729f c03c 035a d43c
000001e0: d4e0 8abb a031 0fbd 9f53 0dbc 1105 e93c
000001f0: bfee 1fbd 29f8 1ebd f908 e6bc b13d 713b
00000200: b4cc 063d fb43 1a3d 1905 103d c1b0 67bc
00000210: 565f fd3b 9895 d03c 68f9 bfbb 686a 0d3d
00000220: 308f 6c3c f491 03bd 6c7b 07bd 981d 1e3b
00000230: 7a7e 34bd a655 bcbc ec66 093c b35d a53c
00000240: 4a37 f2bc 0ac8 04bd f72a 35bc 776d 2a3d
00000250: 63d0 7bbc f1ba 253d 7a86 debc 22ed b2bc
00000260: 9459 ab3c 361c 933a 5e00 b1bc 71b3 fe3b
00000270: b541 e0bc 2278 d1ba 2911 0cbc 5de0 7c3b
00000280: a2f7 c33c d55c 13bd 890f 593b 3fc7 673c
00000290: 9e83 96bb f00c fc3c 0185 2f3d ef59 063d
000002a0: d8ca 8d3c 79b5 0b3c 23de eaba b059 8fbc
000002b0: ca94 303d 5ebf 1fbc b0c9 4c3b 1793 febc
000002c0: 15b0 b5bc 2377 3c3c 64a1 f7bc caef a4bc
000002d0: 4741 b53c d385 23bd 6768 09bd bc14 5b3c
000002e0: 50dd 9b3b 3eaa 483a e756 2f3d d087 a2bc
000002f0: 6a7f 25bd 2f19 273d 0a91 2bbc 004b 8fbc
00000300: c7a9 cc3b ed47 26bd 47b0 edbc 58e8 093c
00000310: faf0 c23c dae9 44bc c8a7 1bbd 8a2c 0ebd
00000320: 9c5e 893b 3601 25bd a06b 213d 3dc9 223d
00000330: 6dbc bbba 9f4c 6ebc a1ac d63c 564b 28bd
00000340: a050 a2bc 2c95 083c 0134 573c 9f78 9ebc
00000350: ba35 02bb f81f 6e3c 341f 3cbc e3de 52bc
00000360: 00f4 fe39 f21f 1abd ed4c 633c e99f d0bc
00000370: ba7c 1d3d f6e9 32bd 8ada 943c 76db 183d
00000380: 4e96 9fbc b62b f1bc 50ed 033d 9ebb 8fbc
00000390: 1f16 d5bc 41d7 b33c fc21 a23c a754 993c
000003a0: c940 1ebd 6fef 9bbc b360 163d 3fa9 283d
000003b0: 24ca 0bbd f6d7 f1bc 94ad 29bd 61ca 093d
000003c0: ed85 073d f014 193c ddf8 d73c 0255 0fbb
000003d0: d642 14bd abc6 afbb b4bf a93b 60b3 003b
000003e0: 4d70 81bb febc c4bc bba7 833b 787b 263d
000003f0: 210c 393c 64ed 28bd 7f27 f2bc a0b6 c63a
-0.015211036 -0.032034945 0.02894151 0.025625583 0.03249379 0.03997946 0.013699373 0.009813145
0.020362517 -0.023140473 -0.007588147 4.695301e-06 -0.0219992 -0.005195726 -0.0018423928 -0.0002981741
0.004863446 -0.020871274 0.042324334 0.015561979 -0.009052873 -0.029177684 -0.028210362 0.019725261
-0.034704443 -0.014151832 -0.020906202 -0.008031731 -0.03435531 -0.01400793 -0.019249916 0.0031221083
0.0023416583 -0.019392103 0.0077758725 -0.025690345 -0.009162706 -0.018441975 -0.035443712 -0.0041337875
0.00049661956 0.03160966 -0.018192597 -0.0104989 0.04046576 -0.009106188 0.02821079 -0.00083230843
0.021188673 -0.03935001 -0.040920332 0.04077278 0.029070003 0.014733598 -0.017020388 0.042473044
0.006436807 -0.0022197815 0.0127692595 0.02599697 -0.020227265 0.026676603 -0.037227273 -0.039719604
-0.021723194 -0.043079503 -0.021990847 0.00082546513 0.042213973 -0.03243328 0.03743221 0.009642918
-0.0024772957 0.004480372 -0.03130147 -0.03798745 -0.00067250006 0.005786336 -0.023683568 -0.016455384
0.037746962 -0.032995567 0.036013715 0.0046644695 -0.039364878 -0.006577392 -0.023077061 0.021636467
0.033321507 -0.02109357 -0.024853997 -0.0022599227 -0.008905873 0.015212623 0.03060962 0.019627156
0.02665187 0.019957226 -0.02483429 -0.040135764 -0.04052344 0.0396916 -0.0013543692 -0.033324167
0.033890735 0.015750507 -0.021110063 -0.008767983 -0.00024175587 0.03915708 -0.027927028 0.02186794
-0.021376727 0.023425225 0.040796164 0.008497015 -0.011767307 -0.043528806 0.02351353 0.025921827
-0.0042382274 -0.034959435 -0.008625894 0.028444799 -0.039046045 -0.038810883 -0.02808045 0.0036810453
0.032910064 0.037662487 0.03516111 -0.0141412625 0.007732312 0.025461957 -0.005858589 0.034525305
0.014438435 -0.032121614 -0.03307669 0.0024126526 -0.04406593 -0.02299006 0.008386355 0.02018628
-0.02956738 -0.032417335 -0.011057607 0.0416083 -0.0153695075 0.040461484 -0.027163733 -0.02184159
0.020916738 0.0011223617 -0.02160662 0.007772856 -0.027375082 -0.0015981237 -0.008549013 0.003858588
0.023921791 -0.035977203 0.0033120832 0.014146625 -0.0045933267 0.030767888 0.04285145 0.03280061
0.017308637 0.008527153 -0.0017918985 -0.017498821 0.043110646 -0.009750215 0.0031248145 -0.031075997
-0.022178689 0.011503014 -0.030228324 -0.020133872 0.022125853 -0.039922547 -0.03354683 0.013371643
0.004756607 0.00076547626 0.042807486 -0.019840151 -0.040404715 0.0407955 -0.010471592 -0.017491817
0.006245825 -0.040595938 -0.02901472 0.0084172115 0.023796547 -0.012018645 -0.038001806 -0.034710445
0.0041921865 -0.040284358 0.03940928 0.039742697 -0.0014323123 -0.014544635 0.026205363 -0.04108747
-0.019813836 0.008336347 0.013134957 -0.019344626 -0.001986845 0.014533989 -0.011482049 -0.012870523
0.0004862845 -0.03762812 0.013873321 -0.025466876 0.038449027 -0.043680154 0.018170614 0.03731867
-0.01948085 -0.029439788 0.03220874 -0.017545518 -0.026011525 0.021953227 0.019791596 0.018717123
-0.038636003 -0.01903507 0.036713313 0.04117703 -0.034128323 -0.029521924 -0.041425303 0.03364027
0.033086706 0.009343371 0.026363784 -0.0021870737 -0.036196552 -0.0053642592 0.0051803235 0.0019638166
-0.003950155 -0.0240159 0.0040177978 0.040645093 0.011294396 -0.04124202 -0.029559849 0.0015160628

bias f4 [200]
00000000: 7707 3ebd 84d2 123c 2676 88bd 3231 183d
00000010: 137e 0f3c 79d7 04bd a832 e8bb a1d7 033a
00000020: 5df7 f33e 06d5 1a3d 22f2 c23c 954e 233d
00000030: 2100 053d b4ef 33bd 3841 14bd bda9 98bc
00000040: 98ef 3dbb 2d2d 10bd 82b8 413c 0bad 4abc
00000050: 9ca7 1ebc a0cb 173d 97d4 2fbd eef5 32bc
00000060: 6460 153c 3582 5c3c a1d7 61bc 71d3 88bc
00000070: 1f85 2dbd 1516 8d3c 886b babc bf81 5dbc
00000080: acce 1d3d cbaa a2bc 68a2 b03c 7bd2 a83c
00000090: 2bd6 01bd 7545 22bd 1eb8 26bd adb6 c5bc
000000a0: b371 673c 058a 0bbd c499 263c 9b44 9dbc
000000b0: 8dcb 0b3d ec08 2ebd f7ea 4f3b 9dbe b6bc
000000c0: f470 2fbd 0711 3e3c 267f ea3b 3614 de3b
000000d0: d976 263c f859 ecbc 067c 32bd 6ae8 cd3c
000000e0: 834c dcbb 30da a6bc 29e5 8a3c d634 42bc
000000f0: bebf 273d 77af acbc cbf9 3c3b d10c 38bd
00000100: aedb d6bc 295b 4fbc 7c1b 66bc fbd1 153d
00000110: b0a0 853b ade1 b83c e5bf 65bc b635 733c
00000120: 2898 0ebd e773 26bb 0818 b9ba 9d90 c53a
00000130: b99a 18bb 597f 8a3c 108c bcba ac19 c9bc
00000140: ccc8 81bc 8d25 c93b 5cd7 24bc f3df cabb
00000150: cdb5 bbbc 157d 063c fa9a f7bb ae2c 3abd
00000160: ef11 eabb a341 36bd 3ea9 10bb 2b44 20bd
00000170: 38bb 393c 8e3e 873c e549 2ebc ec2f 88bc
00000180: e6ed 493c 8aee 073d 0929 923c 7e11 e53c
00000190: ff03 213d 4739 47bc 25ab 98bc c09b 2ebd
000001a0: 5441 723c 3e15 053d e867 31bc 7367 393b
000001b0: abe0 d03b 3901 2dbd f924 7ebb 461b dabc
000001c0: 1423 d33c f081 6c3c 7369 f0bc 439e 98bc
000001d0: 688a 443c 6c04 163d b0f2 33bc 8a7e 4bbc
000001e0: 29fd 15bc 2c50 963a c154 da3a 0ee8 4dbc
000001f0: e25e ab3b 9285 11bb 0e83 343b a9f7 0fbd
00000200: d89b 793c f4a6 ef3c 9845 0f3c 5d03 cdbc
00000210: 251e a43c 29b6 203d 3700 9dbc ad27 373c
00000220: 62c3 85bc 1412 0ebc 5ac1 b53c 1239 44ba
00000230: d852 4fbc cd6b d93c 2e4a 05bd 4c6c 9cbc
00000240: 22d8 eb3c 8988 253d 02b6 bcbc 188d 253d
00000250: 3b19 183d 7028 6f3c 24ad c6bc 8c2b bb3b
00000260: 263a dfbc 3e00 093d 3dcd 613c 5a5f 89ba
00000270: 9ef3 133d 785c 5e3b 933d fbbc ca20 eb3c
00000280: edff 3bbd 93d5 13bd c887 033d 3ba7 c0bc
00000290: 7a52 1abc 290a 27bd 5f98 d0bc f06b db3c
000002a0: 2828 933c 0043 abbc 7be6 df3a 3969 2a3d
000002b0: 6714 c03c b4b4 ed3c dfb2 f9bc 164c 573c
000002c0: 966e c7bc 9f91 4bbc 2859 3cbc 51bd c6bc
000002d0: ba9e 8e3c 7e6b 283d fe87 d4bc e818 bebc
000002e0: aba5 91bc b0ac 043d 147a 3cbc 0a19 d8bc
000002f0: 4008 d3bb 9d16 b3bc e7b3 13bd d09c 5cbc
00000300: a196 b53c aa0f ef3c fba6 cabc 446f 86bc
00000310: 4e36 cabc 2a0c 12b7 62b6 41bb 6949 1b3d
-0.046393838 0.008961324 -0.0666316 0.03715629 0.008758086 -0.032432053 -0.007086117 0.00050293846
0.4764966 0.03780081 0.023797099 0.039869864 0.032470826 -0.04392977 -0.03619501 -0.018635625
-0.002898192 -0.035199333 0.011823775 -0.012370358 -0.009683516 0.037059426 -0.04292735 -0.010922892
0.00911722 0.013458778 -0.01378432 -0.016702386 -0.042363282 0.017222444 -0.022756353 -0.013519703
0.038527176 -0.019856831 0.021561816 0.020608177 -0.031698387 -0.03961702 -0.04070293 -0.024134958
0.014126229 -0.034067173 0.0101684965 -0.019197753 0.034129668 -0.042488977 0.0031725743 -0.022307688
-0.04283233 0.011600739 0.0071562706 0.0067773117 0.010160171 -0.028851494 -0.04357531 0.025135238
-0.006722988 -0.020367712 0.016954975 -0.011853417 0.040954344 -0.021079762 0.0028835412 -0.044934098
-0.026227798 -0.012656012 -0.014044639 0.036577206 0.0040779933 0.022568548 -0.014022802 0.014844349
-0.034813076 -0.0025398673 -0.0014121542 0.0015073005 -0.0023285581 0.016906427 -0.0014385004 -0.024548374
-0.015842818 0.0061385096 -0.010061111 -0.0061912476 -0.022913838 0.008208533 -0.0075563164 -0.045452766
-0.007143251 -0.04449619 -0.0022073532 -0.03912751 0.01133614 0.01650932 -0.010637735 -0.016624413
0.012324786 0.033186473 0.017841833 0.027962442 0.03931045 -0.012159652 -0.018636296 -0.042629004
0.014786083 0.03249096 -0.010827996 0.002829042 0.0063744388 -0.042237494 -0.0038779362 -0.026624333
0.025773562 0.014435276 -0.029347157 -0.018630153 0.011995889 0.03662531 -0.010983154 -0.012420306
-0.009154596 0.0011467985 0.0016657339 -0.012567533 0.005229817 -0.0022204858 0.0027543935 -0.035148297
0.01523491 0.029254414 0.00874462 -0.025026018 0.020033905 0.03923622 -0.019165142 0.011178893
-0.016328517 -0.008671302 0.022186924 -0.0007485311 -0.012654029 0.026540661 -0.032541446 -0.019094609
0.028789584 0.040413413 -0.023036007 0.04041776 0.037133437 0.014597043 -0.024252482 0.0057119783
-0.027249407 0.033447497 0.013781843 -0.0010480687 0.036121003 0.0033929627 -0.03066901 0.028702158
-0.045898367 -0.036092352 0.032111913 -0.023517242 -0.009419078 -0.040781174 -0.025463281 0.026784867
0.017963484 -0.020905972 0.0017082238 0.041604254 0.023447229 0.02901683 -0.0304808 0.013140699
-0.024344724 -0.0124248555 -0.011495866 -0.024260195 0.017409671 0.041118138 -0.025943752 -0.023205236
-0.017779192 0.03239125 -0.011503715 -0.026379127 -0.0064401925 -0.021861369 -0.03606024 -0.013465121
0.022166552 0.029182274 -0.024737826 -0.016410477 -0.024684098 -8.70511e-06 -0.0029558172 0.037911806
