system/models/FashionMNIST/CNN/FedPer_BaseHeadSplit_FashionMNIST_client_5.pt (torch, 760036 bytes, 8 tensors)

weight f4 [32, 1, 5, 5]
00000000: a2c7 8a3c fdaa e23c ef00 8bbe 5c91 b8be
00000010: 4f73 42be 8a15 153e 7d68 e4bb 7586 e13d
00000020: e147 50be 37d4 8abd 1fc8 8f3d 22f2 253d
00000030: 38ac 0ebe 5f5c 5bbe 26ce 12be 5d5c 133e
00000040: 3291 393e 959f 313e 7e1f 1fbe f702 d4bd
00000050: 36dd 583e 64fb 9c3e fffe 623d 60cf 073e
00000060: 97c5 cdbc b138 a63d 52ef fa3d df46 82be
00000070: 9b86 53be 6bc9 08be 31b0 5cbc 3f1f 043e
00000080: 8808 39be 4e3a 3dbe 61f7 56be a900 10be
00000090: 7fc5 0fbe 1cc6 063e 37fc 073b 4539 af3c
000000a0: 9478 553d 23cc e0bd 8d33 703c a30d 5abe
000000b0: 906c 3cbe 3829 82bd 94fd b53d 7ec4 be3d
000000c0: 78e8 c6bd f733 81bd e3ce 333e 4858 6e3e
000000d0: 7fd1 9d3d 6135 f7bb 9a65 713d 2926 e4bd
000000e0: d24c 073d 4554 53be 171e 52be dbdb 44be
000000f0: f6e3 e83d 7c46 893d 6ff2 3cbe 8666 64bb
00000100: e8a0 913c c87b 01bc aa21 08bc d85e 6c3d
00000110: bdff 003e 2944 2d3e 9526 3abe 4770 fabd
00000120: a167 013e 6747 463e 5e41 313e 5610 8a3e
00000130: f0b9 dd3d 4032 21be 5559 1ebd a945 8cbe
00000140: 4f5d 89bd b513 993e 9b8e 713e 7bcf 6abe
00000150: 9578 3abe 2057 983c b547 b33d 846b 0e3d
00000160: 5f07 623d b075 a8be 1a52 ac3d eafc 473e
00000170: d8e9 5a3e fd7a 713d 73fa d1be 6b78 f1bd
00000180: 3819 503e 87f0 213e 1abf f2bd 1c53 9fbe
00000190: 53f2 3d3e 8bdc a43d 2a34 40be 749a 2abe
000001a0: 1090 3abe 8c55 bebb afca 4dbe de44 7ebe
000001b0: 1b8e 92bd 0156 d53d 0ce2 ccbd d296 0e3d
000001c0: dc38 34be 51ed 403e e517 713e 4d29 2cbe
000001d0: 8f8a bcbd 2048 293c e81d 9b3d 0f39 083e
000001e0: 7916 ab3d 2a00 94bc af5a b7bd 6502 ff3d
000001f0: e413 11be 4683 46be 3273 27be 2d5f 83be
00000200: c3c9 98be 36b1 86be 587e 20bd 8dc9 c3bc
00000210: 611a 6fbe d39c 35be 186f c03d cb9a 9c3d
00000220: 8cd5 b13d 64fa a63d 7591 f83c 2312 f63d
00000230: 98ac 8d3e cecd 783e be58 8b3e 2817 c6bc
00000240: 7b91 16be 0944 8b3c dad9 863e 54fd a73d
00000250: 57d5 b6bd 69ff e7bd 685c 74be 0bf8 a8be
00000260: 715c 4abe 94d6 80bd 556a 2ebc c3b8 69be
00000270: b4a6 05be 704d bbbe eb20 60be d1fa 16be
00000280: 4994 4bbc cd47 06be ce8b 8dbe fad5 6ebe
00000290: 100f c4bd 4022 ae3d 18df 47bd 12a3 723c
000002a0: ef79 3bbe ba5a 99bc ea8b 593e b041 863b
000002b0: 1068 f13d 4183 853d d9ef e2bd be0d 473e
000002c0: fed7 983d fd1e 973d d379 b23e 775f 46bd
000002d0: ac89 fd3d c67c dd3d 54d9 b83e 0869 9b3e
000002e0: 1eb1 6d3e 0762 843d d365 a43b 036c edbb
000002f0: 774f f5bd 6656 9d3d 6873 113d 1bea a1ba
00000300: daa6 96be a695 26be e67a 9ebe b908 80be
00000310: e829 93be cde1 04be 9b50 aabe 840f 53be
00000320: e6e7 c73d c405 113e 38cf 06be 9e0e 6cbe
00000330: 6de2 8ebe 4a11 7f3e b8c8 193c 6462 7a3e
00000340: c552 a13c ab2d 27be e892 8d3d 7c6e 033d
00000350: 99b0 d83d 98b6 43bd 0f76 39be 4474 9c3d
00000360: 35c5 67bd 655f 1b3c e635 3b3e e4ed aabe
00000370: e14f c23c 3011 943e d8f3 2c3e 131e 463d
00000380: e141 b0be 15d0 213e e33b 96bc 6f66 50be
00000390: d3e8 59bd 2b3c ea3a 0e5d ea3d ad23 a13e
000003a0: 8694 27be 0942 433e a9d0 323e fdaf 89bd
000003b0: b57a 813e 284d bfbe 5f78 5cbd d723 c53d
000003c0: 2d51 493d 2069 9a3e 7208 acbe c7d0 3abd
000003d0: 87ab 063e 5a9a 4abe ac6f 893e 2e69 ddbe
000003e0: 7fe6 bbbd c246 42bc 3a98 6fbe 9efe 2cbd
000003f0: 2be7 973e d25b 973c a1d4 d4bd 7dcb 5dbe
0.016940895 0.027669424 -0.2714915 -0.360484 -0.18989299 0.14558998 -0.006970464 0.11011974
-0.2033992 -0.06778758 0.07020592 0.04051412 -0.13932884 -0.21421956 -0.14336452 0.14390703
0.18121794 0.17346032 -0.15539357 -0.10352128 0.21178135 0.30660546 0.055418964 0.13262701
-0.025118632 0.08116282 0.12252678 -0.25444695 -0.20656817 -0.13358085 -0.013469742 0.12902544
-0.1806966 -0.18479273 -0.20992805 -0.14062752 -0.14040183 0.1316151 0.0020749697 0.021389613
0.052116945 -0.10976436 0.014660728 -0.21294264 -0.18400788 -0.06355518 0.08886257 0.09314822
-0.09712309 -0.0630874 0.1755939 0.23275864 0.07705974 -0.007544205 0.058934785 -0.11140091
0.033032246 -0.20637615 -0.20519291 -0.19224493 0.11371605 0.06702897 -0.18451856 -0.0034851148
0.017776921 -0.007903047 -0.008308807 0.057707638 0.12597556 0.16920532 -0.1817878 -0.122284465
0.12637188 0.19363175 0.17310092 0.26965588 0.108264804 -0.15741825 -0.038659412 -0.27396896
-0.0670725 0.29897848 0.23589556 -0.2293071 -0.18210061 0.018596232 0.087539114 0.034770504
0.05518281 -0.32902288 0.08414097 0.19530073 0.21378267 0.05895518 -0.4101139 -0.11790546
0.2032212 0.1581441 -0.11852856 -0.31118095 0.1854947 0.08049878 -0.18769899 -0.16660482
-0.18219018 -0.005808538 -0.20096849 -0.24830958 -0.07156011 0.104167946 -0.100040525 0.034811802
-0.17599815 0.18840529 0.23544271 -0.1681263 -0.092061155 0.010332137 0.075740635 0.13303016
0.08353896 -0.018066484 -0.089528434 0.124516286 -0.14167744 -0.19386014 -0.16352537 -0.2565855
-0.29841432 -0.26307076 -0.03918299 -0.023899818 -0.23349907 -0.17735605 0.093961895 0.07646712
0.08683309 0.08153227 0.030342797 0.12015178 0.2767074 0.24297258 0.27216142 -0.024180964
-0.14703934 0.017000215 0.26338083 0.082026154 -0.0892741 -0.113280125 -0.23863375 -0.33001742
-0.19761826 -0.062909275 -0.010645469 -0.22824387 -0.13051873 -0.36582518 -0.21887557 -0.14744116
-0.012425491 -0.13113327 -0.27645725 -0.23323813 -0.095731854 0.085026264 -0.048796743 0.014809387
-0.18308233 -0.01872002 0.21244779 0.004097186 0.117874265 0.06519175 -0.110809036 0.19438836
0.07463072 0.073789574 0.3485857 -0.048430886 0.123797745 0.10814814 0.36103308 0.3035357
0.23212096 0.0646401 0.005017021 -0.007245542 -0.11978047 0.07682495 0.03551045 -0.0012353094
-0.29424173 -0.16268024 -0.3095314 -0.25006655 -0.2874291 -0.12976761 -0.33264622 -0.20611387
0.09761028 0.14162356 -0.13164985 -0.23052451 -0.27907124 0.24908939 0.009386234 0.24451596
0.019692788 -0.16326015 0.06912786 0.032087788 0.10580558 -0.047781557 -0.18111442 0.076393634
-0.056584556 0.009483193 0.1828228 -0.3338462 0.02371973 0.28919363 0.16889894 0.048368525
-0.34425262 0.15802033 -0.018339103 -0.20351575 -0.053200554 0.0017870715 0.1144353 0.3147253
-0.16365251 0.19068159 0.1746241 -0.0672302 0.2528893 -0.37363553 -0.053825732 0.096259765
0.04914968 0.3015833 -0.33600193 -0.04560926 0.1315137 -0.19785443 0.2684301 -0.43244308
-0.09174823 -0.01185769 -0.23397914 -0.04223501 0.29668555 0.0184764 -0.10392118 -0.21659656

bias f4 [32]
00000000: ac93 a439 03ce e3be db26 8c3e d263 80be
00000010: c529 41be f82d 0f3e 19e4 efbe 1978 bdbd
00000020: 464e 35bd e9c2 5fbb 84ae 89be 62be 24bd
00000030: 5075 dabc 3bb9 4bbe 9816 30be 4131 203e
00000040: df02 8fbd f6b6 63be 42c8 3bbd fc4d c5bb
00000050: 587b 913e a9f0 bdbe 83f4 c03d 14a7 24bd
00000060: 2b8c 7fbd c269 65be 2c8a 56bb 0514 8abc
00000070: 1008 11bd 10f1 d3bc 5234 be3d 4136 9dbe
0.00031390542 -0.44493112 0.27373394 -0.25076157 -0.1886359 0.1398238 -0.46853712 -0.092514224
-0.0442641 -0.0034143275 -0.26890957 -0.040220626 -0.026667267 -0.19894879 -0.17196119 0.15643789
-0.069829695 -0.22237763 -0.045845278 -0.0060212594 0.28414416 -0.37097672 0.09421637 -0.0401984
-0.062389534 -0.22403625 -0.0032736165 -0.01685525 -0.03540808 -0.025871783 0.09287323 -0.30705455

weight f4 [64, 32, 5, 5]
00000000: 25c5 70ba 172c 15bd 66e3 14bd 5401 f93c
00000010: 5bc6 c63c 0c1c 1ebc 41b4 d7bc bf90 c33b
00000020: ba47 093a 3702 123d db81 873b 0758 b13a
00000030: a974 733c 9d9b 3d3b 9e3c fd3c 20a3 013d
00000040: de15 83b9 558a 383c 08f5 9f3c ff4d 3a3d
00000050: 5ec5 7abc 060e ebbc a979 633b c784 cebc
00000060: ecef 9d3a 5f3d 89bc d120 2a3b 34e2 39bd
00000070: 01ad a33c baa9 733d aa5e 623b 27de 9ebc
00000080: 284b c33c 71e3 b1bc 8525 a93c 7864 adbc
00000090: d59a a4bc 77b5 3fbb bd84 ac39 fba3 353c
000000a0: 5f25 20bd 4811 0dbc 4e79 41bc 13cb a239
000000b0: 1347 003d 6923 0d3d 64e0 dcbc 3253 5dbc
000000c0: 6c36 4ebc 2142 02bd b77e d6bc 00a3 253d
000000d0: ef75 783c 601b bc3c f4aa 613c d327 11bd
000000e0: 7617 473c a763 fe3c 546b 31bc d4a8 eb3c
000000f0: d973 9d3b 06a4 043d 6b73 62bc ded5 db3c
00000100: d774 05bd 3311 bcba f6db dc3c 7e7c ba3c
00000110: b075 313d 9fae 043d 0ca9 a23c 4bd6 e93c
00000120: 8925 053d 1aa8 e93b 58d5 babc 9283 84bc
00000130: 622e 18bd 422a 85bc 8b0b 063d 6dbb 023d
00000140: b98b 143b e3f9 a4bc b81b 143d fcd9 943c
00000150: 025b 81bc 3922 04bd 13a8 debb 380f 183c
00000160: 9d06 a53c c5c7 a9bc a6eb 3ebd 486d 7cba
00000170: f815 993c e5f0 01bd 7dc9 a53c dfb9 4abd
00000180: 9010 3e3c 4f41 293b bb92 033d 0a24 30bd
00000190: 6687 debc 7510 ac3c 4d5c 963c db98 ab3c
000001a0: 035a a83c 1797 c6bc 5830 c53c a4c9 32bd
000001b0: 9243 e03b 1a9b f7bc 1b6e 8bbc 37fa 94ba
000001c0: d584 dcbc d86e f7bb e7a8 1ebd 2f99 04bd
000001d0: ff2e 0e3c 5027 cfbc f98b d8bc 15c3 d2bc
000001e0: b2d4 c8bc a74c edbc 8004 b33c 5d6f 383c
000001f0: d348 3abb 2190 cebc 8234 c4bb bad6 923b
00000200: b89a 90bc 92c5 b03c c566 333d 4b04 19bd
00000210: 92c2 86bc 6d5e 2f3c a450 1a3d f1ef 39bc
00000220: 2951 c33b 24f8 123d 976c ab3c 5b98 c73c
00000230: d93e 2d3d bd0d dd3c 3982 c3bb 9e77 9a3c
00000240: f6e2 163d 56eb 383d e219 a3bc 9d18 173d
00000250: 520c ea3b 79bd acbc dbfc d53c 597d c1bc
00000260: 9247 00bd db13 1abd 6fb3 8e3c 6563 7a3c
00000270: c4c0 4bbc 0b46 27bc 8d0e 5dbb 331a 683d
00000280: 3ceb 993c 3a6c 39bc 3538 1aba 6d90 aaba
00000290: e304 ee3c 6984 c53b 797d 803b a340 b4bc
000002a0: a103 eebb 73de 55bc 633d be3c 5147 c7bc
000002b0: 92be f8bc 9ab2 2e3b d4f1 b2bc 85e7 0bbd
000002c0: 0d88 61bc 3d95 5bbc bc78 3f3b 6edf e2bb
000002d0: 9e33 1f3c 0909 05bd 0cf4 95bc 3b6c 413c
000002e0: 9cef 8a3c eb73 24bc a63e f0bc 80e9 bdbb
000002f0: 4bd2 293c 5faa 1fbd 257c 16bd 9fd1 dcb8
00000300: 06ba 0fbd f8ac 56bd ad79 3abd cd10 e93c
00000310: 4afe d93b fd78 143d 4532 373d adf3 323c
00000320: 1511 30bb 1b5b eabc 2594 b93b 0e70 dd3c
00000330: cd6b 3cbc 7bde 3cbc 6719 34bd 0094 ad3c
00000340: 163a c0bc 8711 1e3d 6257 93bc 7a82 fabc
00000350: b097 c33c 7dc8 053c f5ba 223d 0b29 273b
00000360: bc3b 1ebd f089 c93c 4f67 f2bb 79e6 dbba
00000370: b7eb aa3b ce08 ae3c 62a5 24bd 4657 62bc
00000380: 854e fd3c bd72 863c 9a54 2e3d c14e 85bc
00000390: f85e 1cbb e773 f33c 31de 9d3c 27b2 363d
000003a0: f154 92bc 894d 28bc 6617 74bc 0af9 c8bc
000003b0: 0e9a e13c eb70 ed3c c0f9 fa3c 7060 28bc
000003c0: 2d9e c13c abf1 77bc b8fc 2e3d 8670 3abc
000003d0: 2c49 3fbd bbd8 213c 9448 2f3d 89af 1b3d
000003e0: bb29 4b3d 46d2 fabc be34 a83c edd0 b939
000003f0: b4c2 693c 701b 1dbb 40ea 003c 3022 613c
-0.000918465 -0.036419 -0.036349677 0.030396141 0.024264505 -0.009650242 -0.026331069 0.005968183
0.00052368233 0.035646643 0.004135353 0.0013530263 0.014859357 0.0028931864 0.030912694 0.03164971
-0.0002500256 0.01126345 0.01952602 0.04548454 -0.015305845 -0.02869321 0.0034709966 -0.025209798
0.0012049652 -0.016752897 0.0025959502 -0.04538174 0.019979956 0.059488036 0.0034541287 -0.01939304
0.023839548 -0.021714898 0.020647774 -0.021166071 -0.02009336 -0.0029252449 0.00032905294 0.011086459
-0.03909814 -0.008610077 -0.011808706 0.0003105035 0.03131778 0.034457598 -0.026962467 -0.013508605
-0.012586217 -0.031801347 -0.02618347 0.040438652 0.015164836 0.022962272 0.013773669 -0.03543837
0.01215159 0.031053377 -0.010828812 0.028767027 0.00480507 0.032382987 -0.013821463 0.026835378
-0.03258213 -0.0014348387 0.026960354 0.02276444 0.043325126 0.032393094 0.019855998 0.028544566
0.0325065 0.007130635 -0.022806808 -0.016176019 -0.03715361 -0.016255502 0.032725852 0.031917024
0.002266629 -0.020138687 0.036159247 0.01817035 -0.015790466 -0.0322592 -0.0067949384 0.009280972
0.020144755 -0.02072514 -0.04661145 -0.0009629321 0.018687233 -0.031723876 0.020237679 -0.049493667
0.0116006285 0.002582628 0.032122355 -0.04300312 -0.027164172 0.021003941 0.01835456 0.02094691
0.020550733 -0.024241967 0.024070904 -0.04364933 0.0068439925 -0.030225325 -0.017020276 -0.0011366074
-0.026918808 -0.0075510554 -0.038735297 -0.03237265 0.008678197 -0.0252873 -0.026433932 -0.025727788
-0.024515484 -0.028967215 0.021852732 0.01125702 -0.0028424754 -0.02521521 -0.0059877047 0.004481164
-0.0176519 0.021578584 0.04379918 -0.03735761 -0.0164502 0.010703665 0.03767456 -0.01134871
0.005960603 0.035881177 0.020925803 0.024364641 0.042296264 0.02698409 -0.0059664515 0.018855866
0.03683754 0.04514631 -0.019909803 0.036888707 0.007142582 -0.021086441 0.026121547 -0.02361934
-0.031318255 -0.037616592 0.017419545 0.015282487 -0.012436096 -0.010209571 -0.0033730597 0.05666561
0.018788926 -0.011317307 -0.0005883009 -0.0013013013 0.029055065 0.0060277474 0.0039212075 -0.022003477
-0.007263616 -0.013053524 0.02322263 -0.024325998 -0.030364309 0.0026656748 -0.021843828 -0.03415634
-0.013765347 -0.01340228 0.002921625 -0.0069236076 0.009716896 -0.03247932 -0.018304847 0.011805589
0.016959958 -0.010037403 -0.029326748 -0.0057956576 0.010365079 -0.038980838 -0.036739487 -0.000105294625
-0.035089515 -0.05241105 -0.045526195 0.028450394 0.006652628 0.036248196 0.044725675 0.010922355
-0.002686565 -0.028607896 0.005663412 0.02703097 -0.011500311 -0.011527653 -0.043969538 0.021188736
-0.023465198 0.038590934 -0.017986003 -0.030579794 0.023876041 0.008165476 0.039729077 0.0025506641
-0.038631186 0.024601907 -0.0073975693 -0.001677706 0.0052160877 0.021244433 -0.040196784 -0.013814753
0.03092123 0.016412133 0.04256115 -0.016272904 -0.0023860317 0.029718352 0.019270988 0.044603493
-0.017862769 -0.010272392 -0.014898157 -0.024532814 0.02753928 0.028984508 0.030636668 -0.010276899
0.023634994 -0.015133302 0.04272148 -0.011379367 -0.04670064 0.009878333 0.042793825 0.0380092
0.049600344 -0.030617844 0.020532962 0.00035441612 0.014267612 -0.0023972653 0.00786835 0.013741061

bias f4 [64]
00000000: 27b4 453d 2309 0bbd cbd5 5c3d 4b48 853c
00000010: 0262 24bd 93b0 963c bdf3 47bb b22a 4c3d
00000020: ec87 f93c 16c7 2a3d 2580 1dbd 7402 333c
00000030: 981b dd3c 6f1e ba3d 0b95 1bbd 592a 513d
00000040: cd43 1aba c7bb d13c b673 083d 0e3d 93bd
00000050: 3f46 6d3b f128 1fbd fe90 d23d f7bc 55bd
00000060: 99b8 ef3a 1ecf 74bc ebae acbd 00a9 963d
00000070: eb23 a2ba a07d ca3c a1ba e73b 6b4f be3c
00000080: 4ae8 6b3d 922a 9c3d 198d adbc 1167 7b3d
00000090: e1c6 5bbc 5eee a93d 8d60 46bd 6fd6 9b3c
000000a0: 9d67 fbbc 7657 fa3a 4e33 3d3c 22b9 26bc
000000b0: 04ec bdbc 3d97 613d 2e54 103e 1e8b b4bb
000000c0: e97e 2dbc 01c4 313b f694 423d 400b 323d
000000d0: 1baf 73bd e194 30bd 0bac d1bc e1a7 82bd
000000e0: d17b d93c 75b7 34bd bd9f 56bb 5254 14bd
000000f0: 894f 68bb 4a6d 853d 494b b6bd 19f7 413d
0.04826751 -0.03394426 0.053914826 0.016269824 -0.04013253 0.018394744 -0.003051027 0.049845405
0.03046032 0.04169377 -0.038452286 0.010925878 0.026990697 0.09087836 -0.037983935 0.051065776
-0.0005884737 0.025602235 0.033313476 -0.0718938 0.00362052 -0.038857404 0.10281561 -0.052182164
0.0018289267 -0.014941959 -0.084318005 0.07356453 -0.0012370324 0.024718106 0.0070718084 0.023231229
0.057594575 0.07625307 -0.021185445 0.06137759 -0.013414116 0.08297418 -0.04843192 0.019023148
-0.030689055 0.0019099552 0.0115478765 -0.010175975 -0.02318383 0.055075873 0.14094612 -0.005509748
-0.01058934 0.0027124884 0.04750534 0.04346776 -0.059493165 -0.043110732 -0.025594732 -0.063796766
0.026548298 -0.04412027 -0.003274902 -0.036213227 -0.0035447797 0.06514986 -0.08901078 0.04735479

weight f4 [512, 64]
00000000: fe79 cf3d 15ed 02be 9e44 6bbd b9f1 b9bd
00000010: 5769 ba3d 90c6 dc3d 6dcf b23d db6e 023e
00000020: 7eff 1abd 2daa ebbc 65d3 1d3d 2a5d c3bc
00000030: b689 0d3e daa1 833d 186c 6bbd 40de cb3d
00000040: 5168 ee3d 5f92 cc3d 39f0 5f3d b8ec a1bb
00000050: a7f7 06be dbbf 1e3d 129a 063d 1949 af3d
00000060: b713 233c d1a1 8b3d bb26 6b3d 89a6 8a3d
00000070: af1a c43c 020e 12be 5e89 ecbd 36e2 1c3e
00000080: 1427 93bd 8e6b 8d3d 235d 933d cf71 a6bd
00000090: 82d5 2fbc e5bd af3d 469c abbd 03c2 e2bc
000000a0: ef25 523d 293e 06bd 1a7b 323d f6db 27b9
000000b0: a26d aebd b97c a43d ec71 0a3e a3b6 043e
000000c0: 52bc dfbd bddd d73d 0481 89bd c0c5 d03c
000000d0: fa85 9d3d cbb1 06bc 751b 41bc b4da 2ebe
000000e0: e271 9f3c b965 b33c a88c b03d 2f52 d0bd
000000f0: 1d57 97bd 7ae5 053e ea9c f13c 3140 f6bc
00000100: 05d6 d93d 4883 ec3c 81a8 f43d d074 c33d
00000110: ed3a 033d 8f7e 833d db1a 1cbc ec86 f4bc
00000120: 6652 ef3d fc36 59bc 7e26 1dbd de83 b8bd
00000130: 8aab 48bd fe7e 0bbe 7add debd 3ad6 3d3d
00000140: 7b0e f5bd 91a6 343d 69c0 333d 8a29 b13d
00000150: e635 a73d cd96 683d 851b b33d 6870 12be
00000160: 33b9 8b3d 54ea d63d 65fd e13d ae07 debd
00000170: e4a6 dfbd 06c4 d53d 6003 bcbd f3a0 03be
00000180: 59b1 db3c afdf 133d b529 ef3d 9edf b2bd
00000190: ff13 923d f284 8fbc b72d b43c fc70 763d
000001a0: 4f5e cc3d 4a42 1e3c b8d1 693d 82ca a0bd
000001b0: ac4f bd3d 13a5 de3d 413e 743d 33f0 b2bd
000001c0: 2e05 d63d 87b1 e83c afcb 4d3d 375a 683d
000001d0: 297e b3bc 981b e83d 7ab3 a5bd 9523 023e
000001e0: 4fa8 ee3c ba4b 94bc b42d 05be 241d 8cbc
000001f0: 066c dcbd 258b fcbd 5a82 b5bd 0593 bb3d
00000200: 8813 623d e31c 4ebd 9a4f d7bc d6a6 49bd
00000210: 3d9c 56bb de5a 613d f95f 013e 999a cd3d
00000220: 5bb4 803c e725 a53d 0602 85bd b03a b1bb
00000230: 1eb2 033d 65ae 9ebd 1a92 22bc 2129 a93c
00000240: f6e5 e3bc bd23 fe3d 693a f2bd 4e42 543d
00000250: c9bc af3d a296 d5bd ccc2 d3bd bb42 44bd
00000260: bb32 413d 8055 f13c 9f96 f3bc 7488 8bbd
00000270: 8334 abbd 9c3b fdbd afc1 8abd 99fb f93d
00000280: 9748 a7bc 3586 30bc 4150 e4bd 4029 a13d
00000290: df69 56bd 6dec fabc f133 71bd 5cb1 3a3c
000002a0: 5b71 b4bc bcc0 873d 6772 fcbc 6ea9 9cbd
000002b0: 337a 92bd 41d6 ae3a 372f 093e aa03 923d
000002c0: d270 8b3c ec5a afbd faac 083e b0da a53d
000002d0: 294e 6d3d a2ed 9c3b 19a6 49bd de88 23bd
000002e0: 8ecf a43c d883 a63d 49d6 a13b 977f 613d
000002f0: 3cfc 353c 3749 8dbc 4829 b1bc 5dab 98bd
00000300: a7bd 523d 7941 14bd dd69 acbc ce3f edbd
00000310: 119c 023d a5c5 99bd 019c 403c c87b 99bc
00000320: 86e7 003e 165b ebbd 362e 923d 8f0b 393d
00000330: 6d86 f03d d706 e7bd 6696 b93d 4c9e 883d
00000340: 1de5 c23d d7a7 dc3d 74ab ce3d 6943 013d
00000350: 5829 3bbd c6b1 08bd 5f38 76bc 3a79 68bc
00000360: dfbb c2bd 1288 0c3d 9c3e d6bd 9890 cabd
00000370: 1646 07bd 4b95 dabd f701 b03d bc77 4bbd
00000380: 6418 e6bb 643e a9bd 9ed8 3c3c dcfd f83b
00000390: 093b bfbc c35c d6bd ad9c 77bd 5ca3 d13d
000003a0: 2e4e 2dbd 9f90 e2bd e2a0 65bd 0a7d c33d
000003b0: 402b d23c e3bb 76bc bd2a 9dbd ae60 efbd
000003c0: 50ea a13d bc24 9a3d 9842 c9bd c11b 8b3d
000003d0: 4a74 da3d 1833 0cbd d7c6 903d 922c de3d
000003e0: 25f1 e5bc 5053 4b3d ba86 553d 3d14 b9bd
000003f0: e8af 403d b22e f2bd a5cb 7d3c c5d2 8d3d
0.1013069 -0.12785752 -0.057438485 -0.09079308 0.09102123 0.1078006 0.087309696 0.127376
-0.037841313 -0.02876767 0.03853168 -0.023848135 0.13822064 0.06427355 -0.057476133 0.099545
0.116409905 0.099888556 0.054672454 -0.004941549 -0.1318041 0.038757186 0.032861777 0.08558864
0.009953431 0.068179734 0.057409983 0.06770045 0.023938505 -0.14263156 -0.11549638 0.15320668
-0.07185188 0.0690528 0.07195499 -0.08127176 -0.010732057 0.085811414 -0.08379416 -0.027680403
0.051305708 -0.032774124 0.04357443 -0.00016008303 -0.085170045 0.080316015 0.1352002 0.12960295
-0.10924591 0.1054034 -0.06714061 0.02548492 0.076915696 -0.0082211 -0.011786331 -0.17075616
0.019463483 0.021899091 0.08620578 -0.10171925 -0.073896624 0.1307582 0.029493768 -0.030059906
0.10636524 0.028871194 0.11946202 0.095437646 0.032038618 0.064206235 -0.009527887 -0.029849492
0.11685638 -0.013257738 -0.038366787 -0.09009527 -0.048991717 -0.13622662 -0.10882087 0.04634688
-0.119656526 0.044104163 0.04388467 0.08650501 0.08164577 0.05678444 0.08745483 -0.14300692
0.06822433 0.10493913 0.11034659 -0.108413085 -0.10920504 0.10437779 -0.09180331 -0.12854366
0.026817964 0.036101993 0.11677877 -0.08734058 0.0713272 -0.017519448 0.021994455 0.060166344
0.099789254 0.009659359 0.05708477 -0.07851125 0.09243712 0.10871329 0.059629682 -0.087372206
0.10450207 0.028404964 0.050243076 0.05672666 -0.021910744 0.11333388 -0.08090873 0.12708886
0.02913299 -0.018102515 -0.13005716 -0.01710374 -0.10762791 -0.12331227 -0.08862753 0.09158901
0.055194408 -0.050320517 -0.026283074 -0.049231373 -0.0032746934 0.0550183 0.12634267 0.10039253
0.015711 0.0806387 -0.064945266 -0.0054086074 0.032152288 -0.07748107 -0.009922529 0.020649495
-0.027819615 0.1240916 -0.11827547 0.051821046 0.0858093 -0.104291216 -0.10339889 -0.0479152
0.04716752 0.029459715 -0.029734908 -0.06813136 -0.08359625 -0.12364885 -0.067752235 0.122061916
-0.020420356 -0.010774185 -0.1114812 0.07869196 -0.05234706 -0.030630315 -0.058887426 0.011394825
-0.022026708 0.06628558 -0.03081627 -0.07649504 -0.07152214 0.0013338999 0.13396917 0.07129605
0.01702157 -0.08562264 0.13347235 0.08098352 0.057935867 0.00478907 -0.04923067 -0.03992545
0.020118501 0.08130616 0.004938875 0.05505332 0.011107501 -0.017246826 -0.02162613 -0.0745456
0.051450398 -0.036195252 -0.021046573 -0.115844354 0.031887118 -0.07508401 0.011755944 -0.018735781
0.12588319 -0.11491983 0.0713772 0.04517704 0.1174439 -0.112806015 0.09061889 0.06670818
0.09516356 0.107742004 0.10091296 0.031558428 -0.045693725 -0.033372663 -0.015028088 -0.014189059
-0.0950849 0.034309454 -0.104611605 -0.0989086 -0.033025824 -0.106730066 0.08594125 -0.049674734
-0.0070219506 -0.08263853 0.011526255 0.007598622 -0.02334358 -0.10466912 -0.060452152 0.102362365
-0.042310886 -0.110627405 -0.056061633 0.09545334 0.025655389 -0.015059444 -0.07674167 -0.11688362
0.0790602 0.07526538 -0.09827155 0.06792403 0.10666712 -0.034228414 0.07069176 0.10848345
-0.028069088 0.04964 0.05213044 -0.09037063 0.047042757 -0.11825313 0.015490447 0.06924967

bias f4 [512]
00000000: e44b 023e 9cb7 febd 7c03 a9bd 97cf a7bd
00000010: 94ce 943d c368 b8bd aa7d c2bd 1d03 313d
00000020: 178d abbd be6a c3bd 9638 0c3e e42e b73d
00000030: 773e c8bd 303f 2b3d 25e1 d73c 90ec 8b3d
00000040: 03cf a63d 888f 033e 4a3c 583d c0e2 ae3c
00000050: d80b 5dbc c68a 143d 3720 26bd 5995 e63d
00000060: 80f1 ef3d fa4d 7bbc 2c68 113d 0f0e d5bd
00000070: 207e ccbd a971 a5bd 1619 04bd bb55 a13d
00000080: 94eb f8bb af44 c8bd 8810 193d c508 8e3d
00000090: d35e 08be 0180 eebd 7de5 55bd aee6 fd3c
000000a0: 2e48 253d fab3 8cbd a0ce c33c dff7 1cbc
000000b0: 30bc 30bc a734 fe3d 9960 483d 15fe 44bc
000000c0: 892a 493d 211e 9cbd b690 cb3d a71f f6ba
000000d0: 4161 973d 5bf7 13bd f988 083d b384 963d
000000e0: 4d68 963d 1ccb 22bc 996b 7abd 26d1 753d
000000f0: 18ed e23d e83f 16bd abdc a8bc 2ecd 343c
00000100: 438d c83d 85c4 393d 151b 38bc e356 523d
00000110: 2d79 35bd 7f24 4bbd bba5 0a3e 355b c1bd
00000120: 4456 e6bd 45d8 67bb 3d5c e8bd fad2 1cbc
00000130: 6c5b 983d 238c 933b e61d a83c 8ebe ff3d
00000140: 5569 9ebd b8bd cd3d 642d ba3d 1134 1b3d
00000150: 4f56 8e3d 3f31 c4bd 8e8e a53c f108 95bc
00000160: 5b0e 67bd 182a f63c 2927 fcbd 73b3 dd3d
00000170: ce40 f4bd a176 113e 693b 3d3d b51a d53d
00000180: c03a 8ebd 7d2d 8dbd f2b3 fc3c e039 adbd
00000190: dc92 a7bd e0c1 fabd b894 9b3d 6490 8ebb
000001a0: 14e4 ce3d 85f9 fa3d 49e9 453d 59b3 393d
000001b0: 34e5 a2bd 36e1 483d 3fc2 04bb 849a efbd
000001c0: 89bd 2a3c 0bc9 f9bd 071e fabd d0be b4bd
000001d0: 55a6 4ebd 3615 e2bd dedf 253d 6dfc f0bd
000001e0: 4e0e d93c f2f7 aebd 2cee 953d f597 aa3d
000001f0: 2d85 0d3c fa2d fbbd 4c44 a93d 9100 753d
00000200: 6d83 debd 113b 743d 2e23 dcbd da47 c8bd
00000210: f006 95bc 6d7b 76bd 1878 55bd 01f1 af3d
00000220: 6167 e4bc a907 b13c a5a4 f5bd 7f36 223c
00000230: a44c 153d 269b fabd 809f 56bd 6039 74bc
00000240: 5cf7 e5bd 1ebb 0abd 6983 e23d f093 133e
00000250: 2db7 293e 5fb5 043e 0b2d 203e a9bf bbbd
00000260: 1d78 313d d35f d4bd 54cf e83d b9dd 07bd
00000270: 3348 073e 60e8 40bc a177 d7bc bb92 bc3d
00000280: c993 eb3d 532a 563d e31d 243d 9ddd 8b3d
00000290: d13e aebd dc1d 213c db9b 85bc 2504 b6bd
000002a0: beaa 3b3d 4d82 293d b0f8 46bd b301 203c
000002b0: dd83 eebd 5895 093e 2d0d ecbc e32b aa3d
000002c0: b4b2 d0bd bf09 b33c eb3b 75bd a844 f5bd
000002d0: a446 093e 7a4e 443d 723c 2fbd 5867 883d
000002e0: 6b02 d0bd d53a 013e ad30 b0bd 428b aabc
000002f0: fa85 993d a82b f9bd 82e2 903d 81db 0f3c
00000300: 0ac0 19bd 0560 643d 9b25 73bd ab2c edbc
00000310: a53f 8abd 85e8 00bd 3076 5bbd 1d48 58bd
00000320: ec31 433d 46ba 4f3d 76ae b8bd ce36 b03c
00000330: b917 de3d 2f81 63bd 427f 613d 902f b8bd
00000340: 1ce4 c73d 5fa4 fd3c b94f 5dbd a3f2 d43d
00000350: 29e5 203b babe 3e3d 5de6 91bd ac74 66bc
00000360: f193 92bd 93c0 b83d d993 c83d d803 6cbd
00000370: 765a 9a3c 8111 073d 7d81 343d 8aa5 8dbd
00000380: f99b 9d3c 5998 923d 4be7 c5bd 01ba f8bc
00000390: a7a4 273d cf81 bf3d 8eea debc ea3a 92bd
000003a0: 36a3 ba3c f22b 0c3d fba3 063e 843c c13d
000003b0: 15a4 f2bb 299e 81bc 4908 313d 207e f7bd
000003c0: d5c8 cb3d eaf4 c23d 19f1 6e3d a955 b4bd
000003d0: 0b0b 633c 7208 b13d 5229 973d e1fe 52bd
000003e0: 8c6f 00bd 2249 95bd ec03 093c 27ab f5bd
000003f0: 9c21 cc3d 356b 23bd da73 a03d beeb 19bd
0.12724262 -0.124373645 -0.08252618 -0.081938915 0.07265964 -0.09004357 -0.09496625 0.04321586
-0.0837652 -0.09541844 0.13693461 0.089444906 -0.09777539 0.041808307 0.026352474 0.0683223
0.08144953 0.12847722 0.05279187 0.021348357 -0.013491593 0.036265157 -0.040558066 0.112589546
0.11715984 -0.015338415 0.035499737 -0.10403072 -0.09984994 -0.080783196 -0.032250486 0.0787768
-0.0075964425 -0.09778725 0.03736928 0.069352664 -0.13317423 -0.116455086 -0.05222081 0.030993786
0.04035204 -0.06870265 0.023902237 -0.009580581 -0.010787055 0.124123864 0.048920248 -0.0120234685
0.04911283 -0.07622934 0.09939711 -0.0018777744 0.073915966 -0.03612457 0.033333752 0.07349529
0.073441125 -0.00993612 -0.06113777 0.060013913 0.11080378 -0.03668204 -0.020613035 0.011035247
0.097925685 0.04535343 -0.011236926 0.051352393 -0.044305015 -0.049595352 0.13539784 -0.094412245
-0.112469226 -0.003537671 -0.11345718 -0.009571785 0.07439312 0.0045027896 0.02052207 0.12487517
-0.07734934 0.100459516 0.09090689 0.03789145 0.06950056 -0.095797054 0.020209577 -0.01819274
-0.056410175 0.030049369 -0.12312157 0.10825243 -0.11926423 0.1420541 0.046199236 0.104054846
-0.069447994 -0.06893442 0.030847523 -0.084583044 -0.08182308 -0.1224401 0.07596725 -0.004350709
0.10102096 0.12254623 0.04831818 0.045337055 -0.07953873 0.049042903 -0.0020257381 -0.116993934
0.010421165 -0.12196549 -0.122127585 -0.08825457 -0.050451595 -0.11039202 0.0404967 -0.117668964
0.026496079 -0.085433856 0.07320818 0.08329765 0.008637709 -0.12264629 0.0826498 0.059814993
-0.10864911 0.059626643 -0.107488975 -0.097793296 -0.018191785 -0.0601763 -0.052116483 0.0859089
-0.027881326 0.021610098 -0.11994294 0.009900688 0.036450043 -0.122366235 -0.052398205 -0.014906257
-0.11228821 -0.033869855 0.11060221 0.14411902 0.16573782 0.12959813 0.15642183 -0.09167416
0.04332744 -0.103698395 0.1136767 -0.033170436 0.13211136 -0.0117741525 -0.02630216 0.09207674
0.11502797 0.052286457 0.040067565 0.06829379 -0.08508075 0.009833779 -0.01630967 -0.08887509
0.04581713 0.04138403 -0.04857701 0.00976603 -0.11646245 0.13435876 -0.028814876 0.08309152
-0.10190335 0.021855233 -0.059871595 -0.11975986 0.13405854 0.047926404 -0.042782255 0.06660336
-0.10156711 0.12620099 -0.08603034 -0.020818356 0.07496257 -0.1216653 0.07074453 0.008780361
-0.03753666 0.055755634 -0.059362035 -0.028951963 -0.067504205 -0.031471748 -0.05357951 -0.052803148
0.04765503 0.050714754 -0.09017651 0.021510508 0.108443685 -0.05554312 0.055053003 -0.08993447
0.09760305 0.030962167 -0.054031108 0.10397842 0.0024550653 0.04656861 -0.071240164 -0.014065903
-0.07157124 0.090211056 0.09793825 -0.057620853 0.018841963 0.032975677 0.044068802 -0.0691634
0.019239413 0.07157964 -0.09663256 -0.030362131 0.04092851 0.09350931 -0.027211454 -0.07140143
0.022782903 0.034221597 0.13148491 0.094353706 -0.007404814 -0.015822487 0.043220792 -0.12084603
0.09950415 0.0951937 0.058335397 -0.08805401 0.013857613 0.08644189 0.07380928 -0.051512603
-0.03135638 -0.072893396 0.008362751 -0.11995535 0.09967348 -0.039897162 0.07834597 -0.037578337

weight f4 [200, 512]
00000000: 3931 76bc e5a6 01bd 7e4c ed3c 4cee d13c
00000010: 828f 083d a3e5 233d 069d 6f3c ccfb 203c
00000020: 8326 a43c 1508 bebc 44b8 f5bb 9503 f339
00000030: 8182 b4bc 8699 afbb a5c4 caba 0a09 90b9
00000040: 13a8 c23b 284d a9bc d5f0 2c3d acf7 7e3c
00000050: 8052 14bc bc78 e9bc 60b2 e4bc d91b a33c
00000060: 94ee 0ebd 16dd 67bc 996d a9bc 09e4 febb
00000070: 32f2 0cbd 27f4 63bc e664 9bbc 3856 573b
00000080: 803d 273b eea3 9ebc 7f07 023c e41c d6bc
00000090: f174 15bc a013 97bc 04f0 10bd d872 87bb
000000a0: 62fe db39 2179 013d d408 95bc 768b 2bbc
000000b0: a902 243d 8d1a 1abc 2a1f e73c c598 89ba
000000c0: a89b b43c a93b 21bd 0d6a 27bd 44b5 263d
000000d0: 55b1 ea3c 1339 7a3c 990d 87bc 8e0c 303d
000000e0: a14a d23b ffce 0dbb e23e 513c 91ac d93c
000000f0: 7ce2 a6bc 02aa d93c 07e4 18bd 71b1 22bd
00000100: ce9d aabc 0f21 2cbd fba9 b2bc 0f8a 733a
00000110: 8ce9 2c3d 286e 05bd c3e6 183d ddf9 1d3c
00000120: 805a 22bb ed85 903b 230a 00bd 623b 1bbd
00000130: c8d8 2fba 6a54 d63b 0cc4 c1bc 3e5d 83bc
00000140: 25ca 1b3d 860a 08bd 2e83 133d 68d8 983b
00000150: 5e67 22bd a2a4 dabb de09 bdbc 6479 b23c
00000160: 3858 083d 6ccc acbc 9c9a cbbc 8223 15bb
00000170: f0e9 11bc f39d 733c d229 023d 0795 9f3c
00000180: 5e96 db3c c0fd a73c 4252 d0bc 6665 24bd
00000190: 89ac 26bd a993 223d 857c a6ba 27ba 07bd
000001a0: 2629 093d 1c49 843c e654 acbc 8ca7 0fbc
000001b0: eed1 e438 046d 213d aade e1bc 4aac b73c
000001c0: 0e2f b0bc 42e6 bf3c e119 273d 1037 0b3c
000001d0: 7878 3fbc 434b 32bd a1ed bd3c 4510 d53c
000001e0: b167 87bb 592d 0fbd 2cab 0abc 655b e83c
000001f0: 4622 20bd f4ff 1ebd c33f e5bc 4ebb 583b
00000200: 970d 0b3d 88da 1a3d 1905 103d 4afd 65bc
00000210: e3f2 0f3c c2f2 d03c 649d b9bb 52b4 0d3d
00000220: 9f4f 6e3c 4c19 04bd 1f94 07bd ea3e 063b
00000230: 26d0 37bd d332 bcbc ec66 093c 79b7 a83c
00000240: 4a37 f2bc 71fd febc 4d6d 3bbc da55 2b3d
00000250: 5a6b 6cbc 3733 273d 3b45 d5bc f0fc b2bc
00000260: a953 a83c aacd ab3a 6208 adbc 436c f83b
00000270: e117 dbbc 1d29 adba 47e2 0cbc d7f5 813b
00000280: 8927 c73c 9479 12bd 3417 943b 2177 6b3c
00000290: 6a3d 96bb 103e fd3c 5a3b 303d ef59 063d
000002a0: ff77 8e3c 1160 143c 6246 d1ba ae59 8fbc
000002b0: 2603 303d 8444 11bc b0c9 4c3b 9d05 febc
000002c0: 15b0 b5bc 84e6 443c 64a1 f7bc 2692 a5bc
000002d0: 5872 b43c 67ff 22bd be50 09bd 3e49 5b3c
000002e0: 50dd 9b3b 4e1a 453a 3838 2f3d 779a a2bc
000002f0: a8ed 22bd 2f19 273d 6d11 28bc b94f 8fbc
00000300: 429c d83b b544 26bd eb52 f1bc 58e8 093c
00000310: 28a9 c23c 8efb 44bc 05a8 1bbd 6f6e 0ebd
00000320: 89df 8f3b 4fe3 22bd c1a1 233d bf64 243d
00000330: 2958 89ba f1c9 73bc a13c d73c cc7d 28bd
00000340: 494e a7bc 2c95 083c 21c6 503c f46c 9dbc
00000350: e58e 0dbb baa1 703c 76fb 39bc f50e 56bc
00000360: 00f4 fe39 09ed 1bbd 93f4 603c 0c9f d0bc
00000370: 69f9 1e3d 3116 32bd 8ada 943c e316 183d
00000380: 55ae 9fbc fa37 f4bc 188c 073d 582c 8bbc
00000390: afda d7bc 6970 b43c 2322 a23c 73b8 9e3c
000003a0: 4745 1ebd 6887 94bc fe9c 143d 86ea 283d
000003b0: b972 0bbd f6d7 f1bc 2928 2abd 8cf3 093d
000003c0: 71e9 073d 7585 213c 9cf9 d73c 3961 1bbb
000003d0: 2f95 12bd 555b a2bb c0bc a73b 60b3 003b
000003e0: be30 83bb 91ed c1bc 63ab 883b e22e 273d
000003f0: c238 393c 33e8 28bd 1bf9 ecbc 74d6 bb3a
-0.015026384 -0.031653304 0.028967138 0.025626324 0.033339985 0.04001392 0.01462484 0.009825658
0.020037895 -0.023197213 -0.007498773 0.0004635124 -0.022034885 -0.0053588776 -0.0015469982 -0.00027472555
0.005940446 -0.020666674 0.042221863 0.015561979 -0.009052873 -0.028499953 -0.027917087 0.01991074
-0.034895495 -0.014151832 -0.020682143 -0.0077786488 -0.034410663 -0.013913191 -0.01896901 0.0032857787
0.0025518835 -0.019365277 0.0079363575 -0.026136823 -0.009122119 -0.018441975 -0.035385147 -0.0041335635
0.00041960465 0.03160966 -0.018192686 -0.010470262 0.0400416 -0.009405744 0.028213102 -0.0010497799
0.022046879 -0.039363537 -0.040872622 0.040700212 0.028649012 0.015272397 -0.016485976 0.042980723
0.006417588 -0.0021638272 0.01277134 0.026571544 -0.020371668 0.026570324 -0.03732684 -0.039720003
-0.0208272 -0.042023715 -0.021809569 0.00092902867 0.042214915 -0.032575756 0.037329447 0.009642092
-0.002477318 0.0044104964 -0.031259667 -0.03789843 -0.0006708023 0.0065408247 -0.023653053 -0.016035672
0.038034577 -0.03321316 0.036013775 0.0046644695 -0.03964936 -0.006672458 -0.023075994 0.0217864
0.033287257 -0.02109357 -0.024853997 -0.002275676 -0.008905873 0.014869201 0.031778164 0.019480241
0.0268051 0.02050674 -0.025429849 -0.040135764 -0.040691886 0.0396916 -0.0012701905 -0.033136513
0.033486508 0.016148143 -0.021036576 -0.008767974 0.0001091099 0.039410606 -0.027571995 0.022421021
-0.021506812 0.023425225 0.040796164 0.008497015 -0.011686437 -0.043528806 0.0231846 0.026008734
-0.004132234 -0.034955356 -0.008463662 0.028363893 -0.039095186 -0.038818315 -0.027984506 0.0033070627
0.033948507 0.037806064 0.03516111 -0.01403744 0.008785936 0.025506381 -0.0056645144 0.034595795
0.01454535 -0.032250687 -0.033100244 0.0020484277 -0.04487624 -0.022973454 0.008386355 0.0205953
-0.02956738 -0.03112671 -0.011439634 0.04182992 -0.0144298915 0.040820327 -0.026033988 -0.021849126
0.020547705 0.0013107557 -0.021122161 0.007581265 -0.026744785 -0.0013211105 -0.008598871 0.003966074
0.024310844 -0.035760477 0.0045193676 0.014371664 -0.004584958 0.030913383 0.043025352 0.03280061
0.017391203 0.009056107 -0.001596641 -0.017498817 0.042971753 -0.008866433 0.0031248145 -0.031008536
-0.022178689 0.01201785 -0.030228324 -0.02021129 0.02202718 -0.039794352 -0.033524267 0.0133841615
0.004756607 0.00075188733 0.042778224 -0.019849045 -0.039777428 0.0407955 -0.010258061 -0.01749407
0.0066104243 -0.040592868 -0.029458484 0.0084172115 0.0237623 -0.012022866 -0.038002033 -0.034773286
0.004390661 -0.03976756 0.039949182 0.04013514 -0.0010478544 -0.01487969 0.026274027 -0.041135594
-0.020423071 0.008336347 0.01274255 -0.019216992 -0.0021600064 0.014686996 -0.011351457 -0.0130650895
0.0004862845 -0.03806785 0.013730186 -0.025466464 0.038812075 -0.043478195 0.018170614 0.0371312
-0.019492308 -0.029811848 0.03309259 -0.016988918 -0.026349394 0.022026258 0.019791668 0.019375062
-0.038640287 -0.018130973 0.036282532 0.041239284 -0.034044955 -0.029521924 -0.041542206 0.03367953
0.03318161 0.009858479 0.02636414 -0.0023709072 -0.035786804 -0.0049547353 0.0051189363 0.0019638166
-0.0040036133 -0.02367285 0.0041708215 0.040816195 0.011305036 -0.041237067 -0.028927376 0.001433088

bias f4 [200]
00000000: 6792 3bbd 105a 1b3c 6479 b33e cb2d 1a3d
00000010: 3b5a 613d 9036 b8bd a122 e4bc d3ba a83a
00000020: 9507 2dbb 29d1 2b3d 342e c93c ffcd 253d
00000030: 419e 073d f30d 32bd 6592 11bd b99c 95bc
00000040: 6f56 26bb ea5b 0ebd 4e0d 4b3c ea66 43bc
00000050: 0091 10bc 70b9 183d 1378 2ebd cf5b 28bc
00000060: 5f11 1c3c 4a06 653c 150c 5bbc 4c7f 85bc
00000070: 0575 2bbd c545 933c 905d b9bc da52 55bc
00000080: 16da 1f3d f9eb a0bc 348e b33c 4857 ad3c
00000090: f08b 01bd 0a33 1fbd 44fc 25bd 515c c2bc
000000a0: 35e4 713c 3711 0abd fc63 2e3c 2454 98bc
000000b0: f656 0f3d 0f1e 2cbd 095e 793b 3776 b2bc
000000c0: d66b 2dbd 1fb5 433c 8e3c fa3b 75ce fa3b
000000d0: 7fcc 323c a81d ebbc 2a79 30bd ef60 d23c
000000e0: d686 c7bb 0a66 a1bc d87f 8e3c d98b 3dbc
000000f0: 10bc 2a3d d384 aabc 38c4 4b3b c7f4 36bd
00000100: f017 d2bc 08c8 43bc 7171 5dbc d33b 183d
00000110: fc09 9c3b d6c1 bc3c 2fca 5dbc 04aa 783c
00000120: 941a 0dbd 973b 2cbb 61b7 b7ba 8340 fe3a
00000130: f3b4 fdba 8e5f 8d3c 6789 36ba a4b6 c5bc
00000140: 22a9 75bc e8f7 d73b cea3 19bc fef7 babb
00000150: c3f0 b6bc 37cb 163c cae3 eabb 1508 39bd
00000160: b98c d9bb 3540 34bd 99ba 07bb 7a97 1dbd
00000170: ee56 423c 09e2 883c eabe 29bc 0bac 85bc
00000180: f298 4d3c c94d 093d 564b 943c 42e7 e83c
00000190: 2060 223d 5785 41bc 4597 95bc e1ef 2cbd
000001a0: ce7e 7a3c 11ae 083d c027 29bc 96b9 3c3b
000001b0: 2762 de3b 671d 2bbd a2cd 6fbb 9e58 d8bc
000001c0: 8d76 d83c 94a4 6f3c e7c6 ecbc 0ee6 92bc
000001d0: 5086 523c 734d 183d 419a 2cbc d4ff 45bc
000001e0: 2ea5 0dbc 6030 cf3a 9535 f63a a760 47bc
000001f0: 423e c53b 7f36 d6ba d7c2 543b 6625 0fbd
00000200: f53b 803c 719a f53c 1dd6 153c 1896 c8bc
00000210: 7708 a83c ac16 223d 0311 98bc cd22 403c
00000220: 2673 81bc 8d50 04bc 203a ba3c facd a6b9
00000230: c51d 49bc 589c dc3c 94fa 02bd a165 99bc
00000240: aaac ee3c 78fe 273d 4261 b9bc 49f7 273d
00000250: 6c19 1a3d 32d3 763c e4f1 c5bc 14fc c53b
00000260: b32f dbbc b403 0b3d aac9 683c a0cc 03ba
00000270: b304 163d 69d9 773b fe79 f9bc 71ab ee3c
00000280: 92db 3abd b2d4 11bd 2ea2 053d 4eee bbbc
00000290: 1ae9 10bc fdf5 25bd 511b cdbc eebd e03c
000002a0: 42b3 973c d968 a9bc bc74 0b3b c23c 2d3d
000002b0: 147c c33c 13f4 f03c 488e f5bc 313d 5c3c
000002c0: 6c04 c6bc 79e8 44bc 3a2f 32bc 8931 c1bc
000002d0: 60a3 913c 2e52 2b3d 8bff d3bc f598 b8bc
000002e0: c680 90bc 839f 063d 9d49 34bc d051 d4bc
000002f0: 57c0 c0bb 7dc6 adbc 6246 12bd 6d32 59bc
00000300: aeb1 b93c 3926 f23c 24d9 c4bc dc76 82bc
00000310: f97b c3bc 44c2 223a bbce 1fbb 16b3 1d3d
-0.045793917 0.009481922 0.3505355 0.037641328 0.05501769 -0.08994782 -0.027848544 0.0012873061
-0.0026402224 0.041947518 0.024558164 0.040479656 0.033109907 -0.043470334 -0.035540003 -0.018263208
-0.0025381108 -0.034755625 0.012393309 -0.011926392 -0.008823633 0.037286222 -0.04259498 -0.010275795
0.009525626 0.01397855 -0.01336958 -0.016296051 -0.041859645 0.017977605 -0.022627622 -0.013020242
0.039026342 -0.01964377 0.021918394 0.021159783 -0.031627595 -0.038867034 -0.040523782 -0.02372566
0.014763881 -0.033707824 0.010643955 -0.018594809 0.03499504 -0.042020854 0.0038050434 -0.021784885
-0.04233917 0.011945038 0.007636613 0.007654006 0.0109130135 -0.028700665 -0.0430843 0.025680987
-0.0060890717 -0.019701976 0.017394945 -0.011568987 0.041683257 -0.020815289 0.0031092297 -0.04466703
-0.02564618 -0.011949547 -0.013515816 0.037166428 0.0047619324 0.023041647 -0.013536974 0.015177254
-0.034449175 -0.0026280636 -0.0014016443 0.0019397888 -0.0019356295 0.017257478 -0.00069632236 -0.024134941
-0.014993938 0.006590832 -0.009377433 -0.0057058325 -0.022331601 0.009203724 -0.007168268 -0.045173723
-0.00663909 -0.044006545 -0.0020710586 -0.038474537 0.011861546 0.016709344 -0.010360459 -0.016317388
0.012548672 0.033521447 0.01810233 0.028430585 0.039642453 -0.011811576 -0.018260607 -0.042220954
0.015289022 0.033369128 -0.010324419 0.0028797141 0.006786603 -0.041776087 -0.0036591073 -0.026409443
0.026423717 0.014626641 -0.028903438 -0.017931964 0.012849405 0.037183236 -0.010534824 -0.01208492
-0.008645339 0.0015807264 0.0018784279 -0.01216904 0.0060193846 -0.0016343145 0.0032464766 -0.034947775
0.01565359 0.02998087 0.009145287 -0.024485633 0.020511849 0.039572403 -0.0185628 0.011727047
-0.015801977 -0.008075845 0.022732794 -0.00031815452 -0.012275164 0.02693002 -0.03197725 -0.018725218
0.029135067 0.041014165 -0.022629384 0.041007314 0.0376219 0.015065001 -0.024163194 0.006042013
-0.026756143 0.03393908 0.014208237 -0.0005027745 0.036625575 0.0037818796 -0.030453678 0.029134484
-0.045619555 -0.035603233 0.03262537 -0.022940781 -0.008844638 -0.040517796 -0.02503744 0.027434316
0.018518094 -0.020679878 0.0021279296 0.04229427 0.023862876 0.029413259 -0.029975072 0.013442324
-0.02417203 -0.012018316 -0.0108755175 -0.02358319 0.017778099 0.04182642 -0.025878688 -0.022533873
-0.017639529 0.032866966 -0.011003879 -0.025917917 -0.0058823037 -0.02121281 -0.035711654 -0.013256651
0.022667732 0.029559242 -0.024029322 -0.015925817 -0.023862826 0.00062087574 -0.0024384696 0.038500868
