system/models/FashionMNIST/CNN/FedPer_BaseHeadSplit_FashionMNIST_client_8.pt (torch, 760036 bytes, 8 tensors)

weight f4 [32, 1, 5, 5]
00000000: 4349 c23c 7290 163d e97b 85be a1a3 b7be
00000010: 33a4 38be 74f2 193e a032 3839 f959 f83d
00000020: 1fa0 4ebe 7433 8bbd bff1 9b3d af69 3e3d
00000030: 11e7 03be 7401 5abe 888f 14be 7f31 163e
00000040: c1fd 383e 3515 383e cba1 24be 6420 ddbd
00000050: b4c6 573e 43e3 993e bd59 703d 8086 fb3d
00000060: 3d33 02bd 0cc8 a53d 981f 083e 324f 7dbe
00000070: ec50 4dbe 0a39 02be e76a 22bc 68d1 0c3e
00000080: ee32 31be c9e6 38be 65a7 53be 8b46 0abe
00000090: bed0 05be b9d7 0f3e 4845 f53a 1180 b63c
000000a0: 90c0 5a3d 3735 d3bd d37b c53c c869 5abe
000000b0: 6e17 3ebe 0523 78bd 9a5e b93d 5bc2 cf3d
000000c0: dd91 c4bd 8e46 82bd 1e72 2f3e 20be 773e
000000d0: 97fb 9e3d 64c3 b7bb 2330 863d 55c9 f3bd
000000e0: da79 283d 4213 52be 46f9 50be 8d89 3dbe
000000f0: 8aef eb3d 666e a03d 58cb 36be 8772 233b
00000100: a1ac fe3c 360a a0ba 517c b33b 8fc0 8c3d
00000110: 2fe8 0b3e 5d6e 3d3e 7bcc 38be c4c9 ebbd
00000120: c100 073e 4f33 4a3e 1296 393e b136 853e
00000130: 3aa0 cc3d fe38 26be 019a 4bbd ae8b 90be
00000140: eddf 91bd 0698 953e 7419 6f3e 33fd 7abe
00000150: 8246 45be 4b77 e63b a196 9e3d 6c17 f73c
00000160: 5992 273d 6081 aebe b2da 983d 32da 3e3e
00000170: ef06 503e 8881 393d e409 d8be f371 05be
00000180: 54e0 443e 1e1b 193e 2ce0 07be 8fbf a6be
00000190: eb63 3e3e 5ca6 973d 11ea 45be 9562 2fbe
000001a0: 6b8a 3abe b891 aeba f4f1 52be c9b6 82be
000001b0: d82a 99bd 8692 db3d 853c bdbd 24e2 023d
000001c0: c541 3bbe e599 403e 324f 713e 0c9c 24be
000001d0: 9e63 c2bd 94c9 413b 4a3f 9b3d e70b 093e
000001e0: 5b47 b73d 957b a4bc 5ef5 bcbd 60b8 003e
000001f0: 99b4 0cbe d7d7 48be bbbe 24be eedf 7dbe
00000200: 93c1 97be 0d57 85be dc85 30bd 1904 c6bc
00000210: e985 6ebe cd39 30be 3119 c23d a9b6 903d
00000220: 96dd b13d 3f4d b63d 8f15 173d 6dd9 f53d
00000230: 7d8f 8b3e 1558 7e3e 8d69 903e 9608 86bc
00000240: 46cf 1abe 958d 013c bab8 873e 27a2 be3d
00000250: fd57 bdbd eba5 fbbd 9b44 6abe 8a75 a7be
00000260: 6c8b 4bbe f1b3 83bd 9077 d9bb 2a13 57be
00000270: 9ef3 ffbd e1f6 b9be f35d 60be 6004 11be
00000280: 25a1 e839 1e35 fdbd 161f 8cbe 38fa 6cbe
00000290: 707f c3bd 93d2 c43d bd24 30bd 2aa4 a23c
000002a0: 078b 39be ae01 80bc 8b8c 623e 8d16 e03b
000002b0: bfe0 ed3d 0658 613d 69b1 dcbd e7a2 493e
000002c0: 4c0e b83d 255c c03d 585d b93e 8619 04bd
000002d0: a97e ff3d b83a f33d c44d be3e ef60 a13e
000002e0: bf1b 773e 2e08 903d 43ef 9d3c a299 8b3b
000002f0: dab0 d3bd 6015 ad3d 7124 173d 519f 8f3b
00000300: d932 91be f744 1bbe 5a92 9cbe c6e8 80be
00000310: 79e5 90be 6d06 01be 96f4 a8be 4846 51be
00000320: 73a8 b93d ad32 073e 8e5a 05be f407 78be
00000330: 39a5 93be 1725 733e 116d ddba 42c4 793e
00000340: 284e e23b 7720 39be 3fba 5d3d c8cd a33c
00000350: b01e d13d 7b15 72bd 0061 46be 0277 853d
00000360: 2727 8dbd fc16 f63b bc86 353e a81e afbe
00000370: 8ea0 803c b963 8f3e 49ff 2d3e 065d 313d
00000380: 0106 b5be 920d 213e 3c4a cfbc 804b 5abe
00000390: cdf0 64bd df6e 2abb 2576 f03d d379 a13e
000003a0: 0f19 2fbe cc5b 423e 1bc7 313e 5f9a 84bd
000003b0: f60b 833e d03b c6be c38a 68bd e2cf bd3d
000003c0: 4bc4 613d 362b 9f3e e352 b0be be0d 40bd
000003d0: b6cb 033e 284d 43be f838 8f3e 23cf ddbe
000003e0: 8e33 b3bd fe76 23bc a634 70be 8130 2abd
000003f0: 7b5c 9e3e 9a59 bf3c 66a2 d1bd 1758 67be
0.023716575 0.036758848 -0.26071098 -0.35867026 -0.18031387 0.15033895 0.00017566467 0.12126536
-0.20178269 -0.06796923 0.07614469 0.046487506 -0.12881114 -0.21289617 -0.14507878 0.14667319
0.1806555 0.1797684 -0.16077344 -0.10797194 0.21071893 0.300562 0.05867933 0.12281513
-0.031787146 0.080947965 0.13293302 -0.24737242 -0.200504 -0.12717071 -0.009913183 0.13751757
-0.17304584 -0.18056788 -0.20669325 -0.13503473 -0.1306791 0.14047135 0.0018712664 0.022277864
0.0534063 -0.10312884 0.024106896 -0.21329415 -0.18563625 -0.060580272 0.09051247 0.10144492
-0.09598134 -0.063611135 0.17133376 0.2419362 0.07762831 -0.005608009 0.0655215 -0.119036354
0.04113183 -0.20515159 -0.2040759 -0.18509503 0.11520298 0.07833557 -0.17851007 0.002494009
0.031088175 -0.0012210074 0.005477466 0.06872665 0.1366279 0.18499132 -0.18046753 -0.11513093
0.13183881 0.19746135 0.18123654 0.2601829 0.09991498 -0.16232678 -0.049707416 -0.28231567
-0.071227886 0.29217547 0.23349553 -0.2451065 -0.19265178 0.007033264 0.07743574 0.030162536
0.040911052 -0.3408308 0.07463588 0.18637922 0.20315145 0.045289546 -0.42195046 -0.1303175
0.192262 0.1495175 -0.13269109 -0.32568023 0.18592803 0.074047774 -0.1932757 -0.1712745
-0.18216865 -0.0013318574 -0.2060011 -0.2553008 -0.07478875 0.107213065 -0.09240059 0.031953946
-0.18286808 0.18808706 0.23565367 -0.16075152 -0.09491657 0.0029569613 0.07580431 0.13383447
0.08949157 -0.02007846 -0.092264876 0.12570333 -0.13740768 -0.19613586 -0.16088383 -0.24792454
-0.29639873 -0.26042977 -0.04309641 -0.024171876 -0.2329327 -0.17209549 0.09477461 0.0706609
0.08684842 0.08901452 0.036885794 0.12004361 0.2725791 0.24838288 0.2820553 -0.016361516
-0.15118131 0.007907291 0.26508123 0.09308272 -0.09245298 -0.12287506 -0.22877733 -0.32706863
-0.19877404 -0.064308055 -0.0066365674 -0.21003404 -0.12497638 -0.36321166 -0.21910839 -0.14161825
0.0004437055 -0.12363647 -0.27367467 -0.23142326 -0.09545791 0.09610476 -0.043003786 0.01985367
-0.18119441 -0.015625801 0.22123925 0.0068386258 0.116151325 0.055015586 -0.10776026 0.19691049
0.08987102 0.09392575 0.36204028 -0.032250904 0.124753304 0.11876434 0.37168705 0.31519267
0.24131678 0.0703281 0.019279128 0.004260258 -0.10336466 0.084513426 0.036899988 0.0043830057
-0.28359106 -0.15163027 -0.30580407 -0.25177592 -0.28300074 -0.12600107 -0.32999104 -0.20436966
0.09065332 0.13202925 -0.13022825 -0.24221784 -0.28836992 0.23744617 -0.0016893466 0.24391273
0.0069062896 -0.1807879 0.054132696 0.019995585 0.10210931 -0.059102517 -0.1937294 0.065168396
-0.06892233 0.007510064 0.17727178 -0.34203076 0.015701558 0.2800577 0.16991915 0.043301605
-0.35356143 0.15727833 -0.025303952 -0.21317863 -0.055893708 -0.0026006026 0.11741284 0.31538257
-0.17099403 0.1898033 0.17361109 -0.064747564 0.25595063 -0.38717508 -0.05677296 0.09268166
0.05511884 0.31087655 -0.34438238 -0.046888106 0.12870678 -0.19072402 0.2797315 -0.43322095
-0.08750068 -0.0099771 -0.23457584 -0.041550163 0.30929932 0.023358155 -0.10236053 -0.22592197

bias f4 [32]
00000000: 5fc1 98bb 1703 edbe b56e 973e ba34 82be
00000010: 3b0c 4abe fad2 0b3e c643 00bf 2ca2 cebd
00000020: cb6e 57bd fd3e 56ba 1ac3 90be 1da4 29bd
00000030: 8a11 e3bc e49d 43be 00a1 38be 6c14 183e
00000040: ab9f 93bd fdc6 71be a600 83bd 1bd9 0cbb
00000050: 8ea5 8c3e b7f9 c7be 2649 d43d 9436 62bd
00000060: dd08 59bd 23a6 74be f1ab 92bc b171 8ebc
00000070: 4c08 2cbd 0b44 46bd 7543 963d b730 a2be
-0.0046617235 -0.4629142 0.2957665 -0.25430852 -0.19731228 0.136547 -0.50103414 -0.100895256
-0.052595895 -0.0008172838 -0.2827385 -0.041416276 -0.027718324 -0.19103199 -0.18030167 0.1485154
-0.072081886 -0.23611064 -0.06396608 -0.002149171 0.27470058 -0.39057705 0.103655145 -0.05522783
-0.05298697 -0.23891501 -0.017904254 -0.017388197 -0.0420001 -0.048404735 0.07337085 -0.3167779

weight f4 [64, 32, 5, 5]
00000000: 280b 74ba c074 15bd 0c9a 17bd 1bbe eb3c
00000010: 9029 ca3c 6a64 26bc ba43 dcbc 0a46 9c3b
00000020: eb56 19bb 3419 0e3d 3678 913b 72da 743a
00000030: e0f4 5e3c 59a0 3c39 f99c f23c 3889 043d
00000040: 0b00 a838 5153 373c f7d5 993c 57dc 3d3d
00000050: c603 7fbc 6891 ebbc 3e57 1e3b 7805 dabc
00000060: 8d4f 073b 2ecb 83bc 9109 4d3b e557 39bd
00000070: 921c a33c cd32 753d 9c2f 7a3b 63c2 98bc
00000080: 68c7 c43c 1b3d b1bc 23c7 a63c 193f a7bc
00000090: 9807 9cbc a38e c7ba 2337 9d3a 9708 3d3c
000000a0: 384f 1dbd 603a ebbb d719 2abc 7355 873a
000000b0: 74ff 023d 2886 103d a658 cfbc dc84 48bc
000000c0: 9c5e 49bc b170 febc 3966 d0bc 78b8 263d
000000d0: e854 833c 9eca c53c b874 743c 8f35 11bd
000000e0: fb60 453c 15f7 fd3c 10f4 3abc 8b81 eb3c
000000f0: 0785 bb3b ac39 043d 250e 5ebc de9b e33c
00000100: 7526 01bd 6f10 03b8 e549 df3c 4041 c43c
00000110: 9690 373d 95b8 063d a351 b33c ac7c f13c
00000120: 87d8 0a3d 6f9a 0d3c f833 b0bc bd7f 83bc
00000130: 3e57 17bd 6733 90bc 8777 003d 0ee3 023d
00000140: 0a29 353b 5388 a3bc 2224 0e3d 3e8d 853c
00000150: 9613 84bc 2920 02bd a225 ebbb f872 ea3b
00000160: 3850 923c d565 afbc 0b51 3bbd c9dd 66ba
00000170: df6e 853c e42b 08bd d726 ab3c 94c7 47bd
00000180: d4c1 3f3c 929e e6b9 4626 013d 2fc1 2abd
00000190: 6287 d8bc 0745 b43c 617e 9d3c db6c b03c
000001a0: 2e00 ad3c 6935 c2bc de57 c93c 0cb0 30bd
000001b0: 0632 ef3b 525a f8bc 273d 87bc 4b9f 78ba
000001c0: 6ff6 d9bc 86af e7bb e1aa 1dbd 102b 00bd
000001d0: 08c9 0c3c b918 c8bc c5da cdbc 4148 cebc
000001e0: 25f9 babc 94f7 ebbc ce15 c13c e6c1 4d3c
000001f0: c259 1ebb 4151 c2bc 5ff3 9ebb 01e1 a73b
00000200: 4906 92bc 82be bc3c 7ecc 353d a66a 15bd
00000210: 697f 82bc 4491 293c 0253 1c3d ae78 2dbc
00000220: 818a d33b 6746 143d 5438 a33c 2ebc c33c
00000230: 0926 303d 2866 e13c aa34 c2bb 46aa a23c
00000240: 8e3f 1f3d cbb8 393d f7f3 9cbc 60fa 1a3d
00000250: 0cc5 0b3c b4ad 9abc b77a df3c 4930 b9bc
00000260: 7082 f8bc 7c5b 17bd 3071 943c a382 793c
00000270: 71e3 3fbc cd56 13bc c5e1 5fbb 3483 653d
00000280: 7fb0 9e3c b5dd 2bbc 6264 ce3a 499c 76b9
00000290: e907 f13c 83a2 db3b ff96 c33b 1f8f 94bc
000002a0: a292 97bb c0e8 36bc 01b6 c23c e13b bbbc
000002b0: 6bc3 dfbc fd6f 753b b455 abbc 802b 0cbd
000002c0: 9f56 63bc b73f 5dbc 812d 313b 82ed f5bb
000002d0: 0296 133c 2333 06bd 20da 99bc fe8d 3a3c
000002e0: 6cbc 873c 7bef 2cbc 2fb2 f1bc 8777 c8bb
000002f0: 2b7e 243c 5266 21bd acee 1dbd 52c4 ccba
00000300: 442c 19bd 866a 60bd f023 40bd 4ae3 de3c
00000310: 5cbe a63b 2429 0e3d 60b1 313d 8616 233c
00000320: b350 22bb aece e6bc 321d a13b dd7e d73c
00000330: e699 36bc de30 35bc 44a3 35bd afd1 a53c
00000340: 826c cebc c74c 1c3d fa15 8cbc 9bf4 ffbc
00000350: 826a b73c cf68 dd3b 3058 203d 6a18 703b
00000360: ecb1 1fbd 1330 bd3c 3ed0 03bc c448 98ba
00000370: de58 d03b 8960 ab3c 811f 2ebd 17ee 63bc
00000380: bba7 013d 10e2 883c acc9 2b3d c59a 80bc
00000390: e1fb 3cbb 905e ee3c 403e a03c f069 323d
000003a0: 3384 91bc a3de 35bc 5847 75bc 3613 c5bc
000003b0: a99a db3c cab5 ea3c 92f7 f33c 9892 20bc
000003c0: e575 c53c 3333 82bc f4a1 273d caf2 59bc
000003d0: 884e 3cbd 109f 213c e1ef 2b3d bf7f 153d
000003e0: 1bc1 3f3d 8af7 f1bc 92d3 ab3c 3915 af39
000003f0: 64d4 603c b46c f5ba d781 f63b 606f 673c
-0.0009309524 -0.036488295 -0.037012145 0.028777173 0.024678022 -0.0101557765 -0.026887763 0.0047690915
-0.0023397754 0.034692004 0.004439379 0.0009340412 0.013608187 0.00017988811 0.029615866 0.032357424
8.010872e-05 0.011189298 0.018778784 0.04635271 -0.0155648645 -0.028755859 0.0024160887 -0.026613936
0.0020646781 -0.016088095 0.003128622 -0.04524984 0.019911084 0.0598629 0.003817535 -0.018647378
0.024020866 -0.021635583 0.020358628 -0.02041583 -0.01904659 -0.0015225004 0.0011994581 0.0115376925
-0.038405627 -0.0071785897 -0.010382137 0.0010325148 0.0319819 0.03528419 -0.025310826 -0.012238707
-0.012290623 -0.031059595 -0.025439369 0.040703267 0.016031697 0.024144467 0.014920406 -0.035451468
0.012047048 0.031001607 -0.011410728 0.028748294 0.005722645 0.032281563 -0.013553177 0.027784284
-0.031530816 -3.124814e-05 0.027256915 0.023956895 0.044815622 0.032890875 0.021889513 0.029478393
0.033897903 0.008642777 -0.021509156 -0.016052121 -0.036948435 -0.017602636 0.03136399 0.031954817
0.002764287 -0.019962465 0.034702428 0.016302701 -0.01612262 -0.03176895 -0.007176117 0.0071548186
0.017860517 -0.021410862 -0.045731585 -0.0008806852 0.016288219 -0.033244982 0.020892544 -0.048774317
0.011703927 -0.00043987163 0.03153064 -0.04168814 -0.026431743 0.022005571 0.019225301 0.021536281
0.02111825 -0.023707109 0.024578031 -0.04313664 0.0072996644 -0.030316506 -0.016508652 -0.0009484186
-0.026606767 -0.0070704846 -0.03849304 -0.031291068 0.008592851 -0.024425851 -0.025128732 -0.025180938
-0.02282388 -0.028804578 0.023569968 0.012558436 -0.0024162387 -0.023720386 -0.0048507894 0.005123258
-0.017825263 0.02304006 0.044384472 -0.03647866 -0.015929895 0.010349575 0.0381651 -0.010587854
0.00645572 0.036199953 0.01992432 0.023893442 0.043005023 0.027514532 -0.005926688 0.019856583
0.03887897 0.045342248 -0.0191593 0.037836432 0.008530866 -0.018881656 0.027280195 -0.022606032
-0.030335635 -0.03695248 0.018120378 0.0152289 -0.011711941 -0.008992863 -0.0034161669 0.05603333
0.01937127 -0.010489871 0.0015746469 -0.00023518609 0.029422717 0.0067027225 0.005968928 -0.018134652
-0.0046256343 -0.01116389 0.023768427 -0.0228557 -0.027314862 0.0037450783 -0.02091489 -0.034221172
-0.013875633 -0.01350396 0.002703518 -0.00750512 0.009007933 -0.03276361 -0.018780768 0.011386393
0.016569339 -0.0105551435 -0.02950391 -0.0061177644 0.010039846 -0.03940422 -0.038557693 -0.0015622473
-0.03739573 -0.05478909 -0.046909273 0.02720799 0.0050886106 0.034707204 0.04338205 0.0099541005
-0.0024767339 -0.028174724 0.0049168104 0.02630561 -0.011145091 -0.011059014 -0.044345155 0.020241586
-0.025198225 0.038159158 -0.017100323 -0.031244567 0.022389654 0.006756879 0.039146602 0.0036635646
-0.03898804 0.023094213 -0.008045254 -0.0011618366 0.00635825 0.020920055 -0.042510513 -0.0139117455
0.0316541 0.016709358 0.041940376 -0.0156988 -0.0028836655 0.029097825 0.019560933 0.04355806
-0.017763233 -0.011100444 -0.014970623 -0.024057012 0.026807146 0.028651137 0.029781137 -0.009800576
0.024104068 -0.015893554 0.040925935 -0.013302514 -0.04597333 0.009864584 0.041976813 0.03649878
0.04681502 -0.029536981 0.020974908 0.00033394413 0.013722513 -0.0018724413 0.0075228023 0.014125675

bias f4 [64]
00000000: 849b 4e3d 3e79 08bd 9482 673d a047 8c3c
00000010: e009 33bd 8b60 843c 8d95 ffbb fea8 543d
00000020: 43f6 343d d96d 2e3d b4ea 2dbd 6cfc 903c
00000030: 0607 dd3c 33ef b63d 228c 03bd d5e8 5d3d
00000040: 4663 20bb ac7a fb3c 0a7a 1b3d 4133 92bd
00000050: 6766 7c3a 305a 31bd f7e2 db3d 1472 60bd
00000060: bdb0 1fb9 248d 7fbc 1799 b2bd dbf2 993d
00000070: d65a 5ebb 601a c23c 67f3 073c ae19 c33c
00000080: de00 683d aed4 9c3d 8283 94bc 5148 7b3d
00000090: 8cf9 48bc 98fc aa3d 00a2 5bbd 8a8a 963c
000000a0: f20f 06bd 7f4f a33b 46fb 593c c081 3dbc
000000b0: a08a c0bc 39a1 633d a0d6 153e ad6e b2bb
000000c0: e240 38bc d264 58b8 90cd 373d 12f8 273d
000000d0: 4b39 79bd 3dbb 34bd b96d d5bc 6b37 80bd
000000e0: 0109 d73c 2ec8 30bd 7ca6 0fbc 20c6 12bd
000000f0: b5cf 99bb 5e69 843d d691 bfbd cc83 513d
0.05044128 -0.03331875 0.056521013 0.017123997 -0.04371059 0.016159317 -0.0077998103 0.051918976
0.044180166 0.042585228 -0.04246016 0.01769849 0.026980888 0.089323424 -0.032116063 0.054177124
-0.0024473234 0.030698143 0.037958182 -0.07138682 0.0009628296 -0.0432989 0.107366495 -0.054796293
-0.00015229262 -0.015597615 -0.08720606 0.07517024 -0.0033928654 0.023694217 0.008297778 0.023815956
0.056641452 0.07657753 -0.018129114 0.061348263 -0.012266528 0.0834896 -0.053621292 0.018376607
-0.03273005 0.004983842 0.013304537 -0.011566579 -0.023503602 0.055573676 0.14632654 -0.0054453225
-0.011245938 -5.159231e-05 0.044873774 0.041008063 -0.060845654 -0.044123877 -0.026053296 -0.0626057
0.02624941 -0.043159656 -0.00876772 -0.035833478 -0.00469395 0.0646541 -0.09353988 0.051151082

weight f4 [512, 64]
00000000: a6ab ce3d aa80 02be 027a 68bd 2cbc bbbd
00000010: cb88 bb3d ad5a df3d f48b b43d 9960 023e
00000020: 46c7 1cbd 40df e5bc 9c4c 1e3d 3a0a bdbc
00000030: 0f89 0f3e e256 813d 633a 6bbd 956a d03d
00000040: 7201 ef3d 1cb3 cc3d 48a9 663d 553e b4bb
00000050: 944b 07be e1d4 1c3d 6f9e 043d 4c3f b03d
00000060: 4ec4 063c 8b30 8e3d becc 6c3d b019 8c3d
00000070: e9e9 c43c f2d0 12be 35eb edbd bb5c 1b3e
00000080: a416 93bd 1ed9 8d3d 41c8 8e3d 1788 a8bd
00000090: 3b5a 2dbc 3903 ae3d aed9 aabd 5fc5 e4bc
000000a0: a2de 563d 85b9 0bbd 6141 373d 807b b93a
000000b0: cf5a aebd 4a74 a43d f03e 0a3e 8637 013e
000000c0: 7255 dcbd 9100 d93d 7b56 89bd 074e e73c
000000d0: 5b57 9a3d d2ed 3dbc bd44 24bc 8840 31be
000000e0: 8a54 963c 3c1e c23c 87bc b83d dd99 cdbd
000000f0: f0ff 95bd dc5e 063e 5ac3 fb3c 2f1b 00bd
00000100: f1e7 dc3d 2fd4 f83c 9660 f43d a16f c53d
00000110: f70b 0d3d 83f0 863d 55c2 ffbb 81c7 f3bc
00000120: d06e ef3d a1be 4fbc 8319 1fbd 661b b7bd
00000130: bc7a 49bd 57b1 0abe b608 debd 42c7 3c3d
00000140: a309 f4bd 1f2c 3b3d 5b7c 313d 2de8 b03d
00000150: bf58 a73d 7438 6a3d fe8c b63d 8ecf 13be
00000160: 8f83 8c3d c203 d93d 5484 e23d e564 ddbd
00000170: 54ba dabd ccdf d63d 22b9 babd d32d 02be
00000180: d08f e33c 0865 173d ba8d f13d a969 afbd
00000190: 14fe 923d 6be1 82bc 4be6 a83c f2cb 7b3d
000001a0: 4f5a cc3d 3ca0 373c 9b4f 6c3d acb1 a1bd
000001b0: 8b82 c03d 8fe5 e03d 7f95 743d a85c acbd
000001c0: c7c5 d63d 1f20 eb3c 5eea 473d 5781 603d
000001d0: 54d8 b1bc 6eec ed3d 75e3 a3bd 2161 043e
000001e0: e7a0 f83c 8699 94bc 9599 06be 438f 94bc
000001f0: db0a d9bd d99e f9bd f21e b5bd ff82 c03d
00000200: 3393 5c3d a704 48bd 3e38 cdbc 6a0c 47bd
00000210: 9ac0 1dba 6bca 623d 4049 013e f02d cc3d
00000220: 2024 833c ecb9 a23d 44b2 84bd b943 8dbb
00000230: f392 f73c 0027 a3bd 8435 31bc fd6d a63c
00000240: 4559 e2bc 15a4 ff3d 663a f4bd 1863 573d
00000250: bd8d b03d b11a d4bd 033e d1bd ba9c 47bd
00000260: 2708 3f3d af63 f03c 01ad f3bc 0658 8abd
00000270: be41 a5bd bbce fcbd e6ff 8abd 0c83 f63d
00000280: 6d8d a9bc 90d6 2fbc 6236 e6bd f382 a23d
00000290: 2758 57bd 856b 01bd de06 77bd 25b4 473c
000002a0: 94e2 aabc 5ad4 883d cdd9 f3bc fd80 9dbd
000002b0: 9a53 90bd b999 7b3a 2096 083e 3188 913d
000002c0: db68 923c a300 b0bd 79f8 073e d4ea a43d
000002d0: b971 6c3d 0764 cd3b 4b1e 48bd 2fe9 1ebd
000002e0: 3dfa a63c f98a a83d 53dd b23b ab1b 613d
000002f0: fafe 423c 527d 8dbc 01c9 aebc c2f9 95bd
00000300: b3f4 533d 80d7 12bd 43a8 a7bc f36a ecbd
00000310: 0526 053d 0b17 99bd 33e4 4b3c f7f8 96bc
00000320: 6e4a 013e 856d eabd 3231 923d adf5 3a3d
00000330: 073c f13d ac93 e6bd 0a4e ba3d 7c18 893d
00000340: 427c c33d 1646 dd3d da15 cf3d 95ff 023d
00000350: 217b 3abd 2b36 08bd 0d36 6bbc 2742 68bc
00000360: ff27 c2bd 8a77 0d3d a35c d6bd a8dc c9bd
00000370: b71f 05bd c651 dabd 2ab6 b03d b242 49bd
00000380: 3d16 d8bb 58e1 a7bd cfe4 433c 5aee 013c
00000390: 6840 bebc f821 d6bd 8d0b 78bd 6276 d23d
000003a0: bb0d 2cbd 106d e2bd d5d5 63bd 8691 c33d
000003b0: 36c9 d53c a717 73bc 6b2e 9cbd 7163 eebd
000003c0: ace0 a23d 2a55 9a3d 5a01 c9bd ba73 8b3d
000003d0: 097f da3d 40c3 0abd 0a44 913d e40f df3d
000003e0: 5fb3 e3bc 9f08 4d3d be10 563d cc11 b9bd
000003f0: 3b0f 423d 608d f2bd f15a 7d3c eeb4 8f3d
0.10091333 -0.12744394 -0.05675698 -0.0916675 0.091569506 0.10905967 0.088157564 0.12732162
-0.03827598 -0.028060555 0.03864728 -0.023076165 0.14017127 0.063154 -0.05742873 0.10176579
0.116701975 0.099951 0.056313783 -0.0055005946 -0.13212425 0.038288955 0.032377657 0.08605823
0.008225514 0.069428526 0.057812445 0.06840837 0.024037318 -0.14337519 -0.11617128 0.15172093
-0.07182053 0.069261774 0.06971789 -0.08229082 -0.010580595 0.084967084 -0.083423 -0.027926145
0.052458413 -0.034112472 0.044740085 0.0014151186 -0.08513414 0.08029993 0.13500571 0.12618837
-0.10758485 0.10595811 -0.06705948 0.028235449 0.07536193 -0.011592345 -0.010026154 -0.17309773
0.018350858 0.023696057 0.09020334 -0.10039113 -0.07324207 0.13122123 0.0307328 -0.031275924
0.10786427 0.030374615 0.11932485 0.09640432 0.03443524 0.06588843 -0.0078051486 -0.029758217
0.11691058 -0.012679727 -0.03884269 -0.08940773 -0.049189314 -0.13544212 -0.10841505 0.046088465
-0.119159006 0.045696374 0.043331485 0.08638034 0.08171224 0.057182744 0.08913611 -0.14434645
0.0686103 0.1059642 0.11060396 -0.1081026 -0.106800705 0.104919046 -0.091173425 -0.12712793
0.027778536 0.036961585 0.1179461 -0.08565075 0.07177368 -0.015976628 0.020617625 0.061473794
0.099781625 0.011207636 0.057693105 -0.07895216 0.09399899 0.10981285 0.059712883 -0.0841611
0.10486942 0.02870184 0.048807494 0.054810848 -0.021709599 0.11617361 -0.08002368 0.12927677
0.030350162 -0.018139612 -0.13144524 -0.018134719 -0.10597774 -0.12188501 -0.08843793 0.093999855
0.053851318 -0.04883256 -0.025051232 -0.048595823 -0.00060177746 0.055368822 0.12625599 0.099696994
0.016008437 0.07945618 -0.06479314 -0.0043110517 0.030221438 -0.07966423 -0.010815982 0.020316118
-0.027630458 0.12482468 -0.11925201 0.052584738 0.086207844 -0.103566535 -0.10216906 -0.04873345
0.046638634 0.029344408 -0.02974558 -0.067550704 -0.0806918 -0.12344118 -0.0678709 0.12036714
-0.02069732 -0.010732308 -0.112408414 0.07935133 -0.052574303 -0.03159668 -0.060309283 0.012188946
-0.020859994 0.06681128 -0.029766941 -0.07690618 -0.07047196 0.00095977966 0.13338518 0.071060546
0.017872265 -0.085938714 0.13278379 0.080526024 0.057725642 0.0062680277 -0.048857015 -0.0387966
0.020382995 0.08229632 0.005458513 0.054958027 0.011901611 -0.017271671 -0.02133608 -0.07323028
0.051747035 -0.035850048 -0.020465976 -0.115438364 0.03250696 -0.07475098 0.012444544 -0.018429263
0.12626049 -0.114466704 0.071382895 0.04564445 0.117790274 -0.11258635 0.09096916 0.06694123
0.09545185 0.108043835 0.1011159 0.031982023 -0.04552758 -0.033254784 -0.014356148 -0.014175928
-0.09480285 0.03453783 -0.10466888 -0.0985654 -0.03250095 -0.10660128 0.08628495 -0.04913587
-0.006594448 -0.08197278 0.011956408 0.007930363 -0.02322407 -0.10455698 -0.06055789 0.10276486
-0.042005282 -0.11055958 -0.055623848 0.09549241 0.026096921 -0.014837182 -0.07626041 -0.11640061
0.07953009 0.07535775 -0.09814711 0.068091825 0.10668761 -0.03387761 0.070930555 0.10891703
-0.027795492 0.05005705 0.05226206 -0.090365976 0.047377806 -0.118433714 0.015463577 0.070169315

bias f4 [512]
00000000: 20ed 023e 38df fcbd 5076 aabd 032d a7bd
00000010: 65c8 963d 8082 b7bd 2045 c0bd 8e8e 343d
00000020: e304 abbd 403d c4bd f4f6 0b3e 9b0f b83d
00000030: 8ec4 d3bd d490 2b3d f029 c83c e249 8b3d
00000040: f93a a83d 1d37 053e 6565 563d c0e2 ae3c
00000050: f956 5dbc de61 1f3d 97a4 28bd 0ca9 e63d
00000060: 561d f13d fa4d 7bbc e549 113d 4100 d5bd
00000070: aea1 cabd 6a58 a5bd 66d1 03bd e849 9f3d
00000080: d4ee e7bb 0201 c8bd 115d 193d d3bc 903d
00000090: 65ad 08be 0180 eebd 61f9 50bd b4e6 fd3c
000000a0: dc44 1c3d fab3 8cbd 9310 c43c 2216 1abc
000000b0: 3e8d 3ebc 4c6e 013e 1151 483d c360 58bc
000000c0: b009 4b3d de2f a0bd bac8 c83d b960 b8b9
000000d0: b7db 973d 0a65 15bd c7bd 093d 3ae3 983d
000000e0: 2f2f 953d 21ff 17bc a37f 78bd 3980 773d
000000f0: 6136 e33d 6aee 15bd 184c a9bc ecd8 2e3c
00000100: f4fe ca3d 4077 3c3d e81f 66bc 6f47 523d
00000110: eb31 34bd 174f 55bd 34a5 093e 8811 bfbd
00000120: b17f e6bd fd1b 79bb 76b1 e8bd 39b9 33bc
00000130: 6c5b 983d 2d8d d83b 17b4 a63c 6da5 ff3d
00000140: 54c3 a4bd c464 cf3d ade8 b83d 1134 1b3d
00000150: 64c8 8d3d 4a02 c7bd c684 ac3c 089f 8cbc
00000160: ebb8 67bd 182a f63c cc33 fcbd 6e1c e03d
00000170: ce40 f4bd 7fec 103e 5c24 403d 6712 d63d
00000180: b883 8fbd 2345 8ebd e1ef ef3c 5a37 adbd
00000190: 3063 a6bd fbc4 fabd 3581 9e3d 3d44 9db9
000001a0: 4f96 cd3d 8a1a fb3d c60c 483d 59b3 393d
000001b0: 15f7 a7bd bb97 4a3d 031c 06bb 4ec8 f3bd
000001c0: f386 143c 1ac9 f9bd f223 fabd b0da b4bd
000001d0: d47b 53bd 3615 e2bd 5a5d 273d 9e5c eebd
000001e0: 2916 de3c f2f7 aebd b1cc 973d 4f3a a93d
000001f0: 2ac3 1e3c e90c fbbd 84a7 a53d ea45 703d
00000200: de8a dcbd 9121 773d 2e23 dcbd d2ce c8bd
00000210: b5e7 91bc 8f74 72bd 3b6a 53bd 31f9 b33d
00000220: 21f3 d5bc 052f b83c 6263 f7bd 1f61 343c
00000230: 52f3 0b3d f376 f9bd 809f 56bd 4416 76bc
00000240: ba17 e6bd 066f 06bd bcd9 e13d 5938 143e
00000250: bfb9 283e f978 043e e49f 213e c243 bcbd
00000260: a6a1 2f3d ed07 d3bd 1657 e93d 4a49 0bbd
00000270: dca4 073e d26f 40bc 86cc bdbc 48fb bd3d
00000280: 7e88 eb3d d1c0 5a3d 0d67 233d 32d0 913d
00000290: c8af acbd 5bf9 323c 9878 9ebc 2504 b6bd
000002a0: 494a 333d e530 2f3d d220 4abd b301 203c
000002b0: c29a eebd 82c0 0a3e 22af ebbc 9d17 aa3d
000002c0: b4b2 d0bd 1b7a b53c eb3b 75bd b2c6 f7bd
000002d0: 7eea 083e c760 4a3d d043 30bd 3c33 8a3d
000002e0: 6b02 d0bd 9685 003e 26e6 b1bd 2bae 9bbc
000002f0: aa5f 9e3d a82b f9bd 8eb4 903d e2ba 193c
00000300: 1b9a 15bd 064a 633d 074d 77bd 212d edbc
00000310: bbc6 8bbd e49a fbbc ca89 5abd 2301 58bd
00000320: 7af2 453d a173 593d 799f bbbd ec43 b13c
00000330: dfb1 de3d 6561 63bd 1eb8 6f3d e45d b9bd
00000340: 03ee ca3d 5fa4 fd3c c2a9 5cbd edd5 d43d
00000350: 53ff 1a3b 63c3 3e3d 713e 90bd 22c3 4bbc
00000360: f193 92bd 61a0 b83d 52cc c03d 41e6 6fbd
00000370: 2446 a43c 551e 093d 7d81 343d 28e9 8ebd
00000380: e904 953c dc97 943d b744 c5bd 1085 0ebd
00000390: dc31 2f3d 37b5 c33d cce5 debc 9aa9 92bd
000003a0: 6bf0 ba3c 1c58 0f3d 8146 063e dad4 ba3d
000003b0: 1cd2 1cbc 299e 81bc be02 333d 18d2 f7bd
000003c0: 3875 cb3d 032c c43d 04fd 6e3d 3193 b4bd
000003d0: 2b4f 5d3c f36e b23d bec3 993d 0dfd 52bd
000003e0: a737 00bd 76e7 94bd 44ce 013c 7db3 f9bd
000003f0: a81f cb3d 36ea 26bd 67e0 a23d 9549 1abd
0.12785769 -0.12347263 -0.083233476 -0.08162882 0.07362441 -0.08960438 -0.093881845 0.044081263
-0.083505414 -0.09581995 0.13668424 0.089873515 -0.10340224 0.041886166 0.02443406 0.068012014
0.08214373 0.13009305 0.05234279 0.021348357 -0.013509505 0.038911693 -0.04117259 0.11262712
0.117731735 -0.015338415 0.035470862 -0.10400439 -0.09894119 -0.08073504 -0.03218212 0.077777684
-0.007078031 -0.09765817 0.03744227 0.07067265 -0.13347395 -0.116455086 -0.051019076 0.030993797
0.038151607 -0.06870265 0.023933684 -0.009404691 -0.011630354 0.12639731 0.048905436 -0.013206664
0.049569786 -0.0782163 0.098039106 -0.0003516728 0.07414954 -0.03647331 0.03362825 0.07465215
0.0728439 -0.009277136 -0.0606686 0.060425017 0.11094356 -0.036604322 -0.020666167 0.010671835
0.0991191 0.046012163 -0.014045693 0.051337656 -0.043992918 -0.05207738 0.13441926 -0.09329516
-0.11254824 -0.0038011067 -0.11361973 -0.0109694535 0.07439312 0.0066086263 0.020349545 0.12482724
-0.080450684 0.101266414 0.090287544 0.03789145 0.06922987 -0.097172335 0.021059405 -0.017165676
-0.056572836 0.030049369 -0.12314567 0.109429225 -0.11926423 0.14152716 0.046909675 0.10452729
-0.07007545 -0.069467805 0.029289188 -0.08457823 -0.08124387 -0.12244602 0.07739488 -0.00029996215
0.10038435 0.12260921 0.048840307 0.045337055 -0.08201424 0.049461108 -0.0020463474 -0.119034395
0.0090653775 -0.1219656 -0.12213887 -0.08830774 -0.051631764 -0.11039202 0.04086051 -0.11638759
0.027110176 -0.085433856 0.07412089 0.082630746 0.009690085 -0.12258322 0.08088592 0.058660425
-0.10768674 0.060334746 -0.107488975 -0.09805073 -0.017810682 -0.05919319 -0.05161498 0.08787764
-0.02611691 0.022483358 -0.12079503 0.011009484 0.034167595 -0.12180891 -0.052398205 -0.015019957
-0.11234994 -0.032820724 0.11027858 0.1447462 0.16477107 0.12936772 0.1578365 -0.09192611
0.04287877 -0.10304246 0.113935634 -0.03400544 0.13246483 -0.01174541 -0.023168813 0.09276444
0.11500643 0.05340654 0.0398932 0.07119788 -0.08431965 0.010923709 -0.019344613 -0.08887509
0.043772016 0.04277124 -0.049347706 0.00976603 -0.116506115 0.13549998 -0.028770033 0.08305285
-0.10190335 0.022152951 -0.059871595 -0.12098445 0.13370702 0.0494087 -0.04303342 0.067480534
-0.10156711 0.12550959 -0.086864755 -0.019003948 0.0773309 -0.1216653 0.07065688 0.009382935
-0.03652392 0.055490516 -0.060376193 -0.028952183 -0.06825014 -0.030713506 -0.053354062 -0.05273546
0.048326947 0.053088788 -0.09161276 0.021638833 0.1087377 -0.055512805 0.058525197 -0.09051111
0.099086784 0.030962167 -0.05387283 0.103923656 0.002365072 0.046573054 -0.0704316 -0.01243666
-0.07157124 0.09014965 0.09413971 -0.058569197 0.020052977 0.033476193 0.044068802 -0.06978065
0.018190818 0.072555274 -0.09632247 -0.034794867 0.04277216 0.09556048 -0.027209185 -0.07161255
0.022819718 0.034996137 0.13112833 0.091226295 -0.009571578 -0.015822487 0.043703787 -0.12100619
0.09934467 0.09578707 0.058346763 -0.08817137 0.013507645 0.08712568 0.07508038 -0.05151086
-0.031303074 -0.0727071 0.007922713 -0.12192438 0.09918147 -0.040750705 0.079529576 -0.03766783

weight f4 [200, 512]
00000000: a466 ff3b 9f3a 223e 74dc 843d e66e 593d
00000010: a634 133e 5646 d73d 810d a1bd 3c26 a2bc
00000020: 3cb7 3c3e 610f 89bd bf5b ca3d 0780 bc3d
00000030: a41a 9cbe 7df8 a03d 57f4 42be 900c 0bbc
00000040: 05e1 d73b 0738 9bbc aad7 3b3e 0fc3 803c
00000050: 8a18 e3bb 7eed d73d 2c5e ce3d 22ef 293e
00000060: 76dd 28be d2fb 6ebc 5c01 40bd a365 9a3c
00000070: a0e6 883b 36c1 d43c cbbc c8bd f4c2 bbbb
00000080: 5be0 88bc f78a 2c3d 7a2a 0f3d 54ac 01bb
00000090: 22ad 47be a013 97bc e298 0bbe 007c 87bb
000000a0: a75e b23d 2179 013d baea 89bc 89fa 32bc
000000b0: 4a01 013c d4af f7bd 1e1e 573d 594c f0bd
000000c0: 77c0 653e 9788 85be 4b44 b5bd 5139 f43d
000000d0: e328 8e3e 763b 2d3e 6cc2 11be e007 bb3d
000000e0: 6e14 433e 2993 17bd cc7f 9c3c ec7b 9f3e
000000f0: bf7a f6bd b4f7 3dbc 5370 24be 10d2 febc
00000100: 7362 7abb 34e2 573d 1fa2 583e 6c3a 133e
00000110: 0cbb 2b3d 5387 21be 9a1f ad3e faec dc3c
00000120: 653c 23bb a019 e33c 5fff 0f39 d3a8 31be
00000130: 5660 4f3b e1af c3bd b3b3 32bd 7873 363e
00000140: 5c1e 7c3e 9353 dabd d7c6 bc3d 68d8 983b
00000150: 2ef6 a6bd ec0c 06be 525c 9dbc 17df d33d
00000160: 44c4 133d 6ccc acbc 2619 ccbc 2939 bd3d
00000170: f0e9 11bc edfe 583d 226a a33c 1626 483c
00000180: d1a6 8d3d 5224 663d 159a 1b3d cd66 24bd
00000190: d237 0c3d 4b90 223d 9452 9c3d 3159 353e
000001a0: 9a3a 073e b6f5 683e d6f7 a7bd 8ca7 0fbc
000001b0: 813d 22be 17d3 403d b75c b7bd fcac 9e3d
000001c0: 5f9a 96bd c2e7 bf3c 6a4a 363d 4416 0b3c
000001d0: d812 c23d 434b 32bd 381d 6f3d 79a1 d83c
000001e0: ea15 77bd c965 bdbb 951f c5bd 83ac fa3d
000001f0: 32d4 a53c 2cc2 1ebd 9458 2a3d 9086 6c3b
00000200: 8ce9 8a3d b39e 8d3d 1905 103d 0286 41bc
00000210: 339d 9f3d 8863 01bd cd39 4e3c 69bc 18bc
00000220: 0c7c 02bd ea58 66bd 8115 b2bd 27c8 c3bd
00000230: ec73 a43c 8de1 d83c ec66 093c 4ac7 fa3b
00000240: 4496 f5bc e23b 90bc 5ef0 0b3d 1a2c 3c3d
00000250: 8128 ad3e 17c7 903e 4e84 54bc 166a 57bd
00000260: ed5c a03d 1707 503d 52e3 7c3e 6a6b 23bd
00000270: 08e3 bb3c c216 cb3d 30fa 353e 9c40 47bd
00000280: a9c8 653e 3f0e 09bd c1f0 453e 10b6 1abd
00000290: 0547 df3d 0b1e d4bd 5fc7 4abe ef59 063d
000002a0: 7e3d ed3d 9e6f afba f85e 413d ae59 8fbc
000002b0: 9b43 d93d e260 353e c6f6 e13b 7b2c 8fbc
000002c0: 15b0 b5bc a553 653d 64a1 f7bc a871 b6bd
000002d0: 1101 493e 5aa1 3ebe d196 8abc 7daa 293d
000002e0: 50dd 9b3b fed5 513e ebed 0c3e 79b1 e23b
000002f0: 3c06 d5bd 5815 273d 22d5 4abd 77fe 9abc
00000300: 6436 15be 9d12 22bd 75c0 88bc b3e7 093c
00000310: c1ee 183d 146b b3bd eef3 24bd 9df2 e2bc
00000320: 1518 863d e922 40bd 94b5 173e b3c8 3d3d
00000330: 89be 443e 8b15 92bd aeb0 6e3e 12be e5bd
00000340: 544e 8e3e 2c95 083c ba68 053e 391d 333d
00000350: 9b19 713b a468 973d 25cf e83d 9b70 073e
00000360: 00f4 fe39 e3f9 abbc e3cc 8c3e 7051 dcbc
00000370: fd7e dcbb 6923 e8bd 6251 a23c 98f1 563d
00000380: 6759 3bbd 3bcb a23c 207e 4c3e 4a4c 48be
00000390: 4d49 013d c59b 0d3e 55d8 a33c f8d9 b03d
000003a0: dfae c1bc c23c bcbc ee2c 213e e856 ba3e
000003b0: 4751 c4bd f6d7 f1bc 836e fcbd 2769 133d
000003c0: f040 843d 8684 253e b0fd dc3c cb06 1c3c
000003d0: 4b4b 2fbb 7b2a 3a39 1c21 38bd 868c df3a
000003e0: 6279 9cbc 6c5f 21bd 31be d03d 5c4e d73e
000003f0: 3ca6 133e c1a1 e9bc f602 f4bd a67b a83c
0.007794218 0.15842675 0.064873606 0.053084277 0.14375553 0.105114624 -0.07863904 -0.019793622
0.18429273 -0.066923864 0.098807804 0.09204107 -0.30489075 0.078598954 -0.19038521 -0.008486882
0.0065881037 -0.018947614 0.18343988 0.015718011 -0.0069304155 0.10543345 0.100765556 0.16595128
-0.1649073 -0.014586406 -0.046876296 0.018847292 0.0041778833 0.025971036 -0.098016344 -0.0057300273
-0.016708544 0.042124715 0.03495262 -0.0019786553 -0.19499639 -0.018441975 -0.13632539 -0.004134655
0.0870946 0.03160966 -0.01683556 -0.01092399 0.0078738425 -0.120940834 0.052518956 -0.11733312
0.22436701 -0.26080772 -0.088509165 0.11924995 0.2776557 0.16917214 -0.14234322 0.091323614
0.19050762 -0.037005577 0.019103907 0.31149232 -0.12035131 -0.011594702 -0.16058473 -0.031106025
-0.0038205653 0.05270596 0.21155594 0.14377755 0.04192643 -0.15774278 0.33813173 0.026968468
-0.0024907824 0.02772218 0.00013732676 -0.17349558 0.0031643114 -0.095550306 -0.043628406 0.17817485
0.24620956 -0.10660472 0.09217613 0.0046644695 -0.08152424 -0.13090867 -0.01920906 0.103452854
0.036075845 -0.02109357 -0.024914335 0.09239418 -0.008905873 0.05297749 0.019948069 0.012216112
0.06916583 0.05618698 0.03798874 -0.0401371 0.034232922 0.03968839 0.07632938 0.17709805
0.13205948 0.22749981 -0.08201568 -0.008767974 -0.15843774 0.04707631 -0.08953231 0.07747838
-0.07353663 0.02342594 0.04450456 0.008489195 0.094762504 -0.043528806 0.058377475 0.026444184
-0.060323633 -0.005779956 -0.096251644 0.12239935 0.020242784 -0.038759395 0.04158838 0.0036090948
0.06782827 0.06915035 0.03516111 -0.011811735 0.07793655 -0.03158906 0.012587023 -0.009322264
-0.03185658 -0.05623714 -0.08695508 -0.095596604 0.020074807 0.026474738 0.008386355 0.0076531516
-0.029978879 -0.01760668 0.03416478 0.045940496 0.33819965 0.28276893 -0.012970997 -0.052591406
0.07830224 0.05078801 0.24696091 -0.03989736 0.022935405 0.0991645 0.1777122 -0.0486456
0.22439827 -0.03346085 0.19330122 -0.037771285 0.10902218 -0.10357293 -0.19802617 0.03280061
0.11583994 -0.0013384705 0.04720971 -0.017498817 0.10608598 0.17712739 0.0068958728 -0.017477265
-0.022178689 0.055987973 -0.030228324 -0.08908397 0.19629313 -0.18616238 -0.016917618 0.041422356
0.004756607 0.20491788 0.13762634 0.006918129 -0.1040158 0.04079184 -0.049519666 -0.018920166
-0.1457153 -0.039568532 -0.016693333 0.008417058 0.03733707 -0.08760658 -0.040271692 -0.027703578
0.06547562 -0.046908293 0.1481536 0.04633398 0.19213308 -0.07133015 0.23309585 -0.11217894
0.27794135 0.008336347 0.13028231 0.04372904 0.0036788944 0.073930055 0.11367635 0.1322655
0.0004862845 -0.020993179 0.27500066 -0.026894301 -0.0067290054 -0.11334879 0.019814197 0.052476496
-0.045739558 0.019872298 0.19969988 -0.19560352 0.031564046 0.13828953 0.020000616 0.08635324
-0.023642955 -0.02297819 0.15739796 0.3639443 -0.09585815 -0.029521924 -0.12325766 0.035988953
0.06457698 0.16163835 0.026976436 0.009523104 -0.002674776 0.00017754167 -0.04495345 0.0017055429
-0.019100849 -0.039397642 0.10192526 0.4205197 0.14418882 -0.028519513 -0.11914627 0.020566773

bias f4 [200]
00000000: d988 9c3e 469d a8bd 8c90 43bd d291 a53c
00000010: 3818 0a3c a197 19be 1761 ebbc d372 b339
00000020: 5509 dd3e f547 283d 4fd5 bf3c 1ef7 213d
00000030: c60a 033d 0a63 35bd 1e27 16bd 8ff5 9bbc
00000040: fd2a 53bb 93f6 11bd 456f 383c 8c05 52bc
00000050: 348a 25bc d01f 163d 9982 31bd f2ba 37bc
00000060: 0c22 123c 38a0 573c e4e1 6abc 5e1c 8bbc
00000070: 9d42 2fbd 84b6 893c 6de8 bdbc 00fd 65bc
00000080: 1bca 1c3d b6da a6bc 9196 ac3c e8b8 a53c
00000090: 48db 03bd 27fe 23bd ad42 28bd 90ef c8bc
000000a0: cbe7 623c 646d 0dbd 5323 213c ac51 9ebc
000000b0: a07a 0a3d fcef 2fbd 5161 383b 064d bbbc
000000c0: e2da 31bd d33a 383c db58 df3b 4f2e d63b
000000d0: f5b2 1d3c 731a f1bc c6de 34bd fd02 c83c
000000e0: a898 e0bb 678c a8bc 103d 853c 8329 48bc
000000f0: 91b4 263d 8795 b0bc 974a 1b3b b4c3 3abd
00000100: 94ee dabc ecfc 53bc 187b 70bc 0826 143d
00000110: c377 663b 745a b73c 93f5 6ebc 17bd 6d3c
00000120: 7de7 0fbd 64cc 49bb 5dd7 0bbb ca44 a13a
00000130: cc33 3bbb faa8 853c d372 d9ba f052 cebc
00000140: ad51 84bc c5e3 bc3b 9ecd 29bc 9b40 d8bb
00000150: 65b1 c1bc 78f9 fc3b 73e2 05bc 3157 3cbd
00000160: d6e5 f7bb f999 37bd e785 38bb 96d4 20bd
00000170: 56c0 2e3c 3972 823c 5ce1 34bc 34ec 8abc
00000180: 79aa 423c c458 063d 667f 8e3c 9f84 e13c
00000190: 2ee6 1f3d 7678 4cbc 3328 9bbc 761b 30bd
000001a0: c1e2 693c 1c99 033d 3748 38bc 59cd 153b
000001b0: bbe2 be3b 6858 2ebd c291 8dbb c946 dcbc
000001c0: 9908 cf3c 0a3f 643c 58e7 f3bc e7e4 9cbc
000001d0: a28b 3e3c a221 143d 7e26 40bc 0c69 54bc
000001e0: 3eeb 18bc 4917 393a 8773 8f3a 1f30 57bc
000001f0: 24ca a23b f1ff 2abb f9c7 0b3b ec3b 11bd
00000200: 424b 713c 8e9a ea3c 9bae 0c3c 4873 d0bc
00000210: a3ad a13c c9b2 1e3d 5731 a2bc 2169 2e3c
00000220: 63dc 88bc c912 16bc cbe5 b13c 4033 8dba
00000230: e825 54bc 7be0 d53c 2895 07bd 1f41 a0bc
00000240: 1da3 e83c 9d52 243d 2e41 bfbc d3de 213d
00000250: 7beb 143d a1b7 663c 8dc3 c9bc 0b3a ad3b
00000260: 560e e1bc b8fd 053d b7c9 5e3c 07b9 ccba
00000270: ca75 113d 2069 493b 402c febc 02e2 e63c
00000280: e196 3ebd 36b8 14bd df93 013d 851d c5bc
00000290: 7725 23bc 83b1 29bd 9b3a d3bc b70e d73c
000002a0: 0def 8d3c efa7 adbc 2f39 ae3a 1b3b 283d
000002b0: 94ce b93c 53aa e93c a725 fcbc 9f1e 533c
000002c0: af9d cbbc 4d8a 54bc b26c 46bc a767 c7bc
000002d0: 05ed 8b3c b171 263d 9491 d7bc 16f0 bfbc
000002e0: 06e4 97bc 5c14 033d f83d 40bc d0c4 d9bc
000002f0: 2a3b debb b4b5 b6bc 4fcf 15bd 53ac 61bc
00000300: b5e2 b23c 1f79 ec3c 5fb5 cdbc 88d7 89bc
00000310: 676a cbbc 4bac e6b9 adab 56bb 875e 193d
0.30573156 -0.082331225 -0.047745273 0.020211134 0.008428626 -0.14999248 -0.02873282 0.0003422709
0.43171182 0.04108425 0.023417143 0.03954231 0.031992696 -0.044283904 -0.0366584 -0.01903799
-0.0032221668 -0.035635542 0.0112569975 -0.012818705 -0.010103751 0.036651433 -0.04333744 -0.011214005
0.00891925 0.013160758 -0.014336083 -0.0169813 -0.042788137 0.016810663 -0.023182118 -0.014037371
0.03827868 -0.020367961 0.02106789 0.020229772 -0.032191545 -0.0400373 -0.041079212 -0.024528295
0.013849209 -0.03452815 0.009835082 -0.019326054 0.03380835 -0.042953476 0.0028134177 -0.022863876
-0.043421634 0.011244494 0.0068160123 0.006536282 0.009625186 -0.029431557 -0.044157766 0.024415487
-0.0068541355 -0.020574762 0.016264468 -0.012216928 0.040699545 -0.021555675 0.0023695582 -0.045596793
-0.026725091 -0.012938719 -0.014677785 0.036169082 0.0035166598 0.022381999 -0.014584917 0.014510415
-0.035132874 -0.0030791992 -0.0021338083 0.0012303826 -0.002856481 0.016315926 -0.0016590006 -0.025186032
-0.016152227 0.005764457 -0.010363964 -0.0065994984 -0.023644159 0.0077201687 -0.0081716655 -0.04598159
-0.0075652404 -0.044824574 -0.0028155984 -0.039265238 0.010665974 0.015923606 -0.011040058 -0.016958334
0.011881464 0.032799497 0.017394733 0.027529059 0.039037876 -0.012479892 -0.018940067 -0.04299494
0.014275254 0.03212844 -0.011247686 0.0022857992 0.005825368 -0.04256478 -0.004320354 -0.026889222
0.025272654 0.013931045 -0.0297734 -0.019152118 0.011629971 0.036164887 -0.011727927 -0.012964498
-0.00933343 0.00070606597 0.0010944464 -0.013134032 0.0049679447 -0.0026092494 0.002132891 -0.035457537
0.0147274155 0.02863815 0.008586551 -0.025445595 0.019736117 0.03874472 -0.019798918 0.010645182
-0.016706651 -0.009159752 0.02171602 -0.001077272 -0.012948491 0.026108017 -0.03310123 -0.019562302
0.028398091 0.04011785 -0.02334651 0.039519142 0.036357384 0.0140818665 -0.024629379 0.0052864603
-0.027472656 0.03271267 0.013597897 -0.0015619107 0.035512723 0.0030732825 -0.03102696 0.02818394
-0.046530608 -0.03630849 0.03163516 -0.024061928 -0.009957663 -0.041429054 -0.025784781 0.026252134
0.017325902 -0.021198241 0.0013292189 0.041071992 0.022681512 0.0285236 -0.030779673 0.012885719
-0.024855463 -0.012972427 -0.012110876 -0.024341417 0.017080793 0.04063577 -0.026314534 -0.023429912
-0.018541347 0.032001838 -0.0117335245 -0.026583105 -0.0067819552 -0.02230344 -0.036574658 -0.013773995
0.021836618 0.028866349 -0.025110899 -0.016826406 -0.02483101 -0.00043997387 -0.0032756135 0.037443664
