system/models/FashionMNIST/CNN/FedPer_BaseHeadSplit_FashionMNIST_client_7.pt (torch, 760036 bytes, 8 tensors)

weight f4 [32, 1, 5, 5]
0.015032565 0.032252602 -0.2641653 -0.35531 -0.18287621 0.14020877 -0.005231269 0.11374887
-0.20076467 -0.0650452 0.06654575 0.04050061 -0.1352428 -0.20926563 -0.13727942 0.14129037
0.18176784 0.17820263 -0.15371594 -0.10132842 0.20951998 0.30651808 0.059803687 0.13214207
-0.020894973 0.07955367 0.12368065 -0.25512818 -0.20724283 -0.13381179 -0.013692523 0.12944658
-0.18396308 -0.1865063 -0.2102149 -0.14217137 -0.14011538 0.12916976 0.00051935983 0.022274356
0.049978353 -0.11059593 0.011120195 -0.21365619 -0.18367593 -0.06471041 0.08698872 0.091029525
-0.09661165 -0.060497675 0.17732462 0.23410891 0.08055984 -0.010314852 0.053685814 -0.11213376
0.034078322 -0.2051329 -0.20992611 -0.19885801 0.11150897 0.06784405 -0.1821022 -0.0041241874
0.014786449 -0.010910438 -0.010619465 0.059816565 0.12578197 0.16746333 -0.18599208 -0.12699042
0.12750953 0.19298017 0.17094105 0.26327318 0.102066755 -0.16204911 -0.041546974 -0.2747099
-0.071730874 0.2951959 0.23027816 -0.23532711 -0.1846862 0.013744673 0.08193036 0.02832781
0.049506146 -0.33044028 0.08106055 0.1909656 0.20613973 0.052076872 -0.41304153 -0.119844176
0.19950716 0.15066588 -0.124370866 -0.3128506 0.19110118 0.08311322 -0.18908395 -0.16859624
-0.18245243 -0.0009951611 -0.19863859 -0.2500133 -0.07255386 0.10358865 -0.095394224 0.037122328
-0.17707638 0.18944371 0.23441915 -0.16234732 -0.08647717 0.009985674 0.07760321 0.13495569
0.08974593 -0.011237612 -0.08673406 0.12775367 -0.13580066 -0.19915797 -0.16695194 -0.24916813
-0.29193428 -0.25812575 -0.048416846 -0.028320462 -0.23439649 -0.1720283 0.097846895 0.06965111
0.08569738 0.0848617 0.034442175 0.12631108 0.271829 0.24387608 0.27385178 -0.021572454
-0.14438358 0.0074466215 0.25987956 0.07986481 -0.089590475 -0.11453119 -0.24063076 -0.33169198
-0.20270638 -0.067509286 -0.009032913 -0.23209453 -0.13190635 -0.37345934 -0.22288632 -0.14691508
-0.016834322 -0.13203283 -0.28277078 -0.23695545 -0.09458387 0.080052204 -0.05187687 0.008865966
-0.18544795 -0.017259195 0.212894 0.006893643 0.11783409 0.064930625 -0.10544187 0.19304557
0.075088955 0.07508247 0.3501868 -0.04914494 0.121869065 0.10231933 0.35910738 0.2996558
0.22870104 0.06295842 -0.0007192551 -0.0076540927 -0.12431523 0.07176302 0.03382718 -0.004083697
-0.29052064 -0.16337843 -0.31073385 -0.25571254 -0.29545528 -0.13114695 -0.33805236 -0.20976499
0.09045348 0.13615912 -0.13591716 -0.23387171 -0.27858913 0.24483263 0.005541068 0.23956542
0.01475162 -0.16290487 0.06514433 0.028547004 0.101274714 -0.05383926 -0.17930786 0.07304978
-0.060237896 0.004168374 0.17831866 -0.33250052 0.023355015 0.2859995 0.16458495 0.04254652
-0.34245947 0.1616612 -0.019588763 -0.20036975 -0.055298965 -0.0027685098 0.118902765 0.31589454
-0.15872146 0.1870428 0.17054854 -0.061793894 0.2554785 -0.36686358 -0.05688196 0.09523933
0.05642122 0.3046939 -0.32944265 -0.049678054 0.12919304 -0.19479844 0.27322868 -0.42222786
-0.09468738 -0.013497655 -0.23690258 -0.04794569 0.29041108 0.016407123 -0.10120439 -0.2215514
00000000: 264b 763c 4e1b 043d ad40 87be 31eb b5be
00000010: e743 3bbe e392 0f3e 116b abbb 2bf5 e83d
00000020: 4195 4dbe 6b36 85bd 2349 883d f8e3 253d
00000030: 177d 0abe bb49 56be fa92 0cbe 6cae 103e
00000040: 5921 3a3e c07a 363e b667 1dbe 4685 cfbd
00000050: 688c 563e f0ef 9c3e b6f4 743d 4050 073e
00000060: ef2b abbc 09ed a23d 484c fd3d 29a0 82be
00000070: 7737 54be f505 09be 9b56 60bc a58d 043e
00000080: d160 3cbe 82fb 3ebe 9342 57be 5f95 11be
00000090: 687a 0fbe 1445 043e a625 083a b678 b63c
000000a0: 1ab6 4c3d 1e80 e2bd 7a31 363c b0c8 5abe
000000b0: 8b15 3cbe e486 84bd 2427 b23d b06d ba3d
000000c0: 54dc c5bd 69cc 77bd 9694 353e 3fba 6f3e
000000d0: 8ffc a43d a0ff 28bc a8e5 5b3d 62a6 e5bd
000000e0: b695 0b3d 5c0e 52be dff6 56be 6fa1 4bbe
000000f0: d15e e43d d2f1 8a3d 0079 3abe 3124 87bb
00000100: dd42 723c b2c1 32bc 44fd 2dbc 3702 753d
00000110: fdcc 003e 827b 2b3e b574 3ebe c709 02be
00000120: dc91 023e 989c 453e 2c0b 2f3e becb 863e
00000130: 6008 d13d 34f0 25be 292d 2abd c7a6 8cbe
00000140: a3e7 92bd eb23 973e 0ace 6b3e 97f9 70be
00000150: 611e 3dbe 5631 613c 1bcb a73d b90f e83c
00000160: f5c6 4a3d 782f a9be 1303 a63d 7c8c 433e
00000170: 4b16 533e 8f4e 553d 2e7a d3be dd70 f5bd
00000180: 9b4b 4c3e 2848 1a3e 27b6 febd f42d a0be
00000190: 07b0 433e 4437 aa3d 399f 41be 7ea4 2cbe
000001a0: cfd4 3abe 1170 82ba ea67 4bbe be01 80be
000001b0: 1e97 94bd 4926 d43d 0c5e c3bd 950d 183d
000001c0: 8353 35be 88fd 413e 930b 703e 603e 26be
000001d0: f11a b1bd f49a 233c 6fee 9e3d d331 0a3e
000001e0: b7cc b73d f61d 38bc a0a1 b1bd dcd1 023e
000001f0: 540f 0bbe 11f0 4bbe 73f5 2abe ee25 7fbe
00000200: 6978 95be 0f29 84be be50 46bd 5000 e8bc
00000210: a205 70be 3028 30be f463 c83d 3ea5 8e3d
00000220: 1c82 af3d f9cb ad3d 3d13 0d3d b157 013e
00000230: 2c2d 8b3e a7ba 793e 4d36 8c3e b7b8 b0bc
00000240: 4ad9 13be ca02 f43b ef0e 853e 2990 a33d
00000250: 367b b7bd 548f eabd e967 76be 88d3 a9be
00000260: 4392 4fbe 4f42 8abd c8fe 13bc 30aa 6dbe
00000270: 7512 07be 1036 bfbe 503c 64be e870 16be
00000280: 22e8 89bc 9d33 07be 55c7 90be 73a4 72be
00000290: 30b5 c1bd 69f2 a33d d77c 54bd 8f42 113c
000002a0: 11e6 3dbe 2863 8dbc e200 5a3e 12e4 e13b
000002b0: 0053 f13d 59fa 843d e8f1 d7bd bdad 453e
000002c0: 3dc8 993d d7c4 993d af4b b33e 344c 49bd
000002d0: 7d96 f93d cc8c d13d ecdc b73e 7c6c 993e
000002e0: 9b30 6a3e 58f0 803d 658c 3cba 2fcf fabb
000002f0: fc98 febd 7df8 923d 5e8e 0a3d 89d0 85bb
00000300: 1fbf 94be ad4c 27be 8218 9fbe c1ec 82be
00000310: ea45 97be 634b 06be 3315 adbe a2cc 56be
00000320: ad3f b93d 4c6d 0b3e de2d 0bbe 117c 6fbe
00000330: 3ca3 8ebe 68b5 7a3e d991 b53b a350 753e
00000340: c7b0 713c 89d0 26be 646a 853d 68db e93c
00000350: 1e69 cf3d 8e86 5cbd 7b9c 37be 209b 953d
00000360: 03bc 76bd db96 883b 2b99 363e 823d aabe
00000370: 0453 bf3c 876e 923e f588 283e 4245 2e3d
00000380: d956 afbe 838a 253e 9d78 a0bc ba2d 4dbe
00000390: 2b81 62bd e36f 35bb 4b83 f33d eebc a13e
000003a0: e187 22be 2688 3f3e 47a4 2e3e 981b 7dbd
000003b0: 14ce 823e 8bd5 bbbe 0ffd 68bd d60c c33d
000003c0: f019 673d d700 9c3e b5ac a8be 377b 4bbd
000003d0: 2e4b 043e 3e79 47be a1e4 8b3e 402e d8be
000003e0: 75eb c1bd 4525 5dbc 9796 72be b362 44bd
000003f0: c3b0 943e 3b68 863c 3f44 cfbd 5fde 62be

bias f4 [32]
0.0011932823 -0.44417164 0.28087616 -0.2541102 -0.1897933 0.14321284 -0.46849567 -0.08669357
-0.059073206 -0.00983824 -0.268743 -0.045625854 -0.03821823 -0.19440067 -0.16632664 0.15702072
-0.08076215 -0.21182707 -0.049148634 -0.004849584 0.2838145 -0.36529538 0.10173927 -0.046194915
-0.054714028 -0.2249475 -0.027418725 -0.018274903 -0.030102873 -0.03856067 0.08364009 -0.29914972
00000000: e967 9c3a 776a e3be 00cf 8f3e bb1a 82be
00000010: 2d59 42be 63a6 123e aade efbe 668c b1bd
00000020: bff6 71bd 9230 21bc af98 89be 2de2 3abd
00000030: b88a 1cbd f810 47be 8851 2abe 0aca 203e
00000040: a066 a5bd 32e9 58be 1450 49bd 42e9 9ebb
00000050: 2250 913e ff07 bbbe ae5c d03d e136 3dbd
00000060: d11b 60bd a358 66be 3c9d e0bc 40b5 95bc
00000070: 4d9a f6bc cbf1 1dbd 7f4b ab3d 272a 99be

weight f4 [64, 32, 5, 5]
-0.0018754168 -0.036216643 -0.035956964 0.030413015 0.0243654 -0.010117774 -0.026276251 0.0060491655
0.00039832926 0.035617124 0.0045832144 0.001558724 0.014673823 0.0027446484 0.030499315 0.032395694
0.00012082701 0.010986735 0.020154007 0.04564525 -0.0147936 -0.027832618 0.0030689822 -0.025719343
0.000692578 -0.016038865 0.0035515868 -0.044634677 0.020939507 0.060263652 0.004007976 -0.018353017
0.024806112 -0.020493388 0.021028547 -0.02043125 -0.01896 -0.0016622973 0.0019153893 0.011499146
-0.0383902 -0.0071877996 -0.010343561 0.0016881455 0.03159462 0.03518876 -0.025340145 -0.0121199135
-0.011582141 -0.031068373 -0.02592399 0.040145826 0.015105155 0.022942249 0.01412439 -0.03514764
0.012202332 0.031621158 -0.01111059 0.029023405 0.004976583 0.032015476 -0.013506154 0.027098898
-0.03205242 -0.0011557374 0.02691837 0.023521537 0.043812245 0.032714214 0.021254277 0.028998764
0.032735903 0.007524235 -0.021907797 -0.016592624 -0.035738073 -0.015796378 0.033726174 0.0314604
0.0021087779 -0.019369723 0.035833135 0.01861473 -0.016688177 -0.031879008 -0.0064685387 0.007919326
0.020022895 -0.022371052 -0.045773864 -0.00014329061 0.017073834 -0.03125826 0.019756611 -0.048793674
0.013036947 0.00093683286 0.03243879 -0.043272473 -0.026283555 0.02168104 0.018834308 0.021323051
0.021055654 -0.023711365 0.023871034 -0.043036427 0.0075207464 -0.029700639 -0.01651205 -0.0012988473
-0.026222816 -0.0068682716 -0.03786711 -0.031793263 0.008346442 -0.024539802 -0.025553383 -0.024976986
-0.023719838 -0.029131407 0.02289716 0.011797255 -0.0020771667 -0.0252654 -0.0053991172 0.0054787626
-0.017075883 0.022303082 0.043619424 -0.037299845 -0.016512586 0.011030983 0.037933294 -0.01080577
0.0065304637 0.036192145 0.021462725 0.024530942 0.043426566 0.027759183 -0.006029665 0.020060077
0.03798055 0.045802686 -0.018819923 0.037371304 0.0076471055 -0.020668887 0.027553968 -0.02326998
-0.03037742 -0.03633078 0.019024529 0.016623328 -0.011268276 -0.008242859 -0.0018593554 0.057930537
0.020698033 -0.010020137 0.0019359227 0.00045488033 0.0311426 0.007620866 0.0057771206 -0.018806277
-0.0049960627 -0.010622494 0.024365544 -0.022576371 -0.027710184 0.0037861813 -0.02047685 -0.034215115
-0.013574458 -0.013038687 0.0035241798 -0.0069639673 0.009376526 -0.03227618 -0.01829651 0.0123904785
0.016888306 -0.01016991 -0.029212989 -0.005460132 0.010791915 -0.039246663 -0.037513956 -0.00051385723
-0.03569658 -0.053213123 -0.04595041 0.027764922 0.0057667294 0.036217455 0.04485795 0.010711052
-0.0030306668 -0.027281797 0.0063602203 0.028070984 -0.011843388 -0.011642972 -0.04402858 0.021212786
-0.023155052 0.037769713 -0.017278196 -0.030811325 0.023003425 0.008556704 0.038452715 0.003551848
-0.038763434 0.023226704 -0.0067938864 -0.00232568 0.0065634637 0.022229036 -0.041614212 -0.013163444
0.030284515 0.016498696 0.041569214 -0.015130631 -0.0023323898 0.0299774 0.019192226 0.04309205
-0.01781432 -0.0110520385 -0.014698164 -0.024618568 0.026518213 0.028275652 0.029157948 -0.009560682
0.02343761 -0.016004082 0.040791962 -0.013943019 -0.04562063 0.009822814 0.04196541 0.036952604
0.047028434 -0.029567065 0.020277759 0.0010442545 0.013710982 -0.0014920312 0.008065678 0.01327197
00000000: 8cd0 f5ba e757 14bd 9c47 13bd b724 f93c
00000010: f399 c73c 05c5 25bc 4b41 d7bc 1438 c63b
00000020: d9d6 d039 43e3 113d ca2e 963b 194e cc3a
00000030: 796a 703c 8fdf 333b b3d9 f93c 59b1 043d
00000040: 8264 fd38 b501 343c 041a a53c 83f6 3a3d
00000050: db60 72bc 3b01 e4bc fa20 493b 5fb1 d2bc
00000060: 1f8e 353a f063 83bc bdc1 683b dad2 36bd
00000070: 5489 ab3c 05d7 763d 5755 833b 1159 96bc
00000080: 3036 cb3c c0e1 a7bc 0f44 ac3c 705f a7bc
00000090: 0052 9bbc 71e1 d9ba cd0d fb3a ea66 3c3c
000000a0: 0b3f 1dbd a287 ebbb 0a78 29bc c344 dd3a
000000b0: 5c69 013d 1722 103d 2396 cfbc 9a92 46bc
000000c0: 05c3 3dbc 1a83 febc 8c5e d4bc f36f 243d
000000d0: 9d7b 773c 62f1 bb3c fc69 673c f9f6 0fbd
000000e0: 4aec 473c 3085 013d 3109 36bc 7ec2 ed3c
000000f0: 9b12 a33b a922 033d ea48 5dbc 82fe dd3c
00000100: 6649 03bd 1d7c 97ba ea83 dc3c 3db0 c03c
00000110: 7874 333d 57ff 053d 731d ae3c d18e ed3c
00000120: 1516 063d dc8d f63b fb77 b3bc 41ed 87bc
00000130: 1662 12bd 6867 81bc 7524 0a3d 9fdc 003d
00000140: 6c33 0a3b 41ad 9ebc c4c5 123d eb7d 983c
00000150: a5b5 88bc 9093 02bd 09f6 d3bb 10c0 013c
00000160: 0e07 a43c 7f43 b7bc 607d 3bbd 4840 16b9
00000170: 6dde 8b3c a908 00bd 9ed8 a13c e0db 47bd
00000180: eb98 553c ca95 753a 89de 043d 7a3e 31bd
00000190: 9c50 d7bc 709c b13c 684a 9a3c aead ae3c
000001a0: e87c ac3c 563e c2bc 308d c33c f746 30bd
000001b0: 9870 f63b c14e f3bc 4744 87bc 153e aaba
000001c0: 3bd1 d6bc 3d0f e1bb 8b1a 1bbd a739 02bd
000001d0: 84bf 083c b207 c9bc 5455 d1bc 899c ccbc
000001e0: 1b50 c2bc fda4 eebc d392 bb3c 4649 413c
000001f0: 1321 08bb 62f9 cebc 14eb b0bb 3187 b33b
00000200: b9e2 8bbc f4b4 b63c 48aa 323d b9c7 18bd
00000210: 6745 87bc 4cbb 343c f15f 1b3d af0a 31bc
00000220: 80fd d53b 373e 143d 99d2 af3c 1df5 c83c
00000230: 0ee0 313d 3a67 e33c 7f94 c5bb 0855 a43c
00000240: 7e91 1b3d 999b 3b3d 3d2c 9abc a712 193d
00000250: 9294 fa3b cc51 a9bc dcb8 e13c afa0 bebc
00000260: 11da f8bc 95cf 14bd 54d9 9b3c a52d 883c
00000270: 939e 38bc 0e0d 07bc 9db5 f3ba 9248 6d3d
00000280: ec8e a93c 802b 24bc c9be fd3a 017d ee39
00000290: c41e ff3c 75b8 f93b 004e bd3b 9f0f 9abc
000002a0: 03b6 a3bb f809 2ebc 409a c73c 15f2 b8bc
000002b0: 7800 e3bc 9521 783b 11bf a7bc 2625 0cbd
000002c0: 6767 5ebc 38a0 55bc edf5 663b fe31 e4bb
000002d0: 00a0 193c 0734 04bd 90e2 95bc 6f01 4b3c
000002e0: 5859 8a3c b29f 26bc 1450 efbc e8ea b2bb
000002f0: 92d0 303c 1cc1 20bd 3ca8 19bd 60b4 06ba
00000300: 9436 12bd 01f6 59bd 7f36 3cbd 4373 e33c
00000310: d5f6 bc3b c158 143d f8bc 373d 697d 2f3c
00000320: 279e 46bb 137e dfbc 6569 d03b 1ff5 e53c
00000330: c50a 42bc 2ac2 3ebc 5057 34bd 70c6 ad3c
00000340: aaaf bdbc 6ab4 1a3d 018b 8dbc 0868 fcbc
00000350: ae71 bc3c 6b31 0c3c 9880 1d3d 1fc6 683b
00000360: 68c6 1ebd ee45 be3c 409f debb 706a 18bb
00000370: 5312 d73b ab19 b63c aa73 2abd 7cab 57bc
00000380: 3b17 f83c 4628 873c 7b44 2a3d 77e6 77bc
00000390: 02db 18bb 2a93 f53c 0439 9d3c 4a81 303d
000003a0: 56ef 91bc 9c13 35bc 91d0 70bc e1ac c9bc
000003b0: b93c d93c 57a2 e73c a6dc ee3c 68a4 1cbc
000003c0: 3b00 c03c fe1a 83bc 7915 273d 4371 64bc
000003d0: b3dc 3abd deef 203c ece3 2b3d 9d5b 173d
000003e0: e3a0 403d a136 f2bc 8b1d a63c 5edf 883a
000003f0: 07a4 603c 4290 c3ba e825 043c ad72 593c

bias f4 [64]
0.048673082 -0.029365906 0.05327531 0.01741681 -0.042319436 0.017092615 -0.0013364392 0.051435355
0.030534526 0.042475644 -0.03937621 0.01007219 0.02882187 0.09221621 -0.033984274 0.04887261
-0.00220387 0.025601128 0.034617677 -0.06804864 0.0032180592 -0.03884356 0.10152486 -0.0528906
0.0051522627 -0.015831245 -0.08172521 0.073426664 -0.0022908163 0.025694365 0.007382604 0.020314798
0.05913804 0.07562989 -0.020607721 0.060885888 -0.015192591 0.081881635 -0.049051933 0.018344728
-0.030223347 0.004049902 0.013314532 -0.009567702 -0.02511888 0.053809803 0.14092688 -0.005109881
-0.00870448 0.003748779 0.04834421 0.040864814 -0.059011765 -0.046008404 -0.026502727 -0.059235312
0.025645332 -0.040660113 -0.002697462 -0.035979755 -0.007166454 0.06057854 -0.0903547 0.04915965
00000000: 6d5d 473d c590 f0bc 3637 5a3d b3ad 8e3c
00000010: 2557 2dbd d005 8c3c 752b afba e1ad 523d
00000020: 8b23 fa3c f1fa 2d3d f348 21bd d405 253c
00000030: d81b ec3c dadb bc3d 1833 0bbd a52e 483d
00000040: ce6e 10bb 75b9 d13c 44cb 0d3d 165d 8bbd
00000050: 13e6 523b 6d1a 1fbd 44ec cf3d d0a3 58bd
00000060: 50d4 a83b 87b0 81bc 8c5f a7bd b860 963d
00000070: 8521 16bb fd7c d23c c5e9 f13b 386b a63c
00000080: bb3a 723d d8e3 9a3d 86d1 a8bc 7b63 793d
00000090: 58ea 78bc 8fb1 a73d aeea 48bd af47 963c
000000a0: f496 f7bc 0ab5 843b 3225 5a3c dac1 1cbc
000000b0: 1cc6 cdbc ab67 5c3d 234f 103e ca70 a7bb
000000c0: 3c9d 0ebc 13ae 753b 9404 463d dd61 273d
000000d0: 52b6 71bd 4f73 3cbd 3f1c d9bc baa0 72bd
000000e0: 2916 d23c 388b 26bd e7c7 30bb 825f 13bd
000000f0: 93d4 eabb 3421 783d e30b b9bd a15b 493d

weight f4 [512, 64]
0.10061765 -0.12724683 -0.057986006 -0.091280006 0.092527434 0.109144956 0.08531525 0.12731975
-0.039061073 -0.029437877 0.03906693 -0.023258284 0.13647594 0.0633311 -0.058103953 0.09953639
0.11686931 0.10089542 0.054152943 -0.0049155005 -0.13163282 0.03883572 0.032586426 0.08597094
0.0076702456 0.069759205 0.059043102 0.06778938 0.025376044 -0.1432806 -0.11610441 0.15309529
-0.0724903 0.06836181 0.07039961 -0.08081504 -0.011541887 0.0864118 -0.083658226 -0.027490906
0.05173413 -0.033372715 0.042849038 -0.0008291748 -0.084660396 0.0807897 0.13506089 0.13021581
-0.10884367 0.10522684 -0.06813178 0.025387494 0.07771191 -0.0075790305 -0.010991037 -0.1702004
0.019561743 0.021620246 0.08686107 -0.10166408 -0.07167858 0.13106927 0.03075961 -0.030412199
0.10691215 0.028680533 0.12034112 0.09517248 0.03290146 0.06433812 -0.009029303 -0.030026276
0.11631404 -0.01294372 -0.03891982 -0.09032861 -0.049344428 -0.13660645 -0.1095977 0.04688914
-0.11975439 0.043857858 0.04410926 0.08520089 0.080959454 0.0558972 0.0886241 -0.14350852
0.06844466 0.10368323 0.10906399 -0.107840925 -0.10907156 0.10434446 -0.09186477 -0.1289936
0.026801353 0.037668295 0.11678263 -0.08727557 0.07185747 -0.018575752 0.020671243 0.06043797
0.098706506 0.010217364 0.057468966 -0.07847167 0.09249657 0.10710612 0.058753237 -0.08744976
0.10439917 0.02832632 0.04945301 0.05620096 -0.022934364 0.11327959 -0.080946565 0.12735231
0.029065344 -0.017379852 -0.13042289 -0.01721349 -0.10813278 -0.12424262 -0.08923518 0.09179766
0.053676456 -0.04934621 -0.025989039 -0.049518023 -0.0017172717 0.054739248 0.1263479 0.09969541
0.0144675085 0.07955026 -0.06472319 -0.005341165 0.029946158 -0.07939549 -0.010691206 0.020478645
-0.027790513 0.12383523 -0.11903558 0.051629614 0.08563727 -0.10399013 -0.10308633 -0.048449956
0.046624556 0.028379617 -0.029998377 -0.06809371 -0.0813595 -0.12352777 -0.068552114 0.119634226
-0.020817257 -0.010546238 -0.1127833 0.078653894 -0.052850675 -0.0320397 -0.06064701 0.01125049
-0.021513602 0.06644996 -0.03019975 -0.077230886 -0.07158868 0.0006988999 0.13201816 0.07040287
0.017300025 -0.08637198 0.13233393 0.08018088 0.05729899 0.0055094217 -0.049293123 -0.03912927
0.01979167 0.082068175 0.0055288053 0.055047594 0.0114895655 -0.018448824 -0.02195828 -0.074714266
0.05161344 -0.036149703 -0.020898491 -0.11575563 0.032159403 -0.074928194 0.011835272 -0.018644013
0.12579483 -0.114797264 0.07135556 0.045246553 0.11746457 -0.11276622 0.09065844 0.06680673
0.0952479 0.10781872 0.10100928 0.031491555 -0.045693163 -0.033302136 -0.0147297 -0.014252928
-0.0950262 0.03446614 -0.104657546 -0.098765455 -0.032876585 -0.10676449 0.08592551 -0.049519017
-0.0068881963 -0.08232844 0.011596326 0.0077026063 -0.023296895 -0.10462977 -0.060512498 0.102460526
-0.04231319 -0.110601 -0.05594115 0.09545938 0.025777 -0.015051673 -0.07668135 -0.1166775
0.079227515 0.07528228 -0.098278664 0.06802181 0.10667707 -0.03412143 0.07076808 0.108534984
-0.02800072 0.04978091 0.05222721 -0.09037239 0.04714227 -0.11828016 0.015519168 0.069504745
00000000: a010 ce3d fe4c 02be bc82 6dbd 03f1 babd
00000010: 067f bd3d 6487 df3d c3b9 ae3d 1c60 023e
00000020: 81fe 1fbd b427 f1bc a504 203d 2888 bebc
00000030: 59c0 0b3e bcb3 813d 69fe 6dbd bcd9 cb3d
00000040: 2d59 ef3d 42a2 ce3d 7acf 5d3d 3512 a1bb
00000050: c1ca 06be 3412 1f3d 5879 053d 8811 b03d
00000060: af56 fb3b eadd 8e3d 2ed7 713d 29d5 8a3d
00000070: 6ce1 cf3c 26b8 12be 26c8 edbd 03c5 1c3e
00000080: cb75 94bd 4701 8c3d ac2d 903d 5b82 a5bd
00000090: 2f1a 3dbc abf8 b03d 0155 abbd 9c34 e1bc
000000a0: 2be7 533d d4b1 08bd 7982 2f3d fb5c 59ba
000000b0: 6e62 adbd 1275 a53d 674d 0a3e 4b57 053e
000000c0: 6ee9 debd 2b81 d73d ad88 8bbd 6ff9 cf3c
000000d0: 6c27 9f3d 8459 f8bb c013 34bc 0349 2ebe
000000e0: f33f a03c f11c b13c 37e4 b13d 4235 d0bd
000000f0: 38cc 92bd 0637 063e 94fb fb3c 0123 f9bc
00000100: c2f4 da3d 70f3 ea3c 6875 f63d cae9 c23d
00000110: aec3 063d b4c3 833d a4ef 13bc aaf9 f5bc
00000120: 0e36 ee3d e611 54bc 646a 1fbd 35fe b8bd
00000130: 621d 4abd 90e2 0bbe c274 e0bd d40e 403d
00000140: ca41 f5bd 4ca4 333d e9ab 343d ce7d ae3d
00000150: 12ce a53d 76f4 643d 8d80 b53d e6f3 12be
00000160: b72c 8c3d e057 d43d f15c df3d b4db dcbd
00000170: e960 dfbd 8cb2 d53d 9923 bcbd e616 04be
00000180: 838e db3c 124a 1a3d bb2b ef3d 89bd b2bd
00000190: 022a 933d 2d2c 98bc bd56 a93c ce8d 773d
000001a0: a326 ca3d bb66 273c 9464 6b3d c1b5 a0bd
000001b0: d76e bd3d 745a db3d 3ca7 703d dc18 b3bd
000001c0: 3bcf d53d 990c e83c 3d8f 4a3d fa32 663d
000001d0: d9e0 bbbc 21ff e73d 50c7 a5bd a568 023e
000001e0: 721a ee3c 3160 8ebc 948d 05be 4e03 8dbc
000001f0: b874 ddbd ea72 febd efc0 b6bd 6900 bc3d
00000200: d8db 5b3d 401f 4abd f7e6 d4bc 69d3 4abd
00000210: 1416 e1ba 4336 603d 5861 013e 1b2d cc3d
00000220: 2109 6d3c 3feb a23d 988d 84bd f004 afbb
00000230: a551 f53c 1a9a a2bd 2b2a 2fbc d5c2 a73c
00000240: eea8 e3bc 539d fd3d edc8 f3bd 9379 533d
00000250: 9862 af3d c7f8 d4bd ed1e d3bd 7673 46bd
00000260: 64f9 3e3d 5f7c e83c 28bf f5bc b774 8bbd
00000270: cf9f a6bd 21fc fcbd 0d65 8cbd ca02 f53d
00000280: f488 aabc 21ca 2cbc eefa e6bd 4b15 a13d
00000290: f379 58bd 0f3c 03bd 0069 78bd fa53 383c
000002a0: 4b3d b0bc eb16 883d 7765 f7bc 3a2b 9ebd
000002b0: 169d 92bd 6136 373a c52f 073e 612f 903d
000002c0: c8b8 8d3c cbe3 b0bd 8c82 073e e035 a43d
000002d0: 59b2 6a3d 6188 b43b 96e7 49bd 0346 20bd
000002e0: 2422 a23c 5c13 a83d fb2a b53b 9679 613d
000002f0: bb3e 3c3c fd21 97bc dae1 b3bc cb03 99bd
00000300: 9d68 533d b611 14bd 5033 abbc 4a11 edbd
00000310: 94b9 033d f473 99bd bbe8 413c 54bb 98bc
00000320: 5cd0 003e d41a ebbd dd22 923d 7354 393d
00000330: 4491 f03d faf1 e6bd 22ab b93d f8d1 883d
00000340: 5511 c33d 10d0 dc3d f4dd ce3d 4afd 003d
00000350: c128 3bbd d267 08bd d754 71bc 1d85 69bc
00000360: 199d c2bd 5e2c 0d3d b256 d6bd 8b45 cabd
00000370: 99a9 06bd 57a7 dabd b7f9 af3d 74d4 4abd
00000380: 61b6 e1bb d09b a8bd 84fe 3d3c 2566 fc3b
00000390: 21d9 bebc 2248 d6bd f4db 77bd d3d6 d13d
000003a0: 9850 2dbd c782 e2bd 8c22 65bd 3580 c33d
000003b0: 492a d33c 4b9b 76bc 1d0b 9dbd 9df4 eebd
000003c0: 0942 a23d 992d 9a3d 5346 c9bd 054f 8b3d
000003d0: 8279 da3d eac2 0bbd dbee 903d 9747 de3d
000003e0: c461 e5bc 11e7 4b3d 33ec 553d 2915 b9bd
000003f0: 4118 413d de3c f2bd 1c44 7e3c 8158 8e3d

bias f4 [512]
0.12668508 -0.123778805 -0.08336461 -0.08176286 0.072455816 -0.09042305 -0.095377564 0.043232787
-0.08466185 -0.0960335 0.13663699 0.08960895 -0.09987297 0.041808564 0.02753484 0.06831802
0.08252424 0.12901065 0.05323329 0.021348357 -0.013489582 0.036517855 -0.0403661 0.1126316
0.11709475 -0.015334813 0.0357803 -0.10285433 -0.09989797 -0.08039232 -0.03208722 0.078363545
-0.006399092 -0.09804354 0.037777334 0.07001326 -0.13337162 -0.116455086 -0.05235721 0.030993786
0.040251356 -0.06870265 0.023909792 -0.00950095 -0.010733116 0.124463394 0.049367927 -0.011937522
0.04952888 -0.076513276 0.09952723 -0.002500168 0.07397339 -0.03433073 0.03282272 0.07265237
0.07397585 -0.009311575 -0.060882866 0.060850713 0.11020895 -0.036390804 -0.020585908 0.011418841
0.09789365 0.04470409 -0.011265294 0.05223944 -0.044101823 -0.049758233 0.13540064 -0.094177514
-0.112493455 -0.0037417617 -0.11357238 -0.00981114 0.07439312 0.0053313333 0.02054131 0.1251549
-0.07697325 0.100551486 0.09104427 0.03789145 0.07078723 -0.09612948 0.020181408 -0.018089289
-0.056462586 0.030049369 -0.12312167 0.10835153 -0.11926423 0.14241506 0.04682316 0.10487128
-0.06947541 -0.06883362 0.03045387 -0.08446153 -0.08116719 -0.1224401 0.07541179 -0.0060809003
0.10130903 0.12292501 0.047397554 0.045337055 -0.080221735 0.048824947 -0.0031790852 -0.11658475
0.009811532 -0.121965796 -0.122232534 -0.08825661 -0.049704134 -0.11039202 0.04036197 -0.11568091
0.026981277 -0.085433856 0.07287956 0.08313782 0.008203023 -0.12264685 0.081399225 0.059922174
-0.109099396 0.06065002 -0.107488975 -0.09782433 -0.01859258 -0.060976744 -0.050781522 0.08601342
-0.02722952 0.022031633 -0.12320415 0.010408099 0.040240847 -0.12294565 -0.052398205 -0.014444231
-0.112335674 -0.033520136 0.11027641 0.14286835 0.16523036 0.12978701 0.1556949 -0.09154487
0.042514235 -0.10368772 0.113509394 -0.033029042 0.13149013 -0.009851089 -0.026164647 0.09160753
0.1146878 0.05221945 0.04000086 0.06819045 -0.08494632 0.009910185 -0.016366798 -0.08887509
0.04571958 0.04199355 -0.04798696 0.00976603 -0.11250036 0.1340839 -0.028814876 0.0834806
-0.10190335 0.022950118 -0.059871595 -0.11941426 0.13439462 0.04726814 -0.042814177 0.06778665
-0.10156711 0.12678143 -0.085956745 -0.021010544 0.075170636 -0.1216653 0.069942266 0.008973787
-0.037388913 0.05577502 -0.05986329 -0.028951963 -0.06695239 -0.031945724 -0.053380914 -0.05270497
0.048440285 0.052429594 -0.089022525 0.02246207 0.10854005 -0.054477636 0.05360418 -0.09017972
0.099856205 0.030962167 -0.054494184 0.103348784 0.0024573212 0.046929557 -0.06947509 -0.010048297
-0.07157124 0.089827955 0.09824719 -0.05780933 0.018714301 0.03278989 0.044068802 -0.06981184
0.020226395 0.07247665 -0.09627221 -0.032290608 0.03999363 0.093193576 -0.027232366 -0.07009675
0.022814428 0.03425984 0.13272557 0.094153784 -0.0061436547 -0.015822487 0.041368116 -0.121007554
0.09967541 0.0952421 0.05834437 -0.08790045 0.013736698 0.08677158 0.07542244 -0.051512603
-0.031541463 -0.07307084 0.009171652 -0.12057605 0.1000843 -0.039335262 0.07758854 -0.037608318
00000000: bcb9 013e be7f fdbd 11bb aabd 4973 a7bd
00000010: b763 943d b82f b9bd 5055 c3bd dd14 313d
00000020: 3163 adbd 36ad c4bd 91ea 0b3e e684 b73d
00000030: 338a ccbd 753f 2b3d bf90 e13c 51ea 8b3d
00000040: 7802 a93d 5e1b 043e 260b 5a3d c0e2 ae3c
00000050: 6803 5dbc bf93 153d ec56 25bd 65ab e63d
00000060: 5fcf ef3d de3e 7bbc 5d8e 123d 4aa5 d2bd
00000070: 4f97 ccbd bba4 a4bd e46d 03bd 117d a03d
00000080: 79af d1bb 0dcb c8bd 68bc 1a3d 1d63 8f3d
00000090: 9292 08be 0180 eebd 8474 56bd aee6 fd3c
000000a0: 9bde 243d fab3 8cbd 78de c33c dfa9 1bbc
000000b0: f4d9 2fbc aae6 fe3d 0636 4a3d 9995 43bc
000000c0: cbde 4a3d feb2 9cbd efd4 cb3d dcd9 23bb
000000d0: 5c7f 973d 619e 0cbd 1e71 063d c4ca 943d
000000e0: a780 973d 948f 18bc 5060 79bd 993e 793d
000000f0: 3bb5 e13d 860e 15bd c7a3 a8bc 1716 3b3c
00000100: 777c c83d a31b 373d 1192 38bc 06f9 553d
00000110: 1da4 34bd 4acf 4bbd 77a6 0a3e 24e0 c0bd
00000120: f862 e6bd 5838 75bb a398 e8bd e7be 20bc
00000130: 6c5b 983d 77b2 ae3b 4046 a83c 9b28 003e
00000140: 27a4 9dbd f0ed cd3d 6b75 ba3d 1134 1b3d
00000150: e5f8 903d 88df c4bd 7b53 a53c fd2f 94bc
00000160: 5045 67bd 182a f63c 3727 fcbd 68e7 dd3d
00000170: ce40 f4bd 41d5 113e a4c9 3f3d c1c6 d63d
00000180: 2049 8ebd a4f8 8cbd 657a f93c 2bfa acbd
00000190: fc3a a6bd e0c1 fabd 7f71 9a3d 4a42 c7bb
000001a0: 1c7b cf3d 1cc0 fb3d f023 423d 59b3 393d
000001b0: 4b4b a4bd abfc 473d 3358 50bb fcc3 eebd
000001c0: 8cc0 203c 34c9 f9bd 0d55 fabd e2bf b4bd
000001d0: 9096 4bbd 3615 e2bd 9852 253d 1dea ecbd
000001e0: d707 dd3c f2f7 aebd e141 953d 2944 aa3d
000001f0: f965 063c 462e fbbd a3b4 a63d f470 753d
00000200: 816f dfbd 286c 783d 2e23 dcbd 1f58 c8bd
00000210: 774f 98bc c0c2 79bd 4900 50bd ce27 b03d
00000220: 7110 dfbc af7b b43c 7552 fcbd bb86 2a3c
00000230: 96d3 243d eeca fbbd 809f 56bd 7fa7 6cbc
00000240: 3f10 e6bd 694c 09bd 99d8 e13d 154c 123e
00000250: 2632 293e e3e6 043e 7c6e 1f3e e07b bbbd
00000260: 6823 2e3d 3a5a d4bd 9d77 e83d 7649 07bd
00000270: 59a5 063e 7666 21bc 3e57 d6bc bb9c bb3d
00000280: 70e1 ea3d 10e4 553d f1d7 233d 6fa7 8b3d
00000290: 56f8 adbd 545e 223c aa13 86bc 2504 b6bd
000002a0: 7444 3b3d 6e01 2c3d f98d 44bd b301 203c
000002b0: 9766 e6bd 4a4d 093e 2d0d ecbc e0f7 aa3d
000002c0: b4b2 d0bd e301 bc3c eb3b 75bd 778f f4bd
000002d0: be9e 093e 3d9c 413d eb5d 2fbd bad3 8a3d
000002e0: 6b02 d0bd fed2 013e 170a b0bd 4e1e acbc
000002f0: 10f3 993d a82b f9bd e43d 8f3d ca06 133c
00000300: 1e25 19bd 5974 643d 3633 75bd ab2c edbc
00000310: 561e 89bd 85d9 02bd f2a5 5abd 2be1 57bd
00000320: 5269 463d 6ac0 563d 7151 b6bd 6002 b83c
00000330: 3f4a de3d f123 5fbd 0f90 5b3d 25b0 b8bd
00000340: 6981 cc3d 5fa4 fd3c 4b35 5fbd 87a8 d33d
00000350: 020b 213b 3539 403d f548 8ebd 9da1 24bc
00000360: f193 92bd b8f7 b73d d335 c93d 7ac9 6cbd
00000370: bc4e 993c b14e 063d 7d81 343d 83f9 8ebd
00000380: d3b1 a53c a36e 943d 5d2a c5bd 2843 04bd
00000390: 5cd0 233d 46dc be3d 6916 dfbc e38e 8fbd
000003a0: 53e5 ba3c 0c54 0c3d 36e9 073e b3d3 c03d
000003b0: b650 c9bb 299e 81bc 9d71 293d cfd2 f7bd
000003c0: 9f22 cc3d 4a0e c33d 82fa 6e3d 2705 b4bd
000003d0: e30f 613c 4cb5 b13d 1577 9a3d e1fe 52bd
000003e0: 9f31 01bd 2aa6 95bd b244 163c 93f0 f6bd
000003f0: fff8 cc3d 031e 21bd bee6 9e3d 2e0b 1abd

weight f4 [200, 512]
0.052734427 -0.0020223192 0.036357082 0.02549499 0.075294256 0.051266175 0.03863647 0.010128558
0.016893625 -0.026403397 0.021993354 0.10179286 -0.0038769573 -0.013633993 -0.007629717 -0.00061158155
0.062820286 -0.022229666 0.08711895 0.015561979 -0.009052875 -0.017212035 0.014459653 0.032470495
-0.013098314 -0.014152293 -0.023248518 0.07983828 -0.034487642 -0.014992642 -0.029950118 -0.0038436223
0.0015795266 -0.022260714 0.056220602 -0.036939494 0.0161817 -0.018441975 -0.042648822 -0.0041335635
0.05705637 0.03160966 -0.016201716 -0.0011648019 0.075885035 -0.014752169 0.03359597 0.008647211
0.07056767 -0.014192588 -0.031989206 0.05033011 0.10382266 0.124493316 -0.009733381 0.035235263
0.043571193 -0.0028301855 0.012736266 0.113690495 0.061658137 0.023984034 -0.012847489 -0.038633365
-0.014496172 0.029831866 -0.012528477 0.006281187 0.041966893 -0.03622161 0.067483604 0.019700646
-0.0024773614 0.0033832586 -0.031457365 -0.016335892 -0.00066997146 0.04353674 -0.023226637 0.022422599
0.07374603 -0.04205058 0.035996776 0.0046644695 -0.036921587 -0.009252648 -0.022771433 0.023976676
0.03205236 -0.02109357 -0.024853997 -0.0009452136 -0.008905873 0.022325873 0.070597306 0.047879472
0.026560642 0.034345616 -0.01342059 -0.04013673 -0.006703586 0.0396916 0.01794512 -0.03055329
0.076823875 0.087701485 -0.026291143 -0.008767974 0.015737463 0.062061254 -0.034524966 0.014259205
-0.018862702 0.023425225 0.040757004 0.008496872 0.0255733 -0.043528806 0.027967975 0.03419205
-0.0073008784 -0.034955356 -0.010611193 0.02712382 -0.039329108 -0.038812622 -0.032598916 0.008167383
0.056201108 0.048963334 0.03516111 0.00064552954 0.04726907 0.022454288 -0.013267977 0.03107179
0.013438856 -0.039817378 -0.013303955 -0.0036914225 0.0014936895 -0.016088298 0.008386355 0.114499204
-0.02956936 -0.009065995 -0.011480836 0.044626046 0.020453094 0.0702249 -0.038883656 -0.021920227
0.07541006 6.150635e-05 -0.0077094194 0.034229167 -0.022107366 0.02993646 0.0052623404 -0.011828507
0.02691165 -0.037339546 0.064298876 0.013503402 0.027166337 0.05876963 0.072805956 0.03280061
0.031255692 0.028424677 0.051966153 -0.017498817 0.091432065 0.04663509 0.0031248145 -0.036302272
-0.022178689 0.06523927 -0.030228324 -0.012856139 0.13005076 -0.05910464 -0.033612352 0.019498697
0.004756607 0.06324815 0.07033074 0.011763812 -0.051393546 0.0407955 -0.009024718 -0.01841032
0.055849917 -0.04059952 -0.013601353 0.0084172115 0.070908315 0.008347488 -0.03800191 -0.034662236
0.0692771 -0.05271651 0.08328219 0.11107992 0.025634397 -0.006959698 0.05621985 -0.03981359
0.013669995 0.008336347 0.03579378 0.018183056 -0.0020592855 0.024732998 -0.012709552 0.048749972
0.0004862845 -0.016557958 0.026839418 -0.024227286 0.029852862 -0.014640226 0.018170614 0.03230136
-0.027487803 -0.0074990005 0.13910563 0.012915706 -0.024401912 0.028528312 0.019788252 0.078754656
-0.0387229 0.017136557 0.079312414 0.062909134 -0.029869929 -0.029521924 -0.057029516 0.033663653
0.032310378 0.043983076 0.026363946 -0.0030996988 -0.016462049 -0.010811707 0.01409141 0.0019638166
-0.0042082653 -0.02929489 0.012293776 0.072951265 0.044402808 0.024087276 -0.0436188 0.0015153345
00000000: 0e00 583d e388 04bb 2aeb 143d dfda d03c
00000010: e033 9a3d 7bfc 513d 4641 1e3d 40f2 253c
00000020: 8064 8a3c f04b d8bc 682b b43c c678 d03d
00000030: 8d14 7ebb 1d61 5fbc b402 fabb 8b52 20ba
00000040: eca7 803d fd1a b6bc 6c6b b23d acf7 7e3c
00000050: 8352 14bc 4100 8dbc 2ee8 6c3c c8ff 043d
00000060: 509a 56bc 05df 67bc ad73 bebc 4182 a33d
00000070: ea42 0dbd b3a3 75bc f359 f5bc 48e5 7bbb
00000080: 1e08 cf3a 1a5c b6bc 9347 663d de4d 17bd
00000090: 7c8f 843c a013 97bc 88b0 2ebd d872 87bb
000000a0: f1b3 693d 2179 013d 76b9 84bc 44ac 98ba
000000b0: 9d69 9b3d 15b3 71bc ee9b 093d 08ad 0d3c
000000c0: c885 903d 0788 68bc 1d07 03bd f226 4e3d
000000d0: faa0 d43d 5af6 fe3d c278 1fbc da52 103d
000000e0: b577 323d a27a 39bb c5ab 503c 90d6 e83d
000000f0: 3e8d 7c3d 2a7a c43c 467e 52bc 053e 1ebd
00000100: 5a81 6dbc f561 f43c 3e44 4dbc 6ad2 cd3b
00000110: 7ae5 2b3d 1c5d 14bd d834 8a3d 4063 a13c
00000120: 3a5b 22bb a9b9 5d3b 70d9 00bd d9d2 85bc
00000130: 06a1 2fba 9553 323d ca45 bebc 99af b73c
00000140: 2908 973d 3b3d 2cbd 5b71 133d 68d8 983b
00000150: 173b 17bd 6b98 17bc 288b babc bc6a c43c
00000160: 5649 033d 6ccc acbc 9c9a cbbc 36c8 77ba
00000170: f0e9 11bc c0e4 b63c 5295 903d 441d 443d
00000180: b495 d93c fdad 0c3d 09e2 5bbc 6966 24bd
00000190: c1a9 dbbb a993 223d a501 933c e54a fabc
000001a0: d655 9d3d d69c b33d 8660 d7bc 8ca7 0fbc
000001b0: daeb 803c f133 7e3d 0d6a 0dbd 719f 693c
000001c0: f485 9abc 42e6 bf3c d1f0 263d 7736 0b3c
000001d0: 197f d13c 434b 32bd 181d e53c f70c 0c3d
000001e0: 353c efbb 592d 0fbd 92da 2dbc c632 de3c
000001f0: 8f17 21bd fcf9 1ebd 7186 05bd 7dd0 053c
00000200: 2233 663d c78d 483d 1905 103d c138 293a
00000210: 369d 413d 0ef2 b73c ee61 59bc 448a fe3c
00000220: a62e 5c3c 8c17 23bd d5f8 59bc cbeb 71bb
00000230: e7c7 c33a 9bcb 83bc ec66 093c 8f7e ea3d
00000240: 713b f2bc 8a89 14bc 1e1a 3cbc cdc9 363d
00000250: 3f8d a73c 13d2 8f3d 7844 1fbd 0c92 b3bc
00000260: 9770 9a3d f8fc 8038 4c9f fcbb e233 0c3d
00000270: 821a b5bc 4f3d f53c b66f ac3b 5bcc 41bc
00000280: d275 dc3c 5af1 18bd 21af 833d 5f3d 5d3c
00000290: f08b de3c 6cb8 703d 4a1b 953d ef59 063d
000002a0: f805 003d deda e83c 76da 543d ae59 8fbc
000002b0: bc40 bb3d 7004 3f3d b0c9 4c3b b1b1 14bd
000002c0: 15b0 b5bc 2b9c 853d 64a1 f7bc 8ea2 52bc
000002d0: 072c 053e b517 72bd 1bad 09bd bbbb 9f3c
000002e0: 50dd 9b3b 3f88 813d 9009 903d 01bd 403c
000002f0: 0a82 52bd 2f19 273d 69dc 13bc 3dd1 96bc
00000300: e2c2 643d af4b 26bd 36d8 5ebc 58e8 093c
00000310: 6138 913d e7c3 083c e4a7 1bbd fdf9 0dbd
00000320: 27e1 8d3d 44ed 57bd da8f aa3d de7d e33d
00000330: 3aff d13c 2e0e e4bb c946 663d 9313 23bd
00000340: 1df8 5f3c 2c95 083c 809c 123d a2f4 943c
00000350: 14f5 06bb db9c ca3c ba3b 50bc 0dae 473d
00000360: 00f4 fe39 8ea4 87bc 57de db3c 4d78 c6bc
00000370: fd8d f43c 8fdd 6fbc 8ada 943c 6e4e 043d
00000380: 1a2e e1bc 2dba f5bb b571 0e3e 669c 533c
00000390: 85e6 c7bc 35b4 e93c f91a a23c 1f4a a13d
000003a0: e79b 1ebd f761 8c3c 8c6e a23d 81d6 803d
000003b0: c8b1 f4bc f6d7 f1bc c897 69bd e6e2 093d
000003c0: e357 043d 9927 343d 34f9 d73c 5124 4bbb
000003d0: 6bdb 86bc 9623 31bc a8df 663c 60b3 003b
000003e0: 7de5 89bb d6fb efbc d56b 493c 7967 953d
000003f0: b8df 353d ae52 c53c a0a9 32bd 309e c63a

bias f4 [200]
-0.01855708 0.009044723 -0.046730794 0.19989069 0.19571778 -0.03203926 -0.02782304 0.020313265
-0.0027804056 0.042053044 0.024566175 0.040334687 0.03297536 -0.04358913 -0.03589195 -0.018463582
-0.0025484678 -0.034834802 0.0121427 -0.012036413 -0.009366079 0.037426762 -0.042604517 -0.010454742
0.009484177 0.01417932 -0.013548062 -0.016337337 -0.04209021 0.017688157 -0.022565665 -0.013175896
0.038916312 -0.019821655 0.022086116 0.021029284 -0.031518728 -0.0393053 -0.04053372 -0.023724502
0.01473463 -0.03383311 0.010603184 -0.018577548 0.034816254 -0.04213071 0.0038063033 -0.021711256
-0.042380255 0.012105465 0.00755821 0.007450456 0.010835503 -0.02866137 -0.043064144 0.025575828
-0.005998766 -0.019789929 0.017284712 -0.011493481 0.04166548 -0.020896012 0.0033260395 -0.044646982
-0.025828362 -0.012022264 -0.013664646 0.037108865 0.0044205985 0.023237891 -0.013847892 0.01530668
-0.03447806 -0.0023035435 -0.0013512981 0.0019925686 -0.001982963 0.01697871 -0.00072499836 -0.024260255
-0.015228245 0.006510142 -0.009484953 -0.005888737 -0.022607706 0.009004412 -0.007059284 -0.04512573
-0.006704461 -0.043864366 -0.0017185297 -0.038483404 0.011523602 0.016908249 -0.010244521 -0.016221114
0.012682859 0.033449437 0.018293153 0.028380612 0.03963571 -0.0118309 -0.018281238 -0.042197924
0.015068331 0.033129018 -0.010312347 0.002889934 0.006832493 -0.041611776 -0.0036896267 -0.02640283
0.026326166 0.014481078 -0.029155737 -0.018096432 0.01255861 0.036961585 -0.010524433 -0.012079784
-0.00862419 0.0014941262 0.0019433 -0.012309196 0.006135756 -0.0018611886 0.0032147048 -0.034913663
0.015625868 0.029702561 0.009414887 -0.024575697 0.020407699 0.03938416 -0.018909046 0.011470405
-0.015814507 -0.008319848 0.022661177 -0.0005665737 -0.012240925 0.02704904 -0.032213658 -0.01884243
0.029271096 0.04098666 -0.02258853 0.040573847 0.037460335 0.015048185 -0.02400669 0.0061480165
-0.026587643 0.03382081 0.014296496 -0.00065843994 0.036577895 0.0038001493 -0.030424666 0.02907921
-0.04585879 -0.035675008 0.03247904 -0.023040626 -0.009075978 -0.04070244 -0.025115918 0.027304841
0.018294977 -0.020393375 0.0022339267 0.041936506 0.023532443 0.029226303 -0.029966952 0.013720095
-0.024024721 -0.011959547 -0.0107215615 -0.023651924 0.017746817 0.041859973 -0.025665151 -0.022491941
-0.017722951 0.032653503 -0.011162292 -0.025787001 -0.0061155614 -0.021339176 -0.035749402 -0.013159666
0.02254798 0.029677292 -0.024237024 -0.016076963 -0.023972038 0.00057223276 -0.0024846594 0.038288247
00000000: 0405 98bc 5130 143c ca68 3fbd 25b0 4c3e
00000010: 3e6a 483e 993b 03bd 25ed e3bc 0168 a63c
00000020: 7737 36bb d03f 2c3d 013f c93c fc35 253d
00000030: 2c11 073d 848a 32bd 7003 13bd f040 97bc
00000040: 3204 27bb f0ae 0ebd 2df2 463c 6034 45bc
00000050: 2f74 19bc ce4c 193d 1382 2ebd 5e4a 2bbc
00000060: 8663 1b3c 6150 683c b1f8 5dbc e1d5 85bc
00000070: c966 2cbd c1e6 903c a1db b8bc b7df 57bc
00000080: b666 1f3d 0661 a2bc f1ed b43c 9b45 ac3c
00000090: c819 01bd 98fe 20bd b006 26bd e359 c2bc
000000a0: 8469 713c 9694 0abd fab8 2d3c f12f 98bc
000000b0: 7d9b 0e3d 4091 2cbd 2c73 793b cedb b1bc
000000c0: eb96 2dbd 0056 463c dcaa f73b f422 f43b
000000d0: 6587 313c 40cb eabc 0764 30bd 6684 d13c
000000e0: 4c91 c4bb 7d1e a2bc ab98 8d3c 274f 3cbc
000000f0: 6ca9 2a3d 1d2e abbc aff9 593b c1df 36bd
00000100: 0096 d3bc 08f9 44bc aee1 5fbc 77ff 173d
00000110: abda 903b 645d be3c 45e2 62bc dfc8 7a3c
00000120: de38 0dbd 0cf7 16bb 0a1e b1ba c195 023b
00000130: 99f4 01bb f016 8b3c d10d 3eba 71bd c6bc
00000140: e47f 79bc 0753 d53b c766 1bbc 4ef6 c0bb
00000150: cc33 b9bc 3e87 133c 9151 e7bb c2d5 38bd
00000160: 18b1 dbbb 1fab 33bd 4a40 e1ba c6a0 1dbd
00000170: 7dcd 3c3c 2b83 8a3c a3d8 27bc 24e2 84bc
00000180: c4cb 4f3c 4702 093d 86db 953c 757e e83c
00000190: 0e59 223d 64d6 41bc 89c2 95bc bbd7 2cbd
000001a0: 29e1 763c 4bb2 073d 1ef5 28bc 0c65 3d3b
000001b0: 1be3 df3b 1c71 2abd aacd 71bb bf4a d8bc
000001c0: f9a9 d73c 0b42 6d3c 03d8 eebc f83e 94bc
000001d0: a1c2 4d3c 0865 173d ac6e 2cbc 49ea 45bc
000001e0: 7a4c 0dbc 8ed6 c33a 54b6 fe3a 83ac 49bc
000001f0: 740e c93b 20f3 f3ba ccad 523b a101 0fbd
00000200: d201 803c c952 f33c e640 1a3c f952 c9bc
00000210: 0c2e a73c 4951 213d 25e7 9abc 5eee 3b3c
00000220: 6d8d 81bc f94f 08bc efa3 b93c 1e86 14ba
00000230: 298e 48bc f395 dd3c 78f2 03bd 715b 9abc
00000240: f0c9 ef3c a1e1 273d 950b b9bc c330 263d
00000250: 0270 193d aa8c 763c aea9 c4bc 4d75 c93b
00000260: 54ce d9bc b187 0a3d da3b 6a3c 289b 2cba
00000270: b4d2 153d ed0b 793b 263d f9bc 8637 ee3c
00000280: 6dd6 3bbd f51f 12bd be08 053d b2bf bcbc
00000290: 69b3 14bc 9ab7 26bd e6bf cdbc 67ae df3c
000002a0: 59df 953c 0210 a7bc 1267 123b 9dc5 2b3d
000002b0: 1cc7 c03c 006c ef3c 417d f5bc 40ca 603c
000002c0: 7ecf c4bc faf1 43bc 7da9 2fbc aec1 c1bc
000002d0: c661 913c 5d75 2b3d b93f d2bc 0541 b8bc
000002e0: b92f 91bc aebf 053d 0ce2 36bc 433f d3bc
000002f0: 0c65 c8bb 7fcf aebc f76d 12bd a49b 57bc
00000300: 8bb6 b83c cb1d f33c b98c c6bc d6b3 83bc
00000310: 0261 c4bc e401 163a abd5 22bb 23d4 1c3d
