system/models/TinyImagenet/CNN/FedPer_BaseHeadSplit_TinyImagenet_client_1.pt (torch, 766436 bytes, 8 tensors)

weight f4 [32, 3, 5, 5]
-0.029773187 0.14245312 0.0028648865 0.022781225 0.04293601 -0.17699301 -0.04368303 -0.09874062
-0.12989317 -0.03982437 -0.04706558 0.16433623 -0.057449963 -0.018414343 -0.0018113041 -0.16047972
0.054888748 -0.10684758 -0.14461774 -0.06933013 0.04132862 0.14695778 -0.031661183 0.06418962
0.030548844 -0.0656385 0.15469566 0.002378028 0.044679333 0.05922846 -0.24310267 0.08610914
-0.19743672 -0.113599606 -0.09506747 -0.0964259 0.16547781 0.22197886 0.17020273 0.15452251
-0.13428612 0.003425439 -0.085286245 -0.10884561 -0.053025417 -0.0615763 0.14722197 0.10638691
-0.02461162 0.07621176 0.028898653 0.2083798 0.174036 0.14258087 0.17995556 -0.24903107
0.047594942 -0.17831483 -0.12767445 -0.063149214 0.08349718 0.3072077 0.083773956 0.14884815
0.1597424 -0.14623706 0.08438536 -0.07904657 0.006015583 0.08277376 -0.098380156 0.04838916
0.06525098 0.06857465 0.11898914 0.38274166 0.2649046 -0.06349234 -0.18692484 -0.27220574
0.41689292 0.5438765 0.09032926 -0.47330847 -0.44536567 0.53290766 0.4735993 -0.010995381
-0.44686368 -0.6403761 0.46748513 0.48371127 0.087788515 -0.37829268 -0.6256632 0.20287792
0.31323826 0.08523283 -0.3414371 -0.41197586 0.40521675 0.3334406 -0.0054226746 -0.22516686
-0.32100683 0.52777195 0.35913324 -0.08938088 -0.37547213 -0.4734949 0.50149006 0.5530781
-0.044124257 -0.40813658 -0.52754307 0.3193885 0.37778383 -0.014325702 -0.42890155 -0.517384
0.3108809 0.24048997 -0.020258026 -0.2186283 -0.48411253 0.14459586 0.16333145 -0.042655054
-0.24030907 -0.29835892 0.4353541 0.4247491 -0.08285827 -0.34953412 -0.36681455 0.49405986
0.4704811 0.038346343 -0.42806467 -0.46041924 0.5118794 0.49124384 0.1443707 -0.36529845
-0.55351883 0.24025129 0.36887312 0.12728332 -0.21677178 -0.3458954 -0.28207573 -0.3141971
-0.2865253 -0.1931662 -0.15368587 -0.27478182 -0.15609896 -0.37383634 -0.3233953 -0.2929917
-0.20896156 -0.26114857 -0.40112036 -0.41103828 -0.28006542 -0.15506718 -0.27518916 -0.2462096
-0.3917753 -0.2591054 -0.01976717 -0.24673265 -0.14915808 -0.2265167 -0.31054303 0.20892009
0.13031755 0.07367001 0.22348943 0.044745523 0.18956232 0.13985334 0.22115256 0.1548633
0.1971271 0.2111735 0.14263318 0.1181951 0.03276525 0.20721798 0.28403437 0.25544205
0.059383124 0.14591068 0.06489543 0.13129225 0.09611405 0.17638056 0.0519956 0.14982578
-0.085424826 -0.004607511 -0.17785977 -0.15924925 -0.14387968 0.020933375 -0.10868621 0.011202456
-0.05963542 -0.0677509 -0.07531165 -0.09417523 -0.080923185 -0.13662255 -0.08867531 -0.041713562
-0.16002831 -0.1623465 -0.009369631 -0.18720259 -0.06297072 0.030946368 -0.059616376 -0.11503922
-0.18512195 0.0012618753 0.15467156 -0.15503822 0.07971804 0.016574994 -0.104606226 0.43558756
-0.1879065 0.18694308 0.06655501 -0.2142906 0.37215197 -0.3509757 0.06250359 0.010093631
-0.115216084 0.40182897 -0.34421992 0.079235904 0.015271069 -0.21497163 0.33785668 -0.28009582
0.062928595 -0.02083303 -0.16255835 0.19180842 -0.09006551 0.043953646 -0.04954303 -0.18854916
00000000: e6e6 f3bc 3bdf 113e d2c0 3b3b b19f ba3c
00000010: abdd 2f3d a83d 35be faec 32bd 8638 cabd
00000020: b702 05be e11e 23bd d6c7 40bd c247 283e
00000030: a750 6bbd add9 96bc 4869 edba cc54 24be
00000040: 06d3 603d e7d2 dabd ac16 14be f5fc 8dbd
00000050: 3348 293d 1a7c 163e 28af 01bd d975 833d
00000060: 9241 fa3c 7a6d 86bd 8a68 1e3e b0d8 1b3b
00000070: ad01 373d 8b99 723d e8ef 78be fd59 b03d
00000080: da2c 4abe e9a6 e8bd bcb2 c2bd f17a c5bd
00000090: 0473 293e 6d4e 633e a049 2e3e 263b 1e3e
000000a0: 4d82 09be 547d 603b 8eaa aebd 72ea debd
000000b0: 2e31 59bd 6e37 7cbd 5bc1 163e 61e1 d93d
000000c0: 4f9e c9bc e914 9c3d debc ec3c 8461 553e
000000d0: 7e36 323e b800 123e 4546 383e 0002 7fbe
000000e0: eaf2 423d 2a98 36be 17bd 02be 6054 81bd
000000f0: 9200 ab3d 544a 9d3e ae91 ab3d a66b 183e
00000100: 8393 233e 2bbf 15be 3bd2 ac3d 2be3 a1bd
00000110: 5e1e c53b 4a85 a93d 897b c9bd b633 463d
00000120: 4ea2 853d de70 8c3d 94b0 f33d b7f6 c33e
00000130: 93a1 873e 4608 82bd 3a69 3fbe 8d5e 8bbe
00000140: fd72 d53e 7e3b 0b3f 8cfe b83d 7d55 f2be
00000150: f806 e4be a36c 083f 9c7b f23e f825 34bc
00000160: 51cb e4be b0ef 23bf 365a ef3e 01a9 f73e
00000170: 77ca b33d 94af c1be 772b 20bf 3bbf 4f3e
00000180: c460 a03e 8d8e ae3d d8d0 aebe 80ee d2be
00000190: 9278 cf3e bab8 aa3e b1b0 b1bb 2492 66be
000001a0: 025b a4be 101c 073f 50e0 b73e 530d b7bd
000001b0: e23d c0be ec6d f2be a761 003f 8796 0d3f
000001c0: a3bb 34bd 47f7 d0be 100d 07bf e486 a33e
000001d0: e26c c13e 59b6 6abc fc98 dbbe 4773 04bf
000001e0: c82b 9f3e 0143 763e 29f4 a5bc 19e0 5fbe
000001f0: 99dd f7be f010 143e 5c40 273e 11b7 2ebd
00000200: 9513 76be 80c2 98be bce6 de3e b778 d93e
00000210: 99b1 a9bd 23f6 b2be 1ecf bbbe 6af5 fc3e
00000220: e6e2 f03e 0e11 1d3d 4b2b dbbe 12bc ebbe
00000230: 870a 033f 5084 fb3e ead5 133e 6608 bbbe
00000240: 69b3 0dbf 6f04 763e f0dc bc3e 8f56 023e
00000250: 6cf9 5dbe 3419 b1be 3b6c 90be 71de a0be
00000260: 72b3 92be 5ccd 45be d45f 1dbe 34b0 8cbe
00000270: 68d8 1fbe 7a67 bfbe 1294 a5be 0203 96be
00000280: 05fa 55be 44b5 85be a65f cdbe 9c73 d2be
00000290: bc64 8fbe eec9 1ebe 98e5 8cbe 5f1e 7cbe
000002a0: c696 c8be 77a9 84be c3ee a1bc 7ca7 7cbe
000002b0: e5bc 18be fef3 67be 7fff 9ebe 26ef 553e
000002c0: f771 053e 4de0 963d 6ada 643e 1547 373d
000002d0: a01c 423e b735 0f3e d175 623e 7c94 1e3e
000002e0: b0db 493e de3d 583e 6f0e 123e 4610 f23d
000002f0: db34 063d f330 543e f46c 913e 4dc9 823e
00000300: b83b 733d 9c69 153e e5e7 843d 7a71 063e
00000310: 71d7 c43d 1b9d 343e 57f9 543d ee6b 193e
00000320: 36f3 aebd 9bfa 96bb df20 36be 3c12 23be
00000330: 3255 13be 787c ab3c e096 debd 828a 373c
00000340: 4544 74bd fcc0 8abd ff3c 9abd f1de c0bd
00000350: 0ebb a5bd c8e6 0bbe 679b b5bd d7db 2abd
00000360: 76de 23be 293e 26be 1583 19bc 09b2 3fbe
00000370: cbf6 80bd 3d83 fd3c 4d30 74bd af99 ebbd
00000380: 9c90 3dbe 8265 a53a 3962 1e3e 57c2 1ebe
00000390: 3643 a33d 48c8 873c ca3b d6bd 5505 df3e
000003a0: 906a 40be 026e 3f3e fe4d 883d ff6e 5bbe
000003b0: b48a be3e 16b3 b3be e201 803d c25f 253c
000003c0: 69f6 ebbd 87bc cd3e 983d b0be 6f46 a23d
000003d0: 8133 7a3c 8621 5cbe 8dfb ac3e b868 8fbe
000003e0: b5e0 803d 08aa aabc b275 26be 6d69 443e
000003f0: 4474 b8bd bd08 343d a2ed 4abd 0813 41be

bias f4 [32]
1.5488178 -0.18739375 -0.018262066 -0.03528435 0.4726443 0.5109463 -0.30539754 -0.15183106
-0.26419607 0.014790841 -0.30166644 2.6244748 0.093226165 -0.12319361 -0.21533902 -0.9633142
0.29370862 -0.051743954 -0.09269632 1.0863463 0.34567067 -0.32821232 -0.21126895 0.7114238
1.2030385 -0.019931486 -0.18271627 -0.47181168 -0.1260102 -0.08575342 0.24505763 -0.11289243
00000000: a93f c63f 26e4 3fbe 549a 95bc 5386 10bd
00000010: 6ffe f13e 60cd 023f 115d 9cbe 9a79 1bbe
00000020: b544 87be 4955 723c 0674 9abe 65f7 2740
00000030: 5ced be3d ee4c fcbd d581 5cbe c29b 76bf
00000040: fa60 963e 78f1 53bd 91d7 bdbd 650d 8b3f
00000050: bffb b03e 720b a8be e356 58be df1f 363f
00000060: 2afd 993f 5b47 a3bc f919 3bbe 4d91 f1be
00000070: d108 01be 7d9f afbd 63f0 7a3e 2534 e7bd

weight f4 [64, 32, 5, 5]
-0.039561216 -0.014074305 0.0009624707 0.00056855934 0.0013296419 -0.057472996 -0.05592152 -0.04888747
-0.030150076 -0.027666986 -0.05286664 -0.06890199 -0.07307015 -0.01063614 -0.05432023 -0.05761267
-0.067442 -0.06323104 -0.037799478 -0.02936302 -0.0635153 -0.054486547 -0.014910314 -0.06221817
-0.06670378 -0.0049979375 0.034028668 0.010739573 -0.02245342 -0.06604643 0.02795117 -0.0042744223
0.02632244 -0.010163465 -0.050112512 0.022512572 0.0048383055 0.033237115 0.004582924 -0.07798667
-0.010191538 0.020115608 0.027071282 -0.028833803 -0.025175922 0.0045653936 -0.012959482 0.014113724
-0.034599863 -0.06504829 0.006401754 0.007130552 -0.024813507 -0.02743557 0.018777447 -0.0016745402
-0.024556162 -0.00444938 -0.035984203 0.010053814 0.0062571783 0.01890658 -0.038187224 -0.015850365
0.013221648 0.013747208 -0.046023227 -0.00027868807 0.0019135312 0.009627382 -0.05629865 -0.0078110015
-0.044990208 -0.046029616 -0.016373808 0.02390124 -0.025716681 0.0263316 0.003584833 0.014344932
0.021899514 0.01040634 -0.024605744 -0.0066078864 0.008478637 -0.038379453 0.0049754204 -0.019071352
-0.006559867 0.0132155875 -0.03997609 -0.021500917 0.013216744 -0.035347775 0.024814257 -0.04255605
-0.00095432985 0.0040734233 0.011313888 -0.022134585 0.04490867 0.059720613 0.076467104 0.029310422
0.042701688 0.045303922 0.034574453 0.012921503 0.010082517 0.015605798 0.00899817 0.01822786
0.006762538 0.009923673 0.045572348 0.051595956 0.010610813 0.02941808 0.03366347 0.052166317
0.0026367751 0.027018435 0.059091687 0.05480513 -0.0004671504 -0.111587495 -0.092752285 -0.09507134
-0.10277819 -0.105128855 -0.06873 -0.0942544 -0.07535169 -0.06135376 -0.09362549 -0.07991531
-0.05359895 -0.091391094 -0.055573862 -0.06412331 -0.05681835 -0.048777483 -0.05758688 -0.059813913
-0.08811423 -0.053616952 -0.042566158 -0.07349403 -0.0904632 -0.021171367 0.09597566 0.099250026
0.08310751 0.12150606 0.14974917 0.10282734 0.055387206 0.09168476 0.08968976 0.09356218
0.0431033 0.04183321 0.020794397 0.08402566 0.110858515 0.08405963 0.059231464 0.055686206
0.08498128 0.048713278 0.054345947 0.020543082 0.048093583 0.057418205 0.079811014 -0.03585289
0.017217651 0.0059226966 0.008759531 0.009433119 -0.035813592 0.020912066 -0.0011522793 0.005306013
-0.0056782854 -0.03624911 0.04252184 0.059809707 0.005250739 0.005881321 0.0073759113 0.024113504
0.027789714 -0.02166758 0.029804727 -0.044459872 0.009103876 0.029664293 -0.0071580797 -0.0030338925
-0.005278688 0.034007773 0.026622059 0.059097975 -0.00891677 0.05340189 0.027544351 0.00857579
0.0161211 0.0024006856 0.020096906 0.018787555 0.033317316 0.052917343 0.007186112 0.03343967
0.041708946 0.033757422 0.037574403 0.026195899 0.053338442 -0.011974836 0.03557079 0.017519113
-0.005657973 -0.026077189 0.0062137614 0.019822415 -0.046583347 -0.002318032 0.009502855 -0.010680609
-0.013898604 0.0065435525 -0.020740816 -0.021701276 -0.0185144 0.00067521574 -0.011550845 -0.023079809
-0.0016459682 -0.0081120515 -0.045286246 -0.011213555 -0.0002537237 -0.006282143 -0.017474137 0.011150328
-0.049438182 -0.036851376 -0.024386458 0.023693163 -0.043588214 -0.0058010113 -0.045291968 -0.012516533
00000000: f10a 22bd ea97 66bc 514e 7c3a 5f0b 153a
00000010: 6147 ae3a ce68 6bbd f70d 65bd 3a3e 48bd
00000020: 4bfd f6bc e0a5 e2bc b18a 58bd 7d1c 8dbd
00000030: cea5 95bd 3443 2ebc e47e 5ebd 43fb 6bbd
00000040: 081f 8abd 477f 81bd a0d3 1abd b78a f0bc
00000050: 4f14 82bd 492d 5fbd 644a 74bc 7bd8 7ebd
00000060: fe9b 88bd bdc5 a3bb a561 0b3d 09f5 2f3c
00000070: 3cf0 b7bc 5a43 87bd daf9 e43c 7410 8cbb
00000080: 28a2 d73c a984 26bc c742 4dbd 496c b83c
00000090: a68a 9e3b a423 083d 5a2c 963b 7ab7 9fbd
000000a0: 69fa 26bc 7dc9 a43c 98c4 dd3c de34 ecbc
000000b0: bc3d cebc 4c99 953b 0254 54bc 403d 673c
000000c0: 96b8 0dbd 0a38 85bd cec5 d13b 68a7 e93b
000000d0: b245 cbbc 8fc0 e0bc 29d3 993c 3f7c dbba
000000e0: 012a c9bc 1bcc 91bb 2c64 13bd c1b8 243c
000000f0: 0409 cd3b f9e1 9a3c 356a 1cbd a0d8 81bc
00000100: 9c9f 583c f83b 613c da82 3cbd e11c 92b9
00000110: 74cf fa3a 2bbc 1d3c 6a99 66bd 6ef3 ffbb
00000120: a747 38bd 8d89 3cbd 5d22 86bc 89cc c33c
00000130: caab d2bc 5eb5 d73c 84ef 6a3b 0107 6b3c
00000140: 9c66 b33c 5a7f 2a3c fc91 c9bc f886 d8bb
00000150: fbe9 0a3c c633 1dbd da08 a33b 863b 9cbc
00000160: 27f4 d6bb 3186 583c f8bd 23bd b122 b0bc
00000170: 0b8b 583c d4c8 10bd 4547 cb3c 414f 2ebd
00000180: fe2b 7aba 5a7a 853b e35d 393c 9753 b5bc
00000190: 27f2 373d 9a9d 743d c99a 9c3d 691c f03c
000001a0: f7e7 2e3d 9b90 393d f19d 0d3d b6b4 533c
000001b0: 2431 253c 76af 7f3c 0f6d 133c 9852 953c
000001c0: 4898 dd3b e796 223c 12aa 3a3d 4856 533d
000001d0: fad8 2d3c 2ffe f03c b5e2 093d 59ac 553d
000001e0: bfcd 2c3b c455 dd3c 200a 723d 587b 603d
000001f0: deeb f4b9 fc87 e4bd e9f4 bdbd c3b4 c2bd
00000200: 5f7d d2bd cc4d d7bd 50c2 8cbd 7308 c1bd
00000210: fd51 9abd 154e 7bbd b9be bfbd a3aa a3bd
00000220: 938a 5bbd 412b bbbd 6ba1 63bd 1553 83bd
00000230: 5cba 68bd e6ca 47bd 38e0 6bbd 6fff 74bd
00000240: 3c75 b4bd 739d 5bbd da59 2ebd 0a84 96bd
00000250: c544 b9bd 936f adbc e38e c43d 9943 cb3d
00000260: 4534 aa3d 2bd8 f83d d957 193e 2497 d23d
00000270: b2dd 623d 38c5 bb3d 44af b73d 879d bf3d
00000280: 168d 303d 4d59 2b3d 0359 aa3c a515 ac3d
00000290: ca09 e33d 7527 ac3d b19c 723d 3817 643d
000002a0: aa0a ae3d 9387 473d db99 5e3d f749 a83c
000002b0: c7fd 443d 5a2f 6b3d f573 a33d 7bda 12bd
000002c0: 080c 8d3c 2e13 c23b 2384 0f3c 5e8d 1a3c
000002d0: 46b1 12bd c84f ab3c 1408 97ba 10de ad3b
000002e0: e910 babb f279 14bd 622b 2e3d 06fb 743d
000002f0: 640e ac3b 19b8 c03b a1b1 f13b af89 c53c
00000300: 41a7 e33c 3580 b1bc 0b29 f43c 8e1b 36bd
00000310: 6c28 153c 8802 f33c 538e eabb 45d4 46bb
00000320: d8f8 acbb bc4b 0b3d 8116 da3c b810 723d
00000330: a517 12bc f1bb 5a3d b1a4 e13c 7881 0c3c
00000340: 6610 843c d254 1d3b 44a2 a43c 5ce8 993c
00000350: bd77 083d dbbf 583d 7a79 eb3b 09f8 083d
00000360: 00d7 2a3d 3945 0a3d 9ee7 193d c898 d63c
00000370: 6979 5a3d 1a32 44bc adb2 113d 3e84 8f3c
00000380: 8466 b9bb d49f d5bc cf9c cb3b 9e62 a23c
00000390: 2ece 3ebd 20ea 17bb ddb1 1b3c b9fd 2ebc
000003a0: f8b6 63bc 4c6b d63b a5e8 a9bc e0c6 b1bc
000003b0: 83ab 97bc f600 313a c13f 3dbc de11 bdbc
000003c0: 87bd d7ba 69e8 04bc 127e 39bd 0fb9 37bc
000003d0: 3806 85b9 6fda cdbb ec25 8fbc deaf 363c
000003e0: b17f 4abd 78f1 16bd 1cc6 c7bc 2a18 c23c
000003f0: 8e89 32bd 6916 bebb 1284 39bd 2512 4dbc

bias f4 [64]
-0.08257486 -0.0020962353 0.11297323 0.010441981 0.05463748 -0.02722374 0.027911872 0.014423889
0.03317815 -0.04903301 0.032688458 -0.27587697 0.014495287 -0.039250694 0.10586197 0.0791434
0.38130128 -0.0120789185 -0.12912795 -0.027870249 0.0461632 0.011609854 -0.033486173 0.0793184
0.07678708 -0.06505589 0.21992639 0.030773384 0.073668614 -0.06916057 -0.03097513 0.18533693
0.14299867 0.1900275 -0.012834439 -0.13209356 -0.10670757 0.15496825 0.042913657 0.0045004883
-0.014220652 -0.05767297 0.103905596 0.1974788 -0.06398366 -0.055908635 0.04579066 -0.14738707
0.044365883 -0.008129536 -0.0025269275 0.011171307 -0.06581529 -0.112733245 -0.074613005 -0.054538142
-0.18635233 0.18180019 0.019985555 0.17835644 -0.050129943 -0.14468294 0.19155712 -0.02718928
00000000: 021d a9bd fe60 09bb 825e e73d d814 2b3c
00000010: 8dcb 5f3d 5204 dfbc 70a7 e43c 2d52 6c3c
00000020: d0e5 073d d6d6 48bd 55e4 053d bf3f 8dbe
00000030: a47d 6d3c 56c5 20bd 29ce d83d ef15 a23d
00000040: ec39 c33e a8e6 45bc 1e3a 04be 2650 e4bc
00000050: a015 3d3d 4237 3e3c cc28 09bd af71 a23d
00000060: 8b42 9d3d 063c 85bd 6234 613e 7718 fc3c
00000070: 92df 963d 0fa4 8dbd 8ebf fdbc f7c8 3d3e
00000080: 3e6e 123e 9296 423e 8a47 52bc 8943 07be
00000090: 8089 dabd ffaf 1e3e 3bc6 2f3d d578 933b
000000a0: bdfd 68bc 7e3a 6cbd 75cc d43d e237 4a3e
000000b0: dd09 83bd 7400 65bd fd8e 3b3d a3ec 16be
000000c0: 00b9 353d bf31 05bc cf9a 25bb dc07 373c
000000d0: 2bca 86bd b0e0 e6bd b4ce 98bd 6363 5fbd
000000e0: 25d3 3ebe d429 3a3e bfb8 a33c 12a3 363e
000000f0: 0e55 4dbd c427 14be 8d27 443e 0ebc debc

weight f4 [512, 64]
0.13129936 0.036593616 -0.037676826 -0.17593439 -0.17151752 -0.15271309 0.07800705 -0.020426298
-0.3455129 0.031269304 0.09032598 -0.24769948 0.017647753 0.07539956 -0.113041215 -0.041778862
0.17800619 0.0711047 -0.049612112 -0.2589069 0.1123145 -0.10006324 -0.10055501 -0.1387002
-0.1906773 0.080474816 0.12848416 -0.20218262 -0.016508427 -0.046891365 0.14794736 -0.033773936
-0.08673532 -0.11107394 -0.1131362 0.08267995 -0.003011661 0.1685538 0.060696322 -0.16846465
-0.0137374485 -0.29356465 0.0502476 0.21595195 -0.19963227 -0.2087605 -0.08768075 -0.05749211
0.018463317 -0.050345443 0.048861954 -0.093773246 0.08526604 -0.19367541 -0.020510338 0.04884876
0.04835076 0.13965805 0.04225703 0.014534237 -0.20555931 -0.11891885 0.14741278 -0.093554206
-0.10793233 -0.14597729 -0.22936444 -0.04609045 -0.03900736 -0.13070096 -0.012285947 0.03385868
0.02126524 0.15269136 0.19151162 0.17731138 -0.10142624 -0.13457909 -0.0053854007 0.032538805
-0.0362698 -0.05006974 0.0898446 -0.1102828 -0.13011612 0.023557015 0.15463199 -0.12906489
-0.09190681 0.08115893 -0.14480734 -0.04370097 -0.16356069 0.20986862 -0.009453476 -0.0379744
-0.03763885 -0.19196002 -0.06556108 0.12225527 0.11272409 -0.24413803 0.24598332 0.071969494
-0.12687315 -0.071377665 -0.124569565 -0.22615907 0.108708955 0.05842079 -0.10173091 0.22959484
0.011391359 0.03254744 0.062826104 -0.08611852 0.03633454 0.116429016 -0.028943755 -0.056208894
0.108040504 0.10310804 -0.15957887 -0.005272835 0.23762918 0.13541317 -0.13475887 -0.01082516
0.051288817 0.06623113 0.07581152 0.08773867 -0.051148634 0.013026356 -0.009794658 0.01152006
-0.038538378 0.123485655 0.28636158 -0.067795314 0.0683567 0.012520116 -0.16742963 0.12727723
0.024111673 0.06645186 0.2293736 0.0675118 0.04466977 -0.015142026 -0.116108924 0.020739516
0.023236064 -0.08428035 0.13025512 0.06657801 0.14700268 -0.007487237 -0.038541112 -0.043738637
0.0083095385 -0.02374108 -0.07486375 0.020735748 0.06547243 -0.096021436 0.22708103 0.12573335
0.07648094 -0.011166917 -0.043930147 -0.0039806436 -0.057138924 0.10341896 -0.16282757 0.13789967
-0.009343456 0.1943125 -0.13796633 0.10511283 0.0773054 -0.10520449 0.14579725 0.14198436
0.05783618 0.08290893 -0.021862721 -0.19929138 0.067981705 -0.1650222 -0.30700323 -0.118226334
0.13754262 -0.026141107 -0.12341379 -0.032219965 0.19124769 -0.17024446 0.23407657 0.06393327
-0.06746183 -0.16783871 -0.08514965 -0.25208664 -0.06306315 0.09634794 -0.2658906 0.09217657
-0.045290984 -0.06999571 -0.05469967 0.1708482 0.11505557 -0.21247686 -0.1135071 -0.024024574
-0.0051775393 0.09291887 0.017931718 -0.18110809 -0.06316055 -0.06762852 0.10931114 0.0702929
0.14557692 0.10453769 0.1749988 -0.085119344 0.060849275 -0.1175747 -0.034066703 -0.015969189
0.37041196 -0.055646636 0.11344771 -0.09358431 -0.014482936 -0.05119014 -0.02853232 -0.10480107
-0.04724658 -0.14959724 0.06907092 0.018616343 0.17162485 0.07024129 0.10484565 -0.2535544
-0.17626707 -0.06360901 -0.12489807 0.079927094 0.058009725 -0.075019665 0.06135882 0.048803393
00000000: 5773 063e 30e3 153d 0453 1abd 2528 34be
00000010: 4aa2 2fbe d260 1cbe 29c2 9f3d 0d55 a7bc
00000020: 11e7 b0be 3e14 003d d4fc b83d efa4 7dbe
00000030: 0592 903c 166b 9a3d 2782 e7bd 5020 2bbd
00000040: 4147 363e 579f 913d 1236 4bbd 728f 84be
00000050: 2505 e63d f5ed ccbd c9ef cdbd 6d07 0ebe
00000060: e940 43be fbcf a43d 5a91 033e f608 4fbe
00000070: ae3c 87bc 2911 40bd 837f 173e 8a56 0abd
00000080: 4aa2 b1bd bc7a e3bd f4b3 e7bd 1b54 a93d
00000090: 4a5f 45bb 5e99 2c3e b59c 783d ff81 2cbe
000000a0: 0913 61bc 1b4e 96be 6dd0 4d3d 8222 5d3e
000000b0: 676c 4cbe 50c5 55be f791 b3bd d97c 6bbd
000000c0: 6240 973c 0637 4ebd 7923 483d 300c c0bd
000000d0: f69f ae3d d952 46be 4c05 a8bc a315 483d
000000e0: 720b 463d 8502 0f3e b515 2d3d 0221 6e3c
000000f0: 247e 52be ba8b f3bd 60f3 163e 5999 bfbd
00000100: a00b ddbd 127b 15be 83de 6abe 57c9 3cbd
00000110: 2ec6 1fbd 79d6 05be ff4a 49bc 66af 0a3d
00000120: 7134 ae3c 205b 1c3e 9f1b 443e 1d91 353e
00000130: 8fb8 cfbd 1acf 09be 0478 b0bb 6947 053d
00000140: a48f 14bd ed15 4dbd 7200 b83d f3db e1bd
00000150: 293d 05be a4fa c03c d957 1e3e 9629 04be
00000160: a339 bcbd a736 a63d 6048 14be caff 32bd
00000170: 747c 27be cde7 563e c1e2 1abc 0b8b 1bbd
00000180: 322b 1abd 2b91 44be e344 86bd f960 fa3d
00000190: e3db e63d 52ff 79be 0de3 7b3e be64 933d
000001a0: 09eb 01be 742e 92bd 541e ffbd 3e96 67be
000001b0: cda2 de3d a34a 6f3d 4c58 d0bd e91a 6b3e
000001c0: d3a2 3a3c 7750 053d f9aa 803d e85e b0bd
000001d0: 87d3 143d 5672 ee3d 741b edbc 4c3b 66bd
000001e0: 5744 dd3d 4f2a d33d a568 23be bfc7 acbb
000001f0: 1055 733e c0a9 0a3e 3bfe 09be 035c 31bc
00000200: 3914 523d 30a4 873d 1243 9b3d 55b0 b33d
00000210: 3b81 51bd 7f6c 553c c679 20bc a2be 3c3c
00000220: 6bda 1dbd 0ce6 fc3d fc9d 923e 45d8 8abd
00000230: 99fe 8b3d 2c21 4d3c ac72 2bbe f654 023e
00000240: d885 c53c ea17 883d eae0 6a3e a043 8a3d
00000250: a6f7 363d 4316 78bc 84ca edbd ebe5 a93c
00000260: 8f59 be3c 2d9b acbd 9961 053e 0d5a 883d
00000270: df87 163e 7f57 f5bb 49dd 1dbd 4927 33bd
00000280: bb24 083c a77c c2bc 2a52 99bd 04de a93c
00000290: 6916 863d e3a6 c4bd ee87 683e 3ec0 003e
000002a0: 0aa2 9c3d 72f5 36bc 19f0 33bd 0f70 82bb
000002b0: 810a 6abd 52cd d33d 45bc 26be 9235 0d3e
000002c0: 4b15 19bc dbf9 463e 0c47 0dbe 6545 d73d
000002d0: 4b52 9e3d 7475 d7bd e04b 153e 5964 113e
000002e0: a1e5 6c3d 28cc a93d 7319 b3bc 0a13 4cbe
000002f0: fe39 8b3d 94fb 28be 872f 9dbe a620 f2bd
00000300: f9d7 0c3e e025 d6bc 5ec0 fcbd 15f9 03bd
00000310: 6fd6 433e 9054 2ebe c5b1 6f3e 72ef 823d
00000320: 6e29 8abd e9dd 2bbe f162 aebd 8011 81be
00000330: 4127 81bd 1252 c53d d022 88be 12c7 bc3d
00000340: 0a83 39bd e959 8fbd c30c 60bd d5f2 2e3e
00000350: 41a2 eb3d 8993 59be 6976 e8bd 2fcf c4bc
00000360: 59a8 a9bb 404c be3d 8ae5 923c 6674 39be
00000370: 525a 81bd d280 8abd 85de df3d b9f5 8f3d
00000380: 1e12 153e db17 d63d e332 333e 0d53 aebd
00000390: 173d 793d 01cb f0bd 8789 0bbd d1d1 82bc
000003a0: a3a6 bd3e baed 63bd 4657 e83d 21a9 bfbd
000003b0: d649 6dbc c1ac 51bd 9dbc e9bc f2a1 d6bd
000003c0: a185 41bd 0530 19be 0e75 8d3d 4d81 983c
000003d0: 6dbe 2f3e aada 8f3d 51b9 d63d e2d1 81be
000003e0: 5b7f 34be 7145 82bd 8fca ffbd d1b0 a33d
000003f0: 9b9b 6d3d e9a3 99bd 6353 7b3d 11e6 473d

bias f4 [512]
0.065995984 -0.07360011 -0.16247414 0.046456765 0.032988556 -0.058383983 0.17885795 -0.10033424
0.09018912 -0.13418722 0.026616747 -0.018036127 -0.087852314 0.1745735 0.07807628 0.0653837
0.1355512 0.025589822 0.071784705 0.01841705 -0.10298261 0.10323628 0.05718033 0.025252882
0.07427415 -0.13297834 -0.13405876 -0.0895848 0.03233647 -0.056442685 0.03788041 -0.07380745
-0.03554005 0.030217884 0.011750509 -0.105961815 0.15282999 0.0673857 -0.12448257 -0.09083473
0.10327592 -0.058023397 0.050233293 0.08149239 -0.12201198 -0.05850998 0.0075365277 -0.04351554
0.17470472 0.17989288 0.015672723 -0.022873977 -0.12086592 0.012099765 0.029822765 -0.05951091
-0.13924995 -0.026658772 0.040365025 0.01904346 0.013861147 -0.10210805 0.078230776 0.09126485
-0.033531 0.030117089 -0.13080093 0.089074925 -0.029316947 0.1317361 0.12252932 0.02123748
-0.15225105 0.09406905 -0.1098096 0.018187318 -0.02483243 -0.07781566 -0.09567646 -0.17862988
0.08685697 0.07073784 -0.0025872523 0.02879551 0.18895234 -0.0948138 0.15804395 0.112806045
-0.10694663 0.030582374 0.06334796 0.018980764 -0.057846826 0.10637528 0.056989558 0.036818843
0.06138651 0.09076303 0.101562366 -0.035309236 0.045152564 0.038949944 -0.033125315 -0.11830936
0.051824365 0.10468821 -0.07873403 0.17317373 0.00947436 0.14410979 -0.050068982 -0.006519522
0.07163526 -0.14782456 -0.1154119 0.18411608 -0.065037236 0.16335103 0.17724763 0.026327547
0.037433643 -0.04048925 -0.09722758 0.00074052234 0.03525459 0.08931171 -0.06128722 0.1904288
-0.13924436 0.015935909 0.23502098 -0.060535643 0.019969223 -0.09940196 -0.009952385 0.024846904
0.051816482 -0.09790839 0.14740582 0.12473065 0.24286006 0.110159494 0.11323894 -0.11422137
-0.066691466 -0.052377943 -0.08284272 0.10045575 0.010282234 -0.05694568 0.0387686 -0.0884658
-0.1393715 0.086891726 0.115767725 -0.106491596 0.034938954 0.013371872 0.11328858 -0.06319412
-0.15276524 -0.056241512 0.10906471 -0.03176866 -0.05122345 0.0831314 0.13654561 0.21569312
0.10321574 0.068567365 -0.10997082 -0.118245795 0.03595909 0.049296964 0.11322882 -0.094510004
-0.0432895 0.05582834 0.13072574 0.13994782 0.1892721 0.085197546 0.059966445 0.08425898
0.08468905 0.040031523 0.011945964 -0.0946064 -0.007998544 -0.055874564 -0.059848294 0.19106482
-0.049548518 0.12396853 0.1280484 0.16868578 0.07750801 -0.06306176 -0.12948187 -0.045046214
0.106585 0.041934785 -0.16071402 0.12086674 -0.09439795 -0.073920734 -0.04429743 -0.0776407
0.13091832 -0.00014244362 -0.109752886 0.055006362 0.0032532706 -0.17449959 0.10674928 -0.053410474
-0.046117608 0.124503165 0.038971916 0.2209899 -0.087733395 0.14926687 0.05407334 0.035597917
0.10166865 0.038555846 0.10645151 0.06959332 -0.0025893478 -0.13196385 0.054818746 -0.031073146
0.103297494 -0.1210411 -0.049961578 0.07077456 0.132702 -0.09548501 0.22727194 -0.08871101
0.04698785 -0.02704116 0.032020234 0.042046428 -0.04536662 -0.08305829 -0.061631083 -0.017907295
0.041722108 0.114606164 0.076916866 -0.10636012 -0.045071885 0.014573033 0.02705898 0.093035385
00000000: e728 873d a8bb 96bd 9f5f 26be 7349 3e3d
00000010: 021f 073d 0b24 6fbd 8a26 373e 0a7c cdbd
00000020: 13b5 b83d 6068 09be 5d0b da3c 80c0 93bc
00000030: eaeb b3bd 65c3 323e 75e6 9f3d e4e7 853d
00000040: efcd 0a3e bfa1 d13c dc03 933d 5adf 963c
00000050: 8ce8 d2bd 8b6d d33d ec35 6a3d 22df ce3c
00000060: 0c1d 983d 792b 08be b346 09be 3c78 b7bd
00000070: 3f73 043d 7230 67bd 7d28 1b3d 5c28 97bd
00000080: 7292 11bd 7f8b f73c 3585 403c 8202 d9bd
00000090: 777f 1c3e 8401 8a3d b8f0 febd 8f07 babd
000000a0: 5382 d33d f1a9 6dbd 6dc1 4d3d 7be5 a63d
000000b0: 6be1 f9bd 29a8 6fbd faf4 f63b 5a3d 32bd
000000c0: cbe5 323e d735 383e 1564 803c 3562 bbbc
000000d0: 8d88 f7bd 183e 463c df4e f43c b6c1 73bd
000000e0: 8a97 0ebe 7f63 dabc cc55 253d 0801 9c3c
000000f0: dd19 633c 061e d1bd 7537 a03d 11e9 ba3d
00000100: cd57 09bd 1db8 f63c aef0 05be ea6c b63d
00000110: 182a f0bc d4e5 063e a7f0 fa3d 39fa ad3c
00000120: b3e7 1bbe 46a7 c03d dbe3 e0bd 92fd 943c
00000130: 616d cbbc d15d 9fbd 05f2 c3bd c0ea 36be
00000140: 11e2 b13d 00df 903d e48e 29bb 90e4 eb3c
00000150: b97c 413e bd2d c2bd 46d6 213e db06 e73d
00000160: d606 dbbd e387 fa3c 93bc 813d 8c7d 9b3c
00000170: cbf0 6cbd 48db d93d e26d 693d 5bcf 163d
00000180: 6c70 7b3d f8e1 b93d eeff cf3d 6ba0 10bd
00000190: e5f1 383d fa89 1f3d 69ae 07bd 2e4c f2bd
000001a0: c945 543d c666 d63d 4f3f a1bd 7454 313e
000001b0: 593a 1b3c 8491 133e 2215 4dbd b7a1 d5bb
000001c0: 82b5 923d 525f 17be 135d ecbd ed88 3c3e
000001d0: 3e32 85bd 7e45 273e 6780 353e deac d73c
000001e0: 0554 193d 0ed8 25bd 411f c7bd 9d1f 423a
000001f0: 1e67 103d 0fe9 b63d 4f08 7bbd c4ff 423e
00000200: 1396 0ebe 068c 823c 57a9 703e 39f4 77bd
00000210: 7f96 a33c 4193 cbbd 540f 23bc bc8b cb3c
00000220: 853d 543d 3284 c8bd 8df1 163e c872 ff3d
00000230: 4fb0 783e 4d9b e13d d1e9 e73d e5ec e9bd
00000240: 8995 88bd 418a 56bd 72a9 a9bd bfbb cd3d
00000250: d176 283c e03f 69bd d3cb 1e3d 8f2d b5bd
00000260: 67b7 0ebe 4af4 b13d a117 ed3d 4418 dabd
00000270: 261c 0f3d b215 5b3c d803 e83d eb6b 81bd
00000280: 7e6e 1cbe 805d 66bd 525d df3d db1f 02bd
00000290: aecf 51bd cc40 aa3d 9dd2 0b3e a8de 5c3e
000002a0: c662 d33d 0c6d 8c3d 6238 e1bd da2a f2bd
000002b0: d749 133d 9deb 493d 83e4 e73d 768e c1bd
000002c0: 5550 31bd 42ac 643d f8dc 053e 7b4e 0f3e
000002d0: 8cd0 413e 0d7c ae3d 609f 753d f98f ac3d
000002e0: 7471 ad3d 18f8 233d 01b9 433c 00c1 c1bd
000002f0: 530c 03bc badc 64bd 7c23 75bd 7fa6 433e
00000300: 63f3 4abd 36e3 fd3d 1f1f 033e f7bb 2c3e
00000310: 85bc 9e3d 8626 81bd e596 04be 6182 38bd
00000320: 3d49 da3d cfc3 2b3d 3792 24be fb88 f73d
00000330: b653 c1bd c163 97bd 3971 35bd 1602 9fbd
00000340: 740f 063e eb5c 15b9 1fc6 e0bd 5a4e 613d
00000350: d334 553b 05b0 32be 5e9f da3d f1c4 5abd
00000360: d1e5 3cbd 84fb fe3d 04a1 1f3d 2d4b 623e
00000370: 91ad b3bd 6ad9 183e 027c 5d3d 1fcf 113d
00000380: a737 d03d bcec 1d3d 4003 da3d f186 8e3d
00000390: 0cb2 29bb 8821 07be 9f89 603d 1c8d febc
000003a0: a38d d33d 65e4 f7bd 83a4 4cbd 41f2 903d
000003b0: 08e3 073e a58d c3bd fab9 683e 1eae b5bd
000003c0: 5576 403d 6c85 ddbc a627 033d e038 2c3d
000003d0: 59d2 39bd 771a aabd e070 7cbd 52b2 92bc
000003e0: cde4 2a3d a3b6 ea3d 9786 9d3d 56d3 d9bd
000003f0: 4c9d 38bd bbc3 6e3c cbaa dd3c 5689 be3d

weight f4 [200, 512]
-0.030182496 -0.017178793 -0.032112114 -0.0406961 0.037501354 -0.031473838 -0.0029569757 -0.0076905317
-0.015721664 -0.03437831 -0.022281487 -0.02948217 -0.0100897355 0.016574953 -0.022542516 -0.011710368
-0.0025458238 0.03890459 -0.046907485 0.004110515 0.032353513 0.013544099 -0.0058998438 -0.03534102
0.041898124 -0.017679073 0.023605373 0.009216829 -0.062022924 0.013122919 -0.02958021 -0.0005354465
-0.00093687704 0.034899812 0.004275423 0.029733818 0.024479734 0.003076226 -0.04093866 -0.044922538
-0.023195013 -0.042521298 0.0009539019 -0.005289671 0.028916784 -0.035889413 -0.043274485 -0.027881088
0.015949043 0.009661406 -0.022308921 0.040616293 -0.036538653 0.026112976 -0.011868184 -0.028702376
-0.030237202 -0.012438083 -0.017491652 0.03235152 0.008717111 -0.03405632 -0.012415844 -0.007827263
-0.01108458 -0.011737847 -0.046543423 -0.026639733 0.0060140495 -0.027555933 0.018947244 -0.05002805
-0.033624433 0.041552976 0.0072576893 -0.016715992 0.0075902403 0.0075646155 -0.00736381 -0.0461473
-0.028465949 -0.0011011886 0.0062167747 -0.006102715 0.025803251 0.0103432685 -0.018384382 0.0055172145
0.014924797 -0.008796007 0.0029197598 -0.04691501 0.027075931 -0.02693951 0.0060692267 0.007990101
-0.02778181 0.015064827 0.036431246 0.018891254 -0.043753054 -0.02389077 -0.020812891 -0.0039432915
0.027518347 0.010413837 0.025196973 0.010842723 -0.023471206 -0.03270358 -0.021180134 -0.028033258
0.022899989 0.03459386 -0.03772097 -0.011775928 -0.04727966 -0.0185912 0.023792652 -0.0041390983
-0.07745693 -0.019189144 -0.03925382 0.028428646 -0.020691816 -0.035114598 -0.035371013 -0.013387362
0.029495858 -0.039717253 0.02175606 -0.03583318 -0.024840117 0.013088598 -0.0029558016 -0.0053863367
0.022808323 -0.019135918 0.011943915 0.018756185 0.0016224955 -0.010803463 -0.019408315 -0.025932657
-0.0038838552 0.019342432 -0.017580254 -0.046128605 0.0068331994 0.013888352 0.03873823 0.040836666
-0.025818773 0.00655813 -0.018867863 0.015947197 -0.027294276 0.0051895245 -0.03143801 0.024124548
0.019428324 0.02863701 0.040535133 1.2985554e-05 -0.036943223 -0.013543572 0.005993387 0.026895262
0.025958937 -0.031652145 0.027520219 -0.0043305415 0.037379388 0.019190354 -0.019597933 -0.0095467875
0.036988612 -0.00522168 -0.025180668 0.002378098 0.0032589876 -0.01651163 -0.007567113 -0.023069099
0.023924246 0.0101381615 -0.031669185 0.020688597 -0.033509955 0.023698755 -0.040700655 0.02206939
-0.006586399 -0.01266119 0.016953226 -0.02156494 -0.0006196345 -0.0033797766 0.00013424625 -0.0064656097
0.028234772 -0.031586975 -0.030326016 0.025069369 -0.036608376 0.032323338 -0.007954906 -0.04161324
-0.03797225 -0.046399146 0.0062816916 -0.04608876 0.032632664 0.00028907484 -0.028685328 0.00998902
0.029608438 -0.051017296 -0.049863156 -0.046367247 -0.008180803 -0.006699146 -0.03594783 -0.005118153
0.017091528 0.008540239 -0.020844713 -0.013850509 -0.038918126 -0.04620702 -0.012975168 0.006538977
-0.031038092 0.012860894 0.031753153 0.013763007 0.021224508 -0.016381271 -0.028762914 -0.03033289
-0.030740121 -0.015406403 -0.018752545 -0.005762005 0.006364096 0.016600542 0.027665 -0.0028941506
-0.036955003 0.0061921393 -0.059430603 -0.017541334 -0.04002487 0.021222992 0.009741764 0.014480857
00000000: 4841 f7bc 8aba 8cbc fe87 03bd f4b0 26bd
00000010: 059b 193d b6ea 00bd d2c9 41bb db00 fcbb
00000020: b8ca 80bc 45d0 0cbd aa87 b6bc 9784 f1bc
00000030: 6b4f 25bc 32c8 873c 15ab b8bc d8dc 3fbc
00000040: d6d7 26bb 6b5a 1f3d 1022 40bd 80b1 863b
00000050: 1e85 043d 12e8 5d3c 7a53 c1bb bfc1 10bd
00000060: 5e9d 2b3d b4d3 90bc 0e60 c13c 2f02 173c
00000070: c00b 7ebd 8301 573c 3252 f2bc 355d 0cba
00000080: c198 75ba 1bf3 0e3d d918 8c3b 5694 f33c
00000090: b989 c83c 829a 493b 4caf 27bd b200 38bd
000000a0: 7803 bebc d02a 2ebd 460f 7a3a fa54 adbb
000000b0: e4e2 ec3c c700 13bd 9640 31bd e166 e4bc
000000c0: 91a7 823c e04a 1e3c 33c1 b6bc 455d 263d
000000d0: 8ea9 15bd e1ea d53c c672 42bc 3f21 ebbc
000000e0: 02b4 f7bc 1ac9 4bbc a74a 8fbc 0783 043d
000000f0: 37d2 0e3c a47e 0bbd d36b 4bbc ec3d 00bc
00000100: 199c 35bc 1950 40bc 51a4 3ebd 923b dabc
00000110: 8111 c53b fbbc e1bc 4037 9b3c 36ea 4cbd
00000120: c6b9 09bd 7433 2a3d e9d1 ed3b faef 88bc
00000130: 8db7 f83b 98e0 f73b 1e4c f1bb f404 3dbd
00000140: 6c31 e9bc c255 90ba 16b6 cb3b 49f9 c7bb
00000150: 5761 d33c d076 293c d89a 96bc c0c9 b43b
00000160: 2387 743c 211d 10bc 7159 3f3b f429 40bd
00000170: 58ce dd3c 3fb0 dcbc 5de0 c63b eae8 023c
00000180: ae96 e3bc 77d2 763c ee38 153d d5c1 9a3c
00000190: 6736 33bd 93b6 c3bc cc7f aabc ba36 81bb
000001a0: 286e e13c cc9e 2a3c e269 ce3c ada5 313c
000001b0: b046 c0bc 30f4 05bd f681 adbc 01a6 e5bc
000001c0: c298 bb3c 4bb2 0d3d 4e81 1abd d2ef 40bc
000001d0: 51a8 41bd 924c 98bc cfe8 c23c 46a1 87bb
000001e0: bda1 9ebd 8d32 9dbc 9dc8 20bd 31e3 e83c
000001f0: e281 a9bc 53d4 0fbd 32e1 10bd aa56 5bbc
00000200: 4ca1 f13c 8fae 22bd c439 b23c d0c5 12bd
00000210: 807d cbbc 8f71 563c 1fb6 41bb de7f b0bb
00000220: 85d8 ba3c eec2 9cbc 69b0 433c 92a6 993c
00000230: eaa9 d43a 0201 31bc 30fe 9ebc b970 d4bc
00000240: 4788 7ebb 0574 9e3c 7704 90bc 59f1 3cbd
00000250: 08e9 df3b f88b 633c faab 1e3d 5944 273d
00000260: e481 d3bc 95e5 d63b c790 9abc b2a3 823c
00000270: 3f98 dfbc e30c aa3b 25c5 00bd d8a0 c53c
00000280: 2628 9f3c 2a98 ea3c 2b08 263d 88dc 5937
00000290: c751 17bd dce5 5dbc 2d64 c43b 7453 dc3c
000002a0: d6a7 d43c aea5 01bd 1572 e13c 37e7 8dbb
000002b0: 211b 193d 1735 9d3c d88b a0bc 216a 1cbc
000002c0: 5f81 173d a01a abbb b047 cebc ddd9 1b3b
000002d0: bd94 553b 6643 87bc 8bf5 f7bb 68fb bcbc
000002e0: c8fc c33c 881a 263c 8cb7 01bd 227b a93c
000002f0: bc41 09bd e423 c23c bbb5 26bd deca b43c
00000300: b8d2 d7bb e170 4fbc 7ee1 8a3c f5a8 b0bc
00000310: f86e 22ba 3e7f 5dbb 74c4 0c39 77dd d3bb
00000320: 9c4c e73c 5861 01bd 446e f8bc 475e cd3c
00000330: aaf2 15bd 7a65 043d 4b55 02bc a572 2abd
00000340: ca88 1bbd 080d 3ebd a6d6 cd3b 91c7 3cbd
00000350: d4a9 053d f88e 9739 7efd eabc fda8 233c
00000360: 658d f23c 83f7 50bd 4f3d 4cbd 95eb 3dbd
00000370: c608 06bc 8284 dbbb 083e 13bd 2eb6 a7bb
00000380: 8803 8c3c 5cec 0b3c 88c2 aabc 3fed 62bc
00000390: 9d68 1fbd 9243 3dbd cd95 54bc ea44 d63b
000003a0: 9943 febc 80b6 523c 980f 023d 3c7e 613c
000003b0: 05df ad3c 0432 86bc 34a0 ebbc ae7c f8bc
000003c0: b5d2 fbbc 236b 7cbc f09e 99bc 34cf bcbb
000003d0: e889 d03b dcfd 873c b6a1 e23c caab 3dbb
000003e0: 215e 17bd 6ee7 ca3b 816d 73bd d8b2 8fbc
000003f0: 1ef1 23bd d7db ad3c eb9b 1f3c 1e41 6d3c

bias f4 [200]
0.001901658 0.0056225285 -0.030520368 -0.012588375 -0.046125457 -0.031024843 -0.027815241 0.15951532
-0.025737174 0.0023496386 -0.0102067655 -0.037987523 -0.01379947 -0.051608194 -0.107781984 -0.034246404
0.06778055 -0.048999626 -0.0019243861 -0.054903403 -0.07049591 -0.054872707 -0.058599014 -0.04096049
-0.056479 -0.030236471 0.014801825 -0.021462554 -0.06010985 -0.013101314 -0.024710039 0.07405978
0.08049818 -0.023726216 0.3073453 -0.054016393 0.07205291 0.020945445 0.009298567 0.0021569629
0.28562686 0.19608024 0.004960434 -0.029560046 0.0015404144 -0.028197814 -0.049225926 -0.033982247
0.16083889 -0.031521544 0.009065866 0.06441902 -0.0078549115 0.031417686 0.13556547 0.20318498
0.10377347 -0.021017976 0.004913049 -0.043884978 -0.15911077 0.19194083 -0.012747745 0.0075556734
0.01674225 -0.04532182 0.14432244 -0.011993795 -0.015137131 -0.028335504 -0.007133007 0.016305491
-0.0131409485 -0.030280354 0.181309 -0.02282194 -0.03966592 -0.014161787 -0.043755267 0.011971649
-0.018613594 -0.014458222 0.0003519501 -0.10498248 -0.041464143 -0.028124683 -0.027459761 -0.05169933
-0.04769509 0.08709677 0.21737458 0.07833407 -0.056954645 0.011631043 -0.06721048 -4.9491573e-05
-0.00781896 0.011401446 -0.05761106 -0.008254678 -0.014945998 -0.06753996 -0.015576547 0.02118304
-0.062135357 0.008101121 0.013123237 -0.056112267 0.01755773 -0.062560424 -0.046524677 0.012445295
-0.06646435 -0.034955755 -0.0051907836 -0.017440602 -0.04846829 -0.013000545 -0.0028168631 -0.039589472
0.17666677 0.010288547 -0.051073194 -0.0104437135 -0.040580563 -0.046531025 -0.042924844 -0.04269363
-0.028949672 0.007261527 -0.06448557 -0.032140717 0.109500766 -0.008426593 -0.054602724 -0.01051598
0.31386825 -0.0044865985 0.047824346 -0.008803621 0.094171 -0.025714243 -0.030969888 0.056493875
-0.121034935 -0.07728645 -0.012206065 -0.031285897 0.0037017479 -0.056349605 0.0077333585 -0.00056891545
-0.031033996 -0.09343291 0.016211981 -0.0354403 -0.033602305 -0.010413278 0.13905638 -0.021490457
0.0135236345 0.10929121 0.06940039 -0.031740367 0.010777523 -0.04348478 0.03474864 -0.036631603
0.0017817495 -0.055344585 0.021461947 0.07934312 -0.015529135 0.14207354 0.03498243 0.043726265
-0.01565348 -0.05687645 0.0116374595 -0.022494568 -0.012920258 -0.023664284 0.010295471 -0.06674793
-0.07278441 0.01847595 -0.02120134 -0.08359686 -0.045304667 -0.027815014 -0.023339614 -0.1076334
-0.052392673 -0.0521183 -0.00938212 -0.023824576 -0.023382904 0.3940065 -0.0634384 0.013090921
00000000: 0e41 f93a 303d b83b da05 fabc 793f 4ebc
00000010: 0cee 3cbd d027 febc cadc e3bc fc57 233e
00000020: c4d6 d2bc 65fc 193b 473a 27bc ce98 1bbd
00000030: 2c17 62bc 1d63 53bd cdbc dcbd f545 0cbd
00000040: 87d0 8a3d d5b3 48bd af3b fcba 64e2 60bd
00000050: 2960 90bd 34c2 60bd 8505 70bd 30c6 27bd
00000060: 8656 67bd 7ab2 f7bc 5b83 723c 3dd2 afbc
00000070: bf35 76bd e5a6 56bc b56c cabc a7ac 973d
00000080: 3bdc a43d 7b5d c2bc 5d5c 9d3e 4b40 5dbd
00000090: 7a90 933d c895 ab3c 0459 183c d55b 0d3b
000000a0: af3d 923e 42c9 483e 238b a23b e927 f2bc
000000b0: bbe7 c93a 1aff e6bc 20a1 49bd f830 0bbd
000000c0: f3b2 243e bc1c 01bd ff88 143c 1fee 833d
000000d0: e3b1 00bc d5af 003d add1 0a3e b90f 503e
000000e0: 2f87 d43d e42d acbc a4fd a03b bcc0 33bd
000000f0: efed 22be 238c 443e ebdb 50bc 9595 f73b
00000100: 0b27 893c 5fa3 39bd 43c9 133e 9f81 44bc
00000110: bb01 78bc dc1f e8bc 00bc e9bb 1893 853c
00000120: 224d 57bc 810e f8bc 11a9 393e 14f5 babc
00000130: bb78 22bd d706 68bc b938 33bd bc24 443c
00000140: 897b 98bc 2ee2 6cbc f185 b839 0e01 d7bd
00000150: 4ed6 29bd bc65 e6bc 4bf3 e0bc adc2 53bd
00000160: ed5b 43bd cb5f b23d 7197 5e3e 9d6d a03d
00000170: 4649 69bd 2190 3e3c a6a5 89bd 2c95 4fb8
00000180: 181b 00bc 21cd 3a3c 93f9 6bbd a13e 07bc
00000190: 0fe0 74bc 6452 8abd c634 7fbc 0e88 ad3c
000001a0: a581 7ebd 90ba 043c d802 573c fad5 65bd
000001b0: 3bd5 8f3c ae1f 80bd a990 3ebd 5ae7 4b3c
000001c0: 761e 88bd c42d 0fbd 7317 aabb 98df 8ebc
000001d0: b086 46bd 3d00 55bc 1f9b 38bb 9228 22bd
000001e0: 22e8 343e 4b91 283c 2032 51bd 1c1c 2bbc
000001f0: ce37 26bd 5197 3ebd f6d1 2fbd 84df 2ebd
00000200: dd27 edbc 1af2 ed3b 0311 84bd fca5 03bd
00000210: f041 e03d b10f 0abc 1ba7 5fbd 384b 2cbc
00000220: 57b3 a03e 5104 93bb 76e3 433d 103d 10bc
00000230: badc c03d ada6 d2bc 90b4 fdbc 1f66 673d
00000240: 2ae1 f7bd 5c48 9ebd f2fb 47bc a425 00bd
00000250: 0699 723b d8ce 66bd 1d68 fd3b 4523 15ba
00000260: 023b febc c159 bfbd fdce 843c d929 11bd
00000270: 92a2 09bd 749c 2abc cc64 0e3e c10c b0bc
00000280: 3c92 5d3c 12d4 df3d cb21 8e3d 3002 02bd
00000290: 3594 303c 191d 32bd 9754 0e3d 050b 16bd
000002a0: 9889 e93a 01b1 62bd f7d0 af3c a57e a23d
000002b0: ea6d 7ebc ba7b 113e bd49 0f3d 501a 333d
000002c0: ba3b 80bc 48f7 68bd 0bab 3e3c 8746 b8bc
000002d0: 7daf 53bc 9adb c1bc 56ae 283c 24b3 88bd
000002e0: fe0f 95bd e05a 973c 6fae adbc d534 abbd
000002f0: 6391 39bd 50dc e3bc b832 bfbc e66e dcbd
00000300: b399 56bd 007a 55bd 77b7 19bc c22b c3bc
00000310: 818d bfbc 38bb c93e feeb 81bd 4d7b 563c
