system/models/TinyImagenet/CNN/FedPer_BaseHeadSplit_TinyImagenet_client_9.pt (torch, 766436 bytes, 8 tensors)

weight f4 [32, 3, 5, 5]
0	0xbccc4769	-0.024936395
1	0x3e108586	0.14113435
2	0x3c32bf7b	0.01090991
3	0x3cb8587a	0.022503126
4	0x3d36b913	0.044610094
5	0xbe34a16b	-0.17639701
6	0xbd570846	-0.052498125
7	0xbdd37df9	-0.10326762
8	0xbe0d870b	-0.13821046
9	0xbd17fb70	-0.037105024
10	0xbd207c79	-0.039181206
11	0x3e2ea6c9	0.17055811
12	0xbd452b21	-0.048136834
13	0xbc849ff7	-0.016189558
14	0x3c28b7c4	0.010297719
15	0xbe19d516	-0.15022692
16	0x3d63165b	0.05544124
17	0xbdca0746	-0.098646685
18	0xbe130e5a	-0.14360943
19	0xbd785ff1	-0.06063837
20	0x3d4ac9d4	0.049508885
21	0x3e1a0ab5	0.15043147
22	0xbd051b27	-0.032496598
23	0x3d8ed109	0.06973464
24	0x3d1c167a	0.038107373
25	0xbd7fad72	-0.06242127
26	0x3e18ae74	0.14910299
27	0x3b852d7d	0.0040642605
28	0x3d1af13d	0.03782772
29	0x3d573e19	0.052549455
30	0xbe7c1415	-0.24617036
31	0x3d9233e8	0.071388066
32	0xbe563f8b	-0.20922677
33	0xbe044d65	-0.12920149
34	0xbdd0428a	-0.10168941
35	0xbdc3b5ee	-0.09556185
36	0x3e2687d7	0.16262756
37	0x3e62572f	0.2210357
38	0x3e2690d4	0.16266185
39	0x3e1e4660	0.15456533
40	0xbe06d9c4	-0.13169008
41	0xbbc7b30e	-0.006094343
42	0xbdb514c9	-0.08841855
43	0xbdf352ab	-0.11881002
44	0xbd6aa1f2	-0.05728335
45	0xbd844a26	-0.06459455
46	0x3e0ce564	0.1375938
47	0x3dba215a	0.090883926
48	0xbd09b016	-0.033615194
49	0x3d8ab9ed	0.06773744
50	0x3d272fe9	0.040817175
51	0x3e592125	0.2120405
52	0x3e3dc7a0	0.18533182
53	0x3e163041	0.14666845
54	0x3e3b120c	0.18268603
55	0xbe78939d	-0.2427506
56	0x3d284a8b	0.041086715
57	0xbe39ce3e	-0.18145081
58	0xbe08a2fc	-0.13343424
59	0xbd795592	-0.06087262
60	0x3db92620	0.09040475
61	0x3e9e8d07	0.3096697
62	0x3db677bd	0.08909557
63	0x3e18338a	0.1486341
64	0x3e299bbc	0.16563314
65	0xbe0f7896	-0.14010844
66	0x3da12c78	0.0786981
67	0xbd9c91a0	-0.07644963
68	0x3ad9b6ba	0.0016610243
69	0x3dad1372	0.084509745
70	0xbdc99d65	-0.09844474
71	0x3d2ab85a	0.041679718
72	0x3d5e6a9e	0.054300897
73	0x3d80c941	0.06288386
74	0x3de7294c	0.11287174
75	0x3eca1e84	0.39476407
76	0x3e8c9a50	0.2746148
77	0xbd71616c	-0.0589308
78	0xbe36d85b	-0.1785597
79	0xbe818d5b	-0.25303158
80	0x3ed95ab8	0.42452025
81	0x3f0d67c0	0.55236435
82	0x3dbf92a0	0.093541384
83	0xbef4686b	-0.47735915
84	0xbee52042	-0.44751173
85	0x3f0ae583	0.5425646
86	0x3ef16ba2	0.4715243
87	0xbc53f50b	-0.012936841
88	0xbee61c4b	-0.4494346
89	0xbf25c0ee	-0.6474751
90	0x3ef230d2	0.47302872
91	0x3ef7fe26	0.48436087
92	0x3db07d75	0.08617679
93	0xbec0b227	-0.3763592
94	0xbf201fd8	-0.6254859
95	0x3e4fcfaa	0.20294061
96	0x3e9fccc3	0.31210908
97	0x3dc24d5e	0.09487413
98	0xbea95f08	-0.33080316
99	0xbecad67f	-0.39616773
100	0x3ecfd1f2	0.40589863
101	0x3eac8b70	0.33700132
102	0xbb5e5e36	-0.0033930666
103	0xbe5ca383	-0.2154675
104	0xbe973f5a	-0.2954052
105	0x3f05acde	0.522169
106	0x3eb8b2f9	0.36074045
107	0xbdb30e30	-0.087429404
108	0xbec0d339	-0.3766115
109	0xbeef59f6	-0.46748322
110	0x3eff3354	0.49843848
111	0x3f0b720e	0.5447091
112	0xbd415edb	-0.0472096
113	0xbed12ffd	-0.40856925
114	0xbf070a08	-0.5274968
115	0x3e9f77c7	0.3114607
116	0x3ebeca3b	0.37263665
117	0xbc8a000f	-0.016845731
118	0xbed99b76	-0.4250142
119	0xbf02eea2	-0.51145375
120	0x3e96f910	0.29486895
121	0x3e6c6492	0.2308524
122	0xbc757272	-0.014980899
123	0xbe569685	-0.20955856
124	0xbeeeb7bb	-0.4662455
125	0x3e088c98	0.13334882
126	0x3e1fcab6	0.15604672
127	0xbd55d933	-0.05220909
128	0xbe79c458	-0.24391305
129	0xbe944a27	-0.28962824
130	0x3ed69644	0.4191152
131	0x3ed48e67	0.41514894
132	0xbdbe8ce6	-0.09304218
133	0xbebacb66	-0.36483306
134	0xbec16389	-0.37771252
135	0x3ef69743	0.4816228
136	0x3ee74fd4	0.45178092
137	0x3cbc511d	0.022987897
138	0xbee2ec55	-0.44320932
139	0xbef3e7f8	-0.47637916
140	0x3efcd932	0.49384457
141	0x3ef2ca93	0.47420177
142	0x3e03114d	0.12799568
143	0xbec17861	-0.37787154
144	0xbf108a46	-0.5646099
145	0x3e5affc6	0.21386632
146	0x3eb103f3	0.34573326
147	0x3dee3e5e	0.11632989
148	0xbe66f46b	-0.22554176
149	0xbeb189e6	-0.3467552
150	0xbe8dd7bc	-0.27703655
151	0xbe9fbd6e	-0.3119921
152	0xbe928acc	-0.2862152
153	0xbe4c4cdb	-0.19951193
154	0xbe24438a	-0.16041389
155	0xbe8b80cb	-0.272467
156	0xbe23e696	-0.1600593
157	0xbec3faf6	-0.38277406
158	0xbea8d342	-0.32973677
159	0xbe998a85	-0.29988495
160	0xbe5afb05	-0.21384819
161	0xbe8739b5	-0.26411214
162	0xbed185fb	-0.4092253
163	0xbed3f437	-0.4139726
164	0xbe93220b	-0.2873691
165	0xbe253448	-0.16133225
166	0xbe8fdc1c	-0.28097618
167	0xbe7f6c7f	-0.24943732
168	0xbecc7af9	-0.3993757
169	0xbe86b335	-0.263086
170	0xbcb915be	-0.022593375
171	0xbe7f6ef8	-0.24944675
172	0xbe1da099	-0.15393294
173	0xbe69bfac	-0.22827023
174	0xbe9cf04b	-0.3065208
175	0x3e59e98f	0.21280502
176	0x3e04e938	0.12979591
177	0x3d943435	0.0723652
178	0x3e5e6138	0.21716774
179	0x3d2e8b4c	0.042613313
180	0x3e41e527	0.18935071
181	0x3e078b51	0.13236739
182	0x3e56531b	0.2093014
183	0x3e172761	0.14761116
184	0x3e469f4b	0.19396703
185	0x3e4feba0	0.20304728
186	0x3e0acf41	0.13555624
187	0x3ddae853	0.106888436
188	0x3ce947a5	0.028476546
189	0x3e5029ed	0.20328493
190	0x3e8c5777	0.2741048
191	0x3e7bbc48	0.24583542
192	0x3d5a74f7	0.053334203
193	0x3e0cdcbe	0.13756081
194	0x3d854d92	0.06508936
195	0x3e00dbb7	0.12583815
196	0x3dba041a	0.090828136
197	0x3e2e84e2	0.17042878
198	0x3d52ee19	0.0514966
199	0x3e237758	0.15963495
200	0xbd882a33	-0.06648674
201	0x3c3229b9	0.010874205
202	0xbe2670b4	-0.1625393
203	0xbe17e13a	-0.14832011
204	0xbe027a81	-0.12742044
205	0x3d1d4d03	0.038403522
206	0xbdc80560	-0.0976665
207	0x3c8e771e	0.017390784
208	0xbd497608	-0.04918483
209	0xbd5611f5	-0.05226322
210	0xbd82e74d	-0.063917734
211	0xbda6fddd	-0.08153889
212	0xbd96e4dc	-0.0736787
213	0xbdfa1cb9	-0.1221251
214	0xbd966b12	-0.07344641
215	0xbcf9edd9	-0.030508922
216	0xbe18f3f2	-0.14936808
217	0xbe189734	-0.1490143
218	0x3aa536fa	0.0012604885
219	0xbe2b7ccf	-0.1674683
220	0xbd4149df	-0.04718959
221	0x3d3ce9c4	0.046121374
222	0xbd3f5ee4	-0.046721354
223	0xbdc555c7	-0.09635501
224	0xbe1f8072	-0.15576342
225	0x3b14b88e	0.002269301
226	0x3e254e81	0.16143228
227	0xbe173618	-0.14766729
228	0x3dac5908	0.08415419
229	0x3cb58537	0.022158248
230	0xbdd843c6	-0.10559802
231	0x3ee16c01	0.44027713
232	0xbe3af4d4	-0.18257457
233	0x3e451ff4	0.1925047
234	0x3d922c23	0.07137325
235	0xbe5814c7	-0.21101676
236	0x3ebf06bf	0.37309834
237	0xbeb574af	-0.35440585
238	0x3d8cc10c	0.06872758
239	0x3c74f187	0.014950163
240	0xbdf4da84	-0.11955741
241	0x3ecbc592	0.39799172
242	0xbeb15ca3	-0.3464099
243	0x3db11730	0.08647001
244	0x3cb1c83a	0.02170192
245	0xbe629d71	-0.22130372
246	0x3ea8b5d4	0.32951224
247	0xbe922339	-0.28542498
248	0x3d8c85f7	0.06861489
249	0xbcac8d55	-0.021063486
250	0xbe2a5e45	-0.16637523
251	0x3e46f4ae	0.19429275
252	0xbdb2f41a	-0.08737965
253	0x3d2b5c58	0.041836113
254	0xbd5c9110	-0.05384928
255	0xbe464a78	-0.19364345

bias f4 [32]
0	0x3fc32a94	1.5247369
1	0xbe4f35f7	-0.2023543
2	0xbd8b23f6	-0.067939684
3	0xbbde93e4	-0.0067925323
4	0x3ee02986	0.4378168
5	0x3f05f2d0	0.5232363
6	0xbe9be8f5	-0.3045117
7	0xbdeb2a29	-0.11482651
8	0xbe75b0a6	-0.23993167
9	0x3d03b637	0.032156195
10	0xbe82c43d	-0.25540343
11	0x4025cbf1	2.5905726
12	0x3e595119	0.21222343
13	0xbd9be4b8	-0.07611984
14	0xbe731338	-0.237378
15	0xbf6e5398	-0.93096304
16	0x3e6f96c1	0.23397352
17	0xbd3a7c3f	-0.045528647
18	0xbdbd8b5c	-0.09255096
19	0x3f888ba9	1.0667621
20	0x3e9e592e	0.30927414
21	0xbebe07c2	-0.37115294
22	0xbe27ed91	-0.16399218
23	0x3f31d0e7	0.69459385
24	0x3f93d8ed	1.1550575
25	0xbc0caac5	-0.0085856365
26	0xbe6f55ff	-0.23372649
27	0xbedfeeff	-0.43737027
28	0xbdc2e3fa	-0.09516139
29	0xbd89bf00	-0.067258835
30	0x3e74ab1d	0.238934
31	0xbd2b36b4	-0.041800216

weight f4 [64, 32, 5, 5]
0	0xbd253636	-0.040334903
1	0xbc7e369d	-0.0155159505
2	0xba95fd14	-0.0011443221
3	0xba9e54ab	-0.0012079676
4	0x39ad8cae	0.00033101946
5	0xbd6b18f6	-0.05739685
6	0xbd6a2bdf	-0.057170745
7	0xbd4f2838	-0.050575465
8	0xbcfb19b3	-0.030651903
9	0xbce5f7d3	-0.028072273
10	0xbd55342b	-0.052051704
11	0xbd8da08a	-0.06915386
12	0xbd9786c4	-0.073987514
13	0xbc2ae0ef	-0.010429605
14	0xbd5f0c60	-0.05445516
15	0xbd691349	-0.056903157
16	0xbd8a83b9	-0.06763405
17	0xbd828906	-0.063737914
18	0xbd1d30de	-0.03837668
19	0xbcefaef2	-0.029258225
20	0xbd8129a2	-0.06306769
21	0xbd62a869	-0.05533639
22	0xbc8242b8	-0.015900955
23	0xbd812930	-0.06306684
24	0xbd8acb28	-0.0677703
25	0x3ba71a4c	0.0050995704
26	0x3d138097	0.036011305
27	0x3c5f7c87	0.0136405295
28	0xbc2fb60d	-0.010724557
29	0xbd810e51	-0.06301559
30	0x3d15ac34	0.03654118
31	0xb8b28717	-8.512864e-05
32	0x3cee743c	0.02910816
33	0xba0af54b	-0.0005300834
34	0xbd3fe290	-0.046846926
35	0x3d0116ba	0.031515814
36	0x3c2e6d90	0.010646239
37	0x3d1aa058	0.037750572
38	0x3c5c87ed	0.013460142
39	0xbd92432e	-0.0714172
40	0xba30ad94	-0.00067397323
41	0x3cdac22d	0.026703918
42	0x3d169c03	0.036769878
43	0xbc8642e0	-0.01638931
44	0xbc8beab3	-0.017079687
45	0x3c7cf13e	0.015438376
46	0xbb41e2a8	-0.002958456
47	0x3cd8250e	0.026384857
48	0xbc84b193	-0.016197955
49	0xbd623c4f	-0.055233296
50	0xbbc53795	-0.006018589
51	0xbb08e6f7	-0.002088962
52	0xbd076345	-0.033053655
53	0xbd06ddd8	-0.03292641
54	0x3c5fde20	0.013663799
55	0xbc30c2cd	-0.010788632
56	0xbcfb3a3d	-0.030667419
57	0xbc172823	-0.009225878
58	0xbd1e53cd	-0.038654137
59	0x3bf4480c	0.0074548777
60	0x3a2565c6	0.0006309416
61	0x3c81683d	0.015796775
62	0xbd263f04	-0.04058744
63	0xbc84b1e2	-0.016198102
64	0x3c55993e	0.013037024
65	0x3c2ab5b4	0.010419298
66	0xbd3f4af0	-0.046702325
67	0x37112993	8.652353e-06
68	0x3b893e4f	0.004188336
69	0x3c5184da	0.012788022
70	0xbd6bfca6	-0.05761399
71	0xbbcd1d99	-0.006259632
72	0xbd30bf60	-0.04315126
73	0xbd2da5cd	-0.042394448
74	0xbc389fbd	-0.011268553
75	0x3cc5a183	0.024124866
76	0xbcd57013	-0.026054418
77	0x3cba1437	0.022714717
78	0x3bc24cf2	0.0059295828
79	0x3c6db6ac	0.014508884
80	0x3cb93f83	0.022613293
81	0x3c1bcb62	0.009508939
82	0xbcd013e0	-0.025400102
83	0xbb3a7d83	-0.0028456158
84	0x3c11f01e	0.008907346
85	0xbd1ddcf9	-0.038540814
86	0x3b4ea523	0.0031531535
87	0xbca48c92	-0.02008656
88	0xbb30858a	-0.0026935064
89	0x3c681589	0.014165291
90	0xbd1c5bbd	-0.038173426
91	0xbcb3b67f	-0.021937607
92	0x3c6cfc6b	0.014464478
93	0xbd00e488	-0.031467944
94	0x3cdd5bf3	0.027021384
95	0xbd279fe0	-0.040923953
96	0xb7ac16b0	-2.0514562e-05
97	0x3b962245	0.004581722
98	0x3c875196	0.016518395
99	0xbca1e2c1	-0.019761445
100	0x3d3f9d9b	0.046781164
101	0x3d7488b7	0.059700694
102	0x3d9ce232	0.07660331
103	0x3ce39397	0.027780337
104	0x3d25f5b7	0.040517535
105	0x3d49a7a6	0.049232148
106	0x3d12910f	0.03578287
107	0x3c6d04c7	0.014466471
108	0x3c2492f8	0.010044806
109	0x3c70e97d	0.014704105
110	0x3c47015e	0.012146322
111	0x3c9b6792	0.018970285
112	0x3bec828a	0.00721771
113	0x3c1bdd59	0.009513223
114	0x3d37c3a1	0.0448643
115	0x3d5c24c5	0.053746004
116	0x3c368082	0.011139037
117	0x3cf32e8b	0.02968528
118	0x3d0526b3	0.03250761
119	0x3d4b9d3b	0.049710494
120	0x3b9806eb	0.0046394966
121	0x3ce1c344	0.02755893
122	0x3d6d5759	0.05794463
123	0x3d532a81	0.051554207
124	0xbb9e1a43	-0.004824908
125	0xbdd49de5	-0.103816785
126	0xbdb3f65f	-0.08787226
127	0xbdbce7d6	-0.09223907
128	0xbdd0dd5f	-0.10198473
129	0xbdd8ed5d	-0.105921485
130	0xbd818edd	-0.06326077
131	0xbdbb4884	-0.09144691
132	0xbd98cddd	-0.0746114
133	0xbd7df1d5	-0.061998207
134	0xbdc4c2fd	-0.096075036
135	0xbd9b6f13	-0.07589545
136	0xbd54722f	-0.051866706
137	0xbdba6e97	-0.091031246
138	0xbd682e55	-0.05668481
139	0xbd88d489	-0.06681163
140	0xbd596a4d	-0.053079892
141	0xbd401472	-0.0468945
142	0xbd695c17	-0.05697259
143	0xbd77c84b	-0.06049375
144	0xbdb96f94	-0.09054485
145	0xbd4b5892	-0.049645014
146	0xbd241b72	-0.040065236
147	0xbd92b79e	-0.071639284
148	0xbdb82658	-0.089916885
149	0xbcb8319d	-0.022484595
150	0x3dc68a74	0.096943766
151	0x3dcab641	0.098980434
152	0x3da62470	0.08112419
153	0x3df26a3e	0.1183667
154	0x3e151219	0.14557685
155	0x3dd9dff9	0.106384225
156	0x3d6ecebb	0.058302622
157	0x3dbd1da5	0.0923417
158	0x3db7934a	0.0896364
159	0x3dbc4d9c	0.0919449
160	0x3d3bb79e	0.045829408
161	0x3d2ea150	0.04263431
162	0x3ca545fe	0.020174976
163	0x3daadc5e	0.08342813
164	0x3de00e10	0.10940182
165	0x3daf04c6	0.08545832
166	0x3d734f3d	0.05940174
167	0x3d5ba786	0.05362656
168	0x3da7ced0	0.08193743
169	0x3d320060	0.04345739
170	0x3d6148a7	0.055000927
171	0x3c9ed860	0.019390285
172	0x3d351f25	0.044219155
173	0x3d4f13e0	0.050556064
174	0x3d90a452	0.070625916
175	0xbd456f6b	-0.04820196
176	0x3b25bf17	0.00252909
177	0xba45b410	-0.0007541785
178	0x38f4b27f	0.00011668074
179	0x3bf1526f	0.007364563
180	0xbd35f06c	-0.044418737
181	0x3b946d2a	0.004529615
182	0xbbfccd6d	-0.0077149183
183	0xbb87ca54	-0.0041439924
184	0xbbf1d05a	-0.007379574
185	0xbd442a92	-0.04789216
186	0x3cdb2c54	0.026754536
187	0x3d5d8568	0.054082304
188	0xbb3f1331	-0.0029155726
189	0x3b95ccba	0.0045715244
190	0xbb6bf014	-0.0036001252
191	0x3c0f66ef	0.008752569
192	0x3ca18e45	0.01972116
193	0xbd035d49	-0.032071386
194	0x3ccb4b3f	0.024816154
195	0xbd6b644a	-0.05746869
196	0xbbd7a880	-0.006581366
197	0x3cb299d8	0.021801874
198	0xbca7b40a	-0.020471592
199	0xbbec8828	-0.0072183795
200	0xbc0cb17a	-0.008587236
201	0x3cf65069	0.03006764
202	0x3caaaec1	0.020835282
203	0x3d7cfe77	0.061766114
204	0xbc09b48a	-0.00840486
205	0x3d50610f	0.050873812
206	0x3cdc0db8	0.02686201
207	0x3b31bb79	0.00271198
208	0x3c9e2dfa	0.019309033
209	0x3aaf4165	0.001337093
210	0x3ca267a5	0.019824812
211	0x3ca69397	0.020334048
212	0x3d08d9d8	0.033410877
213	0x3d78e8a3	0.060768735
214	0x3c360260	0.011108965
215	0x3d0f1e88	0.034941226
216	0x3d3904d0	0.045170605
217	0x3d064b7f	0.032786842
218	0x3d358938	0.044320315
219	0x3cf35492	0.029703412
220	0x3d67fe5d	0.056639064
221	0xbc002bf5	-0.00782298
222	0x3d1497e3	0.036277663
223	0x3cc92876	0.024555426
224	0xba5f755b	-0.0008524262
225	0xbcd3a9d9	-0.025837826
226	0x3b936f8f	0.004499383
227	0x3c94b973	0.018154835
228	0xbd427014	-0.047470167
229	0xbb3404b7	-0.002746863
230	0x3c0e3cd3	0.008681494
231	0xbc50d6f8	-0.012746565
232	0xbc7ad650	-0.015309885
233	0x3bb56705	0.0055359625
234	0xbcad67ca	-0.021167655
235	0xbcb3df0c	-0.021956943
236	0xbca4a035	-0.020095924
237	0x3ab14652	0.0013524985
238	0xbc449f55	-0.012000878
239	0xbcbcb7df	-0.023036895
240	0xbb057aea	-0.0020367452
241	0xbc1f9081	-0.009739042
242	0xbd39831c	-0.04529105
243	0xbc3822a3	-0.011238727
244	0x3a1ab475	0.0005901524
245	0xbbced73d	-0.0063122795
246	0xbc967696	-0.018367093
247	0x3c39f64e	0.0113502275
248	0xbd46c3ef	-0.0485267
249	0xbd10956c	-0.03529875
250	0xbcc95332	-0.024575803
251	0x3cbe5269	0.023232656
252	0xbd35257f	-0.044225212
253	0xbbc1ec09	-0.00591803
254	0xbd38fa3e	-0.045160525
255	0xbc574d9e	-0.013141064

bias f4 [64]
0	0xbda81d62	-0.08208729
1	0xbb0eaa09	-0.002176883
2	0x3ded4180	0.11584759
3	0x3c8d76c7	0.017268552
4	0x3d5c44dc	0.053776607
5	0xbccfb79b	-0.025356105
6	0x3cf7fe17	0.030272527
7	0x3c684ceb	0.014178495
8	0x3ccece50	0.025244862
9	0xbd44d737	-0.048056807
10	0x3d1924c4	0.037388578
11	0xbe8b21d2	-0.2717424
12	0x3c75ecb3	0.015010047
13	0xbd2a79e5	-0.041620154
14	0x3de064f7	0.109567575
15	0x3dad24df	0.08454298
16	0x3ec439a0	0.38325214
17	0xbc03809d	-0.008026269
18	0xbe04a6af	-0.1295421
19	0xbcc86482	-0.024461988
20	0x3d2e3760	0.04253328
21	0x3bff75fa	0.0077960463
22	0xbcfa7e05	-0.030577669
23	0x3da5bac0	0.0809226
24	0x3da70109	0.08154494
25	0xbd86f158	-0.065890014
26	0x3e621ddb	0.22081701
27	0x3d07ad4e	0.03312426
28	0x3d97cf99	0.07412643
29	0xbd937103	-0.0719929
30	0xbd022c38	-0.03178045
31	0x3e3d628d	0.18494625
32	0x3e1443e1	0.14479019
33	0x3e41da08	0.18930829
34	0xbc3c836d	-0.011505944
35	0xbe08a1fa	-0.13343039
36	0xbdd235b5	-0.1026415
37	0x3e1b0bb5	0.15141185
38	0x3d277451	0.040882412
39	0x3ba0606f	0.0048943083
40	0xbc938d21	-0.018011631
41	0xbd81dcba	-0.063409284
42	0x3dc84a2d	0.09779773
43	0x3e478cc7	0.19487296
44	0xbd7de612	-0.06198699
45	0xbd66764d	-0.056265164
46	0x3d44c333	0.04803772
47	0xbe18da9a	-0.1492714
48	0x3d286f19	0.041121576
49	0xbc1df182	-0.0096400995
50	0xbb2d7d3e	-0.0026472355
51	0x3c1bfcf7	0.009520761
52	0xbd845f15	-0.06463448
53	0xbde27300	-0.11057091
54	0xbd94dec3	-0.07269051
55	0xbd6a7dc1	-0.057248835
56	0xbe3dc89d	-0.18533559
57	0x3e386bfe	0.18009946
58	0x3c8e42e5	0.017365882
59	0x3e363c21	0.17796375
60	0xbd4a53e0	-0.049396396
61	0xbe14ff43	-0.145505
62	0x3e440dcf	0.19145893
63	0xbcd14eca	-0.025550265

weight f4 [512, 64]
0	0x3e00226c	0.12513131
1	0x3c8971b2	0.016777847
2	0xbc64c49d	-0.013962892
3	0xbe26d170	-0.16290832
4	0xbe2f888b	-0.17141931
5	0xbdfb877a	-0.122816995
6	0x3de6499f	0.11244511
7	0x3c5cef26	0.013484752
8	0xbeaca645	-0.33720604
9	0x3d44fe4b	0.048094075
10	0x3db573bb	0.088599645
11	0xbe721b30	-0.23643184
12	0x3ae2a605	0.0017291909
13	0x3da27149	0.07931764
14	0xbe15119f	-0.14557503
15	0xbd2fcadd	-0.042918075
16	0x3e109230	0.14118266
17	0x3e03756b	0.1283776
18	0xbd1fbf67	-0.039000895
19	0xbe791b99	-0.24326934
20	0x3dbe9d3f	0.09307336
21	0xbd774ce6	-0.06037607
22	0xbdaa4da0	-0.08315587
23	0xbe09110a	-0.13385406
24	0xbe2ea92f	-0.17056726
25	0x3df3da6e	0.119068965
26	0x3e19f5d8	0.15035188
27	0xbe3b726b	-0.18305366
28	0xbd13343c	-0.035938486
29	0xbd599a0a	-0.05312542
30	0x3e162626	0.1466299
31	0xbd1336e1	-0.03594101
32	0xbd810077	-0.06298917
33	0xbdebcfe2	-0.1151426
34	0xbd966824	-0.07344082
35	0x3db46aeb	0.088094555
36	0xbb9769fc	-0.0046207886
37	0x3e7bd8c2	0.24594405
38	0x3d475239	0.048662398
39	0xbe2c34b9	-0.16816987
40	0xbb964f06	-0.004587057
41	0xbea84a52	-0.32869202
42	0x3d1fb6dd	0.03899275
43	0x3e5f0474	0.21779042
44	0xbe366753	-0.17812853
45	0xbe35cb74	-0.17753392
46	0xbd5c4644	-0.053777948
47	0xbcba8081	-0.022766354
48	0x3cfbf174	0.030754782
49	0xb9bee327	-0.00036408866
50	0x3d831e09	0.06402213
51	0xbddcb935	-0.10777513
52	0x3d8484de	0.06470655
53	0xbe4e6148	-0.20154297
54	0xbd5edd82	-0.054410465
55	0x3d29ef20	0.041487813
56	0x3da32b59	0.07967252
57	0x3e0dd61a	0.13851205
58	0xbc83dc0c	-0.016096137
59	0x3c968c67	0.018377496
60	0xbe541ce3	-0.20714144
61	0xbddc5237	-0.10757869
62	0x3e09ccce	0.13457033
63	0xbd8c92aa	-0.068639114
64	0xbdd25904	-0.10270885
65	0xbe2d44c7	-0.16920768
66	0xbe522536	-0.20522007
67	0xbd1560be	-0.036469214
68	0xbd306d42	-0.043072946
69	0xbdc50013	-0.09619155
70	0xbd6e6371	-0.058200303
71	0x3d73cbb7	0.05952045
72	0x3b00d742	0.0019659554
73	0x3e233296	0.15937266
74	0x3e45e249	0.19324602
75	0x3e5111d5	0.20416959
76	0xbdf1eee1	-0.11813141
77	0xbe22bc34	-0.15892106
78	0xbce359f5	-0.027752856
79	0x3cd3bb27	0.025846077
80	0xbd0be66e	-0.0341553
81	0xbd62132b	-0.05519406
82	0x3d8714e3	0.06595781
83	0xbd8e3dee	-0.06945406
84	0xbe14857e	-0.14504048
85	0x3c620bcd	0.013796759
86	0x3e0d0fdc	0.13775581
87	0xbe0c6a57	-0.1371244
88	0xbde5165c	-0.11185905
89	0x3da8ca37	0.082416944
90	0xbe18f196	-0.14935908
91	0xbd1d6257	-0.038423862
92	0xbe29d478	-0.16584957
93	0x3e393314	0.18085891
94	0xbc173b26	-0.009230411
95	0xbd1b9662	-0.037985213
96	0xbd5161fa	-0.05111883
97	0xbe51ec0a	-0.20500198
98	0xbd9cf6c7	-0.076642565
99	0x3daea353	0.085272454
100	0x3de697d2	0.11259426
101	0xbe6f65f7	-0.2337874
102	0x3e505cdb	0.20347922
103	0x3cf1567c	0.029460184
104	0xbdfe3072	-0.12411584
105	0xbddc299a	-0.10750122
106	0xbe01b270	-0.12665725
107	0xbe4a795d	-0.19772859
108	0x3db4b5c0	0.088237286
109	0x3cd7eb2a	0.026357252
110	0xbddef916	-0.10887353
111	0x3e4ed1b6	0.20197186
112	0x3bdc064a	0.006714617
113	0x3ce5950d	0.028025175
114	0x3caf08db	0.021366527
115	0xbdbb5a1d	-0.09148047
116	0xbb76b817	-0.0037646347
117	0x3df293aa	0.11844571
118	0xbc9e981c	-0.01935964
119	0xbd80eed1	-0.062955506
120	0x3e0521eb	0.1300122
121	0x3dc5ab68	0.09651834
122	0xbe4d0fca	-0.20025554
123	0xbc8c325e	-0.01711386
124	0x3e4f2d88	0.20232213
125	0x3dbdb4ed	0.092630245
126	0xbdf296f9	-0.11845202
127	0xbc6c432f	-0.014420315
128	0x3d66c171	0.056336824
129	0x3d37ef34	0.044905856
130	0x3daf0e43	0.08547642
131	0x3d1c49c6	0.038156293
132	0xbd268f35	-0.040663917
133	0xbb960717	-0.004578482
134	0xbcb510a8	-0.022102669
135	0xbcc5f4b5	-0.024164537
136	0xbda3d335	-0.07999269
137	0x3de81ce8	0.113336384
138	0x3e7af13a	0.24506083
139	0xbd941651	-0.07230819
140	0x3b8b7a9c	0.0042565595
141	0x3c88a8ca	0.016682047
142	0xbe0d6975	-0.1380976
143	0x3e132399	0.14369048
144	0x3d2cb68d	0.04216628
145	0x3d71efe1	0.059066657
146	0x3e443d19	0.19163932
147	0x3c8bc430	0.017061323
148	0x3dcf9477	0.10135739
149	0xbd085f16	-0.033293806
150	0xbe05ceb0	-0.13067126
151	0xbd1d869f	-0.038458463
152	0xbc84db67	-0.0162179
153	0xbde69971	-0.112597354
154	0x3dbe52ff	0.09293174
155	0x3cf78f01	0.030219557
156	0x3ddec1ab	0.10876783
157	0xbca2c7e2	-0.019870702
158	0xbd099cea	-0.03359691
159	0xbd018ab6	-0.031626426
160	0xbcb2ce72	-0.021826956
161	0xbd687d9e	-0.056760423
162	0xbda4200a	-0.080139235
163	0xbbf2672b	-0.0073975525
164	0x3d9c90ad	0.07644782
165	0xbe0ef813	-0.1396182
166	0x3e39398e	0.18088362
167	0x3e06bda2	0.13158277
168	0x3d07931c	0.03309928
169	0xbcf8b3f8	-0.030359253
170	0xbd37753d	-0.04478954
171	0x3c2b0ca1	0.010440023
172	0xbddb184b	-0.10697993
173	0x3db473fd	0.088111855
174	0xbe4e8111	-0.20166422
175	0x3e0d0cb0	0.13774371
176	0xbcac2477	-0.021013482
177	0x3e3fccee	0.18730518
178	0xbe0b2334	-0.13587648
179	0x3da2e517	0.07953852
180	0x3d989aed	0.07451425
181	0xbdf44f36	-0.11929171
182	0x3e084881	0.13308908
183	0x3e36b7ae	0.17843506
184	0x3d569f8b	0.052398246
185	0x3d8752ba	0.06607576
186	0xbd357d68	-0.04430905
187	0xbe76b794	-0.24093467
188	0x3d7f5e01	0.06234551
189	0xbe2afb92	-0.16697529
190	0xbeb667c6	-0.35626048
191	0xbe119090	-0.14215302
192	0x3e09c105	0.13452537
193	0xbcbc9825	-0.023021767
194	0xbe02c411	-0.12770106
195	0xbce455d4	-0.027872957
196	0x3e5ab80a	0.21359268
197	0xbe025f1b	-0.12731592
198	0x3e699ea1	0.22814418
199	0x3dcc8d84	0.099879295
200	0xbdbbae02	-0.09164049
201	0xbe17174c	-0.14754981
202	0xbdd7bfe4	-0.10534647
203	0xbe820809	-0.25396755
204	0xbd2ca0f6	-0.04214569
205	0x3db07998	0.08616942
206	0xbe7bc629	-0.24587311
207	0x3de0f591	0.10984338
208	0xbd76a9ed	-0.060220648
209	0xbd85b67e	-0.06528948
210	0xbce8c17e	-0.028412577
211	0x3e54d053	0.20782594
212	0x3ddd75ed	0.10813508
213	0xbe4fe79d	-0.20303197
214	0xbdc1b5c8	-0.094585
215	0xbd1a1bc8	-0.03762415
216	0xbb04da62	-0.0020271768
217	0x3de41d1c	0.11138365
218	0x3d2c28b4	0.042031005
219	0xbe00f6af	-0.12594102
220	0xbd04410b	-0.032288592
221	0xbdc00741	-0.093763836
222	0x3e06e7c2	0.13174346
223	0x3d685bb5	0.056728084
224	0x3e1f753a	0.15572062
225	0x3df83158	0.121187866
226	0x3e39b4de	0.18135402
227	0xbd67df5b	-0.056609493
228	0x3d67ae16	0.056562506
229	0xbdd99e8d	-0.10625944
230	0xbd63a5c1	-0.055577997
231	0xbd5ae0cf	-0.05343705
232	0x3ec5dc18	0.3864448
233	0xbd511585	-0.051045913
234	0x3de6f6ec	0.11277565
235	0xbd9d25bf	-0.07673215
236	0xbcf79315	-0.030221501
237	0xbd68444a	-0.05670575
238	0xbcb89094	-0.022529878
239	0xbdd28945	-0.10280088
240	0xbd447114	-0.047959402
241	0xbdebd8a1	-0.11515928
242	0x3d914a3d	0.07094238
243	0x3cf70786	0.030154955
244	0x3e33a1a5	0.17542131
245	0x3daf330a	0.08554657
246	0x3e06af7b	0.13152878
247	0xbe4b769f	-0.19869469
248	0xbe1ebb85	-0.1550122
249	0xbd292d61	-0.041303042
250	0xbda705a7	-0.08155375
251	0x3dca7428	0.09885436
252	0x3d47a610	0.048742354
253	0xbd7dd0f8	-0.061966866
254	0x3d6f0231	0.0583517
255	0x3d9690d0	0.073518395

bias f4 [512]
0	0x3d89154f	0.066935174
1	0xbd9b6298	-0.07587165
2	0xbe289fc4	-0.16467196
3	0x3d4135e0	0.04717052
4	0x3d07fc02	0.033199318
5	0xbd830ee1	-0.06399322
6	0x3e3cf86c	0.1845414
7	0xbdd54051	-0.10412658
8	0x3db2b7d3	0.08726468
9	0xbe059d82	-0.13048366
10	0x3cddf8e8	0.027096227
11	0xbcad35b6	-0.021143775
12	0xbdb23159	-0.087008186
13	0x3e30fe6f	0.17284559
14	0x3da2359a	0.0792038
15	0x3d85bc12	0.06530012
16	0x3e0b7a0d	0.13620777
17	0x3c9184a9	0.017763453
18	0x3d845226	0.06460981
19	0x3c698375	0.014252533
20	0xbdc704d3	-0.09717717
21	0x3dcb92b7	0.09940093
22	0x3d663feb	0.0562133
23	0x3cb37d38	0.021910295
24	0x3d989bfd	0.074516274
25	0xbe0a7e1d	-0.13524671
26	0xbe09f916	-0.13473925
27	0xbdb327ff	-0.08747863
28	0x3cf0c594	0.029391088
29	0xbd7a817b	-0.06115864
30	0x3d356768	0.04428807
31	0xbd92e6a9	-0.07172901
32	0xbce9c000	-0.028533936
33	0x3cde6aa3	0.027150458
34	0x3c280b97	0.0102566695
35	0xbdd797fd	-0.10527036
36	0x3e2308b2	0.15921286
37	0x3d942b3f	0.07234811
38	0xbdfa8d4d	-0.12233982
39	0xbdbaf6bc	-0.09129092
40	0x3dd02269	0.10162813
41	0xbd60b507	-0.05486014
42	0x3d5f4b88	0.05451539
43	0x3dab4e5d	0.08364556
44	0xbdf3d3e7	-0.119056515
45	0xbd623b3b	-0.055232268
46	0x3b8fff21	0.0043944274
47	0xbd30032b	-0.04297177
48	0x3e2fdb41	0.17173482
49	0x3e3dcc66	0.18535003
50	0x3c941563	0.018076604
51	0xbcbbe7ba	-0.022937644
52	0xbdfead7a	-0.12435432
53	0x3c346bad	0.011012
54	0x3ce2c151	0.027680071
55	0xbd668df6	-0.05628773
56	0xbe0b11ac	-0.1358096
57	0xbcb11df5	-0.02162073
58	0x3d2e42ca	0.042544164
59	0x3cae0850	0.021244198
60	0x3c84d82e	0.016216364
61	0xbdc944b7	-0.098275594
62	0x3d9d3490	0.07676041
63	0x3dd6e131	0.104921706
64	0xbd097c70	-0.03356594
65	0x3d032497	0.032017317
66	0xbe012904	-0.12613302
67	0x3db5cf74	0.08877459
68	0xbd0ce4cb	-0.03439788
69	0x3e024798	0.12722623
70	0x3e05ef92	0.1307967
71	0x3c978cb8	0.018499717
72	0xbe1a3499	-0.15059127
73	0x3dc8510a	0.09781082
74	0xbddec7db	-0.10877963
75	0x3ca7bdc2	0.020476226
76	0xbca8f58a	-0.020624895
77	0xbda9ad2a	-0.082849815
78	0xbdb95169	-0.09048731
79	0xbe352ab9	-0.17692079
80	0x3dbea71f	0.093092196
81	0x3d9d5bd7	0.07683533
82	0xbac9014f	-0.0015335473
83	0x3d03eee2	0.03221024
84	0x3e40958e	0.1880705
85	0xbdc4130c	-0.095739454
86	0x3e2518a7	0.16122685
87	0x3ddba7c2	0.10725357
88	0xbdd5311a	-0.10409756
89	0x3d01567f	0.03157663
90	0x3d873548	0.066019595
91	0x3ca88ff1	0.02057645
92	0xbd726da0	-0.059186578
93	0x3dd71aff	0.10503196
94	0x3d730d46	0.05933883
95	0x3d15e400	0.03659439
96	0x3d857a92	0.06517519
97	0x3dbbe879	0.091752
98	0x3dd492d7	0.1037957
99	0xbcf832cc	-0.03029766
100	0x3d302100	0.04300022
101	0x3d3a523c	0.04548858
102	0xbd02d29c	-0.031939134
103	0xbdef3ddb	-0.1168172
104	0x3d61cfaa	0.055129685
105	0x3dd8f7f7	0.105941705
106	0xbda35972	-0.07976045
107	0x3e2cb24a	0.16864887
108	0x3c0c7ec0	0.008575141
109	0x3e181bf9	0.1485442
110	0xbd5722a9	-0.05252329
111	0xbc44ebe8	-0.012019135
112	0x3d99c774	0.07508746
113	0xbe14b7b4	-0.14523202
114	0xbde4595c	-0.111498564
115	0x3e39d36d	0.18147059
116	0xbd86a970	-0.065752864
117	0x3e25f0e5	0.16205175
118	0x3e39a627	0.18129788
119	0x3cbcba72	0.023038123
120	0x3d21af34	0.039473727
121	0xbd25d05e	-0.040481918
122	0xbdc80d2b	-0.097681366
123	0xbb17c4e8	-0.0023158137
124	0x3d246143	0.04013182
125	0x3db15267	0.08658295
126	0xbd83a974	-0.06428805
127	0x3e418ba8	0.18900931
128	0xbe123a2d	-0.14280005
129	0x3c96bb30	0.018399805
130	0x3e72e31f	0.23719452
131	0xbd82d43c	-0.06388137
132	0x3c84f302	0.016229156
133	0xbdc2f459	-0.09519262
134	0xbc154a2e	-0.009111924
135	0x3cd362ba	0.025803912
136	0x3d48ee76	0.04905554
137	0xbdccc3e7	-0.09998303
138	0x3e13af97	0.14422451
139	0x3e00eb5a	0.1258978
140	0x3e79805f	0.24365376
141	0x3dd7d267	0.10538178
142	0x3de6b518	0.1126501
143	0xbde8b3b0	-0.11362398
144	0xbd8a041a	-0.067390636
145	0xbd5c9893	-0.053856444
146	0xbdaa29e5	-0.08308772
147	0x3dce634f	0.10077535
148	0x3c07e13e	0.008293448
149	0xbd5ef51f	-0.054432984
150	0x3d170aa1	0.03687537
151	0xbdb4f3c0	-0.08835554
152	0xbe0eafc9	-0.13934244
153	0x3da1efa7	0.07907038
154	0x3de0159e	0.10941623
155	0xbdd9210d	-0.10602007
156	0x3cf9d621	0.030497612
157	0x3c6894bb	0.014195616
158	0x3de4805c	0.11157295
159	0xbd816751	-0.06318534
160	0xbe181e7e	-0.14855382
161	0xbd54b5ee	-0.051931314
162	0x3ddd4723	0.10804584
163	0xbd04baa6	-0.032404564
164	0xbd596967	-0.053079035
165	0x3da32ccb	0.07967528
166	0x3e103921	0.14084293
167	0x3e5b7e03	0.21434788
168	0x3dd7b313	0.105322026
169	0x3d86c9b2	0.06581439
170	0xbdf246ed	-0.11829934
171	0xbdf5c5fd	-0.12000654
172	0x3d171ed7	0.036894646
173	0x3d4e3c38	0.050350398
174	0x3dec04f3	0.115243815
175	0xbdc2bb3d	-0.09508369
176	0xbd455189	-0.04817346
177	0x3d6680fc	0.056275353
178	0x3e04b162	0.12958291
179	0x3e0a8c62	0.13530114
180	0x3e498317	0.19678913
181	0x3dbe60b8	0.092957914
182	0x3d748e60	0.059706092
183	0x3dbabfc1	0.091186054
184	0x3daeff28	0.08544761
185	0x3d29db2a	0.041468777
186	0x3c087059	0.008327567
187	0xbdc5c01a	-0.09655781
188	0xbc077314	-0.008267183
189	0xbd555c9b	-0.05209027
190	0xbd68e1dd	-0.056856025
191	0x3e41786a	0.1889359
192	0xbd46cfcf	-0.048538025
193	0x3e00da1b	0.125832
194	0x3e01a7ca	0.12661663
195	0x3e30396b	0.17209403
196	0x3dac5c1b	0.08416005
197	0xbd8444ad	-0.06458411
198	0xbe0a02b2	-0.1347759
199	0xbd48ea09	-0.04905132
200	0x3dd95ede	0.106137976
201	0x3d3489c6	0.044076703
202	0xbe24e5ef	-0.16103338
203	0x3deb0f3d	0.11477516
204	0xbdc2c377	-0.09509938
205	0xbd91aa67	-0.0711258
206	0xbd39ad60	-0.04533136
207	0xbdac5a62	-0.08415677
208	0x3e06081e	0.13089034
209	0x3ac79709	0.0015227507
210	0xbde92e6b	-0.11385807
211	0x3d5bf9de	0.05370509
212	0x3bc953ee	0.0061440384
213	0xbe356af2	-0.17716578
214	0x3dd039f8	0.10167307
215	0xbd622043	-0.05520655
216	0xbd3e762b	-0.046499413
217	0x3df901d8	0.12158555
218	0x3d1731f4	0.036912873
219	0x3e651e56	0.22374853
220	0xbdb654b0	-0.089028716
221	0x3e15fb8c	0.14646739
222	0x3d5eff81	0.054442886
223	0x3d159b8c	0.036525294
224	0x3dd4c61e	0.1038935
225	0x3d1238d9	0.035698745
226	0x3ddd8f25	0.10818318
227	0x3d8b8b07	0.06813627
228	0xbb7d18c7	-0.0038619505
229	0xbe09360d	-0.13399525
230	0x3d78c0fb	0.060730916
231	0xbccabbf6	-0.02474783
232	0x3dd38f25	0.10330037
233	0xbdfa606c	-0.12225422
234	0xbd3e1be8	-0.046413332
235	0x3d9778bd	0.07396076
236	0x3e08b88b	0.13351648
237	0xbdc3f36c	-0.095679134
238	0x3e680386	0.22657594
239	0xbdb92abe	-0.090413556
240	0x3d438c89	0.047741447
241	0xbcd01e12	-0.025404964
242	0x3d069583	0.03285743
243	0x3d24803b	0.040161353
244	0xbd3a4449	-0.045475278
245	0xbdaa1a77	-0.08305829
246	0xbd845f95	-0.06463543
247	0xbc98562f	-0.018595783
248	0x3d2df644	0.042471185
249	0x3de9fc38	0.1142506
250	0x3da0e905	0.07856945
251	0xbdddce8b	-0.108304106
252	0xbd3a89d3	-0.045541596
253	0x3c8d3052	0.017234955
254	0x3ce77854	0.02825562
255	0x3db656c3	0.08903267

weight f4 [200, 512]
0	0x3d574e8b	0.05256514
1	0xbccc0bbd	-0.024907941
2	0x3aeb2e0d	0.0017942801
3	0xbdae4a8b	-0.08510312
4	0xbd5e76b1	-0.05431241
5	0x3d23ca42	0.03998781
6	0x3ca8f2b1	0.020623537
7	0xbd4c7ebb	-0.049925547
8	0x3cd79825	0.026317665
9	0xbd5f8340	-0.05456853
10	0x3dd529de	0.10408376
11	0xbcf20e15	-0.02954773
12	0xbd267d7c	-0.040647015
13	0xbd9a033b	-0.075201474
14	0x3d4f3c78	0.050594777
15	0x3d822454	0.06354585
16	0x3db78176	0.089602396
17	0xbc90e890	-0.01768902
18	0xbcba01c8	-0.022705927
19	0x3e048b12	0.12943676
20	0x3d7a24b0	0.061070144
21	0xb9ec6336	-0.00045087346
22	0xbb967179	-0.0045911637
23	0x3d1a4e6f	0.037672456
24	0x3d98af06	0.07455258
25	0xbddc95d6	-0.107707664
26	0xbd5989a7	-0.05310979
27	0x3d255fd4	0.040374592
28	0x3ca74643	0.020419246
29	0xbd366deb	-0.04453842
30	0x3d854f43	0.065092586
31	0x3d3b1391	0.045672957
32	0x3c276d3e	0.010218916
33	0x3cd367c4	0.025806315
34	0x3d010359	0.031497333
35	0xbd1f9712	-0.03896243
36	0xbb86ef2f	-0.0041178684
37	0x3d8e0f49	0.06936509
38	0xbd752284	-0.05984737
39	0x3d5265ce	0.05136662
40	0xbd95df3b	-0.073179685
41	0xbd0da1b3	-0.034578037
42	0xbcfa916b	-0.030586919
43	0xbbbbdbdd	-0.005732997
44	0x3d00e512	0.03146846
45	0xbce39844	-0.027782567
46	0xbd7c4b5c	-0.061595306
47	0xbdab46b2	-0.083630934
48	0xbd18a8e0	-0.037270427
49	0xbc9e0981	-0.019291641
50	0xbd19c949	-0.037545476
51	0x3d2658e7	0.040612128
52	0xbddb6bc2	-0.107139125
53	0x3ce89c3c	0.02839481
54	0xbc76f5d9	-0.015073263
55	0xbda6d07c	-0.08145234
56	0xbd104192	-0.035218783
57	0x3d4567b0	0.048194587
58	0xbbe40667	-0.006958771
59	0x3decf34f	0.11569845
60	0x3ca3272e	0.019916143
61	0x3d4dc1be	0.050233595
62	0xbd4968c6	-0.049172185
63	0xbbb11e56	-0.0054052277
64	0xbcd824f6	-0.026384812
65	0xbc9437eb	-0.01809307
66	0xbd442b35	-0.047892768
67	0x3c35c7ed	0.011095029
68	0x3d9207c9	0.07130391
69	0xbe073f29	-0.13207687
70	0x3ca6b990	0.020352155
71	0xbe2691a8	-0.16266501
72	0xbc914b12	-0.017735992
73	0x3d7a99f3	0.061181974
74	0xba8cd67d	-0.0010745075
75	0xbd38867d	-0.045050133
76	0x3cfdb4be	0.030969974
77	0xbd848d86	-0.06472306
78	0xbca12605	-0.01967145
79	0xbcc13025	-0.023582527
80	0x3ce02f02	0.027366165
81	0x3e115c5c	0.14195389
82	0xba42c954	-0.0007430513
83	0xbda609b0	-0.081073165
84	0x3db2609a	0.087098315
85	0xbadada29	-0.0016697097
86	0x3cfa2fce	0.030540373
87	0x3d46305c	0.048385963
88	0x3b546213	0.003240709
89	0x3df5a7d7	0.119949035
90	0xbd00172d	-0.031272102
91	0xbdd58ac5	-0.10426859
92	0x3cac9a2e	0.021069612
93	0x3bea8d40	0.0071579516
94	0x3cd46d09	0.025930898
95	0x3d8eada0	0.0696671
96	0x3cb98217	0.02264504
97	0x3d2ca213	0.042146754
98	0xbd2eab4d	-0.042643834
99	0x3db9b308	0.090673506
100	0xbd0617c3	-0.032737505
101	0x3c47f140	0.012203515
102	0xbd8bbb03	-0.06822779
103	0x3d69b5ea	0.057058252
104	0x3d791f9d	0.060821164
105	0xbd1db174	-0.03849931
106	0x3cc0fe04	0.023558624
107	0xbc600d19	-0.013674998
108	0xbd458435	-0.048221786
109	0xbc0b7a41	-0.008513034
110	0xbdbf8e89	-0.09353358
111	0xbc87c808	-0.016574875
112	0xbcd496ff	-0.025950907
113	0xbcc3f817	-0.02392201
114	0xbda56890	-0.08076584
115	0x3de01e4e	0.1094328
116	0xbdbc9516	-0.092081234
117	0x3cef9742	0.02924693
118	0x3e000dcf	0.12505268
119	0x3a95587a	0.0011394166
120	0xbd13cf19	-0.036086176
121	0xbbad30a9	-0.0052853418
122	0x3df27cc1	0.11840201
123	0x3c6dc7b2	0.014512943
124	0x3ddf1f43	0.108946346
125	0x3d4d52dc	0.05012785
126	0xbd046c9a	-0.032330133
127	0xbd07c0fa	-0.03314302
128	0x3d471684	0.048605457
129	0xbccef40e	-0.025262859
130	0x3d7e6aa4	0.06211342
131	0xbd86e34a	-0.06586321
132	0xbdc20473	-0.09473505
133	0x3d28d514	0.041218832
134	0x398678a8	0.00025648368
135	0x3d9e3c99	0.07726402
136	0x3e3f7ea8	0.1870066
137	0xbd480483	-0.048832428
138	0xbd69bc14	-0.05706413
139	0x3d8362ac	0.064153045
140	0x3dc1293c	0.09431693
141	0xbb8f86df	-0.0043800916
142	0xbcad5031	-0.021156402
143	0xbdaaebb3	-0.08345737
144	0x3d79a5df	0.060949203
145	0xbc653443	-0.013989511
146	0xbd014525	-0.031560082
147	0xbcffbf07	-0.031219019
148	0xbcd57e8f	-0.026061324
149	0x3c23a953	0.0099891005
150	0x3d51eeaf	0.051253017
151	0x3cd40b99	0.025884436
152	0xbbcd690c	-0.006268626
153	0xba0db125	-0.000540512
154	0x3d24a255	0.040193874
155	0xbd47267b	-0.048620682
156	0x3cfd6052	0.030929718
157	0xbb0fa051	-0.0021915624
158	0xbcc7e76e	-0.024402346
159	0x3afc18a2	0.0019233415
160	0xbc781f9f	-0.015144258
161	0x3d665aa8	0.0562388
162	0x3dc5d792	0.096602574
163	0x3d7c539f	0.061603185
164	0x3d627c92	0.05529458
165	0xbbc30c86	-0.0059524206
166	0x3c433366	0.01191411
167	0x3db15635	0.08659021
168	0x3a727d68	0.00092502544
169	0x39d4034d	0.0004043825
170	0xba431ec5	-0.00074432447
171	0x390b39b5	0.0001327757
172	0x3c48e0d4	0.012260634
173	0x3d59341b	0.053028207
174	0xbca1d32f	-0.01975402
175	0xbd3b7e48	-0.045774728
176	0xbd110988	-0.03540948
177	0xbc93d9d1	-0.018048199
178	0x3e0e86a0	0.13918543
179	0x3d58e42c	0.052951977
180	0x3d1cd5c9	0.03828982
181	0xbabbf08a	-0.0014338654
182	0xbd4560ed	-0.04818814
183	0xbda86da8	-0.0822404
184	0x3cc109d2	0.023564253
185	0xbd174b7d	-0.036937226
186	0xbd931ef6	-0.0718364
187	0x3dfae2ad	0.12250266
188	0xbcd9a511	-0.026567968
189	0xbd0a2fc9	-0.033736978
190	0xbd42120b	-0.04738049
191	0x3c805394	0.015664853
192	0x3d97238b	0.07379826
193	0xbd2702d9	-0.0407742
194	0x3d548424	0.05188383
195	0x3c90ac1d	0.017660195
196	0xbd9ad3d9	-0.07559938
197	0xbd3a473d	-0.045478094
198	0x3ca2f4ce	0.019892123
199	0x3c906f11	0.017631086
200	0x3d18fb50	0.037349045
201	0xbb4e88c2	-0.003151462
202	0xbdbab8ce	-0.0911728
203	0x3d70d653	0.058798146
204	0xbda8105a	-0.08206244
205	0x3d387019	0.04502878
206	0x3d439a5c	0.04775463
207	0xbd85242a	-0.06501038
208	0xbcf1edf5	-0.029532412
209	0xbd195e69	-0.037443552
210	0x3d8e3a99	0.0694477
211	0x3ccce758	0.025012657
212	0x3ccba73b	0.024860015
213	0x3c480bb0	0.012209818
214	0xbd9dcd78	-0.07705206
215	0xbd36e858	-0.044655174
216	0x3db822f6	0.08991043
217	0x3d1b3a80	0.037897587
218	0xbdb684e0	-0.08912063
219	0x3c9c2112	0.019058738
220	0x3db7564f	0.08952009
221	0xbcba76c7	-0.022761716
222	0xbd4aa4bb	-0.049473505
223	0xbc156004	-0.00911713
224	0x3d2f50b4	0.042801574
225	0x3de9b51a	0.114114955
226	0x3d65aa4e	0.05607062
227	0xba7eeaac	-0.00097243
228	0xbd30259b	-0.043004613
229	0xbcef0b6c	-0.029180251
230	0xbd98d1a5	-0.074618615
231	0x3ca4b5b1	0.020106168
232	0x3cb7ec5d	0.022451574
233	0x3b57b5aa	0.0032914677
234	0xbdb9e643	-0.09077122
235	0xbd24b233	-0.040209007
236	0x3d3eda66	0.046595
237	0xbd35ec09	-0.044414554
238	0xbd141ccf	-0.036160287
239	0x3d21c932	0.039498515
240	0x39cf977e	0.00039594987
241	0x3d028056	0.031860672
242	0x3d83071d	0.06397841
243	0xbd440cfc	-0.047863945
244	0x3bd089e8	0.006364096
245	0x3c87fddc	0.016600542
246	0xbc9fba92	-0.019498143
247	0x3da05c42	0.07830097
248	0xbd34e5ff	-0.044164654
249	0x3daca577	0.084299974
250	0xbdada46e	-0.08478628
251	0xbd7f0136	-0.062257014
252	0xbe19d273	-0.15021686
253	0x3d3cf6fd	0.046133984
254	0x3d2fd0b3	0.04292364
255	0xbd094474	-0.033512548

bias f4 [200]
0	0x3baec80e	0.005333907
1	0x3c6bff41	0.014404119
2	0x3d286345	0.041110296
3	0x3dc4a885	0.09602455
4	0xbd6fed05	-0.05857565
5	0x3d17788c	0.036980197
6	0xbdb6cd99	-0.089259334
7	0xbd0769d6	-0.033059917
8	0x3daa6ed0	0.08321917
9	0x3e3a25e0	0.1817851
10	0xbbfc087c	-0.007691441
11	0x3e08f656	0.1337522
12	0x3e479eb3	0.19494133
13	0xbd9c53a2	-0.07633139
14	0xbd4400e0	-0.047852397
15	0xbcd1aeaa	-0.025595982
16	0xbc711f4f	-0.014716937
17	0xbd54882b	-0.051887672
18	0x3ce95b61	0.028485956
19	0xbce106ac	-0.027469002
20	0xbd7d7e25	-0.06188788
21	0x3e4308d8	0.19046342
22	0xbd7a0508	-0.061039954
23	0x3d59a3fc	0.053134903
24	0x3e45898e	0.19290754
25	0xbd4ae553	-0.049535107
26	0x3ea39c6a	0.31955272
27	0xbd074e99	-0.03303394
28	0x3e026ffe	0.12738034
29	0xba4b9927	-0.0007766657
30	0xbc260378	-0.010132663
31	0x3ed4ac80	0.41537857
32	0x3ea2d18a	0.3180049
33	0xbcddb672	-0.027064536
34	0x3dc9726e	0.09836279
35	0xbcf0961a	-0.029368449
36	0xbcb13d75	-0.02163575
37	0x3d719c28	0.058986813
38	0x3cbd388e	0.023098256
39	0xbce0cd72	-0.027441714
40	0xbd1cbb38	-0.038264483
41	0xbc63e167	-0.013908721
42	0x3c70b8c0	0.014692485
43	0x3dffcedd	0.12490628
44	0x3b0bbaf0	0.002132114
45	0xbd06d0bb	-0.032913905
46	0x3c210ac8	0.009829231
47	0x3d171530	0.03688544
48	0xbd6d2c00	-0.05790329
49	0x3da023bf	0.07819318
50	0x3bdf48e6	0.00681411
51	0x3bc27333	0.005934143
52	0xbc47a775	-0.012185921
53	0xbbf2f374	-0.007414276
54	0xbcbbd64b	-0.022929331
55	0xbc02cb3c	-0.007983025
56	0x3d1ba715	0.03800114
57	0xbd4e9f74	-0.050445035
58	0x3c7ac878	0.015306585
59	0xbd456afb	-0.048197728
60	0xbd8d0198	-0.068850696
61	0xbd75b813	-0.05999
62	0x3e349be8	0.17637599
63	0x3df58f5c	0.11990234
64	0x3cc9136d	0.024545396
65	0xbb5fcfdd	-0.0034150996
66	0xbd8f1744	-0.069868594
67	0xbc279a05	-0.010229592
68	0xbc9399f4	-0.018017747
69	0xbd013e5e	-0.03155362
70	0x3d2c98d4	0.042137936
71	0x3c8a9353	0.016915953
72	0x3b90fec3	0.004424901
73	0xbd3b02e7	-0.045657065
74	0x394f0f91	0.00019746857
75	0xbce3bb7a	-0.027799357
76	0xbc3f5f88	-0.011680491
77	0x3b12218d	0.002229783
78	0xbd8b4a81	-0.0680132
79	0xbc9723a2	-0.018449608
80	0xbd02f752	-0.031974144
81	0xbc7ec0c0	-0.015548885
82	0x3975bfa3	0.00023436411
83	0xbb16c0fd	-0.0023003214
84	0xbd500d1d	-0.050793756
85	0xbd117d56	-0.03551992
86	0xbd23550e	-0.039876036
87	0xbd64062f	-0.05566996
88	0xbd35be2d	-0.04437082
89	0xbd015c0e	-0.03158193
90	0xbd3b0f93	-0.04566915
91	0x3eba9c1a	0.3644722
92	0xbd700c39	-0.058605406
93	0x3c95c077	0.018280251
94	0xbd782bcd	-0.060588647
95	0xbd48dfbd	-0.0490415
96	0x3c6d1731	0.014470861
97	0x3d23786a	0.039909758
98	0xbcae8374	-0.021302916
99	0xbc587088	-0.013210423
100	0x3bffb858	0.007803958
101	0xbd6a330f	-0.0571776
102	0xbd4dd81f	-0.050254937
103	0x3e2a2a0c	0.16617602
104	0xbdffabbb	-0.12483927
105	0x3b75482d	0.0037427053
106	0xbd809fc6	-0.06280474
107	0x3dc2cca0	0.09511685
108	0x3c3adfd4	0.011405904
109	0xbd6aa87c	-0.057289585
110	0xbcdaf24c	-0.026726864
111	0x3c93b853	0.018032229
112	0xbd8e8293	-0.06958499
113	0xbe2d113b	-0.16901104
114	0xbd006de8	-0.031354815
115	0xbca68e5d	-0.020331556
116	0xbd22d64a	-0.039755143
117	0xbc8f52d4	-0.01749555
118	0x3ca947ee	0.020664182
119	0xbc3c5b25	-0.01149634
120	0x3c45e5c5	0.012078707
121	0x3c116f39	0.008876615
122	0xbd4f2327	-0.050570633
123	0x3d64f245	0.05589511
124	0xbcfb257d	-0.030657524
125	0xbd67c873	-0.056587648
126	0xbcbc944d	-0.023019934
127	0xbc3b44a2	-0.011429938
128	0xbb7d3ea4	-0.0038642073
129	0x3b1bd72c	0.0023779375
130	0xbdf2e2d2	-0.11859669
131	0xbd1f7dae	-0.038938217
132	0xbd01009b	-0.031494718
133	0xbc376d5c	-0.011195507
134	0xbda62787	-0.08113008
135	0xbc6a1b53	-0.014288741
136	0xbc669953	-0.014074641
137	0xbc5fa913	-0.01365115
138	0xbc9d3ae4	-0.01919312
139	0x3bbf97b7	0.0058469432
140	0x3e96408f	0.2934613
141	0xbc1aca1a	-0.009447599
142	0xbd09569c	-0.033529863
143	0xbd4cd879	-0.050011132
144	0x3c1e49f4	0.0096611865
145	0xbd1d32d5	-0.038378555
146	0xbced0739	-0.028934108
147	0xbd0b0c51	-0.033947293
148	0xbd173914	-0.03691967
149	0xbd080f26	-0.03321757
150	0x3d103ad8	0.035212368
151	0xbbce5edb	-0.0062979287
152	0xbce3d717	-0.027812524
153	0xbd726823	-0.059181344
154	0x3cf63333	0.03005371
155	0xbd49147e	-0.04909181
156	0xbdf052cc	-0.11734542
157	0x3e19cb84	0.15019041
158	0x3c9c7265	0.019097516
159	0xbd1c9f69	-0.038237963
160	0x3dbcd660	0.09220576
161	0x3bc31f2c	0.0059546437
162	0xbc0a1468	-0.008427717
163	0xbcf72208	-0.030167595
164	0xbd14f6ba	-0.03636811
165	0xbd6124a1	-0.054966573
166	0x3ca2584e	0.019817498
167	0xbd1dd05f	-0.038528796
168	0xbbb0cfa1	-0.005395845
169	0xbda243c5	-0.07923082
170	0x3c4d366f	0.012525185
171	0x3e44a6a0	0.19204187
172	0xbcf119e9	-0.0294313
173	0xbb9b4b1e	-0.0047391793
174	0xbb2f8382	-0.0026781266
175	0x3c5e139c	0.01355448
176	0xbd08e28e	-0.033419184
177	0xbd3edf3c	-0.04659961
178	0x3c15bd24	0.009139333
179	0xbd8d745a	-0.06906958
180	0xbc71c694	-0.014756817
181	0xbd39bf3b	-0.045348387
182	0x3be90e7f	0.007112324
183	0xbd6e9df8	-0.05825612
184	0xbd42694e	-0.047463708
185	0x3c5963ae	0.013268394
186	0xbc4a7def	-0.0123591265
187	0xbcaf8553	-0.021425879
188	0xbd46a32a	-0.04849545
189	0xbcff5f32	-0.031173322
190	0xbcd3db60	-0.025861442
191	0xbb9cb167	-0.00478189
192	0xbd5b9567	-0.053609278
193	0xbc554ad3	-0.013018328
194	0xbce3993f	-0.027783034
195	0xbce2a543	-0.027666694
196	0xbcdf85dd	-0.02728551
197	0xbd1d1b47	-0.03835609
198	0xbd8c24c3	-0.06842949
199	0x3ba55670	0.0050457045
