system/models/TinyImagenet/CNN/FedPer_BaseHeadSplit_TinyImagenet_client_7.pt (torch, 766436 bytes, 8 tensors)

weight f4 [32, 3, 5, 5]
000000 27 5a d9 bc 85 40 13 3e 5b 7e 1d 3c 05 c0 ef 3c
       -0.026532246 0.14380081 0.009612645 0.029266367
000010 c5 c3 72 3d 60 ed 2f be 80 ab fd bc 29 01 b3 bd
       0.05926873 -0.17180395 -0.030965567 -0.08740456
000020 31 d7 f9 bd b0 25 d8 bc 75 20 1c bd 0f 02 32 3e
       -0.12199248 -0.026385158 -0.03811689 0.17383598
000030 89 70 41 bd fe 5e 6c bc 03 85 83 3c 77 77 12 be
       -0.047226463 -0.014426945 0.016054636 -0.14303385
000040 42 85 8b 3d 10 af b2 bd 1d 3f 09 be d8 51 47 bd
       0.06812526 -0.08724797 -0.13402982 -0.048662037
000050 30 65 71 3d 27 89 27 3e c8 4e 94 bc 66 a8 a4 3d
       0.05893439 0.16360913 -0.018103972 0.08039932
000060 f7 59 57 3d 5f cb 8f bd e7 a2 15 3e 6b e5 65 bb
       0.05257603 -0.07021212 0.14612924 -0.003507937
000070 88 d0 1e 3d 4e fe 80 3d c8 30 7f be e8 8f b0 3d
       0.03877309 0.06298505 -0.24920952 0.08621198
000080 ca d4 4d be 1c 61 f5 bd 6c 3b c4 bd 39 c5 cf bd
       -0.20100704 -0.11981413 -0.09581646 -0.10145039
000090 de c7 22 3e 08 ef 5b 3e ec 6f 21 3e c0 5e 1f 3e
       0.15896556 0.21477902 0.15765351 0.15563488
0000a0 a4 4d 06 be cc e8 fd b8 cd ef ab bd 28 0d ed bd
       -0.13115555 -0.00012107342 -0.08395348 -0.11574775
0000b0 d8 9c 4b bd ea 23 75 bd 51 22 15 3e 07 e4 cc 3d
       -0.049710125 -0.059848703 0.14563872 0.1000443
0000c0 50 e5 e1 bc bb 57 a2 3d f3 32 f4 3c 67 b4 51 3e
       -0.027575165 0.079268895 0.02980945 0.20478974
0000d0 73 de 31 3e 98 80 12 3e bc 64 40 3e 97 0f 80 be
       0.17370014 0.14306867 0.18788427 -0.25011894
0000e0 4a bb 4d 3d 34 42 36 be 0a 4c 03 be 07 86 79 bd
       0.05022744 -0.17798692 -0.12821975 -0.060918834
0000f0 f0 fc a2 3d 66 96 99 3e 74 ee 9d 3d cd 32 0e 3e
       0.079584 0.29997557 0.07711497 0.13886566
000100 2e c1 23 3e e1 6f 14 be 46 50 9f 3d c5 59 9f bd
       0.15991661 -0.14495803 0.07778983 -0.07780794
000110 10 3f 71 39 86 a7 af 3d e5 eb d0 bd 9b 71 27 3d
       0.00023007044 0.085768744 -0.10201243 0.040879827
000120 0f ac 61 3d 88 32 7c 3d 06 56 ef 3d 22 e2 ca 3e
       0.05509573 0.061571628 0.116863295 0.3962565
000130 30 93 8a 3e d2 5a 73 bd ea e3 2f be af 49 81 be
       0.2706542 -0.059412785 -0.17176786 -0.2525153
000140 f6 d1 d8 3e f0 88 09 3f db c8 c1 3d d4 49 eb be
       0.42347687 0.53724575 0.09462138 -0.45954764
000150 62 3e dd be d6 ca 06 3f b8 01 e9 3e 9f 71 47 bc
       -0.43211657 0.52653253 0.45509124 -0.0121730855
000160 9b 43 de be 3a 88 20 bf 51 d4 ee 3e dc 1e f1 3e
       -0.43410954 -0.62707865 0.4664636 0.47093856
000170 98 7f ae 3d 93 a9 bb be 7b 6d 1e bf ee 0b 52 3e
       0.0852043 -0.36652812 -0.61885804 0.20512363
000180 39 d8 9a 3e 2a 09 aa 3d 54 fe ac be 18 08 d1 be
       0.3024309 0.08302529 -0.33787787 -0.40826488
000190 77 f5 d7 3e 6c 0b b0 3e 88 66 65 ba af 91 5b be
       0.42179462 0.34383714 -0.0008750935 -0.21442293
0001a0 30 54 9b be af a0 09 3f db 5f b7 3e 04 12 a9 bd
       -0.30337667 0.5376081 0.3581532 -0.08255389
0001b0 43 44 ba be 1e 79 eb be 78 ba ff 3e 7e ac 0a 3f
       -0.36380205 -0.45990843 0.49946952 0.5416945
0001c0 60 50 27 bd 16 58 ca be d5 df 02 bf 62 40 a5 3e
       -0.040848136 -0.3952033 -0.5112279 0.32275683
0001d0 a0 45 bf 3e fc af 26 bc eb 4c d4 be 86 99 01 bf
       0.37357807 -0.010173794 -0.41464934 -0.50624883
0001e0 e3 49 a2 3e 8b d7 72 3e 31 95 87 bc 9d 19 59 be
       0.31696996 0.23715036 -0.016550632 -0.21201177
0001f0 67 0e f3 be 86 ab 1c 3e b0 ee 28 3e 4d 76 56 bd
       -0.47471926 0.15299806 0.16497302 -0.052358914
000200 76 5d 7f be fc 45 9b be ba 21 e0 3e b2 65 d4 3e
       -0.24937996 -0.3032683 0.4377573 0.41483837
000210 d8 87 ba bd 59 05 b8 be 1d e0 c0 be bd 0d f8 3e
       -0.091079414 -0.3594158 -0.37670985 0.4844798
000220 41 92 e6 3e 03 e7 d3 3c 30 2a e0 be 70 6e ef be
       0.45033458 0.02586699 -0.43782187 -0.46763945
000230 af 48 01 3f a7 54 f3 3e 6f d8 04 3e 6e 6d c0 be
       0.5050153 0.47525522 0.12973188 -0.37583488
000240 84 41 11 bf bd 0b 6f 3e ac 74 b3 3e cc f4 e1 3d
       -0.56740594 0.23344322 0.3504995 0.110330194
000250 8f 95 70 be 11 bf b8 be 7b 6c 91 be d7 f9 a1 be
       -0.23494552 -0.36083272 -0.28403077 -0.31635925
000260 73 68 92 be da 47 4d be f7 2f 25 be 29 f4 8c be
       -0.28595313 -0.2004694 -0.16131578 -0.2753003
000270 de 86 25 be 59 93 c2 be b7 05 a9 be 27 1f 9a be
       -0.16164729 -0.38003042 -0.33012173 -0.30101892
000280 32 ed 57 be ff ba 87 be df 81 ce be fd 72 d2 be
       -0.21086577 -0.26509854 -0.4033346 -0.41103354
000290 53 09 93 be c9 9b 24 be 2e c9 8d be 48 e3 7b be
       -0.2871805 -0.16075052 -0.2769255 -0.2459842
0002a0 61 18 cc be 44 17 86 be 73 cd c1 bc 86 a0 7f be
       -0.3986235 -0.26189625 -0.023657536 -0.24963579
0002b0 9f c8 1f be dd 69 6d be ae a4 9e be 7e d7 49 3e
       -0.15603875 -0.23184915 -0.30985016 0.1971111
0002c0 c4 3f ed 3d 8f 79 7d 3d 1e fb 51 3e f8 f0 f4 3c
       0.11584428 0.061883505 0.2050595 0.02990006
0002d0 b4 be 34 3e 6a 4b f4 3d 7b 2f 4c 3e c7 2d 09 3e
       0.17650872 0.119284466 0.19939987 0.13396369
0002e0 73 7e 37 3e cd 36 47 3e cb 03 f9 3d d5 b6 c9 3d
       0.1791933 0.19454499 0.121589266 0.098493256
0002f0 11 a9 85 3c df 74 40 3e 0a 22 86 3e 40 53 71 3e
       0.016315969 0.18794583 0.26197845 0.23566914
000300 fc c0 27 3d a1 09 f9 3d 57 27 48 3d 15 6b e6 3d
       0.04095553 0.1216004 0.048865642 0.11250893
000310 8e 33 9d 3d 04 51 1c 3e a6 3d fc 3c d3 a6 0d 3e
       0.07675849 0.1526528 0.030791115 0.1383317
000320 4c 30 86 bd e5 72 56 3c d9 60 21 be e1 fe 14 be
       -0.06552181 0.013088916 -0.157596 -0.14550354
000330 55 85 00 be b5 b2 28 3d 2d 69 c2 bd e1 a8 b8 3c
       -0.12550862 0.041186053 -0.09492717 0.022541465
000340 8d 66 44 bd 66 3f 57 bd 00 59 6e bd ba b6 a6 bd
       -0.047949363 -0.052550696 -0.058190346 -0.08140321
000350 94 90 8b bd bd 8f f8 bd ba e2 9a bd 47 ea fb bc
       -0.068146855 -0.12136791 -0.07562776 -0.03075136
000360 fe 9b 16 be e3 db 18 be d3 2e 3c bb 49 dd 30 be
       -0.14707944 -0.1492763 -0.0028714433 -0.17271914
000370 0f ef 4f bd 49 15 2b 3d ec 3e 5f bd cc 46 dd bd
       -0.050765093 0.041768346 -0.054503366 -0.10804519
000380 1f 38 2c be d2 da 86 3b e8 a2 1a 3e 90 33 15 be
       -0.16818283 0.004115441 0.15101206 -0.14570451
000390 97 23 b8 3d c7 b8 e2 3c e2 22 cd bd a2 0a da 3e
       0.08991163 0.027676 -0.10016419 0.42586237
0003a0 fd e7 36 be 52 f0 45 3e 6d 3e 9e 3d 0a f5 59 be
       -0.17861934 0.19329956 0.077267505 -0.21284881
0003b0 79 c1 b5 3e 75 be b2 be aa 79 7a 3d 90 55 83 3c
       0.3549917 -0.34910932 0.061151184 0.01603201
0003c0 b6 b7 f3 bd c2 6e c3 3e 3c 8e ae be 58 e0 9c 3d
       -0.119002745 0.3817044 -0.3409289 0.07659978
0003d0 de f8 aa 3c 33 5d 68 be 3a 14 a2 3e 0b 97 91 be
       0.020870622 -0.22691803 0.31656057 -0.2843555
0003e0 68 bf 66 3d bb fd c5 bc c0 53 29 be 0a 75 3a 3e
       0.056334883 -0.02416884 -0.16535854 0.1820871
0003f0 58 97 b4 bd 2d 13 35 3d 0f 8c 4f bd f5 40 40 be
       -0.08817929 0.04420774 -0.05067068 -0.18774779

bias f4 [32]
000000 87 b0 c1 3f 9e 75 1e be 94 cb 1e bd f4 1b 20 bd
       1.5131997 -0.15474555 -0.038768366 -0.03908916
000010 32 52 f5 3e ae f7 07 3f b3 dd 91 be 89 9a 27 be
       0.47914273 0.53112304 -0.28489456 -0.16367544
000020 37 d2 86 be 79 86 81 bb 3b b8 96 be 53 5e 24 40
       -0.26332256 -0.003952798 -0.29437432 2.568257
000030 67 65 ba 3d 77 75 e4 bd 1c 2c 62 be 7f 15 6c bf
       0.09101372 -0.11155217 -0.22087139 -0.922203
000040 75 19 72 3e b2 93 aa bd 92 ff 12 bd 99 e3 81 3f
       0.23642524 -0.08328952 -0.035888262 1.0147582
000050 da fa a0 3e 8d 88 b6 be bc 40 6a be d8 44 33 3f
       0.31441385 -0.35651055 -0.22876257 0.7002692
000060 fb f9 8e 3f 6a f4 09 3c e1 00 6d be 98 30 dc be
       1.1170038 0.008420089 -0.23144867 -0.43005824
000070 63 21 11 be 52 e9 d4 bd 7a 46 87 3e 91 f9 e2 bd
       -0.14172892 -0.10396065 0.26420957 -0.11082757

weight f4 [64, 32, 5, 5]
000000 2c 8d 0e bd 2b b9 15 bc 40 32 9c 3b 8b 88 6c 3b
       -0.0348026 -0.009138386 0.0047667325 0.0036092128
000010 9e 55 a3 3b 95 69 55 bd 57 b8 4f bd 95 f6 36 bd
       0.0049845716 -0.052102644 -0.05071291 -0.044668753
000020 a4 ea d3 bc 99 2c c1 bc 75 0a 42 bd 68 5e 80 bd
       -0.025868721 -0.023580836 -0.047373254 -0.062680066
000030 2c 84 8c bd e4 0c a5 bb 8a 81 4a bd 29 9b 51 bd
       -0.06861147 -0.005036937 -0.049439944 -0.051173363
000040 38 7f 78 bd 1f f2 6e bd 73 49 05 bd 0c db c5 bc
       -0.0606682 -0.058336373 -0.03254075 -0.024152301
000050 aa bb 6a bd 7b 71 46 bd 73 b4 31 bc 94 fc 6a bd
       -0.057307877 -0.048448067 -0.010846245 -0.057369784
000060 d6 99 7e bd f8 04 b2 bb 67 63 01 3d cd 54 7d 3c
       -0.062158428 -0.005432721 0.031588938 0.015462113
000070 54 96 05 bc d6 d6 5e bd 99 4b d0 3c 8d ec c1 bb
       -0.008153517 -0.054404102 0.025426673 -0.0059180916
000080 f4 03 fe 3c d1 6b a9 3b 4f 01 19 bd 24 1f 9d 3c
       0.031007744 0.0051703234 -0.037354764 0.019179888
000090 08 94 3c 3b 91 d7 28 3d 08 1c a9 3c 3d a7 83 bd
       0.0028774757 0.041221205 0.02064325 -0.064283825
0000a0 5a b6 2b bc 19 60 a6 3c b6 9a 1b 3d 3c 72 4b bc
       -0.010480488 0.020309495 0.03798934 -0.012417372
0000b0 99 f3 19 bc e8 43 0c 3c 1b ee f7 bb f7 3e e6 3c
       -0.009396457 0.008561112 -0.007566226 0.028106196
0000c0 32 bd 6e bc 70 d1 43 bd 32 9e 77 3b 6a 16 d6 3b
       -0.014571475 -0.047807157 0.00377835 0.0065334337
0000d0 00 15 c6 bc df 46 d0 bc ae 0a aa 3c ca c7 62 bb
       -0.024179935 -0.025424419 0.020757046 -0.0034603947
0000e0 62 af c5 bc 4b 63 63 bb af 3a 06 bd 13 a0 52 3c
       -0.02413148 -0.0034696634 -0.03277081 0.0128555475
0000f0 85 59 ba 3b 17 a3 9f 3c 1d e1 19 bd 07 b7 5c bc
       0.005686941 0.019486947 -0.0375682 -0.0134713715
000100 b2 2f 82 3c d9 50 40 3c be df 3f bd b1 66 48 ba
       0.015891884 0.011738026 -0.046844237 -0.0007644697
000110 3d f3 51 3b d9 e6 42 3c f6 b5 6f bd 99 c5 12 bc
       0.003203585 0.011895859 -0.05852314 -0.008958244
000120 bf 12 3b bd 93 7e 38 bd fb 96 61 bc 94 6d a0 3c
       -0.045672175 -0.045042586 -0.013768907 0.0195835
000130 e6 61 ec bc 36 40 a8 3c 72 c9 91 3a 51 08 48 3c
       -0.028855275 0.02053843 0.0011122657 0.012209014
000140 22 e9 91 3c 7d 8f da 3b b0 24 e9 bc 7c 46 ee bb
       0.017811362 0.006669937 -0.028459877 -0.007271586
000150 78 a4 f1 3b b4 52 29 bd 02 65 7f 3a bf dd b4 bc
       0.0073743425 -0.041338637 0.00097425294 -0.022078393
000160 fd dc d3 bb 7d ce 4d 3c ae 8f 29 bd ec a6 c4 bc
       -0.006465553 0.012561438 -0.04139679 -0.024005376
000170 5e fb 36 3c f2 50 10 bd 31 50 ca 3c 2a 6d 32 bd
       0.011168329 -0.035233445 0.024696441 -0.04356114
000180 a6 97 42 bb 02 9d e9 3a 3d e1 42 3c 81 2a b3 bc
       -0.002969244 0.0017823281 0.011894521 -0.021870853
000190 a8 37 38 3d 1e ad 74 3d f4 c5 99 3d 68 e4 d6 3c
       0.044974953 0.05973541 0.0750846 0.02623196
0001a0 0a 86 20 3d b0 4a 42 3d 5b ca 10 3d e0 70 4f 3c
       0.03919033 0.04743451 0.03534923 0.012661189
0001b0 e4 99 f8 3b 58 a7 3c 3c 09 ec 25 3c 1f b9 95 3c
       0.0075867046 0.011514507 0.010127076 0.01827675
0001c0 2d 8e ba 3b 1c c9 dc 3b 27 7c 29 3d 88 08 59 3d
       0.005693218 0.0067378413 0.041378167 0.05298665
0001d0 b4 fc 3d 3c b3 32 e9 3c 22 75 fb 3c 6d a8 45 3d
       0.011595894 0.028466558 0.030695502 0.048256326
0001e0 44 9f b0 3b aa d5 ee 3c df 5e 71 3d 73 7e 58 3d
       0.0053900797 0.029154617 0.058928367 0.052854966
0001f0 d5 26 96 bb 28 1a cf bd 08 ca ae bd 48 33 b7 bd
       -0.004582266 -0.10112411 -0.08534628 -0.08945328
000200 37 e2 c7 bd 3c 94 cc bd 6b 8b 78 bd 8e b8 b5 bd
       -0.09759944 -0.09989211 -0.060679834 -0.08873092
000210 d8 5f 92 bd 4d 75 6b bd 9a 24 b8 bd 5e 1c 93 bd
       -0.07147187 -0.057484914 -0.08991356 -0.07183145
000220 64 25 44 bd 4a 1f b2 bd 8e b0 53 bd 19 a1 78 bd
       -0.04788722 -0.08697374 -0.051682048 -0.06070051
000230 82 26 48 bd 79 f6 2d bd 7b a9 57 bd 46 f7 63 bd
       -0.04886485 -0.042471383 -0.052651864 -0.05565574
000240 7d 9d ad bd 2f 16 3b bd c5 86 12 bd c0 34 8a bd
       -0.08477304 -0.045675453 -0.035773057 -0.067483425
000250 cb 93 ae bd f9 10 8c bc a6 4d be 3d f1 b8 c4 3d
       -0.08524283 -0.017097937 0.09292154 0.09605587
000260 e1 81 a0 3d 9c e6 e7 3d cc db 0c 3e 39 e8 d0 3d
       0.078372724 0.11323282 0.13755721 0.10200543
000270 26 7b 60 3d 2f 7f b6 3d 48 0b aa 3d 20 d1 a8 3d
       0.054804944 0.08910977 0.08302933 0.082430124
000280 81 c9 26 3d b8 29 21 3d 4e 8f 84 3c 93 17 9b 3d
       0.040719513 0.039346427 0.016181614 0.07572856
000290 fb ec ca 3d c3 90 a5 3d 8d 61 67 3d ca 13 4d 3d
       0.09908482 0.08084252 0.056489516 0.0500677
0002a0 28 1d 9c 3d 20 d8 15 3d a5 c5 53 3d ef d9 8e 3c
       0.076227486 0.036583066 0.05170216 0.017437903
0002b0 a7 06 2b 3d c6 47 41 3d 82 88 88 3d 2b ec 3c bd
       0.04175439 0.04718759 0.06666662 -0.046123665
0002c0 29 76 97 3b 4e 1e 22 bc 96 45 4b bb c1 9d 16 3c
       0.00462224 -0.0098949205 -0.0031016818 0.009192885
0002d0 6f 27 2a bd b4 da cb 3b 45 34 85 bc e1 3e fc bb
       -0.041541513 0.00622114 -0.016260276 -0.0076979254
0002e0 a0 2c c0 bb f3 0d 29 bd 34 48 ef 3c c1 22 3e 3d
       -0.0058646947 -0.04127307 0.029209234 0.046419863
0002f0 cb e9 20 bb 28 fa cf 3b eb 1b aa 3b d0 6c 5e 3c
       -0.0024553414 0.0063469596 0.0051913164 0.013575748
000300 f0 44 6d 3c 41 8b d6 bc ce a6 d6 3c b6 13 3c bd
       0.014481768 -0.026189448 0.026202586 -0.045917235
000310 29 56 02 3a fb b4 8f 3c 81 e1 4b bc 12 61 ca bb
       0.00049719453 0.017542353 -0.012443901 -0.0061761225
000320 bd ed 39 bc 1e f4 bc 3c f4 ee 9a 3c 04 c4 5a 3d
       -0.011348185 0.023065623 0.01891277 0.05340959
000330 7f e3 2b bc 33 f7 3f 3d 45 17 a2 3c 0a 82 dc 3a
       -0.010491251 0.046866607 0.019786486 0.0016823423
000340 74 5d 67 3c dc c9 1a 39 d0 74 7c 3c 37 f4 70 3c
       0.014121402 0.00014761783 0.01540871 0.014706663
000350 e2 46 f8 3c 11 83 60 3d 48 0d 09 3c 8f 6e f9 3c
       0.030307237 0.054812495 0.008364983 0.030448226
000360 e4 ee 1b 3d 0b 79 f2 3c ab 65 19 3d 81 68 e0 3c
       0.03806962 0.029598733 0.037450474 0.027393581
000370 85 43 50 3d 6d 8d 82 bc 10 97 fe 3c 62 e3 8b 3c
       0.05084564 -0.015936578 0.031077892 0.017076198
000380 23 df 80 bb e8 0d e0 bc a6 eb 9b 3b 5d 7f 93 3c
       -0.00393285 -0.027350381 0.004758316 0.018005067
000390 98 f6 41 bd c5 54 26 bb bc 15 ff 3b ed 9f 52 bc
       -0.04735431 -0.0025380116 0.0077845734 -0.012855512
0003a0 54 c9 7b bc 5e cc ab 3b 2e 71 a9 bc a9 ef bb bc
       -0.015367825 0.0052428683 -0.020683851 -0.022941427
0003b0 ee f9 a1 bc ce 79 58 3a 16 cd 3c bc 69 0b ba bc
       -0.019772496 0.00082578964 -0.011523506 -0.022710519
0003c0 03 4a ed ba 7c 86 19 bc f0 a2 38 bd 86 17 2c bc
       -0.0018103722 -0.0093704425 -0.045077264 -0.010503655
0003d0 a4 6e 89 3a aa 7b d2 bb 65 53 97 bc a7 8b 37 3c
       0.0010485244 -0.0064234333 -0.018472383 0.011202729
0003e0 a7 d2 47 bd 2a 07 12 bd 9f 61 ce bc fd 0e b8 3c
       -0.048784878 -0.035651363 -0.025193034 0.022468084
0003f0 8d 14 35 bd e8 c0 dc bb 1f df 3a bd 9c 66 65 bc
       -0.044209052 -0.0067368634 -0.04562294 -0.014001515

bias f4 [64]
000000 7a 3e 9f bd 29 4f 2a bb bb d7 ea 3d 35 32 17 3c
       -0.07775588 -0.0025987125 0.114669286 0.009228279
000010 6b d8 5d 3d 9e 0b da bc 2d 90 fa 3c fa d1 6b 3c
       0.05416147 -0.026616868 0.030586326 0.014393324
000020 29 0b e2 3c 16 1b 47 bd 83 70 0e 3d e8 42 8b be
       0.027593212 -0.048609816 0.03477527 -0.27199483
000030 bf 54 73 3c c0 dd 17 bd 5d 1b dd 3d e5 0d a9 3d
       0.014851748 -0.03707671 0.10796235 0.08254603
000040 7b 5e c1 3e d4 3e 10 bc 2f 6b 03 be 60 7a c5 bc
       0.37767395 -0.008804042 -0.12833856 -0.024106205
000050 0a b5 3a 3d 7d a9 26 3c c1 d9 f7 bc d8 61 a6 3d
       0.04558281 0.010172245 -0.0302552 0.08124131
000060 1e 3d 9a 3d 40 90 87 bd 44 96 5e 3e ef 07 11 3d
       0.075311884 -0.066193104 0.2173701 0.035407957
000070 69 7c 91 3d bd 4a 90 bd f8 42 f4 bc af fa 3b 3e
       0.071038075 -0.07045505 -0.02981709 0.18357347
000080 70 95 10 3e d0 e0 3f 3e a4 48 63 bc 69 d7 05 be
       0.14119506 0.18738103 -0.013872299 -0.13070454
000090 6e df d3 bd 1d fa 18 3e f0 1a 22 3d ba ce fe 3b
       -0.1034535 0.1493916 0.03957647 0.0077761086
0000a0 d0 c8 91 bc 43 22 73 bd d6 24 ca 3d 4d 12 4a 3e
       -0.01779595 -0.059358846 0.09870307 0.19733544
0000b0 d3 3e 82 bd 21 c0 6b bd f8 17 34 3d c9 5a 17 be
       -0.06359639 -0.057556275 0.04396817 -0.14780726
0000c0 f0 74 37 3d 7f c1 42 bc fc 40 50 bb c7 c5 04 3c
       0.044789255 -0.011886953 -0.0031777015 0.008103794
0000d0 d2 8f 83 bd 14 e7 e2 bd b5 80 96 bd ea bf 6d bd
       -0.06423916 -0.11079231 -0.07348768 -0.05804435
0000e0 91 53 3c be 50 e9 34 3e d8 2e 68 3c dd 44 36 3e
       -0.18391253 0.17667127 0.014171325 0.17799707
0000f0 af f6 49 bd 1c 9b 11 be 3b d6 3f 3e 91 83 f0 bc
       -0.04930752 -0.14219326 0.18734066 -0.02935961

weight f4 [512, 64]
000000 ee 92 20 3e 74 29 c3 3c 46 0b 33 bc 71 49 25 be
       0.15681049 0.023823477 -0.010927981 -0.16141297
000010 d0 de 2d be fa a9 f1 bd ed 7a 7c 3d 12 06 b4 bc
       -0.16979527 -0.117999986 0.06164067 -0.02197555
000020 22 1e a9 be 7f 4d 50 3d fc e2 c4 3d 69 a1 76 be
       -0.33030802 0.050855156 0.09613606 -0.2408501
000030 a4 50 01 3c d7 90 97 3d 7a 87 fa bd 49 e8 41 bd
       0.007892761 0.07400673 -0.12232871 -0.047340665
000040 37 c6 fb 3d 03 32 d9 3d eb ed 42 bd 6e f5 6c be
       0.12293666 0.10605242 -0.047590178 -0.23140499
000050 31 04 f2 3d 35 6a 5c bd e9 6a bd bd d8 e2 2c be
       0.11817206 -0.053812224 -0.09248907 -0.16883409
000060 60 5f 1b be 29 fe d3 3d ff a1 f7 3d b4 24 3a be
       -0.15173101 0.103512116 0.12091445 -0.18178064
000070 d5 73 71 bc a8 43 7a bd 01 cb 08 3e 86 8d 9e bd
       -0.014737089 -0.06109968 0.1335869 -0.07741837
000080 f8 05 b4 bd 8e 0e ef bd dd b9 c9 bd 8a 2b d2 3d
       -0.08790201 -0.11672698 -0.09849904 0.10262211
000090 98 d4 44 3a 71 9e 46 3e 38 ce 91 3d b8 ea 22 be
       0.00075084856 0.19396378 0.07119411 -0.1590985
0000a0 2f b0 02 3c ad 49 96 be c8 56 2a 3c 68 2e 73 3e
       0.007976576 -0.29353085 0.010396667 0.23748171
0000b0 34 71 23 be 3b b4 55 be 7f 03 a8 bd 5b 48 82 bc
       -0.15961152 -0.20869534 -0.08203792 -0.015903642
0000c0 27 d9 72 3c 0e f0 8c bc 7b 2c 56 3d 1a 8d eb bd
       0.014822281 -0.01720431 0.052288514 -0.11501522
0000d0 c5 82 b9 3d 86 1e 3a be 66 4a 71 bb 68 1b 6c 3d
       0.090581454 -0.18175706 -0.0036818027 0.057643324
0000e0 26 0b 67 3d f7 2a 0a 3e ef b4 65 bb 4b 6b 35 3d
       0.056407116 0.13492952 -0.0035050472 0.044291776
0000f0 ac 23 4e be 49 5e cf bd 09 80 02 3e a0 7c bf bd
       -0.20130795 -0.10125405 0.12744154 -0.09349942
000100 a7 db f4 bd a7 53 2b be 34 93 67 be c4 b7 32 bd
       -0.11955958 -0.1673113 -0.22614747 -0.043632284
000110 35 67 dd bc ed 41 10 be cf c8 58 bd 45 ce 56 3d
       -0.027026752 -0.14087649 -0.05292588 0.052442808
000120 e8 7a 3f 3c 63 30 25 3e e0 87 3c 3e e6 d9 3b 3e
       0.011687018 0.1613174 0.18411207 0.1834484
000130 3e 2f b3 bd 2e e5 0f be e6 34 45 bb 5c c6 12 3d
       -0.08749245 -0.14052269 -0.0030091344 0.0358337
000140 4d 5b 53 bc bd 26 63 bd 47 5f aa 3d c6 87 84 bd
       -0.012900186 -0.055456866 0.08318954 -0.06471209
000150 29 da 12 be 88 82 4b 3d 37 0b 22 3e 2c ae 07 be
       -0.14341034 0.04968503 0.1582459 -0.13250035
000160 9a e1 8d bd 79 aa ad 3d 0f a8 03 be da 84 85 bd
       -0.06927796 0.08479781 -0.12857078 -0.0651948
000170 75 5a 18 be 9b 35 42 3e 8e f4 3b bc 21 a4 0c bd
       -0.14878257 0.18965761 -0.011471881 -0.034336213
000180 67 bc 96 bc f7 d6 43 be 64 2e 91 bd a6 7c d5 3d
       -0.018400384 -0.19124971 -0.070889264 0.104241654
000190 d6 a0 0b 3e a7 78 5b be d4 b3 66 3e 00 2a 85 3d
       0.13635573 -0.21432744 0.22529536 0.065021515
0001a0 19 2f ee bd 8b 29 99 bd 03 9d ef bd 67 a2 4e be
       -0.11630077 -0.07478627 -0.116998695 -0.20179139
0001b0 6f 49 ed 3d b6 c7 5e 3d 70 a4 c7 bd 0f 04 52 3e
       0.11586272 0.054389678 -0.09748161 0.2050936
0001c0 8d 57 bd 3b 03 de 2c 3d 8d 48 08 3d 1c a3 a3 bd
       0.005778259 0.042203914 0.033272315 -0.07990095
0001d0 c4 79 88 3c 96 ea 12 3e 95 6b 88 bb 11 92 a1 bc
       0.016659625 0.143473 -0.0041632154 -0.01972297
0001e0 0d 71 be 3d 38 8b dd 3d ff 52 38 be 4f ed 2f 3c
       0.092989065 0.108175695 -0.1800041 0.010737731
0001f0 28 eb 64 3e 2a 14 fd 3d 28 c9 95 bd b8 8a 97 bc
       0.2235533 0.123573616 -0.07313758 -0.018498763
000200 89 91 c9 3c 7d 0f 89 3d de fc 94 3d 8c 5c 8c 3d
       0.02460553 0.06692407 0.07274793 0.068535894
000210 92 ff 62 bd d3 ed 8c bc e3 fb ec bb ff 53 ef bc
       -0.055419512 -0.017203247 -0.0072321757 -0.029214857
000220 f8 38 81 bd 8b 1f fc 3d 3a f2 84 3e 5a 0d 4e bd
       -0.06309694 0.12310704 0.25966054 -0.0503057
000230 14 b1 15 3d 8a 21 c6 3c c5 de ff bd 8f bd 24 3e
       0.036545828 0.024185915 -0.12493662 0.16087936
000240 4a 2f 2d 3d 90 87 7e 3d 94 0f 60 3e e8 d9 80 3d
       0.042281426 0.062141 0.21880943 0.06291562
000250 05 c9 86 3d 39 a7 8d bc 26 ca f3 bd e2 e0 a4 3c
       0.0658131 -0.017291652 -0.11903791 0.020126764
000260 65 5f bc bc 22 fe aa bd 08 ec dd 3d ee ef 4e 3d
       -0.022994706 -0.08349253 0.10836035 0.050521784
000270 e5 86 e0 3d 4f 49 0e bd bf 45 70 bc 22 26 5c bc
       0.10963229 -0.03473788 -0.014665066 -0.013436826
000280 d4 ed fc ba 91 24 a6 bb 3c 3f 60 bd aa 13 9a 3c
       -0.0019296953 -0.005070277 -0.054747805 0.018808205
000290 79 5e 98 3d 31 90 f5 bd bd 2b 32 3e 81 3c ff 3d
       0.07439894 -0.11990393 0.17399497 0.12462712
0002a0 ae e5 e9 3c 0f ad 2d bc f0 76 8b bc 6f 4a c5 bb
       0.028551903 -0.010600342 -0.017024487 -0.006020836
0002b0 db 9b c2 bd d3 64 e5 3d 66 e6 23 be 4b 03 0b 3e
       -0.09502383 0.11200871 -0.16005859 0.13575475
0002c0 1f e1 10 bc 46 1b 47 3e 54 70 1a be 81 fa c7 3d
       -0.008842736 0.19443998 -0.15081912 0.09764577
0002d0 30 d0 81 3d 6d 23 f6 bd 5c f6 0c 3e ac a5 15 3e
       0.06338537 -0.12018476 0.13765854 0.1461398
0002e0 1f 8e 41 3d ab 96 94 3d 0a 84 db bc b8 69 85 be
       0.047254678 0.072553 -0.02679636 -0.2605722
0002f0 e8 82 55 3d 04 32 20 be cc 83 9d be 4e ab 08 be
       0.052126795 -0.1564408 -0.30764616 -0.13346598
000300 e8 b2 24 3e 7a 35 17 bd 7f 34 f7 bd 98 25 cf bc
       0.16083872 -0.036916234 -0.1207056 -0.02528648
000310 ca be 43 3e ca 27 0c be 9b ff 49 3e 51 20 ae 3d
       0.19115749 -0.13687053 0.19726412 0.085022576
000320 8e 3a c1 bd 68 34 1e be ae 3c 9b bd d6 34 7e be
       -0.094349965 -0.15449679 -0.07579933 -0.24824843
000330 a9 23 80 bd 77 7c ac 3d 83 23 84 be 6d f1 a8 3d
       -0.06256802 0.08422177 -0.25808343 0.08249173
000340 62 46 b3 bd 54 fd b2 bd ff 84 58 bd 5e 5a 53 3e
       -0.08753659 -0.08739725 -0.05286121 0.20639941
000350 c0 76 b2 3d d5 5b 38 be 12 97 e7 bd 18 e7 61 3c
       0.08714056 -0.18003781 -0.11308111 0.013788007
000360 e1 50 ca bb c8 05 ae 3d 7f df 5a 3c 9f 0f 22 be
       -0.0061741923 0.084971964 0.01335895 -0.15826271
000370 55 19 22 bd 7a 3c 6e bd cc 82 01 3e e0 3d 73 3d
       -0.03957494 -0.058163144 0.12647551 0.05938518
000380 6f 63 1a 3e cc 29 ab 3d e1 30 42 3e 8c 5d 44 bd
       0.15076993 0.083575815 0.18963958 -0.047940776
000390 0e fa 6e 3d 75 71 da bd e7 ff f8 bc f6 02 97 bc
       0.05834394 -0.106661715 -0.030395461 -0.01843403
0003a0 2c 52 b4 3e aa 72 ab bd 42 44 e1 3d 67 24 97 bd
       0.35218942 -0.0837148 0.10999347 -0.0737999
0003b0 cd f4 fd bc 9e 54 a9 bd d7 4b 47 bd 46 6f b8 bd
       -0.03100052 -0.082680926 -0.04865631 -0.09005599
0003c0 df 29 5e bd a3 bf ec bd 63 38 89 3d dd 9e 18 3b
       -0.05423915 -0.11559989 0.06700208 0.002328805
0003d0 ea 5e 22 3e 19 fd 89 3d 1e 11 ec 3d 5a fa 60 be
       0.1585652 0.06737728 0.11526702 -0.21970502
0003e0 e7 84 29 be fa 44 7f bd 82 71 01 be bc 3e ce 3d
       -0.16554604 -0.06232164 -0.12640956 0.100705594
0003f0 59 ef 37 3d 8f 97 d9 bd ff 88 8e 3d 7b 2f 89 3d
       0.044905994 -0.10624611 0.06959724 0.06698509

bias f4 [512]
000000 b8 56 86 3d 6d 0b 94 bd 0f 41 25 be 0a 9a 3e 3d
       0.06559509 -0.07228742 -0.16138099 0.04653362
000010 67 68 10 3d 0a cd 83 bd 89 1e 36 3e c6 6c d3 bd
       0.035255816 -0.064355925 0.17785086 -0.10323481
000020 7f cd b5 3d 0f 00 08 be b4 7d cc 3c a5 f7 c0 bc
       0.08877086 -0.13281272 0.024962284 -0.023555586
000030 25 a2 ae bd 32 57 30 3e 70 e4 a1 3d 1f c3 7e 3d
       -0.0852702 0.17220762 0.07904899 0.0621978
000040 00 93 08 3e 69 57 99 3c a8 1d 8a 3d 22 f8 79 3c
       0.13337326 0.018718438 0.06743938 0.015256913
000050 8a e9 c9 bd 56 81 d0 3d 41 06 6b 3d cd 8f d4 3c
       -0.09858997 0.10180919 0.05737901 0.025947476
000060 b9 2a 93 3d d5 3e 0b be 48 00 0a be 33 61 b3 bd
       0.07185883 -0.13598187 -0.1347667 -0.08758774
000070 be a6 e1 3c 75 24 6b bd 37 e1 1c 3d dc 70 98 bd
       0.02754533 -0.057407815 0.03830072 -0.07443401
000080 b9 ca 0c bd 90 3c ea 3c 7a 9b 3b 3c cd bf d4 bd
       -0.03437302 0.028593332 0.011450643 -0.103881456
000090 61 a9 1e 3e 56 c3 90 3d 3f 9a fd bd 02 88 c1 bd
       0.154943 0.070685074 -0.12382936 -0.094497696
0000a0 5c 98 cd 3d e5 f1 69 bd 3a df 4c 3d e5 ad a6 3d
       0.10038826 -0.057115454 0.050017573 0.081386365
0000b0 54 3f 02 be 0e 21 5a bd 4f 3a d1 3b a3 bb 30 bd
       -0.1271947 -0.05325418 0.0063851248 -0.043147694
0000c0 19 3c 2f 3e 4b 41 3b 3e da f0 6b 3c da 76 c5 bc
       0.17112769 0.18286626 0.014400685 -0.024104524
0000d0 f4 bd f3 bd 25 a6 51 3c c0 d0 f7 3c 27 02 7d bd
       -0.11901465 0.01279596 0.030250907 -0.06176963
0000e0 3f 08 0b be 03 0a ad bc 01 6c 1f 3d 4e 9b da 3c
       -0.13577364 -0.021122938 0.03892136 0.026685383
0000f0 33 5c 71 3c e6 89 cf bd 1c 33 a0 3d 22 71 bf 3d
       0.014731455 -0.10133724 0.07822248 0.0934775
000100 86 be 0f bd 71 55 ff 3c 42 e3 04 be 9f 72 b7 3d
       -0.035093807 0.031168671 -0.12977317 0.08957409
000110 19 81 09 bd a9 3d 03 3e 1d 7c 03 3e d6 52 80 3c
       -0.033570383 0.1281649 0.12840314 0.0156645
000120 17 c2 1a be 3b 81 c1 3d 1e ce e8 bd 6a 21 cd 3c
       -0.15113102 0.09448477 -0.11367439 0.025040347
000130 fc 09 ce bc 31 4c a5 bd 9e 71 bf bd 66 97 36 be
       -0.025151245 -0.08071173 -0.09347843 -0.17831191
000140 37 cf b7 3d d0 1d 94 3d 44 9a 0b bb ac 14 11 3d
       0.0897507 0.07232249 -0.0021301666 0.035420105
000150 4e f5 3d 3e 95 96 c2 bd 41 11 25 3e 8e 34 e2 3d
       0.18550608 -0.095013775 0.16119863 0.1104518
000160 64 c2 d6 bd e7 a9 09 3d f9 74 79 3d b2 10 ad 3c
       -0.10486296 0.033609297 0.06090257 0.021126125
000170 10 15 6a bd fd 8c de 3d aa 1c 63 3d 61 97 18 3d
       -0.057148993 0.10866735 0.055447258 0.03725374
000180 a0 57 76 3d fc 44 b3 3d 96 90 d3 3d 45 3a 0e bd
       0.06014216 0.08753392 0.10330312 -0.03472354
000190 51 86 3b 3d 84 96 21 3d b2 87 11 bd 9e 25 f3 bd
       0.04578239 0.039450184 -0.0355298 -0.11872409
0001a0 61 a7 60 3d ef 13 d9 3d a4 bb a3 bd a7 f6 2c 3e
       0.054847125 0.10599505 -0.07994774 0.16890965
0001b0 66 79 14 3c 11 ad 13 3e 56 78 4e bd ce 9e 62 bc
       0.009062147 0.14421488 -0.05040773 -0.013831807
0001c0 db eb 92 3d 63 dd 13 be d9 4c f0 bd 61 28 3d 3e
       0.07173892 -0.14439921 -0.117334075 0.18472435
0001d0 2c 06 83 bd 2e 00 23 3e 49 71 36 3e e1 35 bc 3c
       -0.063976616 0.15918037 0.17816652 0.02297491
0001e0 fe ec 29 3d 59 8a 25 bd 08 1f c4 bd 8f 63 0f b9
       0.04148578 -0.04041514 -0.09576231 -0.00013674631
0001f0 59 59 0b 3d ef 67 ac 3d 1e 5f 7c bd f7 cf 3e 3e
       0.034020755 0.08418261 -0.06161415 0.1863402
000200 e7 f5 0f be 6a 25 59 3c c1 df 6f 3e 84 e3 6f bd
       -0.14058648 0.013253549 0.23425199 -0.058566585
000210 0f 2a 8c 3c 40 73 ca bd 1c 04 1e bc bd 7e ef 3c
       0.017109899 -0.098852634 -0.009644534 0.029235238
000220 b4 e2 50 3d 95 f1 c3 bd fa 9e 19 3e 1f 27 fc 3d
       0.05099745 -0.095675625 0.15002051 0.12312149
000230 02 90 76 3e bf 49 da 3d f2 4e e9 3d ed ed e8 bd
       0.24078372 0.10658597 0.11392011 -0.11373506
000240 ff 48 87 bd 4f e0 4f bd d5 9c a9 bd 1a 1c c6 3d
       -0.0660572 -0.050751027 -0.082818665 0.09673329
000250 c6 73 62 3c 0b 4c 6e bd 59 97 18 3d e9 39 bb bd
       0.013821548 -0.05817799 0.03725371 -0.09141905
000260 d5 5a 0e be 53 b6 a9 3d df 17 ea 3d 13 36 cb bd
       -0.13901837 0.08286729 0.11430334 -0.09922423
000270 cb fe e0 3c 56 24 3b 3c c4 f6 e2 3d 97 cc 80 bd
       0.027465245 0.011422237 0.11082223 -0.062890224
000280 3f b5 1a be 78 ab 62 bd dd b0 d6 3d a2 f5 01 bd
       -0.15108202 -0.055339307 0.10482953 -0.031728394
000290 d4 c4 5b bd e8 d5 ad 3d 1d 4a 0c 3e a4 ec 55 3e
       -0.053654507 0.08488065 0.13700147 0.20891052
0002a0 47 c2 d4 3d 58 b2 85 3d 5b 23 ee bd 7e 13 f1 bd
       0.10388618 0.06528157 -0.11627837 -0.11771296
0002b0 b5 d7 14 3d e7 b3 4b 3d 1e 3a ea 3d be cc be bd
       0.036338527 0.049732115 0.11436866 -0.09316395
0002c0 e0 f8 34 bd a3 21 6c 3d 02 fb 03 3e ee 43 0a 3e
       -0.04418266 0.057649266 0.1288872 0.13502476
0002d0 81 46 46 3e 02 a2 b9 3d a7 41 72 3d 8c c2 b8 3d
       0.19362833 0.09064104 0.059144642 0.09021482
0002e0 ce a1 b0 3d 52 5e 21 3d 76 fc 14 3c d7 ec c5 bd
       0.08624612 0.03939659 0.0090933945 -0.09664314
0002f0 25 51 dc bb 2d 25 5b bd e5 d1 74 bd 6f 3d 3d 3e
       -0.0067235404 -0.05350225 -0.059770484 0.18480466
000300 68 66 3b bd a4 07 ff 3d 5d 43 ff 3d aa 05 30 3e
       -0.04575196 0.12452629 0.124640204 0.1718966
000310 92 de a1 3d b2 59 7a bd dd 88 03 be 92 57 3d bd
       0.0790378 -0.061120696 -0.12845178 -0.04622609
000320 9f 42 d7 3d b0 96 3b 3d e3 d4 25 be 3b f2 e4 3d
       0.10510754 0.045798004 -0.16194491 0.11179014
000330 0b 70 c2 bd 0c 95 8e bd b6 6a 2c bd 8f b4 9f bd
       -0.09494027 -0.06962022 -0.042093955 -0.07798111
000340 5d a6 02 3e bc 76 d8 3a 49 19 e2 bd d7 17 62 3d
       0.12758775 0.0016514878 -0.11039979 0.055198517
000350 6c c6 a4 3b a7 9c 33 be 9b 41 d5 3d 93 d6 6d bd
       0.0050285365 -0.17540227 0.10412904 -0.058065962
000360 c9 6f 37 bd 06 bb fc 3d 5d ea 1d 3d a5 b5 60 3e
       -0.04478434 0.123403594 0.038553584 0.21944292
000370 eb 07 b8 bd ca de 16 3e f1 1d 54 3d 90 a9 0a 3d
       -0.08985885 0.14733425 0.051786367 0.033853114
000380 ce 52 cf 3d 26 73 f7 3c 31 f2 da 3d ef 69 96 3d
       0.101232156 0.030206274 0.106907256 0.07344424
000390 51 a7 75 bb 0b 84 04 be 7e 4b 71 3d 2e d0 f5 bc
       -0.0037483762 -0.12940995 0.058909886 -0.030006494
0003a0 18 51 d5 3d 37 54 f8 bd b6 7d 42 bd fe da 8e 3d
       0.10415858 -0.12125438 -0.04748317 0.06975363
0003b0 b3 67 06 3e 5e 0d bd bd 21 c0 65 3e 85 39 b5 bd
       0.13125496 -0.09231065 0.22436573 -0.088488616
0003c0 a0 45 40 3d 28 e2 db bc d8 54 fd 3c f4 59 21 3d
       0.0469414 -0.026841238 0.030924246 0.039392427
0003d0 86 30 3a bd 77 1a aa bd 0b ca 73 bd 94 ea 7a bc
       -0.04545643 -0.08305829 -0.059518855 -0.015314717
0003e0 06 b1 2b 3d 12 a5 eb 3d 48 f0 98 3d 93 d2 da bd
       0.04191687 0.11506094 0.07467705 -0.10684695
0003f0 e5 95 3e bd d5 e2 77 3c d9 da f8 3c 54 52 b0 3d
       -0.04652967 0.015129765 0.030377792 0.08609453

weight f4 [200, 512]
000000 6e 58 ba bc 61 44 78 bd 63 65 2b 3d fa a8 9e 3c
       -0.022747245 -0.060612086 0.041844737 0.019367684
000010 82 14 2f be 0b 75 b5 bd 97 39 b1 3d 1c 54 46 bc
       -0.17097667 -0.08860215 0.086535625 -0.012105014
000020 58 28 8e 3d 5f c4 07 3b 2b 83 f7 3d 99 81 c2 3b
       0.06941289 0.0020716412 0.12085565 0.0059358594
000030 12 56 4c bd 59 a7 c7 3d 9b 16 17 be bf ce 78 bb
       -0.04988677 0.09748716 -0.14754717 -0.0037965027
000040 dd 2b c3 3d 55 be 12 3e 13 d9 97 bc 63 43 9a 3d
       0.09529851 0.14330418 -0.018536126 0.07532384
000050 c6 a5 0a 3d d6 ed 80 3d 6e 45 d0 3c 72 81 ec 3d
       0.0338495 0.062953636 0.025423732 0.11548127
000060 9b 33 07 be 32 60 1d 3d 8b d8 0e bd c0 b8 7f bb
       -0.1320328 0.038421817 -0.03487448 -0.0039020032
000070 12 34 2d bd a9 e9 13 3e 1d ab 8b 3d 1e 85 43 bc
       -0.042285986 0.14444603 0.06819747 -0.011933593
000080 c0 23 92 3d 34 15 05 3e f6 91 5a 3e 84 ab 1a 3e
       0.07135725 0.1299637 0.21344742 0.1510449
000090 be c0 d3 3d 31 1d f3 3d 2f 77 08 be e2 16 06 3e
       0.10339497 0.11870802 -0.13326715 0.13094667
0000a0 25 1f 95 3e 5d 1b 39 3e 1f 5d d3 3d a6 e4 7a 3e
       0.29125324 0.18076845 0.10320496 0.24501285
0000b0 71 90 80 3e 00 9e d8 bd 74 61 0f be 5a c1 88 bb
       0.251102 -0.10577011 -0.14002019 -0.00417344
0000c0 6a 64 ec 3d bf 1c 9e bd 81 57 b3 3c eb e3 81 3d
       0.1154259 -0.07720327 0.021892311 0.063423
0000d0 89 57 0a bd d7 3e 05 be 52 a4 a4 3d e6 07 7c bd
       -0.033774886 -0.13012253 0.08039154 -0.06153097
0000e0 fe c7 c5 3d 7f 94 ba bd 0b 97 f7 3d 12 49 f9 3d
       0.09657286 -0.09110355 0.12089356 0.1217214
0000f0 a3 e4 f3 3d 56 83 a3 bd 5a 7e cb 3d 6c 43 40 3d
       0.11908843 -0.07984035 0.09936209 0.0469393
000100 d1 d6 3b be b0 70 82 bd f9 06 78 bd 82 2b 96 bd
       -0.18343665 -0.0636915 -0.060553525 -0.07332517
000110 42 a2 32 bc eb 12 b1 3c 66 53 40 3d f6 46 65 3b
       -0.010902943 0.021615466 0.046954535 0.0034984923
000120 b5 03 6c bd 93 f8 50 3d 37 6a d7 bd 3e fa 1b 3e
       -0.057620723 0.05101831 -0.10518306 0.15232179
000130 79 6c 4f bb 78 e4 5a 3d 6d 44 e5 3d 8e d5 c1 3d
       -0.0031650348 0.05344054 0.11194692 0.094645604
000140 29 79 08 3e a6 0d c5 3d 4b 93 b6 bd 58 99 19 3e
       0.13327469 0.09621744 -0.08914813 0.14999902
000150 b2 ba 9a bc d3 e6 0c 3e ca c2 10 be 48 9c ec 3d
       -0.018887851 0.13759927 -0.14136806 0.11553246
000160 49 f9 9e 3d 53 ab 8c bd 87 e1 2c bb bd 8a 54 3d
       0.07762391 -0.06868615 -0.0026379542 0.051890124
000170 5b b4 d9 bd 36 40 a7 3c df 49 84 3d b4 48 6b 3d
       -0.10630103 0.02041636 0.06459402 0.057442382
000180 2a b3 5e be 3b 9c 02 3e f9 38 14 be 05 1c 58 bc
       -0.21748033 0.1275491 -0.14474858 -0.013190274
000190 c2 49 27 3c 42 e6 40 3d af 73 2b bd fe 20 0f 3e
       0.010210456 0.04709459 -0.04185837 0.1397743
0001a0 50 86 aa 3d 91 b5 05 3d 4b 5c 06 be 80 9e 95 bd
       0.08326399 0.03264386 -0.13121144 -0.07305622
0001b0 57 10 4a 3e da 3b dc 3c 5a a5 96 bc 40 46 ec bd
       0.19732796 0.026884008 -0.018389393 -0.115368366
0001c0 7a 77 b2 3d bd 37 d2 3d 51 c1 ff bd a6 2e e0 3d
       0.087141946 0.102645375 -0.12488044 0.109463975
0001d0 b3 82 08 3e 97 be e2 bc 65 d0 72 3d 92 6e 33 bd
       0.13331108 -0.027678771 0.05928077 -0.04380662
0001e0 47 1c ae 3d 1d 5a 09 3e 38 cc 05 3e cc 07 d1 bd
       0.08501487 0.13413282 0.13066185 -0.10206565
0001f0 25 67 31 3e 35 76 e5 3d bb a4 e9 bc 3f 30 9e bc
       0.17324503 0.11204187 -0.028520932 -0.019310115
000200 27 42 d1 3c 05 4b b6 bd 08 cd 85 bd a6 b8 c6 bb
       0.02554424 -0.089010276 -0.06533247 -0.0060644923
000210 a5 5f a8 bc b4 55 0f b9 e7 1f 0f 3e 27 44 d4 3c
       -0.02055342 -0.0001366947 0.13977014 0.025911404
000220 18 2a 91 3a a0 e8 63 3e 71 b5 de 3d 39 e2 4b 3d
       0.0011075167 0.22256708 0.10874451 0.04977629
000230 13 f1 7c 3d 2c cd 02 3b 8b a3 41 3c 9f f5 38 bd
       0.061753344 0.0019958718 0.011818777 -0.045156118
000240 4e 19 89 bb 43 36 c3 3c 9a 89 91 bc 4a 00 e8 3d
       -0.0041839248 0.023829585 -0.017765809 0.1132818
000250 7a 58 48 3e 86 36 9d 3e fe f5 88 3d 35 d0 b5 3e
       0.19565001 0.3070566 0.06687544 0.35510412
000260 33 90 02 3d 3b 90 3d 3d 0e ab 1f 3b 85 2f 31 3e
       0.0318758 0.046280127 0.002436343 0.17303284
000270 84 5e 4d 3e 57 cc 30 3c 3b 28 dd 3d 18 24 85 be
       0.20055586 0.010790906 0.10798689 -0.260041
000280 1e cc d0 3d 08 91 81 3d 73 e9 1a 3e 0a ea fe bc
       0.10195182 0.06326491 0.15128116 -0.031117458
000290 bd 07 2e 3e f2 92 98 3d 55 e2 c2 3d 98 90 14 3e
       0.1699514 0.074499026 0.09515826 0.14508283
0002a0 6b 1e 89 bc f2 31 12 3e ac 3e 09 be 58 15 98 bd
       -0.016738137 0.14276865 -0.13402814 -0.07425946
0002b0 35 01 07 3e 91 f3 13 bc 12 b6 0d bd 35 77 0e 3e
       0.13184054 -0.009030239 -0.034597464 0.13912661
0002c0 58 00 04 bd fe af 85 3d 0f d9 21 3e dc c9 3f 3c
       -0.03222689 0.065277085 0.15805458 0.011705842
0002d0 f7 6a 64 3e 87 4c 49 3d 50 6a 91 3d a6 c2 21 3e
       0.22306429 0.049145248 0.071003556 0.15796909
0002e0 80 be 8f 3d da f3 69 bd af e6 7f 3d fc 70 89 bd
       0.07018757 -0.05711732 0.062475856 -0.06711003
0002f0 68 cd 0c 3e 94 8c 9b 3d e6 ba f0 3d d9 13 e7 3d
       0.13750231 0.075951725 0.11754398 0.112830825
000300 18 4d fa 3d da b6 83 bd f8 51 94 3d 0e fe 0c 3d
       0.12221736 -0.064313605 0.07242197 0.034421973
000310 2f 7c cc 3c 87 c1 09 3e 96 10 39 3e 30 04 c5 bd
       0.02496156 0.13452731 0.18072733 -0.09619939
000320 ac a4 00 3e c7 c9 d0 3d a9 1c a8 3d 4a 7d 2c 3d
       0.12562817 0.10194736 0.082085915 0.042111672
000330 67 ad c7 3c 9c 5c 1c 3e 65 4d 81 3c 4b bd 31 3d
       0.024374677 0.15269703 0.015783975 0.043393414
000340 bd 48 09 bd a7 8c f5 bd e0 3a 71 3c 6a d5 f6 3d
       -0.033516634 -0.11989718 0.01472351 0.12052424
000350 47 0b cb 3d 3b e9 38 3d 4b 1e c3 3d 07 51 67 3e
       0.0991426 0.0451443 0.09527262 0.22589503
000360 33 82 fa 39 93 1b 4f 3d b0 f8 2a 3d 4e f1 db 3c
       0.00047780722 0.050563406 0.041741073 0.026848461
000370 75 86 e2 bc 81 90 d5 3d 9a a4 8b 3e 4b d2 5a bc
       -0.027652005 0.104279526 0.2727402 -0.013355802
000380 53 60 88 3b 47 13 36 bd 98 4e b7 3c 32 e9 01 be
       0.0041618734 -0.044451978 0.022376344 -0.12686613
000390 71 50 4f bc 7d 11 d8 3d e3 5d 96 3d bb b3 c1 bd
       -0.012653456 0.105502106 0.07342126 -0.09458109
0003a0 91 17 0f 3e e9 17 b6 3d fd 23 03 be fc 02 22 be
       0.13973834 0.08891279 -0.12806697 -0.15821451
0003b0 07 3d 90 3d 92 74 a3 3b aa 8d 40 3e 76 4a af bd
       0.0704289 0.0049882615 0.1880404 -0.08559124
0003c0 d1 79 35 3e 9d 20 ff 3d df e0 d4 3c e4 63 96 3b
       0.1772225 0.12457392 0.025986133 0.0045895446
0003d0 aa f0 9a 3b dc fd 87 3c 0b 6f 17 3e 3f 31 b4 3d
       0.0047283964 0.016600542 0.14788453 0.087984554
0003e0 57 b3 7e bd d3 a2 0a 3e 8c 28 03 3e 8b b4 e1 bb
       -0.06218275 0.13538675 0.12808436 -0.0068879775
0003f0 b3 bc 8d 3d ad 77 87 3d 9a 0b e2 bd ec 46 99 bb
       0.06920757 0.06614623 -0.11037369 -0.004677644

bias f4 [200]
000000 5b 74 a0 3f e8 eb 67 3d 0f 01 bd 3c 81 78 a5 3b
       1.2535509 0.056621462 0.023071794 0.0050497656
000010 89 cf 27 bd 5a 08 ad bc 03 db ab 3b 41 30 07 bd
       -0.040969405 -0.021122146 0.005244614 -0.033005003
000020 e6 b1 71 3e 0f c6 82 3c 69 0d 7d 3b 3c 9c cd 3a
       0.23603019 0.015963582 0.003861273 0.001568682
000030 47 2c 96 3a f5 08 8f bd 23 a4 4c bd 5e da 28 bc
       0.0011457287 -0.0698413 -0.04996122 -0.010305969
000040 bd 91 5f bc 51 da 0e bd b6 9c 84 3c 7d f8 9e bc
       -0.013645587 -0.03487617 0.016188007 -0.019405598
000050 65 d3 79 bd 60 59 2a bd 3f 0e 32 bd c5 dc e6 bc
       -0.060992617 -0.04158914 -0.043470617 -0.028181443
000060 98 83 aa bc d3 ac 62 3c 1e f8 fb 3c 58 a0 c3 bb
       -0.020814702 0.01383515 0.03075796 -0.005970042
000070 e7 63 40 bd 05 47 38 bc ff 9c 83 3c 90 01 c1 3c
       -0.046970274 -0.011247401 0.016066073 0.023560315
000080 51 25 0a bd d3 67 16 bc e9 b7 96 3c 8f f0 2d bd
       -0.033726994 -0.009180027 0.018398242 -0.042465743
000090 94 23 62 bc 65 24 1d 3b 27 86 56 3c e3 06 46 3e
       -0.013802428 0.0023977992 0.013093508 0.19338565
0000a0 60 ed 99 bc c7 f2 6d 3c ad 39 b1 3c 27 10 8c bc
       -0.018789947 0.014523215 0.021633947 -0.017097546
0000b0 ef 7b 5e 3d 87 07 1a bb b3 14 07 bd 55 6b af bc
       0.05431741 -0.0023503022 -0.032978725 -0.021413485
0000c0 54 79 b0 bc 42 09 87 bc ed 69 c6 3c da 66 db 3c
       -0.021542229 -0.016483907 0.024220431 0.026782442
0000d0 2c 1a b2 3b b0 8b 74 3d 30 87 08 bc 62 80 cc ba
       0.005435249 0.05970353 -0.008333012 -0.0015602226
0000e0 45 81 8b 3d 93 3b 51 bd 3b bc 19 3e fe 29 f2 bd
       0.068117656 -0.051082205 0.1501321 -0.118244156
0000f0 af 3d 4a bd 9c a3 7d bd c0 96 93 3a 2d 2b b7 3c
       -0.049375232 -0.06192361 0.0011260137 0.022359455
000100 c6 34 a3 3c 70 ea f1 bc 63 85 40 bc fa a1 ee 3c
       0.019922625 -0.029530734 -0.011750552 0.02912997
000110 fe 5c 1f bb 96 73 4d 3d 3c 43 5f 3c 2e 3b 49 3d
       -0.0024316902 0.05015906 0.01362687 0.049128704
000120 bf 06 84 bc 91 b6 9a 3c 37 cb 08 3b d6 ee 83 bc
       -0.016116498 0.018885883 0.0020873079 -0.016105097
000130 ef 37 67 bd fe 56 1e 3d 74 fb f9 bc c1 e7 ed 3d
       -0.056449827 0.03865718 -0.03051541 0.11616469
000140 66 b2 e3 bc bc 32 cd ba 11 6a 37 3b 5d ae 92 3c
       -0.027795028 -0.0015655379 0.0027986804 0.017905409
000150 f6 2a 3b bd 4d 5f 3e bd a5 cd ac bc 05 ab 16 bd
       -0.045695268 -0.046477605 -0.021094153 -0.03678419
000160 5a 52 10 bd e9 ad 80 bb 67 4d e4 bc 9d 08 c7 3b
       -0.035234787 -0.0039269817 -0.02786894 0.006074025
000170 d3 1f 32 bd ea e3 d1 3c 92 54 52 bd e4 47 72 3c
       -0.04348738 0.025621373 -0.051350184 0.014787648
000180 80 4d 95 3c 81 7c d2 3c d4 44 34 bd 1a 67 bf 3b
       0.018225431 0.025694134 -0.044010952 0.005841148
000190 85 14 84 3c 7f d2 39 bd 37 cf 04 bd 9a 38 e7 3c
       0.016123066 -0.04536676 -0.032424178 0.028225232
0001a0 64 4b 25 bc 12 69 c0 3b ee 30 a7 3b f7 11 2b bd
       -0.010088775 0.0058719004 0.0051022684 -0.04176518
0001b0 b2 0d f5 3c 36 f5 88 3c ca 89 17 bd fb c0 02 bb
       0.029913757 0.016718488 -0.03699664 -0.001995145
0001c0 7b 8a 56 bd 61 88 b4 bc 91 83 15 3c 5c 22 31 bb
       -0.05237816 -0.022037687 0.009125606 -0.0027028536
0001d0 47 18 05 bd 69 0c 74 3a 2e 72 68 3c 90 45 ce bc
       -0.032493856 0.00093097106 0.014187379 -0.025179654
0001e0 6b 70 8a bc 66 1a 95 3c 9d ee 10 bd 4e bb 63 3b
       -0.016899308 0.018201064 -0.03538381 0.0034749093
0001f0 3b fe d9 bc cb 29 fe bc ba ac aa bb 9e da 0a bd
       -0.026610484 -0.031025788 -0.005208579 -0.033899896
000200 93 b4 61 bc 5d d9 b5 3c 03 c7 50 bd 22 b0 90 bc
       -0.013775962 0.022198373 -0.050971042 -0.017662112
000210 84 4e 56 bd 37 b6 da 3b b0 47 23 bd 69 4a 82 3b
       -0.052320972 0.0066745537 -0.03986329 0.0039761555
000220 e1 98 a9 bc 4f f8 c5 3b 6e 76 34 ba 3e 80 b9 3b
       -0.020702781 0.0060415636 -0.00068841025 0.0056610396
000230 00 fc fe bb a9 b2 ec 3b 58 ef 81 bc a0 56 02 bd
       -0.0077815056 0.0072234464 -0.015861198 -0.031820893
000240 ba c7 99 bb 48 f1 26 bd 97 8e 2e 3c f0 bb 88 bc
       -0.0046929987 -0.040757447 0.010654113 -0.016691178
000250 b8 39 8d bc b3 28 29 bd 39 fc 5a 3c 74 50 5e 3c
       -0.017239437 -0.04129858 0.013365799 0.013568986
000260 e9 d8 0c bd 78 69 65 bd 99 18 fd 3c 7a e9 b0 bc
       -0.03438655 -0.056008786 0.030895518 -0.021595705
000270 70 1c b2 bc 8a 3a ce 3b b9 65 d2 3c 6f 49 b7 bc
       -0.021742076 0.0062935995 0.02568327 -0.022373883
000280 d7 17 ac bc a6 f7 16 bd 9d 77 91 3b d3 df 9f bc
       -0.021007461 -0.03685727 0.004439308 -0.019515907
000290 62 15 0a bd 1d 27 e1 bc b4 d2 eb 3c d6 85 b0 bc
       -0.0337118 -0.027484471 0.028786995 -0.021548193
0002a0 4c ec 77 3c 21 c4 25 bd e7 40 df 3c 96 20 99 bc
       0.015132021 -0.040470246 0.027252628 -0.018692296
0002b0 c3 8c e2 39 93 3b 82 3c 04 87 8a 3c 10 dc 01 3d
       0.00043210955 0.015897548 0.016910084 0.03170401
0002c0 ef fb 3c 3a 10 8a e7 bc c5 ea db 3c 62 d0 56 bd
       0.0007209172 -0.028264076 0.026845345 -0.052444823
0002d0 5c 0f 69 3b 9c 60 2d bc 93 47 de 3c 34 91 22 bd
       0.0035562133 -0.0105821155 0.027133739 -0.039689258
0002e0 7e 75 e0 bb ff d9 01 3d b2 ed 8a 3b a8 14 83 bb
       -0.0068499437 0.031702038 0.0042397613 -0.004000265
0002f0 64 2c 08 bd a0 4a 51 bc 80 a8 fe bb e7 c4 4f 3c
       -0.03324546 -0.01277414 -0.0077715516 0.0126812225
000300 e8 81 11 bd 8e 99 86 bc 04 21 a6 bc ca 7f 0f bc
       -0.03552428 -0.016430642 -0.020279415 -0.008758495
000310 a3 ea 20 bc 4a 83 bc bc 9d a4 52 bd 81 bc e4 3c
       -0.009821567 -0.023011822 -0.05142652 0.027921917
