system/models/Cifar10/CNN/FedPer_BaseHeadSplit_Cifar10_client_5.pt (torch, 542108 bytes, 10 tensors)

weight f4 [32, 3, 5, 5]
00000000: 4b1c 563b f19c 013e 409e e8bd a9a1 e6bd
00000010: 2f7b 0f3c c6ff 9abc 9814 a33d 04b3 a83d
00000020: a554 cdbd cc36 dcbb ad25 a8bd bb31 3c3d
00000030: c43b b5bd f729 debd 0a11 a9bd f2e7 ee3c
00000040: a467 143e 4cdd 303e 84fc 823c 3905 b5bb
00000050: baeb a43d a966 0b3e 150d c13d b606 893e
00000060: b24b e83d 142a 88bb 4950 073e 7831 2dbe
00000070: 2242 10be 75f4 02bb df45 06be ca83 fa3d
00000080: b17b 0bbe c26b 40be 1a5b 21be a3d3 5cbe
00000090: f811 9fbd ec24 2f3d b7f5 5fbd 7266 5cbd
000000a0: beff 93bd 379b a7bd bc76 d1b9 bed0 12be
000000b0: caa6 34be c949 1dbe c8a5 2bbd 3be6 af3c
000000c0: 287c 42bd d225 85bd 32e1 cd3d 3c82 523e
000000d0: 0d2a 853d 4228 c93c ad13 303e 4748 cfbd
000000e0: 603a f23d 43a2 81bd fcc0 08be c765 87bd
000000f0: b299 df3b 7902 dc3d 2cb5 60bd 1ccb 3dbc
00000100: 5ca8 1d3c 57d9 ddbc add6 453d f5b5 8c3d
00000110: 02b2 a23d 38e9 6e3d d7d9 ebbd 5b57 bbbd
00000120: b791 6d3d cdd4 143e 3192 a13d 653d 643d
00000130: 8059 9d3d f575 8cbd cf0f a8bd b7c1 e4bd
00000140: 0019 0cbe f024 e63d 3449 953d efd4 14be
00000150: 60a8 0c3e 46ac dbbd 8fa1 99be 61f9 57be
00000160: 5c7a ca3e 9758 683e 10c5 063d 5606 a7bc
00000170: 45b7 3b3e 1c50 d23d dccc a9be e9df 073d
00000180: 77b9 5e3e 70dd 013e 4330 84be 45c1 56be
00000190: 9fb4 953d 900b 2b3e 88b0 18bb 5415 e9bd
000001a0: eabe 09be b8a4 a0bd e612 c5bd 9250 e6bd
000001b0: d904 fabc 9d45 1a3e d83a 30be 5db0 53be
000001c0: 5ef4 4abe ab32 f73e e743 c93e 5f76 ecbd
000001d0: 85ef 80bd 5640 193e de63 633d 30cc 82be
000001e0: a88d ba3d bb29 293e 74b4 963c 050e 65be
000001f0: 12a4 c2be 8ed5 8cbd ef7d 7b3c e2a1 1dbd
00000200: 7d98 e1bd b128 94bd 5a21 e8bc 7bfd ff3b
00000210: 56ae e3bd d9fe 21bd bcde 4d3e add2 963a
00000220: f0c0 56be 6f75 1bbe 0b0e a73e 94b2 a93e
00000230: c04c 803e 9515 c63d d247 633e 7e2f 4fbc
00000240: 5f96 bebe 402c 2b3e 6c1d 9e3e 8707 c13d
00000250: 332e 8abe 3af8 84be 776e 40be 0662 1dbe
00000260: e192 87bb 6b46 203e 8f83 013e bb07 3abe
00000270: 9e0c 373d 5fd6 9cbd b103 de3a 50ed 5ebb
00000280: 23e2 b33b 1b89 59bb 33a0 21be 3412 2ebe
00000290: a97b 6bbb e003 b33d 86b2 b7bc 077d f7bc
000002a0: 001d 6fbe cdfe cabd 429c 273e ac62 72bb
000002b0: 7b4b d03d 933a 6bbd e431 71be 7bdf 973d
000002c0: 0f94 003b ba7d ae3c faaa 4b3e 11f4 2fbd
000002d0: a3e0 7e3c 3bc7 e43a 99fc fe3d 8424 5d3d
000002e0: 076d 943d 1629 dd3d 214b 363c e3c2 94bd
000002f0: 0a05 2bbe 6140 803d 82e7 2b3e 475b ca3d
00000300: 27d7 1dbe 0cd1 e6bd efa7 2abe dcd4 3cbd
00000310: 51d7 7bbd e275 a43c ffc1 32be 0c2a 05be
00000320: 7dad 37bc 12a0 463d df7e a5bd a2b1 58bd
00000330: 82c5 b0bd 1c7c 8a3d 8850 3dbd 2074 ca3d
00000340: abd1 713c bb99 b8bc b519 493d 8bfe 043c
00000350: d976 eabc e239 d2bd 0f04 cabc ffed e13d
00000360: c1a7 ebbc a0c5 a6bd a504 333c 9090 29be
00000370: 8930 c53d 60de 663e 36f7 ff3d 2367 e1bc
00000380: 9bb2 33be 7c53 973d 9d28 d73a 6085 ccbc
00000390: 281b 5f3c 52b4 5d3c 8c7c 88bc 03e3 dc3d
000003a0: 1738 a0bd 06a5 553d 987d 66bc 41fb 54bd
000003b0: 57f0 1c3e 526d 0fbe 92a7 47bd 1355 983c
000003c0: 4ad1 223c fdd7 573e a468 a6bd b102 a83d
000003d0: cc9c d63d 370d 61be 8387 853d ed86 99be
000003e0: 038e 8abc ce8a cabd 98cc f4bd 8c55 573d
000003f0: 0ed8 9c3d f262 5b3c 9d43 62bd c298 f7bd
0.0032670673 0.12657525 -0.11358309 -0.11261303 0.008757397 -0.01892079 0.07962912 0.082372695
-0.1002591 -0.0067203995 -0.08210311 0.045945864 -0.0884929 -0.10847848 -0.08255203 0.029163335
0.14492661 0.17271918 0.01598955 -0.005524304 0.08052774 0.1361338 0.09426323 0.26762933
0.11342563 -0.0041554067 0.1321422 -0.16913402 -0.14087728 -0.0019982134 -0.13112591 0.12232168
-0.13621403 -0.18791106 -0.15757409 -0.21565108 -0.07767099 0.04275982 -0.05467769 -0.053808637
-0.07226513 -0.08183902 -0.0003995205 -0.14337441 -0.1764175 -0.15360178 -0.04190615 0.021472087
-0.047481686 -0.06501354 0.10052718 0.20557493 0.06502161 0.02455533 0.17195006 -0.10121208
0.118275404 -0.06329777 -0.13354868 -0.06611209 0.006823742 0.10742659 -0.05486028 -0.01158407
0.0096226595 -0.027081175 0.048300434 0.06870643 0.079441085 0.058327883 -0.11516159 -0.09147521
0.058000293 0.14534302 0.07889212 0.055722613 0.076830864 -0.06858436 -0.0820614 -0.11169761
-0.13681412 0.11237514 0.07289353 -0.14534353 0.13736105 -0.10726218 -0.30006072 -0.21091224
0.39546478 0.22690044 0.032902777 -0.020388763 0.1833163 0.10269186 -0.33164108 0.03317252
0.21750437 0.12682128 -0.2581807 -0.20972164 0.07309841 0.1670363 -0.002329858 -0.11381021
-0.13451734 -0.078439176 -0.09622745 -0.11245836 -0.03051989 0.15065618 -0.17209947 -0.20672746
-0.19819781 0.48280844 0.39309618 -0.11546015 -0.06295685 0.14965948 0.055515163 -0.25546408
0.0910905 0.16519825 0.018396594 -0.2236863 -0.380158 -0.0687667 0.015349849 -0.03848446
-0.11015413 -0.07234324 -0.028336216 0.0078121996 -0.11117236 -0.039549682 0.20104498 0.0011506878
-0.20972037 -0.15181516 0.326279 0.33144057 0.25058556 0.09672085 0.22195366 -0.0126456
-0.372241 0.16716099 0.30881822 0.09425264 -0.26988372 -0.25970632 -0.18792139 -0.15369424
-0.0041373824 0.15651862 0.12647842 -0.18167011 0.044689767 -0.076580755 0.0016938356 -0.003401596
0.005489604 -0.0033193293 -0.15783767 -0.16999131 -0.0035931861 0.087409735 -0.022423994 -0.030210985
-0.23350906 -0.09911881 0.16368201 -0.0036985083 0.10170647 -0.057428908 -0.23554188 0.074156724
0.00196195 0.021300185 0.19889441 -0.04295737 0.015556487 0.0017454395 0.12450523 0.053989902
0.07247358 0.10798852 0.011126311 -0.07263734 -0.16701141 0.06262279 0.16787532 0.09880691
-0.15414105 -0.11270341 -0.16665624 -0.046101436 -0.06148464 0.020075742 -0.17456816 -0.13004321
-0.011210796 0.0484925 -0.08080839 -0.05290378 -0.086314216 0.06761953 -0.04621938 0.0988543
0.014759461 -0.022534242 0.04909678 0.008117328 -0.028621124 -0.102649465 -0.024660138 0.11031722
-0.028766515 -0.08143163 0.0109264 -0.16559052 0.09628398 0.22545767 0.124983236 -0.027515
-0.17548601 0.0738897 0.0016415302 -0.024965942 0.013617314 0.013531761 -0.016660951 0.107854865
-0.07823198 0.05215933 -0.01406803 -0.051997427 0.15326057 -0.14006546 -0.048743792 0.018595254
0.009937594 0.21078487 -0.08125427 0.08203638 0.104791254 -0.21977697 0.065199874 -0.29985753
-0.01691342 -0.09889756 -0.11953086 0.05257182 0.07658397 0.01339029 -0.055240262 -0.12089683

bias f4 [32]
00000000: 6d5b 3dbe c881 afbe 4ae6 f6be 221b 0ebe
00000010: ad0d d3be f842 05be 3c07 f8bd ff3e 08bf
00000020: f25b afbe 856a 11be 7ad3 b2be 4db0 71bd
00000030: 3090 bebe 4aac 07be 8642 3abe 8a5b 05bf
00000040: 7954 cabe de0f eebd fc6d ccbe 69e5 76bd
00000050: 7e22 59be 74b9 7fbe 5d3e b6be 5fe7 01be
00000060: 928d 41be edad 5bbe 0808 07bf 0a99 41be
00000070: 8058 28be 1d33 87be 9e25 94be 16db d4bd
-0.18491907 -0.34278703 -0.48222572 -0.13877538 -0.4122137 -0.13013828 -0.12110755 -0.53221124
-0.34249836 -0.1420079 -0.3492697 -0.059006024 -0.3721938 -0.13249317 -0.18189439 -0.520928
-0.39517573 -0.1162412 -0.3992766 -0.060277376 -0.21204564 -0.24973089 -0.35594454 -0.12685917
-0.18901661 -0.21453066 -0.5274663 -0.18906036 -0.1644001 -0.26406184 -0.2893495 -0.1039335

weight f4 [64, 32, 5, 5]
00000000: 542d bfbc 7e2e 4f3b 8421 f63c 7ced 633d
00000010: f2f5 533d c3c1 1dbd 9c30 5bbc 4edf 57bb
00000020: fdff 043d 003e ec3c f67d c83b f713 cabc
00000030: 08d4 2dbc 1b36 713d 5c2d 033c 21e1 1c3a
00000040: 5344 0dbd 663b abbc 9e4c f4bb bc8e 913a
00000050: 3ed6 f5bb 3017 c9bc 05a8 f03c 76ad d0bb
00000060: 6d3c f0bc 5f61 523d c7a4 f03c 10fb c5bc
00000070: 5cd0 5f3a 4da8 66bd c7dc 753c ec4f e7bc
00000080: e58a 2a3d 5866 d83c c1b2 473c 595f 513c
00000090: a62b f2bc 1168 4e3d c4e5 d3bb 7627 98bc
000000a0: 7320 acbc e901 7ebc ae59 aa3c dd55 5ebc
000000b0: 87b4 d93c ab11 943b 2535 20bc 31f1 403b
000000c0: 27a0 46bc d780 b23c f8f6 06bd 5007 88bc
000000d0: a57e 8bbd 8e0d 76bd ecba 78ba 2b13 0c3b
000000e0: d59a f1bc 1277 f6bc 1ac3 45bd afdc 053c
000000f0: f91b d53c cfbd ec3c 20e1 04bd 55be c33b
00000100: 4f37 0e3d e243 6b3d 9f8c 22bd 4c69 6e3c
00000110: ee5e ff3c c330 d13c e49b 463c 01b7 783d
00000120: 6d56 8b3b 35db 87bc a4ef 973b 67a9 2e3d
00000130: 5ee2 b3bc 1f71 dd3c 2a85 15bb 3662 c63c
00000140: c142 9c3c 0365 7e3c 0cc6 e5bc ef05 25bc
00000150: 160e 863c f2c7 e4bc de00 ad3c dc0f 86bc
00000160: 7b9a 43bc f4f3 a63c 8230 86bc 8977 5ebc
00000170: 287e 013d 3685 cdbc 8612 b73c 6d4e 1bbd
00000180: b448 5fbc c699 5f3b f999 7ebc 5623 7dbd
00000190: a6ce 033c 22d1 96bc ce19 a23c 4582 66bd
000001a0: bd4f a6bd c256 d2bb b38f 63bc 6f5f 22bd
000001b0: 3903 24bd a187 94bd dd19 ffbc a144 adbb
000001c0: 10fd 34bc de6f 3dbd bd59 d3bc d833 253c
000001d0: ab3a d4bc 9600 c03c 2ecd 6d3b 048b a4bb
000001e0: 5139 08bd d3a1 9eba 966f 273d 35d4 1f3d
000001f0: 3e8b fbbc 3c40 84bb 859c b2bc 502d b0bc
00000200: 16f2 82bd 92a6 9bbd 9aa6 9e3c 5dd8 6dbc
00000210: 1247 dfbc 6b0e efbc ffe3 63bd 8949 f0bc
00000220: 608a a33c 27e2 26bd aff3 b7bb 7bda f6bc
00000230: 499f 4abc 4bc2 383c 874d 95bc ddd8 bebc
00000240: f97c 85bd 5cfb 443c 58bf 293c 3c5f f6bc
00000250: 95b8 6cbd 7d14 27bc 8449 ca3b adf5 843b
00000260: 337c cbbc 32ef 1e3b 01e1 853c 7cac 6e3d
00000270: 28c0 1e3c 5069 c13c 0bec 843b f9d1 083b
00000280: 7a43 9d3c a9f6 293c d90a 0bbd 4fe4 db3c
00000290: 8e0d 533d a2b0 683d b00c c13c ec1e 923b
000002a0: 9751 233d 46fd 96bb 05b5 833c ed31 d4bc
000002b0: bc26 c6bc b91a 4d3b 2130 993b 6f10 57bc
000002c0: 7b79 6ebc 963b 8fbd bfca 88bd 864b e1bc
000002d0: 2e59 63bc 392d 91bc 32b2 4ebd 71d7 16bd
000002e0: badd 4ebd 0237 09bc bbc2 3d3b 5898 133d
000002f0: ea7e 25bc 027a 99bc dcfb 163c 3fb5 a83a
00000300: a5cc 95bc 840f 33bd a989 013c ad16 96bd
00000310: fa40 a7bc 8654 51bb 733b d6ba c7f7 063a
00000320: 3492 24bd df4e de3c d779 bd3c 1d0e 963d
00000330: c933 c03c 3cfa 173c 7dec 77ba b557 7dbc
00000340: e894 263b b103 013c c3ad 8ebc d9b2 8dbb
00000350: a663 bb3c a954 3b3d f548 c83c 2169 b63b
00000360: d4a9 d03c b490 e43b 23aa b53c db76 1d3d
00000370: d041 e13c c004 48bd 8d86 6ebc 2735 94bc
00000380: d218 bcbc 17c8 d73b 2c4d b93c 48ee dd3c
00000390: 4df2 3abd 5e3c 4d3b 4558 003d 429e c63a
000003a0: 9ab3 03bb 2254 ba3c f106 0c3c 3291 ce3b
000003b0: 0ddc 9abb 8249 6b3c 9ba8 903c 8fe7 1f3c
000003c0: ccf9 f23b 776e d03c 2f24 05bc 3d55 b13c
000003d0: 0185 573c 8e24 8c3b dc5b 64ba b530 af3c
000003e0: 3b88 0cbd 661f b5bc cac3 cebc 7f63 073d
000003f0: 9f4b 7abc 771a da3c 7033 51bc 82fc aabc
-0.023337044 0.0031613405 0.030045278 0.055646405 0.051748224 -0.038514864 -0.013378289 -0.0032939496
0.032470692 0.028838158 0.0061185313 -0.024667723 -0.010609634 0.05888949 0.00800642 0.00059844746
-0.034488987 -0.020902347 -0.0074554225 0.001110516 -0.0075023463 -0.02454719 0.029376993 -0.0063683344
-0.029325688 0.05136239 0.029375447 -0.024167567 0.0008537823 -0.056312848 0.015006251 -0.028236352
0.041636366 0.026415989 0.012188614 0.01277908 -0.029561829 0.050392214 -0.006466599 -0.018573504
-0.021011567 -0.015503385 0.020794716 -0.013570276 0.02657534 0.0045187077 -0.009778296 0.0029440636
-0.012123144 0.021789951 -0.03295037 -0.01660505 -0.06811265 -0.06007152 -0.0009488303 0.002137373
-0.029492775 -0.030086074 -0.048281766 0.008170291 0.026014315 0.028899102 -0.03244126 0.005973617
0.034720715 0.057437785 -0.039684888 0.014551472 0.031173196 0.025535947 0.012122128 0.0607214
0.004252246 -0.016584018 0.0046367217 0.042642023 -0.021958526 0.02703148 -0.0022814968 0.024216752
0.0190748 0.015527013 -0.028048538 -0.010072215 0.016364139 -0.027927373 0.021118578 -0.016364984
-0.0119386865 0.020379998 -0.016380552 -0.013578304 0.031614453 -0.025087934 0.0223477 -0.03791659
-0.013628174 0.0034118756 -0.01553964 -0.061801277 0.008044874 -0.01841027 0.019787695 -0.05627658
-0.081206776 -0.0064190337 -0.013889241 -0.039641794 -0.040042136 -0.07252432 -0.031140262 -0.005287722
-0.011046663 -0.046249263 -0.025799626 0.010083161 -0.025906881 0.02343778 0.0036285627 -0.0050214548
-0.033257786 -0.0012102671 0.0408779 0.039020736 -0.030706044 -0.0040359776 -0.02180315 -0.021505982
-0.063938305 -0.0760013 0.019366551 -0.014516917 -0.027255569 -0.02918168 -0.055637356 -0.02933194
0.019963443 -0.04074302 -0.005613766 -0.030133476 -0.012367078 0.011276792 -0.018225444 -0.023296768
-0.06517977 0.012022819 0.010360561 -0.030074708 -0.05779322 -0.010197756 0.0061733145 0.004057607
-0.024839496 0.0024251458 0.016342642 0.058269963 0.009689368 0.023609787 0.004056459 0.0020877107
0.019197214 0.01037375 -0.033945892 0.026842264 0.0515266 0.056809075 0.02356562 0.0044592526
0.039872732 -0.0046078293 0.016077528 -0.025902713 -0.024188392 0.0031296446 0.004674927 -0.013126477
-0.01455533 -0.06993787 -0.06679296 -0.027501833 -0.013876243 -0.01772176 -0.05046291 -0.036826555
-0.050504424 -0.008374931 0.002895518 0.03603396 -0.010101059 -0.018734936 0.009215321 0.0012871398
-0.018286059 -0.04371597 0.007906356 -0.07328544 -0.020416725 -0.003194125 -0.0016344622 0.0005148616
-0.040178493 0.027137218 0.023129387 0.07326911 0.023462193 0.009275969 -0.0009457542 -0.0154628055
0.0025418345 0.007874415 -0.01741684 -0.004324299 0.022874665 0.045735035 0.024448851 0.0055667316
0.025471605 0.006975258 0.022175854 0.038443428 0.027497202 -0.048832655 -0.014558447 -0.018091751
-0.022961054 0.006585132 0.022619806 0.02709116 -0.045641232 0.00313165 0.03133418 0.0015153366
-0.0020096065 0.022745196 0.008546577 0.0063039297 -0.004725939 0.014360787 0.017658522 0.009759798
0.007415032 0.025443299 -0.008126303 0.02164709 0.013154269 0.0042768186 -0.0008711198 0.02138553
-0.034309607 -0.022109699 -0.025239844 0.03305387 -0.015276819 0.026623948 -0.012768611 -0.020872358

bias f4 [64]
00000000: 3cc7 c5bd e8c7 173e 746d 6abd 9ce2 acbd
00000010: 1073 063d fbb5 3c3d 0e89 16be 775d c4bd
00000020: d52d b3bd f0eb 133d 99a3 d33d 0870 a0bd
00000030: 8e92 8fbd c502 2f3b 9ca3 3c3c 47f7 dc3b
00000040: 6b1e e13d aa3c 34be 389f fe3c 4315 253d
00000050: d297 9abd 5ce8 29bd 3195 56bd fdf8 663d
00000060: a7e8 b8b8 c1fe 273c 58dd 52bc 425c 08be
00000070: 6ed9 4f3d 15ce 333c 3273 0abd 9f94 26be
00000080: 35c9 823d ea42 b53b 373f c1bd 1f35 88bd
00000090: 7a38 0a3d f06d 0abe 6bdc 8a3d 731d 5b3d
000000a0: f096 bfbc dc02 ddbc 5deb 8c3b dbda 9cbd
000000b0: 9c3c 5bbc 4214 c53d af45 1fbe cf63 93bd
000000c0: 88e0 0a3b a010 bdbc 2d25 22bd 8748 45bc
000000d0: 6640 803d d766 d4bd 3949 9abd 4f8f 99bd
000000e0: 6817 84bd 7e83 553d c8b3 d33d 0429 683c
000000f0: 89a5 86bc 1bce 4abd 93d9 6d3d 171b 9dbd
-0.096571416 0.14822352 -0.05723329 -0.0844166 0.032824576 0.046071988 -0.1470072 -0.095881395
-0.08748976 0.03611368 0.10333938 -0.07833868 -0.07010375 0.0026704532 0.011513617 0.006743345
0.1099213 -0.17601267 0.03108178 0.04030348 -0.07548489 -0.04148136 -0.052388374 0.056389797
-8.8171386e-05 0.010253609 -0.012870155 -0.13316444 0.050744466 0.010974427 -0.033801265 -0.16267632
0.063860334 0.0055316584 -0.094358854 -0.06650757 0.033745266 -0.135185 0.06780323 0.05349488
-0.023387402 -0.026978903 0.0043005184 -0.07658931 -0.01338115 0.096230045 -0.15553926 -0.07196771
0.002119096 -0.023079216 -0.039586235 -0.012041218 0.06262283 -0.10371178 -0.07533497 -0.07498037
-0.06449777 0.052127354 0.10337025 0.014169935 -0.016436355 -0.049512964 0.058068823 -0.076711826

weight f4 [128, 64]
00000000: e220 a03d 565b 333d bfeb 083d 1a64 a7bd
00000010: d390 b8bd 6bef 95bd 2c73 7c3d e51f 0ebd
00000020: 3c58 bdbd 9117 9b3d a1f0 0e3d 477d 0cbe
00000030: 91bf a23c 6b0c a43d 3b6b a4bd e751 3abd
00000040: 2d69 b63d 4267 35bd 31e4 f0bb 38dc dfbd
00000050: eda7 923d a662 fabd 34e3 77bd 1b18 6fbd
00000060: 2051 88bd 2ae4 df3d 75a4 c73d d1fd 01bd
00000070: 9123 7cbc 3a61 cb3c 4056 be3d 0f2c e1bd
00000080: 2192 86bd d893 30bd a51c 823d 7eaf 1e3d
00000090: 7fff 283d 9c2f 4d3d 7902 4a3d 8deb fcbd
000000a0: dbc0 5c3b 687e 20be 5822 ecbc a1ff a73d
000000b0: 7d28 c5bd 1890 06be 6540 86bd d36d 2d3c
000000c0: f810 c33c 5550 033d d269 2f3d 09c1 90bd
000000d0: 2827 023e 959b f9bd 0dee 85bd f184 c33d
000000e0: 0e54 853d 10a9 d93d 9b2f 083d 534a 10bd
000000f0: 9525 b8bd 0772 62bd 4a74 a43d 3067 bbbc
00000100: 5ed2 d1bd baac acbd 9ced e5bd a0c8 8fbd
00000110: eca5 15bd e24d a0bd 7af2 35bc 8219 ce3d
00000120: bcb3 8cbd d754 e83d f227 d73d f1f5 d43d
00000130: 490c 28bd 1715 dfbd dc99 603b dfb0 753d
00000140: 32f1 e7bb 7a8f bbbc d519 533d fcbd 85bd
00000150: 72fc a0bd 07f2 513d 4f76 d93d 8cab 69bb
00000160: e08e 17bd 5e6f 153d 3d8f 8fbd 4b5d 1abc
00000170: 1a4c e6bd f495 e43d 3d55 95bc 4741 003d
00000180: c407 eebc fe10 e3bd 6439 1dbd 70be d73d
00000190: 08c8 863d 3657 d7bd 29b3 393d 111c 7e3c
000001a0: 392e 68bd 4dc8 b1bd ccbe 96bd 525a d0bd
000001b0: 875a bb3d 6068 d83c d215 99bd a457 943d
000001c0: 8bab 5b3c 8082 6b3d 405a 213d 9525 14bd
000001d0: d971 8abc eb87 ce3d bfda 3ebc 0423 86bd
000001e0: eb7d df3c 2353 e33d 71b2 9abd 6784 e93c
000001f0: 5a8d ef3d 1270 9d3d 8cb3 8bbd 8908 e53c
00000200: 262d e03d a6d3 863d f7c9 1cbb 1531 033e
00000210: 7e2b b5bd a395 af3d fa7f 193e 627e 2d3e
00000220: 783b 0e3e 2ce8 de3d ca39 ee3d f8f3 d0bd
00000230: f343 8d3c c06d c7ba e685 14bc 299f 0e3e
00000240: d94a 27bd ee4e fd3c 5558 233e 0d3b 563d
00000250: b6df f33d 2cb2 7c3d 11db 26bd f641 b63d
00000260: c370 143e 3b9c b5bc 3bd6 7c3d c9e8 743e
00000270: 4e23 483c 5466 5a3c e732 36bd cb9a f4bd
00000280: e8c8 a73d bc36 31be ab40 9bbd 5784 673d
00000290: bb57 0f3e 7485 12bd 6d18 c23d 61d7 f33d
000002a0: a2c5 5ebd b9a3 c13c faea 283b a93d ae3d
000002b0: 1643 08be 7faf 7abc c10d 51bd 2570 083e
000002c0: bd45 4fbd 8a3f 0e3e 4df6 44be 505c 19bd
000002d0: 7aea cb3d 49f5 e1bd 1027 8c3c d426 f13b
000002e0: 5b8b 4e3d 7026 353e 16b8 aebd 8b95 edbd
000002f0: a616 d73d 6b5b 71be 9b32 b5bd a498 cd3c
00000300: b32d 8b3d 86db 753c 7328 85bd 5785 d0bc
00000310: 88be 013e 1cda a9bd 5add 4f3d 24b3 9f3d
00000320: d8e1 84bd 70db e5bd 505a 06b8 138e 99bd
00000330: bafb cfbd cf4f 003e 50fb ccbd 7cca ae3d
00000340: a443 863c e2e8 ae3a baea 2b3d fb92 ba3d
00000350: 3c18 ea3d 714a 0dbe edc8 98bd f58e 943a
00000360: 9607 3bbd 76ff eb3d 0e53 ddba d282 7abd
00000370: 5023 ac3c 4ac6 05bd 7fe8 df3d 84b3 b43d
00000380: b61d ae3d ca1a 023d 2cb2 b03d 8773 be3b
00000390: 7017 023d dad2 cbbd f3c2 593c 1ee8 8b3b
000003a0: d277 053e a16d a93c 1207 823d 0218 e0bd
000003b0: ac45 43bd a4ee 28bd ea21 3c3c e51b 13bd
000003c0: 8f28 19bb 3433 95bd c659 ae3d c3cd b23d
000003d0: 0704 7a3d a669 d63d 61df ea3d bebf 3fbd
000003e0: d110 f4ba 2923 b4bc 0d58 7bbd a057 843d
000003f0: 926a 6e3c d993 7ebd 61ff 023d 30c2 053a
0.07818772 0.043788277 0.03342795 -0.0817339 -0.09011998 -0.07321056 0.061633274 -0.034698386
-0.09245345 0.07572854 0.03489745 -0.13719665 0.019866737 0.08010181 -0.08028265 -0.045488264
0.089067794 -0.044287927 -0.0073514213 -0.10930675 0.071609356 -0.12225847 -0.060519412 -0.0583726
-0.06656098 0.10932191 0.097481646 -0.0317362 -0.015389339 0.024826635 0.09293795 -0.10994732
-0.065708406 -0.043109745 0.0635312 0.03874158 0.041259285 0.050094232 0.049318764 -0.12349615
0.0033684287 -0.1567322 -0.02882497 0.08203054 -0.09626863 -0.13140905 -0.06555251 0.010585266
0.023811802 0.032059032 0.042825527 -0.070680685 0.1271025 -0.12187878 -0.06539545 0.09546841
0.06510173 0.10627949 0.033248525 -0.03522713 -0.08991543 -0.055284526 0.08029993 -0.022876352
-0.102452025 -0.084313825 -0.11226961 -0.07020688 -0.03653519 -0.07827355 -0.011105174 0.10063459
-0.06870219 0.11344307 0.10505666 0.10398472 -0.04102734 -0.108926944 0.0034271395 0.05998313
-0.0070783133 -0.022895563 0.051538307 -0.06530377 -0.0786065 0.051256206 0.10618269 -0.0035655228
-0.03700149 0.03648316 -0.070097424 -0.009421657 -0.11244984 0.11161414 -0.018229121 0.031312253
-0.029056437 -0.110872254 -0.03838481 0.1053437 0.06581122 -0.10514681 0.045336876 0.015509621
-0.056684706 -0.086807825 -0.0736061 -0.10173477 0.09148126 0.026416957 -0.07474865 0.072432786
0.013407598 0.0574975 0.03939271 -0.036168654 -0.01689999 0.10084518 -0.011648833 -0.065496475
0.027281722 0.110998414 -0.07553566 0.028505517 0.116968825 0.07687391 -0.06821355 0.027958171
0.109461114 0.065833375 -0.0023924091 0.12811692 -0.08846186 0.08573463 0.14990225 0.16942742
0.13889873 0.10884127 0.11632116 -0.10202783 0.017244315 -0.0015215203 -0.009065127 0.13927902
-0.040842865 0.030921426 0.15951665 0.05230241 0.11907904 0.061693355 -0.04073626 0.088993
0.1449614 -0.022169223 0.061727744 0.23916925 0.012215449 0.013330061 -0.044482138 -0.11943587
0.08192617 -0.17306036 -0.07580694 0.056522693 0.1399831 -0.035771802 0.09477315 0.11906315
-0.054387696 0.02363764 0.0025774823 0.085078545 -0.13306841 -0.015300631 -0.051038507 0.1332403
-0.050603617 0.13891426 -0.19234581 -0.03744155 0.09956832 -0.110331126 0.01710847 0.007359365
0.05042587 0.17690444 -0.08531205 -0.11600789 0.10502367 -0.2357003 -0.08847543 0.025097199
0.06795826 0.015005952 -0.06501856 -0.025454206 0.12670338 -0.08293554 0.050748207 0.0779784
-0.06488389 -0.11223495 -3.20322e-05 -0.07497802 -0.10155435 0.12530445 -0.100088716 0.085347146
0.016389675 0.0013344551 0.0419719 0.091100655 0.114304036 -0.13797928 -0.074601986 0.0011334108
-0.04566153 0.11523335 -0.0016885714 -0.061159916 0.021012932 -0.032659806 0.10933017 0.088233024
0.08501761 0.03176383 0.086277336 0.005812112 0.031760633 -0.09952326 0.013291108 0.004269614
0.13033989 0.020682158 0.06349005 -0.10942079 -0.047673866 -0.04124321 0.011482695 -0.035915274
-0.0023370122 -0.07285157 0.08513217 0.08730652 0.061038997 0.104693696 0.114683874 -0.04681372
-0.0018620734 -0.021989422 -0.06136327 0.06462026 0.0145517755 -0.062152717 0.03198183 0.00051024836

bias f4 [128]
00000000: bc24 623d d4cf 1cbd 9736 c9bc 5616 2c3e
00000010: 9824 b93d b371 bdbd b70e bd3d b443 153d
00000020: 4bea d43d 0613 0e3e dea2 2e3e 16b9 f83d
00000030: 9e4f e6bd 7c61 003d cd81 f8bd 75a3 babd
00000040: 16e9 c23d cae3 803d 46db 053e 0c76 7a3d
00000050: 5d9c b23d 51c1 f8bc 9db9 263e 2049 e63c
00000060: 029f 2e3d dd43 033e 0307 26bd 3eaf de3d
00000070: 8e6e 433c 7f23 9a3d 4e28 3b3e bcab a2bd
00000080: d7da cb3d 1489 a33c 3f9a 5a3e 270e 22bb
00000090: c2cb b13c 36fd b53c 6720 32bc ad6d 243e
000000a0: b884 0dbd acbc b3bc 6129 bbba 94be e5bd
000000b0: 07dd f0bd ce22 dabc fa98 7a3c 8be6 083e
000000c0: 5555 9d3c f620 a33d f9a5 af3d 08c0 c1bc
000000d0: 35be 603e f8fb 243e 9f10 bebb 0f5a 603c
000000e0: 48bb 073c d461 b8bd c4f7 98bd a8d1 4cbd
000000f0: e77c 503c 5d61 773d c1aa 7b3d f59f 7dbc
00000100: 3cea f83d 0431 5c3d a8c6 443e e03c b93d
00000110: c401 74bb fbf5 083e 67d3 d93d 91db 593e
00000120: f2de a33d 375b 0fbd 1609 a0bd 522f 77bc
00000130: 6e3b 83bd e7c0 873b 5cef 71bd b331 70bc
00000140: 9fdb 123d 086e 043e 0920 363d 025d 973b
00000150: 5334 073d 7dd4 213e 8c60 a23d 1895 933c
00000160: 8eed b63d b9c7 20bd eda4 233c 7e2f 053b
00000170: 2c1a c13c 15b4 d9bd f471 b93d f594 533a
00000180: cca5 443d ccd6 213e 5a6b fcbc 57eb 0e3e
00000190: e510 293e 98d7 053e 62eb b33d 2f59 663e
000001a0: 542b 11bd 49c8 143d 25e1 a8bd 37e4 fc3c
000001b0: 2c66 e63b 55a8 3cbd 590f 283c 0293 033e
000001c0: 9a16 213e 552e 7dbc bf8e 423e fd9e 32bd
000001d0: 5b84 c0bd 4c8c f33d cb72 5a3e cdf2 90bd
000001e0: fa17 083e c55d dc3a cb8c c73d 5ffd fe3a
000001f0: 414b ea3c 8848 b53d 607b 82bc b44f 0b3e
0.055210814 -0.038284138 -0.024562163 0.16805395 0.09040183 -0.09250202 0.09231322 0.03644152
0.1039625 0.13874444 0.17054316 0.12144677 -0.112456545 0.03134297 -0.121341325 -0.09113208
0.09517114 0.06293447 0.13071927 0.061147735 0.0872123 -0.030365618 0.16281743 0.02811104
0.04263211 0.12818857 -0.04053403 0.108732685 0.011928214 0.075263016 0.18277094 -0.07942912
0.0995385 0.019962825 0.21347903 -0.0024727674 0.021703605 0.022215467 -0.010871983 0.16057463
-0.0345504 -0.021940552 -0.00142793 -0.112179905 -0.117609076 -0.026627924 0.0152952615 0.13369195
0.019205729 0.07965271 0.08576579 -0.023651138 0.21947558 0.16111743 -0.005800321 0.013693347
0.008284397 -0.09003034 -0.074691325 -0.05000463 0.012725092 0.060395587 0.06144214 -0.015480031
0.12154052 0.053757682 0.19216406 0.09044814 -0.0037232498 0.13375084 0.10636025 0.21275164
0.08001508 -0.0349991 -0.07814233 -0.015086966 -0.0640782 0.004142869 -0.05906616 -0.014660287
0.03585398 0.12932599 0.044464145 0.0046192417 0.033008885 0.15803714 0.07928571 0.01801543
0.08932029 -0.03925297 0.009988052 0.0020322497 0.02357205 -0.10630051 0.09054938 0.00080712076
0.04800968 0.15804595 -0.030812908 0.13956963 0.16510351 0.13070524 0.0878513 0.22494958
-0.03544171 0.03632382 -0.08246068 0.03087054 0.007031223 -0.04605897 0.010257565 0.12849048
0.15731278 -0.015452941 0.18999766 -0.043608654 -0.09400245 0.11891994 0.21332853 -0.070775606
0.13290396 0.0016812613 0.09743651 0.0019454173 0.028600337 0.08851725 -0.01592797 0.13604623

weight f4 [512, 128]
00000000: d49b a3bd e842 093d e1d9 82bd e147 12bd
00000010: 0b5c 313d d37a 65bd f97b debc 4042 b53d
00000020: 94f5 893c 59b2 cc3d bbb0 99bd b4d8 d03c
00000030: a1d7 e1bc b85c 9d3d 6e9d 9e3d 61aa 24bd
00000040: 7a74 80bd 0fe5 48bd 228b 86bd c847 5c3d
00000050: 5192 dd3b f60f b7bd 997a 20bd 8daf 363d
00000060: 1548 adbc 1a16 99bd 0b34 393c ab0f b1bc
00000070: 851b c73d 9db8 4d3b bffd 6cbc e17c aebc
00000080: ae51 4f3d 949d 183c ee97 643d 4eac 2f3d
00000090: 5b2f d33d 9006 793c 7707 74bc f0a9 f63c
000000a0: 1f31 573d 6f57 b0bb eb40 f03c 9bb5 9fbd
000000b0: 487f aa3d 9674 8bbc 225c 88bd 1790 803c
000000c0: 6d1c 6c3d 8f41 16bd a900 76bc d6f9 213d
000000d0: fc33 c83d 8b31 29bc b422 83bb 01d7 cabd
000000e0: 1f00 20bc a5e9 3f3d 689f 85bd 1719 603d
000000f0: 82f6 df3c fb67 6ebd 7ca3 603d b9dd 86bd
00000100: 9b31 5f3d d490 94bc 150b bd3b 133f bdbb
00000110: 33f3 9ebc b46b 21bd 48ff bd3b 76ac a9bc
00000120: f83e 223d 878e 9abd f21c 07bd f76e 88bc
00000130: b4a5 9ebc afbe c5bd 3a2b 9a3c 8d54 b1bc
00000140: 69c3 0bbd ad75 db3c 671a 893d c3ef 12bd
00000150: ffe0 543c 023d 85bd fb27 ce3c 5d86 a9bc
00000160: eaee b43d b00f ad3d 0dae 2d3c e900 4c3c
00000170: 31ae ddbc 9341 7a3d 3446 9c3c 2ffd 463d
00000180: 2251 193d 9e04 bb3d b469 693d 58f8 3c3d
00000190: fc12 c1bd 6962 fa3c d911 893d 6380 60bd
000001a0: 1f23 c4bc a1d2 153c 6919 0dbd 9141 97bd
000001b0: 7d9d 77bc 6cd4 273d 44cc 71bd c501 e6bb
000001c0: e1d9 2e3b cd89 b7bc cb3b 013d 0ece 1a3d
000001d0: c9a4 a5bd cb96 093e 65a2 7dbc 5dad f33c
000001e0: c877 853d c045 7fbd bf8d d43c df49 d03c
000001f0: f58a 913d 112e ccbc 68e3 93bd e5b3 c63c
00000200: 6eef 423c 6697 943d 9704 bcbd 0f8a d7bc
00000210: d63c cebc 89c3 3dbc a30c 0cbc 045e 35bd
00000220: 8c42 6abb aed4 8cbc 2e63 3cbd 3946 72bc
00000230: a4d7 d7bc 4870 ebbb 0eeb 923d 70b3 05bd
00000240: bd6f 09bd dbe1 8b3d 041b a53d f256 67bc
00000250: 87c6 cf3d 644f ef3c 8138 5f3d 7dc9 733d
00000260: ecba 6e3d 6c28 b9bc 5855 85bd f858 983d
00000270: c7e6 893d 2cb3 ab3d beae 8cbd a45b 58bd
00000280: b8fc 403d 2a7c 9c3a f396 c9bb 0707 55bd
00000290: 6ddc bcbd 3011 41bd 9476 18bd ccbc b8bd
000002a0: ece1 c13d 9cd9 973c 0f54 a43d 9ef6 9ebc
000002b0: 7a62 8cbc f4b3 5b3d d9c8 e239 4c2c d0bc
000002c0: 1e23 213c b70b 45bd 42c7 d63d 0c7c 40bd
000002d0: a2a4 3fbd 733c 93bd e6b0 d53d 61cc 85bd
000002e0: f8e7 be3d 60ec 033d e896 a4bd 5ac1 1138
000002f0: 2045 223d c098 89bd d3fe 83bc 1d80 883d
00000300: 63c6 9dbb 57fe f43c 5131 863b ba1a 2c3d
00000310: 3967 4e3d a7d0 723d 6b20 a43c b117 0ebd
00000320: 9f4b 74bd 3da4 043d a00a 1f3c 56ee f1bc
00000330: ab26 393d 0bdf 8ebb 9226 46bd b61b 403c
00000340: 27e6 913d 66b0 ff3b dbe5 35bd 4fbc 1dbb
00000350: 8f0c adbc 8b36 3e3b 0567 e0bc 241b d43c
00000360: 5106 24bd 8dac 97bd 52ed 8abc cbd6 a73d
00000370: 25e2 28bd 047c a6bc aa29 203d dbb9 6e3d
00000380: 0ab4 b23d 5cf1 43bd f24f 0f3d 75fd ae3c
00000390: 4caa babc 8c55 84bc e6e6 b4bc 6b34 8c3d
000003a0: 6cc7 6ebd b776 92bd 5366 973d 470a 9abd
000003b0: e57e 88bd ee82 7cbd 57c8 b33d 7b87 6b3d
000003c0: 07ab b73d b2da 233d d538 96bc 14b0 e83c
000003d0: ac05 533d 8bd0 de3c b9ad a93d 9e84 ae3d
000003e0: 1372 43bd 1e21 cabc f9f3 b1bd f516 77bd
000003f0: 9695 4cbd a641 4f3d 6fa8 e93b bfbe c8bc
-0.07988706 0.033511072 -0.06389213 -0.03571308 0.04330067 -0.056025337 -0.027158724 0.08850527
0.016840734 0.099949546 -0.07504412 0.025493957 -0.02756864 0.076837 0.07744871 -0.04020155
-0.06272216 -0.049046572 -0.06569506 0.053779393 0.006761827 -0.08938591 -0.03917942 0.044601012
-0.021152535 -0.07474919 0.011303912 -0.021613916 0.09722046 0.0031390556 -0.014464795 -0.021299781
0.050615005 0.009314913 0.055808954 0.042888932 0.10311767 0.0151993185 -0.014894358 0.03011033
0.05253708 -0.0053815166 0.02932783 -0.0779831 0.08325058 -0.017023366 -0.06658198 0.015693707
0.057644296 -0.036683615 -0.015014806 0.039544903 0.0977554 -0.010326753 -0.0040019397 -0.0990429
-0.009765654 0.04685368 -0.06524545 0.054711428 0.027339224 -0.058204632 0.05484341 -0.06585259
0.054490667 -0.018135466 0.0057691433 -0.0057753413 -0.019403076 -0.039409354 0.005798254 -0.020712119
0.039610833 -0.07546716 -0.03298659 -0.016654475 -0.019366123 -0.09655511 0.01881944 -0.021646762
-0.034121905 0.02678951 0.06694489 -0.035873186 0.012993096 -0.06505777 0.025165549 -0.020693952
0.08834632 0.08450258 0.010600579 0.012451389 -0.0270606 0.061097693 0.019076444 0.0485813
0.03743089 0.0913174 0.056985572 0.046135277 -0.09427449 0.030564504 0.06692857 -0.05480994
-0.023942528 0.009144456 -0.03444806 -0.07385553 -0.015113232 0.040974066 -0.059032694 -0.007019254
0.002668016 -0.022404576 0.031551164 0.037794165 -0.08088071 0.13436429 -0.015480612 0.029745752
0.06516987 -0.06232238 0.025946496 0.02542585 0.07106582 -0.02492431 -0.07221109 0.024255702
0.011897905 0.072554395 -0.09180563 -0.026310949 -0.025175493 -0.011582264 -0.008547935 -0.044279113
-0.0035745231 -0.017191257 -0.045993023 -0.01478725 -0.026347943 -0.007185016 0.071737394 -0.032641828
-0.033553828 0.06830188 0.080617934 -0.0141198505 0.10145288 0.029212661 0.054497246 0.059518326
0.05828373 -0.022602282 -0.06510419 0.074388444 0.067334704 0.08383784 -0.06869267 -0.05282177
0.04711601 0.0011938859 -0.0061520278 -0.052008655 -0.092217304 -0.047135532 -0.03722246 -0.09020385
0.09466919 0.018536381 0.080238454 -0.019404706 -0.017136801 0.053638414 0.00043255722 -0.025411747
0.009835033 -0.048106875 0.10487224 -0.0469933 -0.046787865 -0.07189264 0.10434131 -0.06533123
0.09321588 0.032207847 -0.080365956 3.4750767e-05 0.039616704 -0.06718588 -0.01611272 0.06665061
-0.0048149093 0.029906435 0.0040952344 0.042017676 0.05039141 0.059281018 0.02003499 -0.034690563
-0.05964243 0.032383192 0.009707123 -0.029532593 0.045202892 -0.004360085 -0.048376627 0.011725357
0.07123976 0.0078030108 -0.04440866 -0.002406854 -0.021124152 0.002902421 -0.027392874 0.025891848
-0.040045086 -0.07405958 -0.016958866 0.081952654 -0.041231293 -0.020322807 0.039102234 0.058282714
0.08725746 -0.0478376 0.03498835 0.021361092 -0.022786282 -0.016154073 -0.022082757 0.068459354
-0.058295652 -0.07151549 0.07392564 -0.075214915 -0.06664828 -0.0616483 0.08778446 0.05750225
0.08968168 0.040003486 -0.018337646 0.028404273 0.05151908 0.02719905 0.08285088 0.085213885
-0.04771621 -0.024673995 -0.08689112 -0.060324628 -0.049947344 0.050599717 0.0071306746 -0.024505017

bias f4 [512]
00000000: 9838 af3c 9674 c33d 85fa 663c b9d2 0c3d
00000010: 7e71 c2bc 3193 093e 5a8a b93d 2ccc 9ebd
00000020: 7ecd 1fbd a984 9ebd 1b44 8dbd 3be5 92bd
00000030: 875c a53d 2837 e53d bb72 5dbd 6f9d 2e3e
00000040: 4fac 96bd 5616 f0bc 8b33 f83d 3959 8f3d
00000050: 04a8 143d 21f9 5f3d 16fc c43d 6304 4e3c
00000060: 02fe 00bd 84f2 21bd de4f 9d3d 7b79 ce3d
00000070: 8089 a33b 74b0 3dbd f89e 0a3e 20a6 98bc
00000080: 5f7a 46bd 2ae3 8ebd a9ea 283b c087 283d
00000090: d44d 813d 42f0 4e3d 3bda afbd ea02 a83d
000000a0: 6cf4 90bc 9c64 0f3d 5f1c d0bc d4c8 4ebd
000000b0: 0d0b 93bd a6d0 793d c6e0 5f3b 4344 bfbc
000000c0: 38b2 5bbd 3abd 063e 1ff9 26bd e8cc eb3d
000000d0: f68e 66bd b61f d13c c44e 1abd 5764 413d
000000e0: afc6 2fbd 749a 993d df92 9bbd 74fe f23c
000000f0: 0c1c 4b3d edeb 06bd 0c3f e6bb 4370 943d
00000100: 93cd 85bd 263d c93c 6634 d43c 4e45 9d3c
00000110: 518d 473c 04af 33bd 6a71 893c b796 f13d
00000120: 5068 353d a395 e3bc 793f 37bd 03e9 8b3c
00000130: 4920 093e 08d3 c93d c4ee 843d 661c c7bc
00000140: 5355 fe3d d16e 853d e2c4 5ebd 0148 0dbd
00000150: a61f a5ba e198 3abd 5b0c 903d 3799 993d
00000160: 7b07 91bd b5bd 28bd 025e f43c 5fcb e7bc
00000170: b2bd 0f3e e2e4 e63d 0a00 9cbd c1ac 873d
00000180: e83d ec3b cba7 3c3d df83 273d 1fb9 8bbd
00000190: 09ff 253d eda9 b63b 9f46 45bd b719 ddbc
000001a0: 6190 0dbd 7aae 76bd c223 e13d 06bc 663c
000001b0: fed8 21bc 4396 b23b 6700 913d 245d 8f3d
000001c0: c385 d83d 6b7e 57bd 28bf 57bc f336 66bd
000001d0: ceb6 053e 835a aebd 926b 503d bcc6 96bd
000001e0: 8530 053d c016 e73c 91d5 5d3d e02e e53d
000001f0: 4125 acbd 4843 793b 7112 8abc 2e07 02bc
00000200: 3a55 a3bd b3ef 113e d075 b43d 4a49 d23d
00000210: 4ed5 273d e48b c3bc 5ea2 0fbc 8eac f13d
00000220: 7c7d 7bbd 32f2 38bd 0e9c a1bd ccd5 91bd
00000230: c6ff b53d 64b7 90bd 1372 ea3d 5866 6fbd
00000240: 6b38 9e3c 92b3 833d 0f2e b93d 7402 133e
00000250: 8cad 32bd fb01 ca3d 5c72 313c 62cd 93bd
00000260: 0283 a63b f4eb 02bd 0ad9 f138 b0e1 e23d
00000270: bf2e 373c ea41 8abb f4a7 eebc f2c9 78bd
00000280: 1a26 b13d 97da 7f3d 6950 8a3c 780d 9bbd
00000290: 8491 85bd 8e69 33bd e384 ae3b 88fd 86bd
000002a0: 38a2 14bd 4582 ab3b 8fcd 0d3e c87b 1bbd
000002b0: ff5c 8c3d 3f38 8f3d ba60 5d3d 5280 623c
000002c0: d744 fe3d 3d7a 833d ffec 283c 214f 2ebd
000002d0: 72ee a43d 7072 e93c de9e fe3d 7a37 e23c
000002e0: b5ec 4bba a25d fa3c 4125 72bd ce89 82bc
000002f0: 26db 42bc 4246 ae3d f803 3f3d 7545 d23c
00000300: 7677 a23c 7d00 09bd c6cf 693d f0e8 843d
00000310: 02bc 85bd c056 e9bc badf bb3d 4a05 61bd
00000320: 943b 0cbc e28d 4d3d 910e a1bd 76ab 3abd
00000330: 831f 233e 8cc9 893d cbbb 353d efa6 8dbd
00000340: aa06 273b 01a3 633b e9e5 dd3d bffe e23d
00000350: 8cfb 4fbd 0ee4 d9bc 9c57 8bbc 4592 81bd
00000360: ffd7 55bd 811f 31bc 7e68 b23c a1d1 903d
00000370: 182e 74bd 4148 e33c 32b4 2bbc 4511 a53d
00000380: 0db5 b0bd a16b 63bd db8f b53c 3677 863b
00000390: 9aaf bdbc 18ea 88bc 6292 6dbd c4db 3fbd
000003a0: 0966 98bd 8745 2e3d 2126 3cbc 727e 3c3d
000003b0: aae9 b0bd 0f67 cf3d f23a 49bd 3da8 33bd
000003c0: b914 65bd a37a e13c 80e2 f23d d5b4 233d
000003d0: 6fdb 7abd ed72 7d3d 3044 f7bc 5bda 323e
000003e0: f0d6 99bd eb3d 04bd 50f8 e23c 6b8f 583d
000003f0: c3c1 4e3d de69 21bd fe43 983d d954 8dbd
0.02138929 0.095437214 0.014097814 0.03438065 -0.023735758 0.13435055 0.090595916 -0.077537864
-0.039014332 -0.07740147 -0.06897756 -0.071726285 0.08074289 0.11192161 -0.054064494 0.17052244
-0.07357084 -0.029307526 0.12119206 0.0699944 0.036293045 0.054680947 0.09618394 0.012574288
-0.03149224 -0.03953792 0.07681249 0.10081764 0.0049907565 -0.046310857 0.13537204 -0.018633902
-0.048456546 -0.06976922 0.0025774634 0.041145086 0.06313673 0.050522096 -0.08586546 0.08203681
-0.017694674 0.035008058 -0.025404153 -0.050484493 -0.07179842 0.06099 0.0034161075 -0.02334798
-0.05363676 0.13158122 -0.040764924 0.11513692 -0.056288682 0.025527816 -0.037672773 0.047214832
-0.04291409 0.07500163 -0.07596373 0.029662348 0.049587294 -0.03293984 -0.0070265587 0.07247975
-0.06533351 0.02456529 0.025903892 0.019198086 0.012179689 -0.04386808 0.016777713 0.11796325
0.044288933 -0.027781313 -0.044738267 0.017078882 0.13391222 0.09854704 0.064908534 -0.024305534
0.12418618 0.06515277 -0.05438698 -0.034492496 -0.0012597933 -0.045555953 0.070336066 0.074999265
-0.07081505 -0.041196544 0.029829983 -0.028295217 0.14037207 0.11274125 -0.07617195 0.06624747
0.0072095282 0.046058457 0.040897246 -0.068224184 0.040526424 0.005574456 -0.048163053 -0.0269898
-0.03456152 -0.060224988 0.109931484 0.014082914 -0.009878395 0.0054500415 0.07080155 0.07000187
0.10572388 -0.052610796 -0.013168134 -0.056204747 0.13058016 -0.085133575 0.050883837 -0.07362124
0.032516975 0.02820909 0.05415875 0.11190581 -0.08405543 0.0038034488 -0.016854497 -0.007936282
-0.0797524 0.14251594 0.088115335 0.10267885 0.040974908 -0.023870416 -0.008766739 0.1180049
-0.061398968 -0.04515285 -0.07891093 -0.07120857 0.088866755 -0.07066229 0.11447539 -0.058447212
0.019314012 0.06430735 0.09041988 0.14356405 -0.04362254 0.09863659 0.010830488 -0.07216908
0.0050815353 -0.031963304 0.00011532202 0.11078203 0.011180579 -0.0042192833 -0.02913282 -0.060739465
0.086498454 0.062464323 0.016884046 -0.07570928 -0.065218955 -0.043801837 0.0053259 -0.06591326
-0.036287516 0.005234035 0.13847946 -0.037959844 0.06853675 0.0699315 0.054047324 0.013824539
0.12415474 0.064197995 0.0103104105 -0.042555932 0.08053292 0.02849695 0.12432645 0.027614344
-0.00077791075 0.030562226 -0.05911756 -0.015934851 -0.011893069 0.08509494 0.046634644 0.025667885
0.019832354 -0.03344773 0.057082914 0.06489742 -0.0653 -0.028483748 0.09173532 -0.054936685
-0.008559126 0.050184138 -0.078641064 -0.045573674 0.1592999 0.06727895 0.044368546 -0.06916606
0.002548615 0.003473461 0.108348675 0.11083745 -0.050777003 -0.026598003 -0.017009549 -0.06326727
-0.052207943 -0.010810734 0.021778341 0.070712335 -0.05961427 0.027744414 -0.010479974 0.080599345
-0.08628283 -0.055522565 0.022163322 0.0041035665 -0.023155022 -0.016713187 -0.05800093 -0.046840444
-0.07441337 0.042546775 -0.0114837 0.046019025 -0.08638318 0.10127079 -0.04912848 -0.043861616
-0.055927966 0.027524298 0.11859608 0.039967377 -0.061244424 0.06187718 -0.030183882 0.17466109
-0.07511699 -0.032285612 0.027706295 0.05287115 0.050477754 -0.039407603 0.074348435 -0.06900949

weight f4 [10, 512]
00000000: dfd5 9cbd 721d efbc 4a22 13bd 1640 cebc
00000010: b1e2 353e 784f 893d 0c6b 403d 2306 d2bc
00000020: 4382 1c3d a8d4 a63c bae4 0bbd cb60 11bc
00000030: a48b 133d 212c 123e 3c68 8e3c 5f72 463e
00000040: ab7d c9bd bf7b 66bd 87a9 9a3e 8196 4dbc
00000050: a793 143e 787d 463d 1acf 3b3e 94b8 323e
00000060: 10ec 11be 3312 33be 6537 a83e 68a5 583e
00000070: 861d 5b3c 08d6 e3bb de8c 973d c0da 9d3e
00000080: a85c eebb 440e 93bc 8a5d b6bb bfc9 603d
00000090: bdb6 b43d f89e f03c d08a 61ba 1f3e eabb
000000a0: 8b46 8f3e 70d7 6f3c 6e1e 7bbb 0d89 17bc
000000b0: c8ca b53a 210f 243e 496b efbc 8c32 d2bd
000000c0: 3a60 3f3e bdd4 323e ec85 b3bc 666e 553e
000000d0: b4e4 873c 1bca 9fbc f4cb 113c 4d21 243e
000000e0: 3ade b13d 9e09 cb3c 7d4b 22bb 0c20 babd
000000f0: 70a7 fb3c cf46 783e 81b3 ac3c 449c 2c3b
00000100: f387 1f3d a481 c5bd 5cc8 253d 94dd 22bd
00000110: 5169 4ebd 4bc6 97bd dfce 1b3d 9afb 14bd
00000120: 3ccd 023c 0309 9abc f712 8abd c42a 40be
00000130: d1be 3f3e e9be 033d 9609 bf3d dd5e e7ba
00000140: 9ebd e63d 14f9 d33e e5c2 13bd aede 793c
00000150: 4be8 3c3e 0b69 a3bc 3cb1 6e3e 7ec4 9dbd
00000160: 4db7 77be a150 adb9 5847 c3bc 3efd a0bc
00000170: 216c 823e e4ba f53d dd38 bebb fcb2 88bc
00000180: 8251 e6bd 87f9 cdbd becb 89bd d8b6 79bc
00000190: fec0 953c 2849 31ba 4071 743a 6dad e9bd
000001a0: 04d8 963d bb1c e03c 6ab4 043d 71b8 133e
000001b0: 2af3 953c 8b51 2a3d d53b df3d 8df9 7abc
000001c0: 26ca b2bc c05f 2f3d d9ac 29bc 1e67 5a3d
000001d0: 793b 723e c676 e8bc b87d d1bc 4772 0a3d
000001e0: 3d10 09bc c186 69bc 7928 123d 60ab 643e
000001f0: acd1 2f3d e414 c9bd 91c4 383e 4323 523c
00000200: 4aad af3c 7eae c13d 29d7 6a3e 7559 8b3e
00000210: aba6 09bd 7e0b 55be beb9 86bd f208 83bd
00000220: abcc b73c 2a39 14bd 2960 aebc 6060 43bb
00000230: 337a 7f3e 7917 32bd e1a8 793e 584d 8ebd
00000240: 4487 863e d4ff 223e b1b5 4f3d 1d20 993b
00000250: f8df 8cbc d66a 3f3e bc28 683b fbd4 9cbd
00000260: f0b1 323d 0cee a1bd b7e5 a53b bf85 5b3c
00000270: 613c 27bd 86a9 95bc 985f 07bd b6d5 103d
00000280: fee4 bcbc ad76 413e aa9b da3c 5612 8a3b
00000290: ba45 1a3d c866 27be 600d e9bc c929 f7bc
000002a0: cc3f f03c 722d 9e3d d781 ec3d 15ff f2bc
000002b0: d7ae dc3d c61f 64bd f055 acbd c41a f33d
000002c0: 035d 743d 3a47 7eba e190 dc3d fc03 efbc
000002d0: ae75 41bc 282b 2e3c 42b8 bc3d d045 ba3d
000002e0: 4132 06bd 36b2 1cbe 4599 93be 2176 d13d
000002f0: 8891 e63d 54bb d9bc 48ea 673c 601b 9ebd
00000300: b020 32be 701d e4bd f66c d3bc 9832 493e
00000310: a5ba 41be 3294 97bc e2bf f9bd 735b 83bd
00000320: 41c4 9f3c 7ee0 b9bc d804 c5bc c06f 753e
00000330: c1d0 1b3e ead3 923e e439 bebd 04b9 39be
00000340: a522 283d 5ad0 65bc e803 afbc f8a9 d23d
00000350: ddd4 e83c 9c59 a9bd bab9 02be 7c8d bdbd
00000360: 4914 343c bdc6 0bbe 3c18 b4bd 2698 e6bc
00000370: ae80 9a3c dec9 34bd 2d06 6bbe 71dc 923c
00000380: 7dc7 c83c c147 a1bd d9c1 203d 8095 f13d
00000390: 66cc 4e3d e40a 50be dcf2 9ebd 22a0 cd3c
000003a0: 80ed 233c 8e89 453e 284d 6ebd c0ff 083d
000003b0: 7aae e7bc 048c de3d 3f4a 65bd af6d 203c
000003c0: 155e c7bd b045 963e cdba 073e 6061 813a
000003d0: a1d4 ebbc 7cc9 023e 08d8 cebb a955 133e
000003e0: b156 4fbe 0c01 f7bc 1d71 0f3d 9e2e 973d
000003f0: 431d ce3d 4a0e 83bd 6747 4bbd e30b 2abd
-0.0765798 -0.029188845 -0.035921372 -0.025177043 0.17762257 0.067046106 0.046977088 -0.025637692
0.038210165 0.020365074 -0.034153678 -0.008873175 0.036021844 0.14274646 0.017383687 0.19379567
-0.098384224 -0.056270357 0.30207464 -0.01254809 0.1450945 0.0484595 0.18340722 0.17453223
-0.14250207 -0.17487411 0.32854763 0.21156847 0.013373738 -0.0069530047 0.07399915 0.30830956
-0.007274229 -0.017951138 -0.00556535 0.0548799 0.08823917 0.029372677 -0.00086037535 -0.0071485187
0.27983508 0.014638767 -0.0038317698 -0.009248984 0.0013869638 0.16021396 -0.029225962 -0.10263547
0.18689051 0.17463966 -0.021914445 0.20842895 0.016588546 -0.019505551 0.008898724 0.16028328
0.086849645 0.02478486 -0.0024764233 -0.09088144 0.030719489 0.24245761 0.021081688 0.0026338259
0.03894801 -0.096438676 0.04047428 -0.039762095 -0.050393406 -0.07410868 0.038039085 -0.03637276
0.007983502 -0.018803125 -0.067418985 -0.18766314 0.18725134 0.032164488 0.09328 -0.0017652173
0.11266635 0.4140097 -0.036074538 0.015250845 0.18447988 -0.01994755 0.23309797 -0.077034935
-0.24191017 -0.00033057205 -0.02383773 -0.019652005 0.2547312 0.11998537 -0.0058051185 -0.016686909
-0.11246015 -0.10057359 -0.06728314 -0.015241347 0.018280502 -0.0006762915 0.0009324737 -0.114100315
0.073654205 0.02735745 0.03239862 0.14425828 0.018304426 0.04158167 0.10900084 -0.015318287
-0.021824908 0.042815924 -0.0103561515 0.053320996 0.236555 -0.028376948 -0.025572643 0.03380039
-0.008365688 -0.014253319 0.03568313 0.22331 0.042924568 -0.09818438 0.18043734 0.01282579
0.021444935 0.0945711 0.2293364 0.27216688 -0.033606213 -0.20805165 -0.06578396 -0.063981906
0.02243646 -0.03618733 -0.021286087 -0.0029812083 0.24948959 -0.043479417 0.24380828 -0.06948346
0.26275074 0.15917903 0.050710384 0.0046730177 -0.01719664 0.18693098 0.003542467 -0.0765781
0.043626726 -0.07906732 0.0050627845 0.013398587 -0.040829066 -0.018269312 -0.03305015 0.03536006
-0.02305841 0.18892927 0.026685555 0.0042136116 0.037664153 -0.16347802 -0.02844876 -0.030171292
0.029327296 0.07723512 0.115482025 -0.029662648 0.107755356 -0.055694364 -0.08414829 0.118703395
0.059659015 -0.00096999446 0.10769821 -0.029176705 -0.011807842 0.010630406 0.09214832 0.09095347
-0.03276277 -0.15302357 -0.28827873 0.102276094 0.11258227 -0.026578583 0.014154978 -0.07720065
-0.17395282 -0.11138427 -0.025808793 0.19648206 -0.18918855 -0.018503282 -0.12194802 -0.06413927
0.01950276 -0.022690054 -0.024050161 0.2396841 0.15216352 0.28677303 -0.092883855 -0.18136984
0.041048665 -0.014026726 -0.021364167 0.10286325 0.028421814 -0.08269045 -0.12766162 -0.09255502
0.0109911645 -0.13650031 -0.08793685 -0.028148722 0.018860187 -0.044137828 -0.22951575 0.01792738
0.024509186 -0.07875014 0.039247368 0.11796093 0.0504879 -0.20316654 -0.077611655 0.025100771
0.010005355 0.19290754 -0.05817905 0.033447027 -0.02828144 0.108665496 -0.05597901 0.009791776
-0.097347416 0.29350042 0.13254853 0.0009870939 -0.028787913 0.12772173 -0.006312374 0.14388146
-0.20247914 -0.030151866 0.035019983 0.073819384 0.10064175 -0.0639921 -0.04962864 -0.041515242

bias f4 [10]
00000000: a8bc 253f ca3c 07be 9a18 eabd f587 edbd
00000010: 7b61 6f3e 8aac 0cbe 63ae 16be d4f8 09be
00000020: 99fa cbbd 4848 4abc
0.6474099 -0.13206783 -0.114304736 -0.11598197 0.2337703 -0.13737693 -0.14714961 -0.13473827
-0.09959907 -0.012346335
