system/models/Cifar10/CNN/FedPer_BaseHeadSplit_Cifar10_client_7.pt (torch, 542108 bytes, 10 tensors)

weight f4 [32, 3, 5, 5]
0	0x3b9fda95	0.004878352
1	0x3e036cab	0.12834422
2	0xbdeb21c1	-0.114810474
3	0xbdf54c63	-0.1197746
4	0xbac304c0	-0.0014878735
5	0xbc781feb	-0.015144329
6	0x3dacf5b5	0.084453024
7	0x3da913b6	0.08255713
8	0xbdd10720	-0.10206437
9	0xbc25632b	-0.010094444
10	0xbda32f19	-0.079679675
11	0x3d4fee72	0.05076451
12	0xbdaf8442	-0.08570148
13	0xbdd8aa7d	-0.10579393
14	0xbda47719	-0.080305286
15	0x3d09905d	0.03358494
16	0x3e1aaf6b	0.15105979
17	0x3e33f10f	0.17572425
18	0x3c9254dd	0.017862732
19	0xbb949cd8	-0.004535299
20	0x3dac933d	0.08426521
21	0x3e143111	0.14471842
22	0x3dc89014	0.09793106
23	0x3e88b1c3	0.2669812
24	0x3de72419	0.11286182
25	0x3bb5ee91	0.005552121
26	0x3e10fc3c	0.1415872
27	0xbe25dd34	-0.16197664
28	0xbe0f1146	-0.13971433
29	0xbb65385c	-0.003497622
30	0xbdf63a3c	-0.12022826
31	0x3e0a89e3	0.13529162
32	0xbe027394	-0.12739402
33	0xbe399314	-0.18122512
34	0xbe1c07df	-0.15237378
35	0xbe53a157	-0.20667015
36	0xbd84cea3	-0.06484725
37	0x3d5b925b	0.053606372
38	0xbd35f137	-0.044419494
39	0xbd324771	-0.043525163
40	0xbd85644d	-0.065132715
41	0xbd91fd23	-0.0712836
42	0x3be1c487	0.006889883
43	0xbe0ca761	-0.13735725
44	0xbe2e04da	-0.16994038
45	0xbe17c20a	-0.14820114
46	0xbcf70deb	-0.030158004
47	0x3ced28d0	0.028950125
48	0xbd34c5b6	-0.044133864
49	0xbd7b33bf	-0.061328646
50	0x3de4297c	0.11140725
51	0x3e5f0fbf	0.2178335
52	0x3d9a7b1f	0.07543015
53	0x3cef0a6d	0.029179776
54	0x3e31d6a1	0.1736703
55	0xbdb49e61	-0.08819271
56	0x3e0b2fd1	0.1359246
57	0xbd45845d	-0.048221935
58	0xbdf81fa7	-0.12115412
59	0xbd675413	-0.056476664
60	0x3ca2ac2c	0.019857489
61	0x3e011520	0.12605715
62	0xbd15f7a8	-0.036613137
63	0x3bafea30	0.0053684935
64	0x3ccd86a7	0.025088621
65	0xbc71988f	-0.014745845
66	0x3d851d4e	0.0649973
67	0x3dab06b8	0.08350891
68	0x3dbe0496	0.092782184
69	0x3d91974a	0.07108934
70	0xbdd6d4a6	-0.10489778
71	0xbd98dcac	-0.07463965
72	0x3d92b316	0.07163064
73	0x3e1f185c	0.15536636
74	0x3db4fa31	0.08836783
75	0x3d799da0	0.06094134
76	0x3daf77cb	0.085677706
77	0xbd7e487f	-0.062080856
78	0xbd96dc64	-0.07366255
79	0xbddeda09	-0.10881431
80	0xbe0ecfaa	-0.13946405
81	0x3de531d4	0.111911446
82	0x3d983ce7	0.07433491
83	0xbe11aba7	-0.14225636
84	0x3e0b8cb1	0.13627888
85	0xbdd3a359	-0.103338905
86	0xbe956c58	-0.29184222
87	0xbe4a3a0c	-0.19748706
88	0x3ecdc29f	0.40187547
89	0x3e6a76a5	0.22896822
90	0x3d0d1bf0	0.03445047
91	0xbcbec0ba	-0.023285259
92	0x3e463ff0	0.19360328
93	0x3deb3710	0.11485112
94	0xbea6b1c8	-0.3255751
95	0x3cf0a51e	0.029375609
96	0x3e4ecd3f	0.20195483
97	0x3df7b607	0.12095266
98	0xbe800d50	-0.25010157
99	0xbe560384	-0.20899779
100	0x3db28dd3	0.08718457
101	0x3e3b211d	0.1827435
102	0x3c2b0dde	0.010440318
103	0xbdcb7f77	-0.09936421
104	0xbdfb03b5	-0.122565664
105	0xbd9322ef	-0.071843974
106	0xbdb74d71	-0.08950318
107	0xbdd5abf0	-0.10433185
108	0xbca23b8a	-0.019803781
109	0x3e21c9ff	0.15799712
110	0xbe24793c	-0.16061872
111	0xbe438417	-0.19093357
112	0xbe36d6cc	-0.17855376
113	0x3efd5200	0.49476624
114	0x3ecbc880	0.39801407
115	0xbde1e963	-0.11030843
116	0xbd7bcbc9	-0.06147364
117	0x3e27e7b1	0.16396977
118	0x3d94b9b0	0.072619796
119	0xbe7c22da	-0.2462267
120	0x3db28bb6	0.08718054
121	0x3e18a110	0.1490519
122	0x3c501db3	0.012702393
123	0xbe589324	-0.2114988
124	0xbebf7c60	-0.37399578
125	0xbd652b19	-0.055949304
126	0x3cf10c73	0.029424882
127	0xbceba028	-0.028762892
128	0xbdce345f	-0.10068583
129	0xbd863060	-0.065521955
130	0xbc9ec7bc	-0.01938235
131	0x3c7b7335	0.015347292
132	0xbdd79ce1	-0.10527969
133	0xbd057c23	-0.03258909
134	0x3e52795b	0.20554106
135	0x3c744000	0.014907837
136	0xbe46adb3	-0.19402198
137	0xbe0adef6	-0.13561615
138	0x3eaa444a	0.33255225
139	0x3ea98161	0.3310652
140	0x3e83c1e3	0.2573386
141	0x3dc5c2bb	0.096562825
142	0x3e6c3d66	0.23070297
143	0xbb84567d	-0.0040386305
144	0xbebee36c	-0.37282884
145	0x3e273850	0.16330075
146	0x3e945488	0.28970742
147	0x3da8e9d3	0.082477234
148	0xbe88f4a2	-0.2674914
149	0xbe87f284	-0.26552212
150	0xbe4548e9	-0.19266094
151	0xbe1ec984	-0.1550656
152	0xbbe9787f	-0.00712496
153	0x3e1b84bd	0.15187354
154	0x3e00df71	0.12585236
155	0xbe3ab43b	-0.18232815
156	0x3d3a8967	0.045541193
157	0xbd9b862f	-0.07593953
158	0x3b498476	0.003074912
159	0xba3c86c4	-0.00071917125
160	0x3c16aa40	0.009195864
161	0xb90d5e90	-0.00013482035
162	0xbe1dd05a	-0.15411511
163	0xbe271715	-0.16317399
164	0x3b42929b	0.0029689434
165	0x3dba1aa3	0.09087112
166	0xbc87fc30	-0.016599745
167	0xbcd7e64f	-0.026354937
168	0xbe6afdad	-0.22948332
169	0xbdbfdacc	-0.09367904
170	0x3e2e922b	0.17047946
171	0x3bd4413a	0.006477502
172	0x3de25653	0.11051621
173	0xbd4bc3d5	-0.049747307
174	0xbe69dd7f	-0.228384
175	0x3d9e628c	0.0773364
176	0x3bdba4b8	0.0067029856
177	0x3cbd0cb7	0.023077352
178	0x3e4aa0c9	0.19787897
179	0xbd2963d0	-0.041354954
180	0x3ca6f8e2	0.020382348
181	0x3bd77db7	0.0065762657
182	0x3e03043a	0.12794581
183	0x3d6d241c	0.057895765
184	0x3d9d9165	0.076937474
185	0x3deca7c6	0.11555438
186	0x3c86df51	0.016463907
187	0xbd89f9a7	-0.067370705
188	0xbe21793e	-0.15768906
189	0x3d928cfd	0.07155798
190	0x3e32ba15	0.17453797
191	0x3dd92be5	0.10604075
192	0xbe18ad41	-0.14909841
193	0xbddaa95d	-0.10676835
194	0xbe22485a	-0.15847912
195	0xbd117243	-0.03550936
196	0xbd481096	-0.048843943
197	0x3d002540	0.031285524
198	0xbe287c22	-0.16453603
199	0xbdf69e8e	-0.12041961
200	0xbc6bbc9c	-0.01438823
201	0x3d3d1e1a	0.046171285
202	0xbdad0ec3	-0.08450081
203	0xbd705b7f	-0.058681007
204	0xbdb84c2d	-0.089989044
205	0x3d8a9854	0.067673355
206	0xbd4215b3	-0.047383975
207	0x3dc641a4	0.09680489
208	0x3c5f478c	0.013627898
209	0xbcbd552e	-0.023111906
210	0x3d558dc4	0.05213715
211	0x3c033457	0.008008084
212	0xbcec497b	-0.028843632
213	0xbdcacf95	-0.099028744
214	0xbcaeaef8	-0.021323666
215	0x3de73d2b	0.11290964
216	0xbcd589b7	-0.026066644
217	0xbda4a456	-0.08039157
218	0x3c49ec24	0.012324367
219	0xbe264439	-0.16236962
220	0x3dd38c81	0.10329533
221	0x3e701942	0.23447135
222	0x3e08eea2	0.13372281
223	0xbca3f5ad	-0.020014608
224	0xbe2d28ec	-0.16910142
225	0x3dc3379a	0.095320895
226	0x3c865744	0.016399033
227	0xb95352af	-0.0002015333
228	0x3d0ededc	0.034880504
229	0x3cef019e	0.029175576
230	0xba5bc159	-0.0008382998
231	0x3de7e15d	0.113222815
232	0xbd705439	-0.05867407
233	0x3d8c7a8a	0.0685931
234	0xbaa5897b	-0.0012629473
235	0xbd2d70d7	-0.04234394
236	0x3e1d82d2	0.15381935
237	0xbdf99d25	-0.12188176
238	0xbd1fb2b8	-0.0389888
239	0x3cc81f64	0.02442903
240	0x3cc50c22	0.024053637
241	0x3e5c4ddd	0.21514077
242	0xbd865c35	-0.06560556
243	0x3db9e2bd	0.0907645
244	0x3de7825c	0.11304161
245	0xbe4cc355	-0.19996388
246	0x3d9c7a9a	0.07640572
247	0xbe8e404f	-0.2778344
248	0x3b233cec	0.0024908138
249	0xbda0cd44	-0.07851651
250	0xbde244eb	-0.11048301
251	0x3d570d3f	0.052502867
252	0x3dab364e	0.08359967
253	0x3c86a790	0.016437322
254	0xbd6939c5	-0.05693986
255	0xbde3bf52	-0.11120476

bias f4 [32]
0	0xbe258e9e	-0.16167685
1	0xbeb36642	-0.35038954
2	0xbef604f6	-0.4805066
3	0xbe0b25f1	-0.13588692
4	0xbed7d4a5	-0.42154422
5	0xbe1ed8b8	-0.15512359
6	0xbdd747ef	-0.10511767
7	0xbf06bf27	-0.52635425
8	0xbeaeb981	-0.34125903
9	0xbe28210f	-0.16418861
10	0xbebfc7b3	-0.37457046
11	0xbd119552	-0.035542794
12	0xbeb24450	-0.34817743
13	0xbe1af861	-0.15133812
14	0xbe4b3bf7	-0.19847094
15	0xbefabc44	-0.4897176
16	0xbec29203	-0.38002023
17	0xbdf60d93	-0.12014308
18	0xbec04ac0	-0.3755703
19	0x3bc79bf4	0.006091589
20	0xbe57fbf3	-0.21092205
21	0xbe5c14dd	-0.21492334
22	0xbed1ea3e	-0.40999025
23	0xbe15549f	-0.14583062
24	0xbe110f5d	-0.14166017
25	0xbe74f1ce	-0.23920366
26	0xbf07dc4d	-0.5307053
27	0xbe3c540f	-0.18391441
28	0xbe020c7a	-0.12700072
29	0xbe92dabe	-0.28682512
30	0xbeae5c3d	-0.34054747
31	0xbdde95f2	-0.108684435

weight f4 [64, 32, 5, 5]
0	0xbccc8abf	-0.024968503
1	0x3bc3ea7f	0.005978882
2	0x3d049006	0.032363914
3	0x3d6667dc	0.05625139
4	0x3d3ab24d	0.045580197
5	0xbd28ba03	-0.04119302
6	0xbc6d5ba6	-0.014487183
7	0xbb8e65f6	-0.004345651
8	0x3d0745ef	0.03302568
9	0x3cbc5f98	0.022994801
10	0x3c1ca56f	0.009560927
11	0xbcbfba3b	-0.023404231
12	0xbc234eca	-0.009967515
13	0x3d7d1d54	0.061795548
14	0x3c13e996	0.009027859
15	0x3bf96e97	0.0076120603
16	0xbcfe8a5a	-0.03107183
17	0xbcbebd59	-0.023283647
18	0xbbed730d	-0.007246381
19	0x3a120743	0.000557054
20	0xbc00e27c	-0.007866498
21	0xbcbbc148	-0.022919312
22	0x3ce3bfad	0.02780136
23	0xbc1e6f15	-0.009670039
24	0xbd091bf0	-0.03347391
25	0x3d862972	0.06550874
26	0x3d19b8bd	0.037529696
27	0xbc8c6561	-0.017138185
28	0x3c357841	0.011076034
29	0xbd34ad9e	-0.044110887
30	0x3d05df3b	0.032683592
31	0xbca84d22	-0.020544592
32	0x3d40aa37	0.04703733
33	0x3d0711fb	0.032976132
34	0x3cb87fe0	0.022521913
35	0x3ca5fe87	0.02026297
36	0xbcabaeb5	-0.02095733
37	0x3d5bad40	0.05363202
38	0xbb03c585	-0.0020106744
39	0xbc875449	-0.016519682
40	0xbce0234b	-0.027360579
41	0xbc054706	-0.008134609
42	0x3cf8ae01	0.030356409
43	0xbc3a739d	-0.011380103
44	0x3ccd2906	0.025043976
45	0xbb3623eb	-0.0027792405
46	0xbc3fa8e7	-0.011697984
47	0x3b1195b4	0.0022214474
48	0xbc16aef3	-0.009196985
49	0x3cb0c447	0.021577967
50	0xbd0635e5	-0.03276624
51	0xbca001bf	-0.019532083
52	0xbd8b6b2f	-0.06807553
53	0xbd65d0ef	-0.056107458
54	0xbb0db220	-0.0021621063
55	0x3bdcfb99	0.00674386
56	0xbcec2ceb	-0.028830012
57	0xbcf3343a	-0.02968799
58	0xbd2ca250	-0.04214698
59	0x3c8cb7ef	0.01717755
60	0x3d088f3c	0.033339724
61	0x3d09195a	0.033471443
62	0xbd042452	-0.0322612
63	0x3c1978a0	0.009367138
64	0x3d2c79ef	0.042108472
65	0x3d5e8cc9	0.054333482
66	0xbd0debf0	-0.034648836
67	0x3c9c184f	0.01905456
68	0x3d060cc8	0.032727033
69	0x3ce1fca7	0.027586294
70	0x3ae487fe	0.0017435548
71	0x3d6a6c53	0.057232212
72	0x3b9e0447	0.0048222872
73	0xbc886827	-0.016651226
74	0x3b88aeab	0.0041712127
75	0x3d1caac0	0.038248777
76	0xbcb844f6	-0.02249382
77	0x3cd6a2e2	0.026200715
78	0xbaf1c43d	-0.0018445324
79	0x3cc63e0d	0.02419951
80	0x3cabda93	0.020978248
81	0x3ca6cf40	0.020362496
82	0xbcb02c10	-0.021505386
83	0xbbc0efe1	-0.005887971
84	0x3c8e3574	0.017359473
85	0xbd07b457	-0.03313097
86	0x3ca48fde	0.020088132
87	0xbc498d86	-0.012301808
88	0xbbbddb09	-0.0057939333
89	0x3cad8e54	0.021186031
90	0xbccf24ab	-0.02528604
91	0xbca8114c	-0.02051606
92	0x3cbc0a4c	0.022954129
93	0xbcf4c242	-0.029877786
94	0x3c9d5ec9	0.019210236
95	0xbd1fe455	-0.039036114
96	0xbc6f35e5	-0.014600252
97	0x3af56a03	0.001872361
98	0xbc692370	-0.01422964
99	0xbd6d6bf1	-0.05796427
100	0x3c42961b	0.011876608
101	0xbca17e42	-0.019713525
102	0x3c9fdc97	0.019514365
103	0xbd5a0668	-0.053228766
104	0xbd93d66e	-0.072186336
105	0xb9fad9ff	-0.00047846136
106	0xbc4162fb	-0.011803384
107	0xbd1f8241	-0.03894258
108	0xbd1dd3d1	-0.038532082
109	0xbd8bf15b	-0.06833144
110	0xbceb1bfa	-0.028699864
111	0x3b0fa2dc	0.002191714
112	0xbbc87a77	-0.0061181146
113	0xbd2c6680	-0.04208994
114	0xbcbe9dff	-0.023268698
115	0x3bf790b8	0.0075550936
116	0xbcbcb233	-0.02303419
117	0x3d09ad36	0.033612452
118	0x3be241b7	0.0069048065
119	0xbb949081	-0.004533828
120	0xbd09a8a0	-0.03360808
121	0x387edd70	6.076455e-05
122	0x3d2d8dca	0.04237155
123	0x3d25911e	0.040421598
124	0xbcfcc889	-0.030857341
125	0xbbda72e4	-0.006666528
126	0xbcba78c3	-0.022762662
127	0xbca873cf	-0.020563034
128	0xbd8082f6	-0.06274979
129	0xbd8edb32	-0.06975402
130	0x3c8a4962	0.016880695
131	0xbc361af2	-0.011114823
132	0xbca62741	-0.02028239
133	0xbcc013cd	-0.023446942
134	0xbd5bd7d5	-0.05367263
135	0xbd01e2f1	-0.03171057
136	0x3cc63a32	0.024197672
137	0xbcf530ef	-0.02993056
138	0xb9efca8a	-0.00045736536
139	0xbcef7dac	-0.02923473
140	0xbc56e9d1	-0.01311727
141	0x3c79f5cd	0.015256357
142	0xbbd21cf8	-0.0064121448
143	0xbc9159a1	-0.017742934
144	0xbd850e7f	-0.064969055
145	0x3c11b10e	0.008892311
146	0x3c104e85	0.008807783
147	0xbcea84ce	-0.02862778
148	0xbd6947c6	-0.056953214
149	0xbc37a591	-0.011208908
150	0x3abd0c29	0.001442318
151	0x3bbb84a9	0.0057226014
152	0xbcc90524	-0.024538584
153	0x3b25b015	0.0025281955
154	0x3c70f36a	0.014706472
155	0x3d606960	0.054787993
156	0x3c2a7a5d	0.01040515
157	0x3cc1a24a	0.023636956
158	0x3be6069a	0.00701983
159	0x3baeefab	0.0053386292
160	0x3c8d3a19	0.017239617
161	0x3c42da42	0.011892857
162	0xbd06a7d9	-0.032874916
163	0x3cd9a712	0.026568923
164	0x3d51601a	0.05111704
165	0x3d5619d2	0.052270718
166	0x3ccb1d9a	0.024794389
167	0x3bdb82bd	0.006698935
168	0x3d21799d	0.03942262
169	0xbbc44ed9	-0.0059908447
170	0x3c0dd167	0.008655882
171	0xbcd7f66e	-0.026362624
172	0xbcbc3a16	-0.022976916
173	0x3a89dbaf	0.0010517741
174	0x3a8e7bcf	0.0010870638
175	0xbc7a9e96	-0.015296599
176	0xbc789802	-0.01517296
177	0xbd8792a5	-0.06619767
178	0xbd86eecf	-0.06588518
179	0xbcf96302	-0.030442718
180	0xbc878a43	-0.01654542
181	0xbc4fdcaf	-0.012686892
182	0xbd492b8d	-0.0491138
183	0xbd280c42	-0.041027315
184	0xbd6d7679	-0.057974312
185	0xbbd2bc14	-0.006431112
186	0x3c8b2ed6	0.016990107
187	0x3d393be4	0.04522313
188	0xbc540270	-0.012940034
189	0xbcc98a4d	-0.02460208
190	0x3c603493	0.01368441
191	0x3c408c62	0.01175222
192	0xbc88dd43	-0.016707068
193	0xbd4a7b6b	-0.049434107
194	0x3be56907	0.0070010456
195	0xbd97a83a	-0.074051335
196	0xbca34c4d	-0.019933844
197	0xbb0ebbe6	-0.0021779477
198	0xbb9bac12	-0.004750737
199	0xbb9588eb	-0.004563441
200	0xbd4eb517	-0.05046567
201	0x3cb74f89	0.022376793
202	0x3cae7541	0.021296145
203	0x3d9264be	0.07148121
204	0x3c8a188a	0.016857404
205	0x3b1cc5ad	0.0023921535
206	0xbb96c3aa	-0.0046009617
207	0xbc69e7fc	-0.014276501
208	0x3b8e4b76	0.0043424917
209	0x3b9deff3	0.004819864
210	0xbcadfe5a	-0.021239448
211	0xbc02ed62	-0.007991167
212	0x3cc38b70	0.0238702
213	0x3d48de9f	0.049040433
214	0x3cc56225	0.02409465
215	0x3b7bbaf2	0.0038410989
216	0x3cc2e1f8	0.02378939
217	0x3bac764d	0.005263126
218	0x3c907674	0.017634608
219	0x3d0ef155	0.03489812
220	0x3cc5630b	0.024095079
221	0xbd3f0a09	-0.04664043
222	0xbc3339ec	-0.010939103
223	0xbc8f1169	-0.017464356
224	0xbcc2f8d5	-0.023800293
225	0x3bead9b0	0.0071670637
226	0x3ccbbbcb	0.02486982
227	0x3cf26f6b	0.029594144
228	0xbd284cf4	-0.041089013
229	0x3be2deee	0.006923548
230	0x3d101334	0.035174564
231	0x3b830837	0.003998782
232	0xbb466407	-0.0030272023
233	0x3cb28f0d	0.021796728
234	0x3c131de9	0.008979299
235	0x3ae7f5ca	0.0017697152
236	0xbba559bd	-0.005046098
237	0x3c7f8768	0.015596248
238	0x3c84c4ad	0.016207064
239	0x3bd02f41	0.0063532894
240	0x3a29c64c	0.0006476387
241	0x3c9b3944	0.018948205
242	0xbc86d83c	-0.01646053
243	0x3c688cba	0.014193708
244	0x3c33008d	0.010925424
245	0x3b2f62d9	0.0026761799
246	0xba09fcae	-0.00052637875
247	0x3cad39e1	0.021145763
248	0xbd086698	-0.033300966
249	0xbcc93ecb	-0.024566075
250	0xbc9a40e1	-0.018829765
251	0x3d226e52	0.03965599
252	0xbc2f43ac	-0.010697287
253	0x3d0213c5	0.031757135
254	0xbbcf3163	-0.006323026
255	0xbc62570b	-0.013814698

bias f4 [64]
0	0xbdb683a7	-0.089118294
1	0x3e0d9b19	0.13828696
2	0xbd4adafa	-0.04952524
3	0xbd8c8042	-0.06860401
4	0x3d294c9a	0.04133282
5	0x3d27f6d8	0.041006893
6	0xbe0e4534	-0.13893586
7	0xbdc6ef7f	-0.09713649
8	0xbdb2e008	-0.08734137
9	0x3d24fa6e	0.04027789
10	0x3ddb2701	0.10700799
11	0xbda23e46	-0.07922034
12	0xbd74ba20	-0.059747815
13	0xbb7cfc15	-0.00386024
14	0x3a9fc6d9	0.0012189999
15	0x3ba904e4	0.0051580537
16	0x3de518ee	0.111863956
17	0xbe535f04	-0.20641714
18	0x3cfa6dc3	0.030569917
19	0x3d33acc5	0.043865938
20	0xbd9a4e53	-0.075344704
21	0xbcf38172	-0.02972481
22	0xbd76fe98	-0.060301393
23	0x3d4cd696	0.050009333
24	0xba796806	-0.0009514097
25	0x3c25be2f	0.010116144
26	0xbc216aaa	-0.009852091
27	0xbe0863f2	-0.13319376
28	0x3d4c8787	0.049933936
29	0x3cc59d64	0.024122901
30	0xbd55dad5	-0.052210648
31	0xbe1b28c0	-0.15152264
32	0x3d89f372	0.06735887
33	0x3c7959ac	0.015219133
34	0xbdb42dcf	-0.087978
35	0xbd8bd457	-0.0682761
36	0x3d022ed4	0.03178294
37	0xbe0ab216	-0.13544497
38	0x3d8d0905	0.06886486
39	0x3d562158	0.052277893
40	0xbce64193	-0.02810744
41	0xbd0587da	-0.03260026
42	0xbb24b6d5	-0.002513339
43	0xbd6e962e	-0.05824869
44	0xbc9ffb6e	-0.01952907
45	0x3dee00dc	0.11621258
46	0xbe22dfdc	-0.15905708
47	0xbd86c74f	-0.06580984
48	0xbc083a6d	-0.008314711
49	0xbcb9f611	-0.022700341
50	0xbd17409b	-0.036926847
51	0xbc50aa1f	-0.0127358725
52	0x3d75b46f	0.059986528
53	0xbdd6814a	-0.10473879
54	0xbd8ddfea	-0.06927474
55	0xbda30f3b	-0.07961889
56	0xbd84fa65	-0.064930715
57	0x3d4a8aaa	0.049448647
58	0x3de0c5f1	0.10975254
59	0x3ccf7c0f	0.02532771
60	0xbc6be39d	-0.014397529
61	0xbd46d4d3	-0.04854281
62	0x3d96413c	0.07336661
63	0xbd8f0228	-0.06982833

weight f4 [128, 64]
0	0x3da0bd10	0.07848561
1	0x3d3565fe	0.04428672
2	0x3d07c746	0.033149026
3	0xbda6ca1d	-0.08144019
4	0xbdbbe13c	-0.091738194
5	0xbd954648	-0.07288796
6	0x3d78d0da	0.06074605
7	0xbd10d937	-0.035363402
8	0xbdbddfaf	-0.0927118
9	0x3d9b5ac1	0.07585669
10	0x3d0ef443	0.034900915
11	0xbe0cd26f	-0.13752149
12	0x3c9b98ea	0.018993814
13	0x3da3c0c1	0.07995749
14	0xbda52a01	-0.08064652
15	0xbd3d95bd	-0.04628538
16	0x3db3ae97	0.08773535
17	0xbd339781	-0.043845657
18	0xbbe76572	-0.007061654
19	0xbdde259a	-0.10847016
20	0x3d925d12	0.07146658
21	0xbdfb2d68	-0.1226452
22	0xbd76dee5	-0.060271163
23	0xbd72dc66	-0.05929222
24	0xbd87c3ac	-0.06629118
25	0x3dddff52	0.10839714
26	0x3dc89427	0.09793883
27	0xbd035935	-0.032067496
28	0xbc8a6424	-0.016893454
29	0x3ccda32a	0.025102217
30	0x3dbe8bd6	0.09304015
31	0xbde14263	-0.109989904
32	0xbd86c300	-0.06580162
33	0xbd3675d5	-0.044545967
34	0x3d83431c	0.064092845
35	0x3d1e905e	0.038711898
36	0x3d291ee7	0.041289236
37	0x3d4b0f59	0.049575184
38	0x3d53352d	0.051564384
39	0xbdfb6399	-0.12274856
40	0x3b2d11e7	0.0026408376
41	0xbe20dc2a	-0.15708986
42	0xbcdcc717	-0.026950402
43	0x3da85022	0.08218409
44	0xbdc6fc7b	-0.097161256
45	0xbe070f9d	-0.1318955
46	0xbd85f0c7	-0.06540065
47	0x3c301a0d	0.0107483985
48	0x3cc3b22d	0.023888672
49	0x3d00b002	0.031417854
50	0x3d27d23e	0.040971987
51	0xbd8fd219	-0.07022495
52	0x3e008d11	0.12553813
53	0xbdfba5ec	-0.122875065
54	0xbd861866	-0.065476224
55	0x3dbf8633	0.09351768
56	0x3d85e042	0.065369144
57	0x3dda33bd	0.106543995
58	0x3d0914ca	0.03346709
59	0xbd10b605	-0.035329837
60	0xbdb6f378	-0.08933157
61	0xbd5ed5cf	-0.054403123
62	0x3da57388	0.080786765
63	0xbcb9b928	-0.022671297
64	0xbdd1d244	-0.10245183
65	0xbdacac54	-0.084313065
66	0xbde5ed9c	-0.11226961
67	0xbd8fc77a	-0.07020469
68	0xbd15a500	-0.03653431
69	0xbda04dd4	-0.078273445
70	0xbc35f27a	-0.011105174
71	0x3dce19c3	0.100635074
72	0xbd8cb317	-0.06870096
73	0x3de854d7	0.11344307
74	0x3dd72992	0.10505976
75	0x3dd4f955	0.10399119
76	0xbd280b6b	-0.041026514
77	0xbddf141e	-0.10892509
78	0x3b60a0a8	0.0034275446
79	0x3d75b105	0.059983272
80	0xbbe7e577	-0.007076915
81	0xbcbb8f3b	-0.022895446
82	0x3d531cf4	0.051541284
83	0xbd85bce8	-0.06530172
84	0xbda0fc65	-0.078606404
85	0x3d51f478	0.051258534
86	0x3dd97724	0.106184274
87	0xbb69aa16	-0.0035654358
88	0xbd178ee0	-0.03700149
89	0x3d156f70	0.03648323
90	0xbd8f8f2b	-0.07009729
91	0xbc1a5d4b	-0.009421657
92	0xbde64bcf	-0.11244928
93	0x3de4967e	0.111615166
94	0xbc95553c	-0.01822912
95	0x3d004147	0.031312253
96	0xbcedf41f	-0.02904707
97	0xbde310f7	-0.1108722
98	0xbd1d379e	-0.03838312
99	0x3dd7be70	0.1053437
100	0x3d86c878	0.06581205
101	0xbdd75721	-0.105146654
102	0x3d39b55a	0.045338966
103	0x3c7e250d	0.015511763
104	0xbd682e39	-0.056684706
105	0xbdb1c77e	-0.08680628
106	0xbd96be8c	-0.07360563
107	0xbdd059ef	-0.101734035
108	0x3dbb5a87	0.09148126
109	0x3cd86b6d	0.026418412
110	0xbd9915ac	-0.07474837
111	0x3d94585e	0.07243417
112	0x3c5badf0	0.013408169
113	0x3d6b8280	0.0574975
114	0x3d215a4b	0.03939275
115	0xbd142595	-0.036168654
116	0xbc8a7135	-0.016899684
117	0x3dce87eb	0.10084518
118	0xbc3edabf	-0.011648833
119	0xbd862282	-0.065495506
120	0x3cdf7deb	0.027281722
121	0x3de3533b	0.11099859
122	0xbd9ab246	-0.07553534
123	0x3ce987ec	0.028507195
124	0x3def8d9d	0.116969325
125	0x3d9d70b8	0.07687515
126	0xbd8bb30d	-0.068212606
127	0x3ce5097c	0.027958624
128	0x3de02479	0.109444566
129	0x3d8dffd5	0.06933562
130	0xba62ded8	-0.0008654422
131	0x3e041835	0.12899859
132	0xbdb0d201	-0.08633805
133	0x3daac8de	0.083390936
134	0x3e16a691	0.14711978
135	0x3e2d40a4	0.1691919
136	0x3e0df0e1	0.1386142
137	0x3dde8026	0.10864286
138	0x3df02ba6	0.11727075
139	0xbdcfdd03	-0.101495765
140	0x3cce80cc	0.0252079
141	0xbb17ea47	-0.0023180412
142	0xbc02e558	-0.00798925
143	0x3e0f4b32	0.13993528
144	0xbd3e2d44	-0.046429887
145	0x3d209a67	0.03920975
146	0x3e252690	0.16127992
147	0x3d643b73	0.055720758
148	0x3df64733	0.12025299
149	0x3d7882ef	0.060671743
150	0xbd0a3843	-0.03374506
151	0x3db1cf0e	0.08682071
152	0x3e145269	0.14484562
153	0xbc9c50b5	-0.019081453
154	0x3d858411	0.0651933
155	0x3e71d0f0	0.2361486
156	0x3c8329c0	0.016011119
157	0x3c7b366a	0.015332798
158	0xbd1f2404	-0.038852707
159	0xbdf58346	-0.11987929
160	0x3da516a6	0.080609605
161	0xbe31aa4f	-0.17350124
162	0xbd9a125b	-0.07523032
163	0x3d5ef6dd	0.054434646
164	0x3e0ed2d4	0.13947612
165	0xbd1834f6	-0.037159882
166	0x3dc8f79d	0.098128535
167	0x3dfa59b2	0.12224139
168	0xbd605463	-0.054767977
169	0x3cbd444b	0.023103854
170	0x3bf70165	0.007538008
171	0x3db379b7	0.0876345
172	0xbe08cbb7	-0.13358961
173	0xbca01127	-0.019539429
174	0xbd44c7ba	-0.048042037
175	0x3e0a86b9	0.13527955
176	0xbd36f922	-0.044671185
177	0x3e0cae48	0.13738358
178	0xbe415a9e	-0.18882224
179	0xbd12cd15	-0.035840113
180	0x3dc7b799	0.09751815
181	0xbde2d10a	-0.11075027
182	0x3caed17d	0.021340126
183	0x3c2450d2	0.010029035
184	0x3d5895f9	0.0528774
185	0x3e351b89	0.17686285
186	0xbdb00eba	-0.08596559
187	0xbde7e76c	-0.11323437
188	0x3dd8482c	0.10560641
189	0xbe6c7603	-0.23091893
190	0xbdafce20	-0.08584237
191	0x3cd3091e	0.025761183
192	0x3d8abd9c	0.06774446
193	0x3c6887f7	0.014192573
194	0xbd861dfc	-0.06548688
195	0xbcc97f9b	-0.02459698
196	0x3e015301	0.1262932
197	0xbdaaf097	-0.0834667
198	0x3d55ca8f	0.052195128
199	0x3d9f945d	0.0779197
200	0xbd8392d3	-0.06424489
201	0xbde5fe1f	-0.112301104
202	0xb8aad338	-8.145574e-05
203	0xbd99494d	-0.07484684
204	0xbdd20897	-0.10255545
205	0x3e005a7f	0.12534522
206	0xbdce3167	-0.100680165
207	0x3daef0cf	0.08542024
208	0x3c95a574	0.01826737
209	0xba87e832	-0.0010368882
210	0x3d27d0f6	0.040970765
211	0x3db9da60	0.09074855
212	0x3de8f5c4	0.11375001
213	0xbe0c9025	-0.13726862
214	0xbd9b083b	-0.07569929
215	0x3afd432a	0.0019322385
216	0xbd3a60e1	-0.045502547
217	0x3dea8f74	0.11453143
218	0xbb2aa9f9	-0.0026041253
219	0xbd75ad91	-0.05997998
220	0x3ca8f3c9	0.020624058
221	0xbd07ffab	-0.03320281
222	0x3ddcb78a	0.10777195
223	0x3db3a6e7	0.087720685
224	0x3dae53dc	0.08512089
225	0x3d026f78	0.031844586
226	0x3db25141	0.08706904
227	0x3bcad062	0.006189392
228	0x3d01aba4	0.03165783
229	0xbdc9f859	-0.09861822
230	0x3c4deb67	0.012568331
231	0x3b6dd195	0.003628825
232	0x3e0546d1	0.13015296
233	0x3ca85ec2	0.020552997
234	0x3d7dd849	0.061973844
235	0xbdddb460	-0.108254194
236	0xbd441ca9	-0.047878895
237	0xbd22fd60	-0.03979242
238	0x3c32e35b	0.010918464
239	0xbd1505d0	-0.036382496
240	0xbb8359af	-0.004008494
241	0xbd93fa6b	-0.07225498
242	0x3dadde46	0.08489661
243	0x3db2cddc	0.08730671
244	0x3d7dcbf7	0.061962094
245	0x3dd4a04a	0.10382135
246	0x3de82bf3	0.11336508
247	0xbd3f0f50	-0.046645463
248	0xbb2c5738	-0.0026297104
249	0xbcb31a25	-0.021863053
250	0xbd7d3771	-0.06182045
251	0x3d82d061	0.06387401
252	0x3c6ebc61	0.01457128
253	0xbd80eaa4	-0.06294754
254	0x3d02af86	0.031905673
255	0x3a02c3e0	0.0004988294

bias f4 [128]
0	0x3d593472	0.05302853
1	0xbd1cc297	-0.038271513
2	0xbcd5e58d	-0.026110435
3	0x3e2cf126	0.16888866
4	0x3db88aac	0.090108246
5	0xbdbd71b3	-0.09250202
6	0x3db070e4	0.08615282
7	0x3d12b5d6	0.035817944
8	0x3dd451ab	0.103671394
9	0x3e08f7b1	0.13375737
10	0x3e310aff	0.17289351
11	0x3df04488	0.11731821
12	0xbde64f9e	-0.112456545
13	0x3cef8f01	0.029242994
14	0xbdf881cd	-0.121341325
15	0xbdba828e	-0.091069326
16	0x3dc76578	0.097361505
17	0x3d8184c0	0.06324148
18	0x3e061389	0.1309339
19	0x3d65f8df	0.056145545
20	0x3dd2f186	0.10299973
21	0xbcca44b5	-0.024690965
22	0x3e2008da	0.15628377
23	0x3d046719	0.032324884
24	0x3d14ac69	0.036297236
25	0x3e0db52f	0.13838647
26	0xbd3db821	-0.046318177
27	0x3dcee5ba	0.101024106
28	0xbbb693a0	-0.0055717975
29	0x3dbb1cb5	0.09136335
30	0x3e3975de	0.18111369
31	0xbda2abc3	-0.07942917
32	0x3dcc0bc7	0.09963184
33	0x3cc5a201	0.024125101
34	0x3e5a028e	0.21290037
35	0xb9e69df9	-0.00043986717
36	0x3c761368	0.015019275
37	0x3cbea3fb	0.023271551
38	0xbc70bffb	-0.014694209
39	0x3e22b272	0.15888384
40	0xbd026868	-0.03183785
41	0xbcb470c2	-0.022026423
42	0xbb3a2f3b	-0.00284095
43	0xbde52003	-0.111877464
44	0xbdf3626d	-0.118840076
45	0xbce4b48f	-0.027918128
46	0x3c837cfd	0.01605081
47	0x3e12b70f	0.14327644
48	0x3c96c1a9	0.018402891
49	0x3da768b4	0.081742674
50	0x3dbfb4d3	0.09360661
51	0xbcc1c008	-0.023651138
52	0x3e6197f2	0.22030619
53	0x3e1f1100	0.15533829
54	0xbc1005cb	-0.008790444
55	0x3ca24bcb	0.019811532
56	0x3be7aabb	0.007069913
57	0xbdb861a2	-0.09002997
58	0xbd98f7c4	-0.074691325
59	0xbd4d20d0	-0.05008012
60	0x3c0b64df	0.008507936
61	0x3d69b1f2	0.057054467
62	0x3d848e17	0.06472414
63	0xbc651c21	-0.013983757
64	0x3e006c31	0.12541272
65	0x3d626cac	0.05527942
66	0x3e4052a5	0.18781526
67	0x3dbace9c	0.09121439
68	0x3a3f0d37	0.0007288041
69	0x3e08cd0b	0.13359468
70	0x3dd80b39	0.105490156
71	0x3e5e70b9	0.21722688
72	0x3da5b54a	0.08091219
73	0xbd245cdf	-0.04012763
74	0xbda2b34c	-0.079443544
75	0xbcf0176f	-0.029308049
76	0xbd824657	-0.063610725
77	0x3c19737d	0.009365913
78	0xbd599e76	-0.053129636
79	0xbc711693	-0.014714855
80	0x3d0cb361	0.034350757
81	0x3e04402a	0.12915102
82	0x3d2edfdd	0.04269396
83	0x3c8d8cd0	0.017279059
84	0x3d1259a9	0.035730038
85	0x3e295197	0.1653503
86	0x3d786c03	0.060649883
87	0x3c30434f	0.010758235
88	0x3db77bc5	0.08959154
89	0xbd2843cc	-0.04108028
90	0x3c19579f	0.009359269
91	0x3c0e2d60	0.00867781
92	0x3cbfb1a5	0.023400137
93	0xbdde5c5c	-0.1085746
94	0x3dc205db	0.09473773
95	0x3b097fc8	0.0020980705
96	0x3d3d9004	0.046279922
97	0x3e1aff0c	0.15136355
98	0xbcf96929	-0.030445652
99	0x3e10f37b	0.1415538
100	0x3e2373e8	0.15962183
101	0x3e0909e0	0.13382673
102	0x3da8821c	0.082279414
103	0x3e6c1e15	0.2305835
104	0xbd056508	-0.032567054
105	0x3d0cf2ee	0.034411363
106	0xbda8e25f	-0.08246302
107	0x3d00935e	0.03139054
108	0x3bdaadcf	0.0066735516
109	0xbd380d86	-0.044934772
110	0x3c12e282	0.0089651365
111	0x3e055fb8	0.13024795
112	0x3e286aef	0.16447042
113	0xbc807d28	-0.01568468
114	0x3e44b7ee	0.19210789
115	0xbd4526fd	-0.048132885
116	0xbdbc6c2a	-0.09200318
117	0x3de15dfa	0.11004253
118	0x3e586f8a	0.21136299
119	0xbd90f2cd	-0.070775606
120	0x3e06c48c	0.13160914
121	0xbb647e12	-0.0034865183
122	0x3dbf8a06	0.09352498
123	0x3b177005	0.002310754
124	0x3d084518	0.033269018
125	0x3db5b2cc	0.088719934
126	0xbc8634c9	-0.016382592
127	0x3e06e9ac	0.13175076

weight f4 [512, 128]
0	0xbda379b5	-0.07982198
1	0x3d0942e6	0.033511065
2	0xbd849950	-0.064745545
3	0xbd17823e	-0.036989443
4	0x3d30e7a2	0.043189652
5	0xbd657ad3	-0.056025337
6	0xbce134b7	-0.027490957
7	0x3db53b90	0.08849251
8	0x3c826b98	0.015920445
9	0x3dca2fad	0.09872375
10	0xbd9f95d3	-0.077922486
11	0x3ccacac6	0.024754893
12	0xbce1d7a1	-0.02756864
13	0x3d9a6fe0	0.0754087
14	0x3d9e9d6e	0.07744871
15	0xbd24a8a2	-0.040199883
16	0xbd815caf	-0.06316506
17	0xbd4928fc	-0.04911135
18	0xbd89147c	-0.0669336
19	0x3d5b0ebc	0.05348085
20	0x3bcbb048	0.0062160827
21	0xbdb8fcff	-0.0903263
22	0xbd262c26	-0.040569447
23	0x3d31bfde	0.04339587
24	0xbcb2ccf0	-0.021826237
25	0xbd9afa8b	-0.075673185
26	0x3c390082	0.011291625
27	0xbcb890da	-0.022530008
28	0x3dc34095	0.095338024
29	0x3ae29ceb	0.0017289197
30	0xbc81297d	-0.015766853
31	0xbcae7ce1	-0.021299781
32	0x3d4d8512	0.050175734
33	0x3c09c5e0	0.0084089935
34	0x3d57b0a4	0.052658692
35	0x3d2a7170	0.04161209
36	0x3dd2c00e	0.10290538
37	0x3c6c8bc4	0.01443762
38	0xbc8209ea	-0.015873868
39	0x3cf0a6b3	0.029376363
40	0x3d50c732	0.050971217
41	0xbbae88fa	-0.0053263875
42	0x3cee0874	0.029056765
43	0xbd9fb52b	-0.07798227
44	0x3daa7d3d	0.083246686
45	0xbc8bb002	-0.0170517
46	0xbd885a25	-0.06657819
47	0x3c6cd40a	0.014454851
48	0x3d6a4efd	0.057204235
49	0xbd16705b	-0.036728244
50	0xbc80e16d	-0.015732491
51	0x3d21f9d6	0.039544903
52	0x3dc4dfd9	0.09613008
53	0xbc2bb806	-0.010480886
54	0xbbad327f	-0.0052855606
55	0xbdcc7ed5	-0.09985129
56	0xbc367077	-0.011135212
57	0x3d3fe9a5	0.04685368
58	0xbd859f68	-0.06524545
59	0x3d601c0a	0.05471424
60	0x3cd6bbfd	0.026212687
61	0xbd70df28	-0.05880657
62	0x3d60e7b5	0.054908473
63	0xbd8835e5	-0.066509046
64	0x3d5efe90	0.05444199
65	0xbc9442f7	-0.018098338
66	0x3b8a5ff1	0.004222863
67	0xbbbc95c0	-0.0057551563
68	0xbca39f3b	-0.019973388
69	0xbd2610a8	-0.04054323
70	0x3b93d311	0.004511245
71	0xbcb848fa	-0.022495735
72	0x3d21ee92	0.03953416
73	0xbd9ac7ee	-0.07557665
74	0xbd070e6d	-0.032972742
75	0xbc8ce029	-0.017196732
76	0xbc9e9369	-0.0193574
77	0xbdc75043	-0.097321056
78	0x3c93203f	0.017959712
79	0xbcb65eed	-0.022262061
80	0xbd10cde3	-0.0353526
81	0x3cd009f5	0.025395373
82	0x3d88cfa0	0.06680226
83	0xbd13f9a6	-0.036126755
84	0x3c45a711	0.0120637575
85	0xbd8780cc	-0.06616363
86	0x3cca8727	0.024722649
87	0xbcafed2c	-0.021475397
88	0x3db4bf2e	0.08825527
89	0x3dacfc65	0.08446578
90	0x3c2dc36e	0.010605676
91	0x3c381f8e	0.011237992
92	0xbcddba63	-0.027066415
93	0x3d79dd0c	0.061001822
94	0x3c94dec5	0.018172631
95	0x3d462eb5	0.048384387
96	0x3d18a365	0.0372652
97	0x3db82c26	0.08992796
98	0x3d696661	0.0569824
99	0x3d3931d2	0.045213528
100	0xbdc11e9c	-0.094296664
101	0x3cf4b9f5	0.029873827
102	0x3d87c4ea	0.06629355
103	0xbd6ad667	-0.057333376
104	0xbcc49cc9	-0.024000542
105	0x3c13a0aa	0.009010473
106	0xbd0d1974	-0.034448102
107	0xbd97f4c5	-0.07419733
108	0xbc77a32e	-0.015114589
109	0x3d276602	0.040868767
110	0xbd731957	-0.059350338
111	0xbbfefe04	-0.007781746
112	0x3a3c5441	0.00071841857
113	0xbcbbec19	-0.022939729
114	0x3cf3d189	0.029763
115	0x3d188379	0.037234757
116	0xbda5ede1	-0.081020124
117	0x3e092950	0.13394666
118	0xbc9ab616	-0.018885653
119	0x3cf3ad5d	0.029745752
120	0x3d82649a	0.063668445
121	0xbd806a70	-0.06270301
122	0x3cd11d95	0.025526801
123	0x3ccfbfb8	0.025359973
124	0x3d8f279f	0.06989979
125	0xbcd1be92	-0.025603566
126	0xbd93d399	-0.072180934
127	0x3cbc1ae8	0.022962049
128	0x3c410b61	0.011782498
129	0x3d949768	0.07255441
130	0xbdbcd8c6	-0.09221034
131	0xbcd51115	-0.026009122
132	0xbccea44b	-0.025224825
133	0xbc3dc389	-0.011582264
134	0xbc027987	-0.007963545
135	0xbd357d25	-0.0443088
136	0xbb4f0f92	-0.0031594974
137	0xbc8967c1	-0.016773107
138	0xbd3bcfbd	-0.04585241
139	0xbc6a3fa7	-0.014297402
140	0xbcd7d7a4	-0.026347943
141	0xbc0497a3	-0.008092794
142	0x3d92eb0e	0.071737394
143	0xbd05b0f0	-0.032639444
144	0xbd0a0f87	-0.033706214
145	0x3d8bf446	0.06833701
146	0x3da46438	0.08026928
147	0xbc64fa16	-0.013975641
148	0x3dcffd7d	0.10155771
149	0x3cf3f459	0.0297796
150	0x3d5b43ef	0.053531583
151	0x3d6fcc5f	0.058544513
152	0x3d6d620e	0.05795484
153	0xbcbaed8b	-0.022818347
154	0xbd855727	-0.065107636
155	0x3d970db7	0.07375663
156	0x3d8712fa	0.06595416
157	0x3dac1f14	0.08404365
158	0xbd8bc304	-0.06824306
159	0xbd585ba4	-0.05282177
160	0x3d420bd8	0.047374576
161	0x3aa3d625	0.0012499733
162	0xbbda35c9	-0.0066592437
163	0xbd552787	-0.05203965
164	0xbdbd87f3	-0.09254446
165	0xbd41d9b4	-0.04732676
166	0xbd1c064a	-0.038091935
167	0xbdba4f52	-0.090971604
168	0x3dc26b98	0.09493178
169	0x3c96c68e	0.018405225
170	0x3da3e233	0.080021285
171	0xbc9f095c	-0.019413643
172	0xbc8c8845	-0.017154822
173	0x3d5bb1a3	0.053636204
174	0x39ed8434	0.00045302662
175	0xbcc81b5a	-0.024427105
176	0x3c125df4	0.008933533
177	0xbd439eea	-0.047758974
178	0x3dd70c97	0.10500448
179	0xbd407c0c	-0.0469933
180	0xbd43604c	-0.047699258
181	0xbd92d29a	-0.07169075
182	0x3dd47079	0.10373015
183	0xbd8586c3	-0.065198444
184	0x3dbca5f0	0.092113376
185	0x3d03ec62	0.032207854
186	0xbda496e8	-0.080365956
187	0x383cd3b8	4.501987e-05
188	0x3d2161e0	0.03939998
189	0xbd8b70bc	-0.06808612
190	0xbc827ff7	-0.015930159
191	0x3d89d2aa	0.06729634
192	0xbb9e8fd1	-0.0048389216
193	0x3cf60818	0.030033156
194	0x3b4075a5	0.0029366997
195	0x3d2b6e39	0.041853163
196	0x3d49187b	0.049095612
197	0x3d7499c6	0.059716962
198	0x3ca1b5e9	0.019740062
199	0xbd08bcfd	-0.03338336
200	0xbd74b908	-0.059746772
201	0x3d0541cb	0.03253345
202	0x3c1ff8c5	0.009763901
203	0xbcf72974	-0.030171134
204	0x3d393172	0.04521317
205	0xbb7d0ac7	-0.003861116
206	0xbd44cb5a	-0.048045494
207	0x3c34f4a6	0.011044657
208	0x3d8fb09a	0.07016106
209	0x3bf3ce1c	0.0074403416
210	0xbd370d19	-0.044690225
211	0xbb07dc51	-0.0020730684
212	0xbcae080b	-0.02124407
213	0x3b9d9ad6	0.0048097176
214	0xbce45bd5	-0.02787582
215	0x3cd41db7	0.025893075
216	0xbd2337fc	-0.039848313
217	0xbd972535	-0.073801436
218	0xbc8ae3d7	-0.016954346
219	0x3da73471	0.08164299
220	0xbd2905a9	-0.041265164
221	0xbca77d3c	-0.020445459
222	0x3d25df38	0.04049608
223	0x3d6eea58	0.058328956
224	0x3db252f3	0.087072276
225	0xbd484049	-0.048889432
226	0x3d0f6a73	0.035013627
227	0x3caba927	0.020954682
228	0xbcb9734e	-0.02263799
229	0xbc8d04a2	-0.017214123
230	0xbcb61f12	-0.022231612
231	0x3d8ce71f	0.0688002
232	0xbd6e8475	-0.05823179
233	0xbd917d4b	-0.07103976
234	0x3d976659	0.07392568
235	0xbd994729	-0.07484276
236	0xbd888227	-0.066654496
237	0xbd7a1678	-0.061056584
238	0x3db40f2e	0.08791958
239	0x3d6b5f60	0.057464004
240	0x3db95654	0.09049669
241	0x3d26f817	0.04076394
242	0xbc92c7aa	-0.017917473
243	0x3ce3ab12	0.027791534
244	0x3d54470f	0.05182558
245	0x3cd98b6c	0.02655574
246	0x3da64ed9	0.08120508
247	0x3dae849e	0.085213885
248	0xbd42fe03	-0.047605526
249	0xbccba830	-0.024860471
250	0xbdb2bd42	-0.08727504
251	0xbd77bf2c	-0.06048505
252	0xbd4e3d84	-0.050351635
253	0x3d507ff1	0.050903264
254	0x3bec7459	0.007216018
255	0xbcce4df8	-0.025183663

bias f4 [512]
0	0x3c883ffb	0.01663207
1	0x3dc196a7	0.09452563
2	0x3c6638bc	0.0140516125
3	0x3d0c581f	0.034263726
4	0xbcbcc2b1	-0.023042055
5	0x3e0986c9	0.13430323
6	0x3db864a7	0.09003573
7	0xbd9ee97f	-0.077593796
8	0xbd1fcd7e	-0.039014332
9	0xbd9e82b3	-0.07739773
10	0xbd8d441b	-0.06897756
11	0xbd9353e8	-0.07193738
12	0x3da5b013	0.08090224
13	0x3de6d87c	0.1127176
14	0xbd5d72bb	-0.054064494
15	0x3e2ec1b3	0.17066078
16	0xbd95b733	-0.07310333
17	0xbceedfe1	-0.029159488
18	0x3dfc3362	0.12314488
19	0x3d8ee749	0.06977708
20	0x3d15a358	0.03653273
21	0x3d6176c8	0.05504492
22	0x3dc72087	0.09723001
23	0x3c5541ba	0.013016159
24	0xbd070908	-0.032967597
25	0xbd26400a	-0.040588416
26	0x3da29a0e	0.0793954
27	0x3dd142cf	0.10217821
28	0x3b9cb7e6	0.0047826646
29	0xbd3f68f2	-0.046730943
30	0x3e0b2cdb	0.1359133
31	0xbc85170b	-0.01624634
32	0xbd467a5f	-0.048456546
33	0xbd8ee32a	-0.06976922
34	0x3b0cfffd	0.0021514886
35	0x3d270faf	0.04078644
36	0x3d81284d	0.06306515
37	0x3d4db06b	0.050217073
38	0xbdafd3e0	-0.08585334
39	0x3da87e8d	0.08227263
40	0xbc86f480	-0.016474009
41	0x3d0f649c	0.035008058
42	0xbcd002ed	-0.02539202
43	0xbd4ce5e7	-0.05002394
44	0xbd930bdb	-0.071799956
45	0x3d7bee75	0.061506707
46	0x3b5fdc22	0.003415831
47	0xbcbab125	-0.022789547
48	0xbd5e7c23	-0.054317605
49	0x3e08b4d4	0.1335023
50	0xbd264f02	-0.04060269
51	0x3ded1869	0.115769215
52	0xbd668ef6	-0.056288682
53	0x3cd23b10	0.025662929
54	0xbd1a4ec4	-0.037672773
55	0x3d44b581	0.048024658
56	0xbd2c590b	-0.042077105
57	0x3d999a74	0.07500163
58	0xbd9bca1a	-0.07606907
59	0x3ce9a828	0.028522566
60	0x3d4b89b4	0.04969187
61	0xbcfc694d	-0.03081193
62	0xbbe0dda1	-0.0068623577
63	0x3d93af83	0.072112106
64	0xbd85cd93	-0.06533351
65	0x3cdb4e6c	0.026770793
66	0x3cd2b148	0.0257193
67	0x3c97ca28	0.018529013
68	0x3c55fb53	0.013060409
69	0xbd37ff8d	-0.044921447
70	0x3c897072	0.01677725
71	0x3df031e1	0.11728264
72	0x3d356850	0.044288933
73	0xbce3954c	-0.027781151
74	0xbd383083	-0.04496814
75	0x3c72eec1	0.014827431
76	0x3e0a40bc	0.13501257
77	0x3dc8ffc3	0.09814408
78	0x3d86674b	0.0656267
79	0xbcc1c917	-0.023655457
80	0x3dff9c71	0.12481011
81	0x3d8a4ac5	0.067525424
82	0xbd684a34	-0.05671139
83	0xbd0b8357	-0.034060802
84	0x398dc864	0.00027042918
85	0xbd3ca6ad	-0.046057392
86	0x3d9acef4	0.075590044
87	0x3d963be3	0.07335641
88	0xbd946b0a	-0.072469786
89	0xbd29e1b6	-0.04147502
90	0x3cf50e4d	0.029914046
91	0xbce7cb5f	-0.028295217
92	0x3e10bc5b	0.14134352
93	0x3de715f1	0.11283482
94	0xbd9c000a	-0.07617195
95	0x3d86b60d	0.06577692
96	0x3be20993	0.006898114
97	0x3d37860b	0.044805568
98	0x3d23bbd1	0.039974038
99	0xbd8bb93a	-0.068224385
100	0x3d260d23	0.040539872
101	0x3bbc8274	0.005752856
102	0xbd45469f	-0.048163053
103	0xbd02fe65	-0.03198089
104	0xbd0b3c13	-0.033992838
105	0xbd761ce0	-0.06008613
106	0x3de20dcc	0.11037788
107	0x3c8133b8	0.015771732
108	0xbc21d90f	-0.009878411
109	0x3bb2dc85	0.005458417
110	0x3d955838	0.07292217
111	0x3d8ee9fc	0.06978223
112	0x3dd852b0	0.105626464
113	0xbd570f99	-0.05250511
114	0xbc5edbbe	-0.013602195
115	0xbd678891	-0.056526724
116	0x3e0712a5	0.13190706
117	0xbdae4b2a	-0.0851043
118	0x3d506b92	0.050883837
119	0xbd964a14	-0.07338348
120	0x3d048ef8	0.032362908
121	0x3ce46c45	0.027883658
122	0x3d568f7c	0.05238293
123	0x3de7659e	0.11298679
124	0xbdab2aaa	-0.08357747
125	0x3b34dcdd	0.0027597465
126	0xbca46e37	-0.020072086
127	0xbc02070c	-0.00793625
128	0xbda3553a	-0.0797524
129	0x3e1019c7	0.14072333
130	0x3db82670	0.08991706
131	0x3dd6318a	0.104586676
132	0x3d254c96	0.04035624
133	0xbcd6b34d	-0.026208544
134	0xbc1482a1	-0.0090643475
135	0x3defa8b0	0.117020965
136	0xbd7b7d7f	-0.06139898
137	0xbd38f233	-0.045152854
138	0xbda19c0e	-0.07891093
139	0xbd91d5cc	-0.07120857
140	0x3da870c1	0.08224631
141	0xbd90b764	-0.07066229
142	0x3ded07b3	0.11573734
143	0xbd6cc0a3	-0.0578009
144	0x3caeeeb7	0.021354062
145	0x3d826d60	0.06368518
146	0x3dbac6a2	0.091199175
147	0x3e129987	0.14316379
148	0xbd32ad8c	-0.04362254
149	0x3dcf84b6	0.101327345
150	0x3c313f78	0.010818355
151	0xbd9553ea	-0.07291396
152	0x3ba26b6d	0.004956654
153	0xbd0dbf84	-0.03460647
154	0x3a5c5462	0.0008404908
155	0x3de095e2	0.10966088
156	0x3c38b21c	0.011272933
157	0xbbe6f3e3	-0.0070481165
158	0xbcf31329	-0.029672222
159	0xbd7783bd	-0.06042837
160	0x3daec7c2	0.085341945
161	0x3d819069	0.06326372
162	0x3c8a5069	0.016884046
163	0xbd9ba709	-0.07600219
164	0xbd859185	-0.06521896
165	0xbd393d15	-0.045224268
166	0x3ba3064c	0.004975116
167	0xbd875632	-0.06608237
168	0xbd157f4d	-0.036498357
169	0x3b892779	0.0041856137
170	0x3e08403d	0.13305755
171	0xbd1b7bc8	-0.037959844
172	0x3d8d30a4	0.06894043
173	0x3d8f2e24	0.069912225
174	0x3d5951e7	0.053056624
175	0x3c6f0017	0.014587424
176	0x3dfe1b8c	0.12407598
177	0x3d836d70	0.06417358
178	0x3c3a5dc1	0.011374892
179	0xbd2e4f21	-0.042555932
180	0x3da4d48e	0.08048354
181	0x3ce97270	0.02849695
182	0x3dfbc274	0.12292948
183	0x3ce73fe4	0.028228708
184	0xba1d3c45	-0.00059980556
185	0x3cc3b8ea	0.023891885
186	0xbd7b92b1	-0.061419193
187	0xbc7799b6	-0.015112331
188	0xbc4c99c0	-0.012487829
189	0x3dac4462	0.084114805
190	0x3d3d602d	0.0462343
191	0x3ccdd549	0.025126116
192	0x3c9805ba	0.018557418
193	0xbd0cb8f7	-0.034356084
194	0x3d69cfc6	0.057082914
195	0x3d8722fc	0.065984696
196	0xbd8a551c	-0.067545146
197	0xbce956c0	-0.028483748
198	0x3db34892	0.08754076
199	0xbd680bd0	-0.05665189
200	0xbc0c2cf7	-0.008555642
201	0x3d4d567e	0.050131314
202	0xbda10e91	-0.078641064
203	0xbd34ada0	-0.044110894
204	0x3e23f368	0.16010821
205	0x3d8e6218	0.06952304
206	0x3d31bde3	0.04339398
207	0xbd8c5d16	-0.06853692
208	0x3b2692f3	0.0025417178
209	0x3b51f57d	0.0032037192
210	0x3ddc8148	0.10766846
211	0x3de42468	0.111397564
212	0xbd5124e9	-0.05106059
213	0xbcd3f57a	-0.025873888
214	0xbca64508	-0.020296589
215	0xbd826e6b	-0.06368717
216	0xbd5463d0	-0.051853
217	0xbc365c4c	-0.011130404
218	0x3cab3c37	0.020902736
219	0x3d909264	0.07059172
220	0xbd742e18	-0.05961427
221	0x3ce34896	0.027744573
222	0xbc49c98d	-0.01231612
223	0x3da2c3d9	0.07947511
224	0xbdb0b50d	-0.08628283
225	0xbd6093f9	-0.054828618
226	0x3cb9d06a	0.022682387
227	0x3b84ecda	0.004056555
228	0xbcc15c03	-0.023603445
229	0xbc95cf0f	-0.01828721
230	0xbd70940e	-0.058734946
231	0xbd3fdbc4	-0.046840444
232	0xbd986609	-0.07441337
233	0x3d32c731	0.043646995
234	0xbc4686cf	-0.012117102
235	0x3d3c8727	0.04602733
236	0xbdb0e948	-0.08638245
237	0x3dd089b4	0.10182515
238	0xbd456f98	-0.048202127
239	0xbd33a83d	-0.043861616
240	0xbd615fd1	-0.05502302
241	0x3cea8100	0.028625965
242	0x3df347eb	0.11878952
243	0x3d23b4d5	0.039967377
244	0xbd7adb30	-0.06124419
245	0x3d8000f6	0.06250183
246	0xbcf74430	-0.030183882
247	0x3e32f9ee	0.17478153
248	0xbd9d18e0	-0.0767076
249	0xbd043deb	-0.032285612
250	0x3ce2f88e	0.02770641
251	0x3d58a732	0.052893825
252	0x3d511cbe	0.0510528
253	0xbd221d5a	-0.039578773
254	0x3d95be0e	0.07311641
255	0xbd8d2b87	-0.06893068

weight f4 [10, 512]
0	0xbc062515	-0.008187552
1	0x3d87abc8	0.066245615
2	0xbd160197	-0.03662261
3	0xbd006005	-0.03134157
4	0x3da6d738	0.081465185
5	0xbc01c983	-0.007921579
6	0xbcc843c3	-0.024446374
7	0x3c43298f	0.011911764
8	0x3d1bfe69	0.03808442
9	0x3ca0fd61	0.01965207
10	0xbd0be4ba	-0.034153678
11	0x3d99a3b2	0.075019255
12	0x3d16c791	0.036811415
13	0x3d945c2f	0.07244145
14	0x3c8e683c	0.017383687
15	0x3e3d9ea2	0.18517545
16	0x3d970455	0.07373873
17	0xbd8f1e2a	-0.06988175
18	0x3dd638f2	0.1046008
19	0xb8e310c6	-0.00010827328
20	0x3d3be201	0.04586983
21	0x3cb136b8	0.021632537
22	0x3d948766	0.07252388
23	0x3da44022	0.08020045
24	0x3cf83f7a	0.030303705
25	0x3d837f11	0.0642072
26	0x3d715de2	0.058927424
27	0x3d8ae722	0.06782366
28	0xbb9a753c	-0.0047136825
29	0x3cd9f2b3	0.026604986
30	0x3d7514ed	0.05983441
31	0x3e30d79d	0.1726975
32	0xbbee5ca8	-0.007274229
33	0xbc930e44	-0.017951138
34	0xbc9c4000	-0.019073486
35	0x3e4a25ad	0.19740935
36	0x3d3d7074	0.04624982
37	0x3cf7386b	0.03017827
38	0xba61af49	-0.00086091884
39	0xbb955f82	-0.0045585046
40	0x3ded78e5	0.115953244
41	0x3c708391	0.014679805
42	0xbb848313	-0.0040439456
43	0x3c3b82c8	0.011444755
44	0x3ab6094e	0.0013888271
45	0x3e3764a3	0.17909484
46	0xbcef6e14	-0.029227294
47	0xbd7dccce	-0.061962895
48	0x3e352a17	0.17691837
49	0x3e7fec6c	0.24992532
50	0xbcbb4f9d	-0.022865111
51	0x3e9e68c2	0.309393
52	0x3c87e4b4	0.016588546
53	0xbcb0d52f	-0.021586029
54	0x3c11cc75	0.008898844
55	0x3e508052	0.2036145
56	0x3d3ce06a	0.046112455
57	0x3ccb099e	0.02478486
58	0xbb0c98e2	-0.002145343
59	0xbbbc136d	-0.0057396204
60	0x3d3510c3	0.04420544
61	0xbc489296	-0.01224198
62	0x3cdc1638	0.026866063
63	0x3e1182af	0.14210008
64	0x3d1f87f5	0.038948018
65	0xbca7dc51	-0.020490797
66	0xbbaa0075	-0.0051880428
67	0xbd748227	-0.059694435
68	0x3cefcc02	0.029272083
69	0xbcc16ba2	-0.023610894
70	0x3d1bcd70	0.038037717
71	0xbbcf5418	-0.0063271634
72	0x3c02cd3c	0.007983502
73	0xbc9a0925	-0.018803189
74	0x3cc84b10	0.024449855
75	0xbd2c69c2	-0.042093046
76	0x3dbf3700	0.09336662
77	0x3e0b56fc	0.136074
78	0x3e3e91bd	0.18610282
79	0x3cb09456	0.021555107
80	0x3dd53798	0.10410994
81	0x3e6b199f	0.22958992
82	0xbcc234e4	-0.02370686
83	0x3c8ee495	0.01744298
84	0x3d638465	0.055546183
85	0x3deada01	0.11467362
86	0x3d9d9e0a	0.07696159
87	0x3d7473db	0.0596808
88	0xbd33d397	-0.04390296
89	0x3d462b35	0.04838105
90	0x3cee615e	0.029099163
91	0xbca0fd3e	-0.019652005
92	0x3e9c70b1	0.30554727
93	0x3e28105a	0.16412488
94	0xbc025d30	-0.007956788
95	0x3cae1542	0.02125037
96	0xbceaa14f	-0.028641371
97	0x3e08cefd	0.1336021
98	0x3d9916c2	0.07475044
99	0xbc79b613	-0.015241164
100	0x3c8f2315	0.017472783
101	0xba8b70f0	-0.0010638516
102	0x3a747140	0.0009324737
103	0x3c8a9b9d	0.016919905
104	0x3dd445ea	0.103648975
105	0x3d94fea8	0.07275134
106	0x3cb03ca8	0.021513298
107	0x3e3fa17e	0.18713948
108	0x3c95f337	0.01830445
109	0x3d28e6e6	0.041235827
110	0x3d646117	0.055756655
111	0x3b4e2a2a	0.0031458237
112	0xbcd72124	-0.02626092
113	0x3dcf5d0a	0.10125168
114	0x3ccf9288	0.025338426
115	0xbcabc1d8	-0.020966455
116	0x3dc6e9c6	0.097125575
117	0xbce8f045	-0.028434882
118	0xbcd17db8	-0.025572643
119	0x3d140d69	0.0361456
120	0x3cc9c0f5	0.024628142
121	0x3ce08036	0.027404886
122	0xbd102939	-0.035195563
123	0x3c4cfd10	0.012511507
124	0x3dce66a7	0.10078173
125	0x3c0948c1	0.008379162
126	0x3c47650e	0.012170089
127	0x3c5222d0	0.012825683
128	0x3cafad4a	0.021444935
129	0xbd877674	-0.0661439
130	0x3cbbd914	0.02293066
131	0x3df72e51	0.12069381
132	0xbc530a20	-0.012880832
133	0xbd7b6ce6	-0.06138315
134	0x3c0aa355	0.008461793
135	0xba61d98b	-0.0008615485
136	0x3cb7be42	0.02242959
137	0xbd05bbbe	-0.032649748
138	0xbcae6029	-0.021286087
139	0xbb436060	-0.0029812083
140	0xbca5ddb7	-0.020247323
141	0xbd321779	-0.043479417
142	0x3e2ac75d	0.16677614
143	0x3d822e61	0.06356502
144	0x3c889bf5	0.016675929
145	0x3dc380ed	0.09546075
146	0x3d3d4d82	0.046216495
147	0x3e1c069d	0.15236898
148	0xbc8cdff8	-0.01719664
149	0x3def3f4b	0.11681994
150	0x3b720ee5	0.0036935147
151	0x3cfa7e8b	0.030577919
152	0x3dd1bee1	0.102414854
153	0xbc21d93d	-0.009878454
154	0x3cfec5e0	0.031100214
155	0xbd4446eb	-0.047919195
156	0xbd1ed3e5	-0.038776297
157	0x3d3d4f1c	0.046218023
158	0x3d6e1aac	0.058130905
159	0x3b78af19	0.0037946163
160	0xbda61817	-0.081100635
161	0x3db87687	0.09006982
162	0x3cda9baa	0.026685555
163	0x3cd037c9	0.025417225
164	0x3d1a459d	0.037664045
165	0x3d92fd07	0.071771674
166	0x3d3c2bb7	0.045940127
167	0x3c4a97f4	0.01236533
168	0x3c4d66ec	0.0125367455
169	0x3d61d1f9	0.055131886
170	0xbd168e0b	-0.036756556
171	0xbcf5cf71	-0.030006142
172	0x3da40429	0.08008606
173	0xbd88ab0f	-0.06673252
174	0x3ddf7f0e	0.10912906
175	0x3d3fd8b6	0.04683753
176	0x3db484e9	0.08814413
177	0x3bb569ab	0.0055362782
178	0x3ddf3e5c	0.10900566
179	0xbcef03fc	-0.029176705
180	0xbb75757e	-0.0037454064
181	0x3c2e8837	0.010652593
182	0x3ce2fa7b	0.027707329
183	0x3cdcf76e	0.026973452
184	0xbcc5d2e6	-0.024148416
185	0xbd0a3c05	-0.033748645
186	0x3d5d361b	0.054006677
187	0x3d75b68f	0.059988555
188	0x3cd315f0	0.025767297
189	0x3b793372	0.0038025049
190	0x3c71cf51	0.014758901
191	0x3d3c4290	0.045961916
192	0x3daa8279	0.08325667
193	0x3c4074d6	0.011746606
194	0xbcd3451f	-0.025789795
195	0x3de91792	0.11381449
196	0x3df4246a	0.11921008
197	0xbc979432	-0.018503282
198	0xbd2be51a	-0.041966535
199	0xbd0bbd53	-0.0341161
200	0x3c9f9a5b	0.019482782
201	0x3c268af0	0.010164961
202	0xbcc504d8	-0.024050161
203	0x3d85997c	0.065234154
204	0x3dcfe68d	0.10151396
205	0x3e22653b	0.15858929
206	0x3d2f77c6	0.042838834
207	0xbc573c40	-0.013136923
208	0x3d30ca5d	0.04316174
209	0xbc8199dc	-0.015820436
210	0xbd8287b2	-0.06373538
211	0x3dee04ea	0.11622031
212	0x3cffea96	0.031239789
213	0x3cdcad67	0.026938153
214	0xbc7087e1	-0.014680834
215	0x3daea2fd	0.08527181
216	0x3bc0a8b9	0.0058794883
217	0xbd2eea75	-0.042704064
218	0xbc2f2720	-0.0106904805
219	0x3b068b66	0.0020529865
220	0x3c9a80ae	0.018860187
221	0xbd34e437	-0.044162955
222	0x3d3137fa	0.043266274
223	0x3e53086d	0.20608683
224	0x3cc8c3cc	0.024507426
225	0x3cc30165	0.023804376
226	0x3d4e33b4	0.050342277
227	0x3e629562	0.22127298
228	0xbca316ad	-0.019908274
229	0x3b3a3eb8	0.002841873
230	0x3c2533c4	0.010083143
231	0x3ccda022	0.025100771
232	0x3c23ed80	0.010005355
233	0x3e0e4477	0.13893305
234	0x3dbc80e9	0.09204275
235	0x3d08828f	0.033327635
236	0xbce7aeec	-0.028281651
237	0x3c943939	0.018093692
238	0x3d8cb19b	0.06869813
239	0x3c206db0	0.009791777
240	0x3e312e30	0.17302775
241	0x3e361d1c	0.17784542
242	0x3d48c2cc	0.049013898
243	0x3a816160	0.0009870939
244	0xbced546a	-0.028970916
245	0x3d4391b9	0.047746394
246	0xbbced808	-0.006312374
247	0x3e63e92a	0.22256914
248	0xbcf39a2d	-0.029736603
249	0xbcf7010c	-0.030151866
250	0x3d0f7133	0.035020065
251	0x3cf907db	0.030399254
252	0x3c8a7d59	0.016905474
253	0x3e0e66f0	0.13906455
254	0xbcfe128a	-0.0310147
255	0x3dcb0a1a	0.09914036

bias f4 [10]
0	0x3f0c88b5	0.548961
1	0xbde2ca33	-0.11073723
2	0xbdb76a33	-0.08955803
3	0xbcb32a6e	-0.021870818
4	0x3e369a65	0.17832334
5	0xbdeca929	-0.11555702
6	0xbdff876a	-0.12477
7	0xbde694db	-0.11258861
8	0xbd9dca52	-0.07704605
9	0xbdb34bf7	-0.087547235
