system/models/Cifar10/CNN/FedPer_BaseHeadSplit_Cifar10_client_2.pt (torch, 542108 bytes, 10 tensors)

weight f4 [32, 3, 5, 5]
00000000: bced 5e3c 1758 153e 01c0 f5bd b7f8 fabd
00000010: 2977 d53b b095 9abc a800 ce3d f724 b63d
00000020: 71d6 d7bd 8694 f8bb 09ef b0bd 52d4 753d
00000030: 3c0a b0bd c417 e4bd a052 b1bd db93 133d
00000040: 6bc1 2a3e 52e1 373e 8072 8b3c 953c 33bc
00000050: 7d8d b93d 9444 153e d163 d83d e35d 8f3e
00000060: e25c f23d a4a2 d03b 6b99 1c3e c0b7 32be
00000070: 285a 16be 7057 7a3b 832d 09be daea 133e
00000080: 9dc2 03be 2324 42be 0c68 19be baea 66be
00000090: 26ed 7cbd 69f2 423d a582 62bd aeb6 4cbd
000000a0: 299a 97bd cccc 75bd ee13 3c3c 0ed2 10be
000000b0: 7d11 36be 41c6 18be 08b2 f3bc b72c 2e3d
000000c0: d442 ffbc 97fc 68bd df15 eb3d 5f79 6d3e
000000d0: 96ba 883d 3cbe ce3c c138 3c3e 5ee5 c8bd
000000e0: d150 1a3e 287f 2bbd 470c fbbd 4eff 44bd
000000f0: 5b31 d33b ba01 0d3e 5700 0cbd 9398 b23a
00000100: e97a d03c 4eff 5cbc 5e7f b33d cf18 c93d
00000110: 7324 c63d 8bbd 923d 5974 bebd 966e 7fbd
00000120: 34dc c03d 4ab8 343e 6fd8 cb3d 9ef6 493d
00000130: e5af 8e3d 47e5 bebd 4550 dfbd 7665 03be
00000140: 6027 04be 3226 e23d 7089 533d f369 27be
00000150: 0eb9 ee3d 0d0c b4bd bf9d 9fbe 46cd 52be
00000160: 7839 e23e 6683 613e 1815 b63c 1ea6 57bd
00000170: 993f 4b3e 307e 0c3e b23f babe 8660 153c
00000180: d96e 413e f89e e13d 6a24 8abe 6eb5 74be
00000190: f4a2 c03d a073 373e baae a5bc 75bd 08be
000001a0: dd17 04be 7ea2 42bd 4d88 a7bd 326b 01be
000001b0: 118d 21bd e1b4 183e e0d9 09be 0909 4dbe
000001c0: d6ea 34be bb0c 0a3f 4e0c cb3e 7ff0 e4bd
000001d0: d4cf a5bd e271 383e 9170 d03d 4ca8 8dbe
000001e0: 7958 993d 74db 113e 88ea a43b dbec 69be
000001f0: af09 c8be 9e3e 33bd d2e7 153d 5534 38bd
00000200: 59e6 f0bd a319 51bd 53f0 543c 0d15 0e3d
00000210: e3bc f0bd 39c2 21bd 3352 5c3e bfcd 3a3d
00000220: fe41 4cbe c887 09be 75ed c43e 4b28 b03e
00000230: 0430 823e a9fe 923d d83d 7a3e db34 ed3c
00000240: 1c09 c9be 1ed2 193e 9b79 8e3e e31f 8c3d
00000250: 574f 92be 5f5e 8cbe 4e88 4abe 2308 1ebe
00000260: d57c 90bb 9113 1f3e 7593 093e b069 41be
00000270: b541 403d c157 8cbd d5a9 0c3c d527 743c
00000280: 2ac8 82bb 5e88 0cbb 7dfb 22be 102b 2cbe
00000290: 5d41 4e3c 46ac a63d 205c a6bc c561 11bd
000002a0: 08b4 80be 461d d8bd 0fb5 323e d137 733c
000002b0: 15b3 ef3d 000c 71bd ef0c 7cbe d7bd 8a3d
000002c0: a078 7a3b 9769 d53c 1398 4b3e 9eed 12bd
000002d0: de40 183c 94c5 843b 03a1 0b3e 522e 813d
000002e0: aa45 b63d bd3d c23d c8a7 f93b eda4 93bd
000002f0: 944d 22be a710 a53d cec6 203e 4429 c33d
00000300: b688 1ebe 01a7 f6bd 984a 2abe d069 24bd
00000310: 396a 3bbd 6150 2d3d 187d 29be 3995 07be
00000320: 1f03 8cbc 8c40 3f3d e7d3 a2bd c85c 55bd
00000330: 2d5e 96bd fff7 8b3d b11e 35bd d1f8 dc3d
00000340: d23d d23c a840 103a ade2 343d a784 eb3b
00000350: 528a f5bc 7cfe c2bd c9a9 28bb 78c1 dc3d
00000360: c7b8 d7bc 2819 a5bd 106f 483b df02 27be
00000370: aa3e e03d f17f 7e3e c770 1d3e 0242 53bc
00000380: c33d 30be 8bf8 bd3d 6593 c13c c20e ec3a
00000390: eeab 173d eadc af3c 1429 23bc 3f61 de3d
000003a0: 75ce 94bd 7417 713d 0e62 b9bc f0ce 07bd
000003b0: dcd2 313e acc5 07be 5e34 2ebd d473 503c
000003c0: d24f db3c c10b 763e 9523 abbd cd99 cb3d
000003d0: b86e ef3d a256 47be 8dca c03d 7b44 98be
000003e0: 9afc 633c b23f aabd 3200 f3bd dd71 6c3d
000003f0: 1563 aa3d 74a4 b13c 93c8 85bd bd7c febd
0.013606485 0.14584385 -0.119995125 -0.1225447 0.006514449 -0.018870205 0.10058719 0.08893769
-0.10538948 -0.0075860647 -0.08639342 0.060016938 -0.08595702 -0.111373454 -0.086583376 0.036029678
0.16675346 0.17957047 0.017022371 -0.010939737 0.0906019 0.14576942 0.105659135 0.28001317
0.11834122 0.0063670445 0.152929 -0.17452908 -0.1468283 0.003819909 -0.13396268 0.14445058
-0.12867208 -0.18959098 -0.14981097 -0.22550479 -0.0617496 0.04759446 -0.055300374 -0.049978904
-0.074024506 -0.060009763 0.011479361 -0.1414263 -0.17780109 -0.14919378 -0.029747978 0.042523112
-0.031159796 -0.056881513 0.11478781 0.2319083 0.066762134 0.025237195 0.18381025 -0.09809373
0.15069892 -0.041869313 -0.12258201 -0.04809504 0.0064450926 0.1377019 -0.03418001 0.0013625793
0.025449233 -0.013488604 0.08764528 0.09819185 0.09674921 0.07165059 -0.09299535 -0.062361322
0.094170004 0.17648426 0.09953391 0.049307458 0.06967143 -0.09321075 -0.10903982 -0.12831673
-0.12905645 0.110424414 0.051644742 -0.1634901 0.1165639 -0.08791361 -0.31175038 -0.20586118
0.4418447 0.22022781 0.022226855 -0.052648656 0.1984848 0.13720012 -0.3637672 0.009117251
0.18889941 0.11016649 -0.26980907 -0.23897335 0.09406081 0.17915201 -0.020224918 -0.13353522
-0.12899728 -0.047518246 -0.08180294 -0.12638548 -0.039441172 0.1491275 -0.13462019 -0.20022978
-0.17667708 0.53925675 0.39657825 -0.111786835 -0.08096281 0.18012193 0.1017772 -0.27667463
0.07487578 0.14243871 0.005032841 -0.2284426 -0.39069888 -0.04376089 0.036598034 -0.044971783
-0.11762685 -0.05104984 0.012996751 0.034688044 -0.11754777 -0.039491866 0.21515732 0.04560637
-0.19947049 -0.13430703 0.38462415 0.3440574 0.25427258 0.07177479 0.24437654 0.028955868
-0.39264762 0.1502156 0.27827153 0.068420194 -0.28576156 -0.2741575 -0.19778559 -0.15432791
-0.0044094124 0.15534808 0.13435157 -0.18887973 0.046937663 -0.06852675 0.008585413 0.014902075
-0.0039911466 -0.0021443586 -0.15916248 -0.16813302 0.012588826 0.08138327 -0.0203076 -0.03549363
-0.25137353 -0.105524585 0.17451881 0.014844851 0.11704079 -0.058849335 -0.24614309 0.0677449
0.003821887 0.026051326 0.1988223 -0.03587114 0.009292809 0.0040518735 0.1363564 0.06307663
0.08900006 0.09484432 0.007618878 -0.072091915 -0.15849906 0.08059817 0.15700838 0.09529355
-0.15481839 -0.12043572 -0.16630018 -0.040139973 -0.0457556 0.042312983 -0.16551626 -0.13240518
-0.017091332 0.046692416 -0.079505734 -0.052090436 -0.07342181 0.06834411 -0.044218723 0.107896455
0.025664244 0.00055027986 0.044161487 0.0071874443 -0.029973183 -0.09521195 -0.0025735965 0.10779089
-0.026333226 -0.08061439 0.0030583777 -0.16309689 0.10949452 0.24853493 0.15375052 -0.012894155
-0.1721106 0.092759214 0.023629854 0.0018009769 0.0370292 0.021467645 -0.009958524 0.10858392
-0.07265941 0.058860257 -0.022629764 -0.033156335 0.17365593 -0.13259 -0.04253041 0.012722928
0.02677146 0.24027921 -0.08356396 0.099414445 0.1169104 -0.19466642 0.094136335 -0.29739746
0.013915205 -0.0831293 -0.11865272 0.057725776 0.0831968 0.021684863 -0.06532397 -0.12426136

bias f4 [32]
00000000: ba50 54be 0d30 bcbe cb52 09bf e3ee 20be
00000010: abb8 ecbe a1ba 63be a61d 32be 60c5 1ebf
00000020: eb4d d4be a4fc 3fbe f937 c0be 05a9 afbd
00000030: 7065 d8be 2f29 8ebe b527 61be 63af 15bf
00000040: 24f8 ebbe be0d 10be 6cf3 d0be d1ff 43bd
00000050: 89c3 9ebe 2ea1 51be 54f3 e0be 2793 2dbe
00000060: 4a2a 3cbe 7b88 b0be f02b 15bf d0f1 6bbe
00000070: 72d4 19be 906d b7be 98d3 c8be fb2e f7bd
-0.2073392 -0.3675541 -0.5364196 -0.15716128 -0.4623464 -0.22239162 -0.17394122 -0.6201992
-0.41465697 -0.18748719 -0.37542704 -0.0857716 -0.4226489 -0.27765796 -0.21987803 -0.58470744
-0.46087754 -0.14067742 -0.40810716 -0.047851387 -0.31008556 -0.20471641 -0.43935645 -0.16950665
-0.18375507 -0.34479126 -0.5827017 -0.23041463 -0.15022448 -0.35825777 -0.39223933 -0.12069508

weight f4 [64, 32, 5, 5]
00000000: e561 01bd 7fab 443a 97f9 1e3d 508e 523d
00000010: e382 533d f7ea 51bd fc92 41bc 0f4e fc39
00000020: 8081 2b3d 0d9b bb3c f6e0 c13b 6e6a e6bc
00000030: 919d e7bb 234b 7a3d 9fc6 403b db49 453c
00000040: c0ab 12bd 38ed 04bd 242e d2bc 0835 8ebc
00000050: 8b4d 4fbc 2ffa a7bc c6ed df3c a69a 1bbc
00000060: 3a5f 2bbd 9535 533d 790c f73c 832a d6bc
00000070: 8211 2a3c 1167 60bd 37a1 5d3c 796c fbbc
00000080: cfd6 143d 51bf a23c 0b2d cc3c d3c5 a73c
00000090: fe2c 1bbd 72ac 0e3d 01e4 7dbc 2d00 d5bc
000000a0: b58a 20bd 9c39 5cbb bd5d 3c3d ff4c 7abb
000000b0: 9f27 7b3c 2266 87bb 83bd 3abc 976c ac3b
000000c0: bfa3 e7bb 63c9 c73c 8d04 23bd 9e87 b2bc
000000d0: 95ac a0bd e613 5ebd 826d 7cbb 4b0d 9e3a
000000e0: 8120 18bd 7828 1bbd c4fc 31bd 7a7e af3c
000000f0: 3b4e ec3c e294 d93c 5192 0cbd 5611 0d3c
00000100: c476 383d ad38 633d f324 2bbd fa07 973c
00000110: 9e4e 203d 2a34 ef3c ce86 feba 591d 5b3d
00000120: aa29 443c c8aa 98bb 1c4d 353c d8b9 3d3d
00000130: d3c5 8dbc df70 e63c 6334 01bb 0eb4 c93c
00000140: 1f89 b13c 35cc c13c f8e3 d1bc fb8d 1cbc
00000150: 725d 3d3c adcc 15bd b48f cf3c a05e 37bc
00000160: cabd ecbb 4161 a33c 6e74 e7bc 522c b4bc
00000170: 570c c33c 7898 d4bc c16a 973c ab35 26bd
00000180: c20d 89bc cb06 813b 5d5a aabc 77b4 83bd
00000190: 5abf 9f3b 0f6c 16bd 021a a63c e997 66bd
000001a0: 1b2a abbd a8a2 8bbb c44c 58bc 4625 39bd
000001b0: 7955 35bd df4e 9dbd 5059 12bd 9933 5a3b
000001c0: 776d 3abc b54c 45bd 013c 10bd 2286 03bc
000001d0: 7822 bcbc afa9 533d 2e94 a43c f26c 6fbc
000001e0: ee8b 1cbd 2fba eabb e91d 683d 7948 623d
000001f0: 756a 09bd 56c9 38bc a997 f9bc abad dabc
00000200: 22f4 86bd d4c8 a2bd a19c 313c e9d7 28bc
00000210: d662 e5bc ef14 05bd 1f0c 7cbd 4278 2abd
00000220: 33d5 d23c 4b04 18bd 5b85 0cbc f414 1fbd
00000230: 5c51 a7bc 80e7 6a3c 2ba7 f9bb bc08 bfbc
00000240: 2d28 9fbd 9c74 063c 692b 993b 5c57 ddbc
00000250: f0f3 5dbd 3dce c3bc 628e a53a b5c2 e33b
00000260: 9302 dfbc b4c8 6dbb 749b 583c d041 603d
00000270: 04de 453c 2da2 b93c 5ffd 6a3b 74e5 9e3b
00000280: 0154 893c 4ed5 1a3c e19d 21bd 705e a33c
00000290: 461e 4f3d 04a9 5e3d 3f22 b53c 80e0 fdba
000002a0: bfed 063d d3b8 8fbb 9042 5e3c 6dc7 b3bc
000002b0: c7bc c6bc c52b fe3b b3b4 d13b aea7 abbc
000002c0: ad7b 51bc dcb5 93bd f284 9abd 1840 0ebd
000002d0: 7404 92bc 20ed bdbc 157c 6bbd 7f63 3fbd
000002e0: bf95 99bd 0b54 5abc 3a5d b23b 9b2b 393d
000002f0: 01a0 d0bc fc94 21bd cabe 0e3c cb84 053c
00000300: ef69 f8bc 0641 91bd 7c92 05bc fae2 bcbd
00000310: f4d7 fabc db35 06bc ff94 16bc b2cd 1abc
00000320: 3d5f 4fbd ecd6 f83c d37a ab3c 4b3b 973d
00000330: 32c0 923c 3715 abbb da3d 193a fa77 58bc
00000340: 66ee 463c 44c4 003c 30c9 11bd cb29 88bc
00000350: f380 a63c c0a3 413d 896f b63c 3f04 06bc
00000360: 1eef 973c 0c7c 063a 59b7 523c c68a f23c
00000370: a830 a63c 2d82 3dbd 5eb1 69bc 3778 bfbc
00000380: ee1c 06bd 38ae 2b3c d13b c83c 8e4e b73c
00000390: 3c79 44bd 2de0 b23b 498a 263d e3ce f0b9
000003a0: 09b8 3fbc 0497 753c fbb0 d03b d1fa 6e3b
000003b0: 24c0 bcbb 5f7d 4c3c 4181 543c 0beb dd3b
000003c0: 62ea c4bb 9d9c ba3c e6ef 22bc d1d2 863c
000003d0: 5ac9 a23b 1bfa 0abb eb4c 8cba 32a5 bd3c
000003e0: 6d6a e7bc c6ab e5bc 4b82 a5bc da4a 343d
000003f0: 82fa 4dbb 5883 0c3d 8522 b7ba 7fbd babc
-0.0315875 0.00075023615 0.038812246 0.05140525 0.051638495 -0.05124947 -0.011814829 0.00048123344
0.041871548 0.022901082 0.00591671 -0.028126922 -0.007068344 0.061106812 0.0029415262 0.012041534
-0.035808325 -0.032452792 -0.025656767 -0.017359272 -0.012652765 -0.020505039 0.027335059 -0.00949732
-0.041838862 0.05156477 0.030157315 -0.026143318 0.010380151 -0.05478579 0.013527206 -0.030691372
0.03633767 0.019866617 0.024923822 0.020480072 -0.037884705 0.034832425 -0.015496255 -0.02600106
-0.03919478 -0.0033603674 0.045987833 -0.0038192866 0.015329271 -0.004132048 -0.011397722 0.0052619684
-0.0070690806 0.02438802 -0.03979926 -0.021793183 -0.078454174 -0.054218195 -0.003851742 0.0012058405
-0.037140373 -0.03788039 -0.043453947 0.021422613 0.028845897 0.02656025 -0.034319226 0.00861009
0.04503514 0.055473972 -0.041783284 0.01843642 0.039137475 0.029199678 -0.0019418837 0.053494785
0.011972824 -0.0046590306 0.011065748 0.046319813 -0.017306244 0.028129993 -0.0019715063 0.02462199
0.02167183 0.023656944 -0.0256214 -0.009555335 0.011557924 -0.036572147 0.025337078 -0.011191994
-0.007224773 0.019943835 -0.02825376 -0.02199379 0.023809595 -0.025951609 0.018483521 -0.040578526
-0.016730193 0.0039375774 -0.020795042 -0.06430905 0.004875106 -0.036724146 0.020276073 -0.056297217
-0.0835764 -0.0042613335 -0.013201896 -0.045201562 -0.044270966 -0.07681059 -0.035729706 0.0033294915
-0.0113786375 -0.048168857 -0.035213474 -0.008027585 -0.022965655 0.051675495 0.020090189 -0.014613377
-0.038219385 -0.007163308 0.05666915 0.055244897 -0.03354879 -0.011278471 -0.030467825 -0.02669414
-0.065895334 -0.07948461 0.010840566 -0.010305383 -0.02800123 -0.032490667 -0.061534997 -0.041618593
0.025736427 -0.03711347 -0.008576716 -0.03883834 -0.020424537 0.01433742 -0.007618805 -0.023319595
-0.07771335 0.008206513 0.0046743643 -0.027019195 -0.054187715 -0.023902053 0.0012630934 0.006950701
-0.027222907 -0.0036282958 0.013220657 0.054750264 0.012076858 0.02266034 0.0035856587 0.0048491303
0.016763689 0.00945027 -0.039457206 0.019942492 0.05056598 0.054360405 0.022111056 -0.0019369274
0.032941576 -0.0043860464 0.013565674 -0.02194568 -0.024259938 0.0077566826 0.006399715 -0.02095398
-0.012785834 -0.07212421 -0.075448886 -0.034729093 -0.017824389 -0.02318436 -0.05749138 -0.046725746
-0.07499265 -0.0133257015 0.0054432424 0.0452076 -0.02546692 -0.039448723 0.00871248 0.008149336
-0.03032395 -0.0709248 -0.0081526 -0.0922298 -0.030620553 -0.008191551 -0.009190797 -0.009448456
-0.050627936 0.03037592 0.02093259 0.07384356 0.017913911 -0.005221035 0.00058457034 -0.013212198
0.0121418 0.007859293 -0.035592258 -0.016621491 0.02032516 0.047275305 0.022269981 -0.008179723
0.018546637 0.0005130179 0.012861096 0.029607188 0.020286873 -0.046266723 -0.014263479 -0.023372753
-0.032742433 0.010478549 0.024442585 0.022376325 -0.04796718 0.0054588527 0.040659223 -0.0004593051
-0.011701592 0.014989618 0.006368754 0.0036465416 -0.0057602096 0.012481063 0.01297027 0.006772404
-0.006009386 0.022779757 -0.009944892 0.016457947 0.0049678506 -0.0021206203 -0.0010704076 0.02315006
-0.02824899 -0.02803601 -0.02020373 0.044016697 -0.0031429832 0.034304947 -0.001397208 -0.022795437

bias f4 [64]
00000000: ef28 f3bd 83c9 f13d eec7 44bd d291 a7bd
00000010: 28fa f8bb 9c44 b63c 66a8 0cbe 0b64 1abe
00000020: 8f4a 1abe a854 d93c e6b1 7a3d a945 e9bd
00000030: 6394 a7bd 212f 8abc 76e1 29bc 56ad 413c
00000040: 1baa b13d 33b4 58be 0b04 c9bc fc09 ea3c
00000050: bbd3 bebd b730 0bbd cbd3 b0bd acee 143d
00000060: ebf5 54bd 751c 3f38 3788 7bbd 9eaa 2cbe
00000070: 5cb4 883c 2640 23bd a719 31bd 7955 22be
00000080: db7c 5b3d e893 24bd bb71 bebd 9974 e5bd
00000090: ce62 313d ea7d 1abe d7ef f1ba c0ed 2b3d
000000a0: d2a1 a7bc 428a 26bd f8b8 80bc c94f a4bd
000000b0: dbed 11bd 0117 d73d bd16 40be e108 8fbd
000000c0: 0991 dfbc 1b5d a7bc a660 a4bd 61de bebc
000000d0: 1f7d 723d db9d 21be e70a eebd d552 e8bd
000000e0: 5da8 86bd 5505 793b 345e 6f3d 55c6 cbb9
000000f0: 7c36 d5bc cbe5 82bd a774 2d3d f268 77bd
-0.11873042 0.118060134 -0.04804223 -0.0818211 -0.0075981803 0.022249512 -0.13736114 -0.15077226
-0.15067504 0.026529625 0.061204813 -0.1139024 -0.081825994 -0.016868176 -0.0103686955 0.011821112
0.08675023 -0.2116249 -0.02453806 0.028569214 -0.09317728 -0.033982005 -0.08634146 0.036360428
-0.05199234 4.556445e-05 -0.0614092 -0.1686196 0.016687565 -0.0398561 -0.043237355 -0.15852918
0.05358587 -0.040180117 -0.09299036 -0.1120388 0.043307118 -0.15087095 -0.0018458319 0.041974783
-0.020462904 -0.040659197 -0.0157132 -0.0802303 -0.035627227 0.105024345 -0.18758674 -0.069841154
-0.027290838 -0.020430138 -0.08026247 -0.023299398 0.059201356 -0.15782873 -0.11623173 -0.11343924
-0.065750815 0.0037997563 0.05843945 -0.00038866946 -0.026026957 -0.06391486 0.042347576 -0.060402818

weight f4 [128, 64]
00000000: 4018 aa3d 44e3 403d 789c f13c 9f1e 9ebd
00000010: 7f4f babd 4ab0 abbd 39a0 8e3d ad50 d5bc
00000020: 9062 b4bd ad6f 9a3d 5ec7 183d cd39 0bbe
00000030: 53e0 5d3c a908 a43d d7fc a2bd 20b0 3ebd
00000040: 266c bb3d 04ac 5bbd 9e8b 51bc 4205 e5bd
00000050: 2f90 823d f4fa 01be e26b 83bd 73b4 65bd
00000060: 9c88 74bd a31a e23d d024 c03d f32a d8bc
00000070: 74a2 80bc 6d31 d23c eba2 b23d 42fc ecbd
00000080: c36d 8dbd 5ea9 33bd c96f 883d f1f5 283d
00000090: 7e4b 143d 880e 5c3d 2a8f 733d 6ef9 febd
000000a0: c389 a5ba 588b 2ebe e0a3 f0bc 596b a83d
000000b0: 8962 c8bd 24b0 07be 33a7 8abd ba96 413c
000000c0: af00 963c 94cc 1b3d 122b 1f3d 1222 90bd
000000d0: f188 053e 4a10 04be ae78 92bd 4b0a c93d
000000e0: 46a0 903d 4e58 e63d 9b05 ff3c c569 1abd
000000f0: f3cb b2bd 2724 61bd d59a ac3d 96f0 b7bc
00000100: 331f d2bd 7792 acbd bf23 e6bd 4b7a 8fbd
00000110: f6d9 15bd 787f a0bd 5df2 34bc 2715 ce3d
00000120: 0176 8cbd 5931 e83d 2b2b d73d ee0d d53d
00000130: 6ac4 27bd 4d40 dfbd 65b4 6c3b da25 753d
00000140: 0210 e2bb 621d bbbc 1a68 543d c868 85bd
00000150: 184d a1bd 7fd9 533d 6d44 d93d 4e65 67bb
00000160: 7e6d 17bd 33ec 143d d449 8fbd 5a41 17bc
00000170: 154c e6bd 0da3 e43d 84d5 94bc af09 003d
00000180: 663a eebc 840b e3bd f4ad 1dbd 94d6 d73d
00000190: bb9a 863d 113f d7bd 71ab 3a3d 43dc 783c
000001a0: a03b 69bd a0f4 b1bd 1ce6 96bd 8962 cfbd
000001b0: ee6e bb3d ed3e da3c d4ef 98bd 6827 933d
000001c0: 7870 5a3c 5e3b 6b3d 50e1 213d 125b 14bd
000001d0: e043 8bbc a024 ce3d d852 3ebc b712 86bd
000001e0: 3a81 db3c ebc6 e33d 6e52 9abd ea70 e93c
000001f0: 4951 ee3d 20d5 9d3d 99b4 8bbd 1501 e83c
00000200: bb0e ee3d 2a00 a63d 51aa abbb e1c7 103e
00000210: bdc4 c5bd 1fa9 ac3d 6034 363e 197c 3c3e
00000220: 31ea 1a3e 4573 d03d 77b7 f03d d317 f4bd
00000230: ec42 a73c 0bd6 55bc 93e8 653b 506e 173e
00000240: dc44 87bd ce70 fc3c 5b19 323e 49f2 483d
00000250: 38ff f63d 1e76 5a3d 14e0 0bbd 0305 cb3d
00000260: 8af6 2b3e 6511 acbc 684a 6c3d 12d0 813e
00000270: 54d8 8b3c 6a7a ed3b ccb2 23bd ef22 12be
00000280: 5515 953d f37a 36be a69f 91bd 0a3e 8a3d
00000290: 4917 113e 3648 54bd aefd b83d ea6c 053e
000002a0: 665c 8dbd 9fa6 063d 7884 abbb 44f5 8f3d
000002b0: 99c8 1abe f2d1 11bd c94c 50bd 5d89 0f3e
000002c0: 767d 03bd e053 0b3e ea13 52be e506 45bd
000002d0: fe7b c63d c25c 05be f4c1 2e3c 63d4 223c
000002e0: 1b5f 5a3d 0aa2 483e a346 afbd fee0 01be
000002f0: 6987 e73d 492d 76be c9d7 9ebd a1eb 1f3d
00000300: 59ad 843d d1c0 363c 5e09 84bd 7238 e2bc
00000310: ae35 003e 89d8 abbd f2db 3e3d 402b 973d
00000320: 8457 8abd 3341 e5bd a925 19bb d030 96bd
00000330: 7a71 d1bd 9fed fc3d 63c0 d3bd 0af2 ab3d
00000340: 215e 8c3c 95c8 3fbb 5647 1e3d 0d8a bb3d
00000350: b901 e73d d558 0ebe 7156 9ebd 0c0f 66ba
00000360: 2323 4abd 5b9b e83d 5bf2 0dbb b724 84bd
00000370: febc a73c 5b5b 11bd 3af9 db3d 9057 b83d
00000380: a884 ae3d a8d5 fc3c 62e0 ae3d aa55 563b
00000390: 62ac fc3c 0d21 cdbd 2a26 133c 2a72 e73a
000003a0: 410e 053e 2bc0 983c 6ef5 803d f002 e3bd
000003b0: 7137 3fbd 63a2 1fbd f053 1e3c 0729 1dbd
000003c0: e924 d6bb 2eec 96bd 1e78 af3d d3c4 b33d
000003d0: 2c0c 743d e6a6 d53d 042a ea3d 534a 40bd
000003e0: bba3 97bb f5c2 cebc 08ea 80bd 5946 863d
000003f0: 00b9 543c a6e5 81bd 45b9 f63c e07d 1dbb
0.083054066 0.047091737 0.029493555 -0.07720684 -0.09097194 -0.08383234 0.06964154 -0.026039446
-0.08807862 0.07540832 0.037299506 -0.13596268 0.013542253 0.08009464 -0.079583816 -0.046554685
0.09151487 -0.053630844 -0.012789635 -0.111826435 0.06375157 -0.12693387 -0.064170614 -0.056080293
-0.059700593 0.11040237 0.093820214 -0.026387667 -0.015702464 0.025658334 0.087224804 -0.11571552
-0.06905701 -0.043862693 0.06661946 0.041250173 0.036204807 0.053724796 0.059462704 -0.12449919
-0.0012629557 -0.17045343 -0.029375017 0.082236 -0.09784419 -0.13250786 -0.06770172 0.011815721
0.018310873 0.038036898 0.038859434 -0.070377484 0.1304052 -0.12896839 -0.07151924 0.09816416
0.0706182 0.112473115 0.031130603 -0.037698526 -0.087303065 -0.05496612 0.08427969 -0.022453588
-0.10259857 -0.084263735 -0.11237287 -0.070057474 -0.036584817 -0.07836813 -0.011044112 0.10062628
-0.06858445 0.11337537 0.105062805 0.104030475 -0.0409588 -0.10900936 0.0036118266 0.05985055
-0.006898881 -0.02284116 0.05185709 -0.06514126 -0.078760326 0.051721092 0.10608754 -0.0035308185
-0.036969654 0.03635807 -0.069965035 -0.00923189 -0.1124498 0.11163912 -0.018168218 0.031259235
-0.02908058 -0.11086181 -0.038495973 0.105389744 0.06572481 -0.10510076 0.045573656 0.015189233
-0.05694163 -0.08689237 -0.07368109 -0.10126216 0.091520175 0.026641333 -0.074676186 0.071852505
0.013332479 0.057429664 0.039521515 -0.036219664 -0.017000139 0.100655794 -0.011616431 -0.06546538
0.026795018 0.11121925 -0.075352535 0.028496224 0.11636598 0.07706666 -0.06821556 0.028320828
0.11623903 0.081055 -0.005238809 0.14138748 -0.096566655 0.08430695 0.17793417 0.18406714
0.151284 0.10178236 0.11753743 -0.119186066 0.020417653 -0.01305152 0.0035081252 0.14788175
-0.06604931 0.030815508 0.17392485 0.049059186 0.12060398 0.0533353 -0.034149244 0.09913065
0.16793266 -0.021004388 0.057688147 0.25354058 0.017070927 0.007247259 -0.039965436 -0.14271139
0.072794594 -0.17820339 -0.07110529 0.06750114 0.14169039 -0.05182668 0.090327606 0.13029829
-0.06902389 0.032873746 -0.0052342974 0.070292026 -0.15115584 -0.03560061 -0.050854478 0.14017244
-0.03210207 0.13606215 -0.20515409 -0.04810228 0.096916184 -0.13023666 0.010666359 0.009938332
0.053313356 0.19593063 -0.08558395 -0.12683484 0.11305124 -0.24040712 -0.077560015 0.039043073
0.06478376 0.011154369 -0.06447099 -0.027614806 0.12520477 -0.0839091 0.046596475 0.07381296
-0.067549735 -0.111940764 -0.0023368394 -0.07333529 -0.10226722 0.1235001 -0.10339429 0.08395775
0.017134728 -0.0029263843 0.03864225 0.091571905 0.112796254 -0.13901074 -0.07731331 -0.0008776046
-0.049349915 0.11357757 -0.0021659348 -0.06452315 0.02047586 -0.035487514 0.107408956 0.09001076
0.08521396 0.030863598 0.085388914 0.0032704868 0.030843917 -0.100160696 0.008981267 0.0017657925
0.12993719 0.01864632 0.06296812 -0.11084545 -0.046683732 -0.038973223 0.009663567 -0.038369205
-0.0065351618 -0.073692665 0.085678324 0.087777756 0.05958192 0.10432224 0.11433795 -0.04694588
-0.0046276725 -0.025239447 -0.06294638 0.065563865 0.012983561 -0.0634263 0.03011764 -0.0024031326

bias f4 [128]
00000000: ebf5 4a3d cdac 22bd dda3 06bd 555f 1f3e
00000010: 6dd2 bf3d b371 bdbd 6310 a63d 5b6a 0c3d
00000020: b699 b43d 8287 f73d 2377 1d3e 5d47 d13d
00000030: 9e4f e6bd 7797 303d e0ac f9bd e389 babd
00000040: e1c9 9a3d b607 7d3d c502 f93d a9d3 443d
00000050: 5a01 a43d f885 4dbc afa5 143e 21b1 0a3d
00000060: 638b 1e3d e73a ea3d ad11 4abd 3ae4 c53d
00000070: 9ec2 82bb cc3d aa3d 431a 283e e98e a3bd
00000080: 5f60 ae3d 1792 823c bef5 443e c450 e4bb
00000090: e090 c13b 9db5 8a3c ef97 ecbc 1d4f 103e
000000a0: 2021 2bbd 03ab bcbc 62d6 a33a 57b5 e5bd
000000b0: da66 f3bd ab86 08bd 7c90 753c 1156 073e
000000c0: a676 bd3c 04ca b73d ae65 a03d 0e76 c0bc
000000d0: 930e 533e 2563 ee3d bf4f b7bb 4bbb c13c
000000e0: aa58 9a3b a33e b7bd c4f7 98bd fab4 4bbd
000000f0: f04c 5939 cdee 4a3d 5680 813d 2987 25bb
00000100: d04e f63d 4d08 633d 76da 343e a96f 8e3d
00000110: ccc5 31bc d2ff ef3d 03c7 c43d d741 493e
00000120: ea23 a13d c21a 0bbd f764 a2bd 463d 0ebd
00000130: 80cc 7dbd f12a 133a 98a0 1dbd 1e28 05bd
00000140: 5e21 b43c f527 f93d d6fc 323d d7d1 fd3c
00000150: 51bc 2c3d b320 183e daee 8f3d 48ed 2abc
00000160: bec5 9d3d f606 56bd adca 503c 63f7 1a3c
00000170: 4643 853c dfc3 debd 1d2a b23d 32f7 4dbb
00000180: 69e8 513d 58de 033e 61f5 12bd 5c0c 043e
00000190: a0ad 1f3e 0e62 f63d 3cab 8e3d 270d 583e
000001a0: 6836 f3bc 2b60 0e3d a49f adbd 402a cb3c
000001b0: 5f75 d13b 1d14 55bd feec b73b 0634 063e
000001c0: 0386 173e b2f0 fc3b 00cd 363e cd54 8abd
000001d0: bf77 b4bd d242 c13d 3d9a 483e 1818 91bd
000001e0: 06c6 eb3d a762 3dbc b69b b73d 3f7f 2cbb
000001f0: 626b 9c3c 8bc8 ac3d 703a 93bc 3429 f83d
0.049550932 -0.039715577 -0.032871116 0.1556371 0.093663074 -0.09250202 0.08108594 0.034281116
0.088183805 0.12086393 0.15377478 0.102186896 -0.112456545 0.043113198 -0.121911764 -0.09108331
0.075580366 0.06177493 0.12158731 0.048053417 0.0800807 -0.012544148 0.14516328 0.03386033
0.03870715 0.11437016 -0.049333263 0.096626714 -0.0039904853 0.08312568 0.16416268 -0.07986242
0.08514475 0.015938802 0.19234368 -0.006967636 0.005907163 0.016932303 -0.028881041 0.1409268
-0.041779637 -0.023030763 0.0012499804 -0.112162285 -0.11884852 -0.033331554 0.014988061 0.13216425
0.023127865 0.08974078 0.07831894 -0.023493793 0.20611028 0.11640004 -0.0055942233 0.023648879
0.0047102766 -0.08947494 -0.074691325 -0.04973314 0.00020723394 0.049544144 0.06323306 -0.0025257564
0.12026751 0.055427838 0.17661461 0.06954891 -0.010850381 0.11718716 0.09608271 0.19654022
0.07868178 -0.033961065 -0.07929414 -0.034726404 -0.061962605 0.0005614004 -0.038483232 -0.03250896
0.021988567 0.12165824 0.043698154 0.030983848 0.04217178 0.14856224 0.07027979 -0.010432549
0.07703732 -0.052252732 0.012743634 0.009458396 0.01626743 -0.10877203 0.08699439 -0.0031427857
0.051247034 0.12877786 -0.035878543 0.1289534 0.15593576 0.12030421 0.06966254 0.21098767
-0.029689029 0.03475968 -0.08477715 0.02480042 0.0063921656 -0.052021135 0.0056129685 0.13105783
0.14797215 0.007719123 0.17851639 -0.06754456 -0.08811902 0.09436573 0.19590087 -0.07084674
0.11512379 -0.011559165 0.089652464 -0.0026320962 0.019094173 0.08436688 -0.017972201 0.12117234

weight f4 [512, 128]
00000000: 5113 9fbd 4509 093d 1400 81bd 353b 15bd
00000010: b4a7 363d d37a 65bd 21eb edbc d565 b63d
00000020: cf9a 893c b12b c73d c734 a3bd e224 bd3c
00000030: a1d7 e1bc 1bcc 9b3d 5ca2 9e3d 3fa9 24bd
00000040: 6b27 85bd e0e4 41bd 184f 8abd 7bf7 5a3d
00000050: 0e8a d839 4cf2 bdbd 7142 21bd 525d 313d
00000060: d770 c0bc 9fe2 a4bd b52a 363c 6ced c0bc
00000070: 4036 c43d 47fc 13bb b1fd 6bbc 18f2 adbc
00000080: 0221 433d c070 923b 96ce 513d d4ea 1c3d
00000090: 43b7 dc3d 729c 7b3c 6bc7 5cbc 066f 003d
000000a0: 3071 413d aa34 b1bb 38a0 ea3c 2fc5 9fbd
000000b0: c389 aa3d 4c0e 8fbc f5a9 88bd e605 453c
000000c0: 50c0 7a3d 674f 24bd ea8c acbc 64c7 213d
000000d0: 4b19 ce3d c799 5bbc a869 b0bb e12c d0bd
000000e0: 5d92 28bc 14dc 3f3d 689f 85bd e4a8 603d
000000f0: 8097 d13c 5e08 6cbd 961e 613d bfa7 8bbd
00000100: 922d 653d 307a 95bc b2de a23b 3322 cbba
00000110: 0c17 60bc 574d 24bd bf49 be3b a22e c9bc
00000120: 52eb 2b3d a6d7 9cbd f01f 07bd a829 82bc
00000130: bdec 9fbc b5d7 cebd 01e8 6a3c 9370 abbc
00000140: 3a07 17bd 0d76 d53c bf32 893d 5606 1fbd
00000150: be70 683c f353 8cbd 4aa7 de3c ef94 bebc
00000160: 7826 b43d fcb9 ac3d 046f 303c f45a 183c
00000170: a0a3 dabc 14ec 793d 8a4f 6e3c 2b47 443d
00000180: 7a2b 1b3d 5cdb bf3d ca3c 683d ed43 413d
00000190: cce3 c6bd f2d5 fd3c 5d02 823d c03d 72bd
000001a0: 8d03 c5bc f036 d53b cd20 0dbd 87a2 9abd
000001b0: cc1d 79bc 1fd6 273d 138e 6dbd b9f6 f7bb
000001c0: f0a2 a0b9 281f d2bc 0b7a dd3c 7cf8 1f3d
000001d0: 8d38 a7bd bed4 103e af99 99bc 1eab f33c
000001e0: 64fd 853d f1ba 77bd 407f cc3c ff00 d03c
000001f0: 455e 8f3d c299 e6bc d4d7 93bd d319 b33c
00000200: ca15 323c 17a6 943d 6e55 bfbd 4080 d4bc
00000210: a7e8 d4bc 89c3 3dbc aaf4 e8bb b1e5 35bd
00000220: be25 73bb 8398 85bc 53fd 3abd d719 60bc
00000230: a4d7 d7bc 138d 0cbc b2e5 923d dfb0 05bd
00000240: c830 07bd a0db 8a3d cc37 a53d 5e73 5dbc
00000250: fcad d43d bc34 f83c 60c3 593d 4040 6e3d
00000260: 7bd8 703d ee23 abbc e619 85bd aaaa 973d
00000270: 0c85 853d 5042 af3d 6346 8dbd a57d 58bd
00000280: c7d9 463d d589 283b 8374 d8bb c7e5 52bd
00000290: eb8c c1bd d267 43bd b981 20bd a01e bbbd
000002a0: 09f1 c23d b428 973c 04ee a33d e3ed 9ebc
000002b0: 0088 8cbc fbb2 5c3d 3b70 0c3a 59cc c6bc
000002c0: 8b13 f13b 1c41 3ebd c43f db3d 3a64 40bd
000002d0: 498f 49bd 3c5d 90bd 1963 d43d 9d3d 85bd
000002e0: c608 bb3d 8cf5 033d e896 a4bd ea9c 58b6
000002f0: 8628 203d a52f 8cbd 35b0 84bc 0b80 8a3d
00000300: 58ac b1bb d428 f63c db70 2d3b 445b 253d
00000310: 2546 3e3d e143 733d abf2 9b3c bae8 06bd
00000320: 8827 79bd 6cb4 063d c416 203c 2a45 00bd
00000330: e4bc 393d c92f 40bb 6fc0 40bd c944 293c
00000340: cc33 903d bb21 f33b 5248 37bd 977a c6ba
00000350: 6480 b7bc 63e3 b63b 97eb edbc 0090 d63c
00000360: 5153 22bd bea5 96bd 2f8d 8bbc 956f a83d
00000370: 3b6b 29bd e588 a7bc 7e1d 273d be17 703d
00000380: db1f b33d 1aa5 4bbd e8e4 0f3d 7e5d aa3c
00000390: 1a9b abbc 0c98 91bc 93aa abbc f615 8d3d
000003a0: cc5b 6ebd d43e 8fbd 8f61 973d 6e3a 98bd
000003b0: 1e49 88bd 9f03 7dbd 1a65 b33d 22ae 6a3d
000003c0: 25b1 b93d 8b71 2a3d a8e8 8abc 8526 de3c
000003d0: c818 543d 8d57 c13c e2e2 a43d fc84 ae3d
000003e0: c9dc 45bd b967 d3bc a43b b3bd 3900 78bd
000003f0: f89b 51bd 62ed 533d 973f ec3b 1d25 c9bc
-0.07767356 0.033456106 -0.06298843 -0.036433417 0.044593528 -0.056025337 -0.029042782 0.08906142
0.016797451 0.0972513 -0.07969051 0.023088876 -0.02756864 0.076072894 0.07745811 -0.04020047
-0.06501659 -0.047337413 -0.06753367 0.053458672 0.0004130159 -0.0927473 -0.039370004 0.043301888
-0.023491306 -0.08051037 0.011118581 -0.023550712 0.0958066 -0.002258079 -0.014403746 -0.021233603
0.0476389 0.0044690073 0.051222406 0.038309887 0.10777142 0.015357124 -0.013475279 0.03135588
0.047227085 -0.0054078894 0.028640851 -0.07801282 0.08327057 -0.017462872 -0.06673042 0.012025332
0.06121856 -0.040114786 -0.021063287 0.039496794 0.10063418 -0.013403363 -0.005383689 -0.1016481
-0.010288802 0.046840742 -0.06524545 0.054848567 0.025584936 -0.057625167 0.05496081 -0.068191044
0.055951662 -0.01824674 0.004970395 -0.0015497863 -0.01367737 -0.04011282 0.005807131 -0.02455837
0.041972466 -0.07658319 -0.032989442 -0.015889004 -0.019522065 -0.100997366 0.014337541 -0.020927703
-0.036872126 0.026057268 0.06699132 -0.0388244 0.014187036 -0.068519495 0.027179379 -0.023264376
0.087964 0.08433911 0.010768656 0.009299029 -0.02668935 0.061016157 0.014545331 0.047919434
0.03788326 0.09368011 0.056698598 0.04718392 -0.097114176 0.030985806 0.06348107 -0.05914092
-0.024049545 0.006506793 -0.03445511 -0.07550531 -0.015204858 0.040975686 -0.05799682 -0.0075672534
-0.00030638976 -0.025649622 0.027035734 0.039055333 -0.08165083 0.14143655 -0.01875004 0.029744681
0.06542471 -0.060481016 0.024963021 0.0253911 0.07000402 -0.02814949 -0.072189 0.0218629
0.010869453 0.072582416 -0.09342466 -0.02594006 -0.025989844 -0.011582264 -0.0071092444 -0.044408504
-0.0037101354 -0.016308075 -0.045651745 -0.013678036 -0.026347943 -0.008578557 0.07172717 -0.03263938
-0.033005506 0.067801714 0.08067283 -0.013516275 0.103847474 0.030298583 0.05316484 0.058166742
0.058800202 -0.020891156 -0.0649908 0.074055985 0.06519517 0.0855757 -0.06898191 -0.0528542
0.048547532 0.002571692 -0.006605686 -0.051488664 -0.09450706 -0.047706433 -0.039186213 -0.09136701
0.0951863 0.018452026 0.08004382 -0.019400543 -0.017154694 0.053881627 0.00053573 -0.024267362
0.007357066 -0.046448812 0.10705522 -0.046970583 -0.049208913 -0.07049033 0.10370464 -0.065058924
0.09132533 0.032216594 -0.080365956 -3.2277844e-06 0.039101146 -0.06845025 -0.016197303 0.067627035
-0.0054221563 0.030048765 0.0026464972 0.04037024 0.046453614 0.059390906 0.019036612 -0.03293679
-0.060828716 0.032886907 0.009771053 -0.03131596 0.045346156 -0.0029325357 -0.04705852 0.010331341
0.070411295 0.0074197925 -0.044746704 -0.0015142736 -0.022400089 0.005581306 -0.029043002 0.026191711
-0.039630238 -0.073558316 -0.017035095 0.082244076 -0.04136203 -0.020451019 0.04079961 0.058616392
0.0874631 -0.049718 0.03513041 0.020796534 -0.020947982 -0.017772697 -0.02095536 0.06888954
-0.058193013 -0.069944054 0.07391655 -0.074330196 -0.06654571 -0.06177103 0.08759518 0.057294972
0.09066991 0.04161219 -0.016956642 0.027117977 0.051781446 0.023601318 0.08051087 0.085214585
-0.04830626 -0.025806295 -0.0875161 -0.060547087 -0.051174134 0.051740058 0.007209729 -0.02455383

bias f4 [512]
00000000: 7fb1 843c f972 c23d d258 623c be34 093d
00000010: f1d6 bcbc 00dd 073e 54ce b43d 5616 9fbd
00000020: 35ce 1fbd fc9d 9ebd 1b44 8dbd c633 97bd
00000030: f686 a43d eef7 e63d bb72 5dbd eefb 2f3e
00000040: 8ade 96bd 3975 f1bc 260a 003e f118 923d
00000050: 75c9 1e3d 5c23 653d ec90 c93d 88b1 5d3c
00000060: 7557 09bd 572e 12bd 721e a33d a8e8 cc3d
00000070: 58d1 023c 418f 41bd 60c6 0d3e 3926 84bc
00000080: 5f7a 46bd 2ae3 8ebd fae2 d43a 9f5e 2a3d
00000090: ba84 853d e0f4 593d cad3 afbd 6efd a43d
000000a0: 7997 94bc 768a 0f3d fbe2 cfbc c01d 4dbd
000000b0: 5512 93bd c14a 803d f712 5f3b cd03 c7bc
000000c0: 0e38 5fbd 0532 0b3e ad79 27bd caf6 f03d
000000d0: f68e 66bd 74ad db3c 6739 1abd f68e 4b3d
000000e0: fc0a 22bd 749a 993d 6ddf 9bbd b019 e63c
000000f0: 043e 4d3d b13b fdbc d50c e3bb d1bf 963d
00000100: 93cd 85bd 80d9 d63c 7265 db3c 04bd 913c
00000110: 352f 473c ad8e 38bd 2555 893c 0be4 ed3d
00000120: 5068 353d 4c95 e3bc f493 32bd 2f39 843c
00000130: f447 0a3e 4d15 d03d eae5 873d c090 cfbc
00000140: 563c 023e 5b3e 8d3d ff5c 66bd 18d3 dfbc
00000150: f040 e8b9 4430 42bd 7825 9c3d 789a 963d
00000160: 7b20 95bd 167b 20bd 0065 003d 5fcb e7bc
00000170: 9b95 123e 136c e53d 0a00 9cbd 51de 863d
00000180: 63fe ec3b 8f05 3b3d 4b5e 233d 1fb9 8bbd
00000190: 71de 263d 8690 b43b 9f46 45bd 8c50 04bd
000001a0: fa06 10bd 3c70 7dbd 5144 e33d da17 893c
000001b0: 63f9 21bc dde3 ab3b 0fb9 943d ebd3 8d3d
000001c0: 160f dc3d 38ef 57bd 9e3e 25bc 1b81 68bd
000001d0: eb3a 073e 2a4b aebd 3f3c 503d 23bc 95bd
000001e0: 4f6e fc3c dbba d23c 4638 5d3d 7bc7 e83d
000001f0: aaf5 a6bd 130f c73a d3d4 9dbc d412 02bc
00000200: 3a55 a3bd 806f 0e3e 1ce7 b63d 5c5e d93d
00000210: 1c36 283d b78f e2bc 8daf 94bb 0269 ee3d
00000220: a221 7bbd 33f2 38bd 0e9c a1bd ccd5 91bd
00000230: 85da a43d 64b7 90bd 5795 ee3d b329 71bd
00000240: f4f0 ab3c 8cd4 833d b728 b83d 08c6 133e
00000250: 06ae 32bd 267d ce3d 3ecf 2f3c 5b4c 95bd
00000260: 0e6b c63b 5ec2 12bd a59d 143b 7430 de3d
00000270: 307a 2d3c dc3a 1dbc bfde f1bc b36f 6ebd
00000280: 4ca7 b53d ba6d 863d ef70 8a3c b074 9bbd
00000290: 8591 85bd 88c6 32bd 107f 8d3b 6116 88bd
000002a0: b304 f3bc d93c 1ebb d5dc 063e b17b 1bbd
000002b0: 0e97 913d 5b4c 8d3d 1f5d 5f3d 8142 a33c
000002c0: 6346 003e 08b9 843d 1961 4e3c 214f 2ebd
000002d0: e42b a93d 23d8 e93c ffe5 f93d 8287 f53c
000002e0: 25bc 413a 1aa7 913c d951 67bd 4b58 f9bb
000002f0: 4947 4dbc f5b7 ab3d 3b1a 443d 077b ca3c
00000300: c00d 9d3c a3f0 f2bc c6cf 693d 2ceb 893d
00000310: 1142 84bd c056 e9bc 9743 b43d bae9 61bd
00000320: c5e4 0ebc 5d34 483d 910e a1bd c436 21bd
00000330: 9d44 253e b952 8e3d 10e8 303d cebd 88bd
00000340: f278 123b 460f 543b 6476 db3d bc72 e63d
00000350: d942 50bd 7fd3 d9bc ccb2 dbbc 81e8 66bd
00000360: 6397 53bd 93dc 36bc d945 b83c 8b1f 903d
00000370: 182e 74bd 640f e33c 05cb 14bc b6ae a73d
00000380: 0db5 b0bd 107f 61bd 7089 ae3c 8f25 b83b
00000390: 5875 b6bc efcf 6cbc 7f12 66bd c5d6 3fbd
000003a0: 0966 98bd 7f50 303d 15b3 35bc 4539 373d
000003b0: 48e9 b0bd 5aef cf3d 4dfd 48bd 3da8 33bd
000003c0: ba9a 61bd 9c9c e73c 2c1c f13d 7f14 223d
000003d0: 7822 7bbd d2b9 813d 3044 f7bc 8818 353e
000003e0: c230 95bd eb3d 04bd d6d6 e33c 0c0e 5a3d
000003f0: 5bc4 543d bb43 23bd 07b1 9b3d d009 90bd
0.016197918 0.094945855 0.013815122 0.033497564 -0.02305171 0.13267899 0.088284165 -0.07767932
-0.039015014 -0.07744977 -0.06897756 -0.07382922 0.08033554 0.112777576 -0.054064494 0.17185947
-0.07366665 -0.029474841 0.12503871 0.071336634 0.038766343 0.055941924 0.09842095 0.013531096
-0.03353067 -0.035688724 0.07964791 0.10005313 0.007984482 -0.04725576 0.13845205 -0.016131507
-0.048456546 -0.06976922 0.0016241961 0.041594144 0.06519456 0.053212047 -0.085853174 0.080561504
-0.018138634 0.035044156 -0.025376787 -0.0500772 -0.07181231 0.06264258 0.0034038404 -0.024293805
-0.054496817 0.135933 -0.040887523 0.11765821 -0.056288682 0.026816107 -0.0376524 0.049696885
-0.039561257 0.07500163 -0.076109745 0.02808842 0.05010797 -0.030912252 -0.00692902 0.07360805
-0.06533351 0.026226759 0.026781771 0.017790325 0.012157251 -0.04505794 0.016764233 0.11615761
0.044288933 -0.027781151 -0.04359813 0.016140549 0.1350401 0.10160313 0.066356495 -0.025337577
0.12718329 0.06896659 -0.05624103 -0.027322337 -0.0004429887 -0.04740931 0.07624334 0.07353681
-0.07281586 -0.039179884 0.03134632 -0.028295217 0.14314882 0.11202254 -0.07617195 0.06585372
0.0072324737 0.045659598 0.039884847 -0.068224184 0.04073948 0.0055103926 -0.048163053 -0.032303378
-0.035162903 -0.061874613 0.11097015 0.016735006 -0.009886119 0.0052456693 0.072618596 0.06925186
0.10745065 -0.05271837 -0.01008573 -0.05676375 0.13206069 -0.0851043 0.050838705 -0.07311275
0.030814318 0.025723865 0.054008745 0.11366173 -0.081523255 0.0015186988 -0.019266522 -0.007939059
-0.0797524 0.13909721 0.08930799 0.10613701 0.041067228 -0.02765642 -0.004537529 0.116411224
-0.06131137 -0.045152854 -0.07891093 -0.07120857 0.08049492 -0.07066229 0.11649578 -0.058877658
0.020988919 0.064370245 0.08992141 0.14431012 -0.043622993 0.10082464 0.010730563 -0.07289954
0.0060552424 -0.035829894 0.0022676971 0.108490855 0.010588214 -0.009596553 -0.029525159 -0.058211993
0.088698 0.065638974 0.016899554 -0.07590616 -0.06521896 -0.043646365 0.0043181255 -0.066448934
-0.029665327 -0.0024145155 0.13170178 -0.03795976 0.071088895 0.06899329 0.054532167 0.019929172
0.1252685 0.064806044 0.012596392 -0.042555932 0.082603246 0.028545445 0.122020714 0.029971842
0.00073904014 0.017779876 -0.05647454 -0.0076094023 -0.012529203 0.083846964 0.047876578 0.024716867
0.019171596 -0.02965576 0.057082914 0.067343086 -0.06457914 -0.028483748 0.08801954 -0.05515454
-0.008721535 0.048878063 -0.078641064 -0.03935887 0.16139455 0.06949372 0.043190062 -0.06676827
0.002234992 0.0032357736 0.107159406 0.112523526 -0.050845 -0.026590107 -0.026818655 -0.056374077
-0.051658046 -0.011160987 0.022494243 0.07037266 -0.05961427 0.0277173 -0.009081607 0.0818762
-0.08628283 -0.055052817 0.02130577 0.0056197117 -0.02227275 -0.014453872 -0.056169983 -0.04683568
-0.07441337 0.043045517 -0.01109006 0.04473235 -0.08638245 0.101530746 -0.04906969 -0.043861616
-0.0550792 0.02827292 0.117729515 0.039570328 -0.06131217 0.063342705 -0.030183882 0.17685139
-0.072846904 -0.032285612 0.027812403 0.053236052 0.05194507 -0.039859515 0.07602125 -0.070331216

weight f4 [10, 512]
00000000: d16a 4dbc a5a8 c1bc ed3e 16bd 32af 40bd
00000010: f4e7 083d 9248 e13b 38ff 76bc 7200 433c
00000020: 50fe 1b3d 20c0 913c bae4 0bbd 4e17 3dbc
00000030: 9ddb 5ebd 9734 adbd 3c68 8e3c 0a15 8dbd
00000040: 0f7b eb3c a7a8 2abd 7745 b5bc 128f dcbc
00000050: db64 ba3c 81de e3bc 3aaf ddbb 3402 d33b
00000060: 451b 22bc bccd cc3c b595 7bbd 9135 8c3c
00000070: f1fa 14bd b7d2 e6bc 4ab6 c4bd 8b63 713a
00000080: a85c eebb 440e 93bc 27ea a4bc e58d 44bd
00000090: deec 5e3c 4941 f13c 42b0 64ba c46a 7cbc
000000a0: 585c ce3c 558e 6f3c 06a2 86bb 08b7 3a3c
000000b0: 31ff b53a 9798 2cbd 9c6e efbc d297 79bd
000000c0: 3c34 693c 3aa6 29bc 8295 babc 1df6 46bd
000000d0: b4e4 873c faf7 3fbc 94c5 113c 6f14 72bd
000000e0: 471d 813c 9e09 cb3c a0b6 0cbb f666 4dba
000000f0: 3ece 26bd 844f a0bc 135d c93c ffdb a8bd
00000100: f387 1f3d 707c 2dbc 3c96 52ba 465a 53bd
00000110: 6a34 cd3c 9a78 c5bb 21cc 1b3d 0685 15bd
00000120: 3ccd 023c 2509 9abc 00d5 76bd fa54 67bd
00000130: cd9f d03b c7e9 c1bd 857c 79ba eb9f 943c
00000140: 39e9 41bd 38e0 963b d5ae b8bc 8a1c 8c3c
00000150: bd41 203d 97bc a6bb e097 a93c e31b 4b3c
00000160: 319c 19bd 4a74 1d3d cbb1 82bc 3efd a0bc
00000170: 217c 0cbd 9e7c 623c 325d 02bc 9846 33bd
00000180: 7f04 aabc 818a dcbc ba9c d93c 4ab7 79bc
00000190: ae0a 8f3c 28e6 17bb 4071 743a 71f4 8c3c
000001a0: b838 1b3d 368c 6bbd f10d 48bd 6e80 8fbc
000001b0: eef2 953c 41e6 283d 5269 af39 60bf 71bc
000001c0: 4a70 11bd f23f 7c3c fe34 063d e1af 60bb
000001d0: 87c6 c8bc 45f0 e8bc b97d d1bc 4da1 123d
000001e0: 0c4e 4fbc 9df1 3bbc 4627 793c cb85 81bd
000001f0: 55d7 de3c 6c24 983c e0e0 ab3c d022 523c
00000200: 4aad af3c 1e93 3bbd 7602 38bd e667 84bd
00000210: 9452 1fbd aca1 28bd 9709 0abd 5543 adbd
00000220: 42be b73c bebb 05bd 2960 aebc 6060 43bb
00000230: 41ed 57bb 7917 32bd 6292 f1bc 3d2d 99bb
00000240: ca21 aabc 3b8c c6bc 7150 22bc 603d 97bd
00000250: f8df 8cbc c61d e23c 915d 5a3b da19 f1bc
00000260: e226 04bc 0320 f9bb 35ae fb3c 6f80 62bd
00000270: 3b7b 1fbd cbe3 e83c 554b 1d3d 397e 77bc
00000280: 6921 40bd 010a 79bd 64b3 d73c e5e3 c7bc
00000290: 9d45 1a3d 505c 6cbd d445 24bb 38ac 3c3c
000002a0: b4ef c7ba 769d 1b3d ef15 babc 77cf f5bc
000002b0: 9d10 43bd 761c 76bd d720 74bb 3dc9 0b3d
000002c0: 75fe eabc 66e4 64bc d5bd e2bb fc03 efbc
000002d0: 5dff 84bc 0e1c 2e3c ef0f 673c 325b f03b
000002e0: 8439 a53a a9d3 aebc 164d aebd d4b5 c33b
000002f0: d8c5 e43c bd96 5bbd fb7b 603c 35ff 1cbb
00000300: 4c98 1bbd 966e 4cbd 8db3 d3bc 6eb6 3d3c
00000310: 829d c8bb 3294 97bc 077e 65bd d51c e9bb
00000320: 418c 9e3c 0b6e 5abc d804 c5bc 21e5 7f3b
00000330: 7492 b8bd 99f8 713a 309d 69bd fec7 a7bc
00000340: 71b3 303d 4831 47bc d652 62bd 1927 eebc
00000350: ddb9 ff3c e63c a1bc fc9e f6bc 601d f23c
00000360: 80cb 7d3b 80ba c2bc f78d 34bd 12fb 2fbd
00000370: ae80 9a3c 43e9 34bd e9a4 98bc 1762 edbc
00000380: 3e7a c83c a720 c6bc 42a3 99bb 2601 3abd
00000390: 826b ea3c 79b2 e3bc d94e 9b3c 19a0 cd3c
000003a0: 80ed 233c 9dc6 abbc 3130 09bd b22c 083d
000003b0: ecae e7bc 514c 13b9 917c 6ebc b06d 203c
000003c0: ebe6 f23c 0e71 9a3c 488e b4bd 6032 813a
000003d0: 0043 f6bc a6c5 a5bc 08d8 cebb 3819 7cbd
000003e0: 18bc 2dbd 0c01 f7bc 1d71 0f3d c34f a43c
000003f0: c7d2 d0bc 858a 303c 61dc 0b3c 9979 893c
-0.012537674 -0.023639986 -0.036681104 -0.04704208 0.033424333 0.006875106 -0.015075497 0.011901962
0.03808433 0.017791808 -0.034153678 -0.011541201 -0.05440866 -0.08457296 0.017383687 -0.068887785
0.028745202 -0.041664746 -0.02212785 -0.02692369 0.02275317 -0.027816059 -0.0067652734 0.0064394716
-0.009894197 0.025000446 -0.06142207 0.017115386 -0.03637213 -0.028176649 -0.096050814 0.00092082535
-0.007274229 -0.017951138 -0.020131184 -0.047986884 0.013606278 0.029450076 -0.0008723774 -0.015406314
0.025190517 0.014621337 -0.00410867 0.011396177 0.0013885257 -0.04213771 -0.029227547 -0.060935803
0.014233645 -0.010354573 -0.022776369 -0.048574556 0.016588546 -0.011716837 0.008897204 -0.05910152
0.01576103 0.02478486 -0.0021471158 -0.0007835472 -0.04072403 -0.019569166 0.024580514 -0.08245086
0.03894801 -0.01058875 -0.0008033251 -0.051599763 0.025049407 -0.0060263397 0.03803647 -0.036503814
0.007983502 -0.018803189 -0.060261726 -0.056477524 0.006366706 -0.094684176 -0.0009517151 0.018142661
-0.04734156 0.0046043657 -0.022544304 0.017103452 0.039125193 -0.0050883996 0.020702302 0.012396785
-0.03750247 0.03844098 -0.015953919 -0.019652005 -0.034298066 0.013823656 -0.00795679 -0.043768495
-0.020754097 -0.026921513 0.02656399 -0.015241453 0.017461147 -0.0023177955 0.0009324737 0.017206402
0.037895888 -0.057506762 -0.04884142 -0.017517295 0.018304314 0.041235212 0.0003345707 -0.0147551
-0.035507478 0.015396105 0.03276538 -0.003428452 -0.024508728 -0.028434882 -0.025572645 0.03579836
-0.012652885 -0.011471179 0.015207117 -0.06324347 0.027202288 0.018572055 0.020981252 0.012825683
0.021444935 -0.0457946 -0.044924222 -0.064651296 -0.038897112 -0.041169807 -0.03370055 -0.08460108
0.02242959 -0.032649748 -0.021286087 -0.0029812083 -0.003294781 -0.043479417 -0.029488746 -0.0046745823
-0.020768065 -0.024236789 -0.009906874 -0.07384753 -0.01719664 0.027602088 0.003331993 -0.029431272
-0.008065911 -0.007602693 0.030722717 -0.055298265 -0.03893588 0.028428933 0.03840192 -0.015105777
-0.046906862 -0.060800556 0.026330657 -0.02440066 0.037664045 -0.057705224 -0.0025066035 0.0115156695
-0.0015253932 0.037991963 -0.022715537 -0.030006154 -0.047623266 -0.060085736 -0.003725102 0.034127463
-0.028685788 -0.01397047 -0.0069196024 -0.029176705 -0.016235048 0.010626806 0.01410292 0.00733509
0.0012605642 -0.021341162 -0.08510797 0.0059726033 0.02792637 -0.053610552 0.013701434 -0.0023955826
-0.03798704 -0.04991015 -0.025842452 0.011579139 -0.006122292 -0.018503282 -0.056028392 -0.0071140327
0.019353988 -0.0133319 -0.024050161 0.0039046484 -0.09012309 0.00092304643 -0.05703467 -0.020481106
0.04313988 -0.012157746 -0.05525478 -0.029071378 0.031216556 -0.019682359 -0.030105107 0.029555023
0.0038726032 -0.02377057 -0.0440807 -0.04296405 0.018860187 -0.04416777 -0.018633323 -0.028977437
0.024472352 -0.024185492 -0.0046886513 -0.04541125 0.028615717 -0.027795063 0.018958496 0.025100755
0.010005355 -0.02096873 -0.033493225 0.03324575 -0.028281651 -0.00014047443 -0.014556066 0.009791777
0.029651126 0.018852737 -0.088162005 0.0009856932 -0.030061245 -0.020235848 -0.006312374 -0.061547488
-0.04241571 -0.030151866 0.035019983 0.020057565 -0.025491131 0.010775213 0.008536429 0.016781615

bias f4 [10]
00000000: d5aa 24be 6e54 37be 0626 28be 5a5d 553f
00000010: 0934 11be 50b4 f73e 9d0a 4bbe c0f2 39be
00000020: 9088 17be 4cae 1fbe
-0.16080792 -0.17903301 -0.16420755 0.8334557 -0.14180006 0.48379755 -0.19828267 -0.18159008
-0.14798188 -0.15593833
