system/models/Cifar10/CNN/FedPer_BaseHeadSplit_Cifar10_client_6.pt (torch, 542108 bytes, 10 tensors)

weight f4 [32, 3, 5, 5]
0.012959713 0.13365199 -0.10637981 -0.11543624 0.009036516 -0.008421605 0.08705145 0.08316265
-0.10308513 -0.0074140457 -0.07074239 0.053356364 -0.08499272 -0.10663371 -0.077096686 0.041505154
0.15380383 0.17970806 0.022669801 0.0025313008 0.08924408 0.14916514 0.10165119 0.27664968
0.1227096 0.013894084 0.14282882 -0.16206427 -0.14598005 -0.003569694 -0.11344478 0.13282633
-0.135727 -0.19523756 -0.16577125 -0.19594441 -0.06654216 0.045290172 -0.058245894 -0.05605661
-0.055776704 -0.071491204 0.0026643393 -0.14528988 -0.17661466 -0.14134698 -0.027465457 0.026874509
-0.04412801 -0.06322023 0.13403527 0.23974428 0.09933064 0.04444247 0.19427222 -0.06875799
0.1508808 -0.0349009 -0.116371885 -0.052500557 0.042702775 0.13992485 -0.026261488 0.008554823
0.028583664 0.005822353 0.07905415 0.09547226 0.1008952 0.08224295 -0.08828544 -0.05957967
0.0851196 0.17186373 0.10560145 0.062643744 0.08500996 -0.060568303 -0.07284321 -0.10843066
-0.1400239 0.121602625 0.07826575 -0.1372211 0.15104185 -0.109321 -0.29216808 -0.20319678
0.4238073 0.25694615 0.06583827 0.0076511647 0.21931899 0.12666567 -0.32475725 0.06852534
0.23447004 0.14654146 -0.25184646 -0.21751493 0.072700515 0.17005788 0.0028878471 -0.11365253
-0.13967617 -0.09114856 -0.09589273 -0.11585005 -0.03700832 0.14940687 -0.18246263 -0.20929152
-0.20541963 0.49373215 0.4016928 -0.09146083 -0.048129197 0.16852763 0.06682374 -0.2618606
0.119039245 0.16911963 0.022133447 -0.22533612 -0.39140806 -0.063067004 0.015137985 -0.040495727
-0.11724595 -0.08480792 -0.03912933 0.0016222411 -0.1237881 -0.050953582 0.19646376 -0.0023280056
-0.2149526 -0.1666924 0.32815176 0.33173195 0.28621185 0.113299064 0.23334906 -0.017960303
-0.39518994 0.20749381 0.3203848 0.09402748 -0.28738338 -0.28787303 -0.18128654 -0.14454046
-0.009801909 0.13225956 0.1120766 -0.17692918 0.05100896 -0.075666085 -0.011667011 -0.012148551
0.009076187 -0.0035147038 -0.16365781 -0.18151309 -0.006386445 0.094552 -0.017696984 -0.03789068
-0.24883991 -0.102089785 0.17691804 0.003385039 0.101274356 -0.06669136 -0.23596601 0.090886764
0.018215973 0.020088326 0.17470703 -0.06227386 0.032911766 0.017594181 0.1317916 0.045164067
0.06411265 0.124360055 0.021910107 -0.06947363 -0.1696703 0.06635865 0.18578331 0.11297101
-0.15323964 -0.1190023 -0.16031457 -0.02223796 -0.045245342 0.027523316 -0.17652488 -0.12268228
-0.004719996 0.05089744 -0.09565796 -0.090252094 -0.121135384 0.08281784 -0.03580947 0.10017276
-0.0015568292 -0.04287047 0.0665272 0.020062175 -0.02244779 -0.10700931 -0.030204434 0.13431714
-0.0065019126 -0.06910238 0.010264112 -0.16263703 0.13426113 0.2587788 0.15174052 -0.01570764
-0.16338266 0.09096848 0.0058106496 -0.012034059 0.020852882 0.023966072 4.9144535e-05 0.106554314
-0.06424249 0.06361871 0.002475737 -0.02782064 0.157381 -0.11534026 -0.031085217 0.030328546
0.03939927 0.22258666 -0.054892093 0.097897954 0.12327467 -0.19519912 0.07522843 -0.28250685
-0.003264549 -0.07447164 -0.11974815 0.035326745 0.06636441 -0.0020869912 -0.069136925 -0.11388434
00000000: fa54 543c 11dc 083e a8dd d9bd d669 ecbd
00000010: e50d 143c c6fa 09bc 0848 b23d 2e51 aa3d
00000020: 4c1e d3bd 86f1 f2bb 63e1 90bd 348c 5a3d
00000030: aa10 aebd c662 dabd dee4 9dbd 4f01 2a3d
00000040: c07e 1d3e 6405 383e 05b6 b93c 2ee4 253b
00000050: 9ac5 b63d bfbe 183e 802e d03d 07a5 8d3e
00000060: 2c4f fb3d 03a4 633c b841 123e 2df4 25be
00000070: cb7b 15be 87f1 69bb bd55 e8bd a003 083e
00000080: 05fc 0abe 5bec 47be f0bf 29be a7a5 48be
00000090: 4247 88bd 3082 393d 3f93 6ebd 9e9b 65bd
000000a0: 1d76 64bd fb69 92bd 329c 2e3b dfc6 14be
000000b0: 79da 34be 43bd 10be 3dff e0bc ee27 dc3c
000000c0: 92bf 34bd 9c79 81bd 8b40 093e 867f 753e
000000d0: dd6d cb3d 4f09 363d 4cef 463e fdd0 8cbd
000000e0: 7f80 1a3e 3ff4 0ebd 6254 eebd d30a 57bd
000000f0: 1be9 2e3d 7648 0f3e 5522 d7bc 8729 0c3c
00000100: 4a28 ea3c 70c9 be3b 24e7 a13d f686 c33d
00000110: 25a2 ce3d fe6e a83d ffce b4bd d009 74bd
00000120: 2f53 ae3d 0cfd 2f3e 9345 d83d 5d4b 803d
00000130: b419 ae3d 7816 78bd d22e 95bd e510 debd
00000140: 6d62 0fbe cc0a f93d cb49 a03d b083 0cbe
00000150: b7aa 1a3e b0e3 dfbd 0e97 95be d112 50be
00000160: 45fd d83e 728e 833e 37d6 863d 9fb6 fa3b
00000170: 2895 603e a5b4 013e 9546 a6be 0357 8c3d
00000180: ea18 703e f70e 163e 05f2 80be 3cbc 5ebe
00000190: 02e4 943d a723 2e3e 0942 3d3b a8c2 e8bd
000001a0: 4507 0fbe 19ac babd 6863 c4bd ca42 edbd
000001b0: 0996 17bd 1dfe 183e 7cd7 3abe 8450 56be
000001c0: 8659 52be 76ca fc3e aeaa cd3e d14f bbbd
000001d0: 1f23 45bd 8292 2c3e e3da 883d 9812 86be
000001e0: d9ca f33d b22d 2d3e 3451 b53c 83be 66be
000001f0: a366 c8be 4629 81bd 5005 783c d9de 25bd
00000200: a51e f0bd c6af adbd 1446 20bd 61a1 d43a
00000210: 9e84 fdbd b4b4 50bd cc2d 493e 7491 18bb
00000220: 891c 5cbe 6ab1 2abe 8203 a83e c5d8 a93e
00000230: 5c8a 923e 5709 e83d 0ef3 6e3e 7c21 93bc
00000240: 5656 cabe 4279 543e 7a09 a43e 7b91 c03d
00000250: ea23 93be 1864 93be 2ea3 39be 6a02 14be
00000260: 3098 20bc 0d6f 073e 6b88 e53d ec2c 35be
00000270: c5ee 503d d2f6 9abd fe26 3fbc b70a 47bc
00000280: 4ab4 143c f256 66bb ea95 27be 91de 39be
00000290: 6245 d1bb 7ba4 c13d 44f9 90bc 4233 1bbd
000002a0: e4cf 7ebe 7314 d1bd 012a 353e 88d7 5d3b
000002b0: ee68 cf3d 7b95 88bd 13a1 71be d722 ba3d
000002c0: aa39 953c 4690 a43c 66e6 323e e012 7fbd
000002d0: 7dce 063d ac21 903c 61f4 063e f5fd 383d
000002e0: 7e4d 833d 7cb0 fe3d d37c b33c 3148 8ebd
000002f0: 0dbe 2dbe 0be7 873d fb3d 3e3e 585d e73d
00000300: daea 1cbe 7ab7 f3bd 8129 24be 622c b6bc
00000310: 2e53 39bd 9478 e13c f0c2 34be d940 fbbd
00000320: 32aa 9abb d679 503d 52e8 c3bd 17d6 b8bd
00000330: d415 f8bd 669c a93d f3ac 12bd 6027 cd3d
00000340: 850e ccba f298 2fbd 6a3f 883d 6e59 a43c
00000350: 6de4 b7bc b227 dbbd 4a6f f7bc 6f8a 093e
00000360: ff0d d5bb 8c85 8dbd ce2a 283c 528a 26be
00000370: c07b 093e a87e 843e de61 1b3e 4fad 80bc
00000380: c94d 27be af4d ba3d 4367 be3b 802a 45bc
00000390: aad3 aa3c 7f54 c43c 8b20 4e38 2639 da3d
000003a0: 9191 83bd 874a 823d f93f 223b 1ce8 e3bc
000003b0: 7c28 213e 8437 ecbd 6da6 febc 9273 f83c
000003c0: 2161 213d c2ed 633e 88d6 60bd b97e c83d
000003d0: 6e77 fc3d 47e2 47be 5d11 9a3d bda4 90be
000003e0: 0bf2 55bb 9684 98bd 853e f5bd c7b2 103d
000003f0: 10ea 873d e7c5 08bb a997 8dbd 313c e9bd

bias f4 [32]
-0.16772027 -0.28646803 -0.50263923 -0.17007104 -0.39993805 -0.18999135 -0.10853856 -0.5282122
-0.3140156 -0.1640628 -0.3603835 -0.028648604 -0.3380265 -0.21480869 -0.24669336 -0.46676084
-0.3597127 -0.11655402 -0.38367733 -0.07431008 -0.27733874 -0.17613997 -0.41421294 -0.12013607
-0.15671054 -0.22290425 -0.54887253 -0.17804818 -0.12182726 -0.26367483 -0.32374847 -0.09383538
00000000: ddbe 2bbe f0ab 92be f7ac 00bf 1a27 2ebe
00000010: aec4 ccbe 188d 42be 7749 debd ea38 07bf
00000020: a7c6 a0be 1400 28be 3084 b8be 7ab0 eabc
00000030: cf11 adbe cff6 5bbe 2f9d 7cbe 47fb eebe
00000040: 432c b8be e0b3 eebd 5b71 c4be e22f 98bd
00000050: 58ff 8dbe 095e 34be b813 d4be e609 f6bd
00000060: ba78 20be 0341 64be e982 0cbf 4352 36be
00000070: 9280 f9bd 6300 87be 5cc2 a5be c42c c0bd

weight f4 [64, 32, 5, 5]
-0.020717671 0.011606732 0.036551416 0.05621315 0.0456666 -0.040967386 -0.016305616 -0.007389106
0.03308936 0.023979649 0.014670523 -0.029920561 -0.014409984 0.06108957 0.013075517 0.012211331
-0.03586549 -0.026860105 -0.0052930196 0.004560952 -0.002880567 -0.026786016 0.022230286 -0.007625185
-0.028015861 0.078932814 0.05366667 -0.014887186 0.017999971 -0.025438333 0.05039194 -0.013556167
0.055199962 0.050401125 0.04706747 0.031221263 -0.013384636 0.062900536 -0.002239615 -0.013414113
-0.013885058 -0.0063440446 0.02132865 -0.013180827 0.030165685 0.004302324 -0.009280536 -0.0014742602
-0.010740069 0.024083069 -0.036207896 -0.020004515 -0.06407968 -0.061191063 -0.0070071793 0.0012925994
-0.033639077 -0.030607738 -0.047488805 0.016235633 0.033433553 0.029357918 -0.037067577 0.008073015
0.042882934 0.058779903 -0.03368164 0.015721174 0.02532703 0.023855971 0.0024130992 0.057493143
0.0023301214 -0.019362703 0.0011960585 0.03569695 -0.02612398 0.01815722 -0.009369394 0.019856445
0.02154632 0.017104702 -0.020809742 -0.005903933 0.020063296 -0.032544024 0.017381804 -0.0133766355
-0.012170827 0.01794027 -0.024765246 -0.021004586 0.02410913 -0.0289366 0.022977179 -0.04092776
-0.0151368985 0.0017370147 -0.015354719 -0.05801323 0.015309979 -0.015794927 0.024377393 -0.057258986
-0.066846564 0.0024250906 -0.008184405 -0.03581595 -0.035024364 -0.06908676 -0.02883697 0.007712149
-0.0010182146 -0.037822396 -0.024311788 0.014333775 -0.020692296 0.03672454 0.0034480828 -0.0047942796
-0.032186657 0.005274802 0.048947215 0.042775556 -0.029295875 -0.011952435 -0.027497014 -0.021022066
-0.066819355 -0.07712944 0.0077240616 -0.016173713 -0.0257326 -0.028326176 -0.057710316 -0.041119233
0.01809663 -0.036924813 -0.0010968648 -0.02972091 -0.014788166 0.012993537 -0.011158143 -0.019801067
-0.064921945 0.006045022 0.0069359355 -0.028143348 -0.055360682 -0.0062758676 -0.0050525605 -0.0022278854
-0.0271759 0.0048528607 0.01729507 0.044080283 0.001436054 0.017843457 0.0033025797 0.0054662526
0.009646465 0.0033768546 -0.039789177 0.023927208 0.054236468 0.045213412 0.016180696 -0.002684681
0.031732935 -0.0058528828 0.0016813114 -0.036184132 -0.031346608 -0.0050998586 -0.0019768574 -0.015133483
-0.015619394 -0.060789704 -0.05501176 -0.02657211 -0.019184671 -0.017387269 -0.039969586 -0.031292148
-0.058434978 -0.0073254453 0.006896456 0.039499544 -0.011838771 -0.021298993 0.0137825245 0.0001722779
-0.02435864 -0.04138265 0.015350097 -0.07668854 -0.021479536 -0.004481867 -0.00078721996 -0.004257732
-0.043249052 0.028012723 0.019076182 0.06055553 0.011379208 0.006220178 -0.007865913 -0.019884825
-0.0029710452 -0.0019277785 -0.02502215 -0.01835672 0.019314919 0.03860585 0.0155412685 0.006148757
0.016794069 -0.0031738458 0.012774956 0.036101 0.022722429 -0.054098647 -0.017296303 -0.023062006
-0.024348538 0.013185113 0.025576914 0.026747428 -0.043611806 0.008382356 0.035530843 0.0019028353
-0.0038788386 0.024568772 0.018383801 0.0024404097 -0.007997672 0.012863603 0.014295226 0.0063972366
-3.8336526e-05 0.017602809 -0.015929868 0.019586002 0.012451583 0.0023700532 -0.0017060639 0.017449426
-0.038025033 -0.025465786 -0.013541939 0.04337624 -0.010615457 0.029037468 -0.0065210974 -0.011610505
00000000: 1bb8 a9bc 2a2a 3e3c f0b6 153d c33f 663d
00000010: e70c 3b3d 6bcd 27bd 5b93 85bc 5020 f2bb
00000020: b588 073d f870 c43c a25c 703c f71b f5bc
00000030: db17 6cbc 0f39 7a3d b13a 563c 0912 483c
00000040: b1e7 12bd b909 dcbc 1171 adbb 0a74 953b
00000050: e5c7 3cbb 596e dbbc 4a1c b63c b0dc f9bb
00000060: 8581 e5bc 87a7 a13d 95d1 5b3d 62e9 73bc
00000070: ad74 933c 0d64 d0bc c767 4e3d af1a 5ebc
00000080: 5b19 623d 6971 4e3d d2c9 403d bcc3 ff3c
00000090: 3b4b 5bbc ffd1 803d 81c6 12bb dec6 5bbc
000000a0: 287e 63bc b4e1 cfbb 6cb9 ae3c 65f4 57bc
000000b0: 071e f73c 82fa 8c3b 640d 18bc f73b c1ba
000000c0: 1df7 2fbc db49 c53c bb4e 14bd 82e0 a3bc
000000d0: 353c 83bd 7ba3 7abd 7b9c e5bb 706c a93a
000000e0: 21c9 09bd 14bd fabc 9f83 42bd 9700 853c
000000f0: 9ff1 083d 0480 f03c 2cd4 17bd ae44 043c
00000100: 04a6 2f3d 32c3 703d c2f5 09bd b1c9 803c
00000110: a27a cf3c 996d c33c 1625 1e3b ee7d 6b3d
00000120: f3b4 183b 889e 9ebc 10c5 9c3a f736 123d
00000130: f501 d6bc 73be 943c 1682 19bc fca9 a23c
00000140: e881 b03c 291f 8c3c 3179 aabc c875 c1bb
00000150: c85b a43c e24c 05bd 4964 8e3c ad29 5bbc
00000160: 2668 47bc 79f7 923c 7ce0 cabc cf11 acbc
00000170: 8380 c53c 730c edbc a33a bc3c dea3 27bd
00000180: c100 78bc 8bac e33a 5c92 7bbc 489f 6dbd
00000190: b5d6 7a3c 5d64 81bc 19b3 c73c 6688 6abd
000001a0: dae6 88bd 45ee 1e3b e217 06bc bfb3 12bd
000001b0: b575 0fbd 5c7d 8dbd 823b ecbc 32b6 fc3b
000001c0: 9d75 85ba a8eb 1abd 8429 c7bc 36d8 6a3c
000001d0: e482 a9bc 796c 163d 3bf9 613b 5519 9dbb
000001e0: 28d6 03bd 3fd8 ac3b e07c 483d 6c35 2f3d
000001f0: e7fd efbc 25d4 43bc 6b41 e1bc 7836 acbc
00000200: 96d8 88bd 0af6 9dbd 201a fd3b bc7e 84bc
00000210: 2ccd d2bc 4c0c e8bc a761 6cbd a46c 28bd
00000220: 623f 943c 793e 17bd adc4 8fba 4479 f3bc
00000230: 104a 72bc d8e2 543c a5d0 36bc d935 a2bc
00000240: ccf5 84bd 5215 c63b d846 e33b e18c e6bc
00000250: e2c1 62bd cba5 cdbb f38f a5bb b701 12bb
00000260: fe9f debc bf04 9f3b 64ae 8d3c 878d 343d
00000270: fa39 bc3a 712c 923c 1870 583b 401e b33b
00000280: 350c 1e3c 384e 5d3b faf9 22bd fe02 c43c
00000290: 0f27 5e3d b331 393d 618d 843c 79f1 2fbb
000002a0: 65fa 013d 8ac9 bfbb 735f dc3a d035 14bd
000002b0: 4d65 00bd b71c a7bb 2a8e 01bb 6ef2 77bc
000002c0: 7de8 7fbc a0fe 78bd 0354 61bd c1ad d9bc
000002d0: 2c29 9dbc bf6f 8ebc 26b7 23bd 322c 00bd
000002e0: 8459 6fbd 4a0a f0bb aafb e13b 46ca 213d
000002f0: 68f7 41bc 3a7b aebc 19d0 613c 7fa5 3439
00000300: c58b c7bc db80 29bd f97e 7b3c e20e 9dbd
00000310: daf5 afbc a0dc 92bb 705d 4eba 7284 8bbb
00000320: eb25 31bd f07a e53c a745 9c3c 1309 783d
00000330: dc6f 3a3c a3d2 cb3b 08e0 00bc 80e5 a2bc
00000340: deb5 42bb 83ad fcba 40fb ccbc d560 96bc
00000350: 523a 9e3c 2b21 1e3d cea0 7e3c 837b c93b
00000360: b793 893c 4c00 50bb 0d4e 513c a4de 133d
00000370: 6324 ba3c 8b96 5dbd fab0 8dbc 88ec bcbc
00000380: 9676 c7bc 5f06 583c ad86 d13c 6c1d db3c
00000390: 4ba2 32bd 2656 093c ca88 113d 8f68 f93a
000003a0: 1d34 7ebb 7344 c93c a099 963c 48ef 1f3b
000003b0: ab08 03bc ddc1 523c 8636 6a3c e99f d13b
000003c0: 88cb 20b8 c433 903c 5b7f 82bc d372 a03c
000003d0: b901 4c3c e552 1b3b 019e dfba 19f2 8e3c
000003e0: 23c0 1bbd a09d d0bc 02df 5dbc 49ab 313d
000003f0: 74ec 2dbc fcdf ed3c eeae d5bb fd39 3ebc

bias f4 [64]
-0.069326974 0.08568319 -0.040149182 -0.09507438 0.092425264 0.03232436 -0.14069194 -0.047111392
-0.11839286 0.050331775 0.064911865 -0.048358977 -0.08997551 -0.016676037 0.0012827284 0.014516862
0.105824046 -0.19712166 0.021507025 0.049146462 -0.07983787 -0.034445845 -0.061227947 0.058408584
0.002444531 0.0071574803 0.025323054 -0.15011446 0.05902297 0.020814564 -0.049040295 -0.14697766
0.060371406 0.062449615 -0.09715934 -0.070105396 0.03192562 -0.12795216 0.07188887 0.046264287
-0.014406987 -0.033996463 0.008525535 -0.074759595 -0.021631585 0.10592994 -0.14845444 -0.06714118
0.0055212053 -0.024691708 0.010059722 -0.01240985 0.048069093 -0.099886805 -0.0011996666 -0.054579258
-0.07580125 0.05289147 0.11148369 0.045515608 -0.021094829 -0.049274556 0.06601165 -0.08730119
00000000: 4dfb 8dbd ab7a af3d 7873 24bd 5bb6 c2bd
00000010: 7549 bd3d 8c66 043d 8c11 10be e0f7 40bd
00000020: f577 f2bd b128 4e3d 83f0 843d 1014 46bd
00000030: 1545 b8bd 2f9c 88bc 3921 a83a 22d8 6d3c
00000040: 47ba d83d 43da 49be 802f b03c cd4d 493d
00000050: 0a82 a3bd 1617 0dbd 28ca 7abd d73d 6f3d
00000060: 6d34 203b 4c89 ea3b 4b72 cf3c 9bb7 19be
00000070: 12c2 713d 4e83 aa3c 7ade 48bd 5081 16be
00000080: 0248 773d 2bcb 7f3d 7afb c6bd 6b93 8fbd
00000090: 70c4 023d e405 03be 793a 933d 9f7f 3d3d
000000a0: 480b 6cbc e03f 0bbd b0ae 0b3c 8f1b 99bd
000000b0: b934 b1bc ccf1 d83d 7104 18be 5181 89bd
000000c0: 3aeb b43b 4446 cabc 88d1 243c af52 4bbc
000000d0: 19e4 443d 7491 ccbd 223e 9dba 808e 5fbd
000000e0: b03d 9bbd baa4 583d 9051 e43d 936e 3a3d
000000f0: 10cf acbc 1ed4 49bd 1e31 873d f7ca b2bd

weight f4 [128, 64]
0.08435011 0.046080507 0.03515377 -0.08342415 -0.09538541 -0.062935494 0.05776444 -0.037350185
-0.09571729 0.07818778 0.03148623 -0.14168665 0.020012323 0.07673056 -0.07997528 -0.044758502
0.08967424 -0.04943911 -0.007517445 -0.10491196 0.071549445 -0.11954228 -0.062266592 -0.05818257
-0.06475982 0.11038034 0.095626034 -0.031717166 -0.015867947 0.022624133 0.09457557 -0.11208549
-0.066280834 -0.04725864 0.064236365 0.03931975 0.045805715 0.04765267 0.050945286 -0.12317706
0.001024165 -0.1592995 -0.02461914 0.09194959 -0.099297896 -0.1345469 -0.06364646 0.010948606
0.026007827 0.03490823 0.03798758 -0.072569735 0.12699056 -0.12281052 -0.06972828 0.09135327
0.06438677 0.107471555 0.032923803 -0.03499924 -0.08506472 -0.050792743 0.08320584 -0.020772155
-0.10245399 -0.08427886 -0.1123126 -0.070193775 -0.036541857 -0.07827186 -0.0111076115 0.100562654
-0.06867949 0.11344695 0.10500581 0.103563495 -0.041033152 -0.10904656 0.0034178053 0.059969887
-0.0070952554 -0.02287955 0.051546335 -0.065330334 -0.07858535 0.051230043 0.10617113 -0.0035319696
-0.03698557 0.036464628 -0.070107944 -0.009387711 -0.11246411 0.1117101 -0.01823389 0.031303
-0.02918798 -0.11085647 -0.03839639 0.105347745 0.06579847 -0.10515322 0.04529907 0.015533681
-0.056682806 -0.08697468 -0.07363382 -0.1016504 0.09147655 0.026435088 -0.07476244 0.07239914
0.013374686 0.05748469 0.039383486 -0.036125775 -0.016875917 0.100853235 -0.011702838 -0.06553037
0.027293315 0.111014776 -0.07554866 0.028406704 0.11694529 0.07694614 -0.068279855 0.027948316
0.1061672 0.08046436 -0.0020042863 0.10024423 -0.100877576 0.09709667 0.13305317 0.16129783
0.13779762 0.112584025 0.12219733 -0.10232845 0.02029046 -0.0017983728 0.0010056017 0.1395988
-0.040682215 0.02712398 0.16317284 0.06732111 0.12875521 0.06741836 -0.039180625 0.08774094
0.15033013 -0.018608652 0.052059542 0.22781117 0.0147142215 0.02221825 -0.044597268 -0.13765743
0.083732635 -0.18383336 -0.080285124 0.053041186 0.15018198 -0.025874075 0.09333906 0.12411584
-0.057199217 0.029215759 0.015471252 0.0911875 -0.14097218 -0.030563714 -0.050384898 0.13248497
-0.05884097 0.1387105 -0.19466294 -0.04466944 0.100718535 -0.12205331 0.0066276025 0.00080186507
0.045384433 0.17764784 -0.09182519 -0.1262393 0.101595335 -0.23243393 -0.08485263 0.029932253
0.06851602 0.011451542 -0.0654932 -0.018520495 0.1321259 -0.085061446 0.05408934 0.079817265
-0.06394072 -0.11380478 -8.392314e-05 -0.07356203 -0.101084135 0.123888455 -0.10319232 0.08649103
0.018559543 0.0026025758 0.040465333 0.08836416 0.11305152 -0.14026678 -0.0738837 0.0021576367
-0.046371266 0.11555945 -0.00045201092 -0.05791606 0.020753128 -0.03534788 0.110010415 0.09217473
0.08446378 0.03276765 0.08924624 0.0065102973 0.030060707 -0.10107068 0.014912796 0.0030205462
0.12903649 0.017244363 0.060857832 -0.106452234 -0.04605296 -0.037356358 0.010827521 -0.03515135
0.00016793217 -0.0718044 0.08666132 0.089600496 0.061515577 0.1069293 0.11435295 -0.045212448
-0.0012671077 -0.021837072 -0.060281146 0.065921165 0.016809307 -0.062082924 0.031717226 -0.00069944846
00000000: c0bf ac3d eabe 3c3d 66fd 0f3d 48da aabd
00000010: 6d59 c3bd 53e4 80bd 689a 6c3d 82fc 18bd
00000020: 6d07 c4bd ea20 a03d b5f7 003d 4e16 11be
00000030: e2f0 a33c e924 9d3d 14ca a3bd b154 37bd
00000040: 21a7 b73d aa80 4abd e654 f6bb 15dc d6bd
00000050: 8488 923d 95d2 f4bd 410b 7fbd d950 6ebd
00000060: cca0 84bd 160f e23d 95d7 c33d dce9 01bd
00000070: 7ffd 81bc 3f56 b93c d6b0 c13d 148d e5bd
00000080: 3fbe 87bd 4792 41bd 5b8e 833d bf0d 213d
00000090: c69e 3b3d 722f 433d 01ac 503d 4144 fcbd
000000a0: 463d 863a 681f 23be 14ae c9bc 1150 bc3d
000000b0: b25c cbbd aac6 09be 1359 82bd c861 333c
000000c0: 5e0e d53c effb 0e3d dd98 1b3d 719f 94bd
000000d0: d009 023e 1584 fbbd b3cd 8ebd 6c17 bb3d
000000e0: 36dd 833d 0c1a dc3d 1cdb 063d 5d5b 0fbd
000000f0: 6936 aebd 0d0c 50bd d367 aa3d 5e2a aabc
00000100: 66d3 d1bd 659a acbd 2604 e6bd c1c1 8fbd
00000110: eaac 15bd ff4c a0bd b3fc 35bc cbf3 cd3d
00000120: d5a7 8cbd e056 e83d 490d d73d 1919 d43d
00000130: 6112 28bd ce53 dfbd 42fd 5f3b fca2 753d
00000140: 517f e8bb e56d bbbc 4022 533d e9cb 85bd
00000150: 5bf1 a0bd 98d6 513d 4070 d93d 9e78 67bb
00000160: 2e7e 17bd ef5b 153d c194 8fbd eace 19bc
00000170: 9553 e6bd 44c8 e43d 3d5f 95bc 9337 003d
00000180: a11b efbc b808 e3bd 8845 1dbd 8fc0 d73d
00000190: 59c1 863d 925a d7bd 858b 393d fb80 7e3c
000001a0: 3b2c 68bd c81f b2bd 54cd 96bd 162e d0bd
000001b0: 0f58 bb3d 668e d83c 0d1d 99bd 0046 943d
000001c0: 8021 5b3c 1175 6b3d 9450 213d 9ff8 13bd
000001d0: 5d3f 8abc 248c ce3d 43bd 3fbc c934 86bd
000001e0: 3b96 df3c b75b e33d 41b9 9abd 2db5 e83c
000001f0: 0381 ef3d f095 9d3d 4fd6 8bbd def3 e43c
00000200: 306e d93d 80ca a43d 585a 03bb d94c cd3d
00000210: e798 cebd 9eda c63d 173f 083e 422b 253e
00000220: d21a 0d3e 7492 e63d 9842 fa3d 9491 d1bd
00000230: 2e38 a63c 61b7 ebba 65ce 833a fdf2 0e3e
00000240: 65a2 26bd 1c33 de3c c816 273e a6df 893d
00000250: 68d8 033e a312 8a3d dd7b 20bd 86b1 b33d
00000260: 24f0 193e 2c71 98bc 633c 553d 5547 693e
00000270: eb13 713c 0c03 b63c a0ab 36bd 12f6 0cbe
00000280: 047c ab3d d03e 3cbe 876c a4bd b741 593d
00000290: 4ec9 193e def5 d3bc 8d28 bf3d 7230 fe3d
000002a0: ba49 6abd e355 ef3c 227b 7d3c 83c0 ba3d
000002b0: 035b 10be c160 fabc 6560 4ebd 24aa 073e
000002c0: 3b03 71bd 200a 0e3e b955 47be 4df7 36bd
000002d0: 8545 ce3d 16f7 f9bd 5c2c d93b 4134 523a
000002e0: 07e5 393d 51e9 353e d80e bcbd e044 01be
000002f0: 3711 d03d 2903 6ebe 37c7 adbd 7c34 f53c
00000300: 2152 8c3d 409f 3b3c 4d21 86bd 4bb8 97bc
00000310: 034c 073e b234 aebd c98c 5d3d 3c77 a33d
00000320: 5af3 82bd 7b12 e9bd e5ff afb8 b1a7 96bd
00000330: 3305 cfbd 3bb9 fd3d 7f56 d3bd 3622 b13d
00000340: 2f0a 983c fa8f 2a3b fabe 253d 45f8 b43d
00000350: 8e87 e73d 18a2 0fbe 5650 97bd 2367 0d3b
00000360: ccef 3dbd 6faa ec3d e1fb ecb9 6439 6dbd
00000370: 7702 aa3c f0c8 10bd 244d e13d 1bc6 bc3d
00000380: 59fb ac3d 5f37 063d bcc6 b63d 5554 d53b
00000390: df41 f63c 25fe cebd cd54 743c 5bf4 453b
000003a0: 2422 043e 0d44 8d3c 1046 793d a103 dabd
000003b0: 07a2 3cbd fb02 19bd ea65 313c ddfa 0fbd
000003c0: f316 3039 2f0e 93bd 7d7b b13d 7780 b73d
000003d0: c2f7 7b3d c0fd da3d e131 ea3d b030 39bd
000003e0: 1415 a6ba a9e3 b2bc 5de9 76bd ad01 873d
000003f0: acb3 893c aa4a 7ebd ece9 013d 315b 37ba

bias f4 [128]
0.06545329 -0.038578693 -0.024083985 0.16832702 0.088967174 -0.09250202 0.09295912 0.028814359
0.11819979 0.13511567 0.17317533 0.11766069 -0.112456545 0.02320171 -0.121341325 -0.0910326
0.07791501 0.060949527 0.13242789 0.059520204 0.088112436 -0.03044527 0.15282613 0.022527153
0.034803953 0.14846607 -0.044383798 0.1071307 -0.004490356 0.100828305 0.18362872 -0.07931631
0.10580529 0.023883296 0.20979382 -0.004246821 0.007435564 0.025824023 0.0027759923 0.15962312
-0.037230507 -0.022884574 -0.0041963286 -0.11197219 -0.119120896 -0.027677448 0.015201185 0.14832486
0.03250345 0.08497418 0.1032577 -0.023651138 0.22040103 0.16679396 -0.012582226 0.019985696
0.007517783 -0.08953787 -0.074691325 -0.05108607 0.024704708 0.07095135 0.08207021 -0.011934883
0.13232185 0.05462131 0.18887489 0.095606945 -0.007738132 0.13537404 0.104060836 0.21461335
0.09639106 -0.041617982 -0.07951527 -0.02589792 -0.061676476 0.016265579 -0.06296724 -0.031532913
0.02273941 0.13106999 0.04290755 0.013691623 0.03381441 0.16229627 0.074969225 0.0023123722
0.09272707 -0.04420433 0.010298178 0.0070897625 0.023889726 -0.10958453 0.09157168 0.012220383
0.046726454 0.15602748 -0.030928956 0.14517358 0.16439055 0.12720473 0.07210257 0.22965358
-0.031809796 0.03120687 -0.08406414 0.031476352 0.006452614 -0.060129616 0.007885449 0.13470417
0.16401008 -0.015875544 0.19019888 -0.047894925 -0.09561481 0.13707286 0.21389 -0.07081105
0.13115864 -0.012693049 0.088706285 0.0023699568 0.022347625 0.08561673 -0.016179781 0.13116908
00000000: 600c 863d b104 1ebd c74b c5bc eb5d 2c3e
00000010: 6c34 b63d b371 bdbd 5a61 be3d 170c ec3c
00000020: bb12 f23d c35b 0a3e e054 313e 16f8 f03d
00000030: 9e4f e6bd 8311 be3c cd81 f8bd 4d6f babd
00000040: e891 9f3d 36a6 793d 2d9b 073e 75cb 733d
00000050: 4b74 b43d 5c68 f9bc 747e 1c3e dd8a b83c
00000060: 978e 0e3d 7d07 183e c9cb 35bd 5767 db3d
00000070: d623 93bb 127f ce3d 2b09 3c3e 9770 a2bd
00000080: 72b0 d83d e7a6 c33c 31d4 563e eb28 8bbb
00000090: 08a6 f33b e78c d33c 6ced 353b 3e74 233e
000000a0: 047f 18bd 6e78 bbbc 5b81 89bb ad51 e5bd
000000b0: a8f5 f3bd d1bb e2bc 640e 793c 79e2 173e
000000c0: 5622 053d f106 ae3d c678 d33d 08c0 c1bc
000000d0: cfb0 613e 09cc 2a3e ae25 4ebc 0bb9 a33c
000000e0: bc57 f63b a15f b7bd c4f7 98bd a03f 51bd
000000f0: 8761 ca3c f14e 913d 6d14 a83d 878a 43bc
00000100: 617f 073e 98ba 5f3d 6b68 413e 93cd c33d
00000110: 2890 fdbb 7e9f 0a3e d91d d53d 9ac3 5b3e
00000120: ad68 c53d 9e77 2abd e7d8 a2bd e027 d4bc
00000130: 79a0 7cbd 643f 853c f8f4 80bd a828 01bd
00000140: 0048 ba3c 3637 063e d4bf 2f3d d452 603c
00000150: fb80 0a3d fe30 263e 7789 993d 2b8b 173b
00000160: b1e7 bd3d 990f 35bd b0b9 283c 3d51 e83b
00000170: 63b4 c33c db6d e0bd ef89 bb3d 0038 483c
00000180: 3d64 3f3d abc5 1f3e b95e fdbc 62a8 143e
00000190: ff55 283e f541 023e 83aa 933d 4f2a 6b3e
000001a0: fd4a 02bd 8da5 ff3c d229 acbd 59ed 003d
000001b0: 7370 d33b 794a 76bd f831 013c e4ef 093e
000001c0: 42f2 273e 6e0d 82bc 7fc3 423e 782d 44bd
000001d0: b3d1 c3bd d45c 0c3e fb05 5b3e 6205 91bd
000001e0: 734e 063e 82f6 4fbc a4ab b53d 4751 1b3b
000001f0: 5e12 b73c d357 af3d 768b 84bc 3051 063e

weight f4 [512, 128]
-0.078701764 0.033502046 -0.06333043 -0.037691176 0.04308153 -0.056025337 -0.029971626 0.08827011
0.016919127 0.10078079 -0.078111 0.027082942 -0.02756864 0.07676263 0.07744871 -0.04019294
-0.06317097 -0.04857136 -0.06637242 0.05359838 0.0063500856 -0.091225035 -0.039016478 0.043973178
-0.01886571 -0.07714959 0.010939948 -0.02105895 0.09879024 0.000609518 -0.01544029 -0.02132294
0.04986657 0.008188194 0.054419603 0.04310321 0.1052732 0.015790783 -0.01480208 0.030972973
0.04945712 -0.005253396 0.03018696 -0.07798266 0.08325711 -0.016529884 -0.0665025 0.012864675
0.059483126 -0.03765291 -0.016130375 0.039544903 0.096929304 -0.009631437 -0.0050430233 -0.101132914
-0.011065323 0.046994735 -0.06524545 0.054817084 0.027586393 -0.055980805 0.052858192 -0.06860283
0.055554073 -0.017873887 0.0057116095 -0.0041423496 -0.019347314 -0.040789 0.0064060427 -0.022651957
0.040527068 -0.07683255 -0.032968182 -0.01469307 -0.018976131 -0.099197745 0.016681924 -0.020819638
-0.035728365 0.027056314 0.06681127 -0.036412504 0.012792261 -0.067987755 0.025821775 -0.01889154
0.08871623 0.08360296 0.010589354 0.010921288 -0.02711155 0.061002843 0.017505007 0.04794252
0.037314106 0.09227871 0.05687939 0.04635664 -0.09706323 0.030492453 0.067916684 -0.057294145
-0.023772899 0.008758662 -0.034336716 -0.073985524 -0.014934813 0.041191604 -0.06078878 -0.0061121755
-0.00051469915 -0.024329802 0.029883834 0.038706955 -0.08127178 0.13621293 -0.017058738 0.029746281
0.06489476 -0.061055567 0.026213825 0.025277441 0.06969284 -0.02555688 -0.072085634 0.026255883
0.011136015 0.07254915 -0.09290874 -0.025538998 -0.025172306 -0.011582264 -0.00677141 -0.044275433
-0.004546471 -0.017760772 -0.0459708 -0.0152129335 -0.026347943 -0.008192351 0.071737394 -0.03264295
-0.033862133 0.06824052 0.08016754 -0.014043074 0.102553345 0.0301676 0.05359165 0.059003435
0.05715205 -0.021389036 -0.06507323 0.07409638 0.064957455 0.08509995 -0.06901568 -0.052896544
0.047618806 0.0015700469 -0.0070151426 -0.052642666 -0.09383947 -0.048062768 -0.038121987 -0.09160395
0.09573569 0.01842124 0.07973208 -0.019413698 -0.017160734 0.05339812 0.00039943433 -0.023784159
0.007876477 -0.047431715 0.10594445 -0.0469933 -0.04834421 -0.071345426 0.10419968 -0.064286634
0.09236527 0.032132015 -0.080365956 3.823428e-05 0.03842314 -0.06950312 -0.015134939 0.06790226
-0.005395218 0.029995717 0.0025665408 0.041039266 0.04865438 0.05972019 0.019188093 -0.03455625
-0.05989124 0.033114254 0.009764564 -0.0308956 0.045085955 -0.0031132745 -0.047392152 0.011322488
0.0717396 0.0065893116 -0.044694364 -0.001690037 -0.021860063 0.005651956 -0.028356807 0.024960835
-0.03993194 -0.07354732 -0.016946616 0.08209505 -0.04123226 -0.020455033 0.040367868 0.058210537
0.08687015 -0.05000098 0.035048265 0.020626042 -0.021377694 -0.016735656 -0.022168878 0.06886148
-0.05831753 -0.07113427 0.07387167 -0.07497234 -0.066759735 -0.061434645 0.08832114 0.057193503
0.09051775 0.04168074 -0.01772473 0.02709056 0.051897954 0.025096118 0.08029355 0.085213415
-0.047749083 -0.02589161 -0.087456904 -0.060386002 -0.050144758 0.0509316 0.007161171 -0.025578944
00000000: 642e a1bd 7139 093d 62b3 81bd 1062 1abd
00000010: 4276 303d d37a 65bd 0e87 f5bc f6c6 b43d
00000020: fb99 8a3c 2966 ce3d a9f8 9fbd 0cdd dd3c
00000030: a1d7 e1bc ba35 9d3d 6e9d 9e3d 5aa1 24bd
00000040: c85f 81bd c3f2 46bd 43ee 87bd fa89 5b3d
00000050: 6114 d03b 31d4 babd becf 1fbd 381d 343d
00000060: 438c 9abc 9b00 9ebd 783d 333c d283 acbc
00000070: 8a52 ca3d 10c8 1f3a 45f9 7cbc 72ad aebc
00000080: e340 4c3d c627 063c 17e7 5e3d fe8c 303d
00000090: 7a99 d73d ac5b 813c 6c84 72bc 08bb fd3c
000000a0: 8d93 4a3d ae24 acbb a54a f73c 5fb5 9fbd
000000b0: b482 aa3d ae69 87bc 7632 88bd 5cc6 523c
000000c0: 94a4 733d f039 1abd d923 84bc d6f9 213d
000000d0: df82 c63d 2dcd 1dbc f23f a5bb c61e cfbd
000000e0: 544b 35bc 8d7d 403d 689f 85bd e187 603d
000000f0: dcfc e13c 214c 65bd d581 583d a47f 8cbd
00000100: ab8c 633d 426c 92bc 7428 bb3b 8cbc 87bb
00000110: 427e 9ebc 5e12 27bd c8e9 d13b 9990 b9bc
00000120: b6ff 253d 625a 9dbd a509 07bd 34bb 70bc
00000130: d573 9bbc 3028 cbbd 88a8 883c f28d aabc
00000140: e857 12bd 34a5 dd3c 59d4 883d 4725 15bd
00000150: a296 513c 2a3d 8bbd 3088 d33c 6ec2 9abc
00000160: dbb0 b53d 0738 ab3d f87e 2d3c 34ef 323c
00000170: 0b19 debc 1ede 793d a966 8f3c 605f 443d
00000180: add6 183d 9ffc bc3d 5dfa 683d 76e0 3d3d
00000190: 16c9 c6bd 4fcb f93c e717 8b3d 44ad 6abd
000001a0: 62bf c2bc 7e80 0f3c a8a4 0cbd b985 97bd
000001b0: 25b1 74bc 87b8 283d a8fd 78bd a548 c8bb
000001c0: e0ec 06ba 4b4f c7bc f1ce f43c 2f8b 1e3d
000001d0: d271 a6bd 677b 0b3e c4be 8bbc 79ae f33c
000001e0: 8be7 843d 6715 7abd 60be d63c a312 cf3c
000001f0: 1fbb 8e3d a95c d1bc a2a1 93bd 9416 d73c
00000200: d573 363c a694 943d f046 bebd 2937 d1bc
00000210: 2736 cebc 89c3 3dbc b4e2 ddbb 285a 35bd
00000220: 90fa 94bb 0a7f 91bc e14b 3cbd ab3f 79bc
00000230: a4d7 d7bc 3639 06bc 0eeb 923d 9db4 05bd
00000240: 05b3 0abd b0c1 8b3d e12e a43d ec14 66bc
00000250: 7d07 d23d 0b22 f73c eb82 5b3d 96ad 713d
00000260: 4518 6a3d 0f38 afbc 1d45 85bd d8bf 973d
00000270: 6a08 853d e248 ae3d 1858 8dbd 0caa 58bd
00000280: f00b 433d 08ca cd3a 48df e5bb d69f 57bd
00000290: e82e c0bd 77dd 44bd cd25 1cbd da9a bbbd
000002a0: 1311 c43d 24e8 963c 934a a33d 7a09 9fbc
000002b0: ab94 8cbc fdb7 5a3d 2b6b d139 ffd6 c2bc
000002c0: 570c 013c c247 42bd 67f9 d83d 0c7c 40bd
000002d0: 9404 46bd 8d1d 92bd a466 d53d b6a8 83bd
000002e0: 012a bd3d dc9c 033d e896 a4bd bf5d 2038
000002f0: 9561 1d3d a757 8ebd 89f8 77bc 5710 8b3d
00000300: 5eca b0bb 94b9 f53c 6933 283b ca18 283d
00000310: d149 473d 289d 743d 5930 9d3c db8a 0dbd
00000320: 8450 75bd d0a2 073d 8dfb 1f3c c518 fdbc
00000330: 0dac 383d 1408 4cbb 461e 42bd f581 393c
00000340: 36ec 923d 27eb d73b 7011 37bd 3b84 ddba
00000350: e013 b3bc 0b34 b93b 894c e8bc aa7a cc3c
00000360: ad8f 23bd fa9f 96bd a1d3 8abc 7321 a83d
00000370: 29e3 28bd 5091 a7bc c758 253d 2c6e 6e3d
00000380: fae8 b13d d4cd 4cbd c58e 0f3d f2f7 a83c
00000390: 4620 afbc 3719 89bc 829b b5bc 3f07 8d3d
000003a0: 5dde 6ebd d8ae 91bd 084a 973d 198b 99bd
000003b0: 54b9 88bd e5a2 7bbd b7e1 b43d bc43 6a3d
000003c0: 5f61 b93d 6cb9 2a3d 7433 91bc 06ed dd3c
000003d0: f392 543d 6096 cd3c f270 a43d 5f84 ae3d
000003e0: 8b94 43bd a41a d4bc 9b1c b3bd 5057 77bd
000003f0: 9764 4dbd a79d 503d 42a8 ea3b ef8a d1bc

bias f4 [512]
0.019572979 0.094541244 0.014072976 0.034516647 -0.023006368 0.13674815 0.09638723 -0.07759759
-0.039014332 -0.07743906 -0.06897756 -0.07220444 0.080674514 0.112463705 -0.054064494 0.17056993
-0.072456956 -0.028154673 0.122656815 0.073587045 0.036281537 0.05563887 0.09690911 0.0122791575
-0.032952994 -0.039642476 0.0792722 0.10568723 0.005627543 -0.04543576 0.13572346 -0.01645736
-0.04845332 -0.06976922 0.0032349122 0.041584793 0.06652348 0.051484834 -0.085852474 0.084106945
-0.017536126 0.035008058 -0.025432864 -0.050036497 -0.07178445 0.06156131 0.0033665043 -0.020607818
-0.052784275 0.1337633 -0.040905606 0.11619352 -0.056288682 0.027034778 -0.037670393 0.048637412
-0.042590454 0.07500163 -0.0760668 0.023220042 0.049741313 -0.022197146 -0.006079908 0.07259813
-0.065339044 0.026730802 0.027796976 0.018381607 0.013773751 -0.04436188 0.016762663 0.11730743
0.044288933 -0.027781157 -0.044431284 0.016361425 0.13440923 0.09851776 0.066110454 -0.023384528
0.12481549 0.06726068 -0.054492578 -0.033996023 0.002413675 -0.04580955 0.07727054 0.073475614
-0.07200755 -0.042936653 0.02983022 -0.028295217 0.14144295 0.11274119 -0.07613199 0.06595818
0.0067320946 0.04498357 0.04147887 -0.06822509 0.039382707 0.0054397257 -0.048163053 -0.027376736
-0.034064636 -0.059822313 0.110273294 0.016044687 -0.009896853 0.005509548 0.07266306 0.069415234
0.10626568 -0.0525016 -0.012944875 -0.055317227 0.13123168 -0.08510079 0.050883837 -0.07226556
0.03307514 0.028795563 0.05724392 0.11246218 -0.08298112 0.003890958 -0.017243292 -0.007937231
-0.0797524 0.14612482 0.089036085 0.10460551 0.040426183 -0.025512898 -0.009203393 0.11737299
-0.06144305 -0.045152854 -0.07891093 -0.07120857 0.08596058 -0.07066229 0.11580762 -0.05392959
0.023650287 0.06382968 0.09298317 0.14357142 -0.043640506 0.10305232 0.010945368 -0.07249497
0.0050621396 -0.030501878 0.0020954516 0.11004009 0.011467729 -0.003772339 -0.029536724 -0.059593175
0.08526497 0.062819526 0.016884046 -0.075192824 -0.06521896 -0.04445897 0.00587042 -0.06442405
-0.038613554 0.011664272 0.13723546 -0.037960753 0.06905965 0.07145867 0.05366283 0.015764203
0.12414122 0.0653042 0.012327653 -0.042555932 0.08172738 0.02849695 0.123271145 0.028360158
0.0004002816 0.023851966 -0.06057228 -0.015399044 -0.0090501765 0.084220774 0.046669967 0.025307076
0.019084476 -0.03395671 0.057082914 0.06564646 -0.06610474 -0.028496815 0.08716533 -0.060778596
-0.008544598 0.052103523 -0.078641064 -0.04366141 0.15999718 0.069249876 0.04381979 -0.0685257
0.0025373064 0.0020790817 0.10702053 0.11157492 -0.050798815 -0.026775802 -0.020062413 -0.06299598
-0.051862177 -0.010782094 0.020694964 0.07139753 -0.05961427 0.028425546 -0.011263747 0.079349525
-0.08628283 -0.054718956 0.025651293 0.0043210327 -0.019999566 -0.017813992 -0.05700712 -0.046820465
-0.07441337 0.04382402 -0.01236441 0.046150323 -0.08638245 0.10110834 -0.048608862 -0.043861616
-0.053857133 0.028530361 0.11837352 0.039687227 -0.06116751 0.06251269 -0.030183882 0.1752631
-0.0758429 -0.032285612 0.027706295 0.052234035 0.052276395 -0.03837086 0.075391576 -0.069483005
00000000: 8357 a03c d79e c13d 5792 663c 5461 0d3d
00000010: da77 bcbc b507 0c3e ab66 c53d 7ceb 9ebd
00000020: 7ecd 1fbd 5f98 9ebd 1b44 8dbd ecdf 93bd
00000030: ae38 a53d 5f53 e63d bb72 5dbd e2a9 2e3e
00000040: 5064 94bd a1a4 e6bc 7f33 fb3d ceb4 963d
00000050: f39b 143d 95e5 633d 4978 c63d 852e 493c
00000060: b8f9 06bd 2660 22bd 7759 a23d 8c72 d83d
00000070: 4167 b83b d91a 3abd 17fb 0a3e 96d1 86bc
00000080: fd76 46bd 2ae3 8ebd d200 543b d154 2a3d
00000090: 763d 883d c3e1 523d 6cd3 afbd 4340 ac3d
000000a0: eca7 8fbc 9c64 0f3d 9558 d0bc 12f3 4cbd
000000b0: ba03 93bd b627 7c3d 92a0 5c3b bad1 a8bc
000000c0: 5334 58bd 3ff9 083e a38c 27bd def6 ed3d
000000d0: f68e 66bd 0a78 dd3c 454c 1abd 0638 473d
000000e0: 5473 2ebd 749a 993d e9c8 9bbd f537 be3c
000000f0: 8cbd 4b3d cad6 b5bc f739 c7bb 54ae 943d
00000100: 7ad0 85bd 8efa da3c 7cb6 e33c 0695 963c
00000110: 4dab 613c cdb4 35bd da51 893c e13e f03d
00000120: 5068 353d 4f95 e3bc 94fd 35bd 6508 863c
00000130: 93a2 093e aec3 c93d eb64 873d e990 bfbc
00000140: 439f ff3d f8bf 893d 9c33 5fbd 6a3f 0bbd
00000150: bf2e 1e3b cba2 3bbd 0440 9e3d 627a 963d
00000160: b278 93bd 58de 2fbd 815e f43c 5fcb e7bc
00000170: 6cd6 103e dae4 e63d 17eb 9bbd 1515 873d
00000180: e798 dc3b b140 383d bfe5 293d 99b9 8bbd
00000190: c34f 213d ba3f b23b 9f46 45bd 2d45 e0bc
000001a0: 5c87 0bbd 3e08 75bd f7d6 e13d 2670 833c
000001b0: 6926 22bc 7089 b43b 5fd0 943d 9329 8e3d
000001c0: d2a1 d93d eb0b 57bd be16 54bc 5194 62bd
000001d0: 9961 063e 5349 aebd 926b 503d f7ff 93bd
000001e0: cc79 073d ace4 eb3c 9a78 6a3d 9252 e63d
000001f0: 01f2 a9bd 71ff 7e3b ce41 8dbc 290b 02bc
00000200: 3a55 a3bd bfa1 153e 8d58 b63d 6a3b d63d
00000210: ed95 253d 6d00 d1bc d4c9 16bc 4061 f03d
00000220: b5ab 7bbd 33f2 38bd 0e9c a1bd ccd5 91bd
00000230: 1a0c b03d 64b7 90bd 8c2c ed3d 46e5 5cbd
00000240: 3fbe c13c 23b9 823d f66d be3d 6304 133e
00000250: 63c0 32bd 180d d33d 3354 333c 3e78 94bd
00000260: 4ee0 a53b 13df f9bc d853 093b b35c e13d
00000270: 24e3 3b3c 5939 77bb 00f7 f1bc f917 74bd
00000280: 679f ae3d 86a7 803d 6950 8a3c b2fe 99bd
00000290: 8591 85bd 9c1a 36bd a75c c03b c2f0 83bd
000002a0: 3f29 1ebd 811b 3f3c 7487 0c3e bc7c 1bbd
000002b0: 256f 8d3d ec58 923d 8ecd 5b3d ee23 813c
000002c0: c03d fe3d 35be 853d edf9 493c 214f 2ebd
000002d0: af60 a73d 7072 e93c 9575 fc3d 9053 e83c
000002e0: e3dc d139 3365 c33c a41a 78bd 464c 7cbc
000002f0: 3147 14bc f17b ac3d 0229 3f3d c950 cf3c
00000300: 0c57 9c3c 3116 0bbd c6cf 693d a771 863d
00000310: ec61 87bd 2772 e9bc bd83 b23d faf2 78bd
00000320: a4fe 0bbc 816a 553d 910e a1bd 4fd6 32bd
00000330: 4dd6 233e e1d2 8d3d 617c 333d 3457 8cbd
00000340: f048 263b 3441 083b 942d db3d 6481 e43d
00000350: 6b12 50bd ed58 dbbc ee59 a4bc 0904 81bd
00000360: 6f6d 54bd 61a7 30bc 7c88 a93c de38 923d
00000370: 182e 74bd b1dc e83c 948b 38bc 0182 a23d
00000380: 0db5 b0bd fc20 60bd a922 d23c 7397 8d3b
00000390: 21d6 a3bc a6ee 91bc 4c80 69bd d1c6 3fbd
000003a0: 0966 98bd d180 333d 1894 4abc 1f08 3d3d
000003b0: 48e9 b0bd e411 cf3d 161a 47bd 3da8 33bd
000003c0: 4c99 5cbd 81b8 e93c d16d f23d 138f 223d
000003d0: c88a 7abd a706 803d 3044 f7bc 2c78 333e
000003e0: 8653 9bbd eb3d 04bd 50f8 e23c 5bf3 553d
000003f0: c61f 563d c32a 1dbd e666 9a3d 1b4d 8ebd

weight f4 [10, 512]
-0.009260539 -0.027806742 -0.03668443 -0.06774064 0.034637593 0.0074797543 -0.029293805 0.011902012
0.03808442 0.017791808 -0.034153678 -0.0074953795 -0.03214427 -0.087659605 0.017383687 -0.06459157
0.024710625 -0.040708333 -0.006820765 -0.023962094 0.022804908 -0.021653417 0.012703025 0.008761902
-0.019182164 0.024516061 -0.049763236 0.018191053 -0.027664542 -0.025422316 -0.07332048 0.013514414
-0.0072742295 -0.017951138 -0.020183837 -0.06496141 0.009325456 0.022138594 -0.0008723787 -0.015500067
0.026671585 0.014612109 -0.0040884423 0.011396177 0.0013885212 -0.049703162 -0.029227605 -0.07324551
0.014353872 0.0009183166 -0.022749726 -0.028402787 0.016588546 -0.014067352 0.008898724 -0.06149843
0.016527928 0.02478486 -0.0021610379 -0.009230472 -0.051581033 -0.017309666 0.024556197 -0.07853586
0.03894801 -0.025538204 -0.010823745 -0.06262004 0.02660609 -0.011197448 0.038037542 -0.036621198
0.007983502 -0.018803189 -0.056102384 -0.042101346 0.024735661 -0.08417587 0.0018428887 0.015088617
-0.03492461 0.01582703 -0.022629425 0.017056508 0.041092347 -0.0036700282 0.028252011 0.018896913
-0.040187024 0.037235174 -0.01085445 -0.019652005 -0.02354123 0.015117233 -0.007956824 -0.039583012
-0.02553511 -0.009937444 0.030828374 -0.015241453 0.017453259 -0.0023170426 0.0009324737 0.016676454
0.036752764 -0.06789966 -0.033492368 -0.019045698 0.018304419 0.04123521 0.0034045335 -0.005536021
-0.022451557 0.0146651985 0.031313416 -0.0028832473 -0.015160931 -0.028434908 -0.025572643 0.035749264
-0.02003217 -0.021203967 -0.0011888815 -0.0717683 0.030352019 0.015952665 0.023796547 0.012825683
0.021444935 -0.047815617 -0.036626656 -0.044487715 -0.044429466 -0.053275328 -0.036396123 -0.097867385
0.022427294 -0.032649748 -0.021286087 -0.0029812083 -0.012182141 -0.043479417 -0.028309673 -0.006234849
-0.021696338 -0.017250616 -0.01604734 -0.069374494 -0.01719664 0.033545967 0.003330845 -0.03352434
-0.001122164 -0.00905706 0.030847337 -0.0452947 -0.038911358 0.025279338 0.034992684 -0.01389125
-0.042686954 -0.043833997 0.026685555 -0.044335842 0.037664045 -0.059371263 -0.016111933 0.0059986794
-0.0004794455 0.0362419 -0.018666655 -0.03000616 -0.02693428 -0.04832375 -0.02519063 0.03569584
-0.03837214 -0.010502318 -0.006233203 -0.029176705 -0.015926434 0.0106300805 0.009695044 0.00828238
-0.003884601 -0.033540063 -0.0706974 0.012678737 0.02218293 -0.06114742 0.012768583 0.0010776429
-0.032371495 -0.0595309 -0.025832167 0.027766492 -0.0036122105 -0.018503504 -0.043430217 -0.008525574
0.017425165 -0.014713609 -0.024050161 0.0021807307 -0.07852378 0.011276979 -0.06626703 -0.024082223
0.042050257 -0.009582548 -0.054413438 -0.026833382 0.031216241 -0.018574763 -0.040546387 0.027051432
0.003932938 -0.033494808 -0.0270118 -0.04597302 0.018860187 -0.04416978 -0.025643913 -0.019641897
0.024507366 -0.022036413 -0.0055416944 -0.032007918 0.025544317 -0.025584426 0.016383098 0.02510077
0.010005355 -0.0184103 -0.026187543 0.033287123 -0.028281651 0.0047216555 -0.015447747 0.009791777
0.027931696 0.027929869 -0.08529597 0.000986775 -0.028971257 -0.026880277 -0.006312374 -0.053126525
-0.044223092 -0.030151866 0.035019983 0.019031482 -0.025880989 0.015471957 0.0045882715 0.0074685505
00000000: 84b9 17bc f7ca e3bc 6a42 16bd 9bbb 8abd
00000010: 26e0 0d3d ba18 f53b 90f9 efbc a800 433c
00000020: 69fe 1b3d 20c0 913c bae4 0bbd cd9b f5bb
00000030: b6a9 03bd e186 b3bd 3c68 8e3c 9648 84bd
00000040: f06d ca3c c8bd 26bd b980 dfbb 274c c4bc
00000050: 5cd1 ba3c 8262 b1bc 5920 503c 158e 0f3c
00000060: ea23 9dbc e8d5 c83c 89d4 4bbd 6705 953c
00000070: c0a0 e2bc 7642 d0bc 0c29 96bd 906b 5d3c
00000080: a95c eebb 440e 93bc 9358 a5bc 7d0a 85bd
00000090: ccc9 183c ff5b b53c 58b0 64ba fef3 7dbc
000000a0: 5e7e da3c a167 6f3c 57f8 85bb 08b7 3a3c
000000b0: 0aff b53a 8b95 4bbd bb6e efbc be01 96bd
000000c0: 812c 6b3c 2fbb 703a a25d babc f6ac e8bc
000000d0: b4e4 873c c07a 66bc f4cb 113c c7e5 7bbd
000000e0: 9465 873c 9e09 cb3c 33a0 0dbb 683b 17bc
000000f0: a246 53bd 00cd 8dbc 142a c93c 69d7 a0bd
00000100: f387 1f3d 7f35 d1bc 1456 31bc ef3e 80bd
00000110: 04f5 d93c 8075 37bc 41cd 1b3d 1c00 16bd
00000120: 3ccd 023c 2509 9abc 9dcb 65bd 7672 2cbd
00000130: 71a2 ca3c 6664 acbd 158d f13a 3f36 773c
00000140: 1c0d 0fbd b0a7 813c 5861 b9bc 17ba 8b3c
00000150: 7350 283d db84 70bb c370 e73c b3cd 9a3c
00000160: 269b 24bd e983 183d ddd6 31bc 3efd a0bc
00000170: 8ad9 c0bc 45ae 773c 575d 02bc cc21 22bd
00000180: 022f d1bc a9d0 22bc c98b fc3c 4ab7 79bc
00000190: 23fa 8e3c 86d9 17bb 4071 743a 0f9d 883c
000001a0: 118a 163d fa0e 8bbd 4b2f 09bd b905 9cbc
000001b0: 26f3 953c 40e6 283d 981e 5f3b 8367 b5bb
000001c0: 54ec b7bc 4d46 703c 7f42 003d ddf4 3cbb
000001d0: 8e65 78bc 53f0 e8bc b87d d1bc d26d 123d
000001e0: 811a a4bc f1b3 adbc 3ed4 9bba 42fb 92bd
000001f0: cca4 f83c 2aaf 823c faf0 c23c d022 523c
00000200: 4aad af3c 4fda 43bd d505 16bd c038 36bd
00000210: acfb 35bd 3b37 5abd 1a14 15bd b26e c8bd
00000220: 72b9 b73c bebb 05bd 2960 aebc 6060 43bb
00000230: 9a97 47bc 7917 32bd b0e9 e7bc b44d ccbb
00000240: 85bc b1bc 2a51 8dbc b675 83bc 3714 8ebd
00000250: f8df 8cbc 7f67 093d 4e4a 5a3b d150 09bd
00000260: 9315 93ba 1064 14bc 8eb3 fc3c ef86 39bd
00000270: 8461 1fbd 9d16 cf3c 7d54 0f3d 2098 63bc
00000280: 84d8 2ebd 478b 33bd aa9b da3c 8099 35bd
00000290: 9d45 1a3d 482f 73bd 2cfd 83bc 9290 c43b
000002a0: 165e fbb9 6372 143d d0ea 98bc 7acf f5bc
000002b0: 47a5 dcbc 20ef 45bd 955c cebc cd35 123d
000002c0: 1b2c 1dbd ea11 2cbc e63f ccbb fc03 efbc
000002d0: 2778 82bc ca29 2e3c f6d7 1e3c d2b2 073c
000002e0: ca94 7ebb 4e61 09bd ccc9 90bd 7aba 4f3c
000002f0: fab8 b53c b875 7abd 5233 513c b23f 8d3a
00000300: f997 04bd acd6 73bd fb9d d3bc 8e76 e33c
00000310: d6ba 6cbb a994 97bc e2e3 31bd d9ae 0bbc
00000320: 38bf 8e3c 5911 71bc d804 c5bc 97ea 0e3b
00000330: 13d1 a0bd 14c3 383c 02b7 87bd 1548 c5bc
00000340: e43c 2c3d 1f00 1dbc a0e0 5ebd aed1 dbbc
00000350: 34b9 ff3c 1a2a 98bc f813 26bd f79a dd3c
00000360: e0df 803b da31 09bd da47 ddbc 354e 3cbd
00000370: ae80 9a3c 5feb 34bd 2f13 d2bc 0be8 a0bc
00000380: acc3 c83c b585 b4bc 1a97 b5bb bc1a 03bd
00000390: 5142 d13c 6e96 d1bc d935 863c 21a0 cd3c
000003a0: 80ed 233c 33d1 96bc 4287 d6bc 1458 083d
000003b0: ecae e7bc 1eb8 9a3b 8c18 7dbc b06d 203c
000003c0: 03d1 e43c 2ecd e43c a7af aebd ad56 813a
000003d0: 2155 edbc 0734 dcbc 08d8 cebb 339b 59bd
000003e0: 4623 35bd 0c01 f7bc 1d71 0f3d e9e7 9b3c
000003f0: 5e04 d4bc 177e 7d3c 3659 963b beba f43b

bias f4 [10]
-0.1326801 -0.15455046 1.0146765 -0.14030693 -0.11446327 -0.16160907 -0.12623018 0.057364415
-0.12245705 -0.13213187
00000000: 4bdd 07be 7a42 1ebe ebe0 813f 9fac 0fbe
00000010: b86b eabd d97c 25be 7c42 01be f3f6 6a3d
00000020: c3ca fabd 944d 07be
