system/models/Cifar10/CNN/FedPer_BaseHeadSplit_Cifar10_client_1.pt (torch, 542108 bytes, 10 tensors)

weight f4 [32, 3, 5, 5]
0.007558383 0.13067915 -0.11248694 -0.11782362 0.00018722676 -0.012838976 0.08639223 0.08444175
-0.100105986 -0.008701453 -0.07789755 0.051962703 -0.08471954 -0.104577795 -0.079468876 0.033741526
0.15115134 0.17560852 0.018051561 -0.004167723 0.083372906 0.1441475 0.09735812 0.26660758
0.11296127 0.007916947 0.14364922 -0.15979595 -0.13777746 -0.0018617169 -0.11832262 0.13690865
-0.1256631 -0.17934696 -0.15105073 -0.20527677 -0.06384822 0.054538745 -0.043178882 -0.042649988
-0.06502305 -0.07104449 0.0069641597 -0.13696545 -0.16940069 -0.14895387 -0.030414969 0.028783537
-0.044137437 -0.06096718 0.11471195 0.22088483 0.07867055 0.03213999 0.17623086 -0.08555667
0.13830264 -0.045708615 -0.11845724 -0.054353938 0.021904688 0.12768027 -0.03504528 0.0073215626
0.026720371 -0.01404844 0.06571744 0.084094696 0.09377369 0.07226304 -0.10519925 -0.07445257
0.07191697 0.15586121 0.08923781 0.059927166 0.0841452 -0.06288758 -0.0742759 -0.10906167
-0.14079246 0.10968941 0.072772205 -0.14211516 0.13704237 -0.1040991 -0.2937755 -0.19887729
0.40298912 0.23051925 0.034453765 -0.023982594 0.19325826 0.115177944 -0.32551306 0.029653274
0.20197137 0.120659694 -0.25054833 -0.20954666 0.08525401 0.18054311 0.009207414 -0.100311376
-0.12330349 -0.07407346 -0.092321984 -0.10624848 -0.019928243 0.15841202 -0.1623422 -0.19354218
-0.1804038 0.49545574 0.39912412 -0.111330226 -0.0630134 0.1630883 0.07237239 -0.24680059
0.08643137 0.14818172 0.011825959 -0.21259223 -0.3752383 -0.06067105 0.024599442 -0.03276532
-0.1046421 -0.06944637 -0.02463206 0.00975277 -0.11013472 -0.0359984 0.20258497 0.009979849
-0.19962983 -0.14060463 0.3298595 0.3289151 0.25289136 0.09176317 0.2265937 -0.007438017
-0.37616146 0.15928002 0.28565693 0.0786145 -0.27121758 -0.26900035 -0.19072475 -0.15370087
-0.006094237 0.15251644 0.12589888 -0.17968908 0.047225047 -0.07506787 0.0033662107 -0.0007817958
0.01125468 0.0013666116 -0.152867 -0.16274858 0.0025704817 0.092517726 -0.015555061 -0.025548425
-0.22951105 -0.0945914 0.17187923 0.0069154045 0.11011181 -0.050673913 -0.22966124 0.07809606
0.006963886 0.023096636 0.19761539 -0.04210609 0.021918526 0.0073328433 0.12801564 0.057417307
0.076158755 0.11660378 0.017190237 -0.06671364 -0.15783052 0.07060694 0.17515568 0.106253445
-0.14880975 -0.10721352 -0.15976825 -0.035011183 -0.049246162 0.03027962 -0.1658922 -0.12204254
-0.013685089 0.04642627 -0.08442033 -0.058800735 -0.09044496 0.06883919 -0.04683414 0.09679568
0.013244427 -0.023611043 0.052867334 0.008663526 -0.028092029 -0.09888779 -0.021917827 0.11339189
-0.025769927 -0.07993733 0.012226096 -0.16316576 0.10370958 0.23416997 0.13301528 -0.02091933
-0.17007183 0.09017284 0.01160702 -0.00461572 0.030880935 0.025561584 -0.005493193 0.10901753
-0.062224604 0.06547132 -0.0037402492 -0.04574359 0.15065667 -0.12480194 -0.040727686 0.022890182
0.022261968 0.21367608 -0.06745444 0.08987017 0.11206879 -0.20019263 0.07651272 -0.27778396
0.0031187695 -0.077784926 -0.11455905 0.048876863 0.08042633 0.013695856 -0.05936614 -0.11466718
00000000: 50ac f73b c1d0 053e 8e5f e6bd 834d f1bd
00000010: 4d52 4439 925a 52bc 69ee b03d ccef ac3d
00000020: 5e04 cdbd 8a90 0ebc c088 9fbd d8d6 543d
00000030: 7081 adbd e22c d6bd 94c0 a2bd 8e34 0a3d
00000040: 6bc7 1a3e b8d2 333e dee0 933c 6591 88bb
00000050: 6abf aa3d 679b 133e b263 c73d ca80 883e
00000060: 3d58 e73d 15b6 013c c818 133e 8da1 23be
00000070: 8915 0dbe da04 f4ba 2153 f2bd c831 0c3e
00000080: d4ad 00be bba6 37be 0bad 1abe 1334 52be
00000090: dbc2 82bd 0564 5f3d 57dc 30bd c1b1 2ebd
000000a0: ce2a 85bd c67f 91bd 9b33 e43b ac40 0cbe
000000b0: 6077 2dbe 5d87 18be d028 f9bc 74cb eb3c
000000c0: 75c9 34bd b9b8 79bd 19ee ea3d a22f 623e
000000d0: 061e a13d 39a5 033d dd75 343e 5638 afbd
000000e0: 359f 0d3e f538 3bbd b699 f2bd 3ca2 5ebd
000000f0: 7671 b33c 9ebe 023e a48b 0fbd b8e9 ef3b
00000100: aee4 da3c 6e2b 66bc dd96 863d d739 ac3d
00000110: 6c0c c03d a5fe 933d b472 d7bd 977a 98bd
00000120: 3449 933d 159a 1f3e 50c2 b63d 3076 753d
00000130: 5254 ac3d 34cb 80bd f71d 98bd ba5b dfbd
00000140: e62b 10be d7a4 e03d 9809 953d a386 11be
00000150: d654 0c3e e931 d5bd be69 96be 7da6 4bbe
00000160: 9754 ce3e 3d0d 6c3e 641f 0d3d 2577 c4bc
00000170: 7ee5 453e 6ae2 eb3d a6a9 a6be 6ceb f23c
00000180: 95d1 4e3e 6e1c f73d df47 80be 6693 56be
00000190: a899 ae3d 4be0 383e b2da 163c 0d70 cdbd
000001a0: 8a86 fcbd d4b3 97bd 4f13 bdbd ce98 d9bd
000001b0: 8e40 a3bc c336 223e 093d 26be ec2f 46be
000001c0: c6bb 38be 60ac fd3e ff59 cc3e 1a01 e4bd
000001d0: 2b0d 81bd 9f00 273e fa37 943d 4bb9 7cbe
000001e0: ee02 b13d f3bc 173e abc1 413c c7b1 59be
000001f0: 3c1f c0be 3582 78bd c584 c93c ee34 06bd
00000200: 994e d6bd e639 8ebd 2dc9 c9bc 15ca 1f3c
00000210: 508e e1bd 0f73 13bd 6f72 4f3e 8582 233c
00000220: c36b 4cbe a9fa 0fbe 58e3 a83e 8f67 a83e
00000230: fa7a 813e 54ee bb3d 2e08 683e 9cba f3bb
00000240: 3c98 c0be 4d1a 233e a041 923e a400 a13d
00000250: 08dd 8abe 6aba 89be 594d 43be c363 1dbe
00000260: 2ab2 c7bb 452d 1c3e a3eb 003e 6a00 38be
00000270: 0d6f 413d 2fbd 99bd a59b 5c3b 6ef1 4cba
00000280: 8d65 383c e01f b33a 2b89 1cbe 90a7 26be
00000290: 8775 283b ef79 bd3d a8da 7ebc ee4a d1bc
000002a0: f204 6bbe 23b9 c1bd 1c01 303e 9e9a e23b
000002b0: 4d82 e13d 738f 4fbd 512c 6bbe d4f0 9f3d
000002c0: 4f31 e43b 2835 bd3c b05b 4a3e 6f77 2cbd
000002d0: 7b8e b33c 5948 f03b 8816 033e 692e 6b3d
000002e0: 1ff9 9b3d f6cd ee3d 8ad2 8c3c 29a1 88bd
000002f0: 539e 21be 5f9a 903d 035c 333e 689b d93d
00000300: 9561 18be c392 dbbd 4a9a 23be e367 0fbd
00000310: 58b6 49bd f70c f83c a5df 29be 70f1 f9bd
00000320: 6c37 60bc 7929 3e3d 91e4 acbd 0ad9 70bd
00000330: 353b b9bd 90fb 8c3d 28d5 3fbd d03c c63d
00000340: 27ff 583c f26b c1bc 6b8b 583d 76f1 0d3c
00000350: 4121 e6bc af85 cabd 048d b3bc 023a e83d
00000360: 741b d3bc 2fb6 a3bd f74f 483c ed14 27be
00000370: b065 d43d 41ca 6f3e 2835 083e 045f abbc
00000380: 4f27 2ebe 8aac b83d 5f2b 3e3c 773f 97bb
00000390: 04fa fc3c 8766 d13c 3e00 b4bb 9544 df3d
000003a0: 3adf 7ebd d415 863d f81e 75bb a15d 3bbd
000003b0: be45 1a3e 2998 ffbd 13d2 26bd 3184 bb3c
000003c0: bb5e b63c e7cd 5a3e 8e25 8abd da0d b83d
000003d0: 5284 e53d 4cff 4cbe b3b2 9c3d b339 8ebe
000003e0: 4564 4c3b b44d 9fbd ef9d eabd 1b33 483d
000003f0: 8fb6 a43d 9564 603c e929 73bd a0d6 eabd

bias f4 [32]
-0.1605912 -0.33919713 -0.48011872 -0.13301799 -0.41444317 -0.15950663 -0.111777075 -0.5259956
-0.34021017 -0.15871382 -0.37449655 -0.026764993 -0.35230407 -0.17208593 -0.19901271 -0.4885919
-0.37683022 -0.11678902 -0.37216842 -0.006107837 -0.22838883 -0.21273547 -0.4052469 -0.13745917
-0.14764485 -0.2565455 -0.52458745 -0.19421333 -0.12735815 -0.27897635 -0.33270863 -0.10804893
00000000: 0572 24be 3fab adbe 1fd2 f5be de35 08be
00000010: e531 d4be b555 23be 61eb e4bd a6a7 06bf
00000020: 0730 aebe e085 22be 03be bfbe 4242 dbbc
00000030: 3361 b4be 4b37 30be fdc9 4bbe b828 fabe
00000040: e4ef c0be 152f efbd dc8c bebe 4024 c8bb
00000050: c3de 69be 54d7 59be 867c cfbe 19c2 0cbe
00000060: 3630 17be ef59 83be 5d4b 06bf dcdf 46be
00000070: 2d6a 02be fdd5 8ebe c958 aabe c248 ddbd

weight f4 [64, 32, 5, 5]
-0.025428386 0.0055505903 0.03217597 0.055967115 0.04510593 -0.041759178 -0.014928961 -0.004907689
0.032687634 0.022469785 0.008421012 -0.024054619 -0.010648694 0.061179902 0.008448777 0.0066217277
-0.03150973 -0.023719825 -0.007734727 0.0001508843 -0.008441323 -0.023341237 0.027417671 -0.010240647
-0.0340316 0.0643241 0.036967356 -0.017503837 0.010551502 -0.044596322 0.031361725 -0.02095548
0.047213826 0.032673918 0.02183516 0.019195091 -0.021819122 0.053119358 -0.0026130178 -0.016938658
-0.028024545 -0.008374607 0.030073607 -0.011976285 0.024184797 -0.0036070982 -0.012298208 0.0017410357
-0.009431635 0.021207236 -0.033379234 -0.019995892 -0.06837682 -0.056262996 -0.0026809142 0.005927859
-0.029577142 -0.029837254 -0.042678434 0.016544672 0.032496177 0.032759733 -0.032292463 0.0087947305
0.04132915 0.05396746 -0.03516962 0.01878253 0.03221974 0.0268857 0.0013880598 0.05669911
0.00463764 -0.017062547 0.0036434352 0.03755432 -0.023177002 0.025754016 -0.0023155978 0.023695419
0.020592824 0.01976924 -0.02202383 -0.006222554 0.016964646 -0.033414435 0.019892875 -0.012429343
-0.005830395 0.021004783 -0.025645535 -0.020653086 0.023014992 -0.029923799 0.019133924 -0.03910999
-0.014664841 0.0018229306 -0.014198908 -0.05800142 0.011253975 -0.019728275 0.019764517 -0.053450406
-0.072423816 -0.0012272922 -0.012097321 -0.03889897 -0.038635418 -0.06852636 -0.029074471 0.0013639396
-0.006333332 -0.042194575 -0.02339112 0.0074921306 -0.02329156 0.03353789 0.0068963165 -0.0047507724
-0.033863455 7.549751e-05 0.04205012 0.040567875 -0.030969271 -0.007184053 -0.022879397 -0.020492403
-0.06278614 -0.0699877 0.01621785 -0.011607638 -0.020488583 -0.023757426 -0.054065008 -0.031917073
0.023660181 -0.030404644 -0.00071928813 -0.029375035 -0.013138587 0.015366746 -0.0065576797 -0.017675603
-0.06497552 0.008817511 0.009153184 -0.028919533 -0.056748956 -0.011268311 0.0010060805 0.005470013
-0.024880677 0.0024653303 0.0143894395 0.054051545 0.009793577 0.023239788 0.006734947 0.0048121368
0.016297821 0.0109880315 -0.033549134 0.025945196 0.050612386 0.051841393 0.024317378 0.006107804
0.038697332 -0.0062882975 0.008302177 -0.026524287 -0.02339431 0.00053187844 0.00079344906 -0.015712656
-0.015617361 -0.06636916 -0.066064045 -0.030376352 -0.016817743 -0.012848975 -0.04950883 -0.04130357
-0.05833567 -0.006673689 0.016626902 0.04427364 -0.013466634 -0.02565689 0.012980627 0.0104857525
-0.017775524 -0.049963888 0.005935747 -0.0743921 -0.020921359 -0.0029139393 -0.0053731175 -0.0053078877
-0.05111322 0.021846812 0.020858156 0.07098417 0.016280903 0.0019896154 -0.0047170394 -0.0144491475
0.0041265637 0.00440757 -0.022293946 -0.008484069 0.023413163 0.048500583 0.023522263 0.0027496023
0.022879072 0.004742653 0.016860127 0.034047943 0.023556005 -0.04721626 -0.011090838 -0.01802892
-0.024526428 0.006496865 0.024372265 0.029207503 -0.041379888 0.0064007463 0.034654234 0.0036453991
-0.0031982681 0.021506377 0.008658379 0.0013713089 -0.005376037 0.015538518 0.015985977 0.0060273027
0.00042318483 0.018660245 -0.016572569 0.014098256 0.010631378 0.002319926 -0.0007166964 0.02120296
-0.03351217 -0.024557874 -0.019552985 0.038876373 -0.01149147 0.030947637 -0.007012018 -0.014469376
00000000: 314f d0bc bae1 b53b f3ca 033d c63d 653d
00000010: ffc0 383d ac0b 2bbd 9a98 74bc aed0 a0bb
00000020: 78e3 053d 8e12 b83c 49f8 093c 310e c5bc
00000030: dc77 2ebc c797 7a3d bd6c 0a3c 14fb d83b
00000040: 5910 01bd 1450 c2bc 9873 fdbb b236 1e39
00000050: 7a4d 0abc 1f36 bfbc 069b e03c 63c8 27bc
00000060: b864 0bbd 5bbc 833d 156b 173d 3564 8fbc
00000070: 35e0 2c3c a2aa 36bd 2775 003d d4aa abbc
00000080: 4963 413d 16d5 053d a6df b23c 063f 9d3c
00000090: 04be b2bc af93 593d 2a3f 2bbb f1c2 8abc
000000a0: bb93 e5bc a635 09bc ed5c f63c 2e38 44bc
000000b0: 321f c63c 1165 6cbb 6c7e 49bc 7733 e43a
000000c0: 2587 1abc ccba ad3c aab8 08bd 6dce a3bc
000000d0: 2509 8cbd 0774 66bd 47b2 2fbb 7c3e c23b
000000e0: c34b f2bc 426d f4bc 95cf 2ebd b188 873c
000000f0: b61a 053d 122f 063d 1a45 04bd c617 103c
00000100: c148 293d fc0c 5d3d 050e 10bd d2dd 993c
00000110: d9f8 033d 663f dc3c 8fef b53a 533d 683d
00000120: 58f7 973b c1c6 8bbc b3c6 6e3b 8fd2 193d
00000130: b2dd bdbc 16fa d23c 49c1 17bb e51c c23c
00000140: 48b2 a83c 1af3 a13c 526b b4bc 91e6 cbbb
00000150: 71f9 8a3c 93dd 08bd 62f6 a23c 71a4 4bbc
00000160: e60c bfbb 3912 ac3c 9616 d2bc a930 a9bc
00000170: f089 bc3c c122 f5bc bfbe 9c3c cc31 20bd
00000180: cd44 70bc 67ef ee3a 89a2 68bc e692 6dbd
00000190: 9862 383c 319d a1bc 32e9 a13c d0ee 5abd
000001a0: f052 94bd 18dd a0ba d833 46bc 8754 1fbd
000001b0: 2c40 1ebd 8c57 8cbd 962d eebc 38c6 b23a
000001c0: d787 cfbb 38d4 2cbd bc9e bfbc 8c80 f53b
000001d0: f1cd bebc 075f 093d 7ffa e13b 5eac 9bbb
000001e0: 68b4 0abd 6b54 9e38 bf3c 2c3d 802a 263d
000001f0: 45b3 fdbc 3468 ebbb 936d bbbc afdf a7bc
00000200: 0596 80bd b655 8fbd 4cdb 843c f62d 3ebc
00000210: acd7 a7bc ef9e c2bc 4573 5dbd 7abb 02bd
00000220: ffd2 c13c 2913 f9bc 9c8e 3cba eaa3 f0bc
00000230: 3a43 57bc cec4 7b3c cee1 d6bb 6dcc 90bc
00000240: e311 85bd 5277 103c 3cf7 153c a8e8 ecbc
00000250: 9871 68bd b99e 38bc 76de 833a cb3d b33b
00000260: 90d2 cbbc 6191 213b afc1 6b3c 2765 5d3d
00000270: 3d75 203c 5e61 be3c d5b0 dc3b 21af 9d3b
00000280: 0283 853c 2507 343c d16a 09bd 058b d43c
00000290: ef4e 4f3d a457 543d 3d35 c73c f923 c83b
000002a0: 1881 1e3d 100e cebb db05 083c 7649 d9bc
000002b0: 6da5 bfbc c26d 0b3a 77ff 4f3a d4b7 80bc
000002c0: f6df 7fbc 8eec 87bd 964c 87bd d4d7 f8bc
000002d0: 5dc5 89bc 8284 52bc c5c9 4abd ef2d 29bd
000002e0: 62f1 6ebd f6ae dabb 2435 883c 4758 353d
000002f0: 28a3 5cbc 662e d2bc b2ac 543c 6fcc 2b3c
00000300: fa9d 91bc efa6 4cbd a880 c23b e35a 98bd
00000310: 4563 abbc caf7 3ebb fa10 b0bb caed adbb
00000320: 195c 51bd 16f8 b23c b9de aa3c 2660 913d
00000330: 875f 853c 3564 023b 6591 9abb 1ebc 6cbc
00000340: 2038 873b 616d 903b cba1 b6bc c400 0bbc
00000350: f6cc bf3c 8ca8 463d c3b1 c03c ac32 343b
00000360: e46c bb3c 4268 9b3b 401e 8a3c db75 0b3d
00000370: 86f8 c03c d665 41bd 59b6 35bc 63b1 93bc
00000380: a6eb c8bc a7e3 d43b 58a8 c73c 9344 ef3c
00000390: f57d 29bd 5abd d13b 99f1 0d3d a6e7 6e3b
000003a0: 099a 51bb 242e b03c e0db 0d3c 7ebd b33a
000003b0: 7829 b0bb 4595 7e3c 06f5 823c ae80 c53b
000003c0: e8de dd39 5fdd 983c 32c3 87bc 5ffc 663c
000003d0: 3b2f 2e3c e609 183b aee0 3bba d4b1 ad3c
000003e0: 0f44 09bd 982d c9bc 952d a0bc d53c 1f3d
000003f0: b846 3cbc e685 fd3c 12c5 e5bb f610 6dbc

bias f4 [64]
-0.09010336 0.12989947 -0.048856426 -0.07537397 0.034934625 0.040850975 -0.13775747 -0.097985074
-0.08952763 0.04007794 0.09238738 -0.07236011 -0.0674382 -0.0032969115 -0.00037843917 0.007481559
0.10748442 -0.20471652 0.026367778 0.044314377 -0.07735418 -0.029567959 -0.058830168 0.04966247
0.0005686167 0.009396924 -0.004889613 -0.1349389 0.047179848 0.002196314 -0.050967537 -0.15151192
0.06580885 0.016850693 -0.091111064 -0.0680131 0.03480258 -0.12896918 0.060679235 0.051533997
-0.025396744 -0.03520656 -0.0009899824 -0.060980882 -0.018389137 0.110802874 -0.16162595 -0.065612756
-0.010818713 -0.022409242 -0.037567787 -0.018571364 0.062718235 -0.10384761 -0.06693008 -0.08205004
-0.06346037 0.04638418 0.106741086 0.02652387 -0.015833527 -0.048879553 0.06740112 -0.07004505
00000000: 1c88 b8bd 5e04 053e ad1d 48bd ab5d 9abd
00000010: 9c17 0f3d 5a53 273d 4b10 0dbe 66ac c8bd
00000020: 435a b7bd c428 243d 9835 bd3d 8a31 94bd
00000030: 0a1d 8abd ff10 58bb 3f69 c6b9 de27 f53b
00000040: cb20 dc3d 35a1 51be 3d01 d83c fe82 353d
00000050: de6b 9ebd 8138 f2bc e7f7 70bd e06a 4b3d
00000060: 390f 153a 8ef5 193c 0c39 a0bb 6c2d 0abe
00000070: a83f 413d 09f0 0f3b 56c3 50bd f125 1bbe
00000080: cac6 863d 770a 8a3c 7098 babd 744a 8bbd
00000090: 268d 0e3d 7f10 04be ca8a 783d 5015 533d
000000a0: d50c d0bc c134 10bd 4cc2 81ba 17c7 79bd
000000b0: d1a4 96bc 9eec e23d 4681 25be fb5f 86bd
000000c0: f940 31bc 9693 b7bc aee0 19bd f922 98bc
000000d0: 6b72 803d 0eae d4bd a312 89bd da09 a8bd
000000e0: 83f7 81bd 57fd 3d3d 129b da3d 9648 d93c
000000f0: 50b5 81bc ed35 48bd 9909 8a3d c773 8fbd

weight f4 [128, 64]
0.07845813 0.043733127 0.033135828 -0.08140653 -0.09148764 -0.07308708 0.060617704 -0.035492197
-0.0929414 0.07581144 0.034339275 -0.13780199 0.019094434 0.07915237 -0.080816895 -0.04614922
0.08763457 -0.044043317 -0.007522338 -0.10879239 0.071236 -0.12271489 -0.060444757 -0.059315003
-0.06625519 0.10876143 0.09761378 -0.032328427 -0.016831098 0.024047691 0.09302922 -0.110069826
-0.066187896 -0.044651285 0.06406711 0.03867025 0.04115219 0.04911903 0.050617263 -0.12301543
0.00236816 -0.15752365 -0.027091257 0.082168266 -0.09712297 -0.13191497 -0.06563125 0.010743522
0.023609186 0.03135604 0.04115109 -0.070581816 0.12554534 -0.12281884 -0.065627925 0.09349814
0.06527499 0.10646953 0.033479355 -0.035402615 -0.08925965 -0.054701768 0.08108789 -0.022812955
-0.102452025 -0.084313825 -0.11226961 -0.07020688 -0.03653519 -0.07827355 -0.011105174 0.10063459
-0.06870219 0.11344307 0.10505666 0.10398472 -0.04102734 -0.108926944 0.0034271395 0.05998313
-0.0070783133 -0.022895563 0.051538307 -0.06530377 -0.0786065 0.051256206 0.10618269 -0.0035655228
-0.03700149 0.03648316 -0.070097424 -0.009421657 -0.11244984 0.11161414 -0.018229121 0.031312253
-0.029056437 -0.110872254 -0.03838481 0.1053437 0.06581122 -0.10514681 0.045336876 0.015509621
-0.056684706 -0.086807825 -0.0736061 -0.10173477 0.09148126 0.026416957 -0.07474865 0.072432786
0.013407598 0.0574975 0.03939271 -0.036168654 -0.01689999 0.10084518 -0.011648833 -0.065496475
0.027281722 0.110998414 -0.07553566 0.028505517 0.116968825 0.07687391 -0.06821355 0.027958171
0.109619014 0.069119796 -0.0007959476 0.12934618 -0.08608637 0.08368151 0.14720325 0.16927339
0.13860524 0.10868066 0.117122635 -0.101483464 0.025521211 -0.0025354116 -0.007990284 0.1400497
-0.04635689 0.03928322 0.16110453 0.055729408 0.120213546 0.060792297 -0.03346411 0.08686871
0.1449077 -0.018887235 0.06517225 0.23610899 0.016210072 0.014877702 -0.038771138 -0.11982873
0.08079249 -0.17346948 -0.075059466 0.054476645 0.13957074 -0.03731686 0.09796455 0.12226383
-0.05484723 0.02300966 0.007676119 0.0879115 -0.1335277 -0.019330882 -0.048018012 0.13542001
-0.04470661 0.13738218 -0.18861422 -0.035891313 0.09756707 -0.11063833 0.021345783 0.0102635
0.052941687 0.17687921 -0.085837804 -0.113154374 0.105760604 -0.23085567 -0.08544091 0.025735384
0.06766817 0.013784271 -0.06545627 -0.024673527 0.12631324 -0.083380975 0.0520679 0.07789853
-0.06442872 -0.1123243 -0.00061023945 -0.07494189 -0.102435544 0.12486978 -0.1008676 0.08547204
0.017993988 -0.001148057 0.04051514 0.09061155 0.11356415 -0.13740645 -0.0756151 0.0018555163
-0.04552594 0.114676036 -0.0026993968 -0.060209394 0.020719685 -0.03419976 0.107773826 0.08766599
0.0847903 0.031738877 0.08702023 0.006182056 0.031581767 -0.09894377 0.011925072 0.0034215602
0.12993516 0.020222044 0.062065586 -0.1083759 -0.04789793 -0.03983927 0.010799996 -0.03641376
-0.004228807 -0.07232093 0.08499961 0.08711187 0.06188851 0.10384873 0.11323224 -0.04653387
-0.0026331919 -0.021968182 -0.06184898 0.06388039 0.014633344 -0.06316482 0.032024913 0.00038507974
00000000: a8ae a03d 8221 333d 6fb9 073d 78b8 a6bd
00000010: df5d bbbd aeae 95bd 454a 783d 4460 11bd
00000020: 1058 bebd 0743 9b3d 57a7 0c3d f71b 0dbe
00000030: ee6b 9c3c a31a a23d 5483 a5bd f706 3dbd
00000040: c179 b33d c466 34bd f27d f6bb 8bce debd
00000050: 2ee4 913d f251 fbbd ec94 77bd 4af4 72bd
00000060: cdb0 87bd 50be de3d bce9 c73d d06a 04bd
00000070: 5fe1 89bc aaff c43c 1b86 be3d 4a6c e1bd
00000080: 858d 87bd 44e4 36bd 9e35 833d b264 1e3d
00000090: 338f 283d 0931 493d 0c54 4f3d 84ef fbbd
000000a0: 2233 1b3b e14d 21be 7cee ddbc d647 a83d
000000b0: 68e8 c6bd b814 07be ad69 86bd 9905 303c
000000c0: 0d68 c13c 316f 003d 0c8e 283d 338d 90bd
000000d0: f58e 003e 7288 fbbd ef67 86bd f47b bf3d
000000e0: e5ae 853d b20c da3d a621 093d 5502 11bd
000000f0: c3cd b6bd f60e 60bd 6811 a63d 3ce2 babc
00000100: 5ed2 d1bd baac acbd 9ced e5bd a0c8 8fbd
00000110: eca5 15bd e24d a0bd 7af2 35bc 8219 ce3d
00000120: bcb3 8cbd d754 e83d f227 d73d f1f5 d43d
00000130: 490c 28bd 1715 dfbd dc99 603b dfb0 753d
00000140: 32f1 e7bb 7a8f bbbc d519 533d fcbd 85bd
00000150: 72fc a0bd 07f2 513d 4f76 d93d 8cab 69bb
00000160: e08e 17bd 5e6f 153d 3d8f 8fbd 4b5d 1abc
00000170: 1a4c e6bd f495 e43d 3d55 95bc 4741 003d
00000180: c407 eebc fe10 e3bd 6439 1dbd 70be d73d
00000190: 08c8 863d 3657 d7bd 29b3 393d 111c 7e3c
000001a0: 392e 68bd 4dc8 b1bd ccbe 96bd 525a d0bd
000001b0: 875a bb3d 6068 d83c d215 99bd a457 943d
000001c0: 8bab 5b3c 8082 6b3d 405a 213d 9525 14bd
000001d0: d971 8abc eb87 ce3d bfda 3ebc 0423 86bd
000001e0: eb7d df3c 2353 e33d 71b2 9abd 6784 e93c
000001f0: 5a8d ef3d 1270 9d3d 8cb3 8bbd 8908 e53c
00000200: ef7f e03d ae8e 8d3d 24a7 50ba 5373 043e
00000210: 0d4e b0bd 3661 ab3d 73bc 163e 0156 2d3e
00000220: 88ee 0d3e f793 de3d fedd ef3d 90d6 cfbd
00000230: dc11 d13c 2629 26bb aee9 02bc 3069 0f3e
00000240: b9e0 3dbd 71e7 203d 96f8 243e 8544 643d
00000250: 8532 f63d 5801 793d aa11 09bd 39e8 b13d
00000260: af62 143e 67b9 9abc 0779 853d 8ec6 713e
00000270: fcca 843c 9bc1 733c 7cce 1ebd c468 f5bd
00000280: 8876 a53d fca1 31be c7b8 99bd e722 5f3d
00000290: a2eb 0e3e 90d9 18bd a3a1 c83d 7565 fa3d
000002a0: 7da7 60bd c17e bc3c f487 fb3b f20a b43d
000002b0: 7cbb 08be cc5b 9ebc 89ae 44bd 8bab 0a3e
000002c0: 471e 37bd eaad 0c3e 1624 41be c502 13bd
000002d0: 3ed1 c73d 5996 e2bd 5add ae3c 3d28 283c
000002e0: 62d9 583d d31f 353e bbcb afbd 7bbd e7bd
000002f0: 0499 d83d 6e65 6cbe a5fb aebd 03d3 d23c
00000300: 9c95 8a3d 6cd7 613c f00d 86bd 2320 cabc
00000310: 4258 013e a5c3 aabd 2645 553d 4489 9f3d
00000320: 34f3 83bd 480a e6bd 7af8 1fba 227b 99bd
00000330: bac9 d1bd babb ff3d ac93 cebd f70b af3d
00000340: 2168 933c 677a 96ba 34f3 253d 8c92 b93d
00000350: 5294 e83d 47b4 0cbe 17dc 9abd cc34 f33a
00000360: 6879 3abd 45db ea3d 5de8 30bb 209e 76bd
00000370: 54bc a93c 0c15 0cbd 86b8 dc3d 3a8a b33d
00000380: 89a6 ad3d a000 023d aa37 b23d d892 ca3b
00000390: e25b 013d 08a3 cabd 6161 433c 413c 603b
000003a0: b90d 053e b3a8 a53c 7c38 7e3d 2ff4 ddbd
000003b0: 9f30 44bd 812e 23bd 77f2 303c 9826 15bd
000003c0: ce91 8abb ff1c 94bd 4714 ae3d b567 b23d
000003d0: ce7e 7d3d a5ae d43d 4ee6 e73d 4d9a 3ebd
000003e0: a191 2cbb 9ef6 b3bc 5b55 7dbd b9d3 823d
000003f0: b1c0 6f3c 8f5c 81bd 8e2c 033d 87e4 c939

bias f4 [128]
0.051310685 -0.038284138 -0.026056306 0.16738175 0.08994912 -0.09250202 0.08541362 0.03593738
0.10301837 0.13232078 0.17255154 0.11715439 -0.112456545 0.029395442 -0.121341325 -0.09106855
0.09329572 0.061643854 0.13080268 0.05550085 0.091477476 -0.025946653 0.15666592 0.0280411
0.03471004 0.13369666 -0.047009513 0.10143596 -0.0058798497 0.08151645 0.18028718 -0.07942912
0.09966083 0.019124605 0.21093212 -0.00063471706 0.015626267 0.023297658 -0.014430948 0.15762928
-0.032220565 -0.021938358 -0.0032341229 -0.11185152 -0.11890023 -0.028953468 0.015976798 0.14333762
0.017777827 0.082126185 0.09042007 -0.023651138 0.22035894 0.15579341 -0.008779062 0.017598905
0.005851474 -0.09003034 -0.074691325 -0.050081614 0.008450655 0.054773074 0.06505249 -0.015357468
0.1258389 0.05500371 0.1870703 0.08874218 0.0006666161 0.1325636 0.10550949 0.21607415
0.08100913 -0.04067698 -0.0794003 -0.029839098 -0.06372497 0.0070143957 -0.05286725 -0.018255044
0.030080771 0.12950982 0.0427398 0.016913224 0.034552824 0.16512668 0.06263763 0.0076554134
0.08846048 -0.04120722 0.00953611 0.0030286314 0.023426613 -0.10858255 0.09459022 -2.5847705e-05
0.046925794 0.1505791 -0.03072932 0.14181316 0.16046295 0.12898839 0.082052946 0.23015365
-0.03264367 0.03371541 -0.08246068 0.030626066 0.006626563 -0.04501515 0.0070897746 0.13056438
0.16396399 -0.015942536 0.19157289 -0.04909663 -0.0926627 0.10579982 0.21129005 -0.070775606
0.13106725 -0.00337668 0.09188763 0.0022027881 0.025117937 0.088961676 -0.016180037 0.13128752
00000000: 272b 523d d4cf 1cbd 0974 d5bc 1f66 2b3e
00000010: 3f37 b83d b371 bdbd 56ed ae3d 1333 133d
00000020: 4cfb d23d 197f 073e 5ab1 303e a4ee ef3d
00000030: 9e4f e6bd b6ce f03c cd81 f8bd 2682 babd
00000040: d411 bf3d 447e 7c3d 23f1 053e dc54 633d
00000050: 8b58 bb3d 138e d4bc 086d 203e 73b6 e53c
00000060: 1d2c 0e3d c7e7 083e 0c8d 40bd a8bd cf3d
00000070: c1ab c0bb 19f2 a63d 349d 383e bcab a2bd
00000080: fa1a cc3d 34ab 9c3c 97fe 573e 2463 26ba
00000090: a802 803c bbda be3c c86f 6cbc 9269 213e
000000a0: b6f9 03bd 12b8 b3bc 94f3 53bb 6912 e5bd
000000b0: f781 f3bd d32f edbc c6e1 823c 19c7 123e
000000c0: cea2 913c c631 a83d 282e b93d 08c0 c1bc
000000d0: c6a5 613e 4f88 1f3e 0ed6 0fbc 942b 903c
000000e0: b9bd bf3b d461 b8bd c4f7 98bd 6122 4dbd
000000f0: 9e74 0a3c bb59 603d 3d3a 853d e49d 7bbc
00000100: eadb 003e 924b 613d 5b8f 3f3e 76be b53d
00000110: d9bf 2e3a c1be 073e 5c15 d83d 8b42 5d3e
00000120: 1de8 a53d e89c 26bd a09c a2bd 2071 f4bc
00000130: 3d82 82bd 04d9 e53b 548b 58bd 9a8b 95bc
00000140: f36b f63c 399e 043e ee0f 2f3d 9a8d 8a3c
00000150: 4387 0d3d f816 293e 2848 803d 43da fa3b
00000160: c52a b53d e7c8 28bd 583d 1c3c 017c 463b
00000170: 2be9 bf3c 8760 debd 84b8 c13d 86d3 d8b7
00000180: 4335 403d 6831 1a3e 0ebc fbbc 7837 113e
00000190: 6650 243e 8815 043e 600b a83d 66ad 6b3e
000001a0: 5eb5 05bd 2b19 0a3d 25e1 a8bd 84e3 fa3c
000001b0: a423 d93b ce61 38bd 5751 e83b abb2 053e
000001c0: 2de6 273e ec99 82bc af2b 443e 8c19 49bd
000001d0: f1c5 bdbd 93ad d83d 6b5c 583e cdf2 90bd
000001e0: 7e36 063e 4a4b 5dbb 952f bc3d a75c 103b
000001f0: 22c4 cd3c 8a31 b63d ff8b 84bc 3c70 063e

weight f4 [512, 128]
-0.07983295 0.033511072 -0.064882375 -0.03712874 0.04317808 -0.056025337 -0.02750588 0.088488854
0.01561624 0.09839741 -0.07811274 0.024534699 -0.02756864 0.0753966 0.07744871 -0.040199745
-0.06311904 -0.04915517 -0.06705535 0.053367775 0.006282125 -0.09027172 -0.04057915 0.043496292
-0.022014339 -0.07559102 0.011299227 -0.022563886 0.09518381 0.0018985283 -0.016144803 -0.021299781
0.050082114 0.0085161 0.052323364 0.041543234 0.102922805 0.014381417 -0.015955597 0.029125003
0.051022787 -0.005325977 0.029056352 -0.07798227 0.08324682 -0.017093249 -0.066578016 0.01449939
0.057082303 -0.03670077 -0.015702851 0.039544903 0.095979005 -0.010545868 -0.005279132 -0.09978548
-0.011071193 0.04685368 -0.06524545 0.054714937 0.026040228 -0.05902951 0.05488632 -0.06643348
0.05443674 -0.018095456 0.0041093505 -0.005799365 -0.0199738 -0.04092016 0.004451954 -0.022916172
0.03953216 -0.07557013 -0.032972626 -0.017289024 -0.019356562 -0.09725508 0.01788725 -0.022203403
-0.03528223 0.025361953 0.066802904 -0.03619029 0.0121289 -0.066330425 0.024735993 -0.02174068
0.08826609 0.0844653 0.0106040705 0.011374233 -0.027068155 0.061001822 0.01800887 0.0484164
0.037220217 0.0896063 0.056989107 0.04509415 -0.094388284 0.029976927 0.06631648 -0.057462372
-0.02400018 0.009034764 -0.03444806 -0.074302435 -0.015114564 0.040874414 -0.059292942 -0.007846774
0.0005576935 -0.022996651 0.029662471 0.037115484 -0.08100828 0.13368334 -0.019051747 0.029745752
0.06347317 -0.06268365 0.025396995 0.025313597 0.07001848 -0.02566628 -0.07217707 0.022790132
0.011782137 0.072554395 -0.092138894 -0.02598826 -0.025229665 -0.011582264 -0.008001853 -0.044306345
-0.0030091496 -0.016570248 -0.045956943 -0.0141678685 -0.026347943 -0.00815145 0.071737394 -0.032639667
-0.033779655 0.0683745 0.08031035 -0.013923581 0.10149078 0.029594243 0.053479284 0.05833781
0.058127552 -0.022989597 -0.06512116 0.07375872 0.066020586 0.08373041 -0.06802066 -0.05282177
0.047374893 0.0010405078 -0.0066201305 -0.052078817 -0.092604645 -0.047308456 -0.038044747 -0.0907786
0.09475938 0.01840408 0.08000476 -0.019413846 -0.017155755 0.053677637 0.00045153245 -0.024643013
0.009024487 -0.047863767 0.10499407 -0.0469933 -0.04777175 -0.0716405 0.103664495 -0.06538285
0.09197765 0.032207847 -0.080365956 4.3340922e-05 0.03950973 -0.06789038 -0.015955804 0.06709785
-0.004837618 0.030028429 0.0029138357 0.04187604 0.049016427 0.059912518 0.019695945 -0.033228587
-0.05974946 0.032499548 0.009763555 -0.030093312 0.045203816 -0.004062065 -0.048064217 0.010934105
0.07002553 0.0073736287 -0.04469142 -0.0020483974 -0.021402061 0.0047375206 -0.027905697 0.026142837
-0.039865274 -0.07381424 -0.016953016 0.08139151 -0.04126441 -0.020445522 0.04052615 0.058252174
0.0870835 -0.048700254 0.035001587 0.020986589 -0.022608202 -0.017407801 -0.02224827 0.06863755
-0.058233865 -0.07108773 0.07392564 -0.07481234 -0.066654645 -0.061089687 0.08778754 0.05752694
0.09041449 0.040726714 -0.017981008 0.027891621 0.051792502 0.026753727 0.08107699 0.085213885
-0.04759344 -0.024916502 -0.08715499 -0.060444627 -0.05058091 0.050932646 0.007206992 -0.025101459
00000000: 757f a3bd e842 093d 0de1 84bd 4e14 18bd
00000010: 80db 303d d37a 65bd 0354 e1bc a539 b53d
00000020: 42db 7f3c 9584 c93d 92f9 9fbd fefc c83c
00000030: a1d7 e1bc 8869 9a3d 6e9d 9e3d 7da8 24bd
00000040: 8e44 81bd ee56 49bd 5154 89bd 2b98 5a3d
00000050: 49da cd3b 61e0 b8bd 5336 26bd 2b29 323d
00000060: 6a57 b4bc 77cf 9abd 6520 393c e6d7 b8bc
00000070: bbef c23d 0ad8 f83a 1b42 84bc e17c aebc
00000080: e722 4d3d 1d87 0b3c 0651 563d 3d29 2a3d
00000090: 31c9 d23d 09a0 6b3c 50b5 82bc 8f97 ee3c
000000a0: 45fd 503d 8985 aebb 9607 ee3c 2bb5 9fbd
000000b0: 4f7d aa3d 2407 8cbc 0e5a 88bd d98e 6d3c
000000c0: 22cf 693d 8c53 16bd 44a3 80bc d6f9 213d
000000d0: a490 c43d 94c8 2cbc 92fc acbb 545c ccbd
000000e0: f363 35bc a5e9 3f3d 689f 85bd c51c 603d
000000f0: 5152 d53c edc8 71bd 7ad0 603d 470e 88bd
00000100: 0ff9 5e3d ec3c 94bc bba7 863b 9a08 bebb
00000110: 18a0 a3bc e69b 27bd b2e1 913b b2ba bbbc
00000120: 79ec 213d 83c4 9abd 4e0e 07bd b6a1 8dbc
00000130: a791 9ebc ac2d c7bd 4888 923c e9e3 b5bc
00000140: 1984 10bd dfc3 cf3c f6cf 883d 453c 14bd
00000150: 4bb8 463c 3fd8 87bd 23a3 ca3c 8319 b2bc
00000160: dac4 b43d 25fc ac3d b2bc 2d3c fe5a 3a3c
00000170: 09be ddbc 0cdd 793d 5687 933c 4650 463d
00000180: 3a74 183d 8283 b73d 696d 693d a5b4 383d
00000190: a54e c1bd 2c92 f53c efd0 873d aa5d 6bbd
000001a0: 079c c4bc 8c06 143c 6919 0dbd e02b 98bd
000001b0: 14a3 77bc ee6b 273d 28dd 72bd c18f 00bc
000001c0: 2d32 123a 7963 bcbc b6fe f23c 6806 183d
000001d0: abe7 a5bd 49e4 083e 6912 9cbc 5dad f33c
000001e0: 39fe 813d 4960 80bd 5c0d d03c 765e cf3c
000001f0: d965 8f3d 1742 d2bc 92d1 93bd 5fb2 ba3c
00000200: dd09 413c 6697 943d 51b3 bcbd 55e5 d4bc
00000210: 71ae cebc 89c3 3dbc 341a 03bc 927a 35bd
00000220: 2735 45bb 54be 87bc 593d 3cbd 5920 68bc
00000230: a4d7 d7bc a98d 05bc 0eeb 923d 2cb1 05bd
00000240: 895c 0abd ee07 8c3d c179 a43d bb1f 64bc
00000250: 66da cf3d a06f f23c 180d 5b3d a1f3 6e3d
00000260: 2817 6e3d ae54 bcbc 3e5e 85bd d00e 973d
00000270: cd35 873d d97a ab3d 6a4e 8bbd a45b 58bd
00000280: 2d0c 423d a661 883a aeed d8bb 9950 55bd
00000290: 81a7 bdbd 83c6 41bd cfd4 1bbd 21ea b9bd
000002a0: 3511 c23d 27c4 963c 89d9 a33d c909 9fbc
000002b0: 3a8a 8cbc 15dd 5b3d a9bb ec39 25e0 c9bc
000002c0: 71db 133c cc0c 44bd 2207 d73d 0c7c 40bd
000002d0: 4fac 43bd 41b8 92bd 0d4e d43d 72e7 85bd
000002e0: c75e bc3d 60ec 033d e896 a4bd f6c8 3538
000002f0: f4d4 213d 1d0a 8bbd bfb5 82bc 996a 893d
00000300: e284 9ebb 2efe f53c 0df6 3e3b 3686 2b3d
00000310: 73c5 483d d466 753d 6459 a13c b31a 08bd
00000320: dabb 74bd 3f1e 053d 51f7 1f3c 4086 f6bc
00000330: a327 393d 121b 85bb fcde 44bd f624 333c
00000340: 8c69 8f3d 7b9e f13b 5a0e 37bd 683e 06bb
00000350: 6053 afbc 343d 9b3b 7d9a e4bc 8129 d63c
00000360: c549 23bd ec2b 97bd 0de1 8abc 98b0 a63d
00000370: df04 29bd 5e7d a7bc c0fe 253d d599 6e3d
00000380: d658 b23d eb79 47bd d35d 0f3d 11ec ab3c
00000390: d634 b9bc ce9a 8ebc 0142 b6bc d891 8c3d
000003a0: a286 6ebd 7296 91bd 5366 973d 3637 99bd
000003b0: 3b82 88bd 2e39 7abd f4c9 b33d 5ea1 6b3d
000003c0: 3b2b b93d 0ed1 263d e84c 93bc f87c e43c
000003d0: 6024 543d a22a db3c b10b a63d 9e84 ae3d
000003e0: 57f1 42bd b11d ccbc 517e b2bd c994 77bd
000003f0: ee2d 4fbd c09e 503d a128 ec3b 93a1 cdbc

bias f4 [512]
0.015961327 0.09465243 0.014052502 0.034159414 -0.023110634 0.13339028 0.0895623 -0.07759741
-0.039014332 -0.077398404 -0.06897756 -0.0719447 0.08100328 0.1125356 -0.054064494 0.17064947
-0.07384097 -0.029816473 0.123209305 0.0697526 0.03684982 0.055098902 0.09718198 0.012984114
-0.033159737 -0.04076708 0.07902692 0.10225196 0.0045963232 -0.04682662 0.13596527 -0.01607293
-0.048456546 -0.06976922 0.0023054723 0.041321564 0.063184075 0.05003369 -0.08585335 0.08224383
-0.017343124 0.035008058 -0.025395306 -0.05003619 -0.071799956 0.061799753 0.0034160488 -0.023524018
-0.05457868 0.13247894 -0.040792856 0.11616066 -0.056288682 0.025532197 -0.037672773 0.048443805
-0.04240023 0.07500163 -0.07606835 0.02805812 0.04959817 -0.031160066 -0.0069072573 0.07221422
-0.06533351 0.026413448 0.02570656 0.018233933 0.0126920445 -0.045355506 0.016777202 0.11705666
0.044288933 -0.027781151 -0.044805203 0.014585683 0.13483042 0.09849789 0.06620903 -0.023672774
0.12479791 0.06806981 -0.05700105 -0.03423794 0.0005560648 -0.046346635 0.07569885 0.07349509
-0.073109046 -0.041525625 0.02965601 -0.028295217 0.14182033 0.11291912 -0.07617195 0.0655221
0.0067532146 0.044903997 0.04051482 -0.06822423 0.040538814 0.005746601 -0.048163053 -0.032040264
-0.034862828 -0.060255345 0.110389516 0.014535124 -0.009878411 0.005458019 0.07293075 0.06971678
0.105275184 -0.053559538 -0.013506436 -0.056708552 0.13165863 -0.0851043 0.050883837 -0.0733058
0.03267002 0.02795939 0.052046895 0.11265451 -0.08351745 0.0022766562 -0.020569354 -0.00793625
-0.0797524 0.13999861 0.08957068 0.10503719 0.040189393 -0.026523285 -0.009245211 0.11674385
-0.06139898 -0.045152854 -0.07891093 -0.07120857 0.08173576 -0.07066229 0.116044976 -0.05889973
0.021559924 0.06346466 0.091046184 0.14336671 -0.04362254 0.1015808 0.010821161 -0.073021695
0.0050717243 -0.034867063 0.0008001421 0.10930233 0.011275207 -0.0068883128 -0.029455999 -0.06045514
0.08432468 0.06331192 0.016884046 -0.075915895 -0.06521896 -0.044947483 0.004999823 -0.06598286
-0.036625396 0.003397308 0.13232426 -0.037959844 0.06922851 0.06959996 0.053111997 0.01483941
0.12409635 0.0641535 0.011023013 -0.042555932 0.08055955 0.02849695 0.12267808 0.028204529
-0.0013015972 0.023363154 -0.061368346 -0.014846863 -0.012468358 0.08389998 0.046329964 0.02521104
0.0186612 -0.03429678 0.057082914 0.06613074 -0.067190185 -0.028483748 0.08711212 -0.057192348
-0.008596085 0.04989659 -0.078641064 -0.043955196 0.1601264 0.069775395 0.0432268 -0.0684222
0.0025474972 0.0028704638 0.106981345 0.11171584 -0.05106515 -0.02652032 -0.020128723 -0.06309646
-0.05185565 -0.011503734 0.020827193 0.070914246 -0.05961427 0.027750008 -0.012084689 0.07956184
-0.08628283 -0.055783976 0.021852216 0.004542335 -0.023865577 -0.018113457 -0.058708712 -0.046840444
-0.07441337 0.04388031 -0.012197051 0.046021566 -0.08638245 0.101491496 -0.049252596 -0.043861616
-0.05651175 0.02798022 0.11838032 0.039967377 -0.06124419 0.06261521 -0.030183882 0.17517601
-0.07670352 -0.032285612 0.027706295 0.052887347 0.050958734 -0.03999147 0.072768204 -0.06942705
00000000: 54c1 823c 22d9 c13d 773c 663c beea 0b3d
00000010: 8352 bdbc 7697 083e 706c b73d 64eb 9ebd
00000020: 7ecd 1fbd 0e83 9ebd 1b44 8dbd be57 93bd
00000030: 0ce5 a53d 1179 e63d bb72 5dbd bcbe 2e3e
00000040: ef39 97bd ad41 f4bc 2955 fc3d 73da 8e3d
00000050: d6ef 163d 63af 613d 5907 c73d 52bb 543c
00000060: 81d2 07bd 62fb 26bd ded8 a13d 7a69 d13d
00000070: c19c 963b 45cd 3fbd 7b3a 0b3e 61ab 83bc
00000080: 5f7a 46bd 2ae3 8ebd 6817 173b cd40 293d
00000090: a766 813d 20f0 4c3d e2d3 afbd 746f a83d
000000a0: 2b13 8ebc 9c64 0f3d d109 d0bc bff2 4cbd
000000b0: db0b 93bd bd21 7d3d cadf 5f3b 71b5 c0bc
000000c0: e58d 5fbd 8fa8 073e 6916 27bd a4e5 ed3d
000000d0: f68e 66bd e628 d13c c44e 1abd 036d 463d
000000e0: ddab 2dbd 749a 993d b9c9 9bbd 24da e53c
000000f0: 7327 4b3d 6543 ffbc 4656 e2bb 0de5 933d
00000100: 93cd 85bd 0461 d83c 9096 d23c 545f 953c
00000110: 4bf2 4f3c b2c6 39bd 5870 893c 67bb ef3d
00000120: 5068 353d 4c95 e3bc a985 37bd caf8 6e3c
00000130: fc10 0a3e 43b9 c93d 9a98 873d 68ed c1bc
00000140: 0c96 ff3d 2f68 8b3d ef79 69bd 153d 0cbd
00000150: e1c4 113a f8d5 3dbd 0008 9b3d 9884 963d
00000160: 32ba 95bd c616 2abd 29f1 f23c 5fcb e7bc
00000170: 5939 113e 2442 e73d 0a00 9cbd 7330 863d
00000180: 124a dd3b 41ed 373d def2 253d 25b9 8bbd
00000190: 070c 263d fc4d bc3b 9f46 45bd a73c 03bd
000001a0: 53cc 0ebd 4fce 76bd e613 e23d bb24 6e3c
000001b0: 0fd9 21bc 2fd9 b23b b85c 953d acc7 8e3d
000001c0: 849a d73d 3f61 5bbd 194a 5dbc 3a47 68bd
000001d0: 85d1 063e 2a4b aebd 926b 503d 5a21 96bd
000001e0: 00d1 053d 170b e53c 202f 553d 68b7 e63d
000001f0: 320b abbd f433 153b 1081 a8bc 0c07 02bc
00000200: 3a55 a3bd cc5b 0f3e d570 b73d bd1d d73d
00000210: a29d 243d 5c47 d9bc 3a79 17bc 6617 ef3d
00000220: 7f7d 7bbd 33f2 38bd 0e9c a1bd ccd5 91bd
00000230: 1465 a73d 64b7 90bd fda8 ed3d d840 71bd
00000240: 709e b03c c2f9 813d 6c76 ba3d b9ce 123e
00000250: 8cad 32bd 9809 d03d 3d4b 313c 668c 95bd
00000260: b530 a63b c4d0 0ebd a1c0 513a e6d9 df3d
00000270: a5bb 383c 5bb7 e1bb b54d f1bc cf9f 77bd
00000280: 6bb2 ac3d aea9 813d 6950 8a3c cb79 9bbd
00000290: 8591 85bd da1a 38bd 8ed5 a33b 0622 87bd
000002a0: 8304 16bd 5fa5 5e3b 0380 073e c87b 1bbd
000002b0: adc7 8d3d 6d8a 8e3d f78b 593d ff20 733c
000002c0: 3a26 fe3d e962 833d de99 343c 214f 2ebd
000002d0: 68fc a43d 7072 e93c a53e fb3d 2f0d e73c
000002e0: 5b9a aaba 1664 bf3c 605d 7bbd 4240 73bc
000002f0: 1548 4cbc c1d3 ab3d 7dc4 3d3d 6287 ce3c
00000300: 5fdf 983c c87a 0cbd c6cf 693d 8e6f 873d
00000310: 029b 89bd c056 e9bc d767 b23d 8642 6abd
00000320: 98d6 0cbc 5e60 4c3d 910e a1bd 5d0a 34bd
00000330: 2df8 233e 67e6 8e3d 960e 313d f020 8cbd
00000340: e9f3 263b 641e 3c3b 0919 db3d 46cb e43d
00000350: b129 51bd 2441 d9bc fee4 a4bc b838 81bd
00000360: 9766 54bd 287a 3cbc ca9d aa3c 7d3b 913d
00000370: 182e 74bd fc53 e33c dcfe 45bc 51f1 a23d
00000380: 0db5 b0bd bd7d 64bd 6b03 b33c ded7 943b
00000390: be81 c3bc ac62 94bc 8c78 70bd c4db 3fbd
000003a0: 0966 98bd d7bb 333d 24d6 47bc 1c81 3c3d
000003b0: 48e9 b0bd c6da cf3d 17bd 49bd 3da8 33bd
000003c0: dd78 67bd c636 e53c 6271 f23d d5b4 233d
000003d0: 30db 7abd 673c 803d 3044 f7bc 5761 333e
000003e0: bc16 9dbd eb3d 04bd 50f8 e23c 67a0 583d
000003f0: 1bba 503d 18ce 23bd 7f07 953d c52f 8ebd

weight f4 [10, 512]
0.008834976 0.037206866 -0.0366468 -0.0073328433 0.06718344 0.07574346 0.04753147 0.011904163
0.03808442 0.017791808 -0.034153678 0.05114534 0.03169148 0.09386621 0.017383687 0.18183975
0.04580772 -0.034516852 0.07793468 -0.008359071 0.03703805 0.030855667 0.09980932 0.06693391
0.01616412 0.04377547 0.104266 0.05186507 -0.008622583 0.030704448 0.071553275 0.13318579
-0.007274229 -0.017951138 -0.019382382 0.14189084 0.030601192 0.02966754 -0.00087228505 -0.0053305244
0.052417476 0.014652282 -0.004064724 0.011401982 0.0013885275 0.12493985 -0.029227547 -0.0012074896
0.09491298 0.13192706 -0.022701165 0.2425672 0.016588546 -0.011561729 0.008898724 0.15937309
0.025928712 0.02478486 -0.0021465607 0.025018675 0.041085336 0.014311359 0.02491913 0.11912691
0.03894801 0.019508718 0.03500922 -0.018110458 0.03747627 0.0068904255 0.038037542 0.026455628
0.007983502 -0.018803189 0.020317337 -0.014341019 0.096921556 0.092882134 0.1186577 0.018869255
0.046926185 0.15607469 -0.022389824 0.017115634 0.053443458 0.11918206 0.060929894 0.057397656
-0.01453524 0.04350499 0.0017657462 -0.019652005 0.22380711 0.13062197 -0.007956788 0.06127154
-0.019238537 0.11384329 0.04850941 -0.015241452 0.017462268 -0.0022986112 0.0009324737 0.017997267
0.054102074 0.075714745 0.043521546 0.09151206 0.018304419 0.041235242 0.038279273 0.0012839828
-0.007925938 0.04927064 0.03565089 0.002268308 0.1274335 -0.028434882 -0.025572643 0.035802685
0.01581204 0.015740182 0.055235036 0.072041444 0.06172803 0.047186077 0.06030217 0.012825683
0.021444935 0.010109687 0.050365794 0.06937363 0.015560134 -0.020777404 -0.015950419 0.07004525
0.02242959 -0.032649748 -0.021286087 -0.0029812083 0.02610519 -0.043479417 0.14444698 0.016621787
0.01752161 0.037324935 0.024454718 0.13428058 -0.01719664 0.07421826 0.0035523386 0.023296831
0.100961916 0.022331303 0.030915335 -0.00949502 -0.03877785 0.048205297 0.05019553 -0.004807012
-0.034219794 0.062427823 0.026685555 0.035336256 0.037664045 0.041908264 0.029090837 0.014057429
0.005183652 0.042867 0.0155976 -0.030006142 0.055323847 -0.006218499 0.08482839 0.044789348
0.06730647 0.0043547763 0.04678471 -0.029176705 -0.004316585 0.010641737 0.057073306 0.016798135
0.030279772 -0.016966384 0.026262945 0.046725176 0.051353294 0.048233904 0.014562842 0.046979412
0.07487636 -0.010059501 -0.025788693 0.08586834 0.08282359 -0.018503282 -0.032792676 -0.0016876437
0.019360652 0.040803492 -0.024050161 0.023906065 0.09834997 0.13303113 0.024796506 -0.016278692
0.043163408 0.02296694 0.012014867 0.077214815 0.031217825 -0.0018754372 -0.014708598 0.0506921
0.0041974424 0.00039433935 0.0016723976 -0.0158229 0.018860187 -0.04416777 0.011583788 0.15314098
0.024507415 -0.0026825215 0.01585114 0.16668463 0.06135969 0.0014257397 0.021825569 0.025100771
0.010005355 0.12526406 0.038836405 0.033305667 -0.028281651 0.032986175 0.013458888 0.009791777
0.08499706 0.08758908 0.089454964 0.0009870939 -0.028970916 0.040943597 -0.006312374 0.19396597
-0.031650163 -0.030151866 0.035019983 0.028987816 -0.006502235 0.07276463 0.044575725 0.05263149
00000000: 93c0 103c 3a66 183d f41a 16bd 5948 f0bb
00000010: 7997 893d 631f 9b3d 5cb0 423d ae09 433c
00000020: 69fe 1b3d 20c0 913c bae4 0bbd c77d 513d
00000030: edce 013d ed3c c03d 3c68 8e3c 3334 3a3e
00000040: e0a0 3b3d 8b61 0dbd 389c 9f3d 7cf4 08bc
00000050: 36b5 173d 06c5 fc3c d468 cc3d a514 893d
00000060: 9e6a 843c e84d 333d 6a89 d53d 7870 543d
00000070: bc45 0dbc e587 fb3c 868a 923d db61 083e
00000080: a85c eebb 440e 93bc cdc7 9ebc d54b 113e
00000090: 5aaf fa3c 5709 f33c 0faa 64ba aeab aebb
000000a0: b5b3 563d 2010 703c 6031 85bb 61cf 3a3c
000000b0: 40ff b53a 77e0 ff3d 9c6e efbc a144 9eba
000000c0: bd61 c23d e317 073e cbf7 b9bc 8963 783e
000000d0: b4e4 873c 686d 3dbc f4cb 113c b332 233e
000000e0: 7368 d43c 9e09 cb3c 50ad 0cbb f7f3 cc3c
000000f0: 1949 283d 317a 6a3c 3423 cc3c cff8 f33d
00000100: f387 1f3d bfd0 9f3c d465 0f3d 625c 94bc
00000110: b880 193d 14c9 e13b 41cd 1b3d 79b9 d83c
00000120: 3ccd 023c 2509 9abc 8b70 a63c 98f6 6abc
00000130: cf7e c63d fd38 be3d cf02 f33d b293 9a3c
00000140: ac35 403d 0bd2 1f3e dd6a b7bc 1636 8c3c
00000150: 87e7 5a3d b915 f43d a091 793d ce19 6b3d
00000160: 3725 6ebc 4a32 323d 9c70 e73a 3efd a0bc
00000170: b12d 653e c4c1 053e 305d 02bc def7 7a3d
00000180: 239a 9dbc ac26 e93d ceb1 463d 48b7 79bc
00000190: 080d 8f3c 4ca4 16bb 4071 743a 016f 933c
000001a0: 239a 5d3d 5510 9b3d a643 323d ad6a bb3d
000001b0: 26f3 953c 49e6 283d baca 1c3d 504b a83a
000001c0: cbdb 01bc 03d0 493d ab06 123d e5a7 143b
000001d0: ed7d 023e 45f0 e8bc b87d d1bc d6a5 123d
000001e0: 4088 813c 8ef1 803c 223e 623d 778a 933d
000001f0: 88d6 7c3d 3046 413d 69ff 763d d022 523c
00000200: 4aad af3c 1aa3 253c 5d4c 4e3d c313 8e3d
00000210: efef 7e3c 6035 aabc 74aa 82bc e273 8f3d
00000220: 42be b73c bebb 05bd 2960 aebc 6060 43bb
00000230: 8dda d53c 7917 32bd e9e9 133e 6a2a 883c
00000240: 7b89 8f3c 08e2 183d 4355 c83c d980 093e
00000250: f8df 8cbc beff 973d 5ace 683b ffd8 be3c
00000260: 1fc5 ce3d 23f0 b63c 2842 fd3c 0091 1bbc
00000270: 86d5 1ebd eb72 453d d499 4d3d 2484 9dbb
00000280: 0e2a 0cbd 51b4 7f3d aa9b da3c c0bc 103d
00000290: 9d45 1a3d 00a8 2b3d e84f ee3c 2151 663c
000002a0: a0db a93b 4f95 2f3d 138d 7f3c 71cf f5bc
000002b0: 429b 623d 8dc4 cbbb 82ba ad3d 0975 373d
000002c0: f9d7 893d 83b2 8e3b 53a1 3f3d fc03 efbc
000002d0: 2472 8dbb ae5a 2e3c b3c5 693d 3e9c 893c
000002e0: 490d f83c 16fd 8abc 6325 d73c e662 3f3d
000002f0: d557 523d ea90 453d fd98 6e3c 7c6d 403d
00000300: c758 993d 9bd0 24bc cf42 d3bc bedb af3d
00000310: 6a9f a93d 3294 97bc 9d51 06bd ed33 ddba
00000320: 3b9a 9e3c 9021 273d d804 c5bc a7d6 c33c
00000330: b66b c93d 5039 083e 0b22 cb3c e45a 85bc
00000340: 1dcc 303d 2a25 bc3c 01da 443c cd22 9e3d
00000350: 86bc ff3c 3bd1 f5ba 55fc 70bc 85a2 4f3d
00000360: b38a 893b 55bf ce39 5a34 db3a 079f 81bc
00000370: ae80 9a3c 43e9 34bd eec9 3d3c fdd0 1c3e
00000380: c6c3 c83c 3ecd 2fbb 40da 813c 60af 2a3e
00000390: 4c54 7b3d e3df ba3a 89cb b23c 22a0 cd3c
000003a0: 80ed 233c 3945 003e ec12 1f3d 866b 083d
000003b0: ecae e7bc 831c 073d ab82 5c3c b06d 203c
000003c0: f012 ae3d e761 b33d 2a34 b73d 6061 813a
000003d0: 6a54 edbc 79b4 273d 08d8 cebb 049f 463e
000003e0: 9aa3 01bd 0c01 f7bc 1d71 0f3d db77 ed3c
000003f0: b310 d5bb 9f05 953d 0995 363d 1e94 573d

bias f4 [10]
0.49676633 -0.07168552 -0.042255253 -0.054750644 -0.027833357 -0.07387203 -0.07954415 -0.07385325
-0.036640316 -0.048719373
00000000: 2858 fe3e dccf 92bd d813 2dbd 3642 60bd
00000010: c802 e4bc 384a 97bd 0be8 a2bd 5f40 97bd
00000020: 2814 16bd f78d 47bd
