system/models/MNIST/FedPer_FedAvgCNN_MNIST_server.pt (torch, 25344 bytes, 4 tensors)

weight f4 [32, 1, 5, 5]
0.011459672 0.06287057 -0.23353933 -0.23299317 -0.22568293 0.09711822 -0.0506006 0.047263548
-0.14273785 -0.100171864 0.02867814 -0.039419644 -0.2655991 -0.2189074 -0.17096211 0.12107549
0.08270602 0.058914803 -0.16229035 -0.086330585 0.24746637 0.2520646 0.0042246403 0.21196766
0.08553789 -0.1039718 0.016979843 -0.27413282 -0.18989305 -0.12768286 -0.12909994 0.05935871
-0.23720084 -0.15989743 -0.19788204 -0.13815793 -0.15370046 0.045105934 -0.007867791 0.0588954
0.058045086 -0.12422328 -0.023826107 -0.17363952 -0.06785986 -0.051917754 0.13192786 0.14002123
0.0055785733 0.13680582 0.213549 0.42488122 0.23086894 0.027753968 0.0040997197 -0.022833606
0.17678547 -0.08872128 -0.30094728 -0.37665132 0.007832344 0.061480824 -0.09763054 -0.047918227
-0.019274862 -0.17238705 -0.059143454 0.044676792 0.15623078 0.2119314 -0.25767863 -0.14373888
0.021540971 0.11992169 0.07044172 0.358415 0.14348698 -0.24739523 -0.080274284 -0.118550144
-0.18624957 0.1281315 0.060730204 -0.24366425 0.12570074 -0.11530789 -0.13832366 -0.11378835
0.15589745 0.03010958 -0.024271976 0.041867647 0.18381831 0.14727664 -0.139983 -0.1844068
0.07450795 0.079821646 -0.09189915 -0.040573582 0.28072184 0.28664017 0.01083094 -0.0985912
-0.31423646 -0.0820446 -0.18128403 -0.16118568 -0.045039874 0.016387688 -0.27922943 -0.0005147293
-0.11307108 0.23210311 0.19731669 -0.25665653 -0.060327873 0.08554462 0.063590296 0.01785578
0.10362086 0.04406192 -0.07191837 0.013124894 -0.27154464 -0.10212865 -0.053937666 -0.10207934
-0.053286914 -0.11837091 -0.10582423 -0.05591955 -0.20003895 -0.011712967 0.20515087 -0.10761921
-0.08781637 -0.056686625 0.030218782 0.11972652 0.13724433 0.10825125 0.17357051 -0.07550795
-0.27533218 -0.14838597 0.10292749 -0.03303099 -0.15244722 -0.22412448 -0.21470283 -0.22651435
-0.16157904 -0.033784997 -0.024888521 -0.24036951 0.035015028 -0.2536594 -0.11544337 -0.14875947
-0.089863986 -0.106535405 -0.21177694 -0.173328 -0.039253134 -0.025027132 -0.123579614 0.06887914
-0.1579676 0.031372495 0.19706716 -0.062185366 0.21283446 0.1472976 -0.047713608 0.028965553
-0.044464145 0.04795149 0.5070975 0.11443235 -0.1486729 -0.12493896 0.20881252 0.37062562
0.3602383 0.025905237 -0.086006604 -0.12984823 -0.21177478 0.13041814 0.079152964 0.05182591
-0.2646827 -0.18033999 -0.2362994 -0.2780643 -0.15741506 -0.0017438403 -0.2347155 -0.13968569
-0.026838118 0.058241777 -0.21635287 -0.19810125 -0.21156186 0.14885959 -0.112506084 0.101969
-0.00059342204 -0.050530747 0.027880417 -0.04590119 -0.022728598 -0.12238892 -0.06544799 0.05568079
-0.1460991 -0.14875926 0.098275535 -0.18270202 0.0071361433 0.15588856 0.0063242298 -0.03289457
-0.16558626 0.07064467 -0.14907199 -0.060127538 -0.075840406 -0.034943674 -0.0065104333 0.15571257
0.016106086 0.16309291 0.11418475 -0.13434774 0.0787773 -0.1406743 -0.07422034 0.064791724
0.06673785 0.16042863 -0.041863352 0.035324983 0.1299185 -0.17587547 0.16664153 -0.14127369
0.044434316 0.0021792196 -0.07306361 0.1060867 0.25605175 -0.0425616 -0.15760742 -0.0909222
00000000: 59c1 3b3c 49c2 803d ef24 6fbe c395 6ebe
00000010: 6d19 67be ebe5 c63d 9342 4fbd 6c97 413d
00000020: df29 12be e826 cdbd 6bee ea3c 7e76 21bd
00000030: 9bfc 87be 4329 60be b110 2fbe 6df6 f73d
00000040: c661 a93d a650 713d 712f 26be 17ce b0bd
00000050: d367 7d3e 9c0e 813e da6e 8a3b 0d0e 593e
00000060: 7d2e af3d 2bef d4bd 5019 8b3c 235b 8cbe
00000070: 5373 42be 4cbf 02be c632 04be 1e22 733d
00000080: c7e4 72be 27bc 23be 97a1 4abe 4679 0dbe
00000090: a763 1dbe 00c1 383d e8e7 00bc 4e3c 713d
000000a0: afc0 6d3d c668 febd f82e c3bc 8fce 31be
000000b0: 1cfa 8abd b6a7 54bd 1918 073e ba61 0f3e
000000c0: 77cc b63b d316 0c3e 97ac 5a3e 088a d93e
000000d0: e868 6c3e 4a5c e33c f156 863b 8b0d bbbc
000000e0: 4007 353e 81b3 b5bd c315 9abe 71d8 c0be
000000f0: 3b53 003c 51d3 7b3d 85f2 c7bd e745 44bd
00000100: 51e6 9dbc 3b86 30be 6840 72bd 03ff 363d
00000110: f6fa 1f3e 8b04 593e 74ee 83be 4930 13be
00000120: b176 b03c 8199 f53d c043 903d 2c82 b73e
00000130: 40ee 123e 2d55 7dbe d866 a4bd 6bca f2bd
00000140: 35b8 3ebe e734 033e 3cc0 783d 1f83 79be
00000150: b2b7 003e 8b26 ecbd b8a4 0dbe de09 e9bd
00000160: 95a3 1f3e 5ea8 f63c 06d6 c6bc 697d 2b3d
00000170: de3a 3c3e b0cf 163e b457 0fbe 23d5 3cbe
00000180: a097 983d 8879 a33d 9f35 bcbd 7c30 26bd
00000190: c6ba 8f3e 80c2 923e 4174 313c 2fea c9bd
000001a0: 9ae3 a0be 0007 a8bd 85a2 39be dc0d 25be
000001b0: bb7b 38bd 793f 863c 29f7 8ebe e6ee 06ba
000001c0: cf91 e7bd 70ac 6d3e 630d 4a3e 7c68 83be
000001d0: 5c1a 77bd 0532 af3d a13b 823d 4946 923c
000001e0: 2c37 d43d 467a 343d f049 93bd cc09 573c
000001f0: e607 8bbe d328 d1bd beed 5cbd f90e d1bd
00000200: 6143 5abd 736c f2bd 60ba d8bd e60b 65bd
00000210: 03d7 4cbe bfe7 3fbc 1213 523e 7667 dcbd
00000220: 12d9 b3bd 3c30 68bd 618d f73c 2d33 f53d
00000230: c789 0c3e d5b2 dd3d 78bc 313e e9a3 9abd
00000240: 57f8 8cbe 7ef2 17be a6cb d23d 814b 07bd
00000250: 201b 1cbe e380 65be 0fdb 5bbe 61f3 67be
00000260: fa74 25be 2362 0abd 03e3 cbbc 6d23 76be
00000270: eb6b 0f3d a5df 81be 936d ecbd 6754 18be
00000280: 9c0a b8bd 3c2f dabd 0edc 58be e57c 31be
00000290: e5c7 20bd b305 cdbc 4f17 fdbd 8210 8d3d
000002a0: 42c2 21be 7280 003d f9cb 493e 15b6 7ebd
000002b0: 47f1 593e 2fd5 163e 586f 43bd 2b49 ed3c
000002c0: 0920 36bd c868 443d 24d1 013f 825b ea3d
000002d0: b53d 18be ffdf ffbd f3d2 553e a4c2 bd3e
000002e0: 2871 b83e 3837 d43c 3b24 b0bd eff6 04be
000002f0: 7ddb 58be 558c 053e f31a a23d 6847 543d
00000300: 7e84 87be 0cab 38be 78f8 71be 725e 8ebe
00000310: 6a31 21be 9291 e4ba 4359 70be c409 0fbe
00000320: 9ddb dbbc ee8e 6e3d 9b8b 5dbe 0edb 4abe
00000330: aca3 58be a66e 183e 9769 e6bd 20d5 d03d
00000340: e18f 1bba 54f9 4ebd 7965 e43c e302 3cbd
00000350: 5331 babc 0ba7 fabd 9909 86bd 8a11 643d
00000360: 019b 15be 5954 18be af44 c93d 3d16 3bbe
00000370: 4fd6 e93b 40a1 1f3e 7c3b cf3b 75bc 06bd
00000380: 728f 29be 27ae 903d 54a6 18be 4b48 76bd
00000390: 3752 9bbd 1921 0fbd 7955 d5bb 1e73 1f3e
000003a0: e9f0 833c d401 273e b2d9 e93d 7492 09be
000003b0: fe55 a13d ec0c 10be d500 98bd 86b1 843d
000003c0: dbad 883d 6747 243e e878 2bbd eeb0 103d
000003d0: 5b09 053e b318 34be 14a4 2a3e 0daa 10be
000003e0: c200 363d 3dd1 0e3b 60a2 95bd fc43 d93d
000003f0: 3719 833e 1355 2ebd d763 21be 6b35 babd

bias f4 [32]
0.087370135 -0.096555635 0.1252748 -0.21721381 -0.04554183 0.17455132 0.2338403 -0.34537202
0.063868836 -0.0018005508 -0.101100154 -0.072648264 0.058776844 -0.20103654 -0.24415676 -0.09533366
-0.13489825 0.2514137 -0.16563201 0.14152057 -0.25920632 -0.06625004 0.08699919 0.23630664
-0.18446098 -0.05756779 -0.14308316 -0.03335176 0.004070675 0.025629506 0.050508603 -0.050734963
00000000: 1def b23d f6be c5bd 0a48 003e 4c6d 5ebe
00000010: 128a 3abd 95bd 323e d573 6f3e 9ad4 b0be
00000020: aacd 823d 7600 ecba 990d cfbd 9dc8 94bd
00000030: fdbf 703d 86dc 4dbe 3b04 7abe 4b3e c3bd
00000040: c422 0abe 4cb9 803e 709b 29be c5ea 103e
00000050: b1b6 84be 1aae 87bd a22c b23d 5efa 713e
00000060: 57e3 3cbe 34cc 6bbd 6484 12be db9b 08bd
00000070: 4c63 853b f8f4 d13c 1ce2 4e3d 77cf 4fbd

weight f4 [128, 32]
0.011778879 -0.07343743 -0.15112652 0.06890609 0.01746122 -0.07901685 -0.07405685 0.044509467
-0.03650244 0.113712065 0.004700583 0.06380485 0.07420654 -0.045675356 0.07114226 0.126965
0.006651443 0.019435808 0.0037528658 0.11724149 -0.0781382 -0.09850203 0.070235536 -0.15699801
-0.00035374422 -0.085486464 0.114852495 -0.16565093 0.102873154 0.17276596 0.033301394 -0.017312609
0.15499252 -0.07912044 0.042670023 -0.039780125 0.0193121 0.0652696 0.020442734 0.033736598
-0.17403446 0.01514969 0.02310611 0.045177292 0.17713436 0.20612772 -0.017918486 0.062149495
-0.015312746 -0.1854455 -0.07734092 0.14190692 0.19814631 0.121295184 0.13381767 -0.22684984
0.059140515 0.16141297 -0.051147986 0.15591551 0.07141969 0.11774782 -0.009146039 0.09130577
-0.18003914 -0.015819578 0.10931533 0.08897189 0.19080546 0.19596264 0.15474437 0.18873253
0.12518105 -0.022771493 -0.10765328 -0.045020945 0.01603546 -0.059967607 0.17483981 0.13571766
0.08416963 0.019265085 0.20636475 0.028204916 -0.061566677 -0.10769284 0.109375305 -0.09256079
0.12025467 -0.18511271 -0.11927588 0.09980696 0.13438782 -0.1768517 0.12788999 -0.12803437
0.17738995 0.07456586 0.11576547 -0.21635811 -0.21498203 0.10541418 0.18518166 0.02366721
0.13264464 -0.15347955 0.10235053 -0.18071344 -0.0011960034 -0.15440272 -0.18029578 -0.05878148
-0.13715582 0.040950943 -0.23134175 -0.12457699 -0.048324045 -0.09654071 -0.13277698 0.06816844
-0.19163977 -0.12572783 0.05556594 0.098364785 -0.0030757154 -0.077858634 -0.015165687 0.0023453454
-0.05439344 0.09613669 0.1191956 -0.20802386 -0.19235088 0.05224028 0.23107827 -0.16967426
0.07863254 0.12870263 0.055626623 0.04074512 0.15094782 0.0865019 -0.17594084 -0.042110797
0.04019156 0.30548018 -0.21651988 0.16119644 -0.1292063 -0.18111153 0.050436422 0.047368377
0.0011673507 -0.085000716 -0.17469934 -0.003217324 -0.06725736 0.12803112 -0.03918258 0.15720263
0.03312847 -0.056844547 0.119736806 0.009659976 0.03317952 -0.05685538 0.00063441694 -0.033989415
-0.015029088 -0.13786449 -0.0010871589 -0.14673248 -0.038030118 0.10245027 -0.12292172 -0.119156644
-0.043164715 -0.048460513 0.029926077 0.029347688 0.08964284 -0.121778026 -0.012475342 0.09886967
0.15290679 -0.012895063 -0.10228656 0.050816685 0.10067032 -0.11044122 -0.10258235 0.078135
0.0601604 -0.096994795 -0.11771595 0.053518165 -0.051041465 0.17621782 0.26116353 -0.0048222374
0.03215136 -0.043606997 0.011247683 0.044996563 -0.14149693 -0.054997995 -0.17729194 0.09009854
-0.13737275 0.32519928 -0.05818139 -0.034105252 0.05546637 0.03142486 0.15762483 0.18610927
-0.16927698 0.14459458 -0.05648381 -0.065027446 0.12145452 0.15346064 -0.17969295 0.015980465
0.0842485 0.051951863 0.25824523 0.019410443 -0.0077503216 0.19370775 0.051859673 0.31524536
-0.08179071 -0.10972808 0.038569722 -0.12765902 0.14555179 0.20638151 0.22877698 0.13477771
0.2030618 -0.1859045 0.28151432 -0.25463736 0.026507692 0.0065376335 0.20631637 -0.2347708
0.1436969 -0.14943674 0.15889749 -0.035621002 0.12003856 0.089894615 0.20716728 0.0054316767
00000000: 33fc 403c 5d66 96bd e9c0 1abe a31e 8d3d
00000010: d50a 8f3c 96d3 a1bd 1eab 97bd 8f4f 363d
00000020: 9583 15bd dfe1 e83d 5907 9a3b 1eac 823d
00000030: 99f9 973d 1516 3bbd 09b3 913d 1d03 023e
00000040: 59f4 d93b d837 9f3c a4f2 753b 4e1c f03d
00000050: ec06 a0bd 6fbb c9bd a6d7 8f3d 16c4 20be
00000060: bf76 b9b9 8713 afbd c937 eb3d 66a0 29be
00000070: 29af d23d 8fe9 303e 0b67 083d 2cd3 8dbc
00000080: 5cb6 1e3e e609 a2bd c3c6 2e3d 7cf0 22bd
00000090: 6934 9e3c 11ac 853d 8577 a73c 632f 0a3d
000000a0: 1736 32be 6836 783c 0649 bd3c d30b 393d
000000b0: b662 353e 2513 533e cac9 92bc 7890 7e3d
000000c0: 50e2 7abc 6de5 3dbe eb64 9ebd 0c50 113e
000000d0: dee6 4a3e 9c69 f83d 8007 093e 534b 68be
000000e0: 533d 723d 7149 253e 8d80 51bd 51a8 1f3e
000000f0: 7d44 923d c525 f13d 45d9 15bc 85fe ba3d
00000100: 2e5c 38be 0f98 81bc b7e0 df3d e536 b63d
00000110: 8262 433e 6eaa 483e 4f75 1e3e 1a43 413e
00000120: 762f 003e 488b babc 5379 dcbd e267 38bd
00000130: cc5c 833c 98a0 75bd 3509 333e 92f9 0a3e
00000140: 2161 ac3d d0d1 9d3c 4851 533e ff0d e73c
00000150: 572d 7cbd 108e dcbd 2900 e03d 8390 bdbd
00000160: 1548 f63d 308e 3dbe ea46 f4bd 9767 cc3d
00000170: f69c 093e 9d18 35be 98f5 023e 711b 03be
00000180: b6a5 353e fcb5 983d 7216 ed3d fb8c 5dbe
00000190: 4024 5cbe 64e3 d73d 43a0 3d3e bde1 c13c
000001a0: ffd3 073e be29 1dbe 289d d13d f20c 39be
000001b0: 37c3 9cba bf1b 1ebe 759f 38be d9c4 70bd
000001c0: 9372 0cbe 2dbc 273d dae4 6cbe 3922 ffbd
000001d0: 6fef 45bd 23b7 c5bd b0f6 07be e59b 8b3d
000001e0: 373d 44be ccbe 00be 1c99 633d 7a73 c93d
000001f0: f191 49bb 5974 9fbd 8079 78bc 5eb4 193b
00000200: a8cb 5ebd 50e3 c43d d31c f43d 3504 55be
00000210: a1f7 44be e7f9 553d c89f 6c3e 17bf 2dbe
00000220: 190a a13d 9fca 033e bed8 633d 5be4 263d
00000230: 1192 1a3e e827 b13d d629 34be 5f7c 2cbd
00000240: e89f 243d e667 9c3e 63b7 5dbe ae10 253e
00000250: a84e 04be 4d75 39be 6c96 4e3d 5805 423d
00000260: ca01 993a db14 aebd 62e4 32be bdd9 52bb
00000270: 3abe 89bd 971a 033e ea7d 20bd baf9 203e
00000280: b8b1 073d d4d5 68bd 9238 f53d e044 1e3c
00000290: 40e7 073d 30e1 68bd 004f 263a 7c38 0bbd
000002a0: 903c 76bc 592c 0dbe 007f 8eba 0a41 16be
000002b0: 78c5 1bbd 72d1 d13d 62be fbbd 6608 f4bd
000002c0: 7ccd 30bd 887e 46bd 8827 f53c 906a f03c
000002d0: aa96 b73d c266 f9bd 6065 4cbc 2e7c ca3d
000002e0: 9993 1c3e d045 53bc 9e7b d1bd 2825 503d
000002f0: 3e2c ce3d 022f e2bd b216 d2bd 3e05 a03d
00000300: c06a 763d 35a5 c6bd 0f15 f1bd dd35 5b3d
00000310: db10 51bd 7272 343e 3ab7 853e dc03 9ebb
00000320: 25b1 033d 409d 32bd 3448 383c 514e 383d
00000330: 92e4 10be 9445 61bd 058c 35be 9585 b83d
00000340: 71ab 0cbe 8580 a63e 9c4f 6ebd f3b1 0bbd
00000350: b430 633d 5bb7 003d 6768 213e 6e93 3e3e
00000360: f256 2dbe 9a10 143e 915b 67bd 1c2d 85bd
00000370: 26bd f83d c924 1d3e 6e01 38be 77e9 823c
00000380: 7a8a ac3d 7acb 543d b838 843e a602 9f3c
00000390: 69f6 fdbb 535b 463e cf6a 543d d767 a13e
000003a0: e381 a7bd 1eb9 e0bd 49fb 1d3d 0cb9 02be
000003b0: 870b 153e ad55 533e 8344 6a3e 2b03 0a3e
000003c0: 6fef 4f3e c05d 3ebe a522 903e d45f 82be
000003d0: a926 d93c a539 d63b 9944 533e c267 70be
000003e0: 4825 133e f205 19be 06b6 223e 54e7 11bd
000003f0: c7d6 f53d ab1a b83d a923 543e 35fc b13b

bias f4 [128]
0.046735927 0.13159922 0.04796569 -0.13580915 0.032819577 -0.021952838 0.19536188 -0.11215572
0.02542521 -0.062057607 -0.02808246 -0.0035189688 -0.10180652 -0.13871178 0.14576466 0.14850979
0.030635647 0.16944137 0.22561948 -0.11134837 -0.06389802 -0.121418536 0.057970922 0.005114174
-0.023282321 0.18822494 -0.02858614 -0.10980943 -0.11111612 -0.089932255 0.23856497 -0.085947156
-0.046625294 0.07967578 -0.13577032 -0.10729614 0.1560785 -0.07164671 -0.10959322 -0.022871077
-0.025189295 0.08146829 0.06480052 -0.136303 0.13927372 -0.18522471 0.08992922 -0.044866156
-0.07614949 0.19318548 -0.17035143 0.091116406 0.101875976 0.1579018 -0.14771572 0.021298736
0.15925483 -0.16195135 0.06341026 -0.11076314 0.021763884 -0.15990944 0.08184173 -0.039215997
0.081189774 -0.042074587 -0.025197702 -0.042918414 -0.16171552 -0.11619607 0.06132181 -0.13676266
0.17293446 -0.06636484 -0.024809726 0.03299622 -0.093084894 -0.0035548464 -0.08512561 -0.15462701
0.006119673 0.22123201 0.043531135 0.14580356 0.062280986 -0.061701976 0.19761999 -0.09413675
-0.10117758 0.038689837 0.073939286 -0.13369547 0.067890406 -0.06271739 -0.015676416 -0.02274703
-0.035869967 -0.112906106 0.09018959 -0.049741484 0.13520679 0.026389146 -0.042342834 -0.13383353
-0.09393205 0.1631553 -0.07824282 -0.027285382 0.033480715 -0.12284408 -0.08704932 0.16029848
-0.06730678 -0.12963702 0.13868754 0.07922541 0.18413796 -0.15573849 0.1315649 0.049441
-0.11325134 -0.07571283 -0.18004364 0.16729742 -0.0417072 -0.1733374 0.14703509 0.1144992
00000000: 2c6e 3f3d f2c1 063e ac77 443d 8e11 0bbe
00000010: d26d 063d 70d6 b3bc f20c 483e e6b1 e5bd
00000020: 8848 d03c 1e30 7ebd 300d e6bc 809e 66bb
00000030: f07f d0bd 760a 0ebe 5543 153e f312 183e
00000040: 9cf7 fa3c 0a82 2d3e cb08 673e 9d0a e4bd
00000050: f7dc 82bd 48aa f8bd eb72 6d3d cd94 a73b
00000060: 91ba bebc 0abe 403e 7b2d eabc c4e3 e0bd
00000070: d990 e3bd 672e b8bd 604a 743e 1005 b0bd
00000080: 2afa 3ebd 0e2d a33d 6007 0bbe 14be dbbd
00000090: 0bd3 1f3e 83bb 92bd 6972 e0bd 205c bbbc
000000a0: c859 cebc d9d8 a63d 23b6 843d 0393 0bbe
000000b0: c59d 0e3e 8cab 3dbe d02c b83d 93c5 37bd
000000c0: 44f4 9bbd 6ad2 453e 9b70 2ebe 3d9b ba3d
000000d0: 5aa4 d03d 02b1 213e ca42 17be b07a ae3c
000000e0: b313 233e 93d6 25be 3ddd 813d c9d7 e2bd
000000f0: 2c4a b23c 4dbf 23be a39c a73d f4a0 20bd
00000100: d346 a63d 6756 2cbd 696b cebc 38cb 2fbd
00000110: c198 25be 35f8 edbd 942c 7b3d 830b 0cbe
00000120: bb15 313e 4aea 87bd c43d cbbc 0b27 073d
00000130: 4ba3 bebd 6df8 68bb 5656 aebd 8b56 1ebe
00000140: 8a87 c83b a58a 623e b44d 323d 874d 153e
00000150: 591a 7f3d 36bb 7cbd e55c 4a3e c5ca c0bd
00000160: 3136 cfbd 3c79 1e3d 7b6d 973d 77e7 08be
00000170: 200a 8b3d fa71 80bd d46b 80bc fb57 babc
00000180: 63ec 12bd 513b e7bd 52b5 b83d babd 4bbd
00000190: a673 0a3e 0d2e d83c ae6f 2dbd a80b 09be
000001a0: 725f c0bd 2f12 273e c63d a0bd 9885 dfbc
000001b0: 1323 093d ad95 fbbd ea46 b2bd 4925 243e
000001c0: 23d8 89bd 91bf 04be 1b04 0e3e ef40 a23d
000001d0: a98e 3c3e e979 1fbe f3b8 063e a582 4a3d
000001e0: 52f0 e7bd 540f 9bbd 5c5d 38be 0450 2b3e
000001f0: 2bd5 2abd 5c7f 31be 5e90 163e 8e7e ea3d
