system/models/MNIST/CNN/FedPer_BaseHeadSplit_MNIST_client_0.pt (torch, 370064 bytes, 8 tensors)

weight f4 [32, 1, 5, 5]
00000000: 9ae4 d0bc 7a90 513c f4e6 81be 0f87 5abe
00000010: 0fae fabd e4d5 2f3d 0c40 bbbd 92e1 293d
00000020: fe72 babd f3c8 2abd 08cd 4ebc 9ddd d0bd
00000030: 9c2d 91be 7e70 64be 9f01 46be efea ff3d
00000040: ed91 193e 73c1 383e b722 d5bd 3f5c d9bd
00000050: e2a1 8a3e 814c c53e a7ea 673e 7510 ce3e
00000060: 76c4 203e 1bbf 313d 406c 553e 6333 21be
00000070: 0c7d c2bd 255e eabc 0e79 9dbd 3f3c 3a3e
00000080: de6a d0bd c0e0 81bd 8583 f5bd 495f 4fbe
00000090: 556f f3bd e192 443e 35ae db3d 925a d73d
000000a0: 75cc daba 255f ddbd dd98 1a3d ef4d 3bbe
000000b0: 9d47 0fbe 6a1d ebbd bac0 de3d 9813 d73d
000000c0: 5700 cebd 199f 76bb 9b38 693e 062b a43e
000000d0: 77bb 183e 41b3 533d 67be ec3d 2f4d f7bc
000000e0: ba31 f63d c512 f2bd 2b35 22be e7b8 07be
000000f0: 59df 0a3e 287e 0e3e eb5c b7bd cf56 223d
00000100: 0a61 f73d 75ed 0dbd 749c 2c3d bbab c53d
00000110: adb0 3f3e 6ddb 8e3e a3d4 29be 7266 3dbd
00000120: a86f 0e3e 1ee5 833e 5698 863e b393 1e3e
00000130: 2343 6e3d cace 14be fff6 873c d9a7 26be
00000140: ecfb 2dbe 30ae 823e a070 593e e46d 71be
00000150: eff4 09bd 4f9d 053c 7e49 b53d 962f fcbc
00000160: 7fba 903c b109 56be 0d08 e43d b45a 443e
00000170: cda4 283e a51b 333b b323 8bbe dec3 9ebd
00000180: 78e5 423e 25ed 933d 84e2 42be 9503 23be
00000190: e8e4 823e 4f10 2e3e 117a 82bd a5a0 19bd
000001a0: df53 40be 496b db3a 336a 2dbe 96d3 29be
000001b0: 674e a2bc f6e4 4f3d aa00 07be ab65 ae3d
000001c0: 979b fabd ad86 5b3e 1328 513e ed4d 3dbe
000001d0: fd6e 20bd 82d6 5a3d f05c 943d a9ba 973d
000001e0: 3c5f e43d a117 213d 1529 9cbd abee ac3d
000001f0: c6ba 68be 1ad6 26be a51c 32be 3544 4fbe
00000200: 7781 0cbe 318a 50be 0ad9 95bd 638c c1bd
00000210: 796d 77be be2e c1bc e902 383e 5718 023d
00000220: b419 5fbc b0a6 193b 0549 063e fb6b 493e
00000230: bc48 af3e 4b20 913e f970 a73e 9078 803d
00000240: e5df 2dbe 3eb2 963c 7df6 843e b728 d03d
00000250: ead6 dabc 2ae4 0fbe b971 1dbe cd92 0abe
00000260: f336 00bd caaf fd3d a072 013e bca7 55be
00000270: caea 473d 709e 4dbe ee95 6abd 3697 b3bd
00000280: e871 a3bd 8a4b d6bd 8747 4ebe 467f 32be
00000290: f081 6ebd 8e47 1abb 9182 bdbd d51d 2e3d
000002a0: 5fb7 42be 8f93 0fbd 5457 5a3e ff0f 39bd
000002b0: 0892 183e eba6 a93d cc87 0abe b057 e53d
000002c0: 6c68 81bc 6bc8 43bd 4304 733e de92 90bd
000002d0: a167 9bbb 6119 c8bc 2737 563e 63fa 403e
000002e0: 790e 803e 6a04 273d d2dd 78bd 33df 51bd
000002f0: 2473 09be 36e7 3c3e 5ed5 b53d 41ae a93d
00000300: d031 50be a1f7 42bd 97bd 2cbe 6147 61be
00000310: ce5f 48be 23cd b1bb 0793 36be 7ebc 81bd
00000320: 989b 7a3d 9670 243e a682 2ebe 0fd2 31be
00000330: ab6b 0cbe 9da1 2f3e 15dc 92bd 7e5f 103e
00000340: 93f2 413d 4f6d ec3b 8d5a 153c 1fa0 82bd
00000350: 30c7 1ab9 d3a8 31bd 9cf7 823a 9863 113d
00000360: 3dee 32be 1591 cabd 8e20 4b3e b96d 0fbe
00000370: f674 e63c cb20 7a3e 4edf 033e 71f9 2e3d
00000380: 0992 1ebe a5c1 063e ac3f ffbd b965 10bd
00000390: 31b1 28bd e63c fcbc 7084 253d 57f0 5b3e
000003a0: 9b4e ff3d 46e4 a03e 9586 5f3e eaaa f4bd
000003b0: 5266 cb3d ae75 d1bd 54a6 e1bc 3c02 073e
000003c0: 9536 043c 7a60 a53d adc4 e9bd 81dc 38bd
000003d0: 3147 d33d dea9 93be 6b1c 293d 1833 6bbe
000003e0: 9730 81bd 5b7d 95bd 3aa9 61bd bb51 ef3d
000003f0: 8e5b 703e bbc6 afbd 57f6 35be babb 6cbd
-0.02549963 0.012790794 -0.25371516 -0.21340583 -0.1224023 0.04292859 -0.09143075 0.041474886
-0.09103964 -0.041695546 -0.012622125 -0.101985194 -0.2835511 -0.22308537 -0.19336556 0.12495982
0.14997073 0.18042545 -0.10407012 -0.10613298 0.27076632 0.3853493 0.22648107 0.4024693
0.15699944 0.043395143 0.20842075 -0.15742259 -0.09496507 -0.028609345 -0.07689105 0.18187045
-0.10176633 -0.06341696 -0.11987976 -0.20251192 -0.11886469 0.19196655 0.10726587 0.10515322
-0.0016693013 -0.10809163 0.037743438 -0.18291448 -0.13992162 -0.1148022 0.108766034 0.10501784
-0.100586586 -0.003763145 0.227755 0.32064074 0.14915262 0.05168462 0.11559754 -0.030188171
0.12021203 -0.11819986 -0.15840594 -0.13254128 0.13561763 0.13915312 -0.089532696 0.03963357
0.120790556 -0.034650285 0.042141393 0.096518956 0.1871974 0.27901784 -0.1658502 -0.046240278
0.13909781 0.2576074 0.26288098 0.1548603 0.058169495 -0.14532009 0.01659727 -0.16274966
-0.16990632 0.2552352 0.2123437 -0.23577076 -0.033680853 0.008155181 0.08851908 -0.03078441
0.017667053 -0.20902134 0.11134348 0.19175225 0.16469117 0.002732971 -0.27175674 -0.077522025
0.19032848 0.07222966 -0.19031721 -0.15919335 0.25565267 0.16998409 -0.063709386 -0.03750672
-0.18781994 0.0016740347 -0.16935043 -0.1658462 -0.019812776 0.050755464 -0.13183847 0.085154854
-0.12236708 0.21438093 0.20425443 -0.18486758 -0.039168347 0.053427227 0.07244289 0.074086495
0.11150977 0.039329175 -0.07625023 0.0844396 -0.22727498 -0.16292611 -0.1739374 -0.20240863
-0.13721262 -0.20365216 -0.073167875 -0.09450605 -0.24162854 -0.023581859 0.1796986 0.031761494
-0.013616968 0.00234453 0.13113792 0.19670098 0.3423518 0.2834495 0.3270338 0.062729955
-0.1697994 0.01839554 0.25969306 0.10164016 -0.026713807 -0.14051881 -0.15375413 -0.13532563
-0.031302404 0.12387045 0.12641382 -0.20864767 0.048807897 -0.2007997 -0.05727189 -0.087690756
-0.0798071 -0.10463627 -0.20144473 -0.17431363 -0.058229387 -0.0023541185 -0.09253419 0.04250892
-0.19015263 -0.035052832 0.21322376 -0.04518127 0.14899457 0.0828379 -0.13528365 0.11198366
-0.015796863 -0.047798555 0.23732094 -0.07059263 -0.004742578 -0.024426164 0.20919476 0.18845515
0.25011042 0.040775694 -0.06075842 -0.05123825 -0.13422829 0.18447575 0.08878587 0.082851894
-0.20331502 -0.04759944 -0.16869198 -0.21999885 -0.19567797 -0.0054260655 -0.17829524 -0.0633478
0.061183542 0.16058573 -0.17042026 -0.17365287 -0.13712947 0.17151494 -0.071708836 0.14098927
0.047350477 0.007215179 0.009115827 -0.06378197 -0.00014760788 -0.043373894 0.0009992006 0.03549537
-0.17473693 -0.098909535 0.19836637 -0.140067 0.028131943 0.24426572 0.12878153 0.042718355
-0.15485395 0.13159807 -0.12463316 -0.03525326 -0.041184608 -0.030790757 0.040409505 0.21478401
0.12466165 0.3142416 0.21828683 -0.11946662 0.099316254 -0.10227524 -0.027545132 0.13184446
0.008069654 0.08075042 -0.11414466 -0.045132164 0.10316313 -0.28840536 0.041286867 -0.2296871
-0.06308096 -0.072993 -0.055093028 0.11685511 0.23472425 -0.08582827 -0.17769752 -0.057796218

bias f4 [32]
00000000: a624 d13d b039 11be 96dc 683e 597a 15be
00000010: e3c6 f8bc c44e 313e 7d03 003d df92 bebd
00000020: ef1a 1b3d 4bf3 0a3d f0a1 e5bd f9d6 95bd
00000030: 4f97 833d 7667 7fbd 0c44 2f3b 0743 463e
00000040: 01c2 2abb 3842 bebc 35dd 0d3d 1553 e53d
00000050: 4eb5 483e 451e b1bd e282 003e faf3 9bba
00000060: 87a7 d0bb 7c47 87bd 1d37 723d 5056 f0bc
00000070: 458d 283c 290e dabb 9771 043e 5b90 16be
0.10212068 -0.14182162 0.22740397 -0.14597453 -0.030368274 0.17315203 0.031253327 -0.09305357
0.037867483 0.03392343 -0.11212528 -0.073163934 0.06425344 -0.062354527 0.002674344 0.19361506
-0.0026055577 -0.023224935 0.034634788 0.11197487 0.19600412 -0.086483516 0.12549928 -0.0011898272
-0.006367627 -0.066054314 0.05913459 -0.029338032 0.0102875875 -0.00665452 0.12933956 -0.14703505

weight f4 [64, 32, 5, 5]
00000000: 7582 a83b b9bd febb c571 e1bc 0abf 633c
00000010: 7cf4 6c3a 4a9c a3bc c8fb 59bc 06c2 a63b
00000020: 9bf4 4cbc 3970 4c3c 5f71 babb 028b be3b
00000030: 915c d3b9 685c c8bc 6dd7 b33b 6bf5 b33c
00000040: 2518 513b 0268 0b3c a864 173b e6dc 003d
00000050: 98e3 23bc a865 8cbb a844 003d 0735 8ebc
00000060: 697d 493c 563a 70bc 3bfc e53c 8b2e edbc
00000070: 225b d33c ffd0 0c3d 9471 013c d63a 703b
00000080: 7b01 1e3d dc90 5fbc ca80 bebb 463b 6fbc
00000090: a277 1fbb 2e2f 363c 1869 473b 89b8 19bc
000000a0: 3a4b 04bd e8ca 933b 8bc7 5b3b 689a 223c
000000b0: c675 f73c b6b3 223d 4996 37bc 1005 923b
000000c0: 5612 0abc 50ca f8bc efd3 74bc ddf4 103d
000000d0: 5fc8 9f3c 1cfc b63c ca6f c93c 8222 79bc
000000e0: 569c f53b 9f77 d63c d9ae 9dbc c232 113d
000000f0: c3a8 b63c 6cf7 ca3c 35cf c0bc 5c57 7a3c
00000100: 1c10 adbc 2972 1aba 29c6 053c b40b 083c
00000110: 5a96 143d 2322 473d c4e9 0f3d c64a d43c
00000120: 40e7 d53c d862 06bb 09fc bcbc 997e a9bc
00000130: 1f74 1c3a bfdc 81bc 1b83 513c bae7 f5ba
00000140: 59de 16bb 1126 863c fd0a 0a3d e385 0b3c
00000150: 7401 29bd cbab f0bc 8076 b63c 97bf 013c
00000160: 34cb 2c3c c7b7 34bd c8fc 0cbd e84f d03c
00000170: 721c 933c a179 2fbd 875e 643b b1f8 fdbc
00000180: d8e2 e53c 19f4 e43b 0ba2 e13c 3acb 2ebd
00000190: b6d6 0cbd da34 b63c 83b5 033d 6a5b c53c
000001a0: 1563 d13c c691 eebc 077f cc3c c1ad 09bd
000001b0: 146e 2d3c fa80 c2bc f353 01bc 5fc2 233c
000001c0: d4f0 5dbc 1ea0 10bc 0521 1bbd 9a96 0cbd
000001d0: 85b5 443c cf31 76bc 9a74 b2bc 2a9c 4abc
000001e0: 67b5 f5bc f269 bfbc c79a d13c f35b 9a3c
000001f0: 1e9f 893b b78d 70bc a787 953c c3e8 1c3a
00000200: 8d6a febc 2e02 f33b 9b76 1a3d ce2d eebc
00000210: 8a8b fbbc 066d d93b 16c0 073d 6eba d6bb
00000220: 0fef 8b3c 48c1 a03c a664 803b 14ce dbba
00000230: 0e97 223d ed0e 963c 209e 10bd 06f9 17bc
00000240: a06a 7d3c 4d4a e43c b70d fdbc 2b1e e33c
00000250: 6368 6c3a 4726 c8bc 041a aa3c d800 abba
00000260: 1f7e d13c c9e1 c8bb b9ca 5abc 73ff 8d3b
00000270: e09e 4abb e91a 0f3d 88d6 803c 30b1 0e3d
00000280: 05ee 3f3c 66c4 13bc dcd7 f43c 565e 433c
00000290: 654a 683c 8b8d 0fbc e24f 3f3c 28b9 873c
000002a0: 347b 863c 2b26 37bc a14d 393c 64d4 2ebc
000002b0: 6cec b03c 218e 433d 70cc f3bb c460 97bc
000002c0: 7386 f0bb 7635 34bc bf67 413b 4e9e 3f3b
000002d0: 929e 823c ca42 ffbc 3fa5 f4bb 87ef 643c
000002e0: 949e df3c 7d0d 29bc 53fb dbbc e37c 403c
000002f0: 96ca c63c b96f 8ebc 3a97 a4bc 55e1 9a3c
00000300: af28 923a 1186 00bd 201f bbbc 59f0 893c
00000310: 0a1b 55bc 0b28 c83c e695 e83c 9181 df3b
00000320: 3789 a4bb 00ff 14bc 1011 1dbb c709 2f3b
00000330: f82e ffbc 0b03 33bc a740 cdbc d24d ae3c
00000340: 84e7 d0bc 60a1 e43c a6c9 45bc 05f7 98bc
00000350: 064f 653c 5380 313a e70d a13c 9f7c 2c3c
00000360: d6b6 07bd 795d b53c 8282 0fbc 77d5 91bc
00000370: ba7f c53c b65a 083d 04f1 f0bc a9b9 56bb
00000380: 9493 db3c ebf8 953c 4747 f03c 3be4 75bc
00000390: 7088 c0bc 579e e93c 7d1a 683c 8151 f23c
000003a0: 9874 8fbc 8e8b bcbc b4ab a0b9 7777 19bd
000003b0: e74a 493c eaf7 ee3c 69fe 4d3c 88d4 073b
000003c0: 1045 913c c0d8 b5bc 1509 143d 6acf 0dbd
000003d0: 763a 0cbd 5300 fbbb 0833 d73c ff2d 2d3b
000003e0: 2969 6f3c 78fc b2bc 883f 923c 3688 46bb
000003f0: 042e 5c3c dc04 b33c 4e4b 373c 98ef 3dbb
0.005142505 -0.0077740815 -0.02752007 0.013900528 0.00090391166 -0.019971985 -0.013304658 0.0050890474
-0.01250949 0.012477928 -0.0056897844 0.005814911 -0.00040314023 -0.024458125 0.0054883272 0.02196761
0.003190526 0.008508684 0.0023100767 0.031460665 -0.010002993 -0.0042845793 0.031315476 -0.01735927
0.0122979665 -0.014662346 0.028074374 -0.028952857 0.025800291 0.034379 0.007900614 0.0036656163
0.03857563 -0.013645377 -0.0058136927 -0.014601534 -0.0024332781 0.011119647 0.003042763 -0.0093823755
-0.032298304 0.0045102723 0.0033535685 0.009924509 0.030207526 0.039722167 -0.011205264 0.00445617
-0.008427223 -0.030369908 -0.014943107 0.03538977 0.019504724 0.022337012 0.024589438 -0.015205981
0.0074954433 0.026180087 -0.019248413 0.035448797 0.022297269 0.024776183 -0.023536304 0.015279617
-0.021125846 -0.0005891645 0.008164921 0.0083035715 0.0362762 0.04861654 0.035135046 0.025914561
0.026111245 -0.0020505693 -0.023069398 -0.02069025 0.0005968231 -0.01585233 0.012787606 -0.0018761076
-0.0023020713 0.016375573 0.033701885 0.008515808 -0.04126115 -0.029378792 0.022273302 0.007919214
0.010546494 -0.044120576 -0.03442076 0.025428727 0.0179579 -0.042840604 0.0034846382 -0.031002374
0.02806227 0.0069871065 0.027543088 -0.04267428 -0.03438445 0.022241998 0.032155525 0.024091441
0.025559941 -0.029122245 0.024962915 -0.03361297 0.010585327 -0.023743141 -0.00789355 0.009995072
-0.013546187 -0.008827237 -0.037873287 -0.034323312 0.012006168 -0.015026524 -0.021784116 -0.012366334
-0.029993726 -0.023365948 0.025586499 0.018842673 0.0041998765 -0.014682225 0.01825316 0.0005985612
-0.031056667 0.0074160313 0.037710767 -0.029074576 -0.030706186 0.006635311 0.03314217 -0.006552986
0.017081765 0.019623414 0.003918248 -0.001676979 0.03969484 0.018317664 -0.03530705 -0.00927568
0.015467316 0.02786746 -0.030890329 0.027724346 0.00090182404 -0.024432315 0.020764358 -0.0013046516
0.025572835 -0.0061304313 -0.013353997 0.0043334304 -0.003091745 0.034937773 0.015727296 0.034836948
0.011714463 -0.009018993 0.029888086 0.011924347 0.014177893 -0.008761774 0.01167676 0.016567782
0.01641617 -0.011178534 0.011310012 -0.010670755 0.02159711 0.047742967 -0.0074401423 -0.018478759
-0.0073402463 -0.010999074 0.00295113 0.0029238644 0.015944753 -0.031159777 -0.007465988 0.013973123
0.027297296 -0.010318157 -0.02685324 0.011748525 0.024266522 -0.017387258 -0.020091642 0.018906275
0.0011151041 -0.031377856 -0.02284199 0.01683824 -0.013006935 0.024433156 0.02839179 0.0068208654
-0.00502124 -0.009094 -0.002396647 0.0026708709 -0.031150326 -0.0109260185 -0.025055243 0.021277342
-0.02550102 0.02790898 -0.0120720025 -0.018672476 0.013995891 0.0006771136 0.01965995 0.010527759
-0.03313335 0.022139298 -0.008759143 -0.017801983 0.024108756 0.033289634 -0.0294118 -0.003276447
0.02680377 0.01830717 0.029330863 -0.015008028 -0.023502558 0.028517885 0.014166472 0.02957988
-0.01751165 -0.023015764 -0.00030645507 -0.037467446 0.0122859245 0.029170949 0.012572863 0.0020726044
0.017733127 -0.022198081 0.036141474 -0.034621634 -0.03423544 -0.0076599508 0.02626945 0.002642512
0.0146124745 -0.021848902 0.01785256 -0.003029359 0.013438705 0.021852903 0.011187388 -0.002898192

bias f4 [64]
00000000: 3975 16bc ae7f 9d3a 07a5 083c 9266 a83c
00000010: e441 66bc ca57 063c d6a4 e1bc ba87 c0bb
00000020: f1b7 9b3c 8c6b ad3c 81f0 a1bc 37a6 1abc
00000030: 8148 c2bc bbdf 923c 1aab 43bc b22b 063d
00000040: 2ad9 9a3c 0b12 05bc 1032 52bb 53c6 073d
00000050: bda1 2e3b 8d4d b7bc 98b1 f03c bdf9 06bd
00000060: b22a d5bc 9046 c7bc b1fa edbb 29f1 d53c
00000070: dfe1 663c f259 e93c 9d9c 9abc 70e3 97bc
00000080: 0b01 84b9 7247 0b3d db77 eabc fcbb d43c
00000090: d282 4e3c 740c 723c ab21 f6bb 2e3e 073d
000000a0: 2b48 043d ec8c ef3c 2aaa debb ffbe d2bb
000000b0: af50 88bb 4ab2 0c3d 7be9 8a3c 8651 36bc
000000c0: 7226 18bd 228e b63c d2d0 013d 1a37 2abb
000000d0: 73ba 823a d0f1 21bc bfc9 27bc f154 fabc
000000e0: 1b6a b0bc 2722 f3bb daf3 8cbb 5e44 09bd
000000f0: b755 2c3c b712 a43c 4362 e6bc 3ab2 37bc
-0.0091832215 0.0012016201 0.008340127 0.020556722 -0.0140537955 0.0081996415 -0.02754442 -0.005875555
0.019008609 0.021169446 -0.019768002 -0.009439043 -0.023716213 0.017928949 -0.011942649 0.032756515
0.01890238 -0.008121978 -0.0032073297 0.03314812 0.0026646696 -0.022375846 0.029381558 -0.032953013
-0.026021335 -0.024325639 -0.0072625508 0.02611597 0.014091938 0.028485272 -0.018873507 -0.018541068
-0.0002517778 0.034003682 -0.028621605 0.025968544 0.012604432 0.014773477 -0.0075113378 0.033018284
0.032295387 0.029242001 -0.0067951875 -0.00643146 -0.004160009 0.034349717 0.016957035 -0.011127835
-0.03714604 0.022284571 0.031693287 -0.0025972784 0.0009973779 -0.009884313 -0.010240971 -0.030558081
-0.02153497 -0.0074198428 -0.0043015303 -0.033512466 0.010518483 0.020028455 -0.028123027 -0.011211926

weight f4 [512, 64]
00000000: d09b a63d 3815 dcbd 9dd0 5ebd be28 70bd
00000010: aba9 e23d abb4 bb3d 45f9 bc3d 40b4 ee3d
00000020: 76df ccbc 7d94 cdbc f67a 163d 029e ddbc
00000030: 054e dd3d 5976 183d 545d 59bd b136 bb3d
00000040: 22ea eb3d 07c8 c33d 9d17 313d cd32 0f3d
00000050: 1531 f2bd 818a 7b3d d61e e13c 7712 a83d
00000060: aafc 513c e480 273d a968 733d 222b 7a3d
00000070: 48ca f63c b602 d8bd ba24 d7bd 282a e23d
00000080: 20c6 a4bd 4697 6d3d 0a8b 913d b332 ccbd
00000090: 0061 0fbc 1f3f 8a3d 082e acbd 5789 cbbb
000000a0: a1b2 893d 863b 3cbb ff4c 263d 7bbb 6bbc
000000b0: 6b88 80bd aeed a93d d9c8 ee3d 4476 e83d
000000c0: fc64 e0bd 8a2a d03d bde5 2fbd 0b11 813c
000000d0: 9f74 af3d 2049 2bbc b2a1 dcbc eb07 e4bd
000000e0: cbdc b63c 85ac ce3c b2bb 6a3d 0ed4 d0bd
000000f0: d1cd 9abd c575 ef3d a3ad 913c 5ea8 7ebc
00000100: 82f6 fd3d 603d 3e3c 4b84 073e 7f7f 413d
00000110: a1dc 99bb 967e a53d c0ea 43bb d8ba 88bc
00000120: ebbd f33d e2e0 f1ba 7250 1dbd 4923 cfbd
00000130: c9a9 a2bc 4d93 f2bd fe25 aebd 01bf 803d
00000140: 2f1d d4bd 9f17 5b3d 0413 623d 9bdc 883d
00000150: 7220 a93d ac0f 3b3d 51e2 ba3d 1cb2 f9bd
00000160: 9b86 8e3d cbde 053e c033 013e 83c7 bdbd
00000170: 7faa d3bd e847 a13d dc50 ebbd e416 adbd
00000180: b100 fe3c e005 5a3d ddc0 053e e1bb 9abd
00000190: 92d8 ac3d 1dd4 7d3c bab0 323d 77e9 1d3d
000001a0: cbfa b93d 7c1e 0fbc 19da 453d 5681 47bd
000001b0: a1aa 9a3d a3c6 d93d 98d3 923d 25b4 d8bd
000001c0: 0758 b23d 2b33 2d3d 1198 1e3d d17e 953d
000001d0: b8e3 afbc b265 073e aef9 8ebd cc11 b43d
000001e0: bb23 213d 8383 6c3b a6b3 b5bd a9a6 8ebc
000001f0: 4998 f7bd edbc fdbd 6d68 9fbd 0cbc 823d
00000200: 0b45 393d f25f 3ebd c7d3 bdbc 541a 60bd
00000210: 64bd 993b 2cf9 3e3d c162 fa3d 07e1 c13d
00000220: 4f2d 923c ffc3 973d 45b3 77bd 1727 22bb
00000230: d70c 243c 6e0a bcbd a061 42bc d499 c03c
00000240: 4745 05bd 2f01 ef3d 4246 fbbd 7242 683d
00000250: 5a35 ad3d 7e8a d7bd 85a2 d4bd a629 4bbd
00000260: eb4e 253d 2229 c53c db20 d8bc 0bef 89bd
00000270: 9d6a 93bd d82c f9bd 9ef7 89bd da77 d73d
00000280: 292b d8bc 30f4 48bc eefc f9bd d9b2 9a3d
00000290: b68e 60bd bde2 2bbd 1826 7ebd f76f 773c
000002a0: c7c7 99bc bd48 8a3d 2119 f6bc fb4d a0bd
000002b0: d779 84bd 842d 08bc 5a38 fc3d be40 8a3d
000002c0: 38fd 783c fb25 bfbd 654b ff3d b69c 903d
000002d0: 30d5 613d 9934 043c 382f 4cbd f893 22bd
000002e0: bc92 6b3c 312c ac3d da0a 0b3c 335b 5f3d
000002f0: 04a8 3d3c 10a7 acbc a45c 9ebc 8970 99bd
00000300: ee58 5f3d 6a1d 00bd 3d53 a7bc 5763 ecbd
00000310: 582c 0a3d cebd 9abd 56a8 913c 99f5 8ebc
00000320: 1606 003e 7804 e6bd 082c 953d 3932 333d
00000330: b6f8 f53d 2abf e2bd ca2b c73d 0aa5 8b3d
00000340: 7b7c c73d c931 db3d a733 d33d 2ff2 0c3d
00000350: 4e85 38bd 96c7 e3bc d777 62bc e4ef 80bc
00000360: 2f02 bebd 0226 133d a19a d2bd 4558 c9bd
00000370: 891e e5bc 7d6e dabd 1e2d af3d e951 3ebd
00000380: c749 a0bb a7e4 a6bd 13db 7f3c 5d5e 1b3c
00000390: ee56 c3bc e193 d2bd d7be 79bd 5b7b d33d
000003a0: b2d7 1ebd c32b e4bd 34e0 5bbd 9630 c63d
000003b0: f0ce d73c 883f 12bc ecfb a3bd 89bf f3bd
000003c0: e5e4 a43d 7ffb 993d 91c4 c1bd be00 8d3d
000003d0: 2832 e23d 4fae d3bc 7e11 923d aa35 dd3d
000003e0: aa7b e7bc c503 543d ef66 5f3d 30f5 b7bd
000003f0: 34e3 3c3d ae4e ecbd b50a 883c 1dbe 8e3d
0.081351876 -0.10746235 -0.054398168 -0.058632605 0.11067518 0.09165319 0.09227232 0.11655474
-0.025008898 -0.025095219 0.03673836 -0.027052883 0.10805897 0.03722224 -0.05306752 0.09141291
0.11519267 0.095596366 0.04323541 0.034960557 -0.11825768 0.061411384 0.027480524 0.08206647
0.012816587 0.040894404 0.059425984 0.06107629 0.030125752 -0.10547392 -0.10505052 0.11043197
-0.08045602 0.058005594 0.07106598 -0.099706076 -0.008751154 0.06750321 -0.08407217 -0.0062114405
0.06723524 -0.0028722002 0.040600773 -0.014387961 -0.0627602 0.08297287 0.116594024 0.113506824
-0.10956761 0.10164364 -0.042943705 0.015755197 0.085671656 -0.010454446 -0.026932571 -0.11134323
0.02232208 0.025228748 0.057307906 -0.10196696 -0.075587876 0.11692385 0.017782992 -0.015543072
0.12400533 0.011611313 0.1323406 0.04724073 -0.0046954905 0.08080785 -0.002989456 -0.016690657
0.11901458 -0.0018453861 -0.038406797 -0.10114152 -0.01985635 -0.11844502 -0.0850334 0.06286431
-0.10357129 0.053489324 0.055193916 0.06682702 0.082581416 0.045669243 0.09125198 -0.12192175
0.06959268 0.1307327 0.12617397 -0.092665695 -0.10335254 0.07875043 -0.11490032 -0.08451632
0.031006189 0.05322826 0.13061853 -0.07555366 0.08439745 0.015492466 0.04362557 0.038552728
0.09081038 -0.008735295 0.048303697 -0.04870733 0.07552076 0.1063359 0.071692646 -0.10581235
0.08708196 0.042285126 0.03871924 0.07299579 -0.02147089 0.13222387 -0.06981216 0.08792457
0.039340716 0.003608913 -0.08872156 -0.017413454 -0.12089593 -0.1238955 -0.077835895 0.06383523
0.04523186 -0.04647822 -0.023172272 -0.05471261 0.0046917666 0.046624348 0.12225867 0.09466749
0.01784387 0.0741043 -0.0604737 -0.0024742538 0.010012827 -0.09181677 -0.011864096 0.023510851
-0.03253677 0.11670148 -0.1226926 0.056703992 0.08457442 -0.10524462 -0.10382561 -0.049600266
0.040358465 0.024067465 -0.026382854 -0.06735047 -0.07198069 -0.121667564 -0.06736682 0.10520907
-0.026387768 -0.01226525 -0.12206446 0.07553644 -0.0548236 -0.04196428 -0.062048048 0.015102378
-0.01877202 0.06752155 -0.03004128 -0.078273736 -0.064685516 -0.008311633 0.12315436 0.0675063
0.015197091 -0.09333416 0.12465552 0.0706114 0.055134952 0.008069181 -0.04984972 -0.039691895
0.014378246 0.08406866 0.008486474 0.054530334 0.011575703 -0.021075755 -0.019331284 -0.074921675
0.05452817 -0.03127805 -0.020425433 -0.11542385 0.033733696 -0.075557336 0.017780464 -0.017451094
0.12502322 -0.11231321 0.07283789 0.043749068 0.120103285 -0.11071618 0.09725149 0.06818588
0.0974054 0.10702855 0.10312586 0.03441065 -0.045049004 -0.02780513 -0.013822517 -0.015739389
-0.0927776 0.03592492 -0.102833994 -0.09831289 -0.027968662 -0.10665605 0.08553527 -0.046464834
-0.0048916074 -0.08149081 0.015616196 0.009482947 -0.023845162 -0.10282112 -0.060973015 0.103262626
-0.03877992 -0.111411594 -0.053680614 0.09677236 0.026343793 -0.00892628 -0.08007035 -0.11901767
0.08051471 0.07518672 -0.0946132 0.06884907 0.11044723 -0.025839953 0.071322426 0.10801251
-0.02825721 0.051761407 0.054541524 -0.08982313 0.046115115 -0.115384445 0.016606668 0.06969855

bias f4 [512]
00000000: 337c d03d e7f0 e0bd e840 babd fffb a3bd
00000010: 33b0 393d 6108 b2bd 79b2 c8bd 8154 493d
00000020: 3ae3 bebd bc07 afbd c154 ec3d 7011 923d
00000030: 31e9 b4bd 3872 043d 0c78 ba3c 58f0 913d
00000040: fcab 8b3d 3518 fd3d 42d7 073d b0dd ae3c
00000050: ae82 5fbc 98cf de3c 857c fcbc 2e7c e03d
00000060: 3d2c f53d e02d 7cbc 70cd f93c 1561 c3bd
00000070: 7e3f c8bd cd1e b2bd f476 b4bc e416 963d
00000080: d44d 02bc e67f bebd 6529 0d3d aad7 9c3d
00000090: 1f1a d6bd e37f eebd ac9e 6bbd 47ac fd3c
000000a0: 5cae 363d fab3 8cbd 2573 bf3c 09db 58bc
000000b0: ec84 acbb 1758 fa3d 0267 4c3d 9596 9dbb
000000c0: 8e45 a13c 53a2 68bd 5e81 ba3d 8828 e5bb
000000d0: 5fc2 6f3d 6ec5 25bd 7c7d 1f3d a936 583d
000000e0: 7a52 813d 823c 87bc 4d5e 75bd f22b 1b3d
000000f0: 4445 c93d 6217 12bd 9bfd 70bc 13fb 773c
00000100: c114 9e3d 4bfa 153d 3043 04bd 5cfd 1a3d
00000110: fe95 2cbd a5d2 17bd 406d dd3d 7c80 cebd
00000120: 6c65 e6bd 34a7 77bb 44de e4bd d87e 1dbc
00000130: c666 943d b30e 84bc b163 9d3c 25cb d63d
00000140: 34a1 a2bd 89dd b43d 3b31 b33d 1c34 1b3d
00000150: fe22 aa3d 6b69 a5bd 6727 9f3c 8002 84bc
00000160: 54c4 69bd 3ecf fd3c dd87 fabd 0ab9 da3d
00000170: d240 f4bd 1b7e 033e 0308 1a3d 80a1 bf3d
00000180: fd63 8bbd 81cb 66bd 0cdf be3c 8000 a3bd
00000190: 8960 acbd 78aa fabd d175 9a3d ddef 87ba
000001a0: 3b10 b83d 2416 da3d c920 353d c0b3 393d
000001b0: 0dfc 6cbd 811d 2b3d ab0f 6ebc 868f f8bd
000001c0: 7656 ce3c 830f f9bd f7a3 fabd b349 b4bd
000001d0: 1381 4ebd 3a15 e2bd 90c6 0c3d e12a ddbd
000001e0: c480 ad3c da14 afbd c657 823d c6df 9a3d
000001f0: ba28 1c3c dc59 f6bd a601 8d3d 2b71 6f3d
00000200: 4a74 efbd d19b 353d 3423 dcbd a2fb c5bd
00000210: bc06 acbc dde1 99bd e171 44bd 1cb2 b03d
00000220: 5659 1abd 732b fd3c 1c21 ccbd 224b 193c
00000230: ce57 493d 87d4 e4bd 7ea9 57bd c1ad a4bc
00000240: b58b e5bd 41ef 4ebd 5c2f d53d f1a9 f33d
00000250: ece3 003e 1307 043e 80df f03d 0de8 aebd
00000260: b6c1 5b3d fa13 debd 7c13 953d 3d28 f0bc
00000270: ce13 db3d 8058 a13a 1c34 dcbc f5e8 a43d
00000280: f23c e63d b2db 393d 858b ad3c 8883 8d3d
00000290: e70d 9abd 387f 5fbb e603 1ebb 8355 b2bd
000002a0: a703 163d f087 a23c 2b93 debc d04c 203c
000002b0: 8aff e0bd abef c33d b85e ecbc bdfd b03d
000002c0: 17b4 d0bd d90d d23c 933d 75bd c880 efbd
000002d0: 0ba9 ea3d 8438 0d3d d13e 10bd bd4f 893d
000002e0: 9e02 d0bd f814 ed3d 26cd a7bd 0e8c 8abc
000002f0: dde0 293d b1a1 fcbd 2489 9e3d b466 203c
00000300: cf6d 2dbd b5bd 6f3d bebc 80bd 65be edbc
00000310: 0913 89bd d380 96bc 04f3 5abd 8f64 4cbd
00000320: 81af 583d bed1 433d 3a7e c1bd 2965 423a
00000330: e860 b23d c210 56bd 28b0 483d ee1d b4bd
00000340: fcd4 df3d 63a4 fd3c f155 69bd 2657 bd3d
00000350: 9993 a33a f9bb 293d ca92 88bd 5c27 9f3b
00000360: b391 92bd 7fcb b73d 1601 c03d f9e8 78bd
00000370: 4b6d 38bb c189 093d d980 343d e638 8cbd
00000380: 9e73 a03c 205b 833d 77ba f0bd d5b2 90bc
00000390: 1739 303d 001b b43d 20b9 e4bc 646d 9dbd
000003a0: f086 d13c 1857 a43c cafb fc3d 1da7 b53d
000003b0: 224e 43bc 289e 81bc e44b d93c 1ecd f0bd
000003c0: f537 c03d 507c 793d 570c 6e3d a755 b0bd
000003d0: e7a3 cf3b 3da0 b23d ab23 913d 2a91 57bd
000003e0: ae4c dbbc 2e99 9abd a028 3c3c 2501 f4bd
000003f0: d3d2 ba3d f0fc 0cbd 5ce3 943d 0cf7 17bd
0.10179939 -0.109834485 -0.09094411 -0.08007049 0.045334052 -0.086930044 -0.09799666 0.049152855
-0.09320684 -0.08546397 0.11539603 0.07132232 -0.0883354 0.03233549 0.022762321 0.0712592
0.06819913 0.12358133 0.03316427 0.021345943 -0.013641996 0.027198598 -0.030821094 0.109611854
0.119713284 -0.015391797 0.030493468 -0.09540001 -0.09777735 -0.08697281 -0.022029378 0.07328585
-0.007953126 -0.093017384 0.034463305 0.07658322 -0.10454201 -0.11645486 -0.05752437 0.030965937
0.044599876 -0.06870265 0.023370335 -0.013235816 -0.005264869 0.12223833 0.049902923 -0.0048092105
0.019686487 -0.05679543 0.09106706 -0.006993357 0.058534976 -0.040471487 0.03893803 0.052786503
0.06314559 -0.016508345 -0.059904385 0.037883706 0.098276645 -0.03566683 -0.014708902 0.015135544
0.07718802 0.03661565 -0.032290637 0.03783928 -0.04213523 -0.03706612 0.108118534 -0.100831
-0.112498134 -0.003778887 -0.11175206 -0.009612761 0.07246165 -0.01612029 0.019212576 0.104879655
-0.07940903 0.08831317 0.08749624 0.037891492 0.083074555 -0.080767475 0.019427968 -0.016114473
-0.057072 0.03098261 -0.12232945 0.10679825 -0.11926426 0.12841074 0.037605297 0.093569756
-0.068061806 -0.05634642 0.023299716 -0.0795908 -0.0841685 -0.122395456 0.07542003 -0.0010371167
0.08987471 0.10648754 0.04422072 0.04533744 -0.05785756 0.041776184 -0.014530103 -0.1213675
0.025187712 -0.12161162 -0.12238305 -0.088031195 -0.050416064 -0.11039205 0.03436905 -0.10799194
0.021179564 -0.08548899 0.06364398 0.07562213 0.009531194 -0.12028858 0.0688508 0.058457535
-0.11692102 0.04433805 -0.10748902 -0.09667136 -0.020999305 -0.07513783 -0.047960166 0.08627722
-0.037682854 0.030904507 -0.099672526 0.009356292 0.049156003 -0.11173349 -0.052651875 -0.020102384
-0.112082876 -0.05052114 0.10409424 0.11897648 0.12586945 0.12893324 0.11761379 -0.08540354
0.053651534 -0.10843654 0.07279107 -0.029316062 0.10697137 0.00123097 -0.026880316 0.080522455
0.11242093 0.045375533 0.021184692 0.06909853 -0.07522183 -0.0034102928 -0.002411121 -0.08707716
0.036624577 0.01984021 -0.027169785 0.0097839385 -0.1098624 0.095671974 -0.02885376 0.08642147
-0.101905994 0.025641369 -0.059873175 -0.11694485 0.11458024 0.034477726 -0.035216156 0.06704662
-0.10156749 0.11576265 -0.08193426 -0.016912486 0.041474212 -0.12335528 0.07741001 0.009790111
-0.04234105 0.058530528 -0.06286 -0.029021451 -0.06693084 -0.018371975 -0.053454414 -0.049900588
0.05290175 0.047807448 -0.09447904 0.0007415587 0.0870989 -0.052262075 0.04899612 -0.08794771
0.109292954 0.030962175 -0.056966726 0.09245138 0.0012479901 0.04143903 -0.06668623 0.004856987
-0.07156696 0.08974361 0.09375207 -0.060769055 -0.0028141316 0.033578638 0.04406819 -0.0684679
0.01958638 0.06413865 -0.11754315 -0.017663399 0.043023195 0.08794212 -0.027920306 -0.0768688
0.025577039 0.02006106 0.123527125 0.08869765 -0.011920484 -0.015822485 0.026525445 -0.11757873
0.09385673 0.06090957 0.058117237 -0.08610087 0.0063366774 0.08721969 0.07086881 -0.052628674
-0.026769962 -0.07548748 0.011484295 -0.11914281 0.09122243 -0.034420907 0.07269928 -0.037100837

weight f4 [10, 512]
00000000: 5c4a 103d c2e1 d2bd b0ff ec3c e4dd d13c
00000010: 7be7 a23b 8fea d93d b337 0b3d 96a0 3b3c
00000020: 9587 b83c 94ab c6bc a0be 3e3b 5a98 6d3d
00000030: ebbf 973d 1748 eebc df74 c1bc f33e 10bc
00000040: 75a1 b53d e21d a9bc 15b5 823d acf7 7e3c
00000050: 8ad5 13bc 656e c53d 5592 babd a03e cebc
00000060: 1d13 7fbd 16dd 67bc 128e 65bc 35a4 af3c
00000070: 3fcf da3c cc0a 64bc 2bba 0fbd a72a 473d
00000080: 8005 283b 974f c9bd 5fff b43d 737d babd
00000090: 544c d2bc a013 97bc f14d 39bd d872 87bb
000000a0: a31a ebba 2179 013d 9367 94bc 4fa4 8a3d
000000b0: 8b28 d33d f139 c2bc d440 543d 0892 b4ba
000000c0: 7a2c db3c 7568 37bd ae32 27bd d9e7 373d
000000d0: 48a0 4e3d 8f24 493d 1dd6 133d da0e 243d
000000e0: 7da3 c13b 1284 dabc 0295 503c b820 4a3d
000000f0: 8c77 173b 4d78 8b3d 3163 853b 07f5 0eba
00000100: 6810 97bd 923b 34bd 1524 b3bc 1690 6f3d
00000110: 19e6 2c3d cadb 1bbd 8549 ba3c 15fe 1d3c
00000120: 205a 22bb d363 bab9 9fab f3bc 2236 17bd
00000130: 4078 2fba 7fa4 20bd cce3 2b3b b25d 133d
00000140: 749a 073d 71ea 1abd 4981 133d 68d8 983b
00000150: f81d 58bd 00a9 c0bd 1f08 bdbc 8e50 0a3d
00000160: 7cf0 f73c 0e2c adbc bba4 cbbc 6e11 743a
00000170: f0e9 11bc bd0d 583b d910 433c 53f4 833c
00000180: fb14 b83c 6c73 4cbc 04c3 39bd e06e 2bbd
00000190: 3711 ea3c a993 223d a2b8 deba d335 59bc
000001a0: c86d ea3d 6add ecbb 84f5 51bd 8ca7 0fbc
000001b0: a837 44bd d165 b63d ff6e 85bc 07b8 b43c
000001c0: 9941 833d a14d c03c e119 273d e036 0b3c
000001d0: ac4c 3fbc 434b 32bd 3098 6abc d4f4 033d
000001e0: c8c9 cd3d 592d 0fbd 2d98 11bd 9617 e93c
000001f0: d52d 19bd 4a3f 2abc 1069 e4bc 8453 a73d
00000200: 9a85 053e c658 413d 1905 103d 1c45 65bc
00000210: 7fb0 c23d 1a15 d13c 1503 b33a ae8d e73c
00000220: 51d3 6c3c e310 76bd 2a6f 83bd ebbb 23bc
00000230: ad7f 9cbd cbdb 413d ec66 093c 7620 c1bc
00000240: 4a37 f2bc 8f9b 703d 199e 983d 683b 403d
00000250: 57fa b13c 2524 9d3d 2513 acbd fc00 5fbd
00000260: 4ce3 f13c 7a90 9e3a 8de4 a13d 8bb8 b53b
00000270: 558b 20bd 67b0 bcbb e3e4 d13d 3de2 00bd
00000280: 2c97 c73c 61c7 1abd 16b8 b9bd 2dd7 853c
00000290: b623 a6bc 3263 31bd b217 2fbc ef59 063d
000002a0: 337c 8f3c 3ae6 0a3d 8399 3ebd ae59 8fbc
000002b0: 3c3a 9d3c 92e5 0d3d b0c9 4c3b 0def 1ebd
000002c0: 15b0 b5bc 9d7e 353d d696 f7bc 16b3 9cbc
000002d0: 09f3 4a3d 4337 f4bc 9490 0dbd a9f4 82bc
000002e0: 50dd 9b3b 7ef8 fbbb 2faa ac3c 404e df3c
000002f0: eccc 41bd 4c9a 263d 9bcb 4fbc e838 0abd
00000300: b7ea 903d 8e68 27bd 1750 1fbd 2f4e 173c
00000310: 592b 22bc 9b27 dbbc f9a9 1bbd 0162 0ebd
00000320: 01d0 c83c 76b4 103d 8c48 b73d 15f5 303d
00000330: cf98 5fba 6cc4 8ebd 47c8 873d 37b9 97bc
00000340: 0ee9 f0bc 2c95 083c d000 e83d e1c4 e33d
00000350: f75b 03bb bb26 fa3c c868 553d 2f55 cbbb
00000360: c262 fd39 1bc5 b0bc a216 43bd 8dc1 d0bc
00000370: dac5 e9bb 97e8 1ebe 8ada 943c cae1 123d
00000380: 2b2d 69bd d646 2bbd dc78 bd3d d232 07bd
00000390: 704e 9abc 5ce8 dd3d 2e22 a23c 518a 2c3d
000003a0: 056f 1ebd 00ee 24bd 9fea 27bd a932 1a3d
000003b0: 9551 2dbd f6d7 f1bc b4aa 0fbc b81b 203d
000003c0: 9cb5 363d d53c 303d f131 df3c 6252 94bb
000003d0: 1179 12bd 3fed cebc 72a9 ea3d 7710 f83a
000003e0: 3aab d23c 933f 093c fa66 873c 2fd0 153d
000003f0: aaf0 d6bc 0b87 03bc 146f cfbb f37c 953a
0.035227165 -0.10296966 0.028930515 0.025618501 0.0049714423 0.106404416 0.033988666 0.011451861
0.022525588 -0.024251737 0.002910532 0.058006622 0.07409652 -0.02908711 -0.023615299 -0.008804071
0.08868686 -0.020644132 0.06382195 0.015561979 -0.00902308 0.09640197 -0.09109942 -0.025176346
-0.062274087 -0.014151832 -0.014010923 0.021440605 0.02671015 -0.01391859 -0.035089653 0.04862466
0.0025638044 -0.09829634 0.08837771 -0.09105959 -0.025671162 -0.018441975 -0.045240346 -0.0041335635
-0.0017937016 0.03160966 -0.018115794 0.067696206 0.10310467 -0.02370927 0.051819637 -0.0013776431
0.026754607 -0.044777352 -0.040819816 0.04489884 0.050445825 0.04910713 0.036092866 0.040053226
0.005909382 -0.026674304 0.012730839 0.04934761 0.0023112027 0.06810055 0.0040706624 -0.0005453382
-0.07376176 -0.044002123 -0.021867791 0.05848702 0.042211626 -0.038051404 0.022740135 0.009643097
-0.0024772957 -0.0003555106 -0.029744921 -0.03691686 -0.0006693639 -0.039219376 0.0026228307 0.035978027
0.033106282 -0.037821237 0.036011968 0.0046644695 -0.052762955 -0.09407234 -0.023075162 0.03376823
0.03026604 -0.021139171 -0.024858823 0.00093104586 -0.008905873 0.0032967173 0.011905872 0.016107714
0.022470942 -0.012478691 -0.045351997 -0.041853786 0.028572662 0.0396916 -0.0016992281 -0.013257462
0.1144672 -0.007228543 -0.051259533 -0.008767974 -0.04790464 0.08906139 -0.016288279 0.022060407
0.06408996 0.023474516 0.040796164 0.00849697 -0.011675995 -0.043528806 -0.014318511 0.03221591
0.10048252 -0.034955356 -0.035545517 0.02845363 -0.037397224 -0.010391066 -0.027882129 0.08170226
0.13039246 0.0472038 0.03516111 -0.013993528 0.0950632 0.025522757 0.0013657535 0.0282658
0.014454679 -0.0600747 -0.06417687 -0.009993534 -0.0764154 0.04732875 0.008386355 -0.023575049
-0.02956738 0.058742102 0.0745203 0.046931654 0.021725817 0.0767291 -0.08402089 -0.0544443
0.029527329 0.0012097501 0.07904921 0.005545681 -0.039195377 -0.0057583335 0.10248735 -0.031465758
0.024364077 -0.0377878 -0.09068315 0.016337955 -0.0202807 -0.04330749 -0.010686802 0.03280061
0.017515277 0.033910967 -0.04653312 -0.017498817 0.019192807 0.034642763 0.0031248145 -0.038802195
-0.022178689 0.0443102 -0.030223291 -0.019128364 0.049548183 -0.029811507 -0.03456171 -0.015985804
0.004756607 -0.0076895347 0.021077244 0.027258992 -0.04731457 0.040674493 -0.012682821 -0.033745676
0.07076018 -0.040871195 -0.03889474 0.009234949 -0.00989803 -0.026752284 -0.038003895 -0.034761433
0.024513246 0.03532835 0.08949384 0.04320248 -0.0008529545 -0.06971058 0.06629997 -0.018520935
-0.029408004 0.008336347 0.1132828 0.11121536 -0.002004383 0.030536046 0.05210188 -0.006205223
0.000483295 -0.021578362 -0.047629006 -0.025482917 -0.0071341814 -0.15518413 0.018170614 0.03585986
-0.05692784 -0.0418156 0.09251568 -0.03300745 -0.01883623 0.10835335 0.019791689 0.042124096
-0.038680095 -0.040266037 -0.040995236 0.03764597 -0.04231413 -0.029521924 -0.008768726 0.039088935
0.04460679 0.043026764 0.027245494 -0.0045264224 -0.03575999 -0.025259612 0.114581004 0.0018925805
0.025716413 0.008376974 0.016528595 0.036575492 -0.026237804 -0.008027802 -0.00633038 0.0011405036

bias f4 [10]
00000000: 329f 31bc 3499 2cbd 3d39 d23d ab9b fdb9
00000010: c902 2b3d 621c 67bd ecd3 e53b fba6 ea3d
00000020: 2f78 3abd eb53 853a
-0.010841178 -0.042138293 0.102648236 -0.00048371902 0.041750703 -0.056423552 0.0070137884 0.1145763
-0.045524772 0.0010172104
