system/models/MNIST/CNN/FedPer_BaseHeadSplit_MNIST_client_7.pt (torch, 370064 bytes, 8 tensors)

weight f4 [32, 1, 5, 5]
-0.02082998 0.042620625 -0.23452747 -0.20583397 -0.12406101 0.0450166 -0.072720885 0.055944357
-0.100573756 -0.042685986 -0.008891729 -0.07973828 -0.28025386 -0.22687657 -0.18876621 0.13418269
0.16171706 0.17728688 -0.11447898 -0.09958277 0.2682597 0.37119982 0.19303286 0.3567599
0.12147113 0.025127327 0.19384715 -0.173319 -0.1102764 -0.043871325 -0.08553396 0.1751744
-0.11482697 -0.079884924 -0.13749962 -0.20684299 -0.122788996 0.18594542 0.09744703 0.08835551
-0.0051919296 -0.10347109 0.045167312 -0.18745714 -0.15186056 -0.11406612 0.121023424 0.11412352
-0.10912836 -0.015970083 0.19703607 0.27811718 0.11328598 0.017641801 0.09367954 -0.060008705
0.09198197 -0.1341689 -0.17538159 -0.14148334 0.121508926 0.1285927 -0.092504285 0.036803626
0.11445181 -0.03839341 0.034166735 0.09447407 0.18961377 0.2778457 -0.17662191 -0.058869287
0.13097842 0.2505446 0.25560233 0.16735151 0.059485964 -0.14799108 0.011865484 -0.16043927
-0.17378195 0.2479184 0.20747371 -0.22709371 -0.01747192 -0.0052082487 0.0679615 -0.031367116
0.036919553 -0.1886398 0.09027782 0.17574488 0.17407233 0.024565326 -0.25568977 -0.0969649
0.1749981 0.06840418 -0.18695457 -0.1519858 0.24698299 0.16563447 -0.07077211 -0.043318756
-0.1960521 0.011809463 -0.15786143 -0.16145006 -0.014087613 0.052049685 -0.11649055 0.09720952
-0.11991591 0.21791916 0.20493346 -0.17830308 -0.039795805 0.04198568 0.06517054 0.069942854
0.11511196 0.036201365 -0.081443794 0.08370292 -0.22396071 -0.13497494 -0.14121352 -0.19198668
-0.14697044 -0.22520602 -0.043308407 -0.06692284 -0.24203184 -0.04456729 0.1610735 0.062209852
0.0065910686 -0.019796506 0.093650214 0.17625943 0.35106164 0.2792399 0.30072162 0.031426147
-0.18469192 0.010104798 0.25421244 0.094190516 -0.045347933 -0.15010586 -0.17831832 -0.16728206
-0.060048643 0.08471024 0.08898607 -0.22835 0.036319837 -0.21658368 -0.08101392 -0.11275196
-0.10058835 -0.11901671 -0.21718101 -0.19248748 -0.07351506 -0.033849273 -0.120232396 0.02711986
-0.20688407 -0.048140537 0.17955597 -0.076334104 0.13000253 0.057468534 -0.16549934 0.120155334
-0.009295736 -0.047701966 0.23231468 -0.07942144 0.00037835372 -0.02833243 0.19836658 0.16594124
0.22741988 0.040658172 -0.06338052 -0.051780645 -0.14279687 0.16897635 0.096481994 0.08861078
-0.19753258 -0.043164335 -0.16589229 -0.19851364 -0.17737737 0.010478136 -0.16992122 -0.05356945
0.05524567 0.15747696 -0.17085393 -0.17323945 -0.14099942 0.17655739 -0.06534574 0.15247063
0.04868454 0.0058547095 0.012991402 -0.05539276 0.0097685335 -0.03997546 0.0008773562 0.04539882
-0.16899122 -0.10068026 0.19159313 -0.14857553 0.029609673 0.23635493 0.1177023 0.03490214
-0.16191328 0.12012989 -0.1298353 -0.043216165 -0.047612224 -0.028616035 0.029694943 0.20701306
0.10763221 0.29630265 0.21909836 -0.123567104 0.09865906 -0.10852512 -0.035525832 0.1281766
0.00881616 0.0880641 -0.11707365 -0.042889 0.10157636 -0.28495482 0.055722184 -0.2255912
-0.056584194 -0.068887845 -0.07339034 0.09090146 0.22008413 -0.08855397 -0.17992805 -0.06807028
00000000: a2a3 aabc f792 2e3d f827 70be 24c6 52be
00000010: b313 febd 5463 383d b0ee 94bd e925 653d
00000020: 9df9 cdbd 80d7 2ebd 9dae 11bc d34d a3bd
00000030: 6f7d 8fbe 5552 68be ee4b 41be 3067 093e
00000040: 2899 253e b18a 353e f573 eabd 0df2 cbbd
00000050: 5659 893e e70d be3e 68aa 453e 3ca9 b63e
00000060: dbc5 f83d d3d7 cd3c de7f 463e 897a 31be
00000070: 98d8 e1bd 6bb2 33bd 6e2c afbd eb60 333e
00000080: 672a ebbd b59a a3bd b3cc 0cbe a6ce 53be
00000090: cc78 fbbd 7a68 3e3e 4f92 c73d bcf3 b43d
000000a0: 1021 aabb a7e8 d3bd 5c01 393d c4f4 3fbe
000000b0: 5681 1bbe 7f9b e9bd 21db f73d 98b9 e93d
000000c0: b17e dfbd b1d3 82bc d3c3 493e 6065 8e3e
000000d0: 7b02 e83d 8a85 903c 0fdb bf3d b0cb 75bd
000000e0: 0b61 bc3d 9263 09be 3b97 33be 02e1 10be
000000f0: acd9 f83d cead 033e e372 bdbd 66bf 163d
00000100: b665 ea3d 6942 1dbd 6bf2 0b3d 9f7b c13d
00000110: 1d2a 423e cb41 8e3e 60dc 34be ec20 71bd
00000120: 351f 063e 6247 803e 4fde 823e 325e 2b3e
00000130: 8ea7 733d f98a 17be 7267 423c 314a 24be
00000140: e5f3 31be 52de 7d3e fd73 543e 418b 68be
00000150: 4621 8fbc f5a9 aabb 662f 8b3d ce7a 00bd
00000160: f538 173d cb2a 41be 94e3 b83d 77f6 333e
00000170: 0440 323e 393d c93c c5e9 82be 8995 c6bd
00000180: b432 333e 7e17 8c3d 0571 3fbe 2aa2 1bbe
00000190: 1ce9 7c3e 159c 293e f8f0 90bd 026f 31bd
000001a0: e2c1 48be 7a7c 413c 6da6 21be 2a53 25be
000001b0: bbcf 66bc 0d32 553d 9992 eebd c915 c73d
000001c0: 7996 f5bd 3326 5f3e 14da 513e 1595 36be
000001d0: ed00 23bd 2df9 2b3d 2278 853d 333e 8f3d
000001e0: d2bf eb3d e247 143d 01cc a6bd 706c ab3d
000001f0: f555 65be df36 0abe 479a 10be 2898 44be
00000200: 6b7f 16be 689c 66be 2864 31bd d80e 89bd
00000210: 32d7 77be 318c 36bd 74f0 243e c2cf 7e3d
00000220: e4f9 d73b 482c a2bc afcb bf3d 5a7d 343e
00000230: 5abe b33e 88f8 8e3e 2ff8 993e b4b8 003d
00000240: e11f 3dbe 988e 253c 2228 823e f5e6 c03d
00000250: c1be 39bd 5ab5 19be 1499 36be fd4b 2bbe
00000260: 91f5 75bd 907c ad3d 543e b63d 95d4 69be
00000270: 1cc4 143d 1dc8 5dbe a0ea a5bd 80ea e6bd
00000280: 4401 cebd 08bf f3bd b364 5ebe 701b 45be
00000290: 108f 96bd 89a5 0abd 673c f6bd 782a de3c
000002a0: 6bd9 53be 032f 45bd 85dd 373e 0e55 9cbd
000002b0: 621f 053e 2064 6b3d a978 29be 0014 f63d
000002c0: 254d 18bc 2363 43bd e6e3 6d3e b5a7 a2bd
000002d0: c75d c639 6a19 e8bc 9c20 4b3e 80ec 293e
000002e0: c2e0 683e 2f89 263d a5cd 81bd f117 54bd
000002f0: 5839 12be 2308 2d3e 5a98 c53d 9279 b53d
00000300: fb45 4abe 16cd 30bd abdf 29be 2947 4bbe
00000310: 6aa2 35be 7dac 2b3c d4ff 2dbe a46b 5bbd
00000320: 4949 623d a441 213e 55f4 2ebe af65 31be
00000330: 2762 10be 76cb 343e fdd3 85bd 4321 1c3e
00000340: 7169 473d ddd8 bf3b e4d9 543c 85e3 62bd
00000350: 330c 203c 4fbd 23bd 61fe 653a 1df4 393d
00000360: 090c 2dbe 7431 cebd fd30 443e 2f24 18be
00000370: fc8f f23c 0707 723e e70d f13d 8cf5 0e3d
00000380: 98cc 25be a906 f63d 8bf3 04be 6f03 31bd
00000390: 0905 43bd 2d6c eabc cf42 f33c 3bfb 533e
000003a0: 476e dc3d fbb4 973e 525b 603e c010 fdbd
000003b0: c30d ca3d 6b42 debd 8983 11bd ba40 033e
000003c0: a871 103c f35a b43d 4fc4 efbd 60ac 2fbd
000003d0: 4407 d03d 99e5 91be f23c 643d 6101 67be
000003e0: d4c4 67bd 1215 8dbd ad4d 96bd 8b2a ba3d
000003f0: bc5d 613e c95b b5bd 0f3f 38be 6e68 8bbd

bias f4 [32]
0.12213176 -0.12180443 0.23137091 -0.14201339 -0.015218431 0.18548326 0.08805622 -0.07979042
0.043868124 0.050808445 -0.09752523 -0.07038819 0.07054437 -0.064770535 0.03484304 0.22432984
0.0178604 0.044501968 0.04866074 0.118182145 0.22909041 -0.08824417 0.1258677 0.0018691755
0.00034246093 -0.054491375 0.06901733 -0.033823304 0.025434813 -0.0014524269 0.14478783 -0.10147521
00000000: 3720 fa3d 9a74 f9bd 7fec 6c3e f56b 11be
00000010: ba56 79bc 53ef 3d3e d256 b43d 2969 a3bd
00000020: 10af 333d 841c 503d 4fbb c7bd af27 90bd
00000030: 9179 903d 6aa6 84bd 93b7 0e3d b9b6 653e
00000040: f94f 923c b247 363d 7c50 473d 7b09 f23d
00000050: ad96 6a3e 5cb9 b4bd 76e3 003e 1fff f43a
00000060: 548c b339 5932 5fbd f558 8d3d 4e8a 0abd
00000070: ab5c d03c 5c5f beba 4343 143e 3cd2 cfbd

weight f4 [64, 32, 5, 5]
0.0047507696 -0.010078921 -0.028629497 0.015202141 0.0074145673 -0.013913123 -0.009269708 0.010151366
-0.0068990756 0.021670295 0.002545911 0.012138541 0.0066281594 -0.019064182 0.007581852 0.02909991
0.00692941 0.009178226 0.0025850558 0.029001659 -0.009000807 -0.006231411 0.02712371 -0.021792758
0.0066870335 -0.014466304 0.026094317 -0.028924251 0.0237682 0.03600529 0.009003732 0.0017047846
0.03818019 -0.014702891 -0.0042035254 -0.013146259 -0.0034275507 0.009695272 0.0026019795 -0.009005084
-0.032959256 0.003692125 0.0028174915 0.009204601 0.029806606 0.038788036 -0.013778745 0.0033088617
-0.009606885 -0.031069906 -0.022412729 0.032158203 0.019088082 0.021107888 0.023537444 -0.02230481
0.0056395214 0.031063784 -0.017451748 0.03528265 0.015952261 0.023985412 -0.02007581 0.014409772
-0.029000998 -0.00087600277 0.009232964 0.008522912 0.033230864 0.042520817 0.035046298 0.02655699
0.026737817 -0.003319942 -0.02415667 -0.017875282 -0.0032459649 -0.019953007 0.0136033585 0.005623156
0.0014841049 0.010227178 0.030093571 0.009585506 -0.035101905 -0.026504247 0.01815955 0.0045957016
0.01284857 -0.040322572 -0.031023616 0.024144007 0.019275721 -0.03852947 0.007955328 -0.027540822
0.029593473 0.010007276 0.032007556 -0.03926784 -0.03450827 0.022505334 0.03203709 0.022174764
0.023796672 -0.030108565 0.024666173 -0.033769626 0.009224758 -0.022608606 -0.010725898 0.008508365
-0.014484409 -0.008327198 -0.03608579 -0.033549782 0.012092494 -0.015050564 -0.021137754 -0.012882096
-0.02911484 -0.024237119 0.024347045 0.0184239 0.0034276436 -0.016594032 0.015719159 0.001140564
-0.029194681 0.006001194 0.03645426 -0.031057412 -0.032675862 0.0078061493 0.03432184 -0.0094985925
0.017368153 0.023849588 0.009620245 0.0055019143 0.042276077 0.023697665 -0.02787534 -0.0046681426
0.016148979 0.030391362 -0.029192092 0.027836056 -0.0018853961 -0.029553076 0.017736325 -0.0073600016
0.018417183 -0.011675119 -0.0190354 0.004036665 -0.0048782355 0.031687997 0.0126006575 0.0317528
0.010805034 -0.007810128 0.027894963 0.0068912753 0.009015704 -0.009562176 0.009500742 0.009673634
0.009790827 -0.016651595 0.004373827 -0.018037684 0.012595206 0.03829662 -0.0139542455 -0.021450073
-0.007125672 -0.008681398 0.0055507016 0.0049160016 0.015994245 -0.028061302 -0.0047345627 0.01763786
0.02970696 -0.0065043913 -0.02225046 0.012549665 0.02422288 -0.01700744 -0.018676108 0.01989508
0.0005923964 -0.032912627 -0.021805733 0.017241577 -0.012520142 0.023273105 0.027200725 0.004743053
-0.00477581 -0.01069812 -0.002967915 0.0028246725 -0.029045993 -0.009920543 -0.027338693 0.020495243
-0.0248689 0.03022099 -0.0095922295 -0.01899826 0.014019132 0.0015109396 0.021151086 0.0140975695
-0.03254311 0.02149032 -0.008138134 -0.0171379 0.02448172 0.03128177 -0.029405167 -0.0032647727
0.02747303 0.016302396 0.030433659 -0.011461413 -0.018927097 0.030442994 0.013814358 0.031990044
-0.015252181 -0.0213623 -0.0007187534 -0.03513717 0.014840023 0.030414656 0.01373477 0.0015869616
0.018950863 -0.020628752 0.035905045 -0.035596866 -0.035321042 -0.006171562 0.02781853 0.002406057
0.0135973785 -0.024697646 0.015728192 -0.0032679865 0.013516747 0.025605543 0.015757304 -0.0021890744
00000000: 58ac 9b3b 0f22 25bc 6888 eabc 6712 793c
00000010: e6f5 f23b def3 63bc f9df 17bc ea51 263c
00000020: a411 e2bb e785 b13c 4cd9 263b bbe0 463c
00000030: 0831 d93b 7d2c 9cbc 2f71 f83b ef62 ee3c
00000040: 1b10 e33b 4560 163c 0a6a 293b e394 ed3c
00000050: 1f78 13bc dd30 ccbb 8b32 de3c ba86 b2bc
00000060: e71e db3b 1404 6dbc c0c3 d53c 8df2 ecbc
00000070: 87b5 c23c 487a 133d 6484 133c 1473 df3a
00000080: d562 1c3d 65e4 70bc babd 89bb 6863 57bc
00000090: c2a0 60bb ebd8 1e3c f985 2a3b 0f8a 13bc
000000a0: 4900 07bd 94f7 713b aaa5 383b e5ce 163c
000000b0: fc2c f43c 34e0 1e3d 3fc0 61bc 7dd9 583b
000000c0: 3266 1dbc 5186 febc e69a b7bc 52b8 033d
000000d0: 9c5e 9c3c 73ea ac3c 99d1 c03c 94b8 b6bc
000000e0: bccb b83b 7a79 fe3c f8f6 8ebc 8a84 103d
000000f0: 51ae 823c 0e7d c43c 0676 a4bc f716 6c3c
00000100: 8093 edbc 8da3 65ba dc45 173c afa3 0b3c
00000110: 161d 083d 4f2a 2e3d b58c 0f3d 0b8e d93c
00000120: 4409 db3c 6293 59bb 35e4 c5bc 2f6f 92bc
00000130: 41ba 54bb 7d74 a3bc 9fe0 5e3c 7442 b83b
00000140: 4c86 c23a e58f 273c cb86 f63c 870c 1d3c
00000150: 04c7 0fbd 6f1f d9bc 56c3 943c 8a97 963b
00000160: cf82 523c 4829 25bd 3d25 febc a7c9 c53c
00000170: 1ee8 9d3c 14d1 1dbd 1057 023c 4a9d e1bc
00000180: 036e f23c 8ff5 233c 5b1a 033d 51d7 20bd
00000190: 8b58 0dbd 1b5d b83c 5339 033d daa7 b53c
000001a0: 3df1 c23c 3da6 f6bc b710 ca3c 0552 0abd
000001b0: 7023 173c af35 b9bc adbb 2fbc ab66 0b3c
000001c0: 0450 6dbc cd6e 08bc b1ce 13bd 7f6b 09bd
000001d0: 991f 463c a496 76bc 1529 adbc 6d0f 53bc
000001e0: 3f82 eebc ec8c c6bc 7473 c73c b8ed 963c
000001f0: 51a2 603b 35f0 87bc 77c5 803c fa7e 953a
00000200: af29 efbc aaa5 c43b 1051 153d 1d6c febc
00000210: 20d7 05bd baca ff3b 0f95 0c3d fc9f 1bbc
00000220: a847 8e3c 3660 c33c 3b9e 1d3c 6749 b43b
00000230: ae29 2d3d 9b21 c23c d35a e4bc 38f7 98bb
00000240: dd4a 843c 4ef7 f83c 4124 efbc 7108 e43c
00000250: 651f f7ba 4b19 f2bc c54b 913c 2b2c f1bb
00000260: a2df 963c 0049 3fbc 21f0 9bbc 0046 843b
00000270: 9bd9 9fbb 46cb 013d fd72 4e3c 390f 023d
00000280: 9907 313c 1aec ffbb fa83 e43c 35d0 e13b
00000290: 9ab6 133c acaa 1cbc 00a9 1b3c 297e 1e3c
000002a0: b469 203c ed68 88bc 5252 8f3b c4c3 93bc
000002b0: 1f5c 4e3c ebdc 1c3d 59a0 64bc 10b8 afbc
000002c0: 787e e9bb 6c3c 0ebc a9e2 b53b 6916 a13b
000002d0: 5d06 833c d1e0 e5bc 6424 9bbb 467d 903c
000002e0: 035c f33c ca22 d5bb 9946 b6bc 1c9d 4d3c
000002f0: 106f c63c 3053 8bbc a3fe 98bc 02fb a23c
00000300: 0d4b 1b3a 64cf 06bd f0a1 b2bc 353e 8d3c
00000310: 4821 4dbc 3da7 be3c 0ed4 de3c 9d6b 9b3b
00000320: 667e 9cbb 2b47 2fbc 5a81 42bb 241e 393b
00000330: ddf1 edbc c689 22bc 65f5 dfbc a4e5 a73c
00000340: ddb9 cbbc 0292 f73c ba28 1dbc 3da2 9bbc
00000350: 80b0 653c b80a c63a 0b45 ad3c 7ef9 663c
00000360: ed4b 05bd 780c b03c cf55 05bc c864 8cbc
00000370: e38d c83c 5021 003d 1be3 f0bc ccf5 55bb
00000380: 1f0f e13c 9a8c 853c 0250 f93c a7c8 3bbc
00000390: 000d 9bbc 9663 f93c 9e55 623c fe07 033d
000003a0: 49e4 79bc fdff aebc b96a 3cba feeb 0fbd
000003b0: 9123 733c 2828 f93c cd07 613c 9801 d03a
000003c0: d73e 9b3c a1fd a8bc 2b11 133d 05ce 11bd
000003d0: ccac 10bd d03a cabb b0e3 e33c f0ae 1d3b
000003e0: 8ac7 5e3c b852 cabc 69d8 803c b72b 56bb
000003f0: 5975 5d3c b7c2 d13c 7615 813c 9376 0fbb

bias f4 [64]
-0.011914436 0.006881286 0.009353705 0.02052672 -0.01312156 0.008019135 -0.02393807 -0.0067387167
0.017739767 0.021899268 -0.017665898 -0.009994609 -0.016994191 0.0199055 -0.012943835 0.03230871
0.019817298 -0.0069036996 -0.0024067909 0.03608966 0.0054328977 -0.02111717 0.03100075 -0.03276151
-0.027769428 -0.020208577 -0.0069110193 0.030502949 0.014823743 0.03087783 -0.017897187 -0.015885051
-0.0024137823 0.03346968 -0.027525337 0.02772454 0.015327135 0.018865794 -0.01021143 0.038260262
0.037153225 0.031244691 -0.006254667 -0.0059699826 -0.002711511 0.03741525 0.020119026 -0.0146534555
-0.03517836 0.02333353 0.03165425 -0.0015290288 0.0023320871 -0.007527942 -0.008843102 -0.030379297
-0.015526379 -0.00693082 -0.0028827614 -0.03127957 0.010630988 0.022392975 -0.028942063 -0.009292354
00000000: c434 43bc 697c e13b 4840 193c a727 a83c
00000010: d0fb 56bc b162 033c c519 c4bc 74d0 dcbb
00000020: fd52 913c 1866 b33c 13b8 90bc 6ec0 23bc
00000030: 6737 8bbc dc10 a33c 6112 54bc 2356 043d
00000040: e357 a23c 6e38 e2bb 40bb 1dbb c0d2 133d
00000050: 7306 b23b eafd acbc 49f5 fd3c ef30 06bd
00000060: b67c e3bc 758c a5bc d575 e2bb 52e1 f93c
00000070: 49df 723c 81f3 fc3c 1f9d 92bc 5e21 82bc
00000080: 8c30 1ebb 8117 093d d17c e1bc 931e e33c
00000090: aa1e 7b3c 708c 9a3c d74d 27bc cbb6 1c3d
000000a0: fb2d 183d def4 ff3c f3f3 ccbb d89f c3bb
000000b0: 9bb3 31bb bc40 193d a8d0 a43c 0c15 70bc
000000c0: 2f17 10bd f625 bf3c e3a7 013d b169 c8ba
000000d0: eed5 183b f4ac f6bb a8e2 10bc 01de f8bc
000000e0: 5b62 7ebc ef1b e3bb b6ec 3cbb 021f 00bd
000000f0: 982d 2e3c 7971 b73c e817 edbc f53e 18bc

weight f4 [512, 64]
0.082952335 -0.10601685 -0.055683393 -0.05955159 0.111091256 0.09282954 0.08837247 0.1152347
-0.029161636 -0.027123602 0.038362715 -0.028391035 0.1046972 0.039502323 -0.054053128 0.092074536
0.114230156 0.09550815 0.043355845 0.03694349 -0.11906466 0.06232207 0.02390487 0.083973855
0.010144354 0.035833642 0.06064337 0.06123797 0.02896784 -0.10559427 -0.10743864 0.109294094
-0.07924684 0.055682596 0.07121678 -0.09456272 -0.0092781335 0.0680379 -0.085055254 -0.005939873
0.06852305 -0.0013132386 0.044334672 -0.017873516 -0.059984714 0.082722306 0.1182107 0.1123455
-0.109032236 0.099950135 -0.04593128 0.017761916 0.08731575 -0.009023579 -0.027218789 -0.11136696
0.019618994 0.024747156 0.056689754 -0.101601966 -0.07645055 0.11714891 0.019547388 -0.019694312
0.119028635 0.0055279396 0.13679937 0.045430213 -0.009437612 0.074180305 -0.0026817096 -0.024569908
0.1089316 -0.012864672 -0.052720428 -0.1018746 -0.022639425 -0.13174543 -0.09647108 0.06037431
-0.109367594 0.05184455 0.05712867 0.058809575 0.08301249 0.0371042 0.08115444 -0.12527406
0.064162865 0.12553455 0.12145906 -0.09740504 -0.107641034 0.07336183 -0.12472556 -0.09019216
0.02301565 0.04223983 0.12586668 -0.0771294 0.07905646 0.013645815 0.037891302 0.03501451
0.0855655 -0.008660171 0.045775913 -0.052705225 0.07690585 0.10187197 0.06677054 -0.122161806
0.08120192 0.0412907 0.03146114 0.07812802 -0.018073887 0.1267237 -0.07547499 0.087803915
0.037252206 -0.0011416253 -0.087600864 -0.0159858 -0.12593193 -0.127625 -0.078945905 0.059221078
0.04498532 -0.046689328 -0.023539407 -0.05482861 0.0045778467 0.046501894 0.12206851 0.09424202
0.017459452 0.07368684 -0.06088262 -0.0025487056 0.0098349 -0.09228776 -0.012091493 0.023414
-0.032857753 0.11664567 -0.12274851 0.05640027 0.08442334 -0.105576254 -0.10426655 -0.049849004
0.039990257 0.023841193 -0.02650487 -0.067715496 -0.07236716 -0.121937804 -0.067488685 0.105022304
-0.0268632 -0.01277503 -0.12216846 0.07464168 -0.05491706 -0.042317886 -0.062284417 0.014950383
-0.01908588 0.06746721 -0.030161588 -0.07840001 -0.06476901 -0.008442253 0.12286687 0.067299515
0.014715878 -0.09345762 0.12422871 0.06970971 0.05484724 0.007841415 -0.049996268 -0.039693993
0.014198743 0.08396429 0.008440182 0.054525383 0.011487582 -0.021165757 -0.01982255 -0.07517008
0.056303408 -0.030045394 -0.019097527 -0.11491068 0.033961743 -0.074624546 0.018740743 -0.015742855
0.12685037 -0.11053788 0.07389315 0.04404269 0.121303596 -0.108451426 0.10051357 0.06871085
0.09954342 0.10738399 0.10366303 0.03745218 -0.044603083 -0.024935206 -0.012038181 -0.015466955
-0.091672346 0.036771588 -0.101047285 -0.096569106 -0.026336892 -0.10607804 0.08611139 -0.046015814
-0.0025577617 -0.07998906 0.017503787 0.011665854 -0.023670614 -0.10140096 -0.058910266 0.10521118
-0.036623076 -0.11116266 -0.053295195 0.09796735 0.027007135 -0.006792032 -0.078883916 -0.11853925
0.08235627 0.07589994 -0.09229827 0.07106858 0.11311981 -0.023446508 0.0719839 0.10801537
-0.027166743 0.05297628 0.054859925 -0.08956552 0.046374135 -0.11443687 0.017868716 0.07076842
00000000: eae2 a93d 5d1f d9bd 4514 64bd 5eec 73bd
00000010: d083 e33d 6a1d be3d a0fc b43d 2c00 ec3d
00000020: 62e4 eebc 5132 debc 3922 1d3d 5194 e8bc
00000030: 7c6b d63d 30cd 213d d066 5dbd 9391 bc3d
00000040: 80f1 e93d c799 c33d e695 313d 0f52 173d
00000050: 2cd8 f3bd 6d45 7f3d 25d4 c33c 7cfa ab3d
00000060: 8134 263c 4cc6 123d 2f65 783d aad4 7a3d
00000070: f74d ed3c cf41 d8bd ca08 dcbd 95d5 df3d
00000080: 2b4c a2bd 6f13 643d 1ada 913d 19aa c1bd
00000090: 5003 18bc 7457 8b3d 7331 aebd 44a3 c2bb
000000a0: d055 8c3d fa20 acba 4698 353d 7b6b 92bc
000000b0: 88b2 75bd 506a a93d 7418 f23d 6615 e63d
000000c0: 4b4c dfbd a8b2 cc3d 7022 3cbd 7081 913c
000000d0: 9ad2 b23d a2d7 13bc f0f9 debc 5c14 e4bd
000000e0: 03b8 a03c 8cba ca3c 8433 683d b114 d0bd
000000f0: 1b92 9cbd c5eb ef3d d821 a03c f755 a1bc
00000100: 49c5 f33d b823 b53b 2215 0c3e 0815 3a3d
00000110: 37a0 1abc d8eb 973d 9fbf 2fbb d546 c9bc
00000120: 8817 df3d 58c6 52bc 60f1 57bd a1a3 d0bd
00000130: 5176 b9bc 46e8 06be a192 c5bd 0d4b 773d
00000140: 1efc dfbd f35a 543d c1ff 693d 4fe2 703d
00000150: 7402 aa3d 93fa 173d 4d34 a63d d847 00be
00000160: d267 833d 218c 003e 87bf f83d 4b7c c7bd
00000170: e772 dcbd ba3e 963d 1d70 ffbd abb6 b8bd
00000180: 518b bc3c ac03 2d3d 32e3 003e 05f6 9dbd
00000190: 5ae8 a13d b292 5f3c e933 1b3d 606b 0f3d
000001a0: f73c af3d 64e3 0dbc 867f 3b3d 6fe1 57bd
000001b0: d080 9d3d 40a2 d03d febe 883d f82f fabd
000001c0: 314d a63d 7020 293d 65dd 003d 9501 a03d
000001d0: b00f 94bc dcc3 013e a292 9abd 8ad2 b33d
000001e0: c595 183d 97a2 95ba 1568 b3bd a7f4 82bc
000001f0: 4df4 00be 21b0 02be 64ae a1bd cd91 723d
00000200: 8742 383d 4f3d 3fbd b7d5 c0bc f793 60bd
00000210: c301 963b c578 3e3d 0eff f93d f601 c13d
00000220: 2007 8f3c 20e9 963d 0e60 79bd 2f08 27bb
00000230: 8f22 213c 5d01 bdbd 661b 46bc b8ce bf3c
00000240: da95 06bd ede3 ee3d 9263 fbbd f803 673d
00000250: 25e6 ac3d 5d38 d8bd b389 d5bd 782e 4cbd
00000260: d3cc 233d 9b4e c33c be20 d9bc 6cae 8abd
00000270: 3c35 94bd 87ba f9bd 8237 8abd ef15 d73d
00000280: 3710 dcbc 5c4e 51bc 7533 fabd bddd 983d
00000290: b6f0 60bd 8555 2dbd f21d 7fbd 74f2 743c
000002a0: fe59 9cbc 402c 8a3d 6f15 f7bc 2f90 a0bd
000002b0: 9da5 84bd 6051 0abc a0a1 fb3d 54d4 893d
000002c0: de1a 713c b566 bfbd 9f6b fe3d f7c3 8e3d
000002d0: 80a7 603d 4779 003c e3c8 4cbd 2b96 22bd
000002e0: d8a1 683c 78f5 ab3d b048 0a3c 0256 5f3d
000002f0: 6936 3c3c cf63 adbc e662 a2bc c5f2 99bd
00000300: 679e 663d c221 f6bc 6b72 9cbc 4a56 ebbd
00000310: 781b 0b3d c1d4 98bd 3086 993c 29f7 80bc
00000320: 10e5 013e af61 e2bd 4b55 973d 1c66 343d
00000330: 056e f83d c81b debd 0fda cd3d 46b8 8c3d
00000340: 6cdd cb3d 23ec db3d 484d d43d 7567 193d
00000350: b9b1 36bd eb44 ccbc ca3b 45bc 1c69 7dbc
00000360: b6be bbbd ce9d 163d e1f1 cebd 06c6 c5bd
00000370: 77c0 d7bc 723f d9bd 2b5b b03d 147b 3cbd
00000380: 1fa0 27bb 4ed1 a3bd 1a64 8f3c 2322 3f3c
00000390: e0e8 c1bc 4eab cfbd e44b 71bd f678 d73d
000003a0: 1402 16bd 40a9 e3bd 104c 5abd 1ba3 c83d
000003b0: 113e dd3c b28f debb e48d a1bd b5c4 f2bd
000003c0: 67aa a83d 6e71 9b3d e006 bdbd 678c 913d
000003d0: 5cab e73d e412 c0bc 4c6c 933d 2a37 dd3d
000003e0: ca8c debc a8fd 583d cdb4 603d 216e b7bd
000003f0: cef2 3d3d e15d eabd 6a61 923c 09ef 903d

bias f4 [512]
0.10208223 -0.115100086 -0.09115895 -0.078830115 0.04509342 -0.08621238 -0.09786676 0.049074475
-0.08925512 -0.08421473 0.11341481 0.07190614 -0.0878607 0.03132861 0.022963021 0.07054125
0.068828546 0.12358133 0.033067822 0.021345943 -0.01368059 0.028454369 -0.031144114 0.10788949
0.11938604 -0.015391797 0.03188313 -0.09517902 -0.09765415 -0.08694322 -0.022359155 0.07400962
-0.007953126 -0.09754132 0.034824707 0.07674778 -0.10455196 -0.11645486 -0.056881163 0.030965937
0.0425419 -0.06870265 0.023253305 -0.017901765 -0.0056024254 0.120859556 0.050746966 -0.0017883357
0.020125967 -0.058207035 0.09106706 -0.007262998 0.059178274 -0.04047463 0.03978848 0.051255904
0.063159816 -0.017711481 -0.06010049 0.03811723 0.09859626 -0.03629379 -0.014536421 0.012009771
0.07257455 0.037240293 -0.032290637 0.039287087 -0.042220153 -0.036965493 0.10663635 -0.100831
-0.112498134 -0.0026411505 -0.110273995 -0.00979396 0.07246165 -0.016691392 0.021159895 0.10525598
-0.08020688 0.08791324 0.0876675 0.037891492 0.08285186 -0.08728435 0.019427968 -0.01785924
-0.05688425 0.03089593 -0.12238032 0.10555323 -0.11926426 0.12804317 0.037450615 0.09346179
-0.06705728 -0.060248613 0.023295842 -0.08200311 -0.08409854 -0.122395456 0.07502387 -0.0014229339
0.09061943 0.10643916 0.041940898 0.04533744 -0.058108423 0.040574603 -0.014526931 -0.12134013
0.02525006 -0.12161162 -0.12238305 -0.088031195 -0.050416064 -0.11039205 0.034037605 -0.10774457
0.027517986 -0.08548899 0.064747505 0.07562213 0.009323573 -0.12082877 0.06896709 0.06051705
-0.11620666 0.043458655 -0.10748902 -0.09667136 -0.02058524 -0.07513783 -0.046182092 0.08462663
-0.037497282 0.03018781 -0.10070278 0.0074227457 0.04882987 -0.11059118 -0.052651875 -0.020155508
-0.112082876 -0.05053651 0.10438583 0.118960164 0.124827005 0.12428365 0.1170234 -0.08855306
0.053948764 -0.10832357 0.07321264 -0.029349316 0.10847256 0.0002577225 -0.026332526 0.083293274
0.11242093 0.044553723 0.02019754 0.072963215 -0.07953111 -0.0038780512 -0.0023043812 -0.08707716
0.036816712 0.019782629 -0.027326595 0.0097839385 -0.11009257 0.09585637 -0.02885376 0.08555763
-0.101905994 0.025476573 -0.059873164 -0.11371637 0.11486641 0.03445697 -0.036894027 0.066089645
-0.10156749 0.11591594 -0.08316505 -0.017439364 0.041717242 -0.1209728 0.07747147 0.011557453
-0.04238005 0.059682358 -0.064064 -0.029113077 -0.068761624 -0.021989157 -0.053455625 -0.049794227
0.049440626 0.047341134 -0.09887647 0.0007966408 0.08743244 -0.05320816 0.04810736 -0.08676988
0.10944261 0.030962175 -0.05504154 0.09335231 0.0011466846 0.04028705 -0.06526366 0.0045452258
-0.07156696 0.08935364 0.08883925 -0.060768776 -0.0033310496 0.03023285 0.04406819 -0.06680641
0.01885811 0.06387875 -0.11745122 -0.019979896 0.042219587 0.089581795 -0.027920306 -0.0771826
0.025279457 0.019800778 0.12325661 0.085526265 -0.012508636 -0.015822485 0.025954274 -0.118783034
0.09409396 0.060922593 0.05790251 -0.08394496 0.0063205906 0.08756732 0.06963779 -0.052620713
-0.031782422 -0.074139945 0.010886339 -0.116656065 0.09105296 -0.03448365 0.07306258 -0.036097713
00000000: 7d10 d13d 98b9 ebbd 8bb1 babd af71 a1bd
00000010: e1b3 383d 1e90 b0bd 5e6e c8bd 5102 493d
00000020: 63cb b6bd c678 acbd 0646 e83d 8743 933d
00000030: 50f0 b3bd 6e52 003d f21c bc3c ee77 903d
00000040: fbf5 8c3d 3518 fd3d 2072 073d b0dd ae3c
00000050: 8e24 60bc 2319 e93c f121 ffbc 2af5 dc3d
00000060: ab80 f43d e02d 7cbc e397 023d 38ed c2bd
00000070: e6fe c7bd 490f b2bd 8c2a b7bc 5b92 973d
00000080: d44d 02bc bec3 c7bd 5aa4 0e3d f12d 9d3d
00000090: 571f d6bd e37f eebd 39fc 68bd 47ac fd3c
000000a0: 6a40 2e3d fab3 8cbd b77d be3c b9a6 92bc
000000b0: 8d94 b7bb 3785 f73d 0ddc 4f3d 9766 eaba
000000c0: 36df a43c 806a 6ebd 5e81 ba3d 71fe edbb
000000d0: eb64 723d bac8 25bd 3ff9 223d b6f1 513d
000000e0: ef59 813d ab17 91bc ee2b 76bd d020 1c3d
000000f0: d6ec c93d cca8 14bd 2b2a 6ebc a1c4 443c
00000100: f7a1 943d 4789 183d 3043 04bd 7feb 203d
00000110: 0aef 2cbd 2169 17bd 2964 da3d 7c80 cebd
00000120: 6c65 e6bd 2717 2dbb 55d7 e1bd d876 20bc
00000130: c666 943d 63bc 88bc 8457 ad3c 7290 d73d
00000140: 8143 a4bd db0b b43d 058b b33d 1c34 1b3d
00000150: 3cae a93d 23c2 b2bd 6727 9f3c 8a4d 92bc
00000160: 76ff 68bd 7619 fd3c 89a2 fabd 4b2c d83d
00000170: d240 f4bd c01d 033e d165 193d e568 bf3d
00000180: 5455 89bd 40c7 76bd ecd6 be3c 3ff1 a7bd
00000190: db3b acbd 78aa fabd 1da6 993d bd81 baba
000001a0: ae96 b93d c6fc d93d 38ca 2b3d c0b3 393d
000001b0: 1903 6ebd 8e31 263d 5d02 6ebc 2d81 f8bd
000001c0: 37d9 ce3c 830f f9bd f7a3 fabd b349 b4bd
000001d0: 1381 4ebd 3a15 e2bd 046b 0b3d 2fa9 dcbd
000001e0: 666d e13c da14 afbd 579a 843d c6df 9a3d
000001f0: e6c1 183c 1375 f7bd 9e3e 8d3d bae0 773d
00000200: c2fd edbd b401 323d 3423 dcbd a2fb c5bd
00000210: 61a2 a8bc dde1 99bd 6f29 3dbd ba50 ad3d
00000220: c096 19bd 6d4c f73c 423d cebd 813a f33b
00000230: d401 483d a17d e2bd 7ea9 57bd 2a1d a5bc
00000240: b58b e5bd 5fff 4ebd 3dc8 d53d 63a1 f33d
00000250: 4da5 ff3d 6d88 fe3d f7a9 ef3d 4f5b b5bd
00000260: 61f9 5c3d bfd8 ddbd 82f0 953d fa6d f0bc
00000270: dd26 de3d ee1e 8739 4fb7 d7bc aa95 aa3d
00000280: f23c e63d f77d 363d 5075 a53c bd6d 953d
00000290: 35e1 a2bd e726 7ebb 1a05 17bb 8355 b2bd
000002a0: 1fcd 163d 2e0f a23c 06dc dfbc d04c 203c
000002b0: 3778 e1bd 5850 c43d b85e ecbc d738 af3d
000002c0: 17b4 d0bd 3fb4 d03c 903d 75bd 21e4 e8bd
000002d0: 153f eb3d c022 0d3d 311e 17bd 025a 873d
000002e0: 9e02 d0bd 5665 ed3d 7052 aabd ffdc 8ebc
000002f0: b3df 2a3d 96c0 f7bd 5da9 9e3d 795b 3d3c
00000300: b496 2dbd 7d75 743d fd33 83bd 8c7e eebc
00000310: e5d2 8cbd 9b22 b4bc 49f4 5abd 08f5 4bbd
00000320: 4182 4a3d c7e8 413d bf7f cabd a9d5 503a
00000330: c70f b33d cdf0 59bd 390c 453d 68b4 b1bd
00000340: 7223 e03d 63a4 fd3c 3d73 61bd 7f2f bf3d
00000350: 5a4c 963a 0904 253d f4a8 85bd 1ef0 943b
00000360: b391 92bd 0bff b63d 5af1 b53d aee8 78bd
00000370: bd4d 5abb e2aa f73c d980 343d cdd1 88bd
00000380: 537c 9a3c ddd2 823d 448a f0bd e1ac a3bc
00000390: 72ee 2c3d a976 b73d 20b9 e4bc e911 9ebd
000003a0: dd16 cf3c 3e35 a23c f66d fc3d 6528 af3d
000003b0: 06f1 4cbc 289e 81bc 0f9e d43c 8544 f3bd
000003c0: 56b4 c03d f889 793d 2f2b 6d3d 56eb abbd
000003d0: f51c cf3b 7f56 b33d 429e 8e3d d188 57bd
000003e0: 492e 02bd afd6 97bd 9d5c 323c 60e9 eebd
000003f0: f979 ba3d ba3e 0dbd d5a1 953d 32db 13bd

weight f4 [10, 512]
0.0450715 -0.12073029 0.028964525 0.016934946 0.041041907 -0.05176018 0.04041836 -0.029146992
-0.061776612 -0.08265662 0.121780716 0.16080168 -0.01731194 -0.029519608 -0.0034487383 0.0038978213
0.031161513 -0.020644108 0.19710477 0.015561979 -0.009052873 0.06767948 -0.041024677 0.0183603
-0.050856963 -0.014151832 -0.07380298 -0.004718517 -0.05838355 -0.01391177 -0.1424934 -0.018418195
0.0025638044 -0.065963365 0.17757218 -0.11768834 -0.11838309 -0.018441975 -0.04459485 -0.0041335635
0.030021382 0.03160966 -0.018277392 -0.0033416424 0.20128226 0.016927691 0.07731791 -0.007462275
0.0930239 0.014651755 -0.040819664 0.042414058 0.12942386 0.07732333 -0.047566548 0.10085846
0.0063683847 -0.055300757 0.012827876 0.19021182 0.025855156 0.07580655 0.011403412 -0.035060246
0.023589779 -0.087965615 -0.02179543 0.088280335 0.04191082 -0.075112715 0.07593706 0.009643514
-0.0018665814 -0.051682167 -0.036282036 -0.037796494 -0.0006693639 -0.08131536 -0.06952184 0.0037903937
0.063927785 -0.04921868 0.036205467 0.0046644695 -0.107219435 -0.05419033 -0.023075162 0.02144094
-0.0013799942 -0.02109357 -0.024856007 0.002422345 -0.008905873 0.10051493 0.0036622037 0.14088364
-0.007203585 0.046127863 -0.13718295 -0.039069477 0.01472136 0.040636722 -0.03567522 -0.01765236
0.09359528 0.09594121 -0.0066911546 -0.008767974 -0.1619617 0.07739599 -0.024968298 0.02243736
0.038236767 0.023425225 0.040796164 0.008497015 -0.011675995 -0.043528806 0.023553157 0.02991083
-0.02449011 -0.034955356 -0.01788415 0.047895424 -0.04006799 -0.04405145 -0.027814887 0.11434338
0.148349 0.09967321 0.03516111 -0.013993528 0.11087303 0.025522757 -0.16444287 0.024372188
0.014552962 -0.054195642 -0.005178457 -0.0046740896 -0.024350153 0.054668576 0.008386355 0.06489434
-0.02956738 0.05616839 0.022265593 0.065417364 0.102697164 0.03506646 -0.019864682 -0.07938359
0.116684385 -0.000103198545 0.12015748 -0.05662964 -0.035645112 0.01312878 0.07530034 -0.11210207
0.02438116 -0.035805576 -0.08255557 0.084227264 -0.032620423 -0.0190814 -0.06102407 0.03280061
0.0175171 0.11974901 -0.10388958 -0.017498817 0.08617182 0.031822447 0.0031248145 -0.091696456
-0.022178689 0.0030773445 -0.03023796 -0.009518496 -0.0062573752 -0.105435185 -0.056723475 0.016520716
0.004756607 -0.007014951 0.07475645 -0.001918063 -0.039697077 0.040792998 -0.009237901 -0.10931636
0.07324489 -0.041212056 -0.0721844 0.008415913 0.12772524 -0.023533478 -0.03764113 -0.035762526
0.13974136 -0.052875612 0.11360292 0.1006682 -0.002146422 -0.115191415 0.064672254 -0.022027753
0.018809114 0.008336347 0.06088395 0.07590837 -0.0019855127 0.0013765261 -0.034359064 0.018845946
0.0004862845 -0.050912518 -0.048724163 -0.025454547 -0.015895158 -0.13881499 0.018170614 0.029252702
-0.13549264 -0.054247923 0.09296936 0.056293868 -0.020351501 0.10486921 0.019791689 0.10417532
-0.03901671 -0.048367586 -0.03476789 0.03839575 -0.12561487 -0.029521924 -0.06444953 0.043470412
0.0473155 0.0912412 0.026364151 -0.039881498 -0.035625294 -0.045532968 0.13088274 0.0019638166
-0.012178279 -0.04714683 0.004005262 0.038161896 0.005489605 -0.019151242 -0.02016157 -0.05219762
00000000: e59c 383d 7141 f7bd 0347 ed3c 28bb 8a3c
00000010: 8f1b 283d 7c02 54bd b98d 253d acc5 eebc
00000020: 7909 7dbd e047 a9bd 2b68 f93d 32a9 243e
00000030: c5d1 8dbc 1bd3 f1bc 3a04 62bb 9772 7f3b
00000040: 6e46 ff3c d51d a9bc d5d5 493e acf7 7e3c
00000050: 8052 14bc 8a9b 8a3d 7e09 28bd 5768 963c
00000060: 644f 50bd 16dd 67bc 0426 97bd ca9d 9abb
00000070: 9723 6fbd 31ee 63bc cae9 11be c1e1 96bc
00000080: 8005 283b cd17 87bd 7bd5 353e 9606 f1bd
00000090: d572 f2bd a013 97bc 17a9 36bd d872 87bb
000000a0: 67ef f53c 2179 013d 78ba 95bc 75ff 5abb
000000b0: f01c 4e3e f1ab 8a3c da58 9e3d 1a86 f4bb
000000c0: 5183 be3d ea0d 703c 8532 27bd 5dba 2d3d
000000d0: b087 043e b25b 9e3d 24d5 42bd e18e ce3d
000000e0: e2ad d03b 0c83 62bd 032c 523c e3c6 423e
000000f0: 31ce d33c 7740 9b3d 60d5 3a3c 559b 0fbd
00000100: 5a3f c13c 5127 b4bd 548c b2bc 52cc b43d
00000110: aeaa 2b3d b2d4 99bd e484 9b3d d4ff 1d3c
00000120: 14a8 f4ba aeb0 53bd 799c 14bd 7fd0 1abd
00000130: 4078 2fba ab88 a6bd 7761 8ebd 4168 783b
00000140: 92ec 823d 8799 49bd 2f4c 143d 68d8 983b
00000150: dd95 dbbd aef6 5dbd 1f08 bdbc e9a4 af3c
00000160: ece0 b4ba 6ccc acbc d39e cbbc 35c0 1e3b
00000170: f0e9 11bc c6da cd3d 9501 703b cd43 103e
00000180: 0d0c ecbb 92f0 3c3d b079 0cbe 5107 20bd
00000190: dc31 713c b172 263d 2e20 12bd af9b 90bc
000001a0: e2ae bf3d d37c c43d 7941 dbbb 8ca7 0fbc
000001b0: 4ad9 25be ca81 9e3d 518a ccbc 8ece b73c
000001c0: 289e 1c3d 42e6 bf3c e119 273d 1037 0b3c
000001d0: ac4c 3fbc 434b 32bd 8df2 c03c 8f07 f53c
000001e0: 7c9f c8bc 592d 0fbd c881 92bc fe2d 443d
000001f0: 551e 24bd 4b6f 34bd 0cdc e3bc dd2c ea3d
00000200: cde8 173e 7821 cc3d 1905 103d 1c45 65bc
00000210: 6611 e33d 1a15 d13c b663 28be 2fa8 c73c
00000220: 8c6f 6e3c 40fc 5dbd 0cb0 a9bb 1b29 99bb
00000230: f979 c7bc 28ec 5f3d ec66 093c 53e7 843d
00000240: 4a37 f2bc d310 663d 5566 b63c 8af9 853d
00000250: e452 d23d d9a1 0f3d 42bb a2bc dd93 a2bd
00000260: 39f8 ee3d 4c6c d8b8 2015 f63d 7bf4 67bd
00000270: 9c00 12bd 181a 573c 1137 9a3d c595 e5bd
00000280: 00bb c73c dea8 12bd e512 a9bd 587f ac3d
00000290: fe9c 05bd 9950 9cbc 60f4 79bd ef59 063d
000002a0: 0580 8f3c f83e f53d 0fc4 d4bd ae59 8fbc
000002b0: da7a b03d 4158 023d b0c9 4c3b 5acb bbbd
000002c0: 15b0 b5bc 46ad 493b 99b5 f7bc 77f3 1bbc
000002d0: ab0a cdbb 67ee d7bd e056 68bd 7456 873c
000002e0: 50dd 9b3b addd e5bb e919 993d 8467 fbba
000002f0: 6799 22bd 8f16 273d 915a 17bc 41e1 dfbd
00000300: 6b01 963d f9cd 28bd 6ad5 93bd e6e2 093c
00000310: 68ca 023e 48c9 c0bc 962d 1abd ba7b 12bd
00000320: 5c18 0f3e 1994 58bd a6a8 e83d 212b ce3d
00000330: fcaa 0cbb 7ae9 ebbd e372 843d 8c73 b4bc
00000340: 9215 9a3c 2c95 083c 7361 793d d975 9b3d
00000350: 601f 02bb 8d6c b43a 17bc 0cbd d062 9a3c
00000360: 00f4 fe39 a589 50bd fd92 47bd 0e86 d0bc
00000370: 9036 82bc 8425 0ebe 8ada 943c 5da3 ef3c
00000380: 95be 0abe 1233 5ebd b866 be3d 6694 663d
00000390: 31b8 a6bc abc5 d63d 2e22 a23c df59 d53d
000003a0: fccf 1fbd 171d 46bd c668 0ebd dd44 1d3d
000003b0: 2fa1 00be f6d7 f1bc 1dfe 83bd 080e 323d
000003c0: e6cd 413d abdc ba3d a2f9 d73c c85a 23bd
000003d0: d4eb 11bd c780 3abd 2006 063e 60b3 003b
000003e0: 6887 47bc 091d 41bd 933e 833b a64f 1c3d
000003f0: 25e2 b33b 11e3 9cbc e029 a5bc 2ccd 55bd

bias f4 [10]
0.04216153 -0.042651568 -0.010322241 -0.037918847 0.051383153 0.02140694 0.03629235 0.09201932
-0.043515123 0.002739821
00000000: 92b1 2c3d 69b3 2ebd 9e1e 29bc cb50 1bbd
00000010: 2477 523d 9b5d af3c 4aa7 143d a074 bc3d
00000020: ea3c 32bd 928e 333b
