system/models/MNIST/CNN/FedPer_BaseHeadSplit_MNIST_client_1.pt (torch, 370064 bytes, 8 tensors)

weight f4 [32, 1, 5, 5]
00000000: e3d1 1bbd 81a5 f53c 6e45 72be 4101 4ebe
00000010: 2f17 e7bd defe c63c 6acc a5bd 194b 733d
00000020: 432e aebd 7085 7ebc 0ac8 0ebd 2170 b3bd
00000030: 6698 89be 6113 4dbe 44db 20be 3f99 d63d
00000040: 4baf 0f3e e8b6 353e 5f86 c8bd ddae 92bd
00000050: dec1 753e 6c7b b23e 22dd 313e 5e18 b73e
00000060: 4e98 0e3e bfce e13c 94bf 503e aa6f 28be
00000070: b0a7 e0bd 7a2f 3cbd 1e6b b5bd 5cae 463e
00000080: 536e c5bd 64a9 9ebd 9ad3 0dbe 056b 57be
00000090: 785c e1bd e5c1 533e 7020 e03d b8fb cc3d
000000a0: 6886 36bb ee46 ccbd 2bde 673d 2df2 34be
000000b0: 1875 0ebe 6c06 e4bd f036 f33d ea95 ef3d
000000c0: d6c7 ccbd f1cd b6ba bb1e 4d3e 4979 953e
000000d0: 74db 023e 59bb 1b3d 66cd e93d 3a75 5bbd
000000e0: 59da ec3d a2c1 e7bd 101a 23be 87ca 08be
000000f0: 7d10 063e d132 1c3e 1f53 99bd 6753 163d
00000100: 7ffd de3d ed3f 10bd 6fcd 3c3d 2784 cb3d
00000110: 8838 443e f2c4 8d3e 2ac5 31be 09a3 6abd
00000120: 36fe 033e 48c6 823e a77c 833e 9ee0 393e
00000130: d9cb 7c3d 48d0 27be dbbf 56ba ca61 2cbe
00000140: c541 2abe 3f3c 7c3e 2302 4a3e 62da 6fbe
00000150: cac3 acbc 2bb2 d4bb f862 913d 533a 08bd
00000160: 6275 183d 0bc6 41be 28d8 b53d ab70 373e
00000170: 1cbb 383e 2f1e db3c f0f4 80be 2f64 c1bd
00000180: feba 3a3e 2640 9c3d c7f7 3bbe 0789 13be
00000190: f6dd 833e 7f6e 343e 809a 81bd d815 12bd
000001a0: aefe 4dbe 67d2 5c3c 6ab1 23be cf8c 28be
000001b0: 6c57 6ebc b950 313d 7ff0 e9bd 50fc c83d
000001c0: 0534 febd 2f79 5a3e 17dd 4e3e 4378 28be
000001d0: 4647 0abd 2c69 153d f755 5d3d 9ded 733d
000001e0: a056 0c3e d72f 343d 744c b5bd 2fed 943d
000001f0: a84f 6ebe fb21 16be 2967 1ebe dbf1 40be
00000200: 7f91 09be 8ce1 59be c85c 67bd 10bd a6bd
00000210: d4af 79be b372 cbbc c284 3c3e 96be 323d
00000220: e5a7 1ebc 5fba 9bbc 3b0f e13d 3e23 423e
00000230: c5df a53e 3b55 863e d7e7 9a3e b480 183d
00000240: 970c 39be 08db c4ba 2b3a 833e 3db5 d93d
00000250: d391 03bd 838b 10be 1c55 33be afb2 21be
00000260: c526 5bbd 730d b43d 2056 c63d 0998 63be
00000270: f55e 403d eb90 53be d225 99bd 83ee d7bd
00000280: acd0 c4bd fa05 e1bd 9e60 55be 9e45 3dbe
00000290: 754c 88bd dcfb febc f11f f0bd 2657 ec3c
000002a0: b434 51be 9564 31bd 6bc2 343e 317e a1bd
000002b0: e1cb 063e 296f 7b3d e196 25be 5f6d 043e
000002c0: 4651 a7b9 694f 24bd 2860 6c3e 22ce acbd
000002d0: e581 b43b 20ff e3bc 3d14 473e d391 213e
000002e0: bae4 663e d2fd 3e3d 2899 7bbd 20aa 67bd
000002f0: 92ae 18be a525 293e f85a d53d f843 c33d
00000300: 45fb 4bbe f7b8 36bd 903b 2ebe a0f6 48be
00000310: c41d 36be 982e cb3b 4dc1 32be c879 72bd
00000320: 41dd 5b3d 137c 1e3e b738 2abe 71c3 2abe
00000330: 8168 09be b2de 303e 180c 89bd 323d 203e
00000340: 2069 6c3d 0316 7e3c 2b1f 7f3c d736 7cbd
00000350: 01fb 483c ecc5 05bd 1078 d93b d0a3 4c3d
00000360: a21b 2fbe e311 cdbd ad09 443e 6b8e 1dbe
00000370: c804 fe3c df8b 6c3e 84c6 e13d bed5 d73c
00000380: 4c93 31be 34ce 043e c97b f7bd 8559 15bd
00000390: 67e8 47bd c5fa 04bd 69ec 003d 189b 503e
000003a0: 9f91 d03d f32e 993e d631 613e a76e 07be
000003b0: 5e73 b13d 5f30 fcbd 2024 0fbd 83f0 0e3e
000003c0: 3938 363b 225c ac3d af9b f7bd b46a 1fbd
000003d0: af2b f53d d3af 90be b6a0 7f3d e8ee 5ebe
000003e0: 1f8c 3dbd 2233 5abd f975 6abd 553e ea3d
000003f0: 8cb2 683e 41bf d2bd 7f6f 3bbe 04d7 5ebd
-0.03804196 0.029986145 -0.23659298 -0.20117666 -0.11283719 0.024291452 -0.080956295 0.05939779
-0.085049175 -0.015534744 -0.03485874 -0.08761621 -0.26874083 -0.20026924 -0.15708643 0.10478448
0.14031713 0.17745554 -0.09791254 -0.07162259 0.23999736 0.34859788 0.17369512 0.35760778
0.13925287 0.027564405 0.20385581 -0.16448846 -0.10969484 -0.045943715 -0.088583216 0.1940245
-0.09640183 -0.077471524 -0.13850251 -0.21036918 -0.11003965 0.20679434 0.10943687 0.10008949
-0.0027851108 -0.09974466 0.05660836 -0.17670508 -0.13911855 -0.111340374 0.11875713 0.11698516
-0.09999053 -0.0013946873 0.20031254 0.29194096 0.12779027 0.038020466 0.1141613 -0.053578593
0.11565084 -0.113162294 -0.15927911 -0.13358508 0.13092227 0.1525376 -0.07486557 0.036700632
0.10888194 -0.035217214 0.046094354 0.099373154 0.1916219 0.2768932 -0.17360368 -0.05728439
0.12889943 0.25541902 0.2568104 0.18152091 0.06171784 -0.16388047 -0.0008192041 -0.16834179
-0.16626652 0.24632357 0.19727378 -0.2342315 -0.021089453 -0.006490966 0.07098955 -0.033258747
0.03722132 -0.18923204 0.08879119 0.17914073 0.18040127 0.026747791 -0.25186872 -0.09442937
0.18235394 0.07629423 -0.18356238 -0.1440774 0.2575528 0.17620276 -0.06328297 -0.035665363
-0.20116684 0.013477898 -0.15985647 -0.16459964 -0.01454721 0.043289874 -0.11422824 0.0981375
-0.12412266 0.2133529 0.20201527 -0.16452126 -0.033759378 0.036477253 0.05403706 0.059552778
0.1370492 0.043990936 -0.08852473 0.07271802 -0.23272574 -0.146614 -0.1546904 -0.1884226
-0.13434409 -0.21277446 -0.056484967 -0.081415296 -0.2438348 -0.024834966 0.18410018 0.04363879
-0.009683584 -0.019009767 0.10989233 0.18958756 0.32397285 0.262369 0.30255005 0.037232116
-0.18071209 -0.001501889 0.25630316 0.106302716 -0.03212149 -0.1411572 -0.17512935 -0.15790819
-0.05350377 0.08791628 0.09684396 -0.22225966 0.046965558 -0.2066075 -0.07477917 -0.105435394
-0.096101135 -0.10987468 -0.20837638 -0.18483588 -0.06655208 -0.031125955 -0.11724842 0.02885015
-0.20430261 -0.043308813 0.1765229 -0.07885397 0.13163711 0.061385307 -0.16170837 0.12932347
-0.00031913276 -0.040114794 0.23083556 -0.08437754 0.0055086487 -0.027831614 0.19441314 0.15778284
0.2254819 0.04662878 -0.061425358 -0.05655873 -0.14910343 0.16518266 0.104177415 0.095344484
-0.1992007 -0.04460999 -0.17014909 -0.1962533 -0.17784792 0.006200623 -0.17456551 -0.05919817
0.0536778 0.15477018 -0.16623197 -0.16676117 -0.13418771 0.17272452 -0.0669176 0.15648344
0.057717443 0.015508178 0.015571396 -0.061575737 0.012266875 -0.032659456 0.006636627 0.04996091
-0.17100385 -0.10013177 0.19144316 -0.1538636 0.03100814 0.23100232 0.11024192 0.026347037
-0.17341346 0.12969285 -0.12084157 -0.036462326 -0.04880562 -0.032465715 0.03147546 0.20371664
0.10184025 0.29918632 0.21991667 -0.13225804 0.08664583 -0.123139136 -0.03494656 0.13958935
0.0027804507 0.084160104 -0.12090241 -0.03892012 0.119712226 -0.28259143 0.062409125 -0.21770823
-0.046276208 -0.05327142 -0.057241414 0.1143767 0.2272436 -0.10290385 -0.18304251 -0.054404274

bias f4 [32]
00000000: 046a d83d dbbc febd a11a 703e 25fd 0dbe
00000010: bf00 88bb f5d9 413e babc 973d f1bc aabd
00000020: 0d1e 373d e0ac 513d 002f cfbd 99e0 8fbd
00000030: 52f2 8f3d 60d6 83bd 27c0 4d3d dad9 603e
00000040: 88ed ca3c 8894 d63c 6f58 403d 0ee5 ed3d
00000050: 9ba5 6b3e 826e b5bd 80b2 f63d 4454 7dbc
00000060: 938f 96bb f894 51bd 9308 823d 18d4 0dbd
00000070: dfee c43c af47 fcbb 1b83 153e e8a7 dbbd
0.10567096 -0.12438365 0.23447658 -0.13866098 -0.0041504796 0.189308 0.074090436 -0.08336819
0.044706393 0.051190257 -0.101163864 -0.070252605 0.07028641 -0.06437373 0.05023208 0.21958104
0.024771467 0.026193872 0.046959337 0.11615954 0.23012392 -0.08858968 0.12045765 -0.015461985
-0.004594752 -0.05116746 0.06349292 -0.034626096 0.024039684 -0.007698975 0.14600794 -0.10725385

weight f4 [64, 32, 5, 5]
00000000: db38 df3b a63c eabb f9bd c5bc 3458 a53c
00000010: 983b 143c 9654 6cbc bd43 1dbc 9497 333c
00000020: d2d3 a6bb 2069 bd3c fbd2 04bb 629e 203c
00000030: 0ff8 083c ab2a 63bc 4fdf 633c 995b e03c
00000040: 68d9 803b 3baa df3b 4539 203b b297 f33c
00000050: 5f14 0fbc a38c 04bc 1779 d33c bb42 99bc
00000060: aa6c 4d3c 435c 7ebc 9d18 d83c 0dcc f2bc
00000070: 10d9 b43c c756 063d 9d38 de3b b64d 4639
00000080: 379f 0e3d 047a 93bc a47f eabb 2587 7abc
00000090: 1a6a 03bc 4f08 ad3b 58e3 98ba 68a7 49bc
000000a0: 2248 10bd 77ea 963a 7621 57ba df44 ed3b
000000b0: dde2 e53c 5fec 183d 5ba1 8bbc 14a2 373a
000000c0: 30e4 2fbc 6ac2 03bd 6881 cebc 380a f93c
000000d0: 1ff8 6d3c 1fe7 933c e2ee ae3c 7a93 bcbc
000000e0: a6e5 573b e935 e63c eaef 9cbc b98f 093d
000000f0: 7c61 803c a093 c33c b4b7 85bc c0ad 993c
00000100: f894 ddbc 8bf0 9abb 02d9 983b 42a0 c53b
00000110: 80a2 f43c 5c28 223d f16d e33c 89e4 a03c
00000120: 6cb8 c03c 54f4 b9bb 6932 d4bc 1646 a2bc
00000130: 34ec 3abb adb9 97bc 6460 723c 9a72 753b
00000140: f675 4db9 f705 1c3c 8b5e ef3c 4f69 ed3b
00000150: 1987 19bd 0f1d eabc daf5 873c a9ca 343b
00000160: 0971 483c 44ca 22bd 70f5 01bd 8495 b73c
00000170: b5f3 823c f725 24bd fe16 ce3b 3485 e0bc
00000180: 11ac d13c 9061 9b3b 9052 f23c 2702 29bd
00000190: 57c0 13bd 0c88 b43c ea24 f83c bce9 a53c
000001a0: 44b6 a63c cbe1 f5bc 01c4 c43c df43 17bd
000001b0: 38e3 cc3b 0eb8 d3bc 42e6 30bc 551a e03b
000001c0: 815f 78bc 7b6c 1cbc 4c3e 1cbd de7c 0dbd
000001d0: 6ced 433c 6016 82bc eefe bbbc 178d 61bc
000001e0: 3450 fabc d283 d0bc 2990 c13c d5c7 9b3c
000001f0: c8d6 cf3b 7074 a7bc b51b 5e3c c7e3 303b
00000200: 3965 ecbc 7109 a73b f0aa 223d aa29 d6bc
00000210: ff46 00bd cf2c 063c 8094 043d c38d 0abc
00000220: ec0e 863c b15e b43c 7987 403c c509 123c
00000230: 414d 263d 7ff3 a43c 3bcc ffbc 061d a8bb
00000240: 1326 853c c107 0a3d d5fe fabc ceb5 c73c
00000250: f4a2 d0ba e903 d6bc 4226 9d3c 0046 a9bb
00000260: e830 a83c 1eef 31bc 7078 9abc 4cd8 003b
00000270: 36f5 0abc 4398 de3c d556 293c c89b fa3c
00000280: fdf3 683b b53e 7ebc e796 a93c 279d 5b3b
00000290: f861 033c 0b89 64bc 999a 3a3b a3f4 753b
000002a0: da75 6d3b 9c48 aebc 1ace 1f3b 25d3 96bc
000002b0: 3a1e 403c 75e6 173d 04e5 68bc 59cb b1bc
000002c0: b27a 22bc 49f9 38bc d4f7 9b3b 914f a33b
000002d0: 7d67 603c 7e33 ffbc 69ae e8bb f572 803c
000002e0: ae0a e73c 312d 0fbc efc3 c0bc 904a 3b3c
000002f0: 1d08 c43c dfd6 84bc 594e 8dbc a45e c03c
00000300: 9a03 ce3b 86ca e2bc 8637 91bc 6b16 893c
00000310: dfe5 15bc c32a dd3c 2cdb f53c 7c70 e83b
00000320: b845 cdbb 69c3 45bc 9b16 98bb 4fa3 de3a
00000330: a22e ffbc 6274 3abc a59b eebc 3b5c 933c
00000340: 23ed d1bc e25d ec3c 864f 49bc 7c84 bdbc
00000350: 4a99 3b3c 9623 fdb8 b8c0 a13c 3c4a 393c
00000360: bdac 0fbd e263 9b3c 9e0a 1bbc 2e89 93bc
00000370: 259d c03c 218a e83c 5e96 02bd 88e1 a1bb
00000380: 3002 e23c 4b0a 663c bb9a d83c 6adf 82bc
00000390: 7193 afbc 5cfc f63c a3b5 323c 7f96 f03c
000003a0: 1afc 91bc 5640 bebc 4cf5 dbba a050 15bd
000003b0: 82f3 653c 6db7 e93c 78c9 3f3c 2163 d739
000003c0: 1bc2 8e3c dbfc 9ebc 5415 213d 9534 05bd
000003d0: 9435 04bd fd38 24bc adf3 db3c 03f2 0d3b
000003e0: 9d35 4b3c fa5b cabc 26fe 603c 6d35 9fbb
000003f0: aa19 513c fa01 cc3c 1340 833c 91ad bbbb
0.0068121976 -0.007148343 -0.024138438 0.02018366 0.009047411 -0.014424464 -0.00959867 0.010961432
-0.005091169 0.023121417 -0.0020267356 0.009803386 0.008359923 -0.013865153 0.013908221 0.027387427
0.003932167 0.006825713 0.0024448198 0.02973542 -0.008732884 -0.008090171 0.025814576 -0.018708577
0.012538115 -0.015524927 0.026378924 -0.029638315 0.02207616 0.0327976 0.006781651 0.00018911701
0.034819808 -0.018002518 -0.007156329 -0.01529101 -0.008020902 0.0052805315 -0.0011664433 -0.012307979
-0.03522504 0.0011513968 -0.0008206585 0.007240876 0.028062278 0.037334796 -0.017044714 0.00070050475
-0.0107355565 -0.03216783 -0.02520819 0.03040038 0.014524489 0.018054543 0.021354143 -0.023019541
0.0032943278 0.028101878 -0.019157369 0.03358433 0.015671484 0.023874104 -0.016322948 0.018759608
-0.027048573 -0.004728382 0.004664541 0.006031067 0.029862642 0.03958927 0.027762385 0.019640224
0.02352544 -0.005674878 -0.025902944 -0.01980881 -0.0028522136 -0.018521154 0.014793489 0.003745234
-0.00019594267 0.0095229065 0.029219886 0.00724522 -0.037482355 -0.02857831 0.016596723 0.0027586615
0.012233981 -0.039743677 -0.031728208 0.022410162 0.01598535 -0.04007527 0.006289362 -0.027407266
0.025594743 0.004741855 0.029580384 -0.04126182 -0.0360721 0.022037528 0.03029104 0.020253055
0.020350583 -0.030014893 0.024019243 -0.03692996 0.0062526725 -0.0258446 -0.010797085 0.0068390765
-0.015159489 -0.009547348 -0.03814535 -0.03454291 0.011958461 -0.01587981 -0.022948708 -0.013766549
-0.030555822 -0.025453482 0.023628311 0.019016186 0.0063427426 -0.020441264 0.013556411 0.0026991235
-0.02885686 0.005097561 0.0397138 -0.026142914 -0.031317707 0.008189394 0.032368183 -0.00845665
0.016364537 0.022017809 0.011751049 0.008913462 0.04060102 0.02013564 -0.031225314 -0.005130413
0.016253507 0.0336988 -0.030639092 0.024378683 -0.0015917704 -0.026124911 0.019183282 -0.0051658154
0.020531133 -0.010860233 -0.018856257 0.0019660173 -0.008481314 0.027172213 0.010335644 0.03059186
0.003554582 -0.01551788 0.020701839 0.0033510418 0.008018963 -0.013948689 0.0028473495 0.0037529848
0.0036233575 -0.021274857 0.002438432 -0.018411228 0.011725957 0.037085015 -0.014214758 -0.021703409
-0.009916948 -0.011289903 0.004759768 0.0049838503 0.0136965485 -0.031152483 -0.0071008694 0.015679816
0.028203335 -0.008738802 -0.023530928 0.011431351 0.02392965 -0.01621574 -0.017249273 0.023482628
0.0062870504 -0.027684461 -0.017726671 0.016734323 -0.009149044 0.02699793 0.030011736 0.0070934873
-0.0062644146 -0.012070515 -0.0046413667 0.0016985926 -0.031150166 -0.011380287 -0.029126951 0.017988315
-0.02562577 0.02885336 -0.012287026 -0.023134463 0.011450121 -0.000120706085 0.019745216 0.011309203
-0.035076845 0.018968526 -0.009462981 -0.018009748 0.023512432 0.028386177 -0.031881683 -0.0049402155
0.027588934 0.01404054 0.026440969 -0.015975673 -0.02143261 0.030149631 0.010907563 0.029368637
-0.017820407 -0.023224037 -0.0016781478 -0.036453843 0.014035108 0.028529847 0.011705749 0.00041081852
0.017426541 -0.01940768 0.03932698 -0.03252085 -0.03227766 -0.010023353 0.026849592 0.0021659143
0.012402919 -0.024702061 0.013732469 -0.004858664 0.012762466 0.024903286 0.016021764 -0.005727478

bias f4 [64]
00000000: bdd4 69bc 47a2 b83b aff6 113c 9ae4 af3c
00000010: 6cba 66bc 812a fb3b de5f ccbc 2613 dcbb
00000020: 3774 803c b573 c73c 8bac c3bc d992 13bc
00000030: 9de8 a7bc d808 7d3c 6d1e 9fbc d25f 1a3d
00000040: ef34 973c d504 0cbc 4d7c 01bb c6a2 073d
00000050: f486 aa3b 359b b3bc 037b f63c f880 03bd
00000060: abc5 edbc ed5d 94bc 9a4a dfbb 5dec e53c
00000070: b571 373c d0a7 093d 3b9b a3bc 50f9 9abc
00000080: 54d4 f9ba 93e4 123d 1dbc eebc 6e02 9c3c
00000090: 9d71 643c 6415 a03c dd30 13bc 2549 183d
000000a0: 8a07 1a3d 9bd0 fc3c 2ac3 49bb 97ac f8bb
000000b0: 27c6 c1ba e455 1b3d 5dd7 983c b28a 76bc
000000c0: 92c2 12bd c320 a73c 9dea cc3c 7a34 b73a
000000d0: 8ae0 f9bb 7c2b 40bc 701b 4cbc 2551 ebbc
000000e0: 2d14 9bbc ed10 2ebc 2d9d 6fbb ec0d 00bd
000000f0: 02eb 1f3c 9f7a a93c 5fcd dfbc 77ce 1bbc
-0.014271912 0.0056345793 0.008908912 0.02147131 -0.014082532 0.007664979 -0.024948057 -0.00671615
0.015680416 0.024347166 -0.023885986 -0.009007179 -0.02049666 0.015444003 -0.019423688 0.037689038
0.018457858 -0.008546074 -0.0019757927 0.033114217 0.005204076 -0.021924594 0.030087953 -0.032105416
-0.02902492 -0.018111194 -0.006814313 0.028066808 0.011196543 0.033607304 -0.01997148 -0.01891771
-0.0019060471 0.035862517 -0.029142434 0.019044127 0.013943103 0.01954145 -0.008983818 0.03717913
0.037604846 0.03086119 -0.0030786493 -0.0075889337 -0.0014783785 0.03792371 0.01865738 -0.015047716
-0.035830088 0.020401364 0.025014216 0.0013977431 -0.007625644 -0.0117291175 -0.0124577135 -0.028725216
-0.018930519 -0.010624153 -0.003656219 -0.031263277 0.00976062 0.020688353 -0.027319608 -0.009509674

weight f4 [512, 64]
00000000: 7be3 ac3d a114 e0bd f69d 5abd b98c 85bd
00000010: 7ee8 e33d bbfd c23d d0d3 bd3d 52e4 ee3d
00000020: 79bf e8bc cc71 cfbc c57c 043d 0a89 eabc
00000030: 6e2f da3d 2014 1f3d 6625 83bd a466 c63d
00000040: ae08 eb3d 15cf c03d 7103 453d a6b2 1a3d
00000050: b426 f0bd 7184 893d a55c b63c ee45 b03d
00000060: 7ec7 153c 3eb5 0a3d bd08 823d 8c5f 723d
00000070: 7e9f ea3c e566 cdbd b0ff efbd 977f f03d
00000080: 050d a1bd 362f 733d a14c 913d d5c9 d4bd
00000090: 9da9 4cbc a8e2 9d3d 1b87 a7bd 46f9 a4bb
000000a0: b1bb 953d 9d90 0c3b 32d8 453d 3456 dbbc
000000b0: cea2 77bd 412d b23d 47e0 e73d aa6b d13d
000000c0: a79b dabd 46a4 ba3d a7ad 2abd c883 ed3c
000000d0: f8f2 b83d 4ffc 27bc e719 05bd cef8 e0bd
000000e0: b008 6f3c 3896 963c 492a 6f3d 8ea7 cdbd
000000f0: 8c01 a6bd d1f1 e83d ad3a bc3c 51e9 a7bc
00000100: d786 f43d 4819 333c 1d91 063e 6f00 2e3d
00000110: 794e 18bc 6f46 a13d 625f 5c3b b697 c2bc
00000120: 3aac e23d 8d3d 44bc 732f 3fbd 83b1 d1bd
00000130: 9c9a 75bc 5fa3 febd 8892 d1bd a2e5 7b3d
00000140: a8ee dcbd a10a 5a3d e07a 6e3d ed47 843d
00000150: 0731 ab3d 65fd 323d e720 9f3d ee07 febd
00000160: 192c 823d 76f9 023e 45e9 fc3d 02a2 c8bd
00000170: e660 eabd 67c6 993d 0c89 febd 6d5d a7bd
00000180: b01c c83c ce4b 353d 3068 023e 6372 a2bd
00000190: 64a2 a13d 6ea9 ab3c 05b7 203d 5a08 223d
000001a0: 461d b83d ccbf e2bb 9474 333d 9883 5fbd
000001b0: 28a5 973d d150 d63d 7b58 8c3d c3be fdbd
000001c0: 15bc a93d 4ece 163d 4896 123d 001d 973d
000001d0: a29b debc e879 023e a149 94bd 8e52 b43d
000001e0: 59a8 1f3d 17f7 ccbb ecad b1bd a507 88bc
000001f0: 1314 03be 9349 00be 9317 a4bd 2c02 773d
00000200: 5b49 383d 1b34 3fbd 42c0 c0bc c491 60bd
00000210: 8b11 963b c87c 3e3d 4003 fa3d 4507 c13d
00000220: b91c 8f3c d3ee 963d 4256 79bd 81f8 26bb
00000230: 904f 213c 18fb bcbd 53ef 45bc 43d6 bf3c
00000240: b388 06bd a7e5 ee3d 2162 fbbd 6613 673d
00000250: 88e8 ac3d e531 d8bd d982 d5bd 1e2d 4cbd
00000260: 6ed4 233d 4556 c33c 5f13 d9bc 7aa8 8abd
00000270: a530 94bd 96b7 f9bd b934 8abd dd17 d73d
00000280: faf6 dbbc 2421 51bc d62f fabd 8fe7 983d
00000290: 50ee 60bd 3448 2dbd 2417 7fbd 7524 753c
000002a0: a745 9cbc 782d 8a3d f00c f7bc f78d a0bd
000002b0: 9fa3 84bd 3d2f 0abc 68a6 fb3d 4cd7 893d
000002c0: 3748 713c 1a65 bfbd d973 fe3d eccf 8e3d
000002d0: abaf 603d 34a2 003c eac2 4cbd 1496 22bd
000002e0: d7c3 683c dff7 ab3d df54 0a3c 2b58 5f3d
000002f0: 663e 3c3c c357 adbc 874b a2bc e0ef 99bd
00000300: 8d0c 613d 0f53 febc c669 a5bc 34f5 ebbd
00000310: 58be 0a3d 7148 9abd 3003 933c 5907 8cbc
00000320: 307c 003e b401 e5bd 9f85 953d fd8f 333d
00000330: 7040 f63d 920a e2bd 9dae c83d 1633 8c3d
00000340: 4d25 c83d f237 db3d cd8a d33d 2316 0f3d
00000350: d15a 38bd 4403 debc ff2a 5fbc 42e3 7fbc
00000360: 63ad bdbd b7a6 143d 97c4 d1bd e661 c8bd
00000370: 4df5 e2bc 081b dabd b64d af3d 1ede 3dbd
00000380: 4316 8ebb d334 a6bd 715e 833c d44c 213c
00000390: a441 c3bc 9d26 d2bd 7c0f 77bd c059 d43d
000003a0: e2ec 1cbd af19 e4bd 2c72 5bbd 5ea7 c63d
000003b0: a70e d93c da2b 0abc 5c93 a3bd dd30 f3bd
000003c0: 3cf6 a53d 7c71 9a3d 0491 c1bd 79d0 8d3d
000003d0: 3fff e23d 0d79 cfbc c641 923d 5847 dd3d
000003e0: 527f e6bc 0a35 553d db83 5f3d d7e2 b7bd
000003f0: 6fa0 3d3d be0c ecbd e4df 8a3c aa47 8f3d
0.08441826 -0.10941435 -0.0533733 -0.06520981 0.11128329 0.095210515 0.09268916 0.116646424
-0.028411614 -0.025322817 0.032345552 -0.028629798 0.10653578 0.038837552 -0.064036176 0.09687546
0.11476265 0.09414498 0.048098985 0.03776803 -0.11726132 0.06714714 0.022260973 0.08607088
0.009141801 0.033864252 0.06349323 0.05917315 0.028640505 -0.10029391 -0.117186904 0.11743086
-0.078638114 0.059371196 0.07094694 -0.10390059 -0.012491611 0.07709247 -0.08180066 -0.0050345985
0.0731119 0.00214485 0.048301883 -0.026774503 -0.060457997 0.08700038 0.113220744 0.102256134
-0.106742196 0.09113364 -0.041669514 0.028993502 0.090307176 -0.010253026 -0.032495406 -0.10984956
0.014589474 0.018382177 0.058389936 -0.10041724 -0.08105764 0.11374248 0.022977198 -0.020496996
0.11939781 0.0109313205 0.13141294 0.042480882 -0.009296053 0.07874762 0.0033626189 -0.023753982
0.11068006 -0.0119775655 -0.04667611 -0.10238936 -0.014990475 -0.12433504 -0.10233027 0.06149829
-0.107877076 0.053232793 0.05822265 0.06459031 0.083589606 0.043698687 0.077699475 -0.12403856
0.06356067 0.12790474 0.1234918 -0.097965255 -0.11444263 0.07508545 -0.12428483 -0.081721164
0.024427742 0.044261746 0.12735057 -0.07931974 0.07892302 0.020954814 0.03923704 0.039558746
0.089899585 -0.0069198366 0.04381235 -0.054568857 0.07404548 0.10464633 0.06852814 -0.123899005
0.08287827 0.03681784 0.03578785 0.07378578 -0.02717382 0.12741816 -0.07240606 0.088048086
0.03897891 -0.0062550413 -0.08675751 -0.016605208 -0.12800626 -0.12528066 -0.08012309 0.060304806
0.044991832 -0.04668055 -0.023529176 -0.054826513 0.004579728 0.04650572 0.12207651 0.09425215
0.01746975 0.07369771 -0.060873277 -0.002547771 0.009845629 -0.0922758 -0.012080985 0.023417598
-0.03284521 0.116648965 -0.12274576 0.056414984 0.08442789 -0.105563916 -0.10425348 -0.049847715
0.03999751 0.023844847 -0.026498495 -0.067704156 -0.07235841 -0.12193219 -0.06748337 0.105025984
-0.026851166 -0.012764249 -0.12216155 0.07466041 -0.054914773 -0.042305186 -0.062277928 0.014962305
-0.019076182 0.06746954 -0.030157536 -0.07839578 -0.06476521 -0.008434114 0.12287599 0.06730518
0.01472669 -0.093454555 0.1242444 0.06973252 0.05485503 0.007851172 -0.049990572 -0.039693907
0.014206848 0.08396887 0.008443086 0.054527443 0.011489486 -0.021160012 -0.019811405 -0.07516456
0.05494361 -0.031045465 -0.020192038 -0.11521378 0.033872932 -0.07533348 0.017945856 -0.017093347
0.12547374 -0.111819655 0.07300877 0.04383849 0.12024009 -0.110371724 0.0979893 0.06845681
0.097727396 0.1070403 0.103292085 0.03493322 -0.045008484 -0.027101167 -0.013621091 -0.015618147
-0.092615865 0.036291804 -0.10242575 -0.09784298 -0.02770486 -0.10649687 0.08559744 -0.046354406
-0.00433615 -0.08115544 0.016036244 0.009844977 -0.02383501 -0.10261271 -0.0603175 0.10368681
-0.038311847 -0.11137711 -0.05357568 0.096998915 0.026496245 -0.008433307 -0.07987091 -0.11874554
0.08103606 0.07541177 -0.09451488 0.06924529 0.110838406 -0.025326276 0.071414515 0.10804623
-0.028136883 0.052052535 0.054569107 -0.08978813 0.04629558 -0.11525868 0.016952462 0.06996091

bias f4 [512]
00000000: bacb d53d bef2 e6bd 81ae babd 5053 a3bd
00000010: 7103 383d bbcb b2bd 3365 c4bd 1543 463d
00000020: 49ac b8bd c79e afbd 9974 e93d d18d 963d
00000030: 50fc b0bd 9777 f63c 001e ba3c 766f 8f3d
00000040: 77c2 893d 31cf fc3d 98ca 0a3d b0dd ae3c
00000050: 062f 64bc edf5 f03c 5336 04bd 31c2 dd3d
00000060: 9788 f13d e02d 7cbc e945 043d bf03 c4bd
00000070: a53e c4bd 0301 b1bd aa21 bdbc 94d7 963d
00000080: 0cb0 02bc 33c8 c8bd 3811 0e3d 5069 9b3d
00000090: 7f4d d4bd e37f eebd be3d 69bd 47ac fd3c
000000a0: ab80 283d fab3 8cbd d02c bf3c 978a 94bc
000000b0: 0cb2 9ebb 51bc f73d fb3e 4d3d a5db 64bb
000000c0: eea8 ae3c c11c 70bd 1d93 ba3d fd03 fcbb
000000d0: e729 753d 9c7d 24bd 7487 233d 60a0 523d
000000e0: 3a50 813d 1ebe 57bc 1fcc 76bd d614 233d
000000f0: bb9b c83d f5a6 16bd fe64 7abc 6e25 4e3c
00000100: 4d53 933d b64c 1d3d 3043 04bd cf6c 223d
00000110: f1a6 2bbd 477c 12bd 6e71 d73d 7c80 cebd
00000120: 8b64 e6bd 5f3e 75bb 0e7a e3bd 091b 22bc
00000130: c666 943d 9c13 8dbc 9f0a b43c e85e d73d
00000140: b9e4 a4bd 2791 af3d 1f3b b33d 1c34 1b3d
00000150: 06a7 a63d 8e91 b3bd bd58 9f3c 4aa9 8fbc
00000160: 597b 68bd 001a fd3c 9b95 fabd 0ad4 d53d
00000170: d240 f4bd 36ff 003e 6aa3 183d 7b8e bd3d
00000180: 9e5d 8cbd 5cf3 69bd 7a8e bd3c ba17 a6bd
00000190: 5ce6 a8bd 78aa fabd 8e7d 993d 7890 1cba
000001a0: 2711 b53d fc60 db3d 8dd6 2f3d c0b3 393d
000001b0: 5690 70bd cdc4 263d 3bee 4cbc fb82 f8bd
000001c0: e1e2 c13c 830f f9bd 1eaf fabd b349 b4bd
000001d0: 1381 4ebd 3a15 e2bd 6358 073d 4f17 dcbd
000001e0: 0aef dd3c da14 afbd 9778 7d3d c6df 9a3d
000001f0: 32b7 0f3c dc63 f3bd 3f9b 8b3d 9a09 743d
00000200: 5bdf e9bd 725e 313d 3423 dcbd a2fb c5bd
00000210: 5cc7 96bc dde1 99bd 3c18 3ebd 4dbd ac3d
00000220: c069 19bd 4fa4 ee3c a4e6 cebd 7a32 f13b
00000230: c85b 443d 5bb8 e1bd 8392 57bd 8a32 9dbc
00000240: b58b e5bd b493 53bd 5731 d73d ef94 f43d
00000250: ea3d 023e 927e fe3d ad1f ed3d 6a87 b4bd
00000260: 9105 5c3d 8d7b dabd bd1d 943d 6e94 fbbc
00000270: 7b44 dc3d 8ad3 6fb9 591e d0bc b234 a53d
00000280: 82d7 e63d b299 353d 1688 b43c 4aa0 8b3d
00000290: 8cf6 9fbd 18dd 40bb e1ce 05bb 7656 b2bd
000002a0: 8797 193d 7a36 aa3c d551 e5bc d04c 203c
000002b0: dd05 e1bd 4f81 c63d b85e ecbc 2447 b03d
000002c0: 17b4 d0bd b3f4 c63c 903d 75bd 8391 edbd
000002d0: 3b4c e63d e79c 063d 2ea4 17bd 8f85 8a3d
000002e0: 9e02 d0bd 054e ec3d 7985 a4bd 3737 99bc
000002f0: a101 2b3d 3ae1 f7bd 0af4 a03d 3161 213c
00000300: 118b 2dbd 1bab 763d e762 83bd c17e eebc
00000310: 8c2f 8ebd 1f96 adbc 49f4 5abd ec35 4cbd
00000320: f8ca 503d a718 403d 4c74 d1bd a0cf d63a
00000330: 0578 b43d 9fec 59bd b2bb 403d a092 b9bd
00000340: 2269 dc3d 63a4 fd3c d63a 63bd cd67 bc3d
00000350: 5a4c 963a c14b 2c3d ee38 89bd cb97 533b
00000360: b391 92bd 0646 b63d bc66 b43d aee8 78bd
00000370: a3ec 20bb 01d7 fb3c d980 343d 1d6f 8cbd
00000380: 7c4a 993c 4875 843d d56d f1bd 89be 8cbc
00000390: e1d2 2c3d 2ef3 af3d 20b9 e4bc cde9 9abd
000003a0: 742f d53c dd2e ab3c d67a fc3d dc7a b33d
000003b0: b639 6fbc 289e 81bc a8c0 d53c c416 e6bd
000003c0: f374 be3d 4db5 7e3d 2f2b 6d3d 8a8b b0bd
000003d0: eebe 243c 3e44 b23d e3af 8a3d d188 57bd
000003e0: 0644 01bd a859 97bd ba18 323c 0c00 eebd
000003f0: 68b9 bc3d 98a4 06bd 29b9 983d 3041 15bd
0.104392484 -0.11276768 -0.09115315 -0.07974875 0.044925157 -0.08730265 -0.09589615 0.04840382
-0.09017236 -0.08575206 0.11399192 0.07351268 -0.08641875 0.030086322 0.022719383 0.07003681
0.06726544 0.12344206 0.033884615 0.021345943 -0.013927227 0.029414142 -0.03227837 0.10828055
0.117936306 -0.015391797 0.032293234 -0.09571027 -0.09582261 -0.08642771 -0.023087341 0.07365337
-0.007976543 -0.0980381 0.03468439 0.07588446 -0.10366344 -0.11645486 -0.056943648 0.030965937
0.041138332 -0.06870265 0.023336798 -0.018132491 -0.004843002 0.120964654 0.05010889 -0.0034920957
0.021320786 -0.05862117 0.09110091 -0.007690905 0.059854414 -0.040158853 0.0399241 0.051422477
0.0631413 -0.013167886 -0.06025326 0.039814793 0.09795328 -0.036780316 -0.0152828675 0.012582166
0.07193623 0.038403235 -0.032290637 0.03965455 -0.041907255 -0.03576305 0.10519682 -0.100831
-0.11249646 -0.003742121 -0.111072645 -0.009894141 0.07246165 -0.017221265 0.02197772 0.10516149
-0.08051438 0.085726075 0.08751511 0.037891492 0.08137326 -0.08767997 0.019451493 -0.017536778
-0.05675826 0.030896187 -0.12235566 0.10440834 -0.11926426 0.12597355 0.03726522 0.092556916
-0.068537936 -0.05711685 0.023139227 -0.08109994 -0.082470626 -0.122395456 0.07494651 -0.0005972455
0.08841162 0.10711858 0.04292922 0.04533744 -0.0587314 0.040715028 -0.01250797 -0.121343575
0.023667755 -0.12161162 -0.12240432 -0.088031195 -0.050416064 -0.11039205 0.033043277 -0.10746633
0.027091522 -0.08548899 0.06188258 0.07562213 0.0087717045 -0.11884281 0.0681672 0.05957947
-0.11419555 0.04330296 -0.10748902 -0.09667136 -0.018405609 -0.07513783 -0.04640983 0.08434544
-0.037454367 0.029131083 -0.10102585 0.0073607536 0.047939092 -0.11021491 -0.05262996 -0.019189138
-0.112082876 -0.051654533 0.10507458 0.11942469 0.12718931 0.12426485 0.11578307 -0.08814891
0.053716246 -0.10668097 0.072322346 -0.030710425 0.10755249 -0.0002287162 -0.025405096 0.080666915
0.112715736 0.04433603 0.022037547 0.06817682 -0.07810697 -0.0029428657 -0.00204175 -0.08707897
0.037498023 0.02077793 -0.027993122 0.0097839385 -0.109874465 0.096926324 -0.02885376 0.08607319
-0.101905994 0.024286604 -0.059873164 -0.1160002 0.112450086 0.032864477 -0.03702181 0.067637555
-0.10156749 0.115383185 -0.080332704 -0.018703086 0.0417496 -0.121035054 0.07859047 0.009849832
-0.042368952 0.060221773 -0.064153485 -0.029113175 -0.069426626 -0.021189747 -0.053455625 -0.04985611
0.050974816 0.04689851 -0.1022726 0.0016388781 0.088119544 -0.053204175 0.047054 -0.090611696
0.1076224 0.030962175 -0.055476032 0.09199486 0.0011466846 0.042064432 -0.067003116 0.003228652
-0.07156696 0.08900075 0.088086575 -0.060768776 -0.002455511 0.03074217 0.04406819 -0.06857131
0.018712275 0.06467682 -0.11788527 -0.017180698 0.042193297 0.08591305 -0.027920306 -0.07564125
0.026023604 0.02089637 0.123281166 0.08763668 -0.014601162 -0.015822485 0.026092842 -0.11234811
0.0929965 0.06218462 0.05790251 -0.08620365 0.010055287 0.087044224 0.06771829 -0.052620713
-0.031559013 -0.073901474 0.010870153 -0.11621103 0.09215051 -0.032871813 0.074571915 -0.03643912

weight f4 [10, 512]
00000000: 6098 19bd fdd2 27bd 325a ed3c e2e2 d13c
00000010: b66a 7e3c f52c 013d a25e a2bb fc38 193c
00000020: c751 a13c a994 c2bc f30b 3dbc cf0a 95bc
00000030: ab4e bebc 6e45 b0bb d789 eaba 26e3 b2bb
00000040: d5eb 78bc b01f a9bc c195 153d acf7 7e3c
00000050: dd5a 14bc 5fd7 22bd d365 50bd 7479 a03c
00000060: d66f 5fbd 16dd 67bc 6621 ecbc f48e c1bc
00000070: e218 0dbd 7615 64bc d422 c7bc ffc5 85ba
00000080: 04f6 273b a48e 04bd 6ab0 3abb f8f1 0fbd
00000090: 570e b7bc a013 97bc 39d8 16bd d872 87bb
000000a0: b45c 37bb 2179 013d a30d 95bc 158c 2bbc
000000b0: 054e 193d 42f0 50bc fff6 e43c 6448 90ba
000000c0: 13e4 0e3c 4fd5 53bd 8533 27bd 7aa8 273d
000000d0: 69ab db3c 2b31 8abc 7ade f1bc 708b de3c
000000e0: 33c5 d33b c457 03bc 8c43 513c 4324 dd3b
000000f0: 80b2 5dbd f261 da3c 9d16 21bd 38b3 22bd
00000100: 3c82 00bd ef24 a1bd 3396 b2bc c491 6cb9
00000110: 79e7 2c3d f58f 08bd 0340 153d d4ff 1d3c
00000120: 265a 22bb c1fc 8c3b 2e8e 00bd 0c2a 1bbd
00000130: 4078 2fba d751 ddbb e93f c7bc 467d 00bd
00000140: d94e 183d 569d 34bd b242 073d 68d8 983b
00000150: 4eb8 3cbd 36d1 39bc 4b08 bdbc 5603 a93c
00000160: b6e1 073d 6ccc acbc 9e9a cbbc 6c07 16bb
00000170: f0e9 11bc 41b1 643c 0a7a 9e3c 451d fe3b
00000180: 2881 ac3c aa14 a03c 8c8c e0bc e24a 25bd
00000190: 3885 36bd a993 223d 7268 b4ba af00 20bd
000001a0: 3b98 bc3c 784d 1ebc 32a8 b4bc 8ca7 0fbc
000001b0: bc20 09bc d6bb 1e3d d73d 09bd e244 b83c
000001c0: 1c78 13bd 42e6 bf3c d119 273d 1037 0b3c
000001d0: ac4c 3fbc 434b 32bd 1f5b aa3c e0ec d43c
000001e0: a786 3fbc 592d 0fbd 4e9d 84bc a212 e93c
000001f0: 7dd7 1fbd d487 1fbd f286 e4bc c561 133b
00000200: a198 c13c 52ce 173d 1905 103d 1c45 65bc
00000210: 9afc 3bbc 1a15 d13c 0b65 16bc 3b42 f93c
00000220: 616b 6e3c 026d 0abd eb24 35bd 5025 2e39
00000230: fc15 4ebd 27f7 c3bc c663 093c 175d 19bc
00000240: 4a37 f2bc fe74 7fbd 0c25 50bc 83d8 b83c
00000250: 3cee 94bc 76e9 273d 930a 20bd 8499 b6bc
00000260: 4ec2 903c 9c4f c7ba d0a4 03bd fbe9 723b
00000270: 453d 09bd 0c80 deba 7c68 75bc d061 a4ba
00000280: e3c7 bb3c eeac 12bd 3cd3 63bc e079 493c
00000290: 38f4 1cbc ab83 ad3c b8f6 003d d859 063d
000002a0: af1c 8f3c e9fb a2ba 9651 81bc ae59 8fbc
000002b0: fa03 303d 13e5 14bd b0c9 4c3b 942d 04bd
000002c0: 15b0 b5bc fdc7 c7b9 64a1 f7bc 9cf1 a4bc
000002d0: 2891 60bb 9ec4 48bd 05de 0ebd 35d8 403c
000002e0: 50dd 9b3b 3c30 0abc 19a3 2a3d 72c3 a2bc
000002f0: fe7f 25bd 2619 273d 79c8 84bc df11 94bc
00000300: 3175 e6bb 58a1 26bd 78c1 f1bc 58e8 093c
00000310: ef43 ac3c d65d 48bc 72ab 1bbd 7d4a 0ebd
00000320: 59da 07bb 469c 6cbd 9c07 0f3d 3f51 aa3c
00000330: 976a 44ba 323a 7fbc ddf9 bb3c 046a 28bd
00000340: 8299 f7bc 2c95 083c ba70 bd3b a18b d8bc
00000350: 601f 02bb 419b 4e3b 89ec 39bc e691 06bd
00000360: 00f4 fe39 356d 53bd 5506 453c 239d d0bc
00000370: 4721 dd3c 6138 67bd 8ada 943c 5af2 013d
00000380: 7c4f 9fbc 43ec febc 6983 1d3c 0c65 e2bc
00000390: 10d3 26bd ca8d 943c 2e22 a23c aedb 713c
000003a0: c59f 1ebd 13d1 04bd ea09 073d 2aa4 273d
000003b0: 9a32 40bd f6d7 f1bc d106 45bd 2fde fe3c
000003c0: bdcb 013d 8802 febb a2f9 d73c cbd4 0fbb
000003d0: 3b79 16bd 56d5 45bc e2b4 533b 60b3 003b
000003e0: 67a3 85bb 41a6 c8bc 98a2 893b e120 253d
000003f0: 5e7c f53b 0bba 41bd c225 5fbd f8c7 b93a
-0.03749883 -0.0409727 0.028973673 0.025620881 0.015528372 0.031537015 -0.0049551288 0.009351965
0.019692315 -0.023752527 -0.011538493 -0.01819363 -0.023230871 -0.0053793704 -0.0017893863 -0.005459207
-0.0151929455 -0.020644993 0.03651977 0.015561979 -0.009054867 -0.039756175 -0.050878357 0.019589163
-0.054550014 -0.014151832 -0.02882452 -0.023627736 -0.03444756 -0.013921132 -0.0243086 -0.0010206102
0.0025628814 -0.032362595 -0.0028486499 -0.03514287 -0.022345705 -0.018441975 -0.0368273 -0.0041335635
-0.002797884 0.03160966 -0.018194979 -0.01047041 0.03742792 -0.012752594 0.027949808 -0.0011007902
0.008721369 -0.0517171 -0.040820617 0.040932156 0.026815133 -0.016869148 -0.02952503 0.027166098
0.006462717 -0.00801653 0.012772452 0.0067487075 -0.05412531 0.026658032 -0.039328206 -0.039721698
-0.0313742 -0.07868373 -0.021800136 -0.00022561016 0.042212937 -0.033340413 0.036438 0.009643514
-0.002477297 0.0043025916 -0.031385593 -0.037881896 -0.0006693639 -0.006754141 -0.024322467 -0.03136947
0.03718457 -0.04409536 0.03302259 0.0046644695 -0.046074204 -0.011341384 -0.023075243 0.020631474
0.03317424 -0.02109357 -0.024854 -0.0022892607 -0.008905873 0.013958276 0.019345302 0.007754954
0.02105768 0.019541103 -0.027410768 -0.040354617 -0.04456064 0.0396916 -0.0013764037 -0.039063152
0.023021808 -0.009662025 -0.022052858 -0.008767974 -0.008369621 0.038753353 -0.03350624 0.022493783
-0.036003217 0.023425225 0.040796105 0.008497015 -0.011675995 -0.043528806 0.020795403 0.025991857
-0.011689818 -0.034955356 -0.01618829 0.028451268 -0.039023865 -0.038947895 -0.027896378 0.0022488695
0.02363235 0.037061997 0.03516111 -0.013993528 -0.011473799 0.025522757 -0.009179364 0.030427089
0.014551968 -0.033795364 -0.04422466 0.00016607833 -0.050313935 -0.023921562 0.008385604 -0.009360573
-0.02956738 -0.06236743 -0.012704145 0.022564178 -0.018180005 0.04099413 -0.039072584 -0.022289999
0.017670777 -0.001520622 -0.0321396 0.0037065733 -0.033505697 -0.0016975417 -0.014978524 -0.0012541357
0.022922462 -0.03580945 -0.013905343 0.012297124 -0.009579711 0.021180948 0.03148529 0.032800525
0.017469732 -0.0012434694 -0.015785974 -0.017498817 0.042972542 -0.036351275 0.0031248145 -0.03227003
-0.022178689 -0.0003810524 -0.030228324 -0.02013474 -0.0034266207 -0.049015634 -0.034879703 0.011770298
0.004756607 -0.0084343515 0.04165945 -0.019868586 -0.040405266 0.040795468 -0.016208874 -0.018074928
-0.0070330133 -0.040681213 -0.029511198 0.0084172115 0.021028487 -0.0122294035 -0.0380053 -0.034739006
-0.002072951 -0.05776622 0.034919366 0.020790694 -0.000749269 -0.01557784 0.022946293 -0.04111673
-0.030224565 0.008336347 0.0057812603 -0.026433768 -0.0019855127 0.0031525644 -0.011347898 -0.032853983
0.0004862845 -0.05161782 0.012025435 -0.025465554 0.026993407 -0.05645025 0.018170614 0.031725265
-0.01944708 -0.031118518 0.00961385 -0.027636074 -0.04072863 0.018134017 0.019791689 0.014761848
-0.038726587 -0.03242595 0.03296844 0.040928043 -0.046923257 -0.029521924 -0.048102204 0.031111805
0.03168844 -0.0077517666 0.026364151 -0.0021946903 -0.036736708 -0.012074789 0.003230386 0.0019638166
-0.004078317 -0.024493339 0.004200291 0.04031456 0.0074916324 -0.047296565 -0.054479368 0.0014173975

bias f4 [10]
00000000: 30c7 0fbd b868 87bc fe9f 8b3d 2862 02bd
00000010: bfa9 b63d 79b0 51bd 2b8a 693c 2639 96bc
00000020: a221 7b3d 9eab 013d
-0.03510207 -0.016529426 0.068176255 -0.03183189 0.08919095 -0.051193688 0.014254133 -0.018337797
0.06131137 0.031657808
