system/models/MNIST/CNN/FedPer_BaseHeadSplit_MNIST_client_5.pt (torch, 370064 bytes, 8 tensors)

weight f4 [32, 1, 5, 5]
0	0xbcd40021	-0.025878968
1	0x3d524c33	0.0513422
2	0xbe60af12	-0.21941784
3	0xbe4612c3	-0.19343095
4	0xbde419a0	-0.111377
5	0x3d1c7376	0.03819605
6	0xbd7ef708	-0.062247306
7	0x3d98a9b7	0.074542455
8	0xbda4151a	-0.08011837
9	0xbc696026	-0.014244115
10	0xbd08d253	-0.033403706
11	0xbda96ffd	-0.08273313
12	0xbe891d9f	-0.26780412
13	0xbe4f1ee5	-0.20226629
14	0xbe1e5c40	-0.15464878
15	0x3db31efe	0.08746146
16	0x3e023414	0.12715179
17	0x3e25eefc	0.16204447
18	0xbde11983	-0.10991194
19	0xbdac9505	-0.08426861
20	0x3e5b04fb	0.21388619
21	0x3ea569d9	0.32307318
22	0x3e18d57e	0.14925191
23	0x3ea885d9	0.32914618
24	0x3dde33c6	0.10849719
25	0x3cc492c2	0.02399576
26	0x3e4792df	0.1948962
27	0xbe32c45f	-0.17457722
28	0xbddcd737	-0.107832365
29	0xbd211a4f	-0.03933173
30	0xbdb96e6f	-0.09054267
31	0x3e3479e0	0.17624617
32	0xbde2d397	-0.11075514
33	0xbd961894	-0.07328907
34	0xbe0ab5fa	-0.13545981
35	0xbe5f2707	-0.21792232
36	0xbe01a367	-0.1265999
37	0x3e46820f	0.19385551
38	0x3dd80cc4	0.1054931
39	0x3db91a7b	0.09038254
40	0xbc8daaaf	-0.017293302
41	0xbdddecce	-0.108361825
42	0x3d4f2f58	0.05058226
43	0xbe4021bc	-0.18762869
44	0xbe1e1d8d	-0.1544096
45	0xbe015f46	-0.12634
46	0x3df31073	0.11868372
47	0x3df017fa	0.11723323
48	0xbde252fd	-0.11050985
49	0xbc880d0b	-0.016607782
50	0x3e3de582	0.18544582
51	0x3e86143a	0.26187307
52	0x3dc8e619	0.09809513
53	0x3c19a822	0.009378465
54	0x3dc25730	0.09489286
55	0xbd92ea22	-0.071735635
56	0x3da54edf	0.08071684
57	0xbe12a319	-0.1432003
58	0xbe36e799	-0.17861785
59	0xbe0cee96	-0.13762888
60	0x3dd6040e	0.10449992
61	0x3de54bf5	0.11196128
62	0xbddcc634	-0.10779992
63	0x3cdc1166	0.026863765
64	0x3de3b70c	0.11118898
65	0xbd6f77cf	-0.058463868
66	0x3c1cf16f	0.009579047
67	0x3d920a64	0.07130888
68	0x3e33855f	0.17531346
69	0x3e89a80a	0.26886016
70	0xbe40d5a3	-0.18831496
71	0xbd9ac42e	-0.075569496
72	0x3ded2750	0.11579764
73	0x3e7b733f	0.24555682
74	0x3e7b9db0	0.24571872
75	0x3e281714	0.16415054
76	0x3d6da406	0.058017753
77	0xbe145b6d	-0.14488001
78	0x3cb98209	0.022645013
79	0xbe1f74ae	-0.15571854
80	0xbe38dd26	-0.18053111
81	0x3e791286	0.24323472
82	0x3e536fe2	0.20648149
83	0xbe6000ff	-0.2187538
84	0xbc477554	-0.012173969
85	0xbc52434b	-0.012833427
86	0x3d770991	0.060311858
87	0xbd177132	-0.036973186
88	0x3d2921d2	0.04129202
89	0xbe398cdf	-0.18120144
90	0x3db75fc7	0.08953815
91	0x3e3012a5	0.17194612
92	0x3e2f9e2e	0.17150185
93	0x3cf4a9c7	0.029866112
94	0xbe7e2c9e	-0.24821708
95	0xbdd12a8e	-0.10213195
96	0x3e2b3247	0.16718398
97	0x3d86b703	0.065778755
98	0xbe3f255b	-0.18666594
99	0xbe180c2a	-0.1484839
100	0x3e8710a9	0.26379898
101	0x3e2cbc66	0.16868743
102	0xbd9a18e1	-0.075242765
103	0xbd249379	-0.040179703
104	0xbe40fcb8	-0.18846405
105	0x3cae0fa2	0.021247689
106	0xbe2443b7	-0.16041456
107	0xbe2b3533	-0.16719513
108	0xbc0b5fc8	-0.008506723
109	0x3d79063a	0.060796954
110	0xbdf415a8	-0.11918193
111	0x3db60fea	0.08889754
112	0xbe084fcc	-0.1331169
113	0x3e60abd0	0.21940541
114	0x3e572afb	0.2101249
115	0xbe3bad2b	-0.18327777
116	0xbd4694b4	-0.048481658
117	0x3cf10a7c	0.029423945
118	0x3d8d8842	0.06910755
119	0x3d86b5a3	0.06577613
120	0x3de85bc8	0.11345631
121	0x3d0f3c4f	0.034969624
122	0xbda791ba	-0.08182092
123	0x3dbaadae	0.09115158
124	0xbe74d8cc	-0.23910826
125	0xbe0ec875	-0.13943656
126	0xbe07aa7c	-0.13248628
127	0xbe32b4ed	-0.1745183
128	0xbdefce77	-0.11709302
129	0xbe43f4ab	-0.19136302
130	0xbd6a1183	-0.057145607
131	0xbd82bcc7	-0.06383663
132	0xbe65c727	-0.22439252
133	0xbc69678d	-0.01424588
134	0x3e454552	0.19264725
135	0x3cf8cc8a	0.03037097
136	0xbc263206	-0.010143762
137	0xbc605744	-0.013692681
138	0x3de4f030	0.11178625
139	0x3e4195aa	0.18904749
140	0x3e9dae34	0.3079697
141	0x3e81b0c5	0.25330177
142	0x3e9924c6	0.29910868
143	0x3d01bdc6	0.031675123
144	0xbe443af0	-0.19163108
145	0xbcb346f5	-0.02188442
146	0x3e7bb85b	0.24582045
147	0x3dba6f06	0.09103207
148	0xbd69bd10	-0.05706507
149	0xbe248088	-0.16064656
150	0xbe339234	-0.17536241
151	0xbe31ed8e	-0.17375776
152	0xbd88b75f	-0.066756
153	0x3d9f4f11	0.077787526
154	0x3da6b351	0.08139671
155	0xbe627ca0	-0.22117853
156	0x3d169e5b	0.036772113
157	0xbe5e9e58	-0.21740091
158	0xbdacbbac	-0.08434233
159	0xbdebffcc	-0.11523399
160	0xbdc6271f	-0.096754305
161	0xbdf6922a	-0.12039597
162	0xbe63d2af	-0.22248338
163	0xbe4a2d45	-0.19743831
164	0xbd9a7fbc	-0.07543895
165	0xbd1154e9	-0.035481367
166	0xbdff1b81	-0.12456418
167	0x3c8e68c2	0.017383937
168	0xbe587861	-0.21139671
169	0xbd431d32	-0.047635265
170	0x3e381acf	0.17978977
171	0xbd96ec43	-0.07369282
172	0x3e038deb	0.12847106
173	0x3d75f13a	0.060044505
174	0xbe252714	-0.16128188
175	0x3de7ef0a	0.1132489
176	0xbcab3e17	-0.02090363
177	0xbd750435	-0.059818465
178	0x3e5ffc7a	0.21873656
179	0xbdd1bd20	-0.10241151
180	0xbb64e58b	-0.0034926857
181	0xbd126eb8	-0.03575012
182	0x3e43d8cb	0.19125669
183	0x3e1a11c9	0.15045847
184	0x3e54d47c	0.20784181
185	0x3d48a007	0.04898074
186	0xbd61ddea	-0.055143274
187	0xbd4af9d6	-0.04955467
188	0xbe19d218	-0.1502155
189	0x3e23ff22	0.16015294
190	0x3def16e5	0.11674289
191	0x3ddcc4cf	0.10779726
192	0xbe405578	-0.18782604
193	0xbd1e5951	-0.038659398
194	0xbe2967c3	-0.16543488
195	0xbe38ca51	-0.18045928
196	0xbe239246	-0.15973768
197	0x3cba6526	0.02275331
198	0xbe286be0	-0.16447401
199	0xbd47b9d0	-0.04876119
200	0x3d54522f	0.05183619
201	0x3e1c802a	0.15283266
202	0xbe2efc4f	-0.17088436
203	0xbe267a8b	-0.16257684
204	0xbdfd4826	-0.12367277
205	0x3e2e237b	0.17005722
206	0xbd931347	-0.07181411
207	0x3e1d9759	0.15389766
208	0x3d8662da	0.06561823
209	0x3cd8fba0	0.026487172
210	0x3bcc22f1	0.0062297513
211	0xbd81e02e	-0.06341587
212	0x3c661bc2	0.014044704
213	0xbcc33b2d	-0.023831928
214	0x3c82d0d6	0.015968721
215	0x3d010696	0.03150042
216	0xbe39466a	-0.18093267
217	0xbdc6f6b3	-0.09715023
218	0x3e504b09	0.20341124
219	0xbe171173	-0.1475275
220	0x3be8d69f	0.007105663
221	0x3e615c6e	0.22007915
222	0x3de8cfec	0.11367783
223	0x3cfefec6	0.031127345
224	0xbe335561	-0.17513038
225	0x3e00474b	0.12527196
226	0xbe0f7e12	-0.14012936
227	0xbd5b6d7c	-0.05357121
228	0xbd849e57	-0.064755134
229	0xbd44a9a2	-0.048013337
230	0x3cb708c9	0.022343056
231	0x3e478455	0.19484074
232	0x3dbd818f	0.09253227
233	0x3e8c2ac6	0.27376384
234	0x3e4c38b7	0.1994351
235	0xbe059a7c	-0.13047212
236	0x3dccbdf1	0.09997166
237	0xbdf6a646	-0.12043433
238	0xbd64ff5c	-0.055907592
239	0x3dfc2839	0.12312359
240	0x3c970c11	0.01843837
241	0x3ddd4406	0.1080399
242	0xbdf57ff5	-0.119872965
243	0xbd418159	-0.047242496
244	0x3de16aa0	0.11006665
245	0xbe898cd9	-0.2686527
246	0x3d9fd2d4	0.07803884
247	0xbe64679a	-0.22305146
248	0xbd580d28	-0.05274692
249	0xbd807092	-0.06271471
250	0xbd88f167	-0.06686669
251	0x3dc07e63	0.09399106
252	0x3e6a6282	0.2288914
253	0xbdb9ae87	-0.090664916
254	0xbe42aa9a	-0.19010392
255	0xbd72dcac	-0.05929248

bias f4 [32]
0	0x3dd82190	0.105532765
1	0xbde52018	-0.11187762
2	0x3e639893	0.22226171
3	0xbe0cd8c1	-0.1375456
4	0xbc0e702a	-0.008693734
5	0x3e379d52	0.17931107
6	0x3dcbb63b	0.09946867
7	0xbdaf07f2	-0.08546437
8	0x3d3b9289	0.045794044
9	0x3d63a526	0.05557742
10	0xbdcbdebb	-0.09954592
11	0xbd869a5b	-0.0657241
12	0x3d8f3c6d	0.06993947
13	0xbd76116e	-0.060075216
14	0x3d1731d4	0.036912754
15	0x3e407fba	0.18798724
16	0xbb3cf79b	-0.0028834108
17	0x3d5cd9d2	0.053918667
18	0x3d307def	0.04308885
19	0x3deb18ad	0.11479316
20	0x3e629214	0.22126037
21	0xbda30d29	-0.079614945
22	0x3e05817c	0.13037676
23	0xbc95b4e4	-0.018274732
24	0xbc0238d0	-0.0079481155
25	0xbd3b59b4	-0.045739844
26	0x3d85986a	0.06523211
27	0xbd2be237	-0.041963782
28	0x3d051bd0	0.032497227
29	0xbc4c8f71	-0.012485371
30	0x3e150466	0.14552459
31	0xbdd03f53	-0.10168328

weight f4 [64, 32, 5, 5]
0	0x3b8df0d0	0.0043316856
1	0xbc238700	-0.009980917
2	0xbce06bf5	-0.027395228
3	0x3c8b584c	0.017009877
4	0x3c082c4f	0.008311345
5	0xbc61f8c6	-0.013792222
6	0xbc0aa6ba	-0.008462602
7	0x3c44f9cc	0.012022447
8	0xbb897dca	-0.0041959034
9	0x3cbf6357	0.023362799
10	0x3b3674b8	0.0027840566
11	0x3c5334ce	0.012891008
12	0x3c11d556	0.008900961
13	0xbc702b74	-0.0146587975
14	0x3c5a1cba	0.013312513
15	0x3ce72402	0.028215412
16	0x3bb24910	0.0054408386
17	0x3bff38d3	0.0077887564
18	0x3b0ab2bd	0.0021163665
19	0x3cf77119	0.030205296
20	0xbc259ec7	-0.010108656
21	0xbc092345	-0.008370225
22	0x3ccc0716	0.024905723
23	0xbcbfd53c	-0.023417108
24	0x3bd100bd	0.006378262
25	0xbc759250	-0.014988497
26	0x3cd6038a	0.026124734
27	0xbcf268ea	-0.029591043
28	0x3cc4840d	0.023988748
29	0x3d151f34	0.03640671
30	0x3c0a0ba0	0.008425623
31	0x3ac2446b	0.0014821416
32	0x3d1b0a68	0.03785172
33	0xbc6e1b4a	-0.014532873
34	0xbb7801be	-0.0037842835
35	0xbc67db3f	-0.014151393
36	0xbb6b0ed2	-0.0035866988
37	0x3c1a1015	0.009403248
38	0x3b3efec1	0.0029143544
39	0xbc0c5aea	-0.0085665975
40	0xbd0780db	-0.03308187
41	0x3b73a0ad	0.0037174628
42	0x3aed4955	0.001810352
43	0x3c1ce0ab	0.009575049
44	0x3cf62b93	0.030050075
45	0x3d1c81c8	0.038209707
46	0xbc6af8c2	-0.014341535
47	0x3b23da9e	0.0025002132
48	0xbc245664	-0.010030363
49	0xbcfb1b86	-0.030652773
50	0xbcc45c63	-0.023969835
51	0x3cfe097f	0.031010387
52	0x3c95ab3e	0.018270131
53	0x3ca7cb4d	0.020482684
54	0x3cb69934	0.02228985
55	0xbcc7e9c4	-0.02440346
56	0x3ba773fe	0.005110263
57	0x3d004b75	0.03132196
58	0xbc99c616	-0.018771213
59	0x3d08c398	0.033389658
60	0x3c6d1a60	0.01447162
61	0x3cc35dac	0.023848377
62	0xbc950335	-0.018190006
63	0x3c7cf1f3	0.015438545
64	0xbceeed08	-0.02916576
65	0xbb01521a	-0.0019732774
66	0x3c04ca24	0.008104835
67	0x3c050806	0.008119589
68	0x3d046232	0.03232021
69	0x3d2ba588	0.04190591
70	0x3d0558ce	0.032555394
71	0x3cc6f15a	0.024285007
72	0x3cceb63e	0.025233384
73	0xbb99cb3c	-0.004693417
74	0xbcd0490c	-0.025425456
75	0xbc8eeefc	-0.017447941
76	0xbb41e3af	-0.0029585173
77	0xbc9f439f	-0.019441424
78	0x3c73a11a	0.014869953
79	0x3be7edd8	0.0070779137
80	0x3afa8a0e	0.001911463
81	0x3c2ce3b3	0.010552335
82	0x3cf91c2d	0.030408943
83	0x3c33ecd6	0.010981759
84	0xbd0b0bbb	-0.033946734
85	0xbcda2c9f	-0.026632605
86	0x3c92f1ba	0.01793753
87	0x3b92c57f	0.00447911
88	0x3c6e48a9	0.014543691
89	0xbd1e0fe2	-0.038589366
90	0xbd0035b1	-0.031301204
91	0x3cc6cf49	0.024268763
92	0x3c9e0a5a	0.019292045
93	0xbd16fce5	-0.036862273
94	0x3c1a0cb3	0.009402442
95	0xbcdde13a	-0.027084935
96	0x3cf101f7	0.029419882
97	0x3c20a71a	0.009805465
98	0x3d060881	0.032722954
99	0xbd1b16d4	-0.037863567
100	0xbd0b3baa	-0.033992447
101	0x3cbc9ab6	0.02302299
102	0x3d030652	0.03198845
103	0x3cbc95e0	0.023020685
104	0x3cc696c5	0.024241814
105	0xbcee30c1	-0.029075982
106	0x3cd006f3	0.025393939
107	0xbd07f988	-0.033196956
108	0x3c24287b	0.010019417
109	0xbcb98b1d	-0.022649342
110	0xbc25613a	-0.010093981
111	0x3c1f01d6	0.009705028
112	0xbc4ca9ff	-0.012491702
113	0xbbe1c926	-0.006890434
114	0xbd1117ad	-0.03542297
115	0xbd03b341	-0.03215337
116	0x3c59a44f	0.013283803
117	0xbc60ce81	-0.013721109
118	0xbc9fb019	-0.01949315
119	0xbc35e52c	-0.011102002
120	0xbceb3b84	-0.028714903
121	0xbcc84de3	-0.024451202
122	0x3cccb3e1	0.024988117
123	0x3ca199cc	0.019726656
124	0x3bb8d8e5	0.00564109
125	0xbc9128b3	-0.017719602
126	0x3c74296c	0.014902454
127	0x3a651022	0.0008738061
128	0xbce9c774	-0.02853749
129	0x3bd94f6c	0.0066317823
130	0x3d1211c0	0.03566146
131	0xbcf8e184	-0.030380972
132	0xbcf99ed0	-0.030471236
133	0x3c2493e8	0.010045029
134	0x3d0ce4f2	0.034398027
135	0xbc32b79a	-0.010908032
136	0x3c949d41	0.01814139
137	0x3cda7563	0.026667302
138	0x3c580ea4	0.013187084
139	0x3c03276b	0.008005003
140	0x3d2ca021	0.0421449
141	0x3cca29f5	0.02467821
142	0xbcd848f9	-0.026401984
143	0xbb57a23e	-0.00329031
144	0x3c97768c	0.018489145
145	0x3cfea7d8	0.031085894
146	0xbcfbf13e	-0.030754682
147	0x3cd11778	0.025523886
148	0xbb6d2828	-0.0036187265
149	0xbcf089e5	-0.029362628
150	0x3c7c22d9	0.015389168
151	0xbc106d1d	-0.008815077
152	0x3c8bb0f0	0.017052144
153	0xbc5c46fc	-0.013444658
154	0xbca3aec7	-0.019980801
155	0x3aeddbaf	0.0018147136
156	0xbbe084bb	-0.00685176
157	0x3cf2a8db	0.029621532
158	0x3c3ec1a1	0.011642844
159	0x3d01cd21	0.031689767
160	0x3c1a4b1c	0.0094173215
161	0xbc21c768	-0.009874202
162	0x3ccb356a	0.024805743
163	0x3b94cdd7	0.0045411396
164	0x3c0ffbbe	0.008788047
165	0xbc38bae6	-0.011275029
166	0x3bcdb1ef	0.006277315
167	0x3ba87f27	0.005142111
168	0x3b9f9512	0.0048700655
169	0xbca50cd9	-0.020147728
170	0x3b58753e	0.0033028866
171	0xbca74f23	-0.020423478
172	0x3c19696f	0.009363516
173	0x3d113f73	0.0354609
174	0xbc853217	-0.016259236
175	0xbcb6f973	-0.022335744
176	0xbc00f445	-0.007870738
177	0xbc0b05d3	-0.008485275
178	0x3bcb5bec	0.0062060263
179	0x3bb83bbd	0.0056223557
180	0x3c89a565	0.0168025
181	0xbcdd3423	-0.0270024
182	0xbb8df8d3	-0.0043326407
183	0x3c928177	0.017884
184	0x3cf8171a	0.030284453
185	0xbbafc5df	-0.0053641642
186	0xbcaec360	-0.021333396
187	0x3c4f31a9	0.012646117
188	0x3cc36592	0.023852143
189	0xbc8d9cc4	-0.017286666
190	0xbc98716a	-0.018608768
191	0x3cab0566	0.020876598
192	0x3b1cc89a	0.0023923279
193	0xbcfe3e1d	-0.031035477
194	0xbca7a96b	-0.020466527
195	0x3c8e4fe6	0.017372083
196	0xbc409491	-0.011754171
197	0x3cc8fd37	0.024534805
198	0x3cec5951	0.028851183
199	0x3bd88cdc	0.0066085886
200	0xbb89516e	-0.0041906154
201	0xbc2c1730	-0.010503575
202	0xbb2c702d	-0.002631198
203	0x3b96af9e	0.004598572
204	0xbce70ed7	-0.028205318
205	0xbc13e70d	-0.009027255
206	0xbcdf246c	-0.027239047
207	0x3caefdb1	0.021361204
208	0xbcbeca5b	-0.02328985
209	0x3cffbb13	0.031217134
210	0xbc14c7b7	-0.009080819
211	0xbc98b21e	-0.01863962
212	0x3c79db0f	0.015249982
213	0x3b40a9f8	0.0029398184
214	0x3cb9c641	0.022677543
215	0x3c71cf96	0.014758965
216	0xbd05d297	-0.032671537
217	0x3cb54512	0.022127662
218	0xbbe3ed84	-0.0069558043
219	0xbc80a6a7	-0.015704466
220	0x3cc86060	0.024460018
221	0x3cf8f34c	0.03038945
222	0xbcf11698	-0.029429719
223	0xbb3f6090	-0.0029201843
224	0x3ceb7cc1	0.02874601
225	0x3c7b1328	0.015324391
226	0x3cf68bff	0.030096052
227	0xbc385513	-0.011250752
228	0xbc98cd62	-0.018652622
229	0x3d013a3e	0.031549685
230	0x3c7285e5	0.014802431
231	0x3d07c717	0.03314885
232	0xbc72b4cf	-0.014813616
233	0xbcb06d09	-0.021536367
234	0xba3a3db7	-0.0007104533
235	0xbd0c1ad9	-0.03420529
236	0x3c7df1e2	0.015499564
237	0x3cfa30a6	0.030540776
238	0x3c558ad0	0.013033584
239	0x3a859b08	0.0010193298
240	0x3c9ff36f	0.019525258
241	0xbca21fe5	-0.0197906
242	0x3d1b7a99	0.037958715
243	0xbd0a089e	-0.033699624
244	0xbd09c491	-0.033634726
245	0xbbbe8c5a	-0.005815071
246	0x3ce87c10	0.02837947
247	0x3b4c2da6	0.0031155138
248	0x3c696913	0.014246243
249	0xbcbf325a	-0.02333944
250	0x3c74b7f2	0.014936434
251	0xbb6ad3ea	-0.0035831877
252	0x3c6a1cbb	0.014289076
253	0x3cde20fb	0.027115336
254	0x3c8bdc64	0.017072864
255	0xbb07d0ff	-0.0020723937

bias f4 [64]
0	0xbc5a0460	-0.013306707
1	0x3bc77382	0.0060867677
2	0x3c3ee199	0.011650466
3	0x3cbca088	0.023025766
4	0xbc21dea1	-0.009879739
5	0x3c0d862c	0.008637946
6	0xbcbde819	-0.023181962
7	0xbbb4a4c6	-0.0055128066
8	0x3ca81544	0.020517953
9	0x3cba6ee5	0.022757957
10	0xbc8a2326	-0.016862463
11	0xbc1fe536	-0.009759238
12	0xbc83b6a7	-0.016078306
13	0x3cb212a4	0.021737404
14	0xbc185497	-0.009297512
15	0x3d05cb1a	0.032664396
16	0x3c940283	0.018067604
17	0xbbd7fd6d	-0.00659149
18	0xba95faa1	-0.0011442491
19	0x3d1296e9	0.03578845
20	0x3bb8de6b	0.0056417487
21	0xbca4d88f	-0.020122794
22	0x3d068f31	0.0328514
23	0xbd001346	-0.03126838
24	0xbcc6b526	-0.0242563
25	0xbca6d7d6	-0.02036659
26	0xbbeebdeb	-0.0072858236
27	0x3cf5b528	0.029993609
28	0x3c6cacf6	0.014445534
29	0x3d09c9f0	0.03363985
30	0xbc951768	-0.018199638
31	0xbc6eb2ce	-0.014568998
32	0xbae914d5	-0.0017782698
33	0x3d0db118	0.034592718
34	0xbce3a5fa	-0.027789105
35	0x3ceef114	0.02916769
36	0x3c9cd5b3	0.019144868
37	0x3cd0f89e	0.025509175
38	0xbc208361	-0.009796948
39	0x3d1aca69	0.03779069
40	0x3d23c86f	0.03998607
41	0x3cf57f62	0.029967967
42	0xbbf019e9	-0.0073273075
43	0xbbc2c5e8	-0.0059440024
44	0xbae96ef6	-0.0017809558
45	0x3d21a1c3	0.03946091
46	0x3ca6e063	0.020370668
47	0xbc3bd89f	-0.011465221
48	0xbd0a3a40	-0.033746958
49	0x3cc4649c	0.023973756
50	0x3ce69c8a	0.028150816
51	0x3bb03bde	0.0053782305
52	0x38e01808	0.000106856285
53	0xbbde836e	-0.00679057
54	0xbc475d49	-0.012168237
55	0xbcef644d	-0.029222632
56	0xbc6670f5	-0.014065017
57	0xbb9a3a3c	-0.004706649
58	0xbb8e239b	-0.0043377406
59	0xbd04b137	-0.032395568
60	0x3c3c37b9	0.011487895
61	0x3cac6093	0.021042144
62	0xbce29d47	-0.027662886
63	0xbc09dbad	-0.008414191

weight f4 [512, 64]
0	0x3daa0b92	0.08302988
1	0xbddc3ded	-0.10753999
2	0xbd5e327c	-0.054247364
3	0xbd6fd9d7	-0.058557358
4	0x3de23e6d	0.11047063
5	0x3dbf13b0	0.09329927
6	0x3db32c52	0.08748688
7	0x3def8cca	0.11696775
8	0xbcd7f526	-0.026362013
9	0xbcc07b26	-0.023496222
10	0x3d158b99	0.036510084
11	0xbce64d5d	-0.028113062
12	0x3dd3c013	0.103393696
13	0x3d1f9afb	0.03896616
14	0xbd60d7ce	-0.054893307
15	0x3dbee98b	0.093218885
16	0x3decadb5	0.115565695
17	0x3dc4005e	0.095703825
18	0x3d2f1818	0.042747587
19	0x3d13dc9b	0.036099058
20	0xbdf2b9ab	-0.118518196
21	0x3d7f0f21	0.062270287
22	0x3ce108cc	0.027470015
23	0x3dad2f5f	0.08456301
24	0x3c4e313b	0.01258498
25	0x3d177ffc	0.03698729
26	0x3d76837e	0.060183994
27	0x3d7fe21e	0.0624715
28	0x3cfb83a5	0.030702421
29	0xbdd2977e	-0.10282801
30	0xbde121e3	-0.109927915
31	0x3de22e5b	0.11043998
32	0xbda0a296	-0.07843511
33	0x3d71b294	0.059008196
34	0x3d9026b8	0.07038635
35	0xbdc5aea5	-0.096524514
36	0xbc04eb48	-0.008112736
37	0x3d8c875e	0.06861757
38	0xbdac9484	-0.084267646
39	0xbbddc476	-0.0067678047
40	0x3d8c6bc9	0.06856496
41	0xbae4b5e5	-0.0017449228
42	0x3d39e7df	0.045387145
43	0xbc939084	-0.018013246
44	0xbd7bc082	-0.061462887
45	0x3da9af46	0.08285384
46	0x3deff288	0.11716181
47	0x3de0a456	0.109688446
48	0xbddd287f	-0.1079874
49	0x3dcc86fc	0.09986684
50	0xbd36ea13	-0.044656824
51	0x3c9d2e8c	0.019187234
52	0x3db2df2c	0.08733973
53	0xbc259742	-0.010106863
54	0xbce5a461	-0.028032484
55	0xbde3d7f7	-0.111251764
56	0x3c94d642	0.018168572
57	0x3cc7ab9e	0.024373826
58	0x3d67c10c	0.05658059
59	0xbdd08767	-0.10182076
60	0xbd9cc2d2	-0.076543465
61	0x3dedb765	0.11607245
62	0x3ca2117c	0.019783728
63	0xbc8ea914	-0.017414607
64	0x3df352f4	0.118810564
65	0x3c144f46	0.009052103
66	0x3e0073b7	0.12544142
67	0x3d46c91f	0.048531648
68	0xba8b92a3	-0.001064856
69	0x3d9a41ba	0.075320676
70	0xbbbbe135	-0.005733634
71	0xbccef224	-0.025261946
72	0x3de1f041	0.11032153
73	0xbc56b761	-0.013105244
74	0xbd25e0af	-0.040497478
75	0xbdcccea0	-0.10000348
76	0xbcbaa914	-0.0227857
77	0xbe007b45	-0.12547024
78	0xbdbc89a1	-0.09205938
79	0x3d6c8cc1	0.05775142
80	0xbde0d04b	-0.10977229
81	0x3d4e7cf5	0.050412137
82	0x3d62b78d	0.05535083
83	0x3d805fd3	0.06268277
84	0x3da39350	0.07987082
85	0x3d24b015	0.040206987
86	0x3dae7365	0.085181035
87	0xbe01be38	-0.12670219
88	0x3d849dff	0.06475448
89	0x3e044777	0.12917887
90	0x3df8a38e	0.121405706
91	0xbdcb3dd6	-0.09923904
92	0xbde0dbe0	-0.10979438
93	0x3d9346fb	0.07191273
94	0xbde9849e	-0.11402248
95	0xbdb8a37a	-0.09015556
96	0x3cae3a6d	0.021268094
97	0x3d2e93dd	0.042621482
98	0x3e035f0f	0.1282923
99	0xbda5e310	-0.08099949
100	0x3da26fa3	0.07931449
101	0x3bc4c468	0.0060048588
102	0x3d1b6e26	0.037946843
103	0x3d1aac7d	0.037762154
104	0x3db4f1ca	0.0883518
105	0xbc109bfa	-0.00882625
106	0x3d3c708b	0.046005767
107	0xbd54dad4	-0.051966503
108	0x3d963a54	0.07335344
109	0x3dd0d1b4	0.10196248
110	0x3d8a577b	0.06754967
111	0xbdd3ecb0	-0.10347879
112	0x3da58b89	0.08083255
113	0x3d2347d0	0.039863408
114	0x3d07c885	0.033150215
115	0x3d803748	0.06260544
116	0xbcb8c30a	-0.02255394
117	0x3e038976	0.12845406
118	0xbd8ce8ba	-0.068803266
119	0x3db47794	0.0881187
120	0x3d10ed65	0.035382647
121	0x3a7328bb	0.00092757837
122	0xbdb890f1	-0.090120204
123	0xbc8ee9a4	-0.017445393
124	0xbdf2d3da	-0.11856814
125	0xbe0080a5	-0.12549074
126	0xbda84d50	-0.08217871
127	0x3d7ae96a	0.061257757
128	0x3d38495b	0.044991832
129	0xbd3f341b	-0.04668055
130	0xbcc0c042	-0.023529176
131	0xbd6091c4	-0.054826513
132	0x3b96118b	0.004579728
133	0x3d3e7cc8	0.04650572
134	0x3dfa0340	0.12207651
135	0x3dc10745	0.09425215
136	0x3c8f1cb9	0.01746975
137	0x3d96eed3	0.07369771
138	0xbd795642	-0.060873277
139	0xbb26f881	-0.002547771
140	0x3c214f90	0.009845629
141	0xbdbcfb18	-0.0922758
142	0xbc45ef53	-0.012080985
143	0x3cbfd643	0.023417598
144	0xbd0688b3	-0.03284521
145	0x3deee5a7	0.116648965
146	0xbdfb6221	-0.12274576
147	0x3d671366	0.056414984
148	0x3dace888	0.08442789
149	0xbdd831e5	-0.105563916
150	0xbdd582d9	-0.10425348
151	0xbd4c2d1e	-0.049847715
152	0x3d23d46e	0.03999751
153	0x3cc35645	0.023844847
154	0xbcd9135f	-0.026498495
155	0xbd8aa87a	-0.067704156
156	0xbd9430a5	-0.07235841
157	0xbdf9b796	-0.12193219
158	0xbd8a34b9	-0.06748337
159	0x3dd717dd	0.105025984
160	0xbcdbf6fa	-0.026851166
161	0xbc512124	-0.012764249
162	0xbdfa2fd6	-0.12216155
163	0x3d98e78f	0.07466041
164	0xbd60ee50	-0.054914773
165	0xbd2d4834	-0.042305186
166	0xbd7f1724	-0.062277928
167	0x3c752475	0.014962305
168	0xbc9c45a7	-0.019076182
169	0x3d8a2d78	0.06746954
170	0xbcf70cf0	-0.030157536
171	0xbda08df7	-0.07839578
172	0xbd84a39f	-0.06476521
173	0xbc0a2f3d	-0.008434114
174	0x3dfba668	0.12287599
175	0x3d89d74c	0.06730518
176	0x3c714837	0.01472669
177	0xbdbf651a	-0.093454555
178	0x3dfe73d9	0.1242444
179	0x3d8ecfec	0.06973252
180	0x3d60afab	0.05485503
181	0x3c00a234	0.007851172
182	0xbd4cc2ea	-0.049990572
183	0xbd229614	-0.039693907
184	0x3c68c3d7	0.014206848
185	0x3dabf7df	0.08396887
186	0x3c0a54df	0.008443086
187	0x3d5f582b	0.054527443
188	0x3c3c3e66	0.011489486
189	0xbcad57c3	-0.021160012
190	0xbca24b87	-0.019811405
191	0xbd99efe0	-0.07516456
192	0x3d5fc692	0.05463273
193	0xbcffd8fa	-0.031231392
194	0xbca6afba	-0.020347465
195	0xbdec4860	-0.11537242
196	0x3d0a50a9	0.03376833
197	0xbd9aa77c	-0.07551476
198	0x3c91eb06	0.017812263
199	0xbc8e0f52	-0.01734129
200	0x3e00251e	0.12514159
201	0xbde5ce50	-0.112209916
202	0x3d954b20	0.072897196
203	0x3d335d76	0.043790303
204	0x3df6038a	0.12012394
205	0xbde28523	-0.1106055
206	0x3dc77bc2	0.09740402
207	0x3d8badf7	0.068202905
208	0x3dc7a3c7	0.09748035
209	0x3ddb3153	0.10702767
210	0x3dd341d1	0.10315288
211	0x3d0d4f2a	0.034499325
212	0xbd387ac9	-0.045038972
213	0xbce2be54	-0.027678646
214	0xbc60e062	-0.013725372
215	0xbc80a700	-0.015704632
216	0xbdbdd6d1	-0.092694886
217	0x3d1381be	0.036012404
218	0xbdd27ca1	-0.10277677
219	0xbdc92f3e	-0.09823464
220	0xbce43942	-0.027859334
221	0xbdda6074	-0.10662928
222	0x3daf2e71	0.0855378
223	0xbd3e2dba	-0.046430327
224	0xbb9bb448	-0.004751716
225	0xbda6ac40	-0.08138323
226	0x3c80859e	0.015688714
227	0x3c1d7ed9	0.009612762
228	0xbcc34d0c	-0.02384045
229	0xbdd2754d	-0.102762796
230	0xbd7935e9	-0.06084243
231	0x3dd39311	0.10330785
232	0xbd1e71f7	-0.038682904
233	0xbde42987	-0.11140733
234	0xbd5bd171	-0.053666536
235	0x3dc656b0	0.09684503
236	0x3cd806c4	0.026370414
237	0xbc113c92	-0.008864539
238	0xbda3dac7	-0.08000713
239	0xbdf3a974	-0.11897555
240	0x3da52816	0.080642864
241	0x3d9a1b38	0.07524723
242	0xbdc19ebc	-0.09454104
243	0x3d8d4734	0.068983465
244	0x3de27f43	0.110594295
245	0xbcd30c49	-0.025762694
246	0x3d921c41	0.07134295
247	0x3ddd357c	0.10801217
248	0xbce74e7d	-0.028235668
249	0x3d5439b5	0.051812846
250	0x3d5f6dec	0.05454819
251	0xbdb7f4f5	-0.08982269
252	0x3d3d02d4	0.046145275
253	0xbdec4b45	-0.11537794
254	0x3c88d6c1	0.016703965
255	0x3d8eec37	0.06978648

bias f4 [512]
0	0x3dd19adf	0.102346174
1	0xbdeb6817	-0.11494463
2	0xbdbaae81	-0.09115315
3	0xbda3d773	-0.08000078
4	0x3d397d09	0.04528526
5	0xbdaf88d1	-0.085710175
6	0xbdc76a1d	-0.097370364
7	0x3d47687c	0.04868363
8	0xbdb9efa3	-0.0907891
9	0xbdaa1910	-0.083055615
10	0x3de787f5	0.113052286
11	0x3d944dff	0.07241439
12	0xbdb209a7	-0.08693247
13	0x3cf7112b	0.030159554
14	0x3cb6a45f	0.022295175
15	0x3d943a4e	0.07237683
16	0x3d8f76b7	0.07005065
17	0x3dfd1835	0.12358133
18	0x3d08ff6f	0.033446725
19	0x3caeddb0	0.021345943
20	0xbc60248e	-0.01368059
21	0x3ce58f49	0.028022425
22	0xbd0132ef	-0.031542715
23	0x3ddfbfc6	0.1092525
24	0x3df5b50b	0.11997422
25	0xbc7c2de0	-0.015391797
26	0x3d06c6a6	0.03290429
27	0xbdc217b1	-0.09477175
28	0xbdc85ce8	-0.097833455
29	0xbdb20f49	-0.08694322
30	0xbcb4f26b	-0.02208825
31	0x3d97a1a5	0.07403878
32	0xbc024dd4	-0.007953126
33	0xbdc9b45c	-0.09848854
34	0x3d0fef4c	0.03514032
35	0x3d9bdfb0	0.076110244
36	0xbdd5b0f2	-0.1043414
37	0xbdee7fe3	-0.11645486
38	0xbd6da260	-0.05801618
39	0x3cfdac47	0.030965937
40	0x3d2e7a35	0.042597014
41	0xbd8cb3fa	-0.06870265
42	0x3cbdd50d	0.02317288
43	0xbc71de48	-0.014762469
44	0xbbb89f8c	-0.005634254
45	0x3df7e358	0.12103909
46	0x3d49a641	0.049230818
47	0xbb3131e9	-0.0027037805
48	0x3ca5703b	0.020195117
49	0xbd6b7931	-0.057488624
50	0x3dba815e	0.09106706
51	0xbbec6b81	-0.007214964
52	0x3d71e75c	0.059058532
53	0xbd22ba91	-0.039728705
54	0x3d24455e	0.040105216
55	0x3d52492f	0.051339325
56	0x3d80e520	0.06293702
57	0xbc944186	-0.01809765
58	0xbd763b64	-0.060115233
59	0x3d1c57ad	0.03816955
60	0x3dca78a1	0.098862894
61	0xbd13871d	-0.036017526
62	0xbc6b2c7b	-0.014353867
63	0x3c4ef2e4	0.012631152
64	0x3d9439c9	0.07237584
65	0x3d198503	0.037480365
66	0xbd044330	-0.032290637
67	0x3d225e93	0.039640974
68	0xbd2cd167	-0.04219189
69	0xbd19b937	-0.03753015
70	0x3dd706a0	0.104993105
71	0xbdce807c	-0.100831
72	0xbde6656c	-0.112498134
73	0xbb76d215	-0.003766184
74	0xbde5f4e9	-0.112283535
75	0xbc05cf4d	-0.0081671
76	0x3d9466c6	0.07246165
77	0xbc854c2f	-0.016271679
78	0x3c929c4e	0.017896798
79	0x3dd89b3b	0.10576483
80	0xbda4abdb	-0.08040591
81	0x3db3b959	0.08775587
82	0x3db3462e	0.0875362
83	0x3d1b341c	0.037891492
84	0x3da94a86	0.08266167
85	0xbdb42fdf	-0.08798193
86	0x3c9f2767	0.019427968
87	0xbc93d300	-0.018044949
88	0xbd6a00ab	-0.057129543
89	0x3cfd1976	0.03089593
90	0xbdfa9617	-0.122356586
91	0x3dd69a08	0.10478598
92	0xbdf440d2	-0.11926426
93	0x3dff3aff	0.124624245
94	0x3d1afd84	0.037839428
95	0x3dbfc842	0.09364368
96	0xbd8b5ca0	-0.06804776
97	0xbd79c46f	-0.06097835
98	0x3cbba94d	0.022907877
99	0xbda8e874	-0.08247462
100	0xbdac558f	-0.084147565
101	0xbdfaaa78	-0.122395456
102	0x3d9ade93	0.07561984
103	0xbb0f1bb1	-0.0021836574
104	0x3dba17b1	0.0908655
105	0x3ddaec2a	0.10689576
106	0x3d26525b	0.040605884
107	0x3d39b3c0	0.04533744
108	0xbd6ccd76	-0.05781313
109	0x3d2a0b41	0.04151464
110	0xbc653c1e	-0.013991384
111	0xbdf8824d	-0.12134228
112	0x3cd4f8a1	0.025997462
113	0xbdf90f83	-0.12161162
114	0xbdfaa3f7	-0.12238305
115	0xbdb449b3	-0.088031195
116	0xbd4e8113	-0.050416064
117	0xbde2153a	-0.11039205
118	0x3d0aeb1a	0.033915617
119	0xbddd2eb7	-0.10799926
120	0x3cd0fc2f	0.025510876
121	0xbdaf14da	-0.08548899
122	0x3d825d0c	0.063654035
123	0x3d9adfc6	0.07562213
124	0x3c24de98	0.010062836
125	0xbdf6565a	-0.12028189
126	0x3d8d4628	0.06898147
127	0x3d71cbd6	0.059032284
128	0xbdedfd21	-0.11620546
129	0x3d31abfa	0.0433769
130	0xbddc2334	-0.10748902
131	0xbdc5fba2	-0.09667136
132	0xbca532a1	-0.020165743
133	0xbd99e1dd	-0.07513783
134	0xbd474a6e	-0.048654966
135	0x3dab4605	0.083629645
136	0xbd199783	-0.03749801
137	0x3cf72c2c	0.03017243
138	0xbdccf4d2	-0.10007633
139	0x3be52cc2	0.006993861
140	0x3d4675f3	0.04845233
141	0xbde8610f	-0.113466375
142	0xbd57a97e	-0.052651875
143	0xbc9f6b19	-0.019460248
144	0xbde58bb5	-0.112082876
145	0xbd4cd20c	-0.050005004
146	0x3dd631d4	0.10458723
147	0x3df4ae9f	0.11947369
148	0x3dff4fa1	0.1246636
149	0x3dfe7e7f	0.12426471
150	0x3dec3f0a	0.11535461
151	0xbdb47fb0	-0.08813417
152	0x3d5b2a87	0.053507354
153	0xbdde1c4b	-0.1084524
154	0x3d962e80	0.07333088
155	0xbceaabf2	-0.028646443
156	0x3dd94f4c	0.10610828
157	0x3a2bed84	0.0006558525
158	0xbcd748f9	-0.026279913
159	0x3da7b07b	0.08187958
160	0x3de63cf2	0.11242093
161	0x3d367a7d	0.044550408
162	0x3ca73f9d	0.020416075
163	0x3d8f217b	0.06988808
164	0xbda1a5fe	-0.078929886
165	0xbb6612c2	-0.0035106395
166	0xbb109894	-0.00220636
167	0xbdb25583	-0.08707716
168	0x3d171a26	0.03689017
169	0x3ca11423	0.019662922
170	0xbcdf8df1	-0.027289363
171	0x3c204cd0	0.0097839385
172	0xbde21c4f	-0.11040556
173	0x3dc4929a	0.095982745
174	0xbcec5eb8	-0.02885376
175	0x3db1b5a8	0.08677226
176	0xbdd0b417	-0.101905994
177	0x3cd5b87e	0.02608895
178	0xbd753d90	-0.059873164
179	0xbdeda15c	-0.116030425
180	0x3decc8d7	0.11561745
181	0x3d0d3aaf	0.034479793
182	0xbd15fc05	-0.036617298
183	0x3d8709c6	0.06593661
184	0xbdd0029e	-0.10156749
185	0x3deed92c	0.11662516
186	0xbdaa9a0c	-0.08330163
187	0xbca1017d	-0.01965403
188	0x3d2adf4b	0.041716855
189	0xbdf7c86e	-0.12098776
190	0x3d9cd15f	0.07657122
191	0x3c329857	0.010900578
192	0xbd2b7db6	-0.041867934
193	0x3d7682f0	0.060183465
194	0xbd8474d9	-0.064675994
195	0xbcee7ec1	-0.029113175
196	0xbd8df426	-0.06931333
197	0xbcb01cd3	-0.02149812
198	0xbd5af449	-0.053455625
199	0xbd51a918	-0.05118665
200	0x3d4c5f1f	0.049895402
201	0x3d482eeb	0.04887287
202	0xbdcb53e0	-0.09928107
203	0x3a8825ef	0.0010387282
204	0x3db2d8bc	0.08732745
205	0xbd5c0464	-0.053715125
206	0x3d456f78	0.048202008
207	0xbdb4d5b9	-0.08829827
208	0x3ddf170e	0.10893069
209	0x3cfda463	0.030962175
210	0xbd6024e0	-0.054722667
211	0x3dc04d9a	0.09389801
212	0x3a964c5a	0.0011466846
213	0x3d2b22d0	0.041781247
214	0xbd88f19e	-0.0668671
215	0x3ba7ab74	0.0051168744
216	0xbd9291b3	-0.07156696
217	0x3db6541e	0.08902763
218	0x3db30d07	0.08742719
219	0xbd78e8ae	-0.060768776
220	0xbb5bf81a	-0.0033564628
221	0x3cf4919b	0.029854586
222	0x3d3480d9	0.04406819
223	0xbd8a060f	-0.06739437
224	0x3c996778	0.018726096
225	0x3d831775	0.064009584
226	0xbdef168d	-0.11674223
227	0xbca21d2b	-0.019789299
228	0x3d2db8c6	0.04241254
229	0x3db29594	0.08719936
230	0xbce4b920	-0.027920306
231	0xbd9d887d	-0.07692049
232	0x3cd45477	0.025919182
233	0x3ca40194	0.020020284
234	0x3dfbc0a5	0.122926034
235	0x3db18ab9	0.08669037
236	0xbc44b6cd	-0.012006474
237	0xbc819e28	-0.015822485
238	0x3cd983ad	0.026552046
239	0xbdf31895	-0.11869923
240	0x3dbf8957	0.09352367
241	0x3d7b2b84	0.061320797
242	0x3d6d2b2f	0.05790251
243	0xbdae9d42	-0.08526088
244	0x3bce6b96	0.0062994463
245	0x3db2a255	0.08722369
246	0x3d8b9830	0.06816137
247	0xbd5788d1	-0.052620713
248	0xbcf8e528	-0.030382708
249	0xbd9c30c1	-0.076264866
250	0x3c320607	0.010865695
251	0xbded8a93	-0.115986966
252	0x3dba2f1f	0.09091019
253	0xbd0ce837	-0.034401145
254	0x3d96e1fc	0.07367322
255	0xbd0f0ba9	-0.03492323

weight f4 [10, 512]
0	0x3de3eb32	0.11128844
1	0xbddb5c36	-0.10710947
2	0x3ced5a32	0.028973673
3	0x3cd0e908	0.025501743
4	0x3e07b391	0.13252093
5	0x3daa09e6	0.08302669
6	0x3d649aea	0.0558118
7	0xbd763d5b	-0.060117107
8	0x3d154935	0.03644677
9	0xbe0f7fe4	-0.1401363
10	0x3db298c4	0.08720544
11	0x3df951ea	0.12173827
12	0xbd00f993	-0.031488013
13	0xbb0c9ae9	-0.0021454638
14	0xba979cbd	-0.0011567097
15	0xbe08e426	-0.13368282
16	0x3d6af01b	0.05735789
17	0xbca91a94	-0.020642556
18	0x3dc98005	0.09838871
19	0x3c7ef7ac	0.015561979
20	0xbc145280	-0.009052873
21	0x3b9a19a8	0.0047027655
22	0x3b7917a9	0.0038008487
23	0x3b9847de	0.004647239
24	0xbd19197a	-0.037377812
25	0xbc67dd16	-0.014151832
26	0xbd8b398c	-0.067980856
27	0x3e1c4d3a	0.15263835
28	0xbd15d3c3	-0.036578905
29	0xbc63ee26	-0.0139117595
30	0xbdf6f430	-0.12058294
31	0xbc738661	-0.014863581
32	0x3b280580	0.0025638044
33	0xbcfef96a	-0.03112479
34	0x3c912631	0.017718406
35	0xbc6a0ea0	-0.014285713
36	0xbd2834c0	-0.04106593
37	0xbc9713a0	-0.018441975
38	0xbd00d9b5	-0.03145762
39	0xbb8772d8	-0.0041335635
40	0x3cf713ec	0.030160867
41	0x3d017921	0.03160966
42	0xbc951865	-0.018200109
43	0x3ddab2fd	0.106786706
44	0x3db71705	0.089399375
45	0xbe1971bb	-0.14984791
46	0xbbab8e85	-0.0052354955
47	0xbd6977da	-0.056999065
48	0x3e17f1d4	0.14838344
49	0xbdbc6c8e	-0.09200393
50	0xbd27240b	-0.040805858
51	0x3d27e33d	0.040988196
52	0x3e076aa5	0.13224275
53	0x3dd84441	0.105598934
54	0xbd1544fe	-0.03644275
55	0x3d9c0b95	0.076193966
56	0xbbbef93b	-0.0058280504
57	0xbcce60e2	-0.025192682
58	0x3c522335	0.012825777
59	0x3e233c70	0.15941024
60	0x3d7e551d	0.06209289
61	0x3d8c5906	0.068529174
62	0xbd358985	-0.044320602
63	0xbd1d3b30	-0.038386524
64	0x3d1c7bc7	0.03820398
65	0xbd06faca	-0.032954015
66	0xbcec4e34	-0.028845884
67	0x3d50ef1c	0.051009282
68	0x3d2c7ba1	0.04211009
69	0xbdbcdd76	-0.09221928
70	0x3e0d3e69	0.13793339
71	0x3c1dffd4	0.009643514
72	0xbb225a20	-0.0024772957
73	0xb994e737	-0.00028401028
74	0xbce7a618	-0.028277442
75	0xbe0b43e7	-0.13600121
76	0xba2f907b	-0.00066972495
77	0x3d798684	0.0609193
78	0xbcce1695	-0.025157252
79	0x3c988c6e	0.01862165
80	0x3cdf0b31	0.027227016
81	0xbc7c2850	-0.015390471
82	0x3d0f3a59	0.034967754
83	0x3b98d868	0.0046644695
84	0xbd5b62a0	-0.053560853
85	0x3dd2410d	0.10266314
86	0xbcbd081f	-0.023075162
87	0x3cb27b8a	0.021787424
88	0xbc58151f	-0.013188629
89	0xbcaccc6c	-0.02109357
90	0xbccba925	-0.024860928
91	0xbb141d45	-0.0022600454
92	0xbc11e9f0	-0.008905873
93	0x3e0c5ee4	0.13708073
94	0x3c9a8285	0.018861065
95	0x3dc49317	0.09598368
96	0x3cd63a58	0.026150867
97	0xbc04b7b5	-0.00810044
98	0xbc26f0d5	-0.010189255
99	0xbd2350cf	-0.039871987
100	0xbd2229e8	-0.039590746
101	0x3d2293a9	0.0396916
102	0xbca2e670	-0.019885272
103	0xbcf0341d	-0.029321725
104	0x3db01c0c	0.085990995
105	0x3dc84126	0.09778051
106	0xbc5ae314	-0.013359804
107	0xbc0fa78c	-0.008767974
108	0xbe1891c2	-0.14899352
109	0x3de0ea92	0.10982241
110	0xbce0a07b	-0.027420273
111	0x3cb84803	0.022495275
112	0xbd8ab293	-0.067723416
113	0x3cbfe642	0.023425225
114	0x3d2719e1	0.040796164
115	0x3c0b371c	0.008497026
116	0xbc3f4cac	-0.011675995
117	0xbd324b43	-0.043528806
118	0x3db229c6	0.08699374
119	0x3cd5c944	0.026096947
120	0x3b4c00ac	0.003112833
121	0xbd0f261d	-0.034948457
122	0x3d2c1e7c	0.04202126
123	0x3ce91796	0.02845363
124	0x3cc922cb	0.024552723
125	0xbdc8b7b7	-0.09800666
126	0xbce423e3	-0.027849143
127	0x3a1d8b37	0.00060098193
128	0x3decc110	0.11560261
129	0x3ccb82a3	0.024842566
130	0x3d100519	0.03516111
131	0xbc65451c	-0.013993528
132	0x3d9f0412	0.07764448
133	0x3cd1151a	0.025522757
134	0xbb367233	-0.0027839064
135	0x3d07a7cd	0.03311901
136	0x3c6eac11	0.014567391
137	0xbd7b386d	-0.06133311
138	0xbe1cf30b	-0.15327089
139	0xbc5295b8	-0.012853079
140	0xbc5dca87	-0.013537056
141	0xbd135dbd	-0.035978068
142	0x3c0966ec	0.008386355
143	0x3e18dc08	0.14927685
144	0xbcf2374a	-0.02956738
145	0x3df84052	0.12121643
146	0x3d2f4a2e	0.042795353
147	0x3d7a1e32	0.061063953
148	0x3ddab992	0.10679926
149	0x3d27ea9a	0.040995218
150	0x3cf872bd	0.030328149
151	0xbdf2cea8	-0.11855823
152	0x3e09fa8d	0.13474484
153	0x3aaf1c20	0.0013359822
154	0x3d835eff	0.064146034
155	0xbb9eca3b	-0.004845885
156	0xbce5da00	-0.028058052
157	0xbe04ea95	-0.12980111
158	0x3db43a68	0.088002026
159	0xba83f2e1	-0.001006689
160	0x3da16149	0.07879884
161	0xbd126a9e	-0.03574621
162	0xbbd4fa48	-0.0064995624
163	0xbd68312d	-0.056687523
164	0xbd5d4e49	-0.054029737
165	0x3df2acc8	0.11849362
166	0x3cb0d6f0	0.021586865
167	0x3ce7cb7c	0.028295271
168	0x3c906d07	0.017630113
169	0x3da0d444	0.078529865
170	0xbd8345cb	-0.06409796
171	0xbc8f59ae	-0.017498817
172	0x3ddc3c22	0.10753657
173	0x3d8635b2	0.0655321
174	0x3b4cc9b0	0.0031248145
175	0xbd8048d0	-0.06263888
176	0xbcb5b015	-0.022178689
177	0x3d7064e7	0.058689978
178	0xbcf7a164	-0.030228324
179	0xbcc21363	-0.023690885
180	0x3d86aa59	0.0657546
181	0xbd168170	-0.036744535
182	0xbe437bc4	-0.19090182
183	0x3d96759e	0.073466524
184	0x3b9bdd50	0.004756607
185	0xbd81b260	-0.063328505
186	0x3d14b73f	0.03630757
187	0xbd397821	-0.04528058
188	0xbd21c549	-0.039494786
189	0x3d27192f	0.0407955
190	0xbd2dd546	-0.04243972
191	0xbdd22196	-0.10260312
192	0x3dc97934	0.09837571
193	0xbd886609	-0.06660087
194	0x3c2f4ce7	0.010699487
195	0x3c096ef2	0.008388268
196	0x3d6afea8	0.057371765
197	0xbd889452	-0.06668915
198	0xbd111c65	-0.03542747
199	0xbd8e6e72	-0.069546595
200	0xbd465080	-0.048416615
201	0xbe0ed3eb	-0.13948028
202	0x3e055b3f	0.13023089
203	0x3e041571	0.12898804
204	0xb918fa66	-0.0001458913
205	0xbb892cd9	-0.0041862545
206	0xbbbfb29f	-0.0058501507
207	0xbdcab573	-0.0989789
208	0x3cb76ef0	0.022391766
209	0x3c08952c	0.008336347
210	0x3da010ea	0.07815726
211	0xbd3911a5	-0.045182843
212	0xbb021f60	-0.0019855127
213	0xbd1225d1	-0.035680596
214	0xbc245467	-0.010029889
215	0xbd7dadcb	-0.06193332
216	0x39fef400	0.0004862845
217	0x3d14723f	0.036241766
218	0x3d315304	0.04329206
219	0xbcd09d22	-0.025465552
220	0x3dead9fe	0.1146736
221	0x3d960a01	0.07326127
222	0x3c94da8a	0.018170614
223	0x3c2a63f9	0.010399812
224	0xbd09b90c	-0.03362374
225	0x3d1ba0f5	0.037995297
226	0x3e066325	0.13123758
227	0x3cab3ed1	0.020903977
228	0xbd97f0e8	-0.07418996
229	0x3dd11f2e	0.10211025
230	0x3ca2222e	0.019791689
231	0x3dabbde0	0.08385825
232	0xbd5023c9	-0.050815377
233	0x3c909aea	0.017651994
234	0x3e3e1ef6	0.18566498
235	0x3dbb5c6d	0.09148488
236	0xbdd758cc	-0.105149835
237	0xbcf1d7f6	-0.029521924
238	0xbe029291	-0.12751223
239	0x3d0aee9b	0.03391896
240	0x3ce7f010	0.028312713
241	0x3d8c28be	0.068437085
242	0x3cd7f9a2	0.026364151
243	0xbaf6ed0c	-0.0018838956
244	0xbd11a9e8	-0.035562426
245	0xbbee98af	-0.007281385
246	0x3e1c7314	0.15278274
247	0x3b00b360	0.0019638166
248	0x3db79346	0.08963637
249	0xbca4a390	-0.020097524
250	0x3b89aeb5	0.004201735
251	0x3e1e999c	0.15488285
252	0xbd863195	-0.06552426
253	0xbd0b420a	-0.033998527
254	0xbde2937d	-0.110632874
255	0xbd9851dc	-0.074374884

bias f4 [10]
0	0x3d3c1495	0.045918066
1	0x3de5aa3e	0.11214112
2	0x3b84bab5	0.0040505775
3	0xbcb2b419	-0.021814393
4	0x3bad4164	0.005287336
5	0xbd27e018	-0.040985197
6	0x3cc86e58	0.024466679
7	0xbbccfd07	-0.006255749
8	0xbcebf35b	-0.028802564
9	0x3c9016fc	0.017589085
