system/models/EMNIST/CNN/FedPer_BaseHeadSplit_EMNIST_client_0.pt (torch, 476764 bytes, 8 tensors)

weight f4 [32, 1, 5, 5]
-0.010083156 -0.22337113 -0.6034949 -0.48774815 -0.25153735 0.2526181 -0.21789058 -0.2935101
-0.4483176 -0.25121957 0.4724304 0.046383765 -0.47654974 -0.5515818 -0.45923698 0.7202269
0.5464234 0.2626093 -0.26562998 -0.3684425 0.613105 0.7800446 0.553585 0.5162177
0.03193421 -0.029452635 0.015069945 -0.18841854 -0.16444102 -0.20078866 -0.038827352 0.00503544
-0.2188206 -0.1210235 -0.19152395 -0.09842252 -0.19561477 -0.10135777 -0.12285558 -0.048709232
-0.05775087 -0.18528304 -0.11451573 -0.15800475 -0.064397894 -0.28790644 -0.096205585 -0.084853396
-0.07083844 0.040305287 0.0906721 0.27851075 0.07662101 -0.08923946 0.19177431 -0.056378074
0.10935447 -0.20092742 -0.3163547 -0.09391991 0.14398867 0.072579436 -0.15775055 0.043431804
0.21946041 -0.2413286 -0.3095897 -0.05648337 0.43697062 0.51481247 -0.5845278 -0.50945556
0.051364817 0.52714336 0.363487 0.1438836 0.12060255 -0.30940717 -0.49119157 -0.63893336
-0.1326316 0.6175208 0.34752277 -0.5853165 -0.52901626 0.041582473 0.5786766 0.29580703
-0.29473642 -0.73917395 0.032537926 0.67805284 0.59353495 -0.15828304 -0.6705813 -0.16078576
0.6622884 0.65584475 -0.07110632 -0.33096197 0.6998662 0.43611643 -0.25998157 -0.33049726
-0.17952119 0.19800287 -0.5232281 -0.70979804 -0.24517967 0.2731755 -0.27684236 -0.3469066
-0.32391086 0.5098317 0.58773667 -0.39350447 -0.09802985 0.4438772 0.4751757 0.062891185
0.09346479 0.28452143 0.25260845 0.0023183313 -0.661106 -0.28867427 -0.487217 -0.58010197
-0.4376076 -0.3508593 -0.24277665 -0.44476676 -0.5396798 -0.14859138 0.17258136 0.12751329
0.019346096 0.17896691 0.42318323 0.40382177 0.67616683 0.6967065 0.72177416 0.30505717
-0.09182403 0.15892185 0.34363997 -0.029935004 -0.28352663 -0.24061471 -0.35049558 -0.27241373
-0.15367709 -0.010388089 0.053249262 -0.26916477 -0.047831234 -0.25993687 -0.06719037 -0.021846855
-0.18243684 -0.15263946 -0.22150238 -0.17082007 -0.01649348 -0.12165563 -0.14408118 -0.1165433
-0.2942665 -0.04084961 0.0066295024 -0.21639706 -0.16304724 -0.15228495 -0.22328845 0.36111298
0.27298337 0.26115158 0.39883402 -0.119222775 0.34698564 0.30729577 0.40293404 0.048065823
-0.12483993 0.32104787 0.052871227 -0.1116994 -0.3834069 -0.20521425 0.20749132 -0.05043431
-0.37422016 -0.19235285 -0.373042 -0.2794536 -0.42166412 -0.18694562 -0.28352416 -0.17218116
0.20659776 0.07256094 -0.4406906 -0.42530626 -0.28846183 0.4281015 -0.0064142034 0.049744003
-0.15009996 -0.19210531 0.27190587 0.10468978 0.03327353 -0.20946345 -0.2261107 0.26707366
0.04175461 -0.018792333 0.08050904 -0.33364964 0.15360208 0.4324479 0.28704718 0.07568408
-0.25283745 0.14073731 -0.21493778 -0.18811266 -0.24775185 -0.23582354 0.12160784 0.43639255
0.41075414 0.6003276 0.46118763 -0.16349645 0.15919332 -0.011416229 0.12597413 0.4212748
-0.1474284 -0.09991619 -0.38434783 -0.22397135 0.18525635 -0.34239447 -0.0050018677 -0.39844242
-0.2031202 -0.06574374 -0.08103983 0.1451386 0.319372 -0.28346485 -0.6040212 -0.07298719
00000000: d233 25bc 67bb 64be a47e 1abf 20ba f9be
00000010: 81c9 80be 2957 813e b51e 5fbe f546 96be
00000020: e289 e5be da9f 80be 66e2 f13e e7fc 3d3d
00000030: 54fe f3be 7734 0dbf 1c21 ebbe ca60 383f
00000040: 67e2 0b3f ba74 863e a700 88be 7fa4 bcbe
00000050: 73f4 1c3f 01b1 473f bfb7 0d3f d826 043f
00000060: 72cd 023d a746 f1bc eee7 763c caf0 40be
00000070: 3a63 28be 8b9b 4dbe 6e09 1fbd 5500 a53b
00000080: 8212 60be 2bdb f7bd db1e 44be bf91 c9bd
00000090: 3d4f 48be aa94 cfbd b59b fbbd 5583 47bd
000000a0: 2d8c 6cbd d6ba 3dbe 3987 eabd ffcb 21be
000000b0: 0be3 83bd 7968 93be 6f07 c5bd 9ec7 adbd
000000c0: be13 91bd 2817 253d 4bb2 b93d f698 8e3e
000000d0: 7aeb 9c3d 2ec3 b6bd 7c60 443e b2ec 66bd
000000e0: 3df5 df3d ebbf 4dbe 3ef9 a1be 1559 c0bd
000000f0: c471 133e 87a4 943d 5c89 21be 8ce5 313d
00000100: 3bba 603e d81e 77be 8b82 9ebe 1b5b 67bd
00000110: 9dba df3e c0ca 033f 9da3 15bf ae6b 02bf
00000120: ea63 523d def2 063f f81a ba3e 3956 133e
00000130: 78fe f63d 9e6a 9ebe 767d fbbe 2391 23bf
00000140: 94d0 07be d815 1e3f 81ee b13e 4dd7 15bf
00000150: 9c6d 07bf 6252 2a3d 2624 143f 0574 973e
00000160: b1e7 96be 813a 3dbf 7d46 053d df94 2d3f
00000170: e8f1 173f f314 22be 37ab 2bbf 06a5 24be
00000180: bc8b 293f 71e5 273f 31a0 91bd d973 a9be
00000190: 6e2a 333f a74a df3e 4e1c 85be f036 a9be
000001a0: 67d4 37be 44c1 4a3e 47f2 05bf 53b5 35bf
000001b0: 6110 7bbe a9dd 8b3e 48be 8dbe be9d b1be
000001c0: a5d7 a5be 5584 023f e975 163f 6b79 c9be
000001d0: e0c3 c8bd df43 e33e 3b4a f33e 18cd 803d
000001e0: 786a bf3d cbac 913e e555 813e 25ef 173b
000001f0: 3e3e 29bf 1dcd 93be 8274 f9be 9081 14bf
00000200: 1a0e e0be d5a3 b3be 719a 78be 78b8 e3be
00000210: 7528 0abf 5728 18be 2bb9 303e d892 023e
00000220: b47b 9e3c 1a43 373e 79ab d83e bac1 ce3e
00000230: 4519 2d3f 5b5b 323f 31c6 383f 7430 9c3e
00000240: 3d0e bcbd 69bc 223e 94f1 af3e 413a f5bc
00000250: 672a 91be b463 76be 2874 b3be d079 8bbe
00000260: 875d 1dbe ce32 2abc e61b 5a3d f7cf 89be
00000270: afea 43bd 7216 85be 1b9b 89bd 2df8 b2bc
00000280: b9d0 3abe 854d 1cbe 85d1 62be 75eb 2ebe
00000290: 561d 87bc 9626 f9bd 048a 13be 41ae eebd
000002a0: 19aa 96be ec51 27bd 4c3c d93b 3197 5dbe
000002b0: dbf5 26be 96f0 1bbe baa5 64be cde3 b83e
000002c0: 7ac4 8b3e a9b5 853e f933 cc3e 122b f4bd
000002d0: 1aa8 b13e df55 9d3e 5f4d ce3e abe0 443d
000002e0: 14ac ffbd 6360 a43e 808f 583d a8c2 e4bd
000002f0: e94d c4be af23 52be 9b78 543e 3594 4ebd
00000300: c999 bfbe 25f8 44be 5cff bebe 8b14 8fbe
00000310: 5ce4 d7be ac6e 3fbe 142a 91be 4250 30be
00000320: 5d8e 533e d59a 943d 33a2 e1be bec1 d9be
00000330: 45b1 93be 1f30 db3e 3d2e d2bb 5ec0 4b3d
00000340: ceb3 19be 41b7 44be 3f37 8b3e 9867 d63d
00000350: d349 083d 967d 56be 9089 67be e1bd 883e
00000360: e206 2b3d 61f2 99bc ece1 a43d 20d4 aabe
00000370: dd49 1d3e d069 dd3e d9f7 923e 4100 9b3d
00000380: e973 81be 711d 103e a618 5cbe 9ba0 40be
00000390: a9b2 7dbe ba7b 71be 880d f93d d86e df3e
000003a0: 5e4e d23e 12af 193f c920 ec3e 9d6b 27be
000003b0: 9303 233e 230b 3bbc 5dff 003e 55b1 d73e
000003c0: 78f7 16be dca0 ccbd 3dc9 c4be bf58 65be
000003d0: d7b3 3d3e 544e afbe b5e6 a3bb a500 ccbe
000003e0: befe 4fbe a7a4 86bd 36f8 a5bd 379f 143e
000003f0: ba84 a33e 4e22 91be 22a1 1abf 4f7a 95bd

bias f4 [32]
-0.17040738 -0.7352355 0.21771027 -0.3785939 -0.07840454 0.008697168 -0.7089526 -0.3095619
-0.05442916 -0.056479845 -0.25177464 -0.06726447 -0.037129994 0.024455946 -0.15062217 -0.043876275
-0.07399423 -0.857147 0.012477695 0.016759528 0.077449806 -0.21045114 0.057134118 -0.17880738
-0.109029464 -0.14059651 -0.12250187 0.0900774 -0.008690648 -0.1580213 0.044315044 -0.5526783
00000000: 467f 2ebe 6538 3cbf 71ef 5e3e 0fd7 c1be
00000010: 8f92 a0bd 917e 0e3c eb7d 35bf e67e 9ebe
00000020: 1cf1 5ebd 6957 67bd 9be8 80be f4c1 89bd
00000030: 9f15 18bd d657 c83c b33c 1abe 9cb7 33bd
00000040: 498a 97bd fc6d 5bbf 3f6f 4c3c 474b 893c
00000050: 019e 9e3d 8180 57be 7705 6a3d 4819 37be
00000060: d74a dfbd 88f8 0fbe 43e2 fabd 807a b83d
00000070: 3863 0ebc 56d0 21be b183 353d 537c 0dbf

weight f4 [64, 32, 5, 5]
0.036410816 -0.010746094 -0.014619261 -0.017607212 -0.051378507 0.07134511 -0.017264929 -0.017305061
-0.04083441 -0.009340432 0.072452314 0.003644282 -0.03832993 -0.06561935 -0.019274782 0.030814447
-0.03409119 -0.037141193 -0.040751394 -0.015490855 0.017376453 -0.039250646 -0.020499606 -0.052671846
-0.020940002 0.00023332098 0.01725323 -0.04267953 0.037069317 0.043546084 0.0075820345 -0.021162443
0.025907964 -0.010282624 -0.0115234675 -0.032047782 -0.026966726 0.0037499974 -0.013518326 -0.030394474
-0.046196826 -0.016620623 -0.021764547 -0.027381605 0.024595937 0.022186548 -0.04664056 -0.044370003
-0.044961087 -0.05052585 -0.044216536 0.04588579 0.031546015 0.040619522 0.07432253 -0.07272132
-0.014922606 0.026947554 0.009477786 0.06755991 -0.018747663 -0.005843794 -0.016917877 0.029911406
-0.046249796 -0.007300215 0.016915767 0.018726617 0.0003531274 0.01608247 0.030962821 0.03536586
0.04129418 -0.004036176 -0.022775995 -0.021100681 -0.008821334 0.00021557807 -0.01295835 -0.042506836
-0.010172549 -0.02417291 0.022511838 -0.023822691 -0.066814914 -0.051422358 -0.05143922 -0.04496975
-0.03054658 -0.048521347 -0.09970464 -0.07070551 -0.041714534 -0.07631995 -0.028597683 -0.10054096
-0.07378728 -0.052387983 -0.0020817919 -0.08230096 -0.08968387 0.0023226324 0.039577294 0.070847355
0.11675275 -0.09214061 -0.0029373171 -0.033385023 0.028728975 0.027536755 -0.072336406 -0.03516621
-0.016637046 0.020164618 0.008480245 -0.06495079 0.004098736 -0.00608802 -0.0022892964 -0.01659644
-0.008563841 -0.012810675 0.041907575 0.0048858486 0.028315755 -0.07939944 -0.034457516 -0.023116892
-0.03287726 0.0453518 0.0455918 -0.027185772 -0.03336034 0.0170628 0.09401768 0.040281538
0.05405449 0.044702623 0.036449935 0.039246056 0.08696827 0.09454426 0.05442525 0.06934515
0.019008579 0.1512632 0.08968155 0.09762396 0.030576468 -0.006762631 0.06185375 -0.0067698993
-0.0126983095 -0.031842116 -0.04788959 0.04507874 -0.0057471404 0.0051757735 0.0024976167 0.00919451
0.009935847 -0.023109997 0.007785395 -0.021636885 -0.03807427 -0.028612053 -0.028720345 -0.045587767
-0.05880546 -0.07351767 0.006182993 -0.05673363 -0.07177439 -0.050073445 -0.0698436 -0.10417642
-0.04256413 0.0041020014 0.04535686 0.036106765 -0.040060155 -0.049101833 0.003532995 0.022710934
0.03750769 -0.00020323321 -0.0096878195 0.0126600675 0.015083742 -0.014515789 0.0051408256 0.012283792
-0.01215989 -0.028418021 0.022519657 0.0050445334 0.028041631 0.068034075 0.062409174 0.050022114
0.0018943399 -0.01465527 0.0077892374 0.00065790425 -0.058281578 0.00039163828 -0.049462322 0.011871737
-0.03549668 0.0028952742 -0.01599533 -0.057381805 -0.016547933 -0.020084199 0.01346075 -0.016773526
-0.081756115 -0.023932021 -0.03759604 -0.02692754 -0.008863989 -0.024056913 -0.07964303 -0.024508525
0.022313848 0.027982393 0.02860221 -0.029435184 -0.040700827 0.010681358 0.04731073 0.05326228
-0.01950367 -0.03393471 -0.023888405 0.01399496 0.03699883 0.025291422 -0.010494972 -0.044400476
0.07153231 -0.0075065503 0.036905542 -0.049218103 -0.06393766 0.025807314 0.059890952 0.029810572
0.023928972 -0.028855255 0.04089622 0.030342432 0.0074967532 0.0015219037 -0.0164653 0.02012587
00000000: 8223 153d 6310 30bc a085 6fbc 003d 90bc
00000010: 4572 52bd 631d 923d 2e6f 8dbc 58c3 8dbc
00000020: fb41 27bd 9c08 19bc e161 943d e8d4 6e3b
00000030: d8ff 1cbd 7063 86bd 26e6 9dbc 946e fc3c
00000040: 34a3 0bbd 5d21 18bd efea 26bd 5bcd 7dbc
00000050: 1059 8e3c 49c5 20bd caee a7bc 6fbe 57bd
00000060: 5e8a abbc a0a7 7439 a556 8d3c bbd0 2ebd
00000070: ffd5 173d 615d 323d b772 f83b dc5c adbc
00000080: f03c d43c 7378 28bc edcc 3cbc 8944 03bd
00000090: 53e9 dcbc 84c2 753b f87b 5dbc d5fd f8bc
000000a0: e238 3dbd f927 88bc 904b b2bc 634f e0bc
000000b0: 6b7d c93c 90c0 b53c 2c0a 3fbd 52bd 35bd
000000c0: 1e29 38bd 32f4 4ebd 661c 35bd bdf2 3b3d
000000d0: 6536 013d a860 263d 6936 983d eaee 94bd
000000e0: f27d 74bc 1ec1 dc3c b748 1b3c da5c 8a3d
000000f0: b394 99bc 4c7d bfbb 5c97 8abc c408 f53c
00000100: 6d70 3dbd a436 efbb ef92 8a3c 9068 993c
00000110: f523 b939 62bf 833c bea5 fd3c cbdb 103d
00000120: 1624 293d e641 84bb b994 babc 56db acbc
00000130: 5b87 10bc cc0c 6239 424f 54bc a61b 2ebd
00000140: c3aa 26bc 4406 c6bc bf6a b83c ce27 c3bc
00000150: 42d6 88bd 40a0 52bd eeb1 52bd 3332 38bd
00000160: d23c fabc 52be 46bd f231 ccbd 0dce 90bd
00000170: dcdc 2abd a24d 9cbd b045 eabc 6be8 cdbd
00000180: c91d 97bd c894 56bd ac6e 08bb 688d a8bd
00000190: 2dac b7bd 4e37 183b cd1b 223d 6b18 913d
000001a0: 111c ef3d 37b4 bcbd 0180 40bb bcbe 08bd
000001b0: 0759 eb3c c394 e13c 1c25 94bd 720a 10bd
000001c0: 6a4a 88bc 4530 a53c baf0 0a3c eb04 85bd
000001d0: b14e 863b 037e c7bb 0508 16bb 42f5 87bc
000001e0: 5a4f 0cbc dee3 51bc 47a7 2b3d 7819 a03b
000001f0: 71f6 e73c 2c9c a2bd 5323 0dbd a35f bdbc
00000200: 4eaa 06bd cfc2 393d 78be 3a3d b2b4 debc
00000210: daa4 08bd 49c7 8b3c 578c c03d 41fe 243d
00000220: 3e68 5d3d 191a 373d 874c 153d 79c0 203d
00000230: 6c1c b23d 6ca0 c13d 03ed 5e3d d404 8e3d
00000240: e1b7 9b3c bee4 1a3e f6aa b73d 12ef c73d
00000250: 807b fa3c 0f99 ddbb 5c5a 7d3d 08d6 ddbb
00000260: 920c 50bc e16c 02bd e027 44bd 7ca4 383d
00000270: 8252 bcbb 8999 a93b 0eaf 233b 92a4 163c
00000280: f6c9 223c 2d51 bdbc a01c ff3b d63f b1bc
00000290: c4f3 1bbd d363 eabc ee46 ebbc 3dba 3abd
000002a0: fedd 70bd 6f90 96bd b49a ca3b 8661 68bd
000002b0: 74fe 92bd d019 4dbd 290a 8fbd 725a d5bd
000002c0: ba57 2ebd 156a 863b 1dc8 393d b0e4 133d
000002d0: 1e16 24bd 011f 49bd d289 673b 480c ba3c
000002e0: aaa1 193d 001b 55b9 a9b9 1ebc 2c6c 4f3c
000002f0: cd21 773c a2d3 6dbc 5f74 a83b f541 493c
00000300: 463a 47bc e9cc e8bc 257b b83c 9d4c a53b
00000310: 90b7 e53c 7355 8b3d c3a0 7f3d fde3 4c3d
00000320: 804b f83a a81c 70bc dc3c ff3b 3577 2c3a
00000330: aab8 6ebd cd54 cd39 0199 4abd ad81 423c
00000340: f764 11bd a4be 3d3b a308 83bc 2f09 6bbd
00000350: 888f 87bc 9e87 a4bc 7a8a 5c3c a268 89bc
00000360: c06f a7bd 160d c4bc 4efe 19bd 2597 dcbc
00000370: 443a 11bc 0113 c5bc e31b a3bd 1ac6 c8bc
00000380: 88cb b63c 553b e53c 2f4f ea3c 0e22 f1bc
00000390: e9b5 26bd dd00 2f3c e5c8 413d 8c29 5a3d
000003a0: 29c6 9fbc 1fff 0abd 9eb1 c3bc 1e4b 653c
000003b0: 168c 173d f52f cf3c 1af3 2bbc 46dd 35bd
000003c0: 887f 923d 82f9 f5bb 442a 173d ec98 49bd
000003d0: bff1 82bd dc69 d33c 3750 753d 4d35 f43c
000003e0: b106 c43c db61 ecbc cb82 273d b190 f83c
000003f0: 53a7 f53b 9d7a c73a 3de2 86bc 02df a43c

bias f4 [64]
-0.0042110058 0.017360836 0.031105453 0.016504059 -0.025528729 -0.0028010109 -0.01758962 -0.030953517
-0.011079227 0.014336429 -0.05215238 -0.006734217 -0.015240021 0.0038296445 -0.04180371 0.025837477
0.018679919 -0.003129074 -0.013020076 0.01120531 -0.009911708 -0.032787576 0.03122701 -0.049397234
-0.01463354 -0.028507454 -0.033341795 0.020596603 0.0047783065 0.049197905 -0.010446091 -0.00070913613
0.013154629 0.040820207 -0.03511338 0.04168853 0.014859277 0.025852809 -0.045435604 0.027319148
0.013672124 0.022729957 -0.039379824 -0.009796252 0.0015528484 0.02392111 0.018164858 -0.03667737
-0.02700101 0.031631127 0.021717705 -0.026153738 -0.039555877 -0.013456274 -0.0002449617 -0.025071
-0.01913792 -0.02553154 0.00032894246 -0.061971888 -0.0014038906 0.036774963 -0.031747386 -0.008519285
00000000: 7afc 89bb 5038 8e3c ddd0 fe3c 8533 873c
00000010: a021 d1bc 2a91 37bb 1b18 90bc 3b92 fdbc
00000020: a585 35bc 57e3 6a3c bc9d 55bd b5aa dcbb
00000030: 48b1 79bc c6fa 7a3b 5e3a 2bbd 1ea9 d33c
00000040: a106 993c 2611 4dbb 2852 55bc 7a96 373c
00000050: b764 22bc 444c 06bd c9cf ff3c c154 4abd
00000060: 84c1 6fbc 7788 e9bc 6891 08bd 35ba a83c
00000070: 5793 9c3b be83 493d 1526 2bbc 52e5 39ba
00000080: 8386 573c 1733 273d 0cd3 0fbd 98c1 2a3d
00000090: 5374 733c 45c9 d33c af1a 3abd 68cc df3c
000000a0: 0b01 603c 2d34 ba3c bd4c 21bd 7580 20bc
000000b0: f288 cb3a 34f6 c33c 78ce 943c 033b 16bd
000000c0: 3931 ddbc a48f 013d 54e9 b13c 5d40 d6bc
000000d0: 5805 22bd b477 5cbc 346e 80b9 b361 cdbc
000000e0: 21c7 9cbc 8527 d1bc e975 ac39 3cd6 7dbd
000000f0: c002 b8ba 58a1 163d 8c09 02bd 7994 0bbc

weight f4 [512, 64]
0.07804482 -0.25521287 -0.069003865 -0.12807313 0.13956204 0.06772687 0.059854176 0.11105032
-0.15863831 -0.07167431 0.0017343796 -0.0064192936 0.11420596 0.012842466 -0.107990235 0.11000574
0.07671862 0.16443376 0.054105684 -0.019649517 -0.20945495 0.0006085635 0.07222365 0.11584406
-0.00019329775 0.052359324 0.08159138 0.098402485 0.024807435 -0.13081793 -0.23092125 0.16707622
-0.19959056 0.022861492 0.0950992 -0.17064476 -0.0011078109 0.03889444 -0.09552726 -0.061027195
0.101689264 0.019385 0.11023524 0.04721536 -0.110303886 0.0908015 0.06661335 0.14810047
-0.21375597 0.14358729 -0.105810694 0.033727355 0.08397473 -0.024780149 -0.06822734 -0.22266029
0.023005253 0.031056043 0.13338062 -0.1214615 -0.08601978 0.12033423 0.021537034 -0.06635475
0.16544227 0.020874286 0.12790202 0.07616032 0.007793539 0.04965169 -0.054164764 -0.030629182
0.098249406 -0.014238314 -0.06270736 -0.09575183 -0.07602123 -0.14884411 -0.13164815 0.052998237
-0.113627374 0.07264454 0.07311953 0.057850517 0.06722942 0.020135893 0.092356704 -0.16976576
0.018430926 0.1804758 0.098547205 -0.13318987 -0.20278397 0.10506919 -0.12440645 -0.14470492
0.016528213 0.06813208 0.100620374 -0.14739309 0.08887675 -0.0031394428 -0.0016349057 0.013136598
0.09052311 0.022228645 0.052374735 -0.13083442 0.037108928 0.09094356 0.07033606 -0.08322316
0.067483865 0.016512087 0.0026717759 0.06682821 -0.10224844 0.1125042 -0.089680806 0.04901527
0.04670145 -0.077508174 -0.11631789 0.015827907 -0.11350385 -0.1476632 -0.10697578 0.08202062
0.04096129 -0.018214045 0.014058256 -0.040817965 -0.008225088 0.061159387 0.14486943 0.09548187
0.0064290697 0.07575316 -0.061007526 -0.01093874 0.021619072 -0.114286356 -0.0077260034 0.053648647
-0.035147488 0.13254187 -0.13343474 0.057081636 0.086616635 -0.10124841 -0.1112878 -0.057582054
0.0152784325 0.029759921 -0.017245945 -0.07406776 -0.05702551 -0.13457845 -0.0537253 0.11217399
-0.027668733 -0.010023839 -0.15850076 0.101027355 -0.057305053 -0.05471823 -0.06996036 0.03352242
-0.031321358 0.07123291 -0.026199086 -0.10340279 -0.057544377 0.0067889276 0.14519024 0.09858948
0.017231816 -0.100378364 0.13204508 0.06601839 0.081742525 0.023429586 -0.03402466 -0.03721244
0.028475806 0.11694537 0.0041520367 0.07672689 0.0046398817 -0.009501641 -0.017310278 -0.08896956
0.09393536 -0.03414938 -0.07606225 -0.10444703 0.022189172 -0.07941887 0.02605066 -0.020064212
0.12515198 -0.18148705 0.04579472 0.051430654 0.13026199 -0.15265837 0.084687 0.03062593
0.046416085 0.1443792 0.12932995 0.04614048 -0.06798341 -0.08654747 -0.07591491 -0.029781874
-0.1131618 0.018036662 -0.10116848 -0.08912697 -0.02792797 -0.13144806 0.09667229 -0.035807446
-0.0462158 -0.14749584 0.040233344 -0.005135917 -0.05787597 -0.14099465 -0.09114176 0.10632717
-0.02275331 -0.15137912 -0.088814266 0.13020018 0.021562321 -0.0050120596 -0.09902219 -0.17743649
0.10874498 0.110857554 -0.16338852 0.059052754 0.1279198 -0.016308459 0.06892503 0.1264581
-0.07970969 0.06897425 0.046328887 -0.10004742 0.073686086 -0.119885094 -0.011136615 0.099436566
00000000: f6d5 9f3d 43ab 82be e651 8dbd 9a25 03be
00000010: 5ae9 0e3e 63b4 8a3d a729 753d 5a6e e33d
00000020: 1572 22be fbc9 92bd 1f54 e33a f058 d2bb
00000030: d0e4 e93d 3569 523c fc29 ddbd b04a e13d
00000040: a71e 9d3d 5361 283e ec9d 5d3d 06f8 a0bc
00000050: 5c7b 56be 0188 1f3a fee9 933d a73f ed3d
00000060: f8af 4ab9 bb76 563d 6219 a73d 3e87 c93d
00000070: f638 cb3c 23f5 05be 9f76 6cbe 0716 2b3e
00000080: 7861 4cbe 0648 bb3c 5fc3 c23d 80bd 2ebe
00000090: f733 91ba c74f 1f3d cca3 c3bd a7f7 79bd
000000a0: 7642 d03d 4bcd 9e3c 03c3 e13d e564 413d
000000b0: 01e7 e1bd 23f6 b93d 946c 883d a6a7 173e
000000c0: d8e2 5abe 8c08 133e 47b3 d8bd b225 0a3d
000000d0: f1fa ab3d bdff cabc c7ba 8bbd 0f01 64be
000000e0: 8375 bc3c 3e69 fe3c ee94 083e cfc0 f8bd
000000f0: 232b b0bd cb71 f63d 6f6e b03c 00e5 87bd
00000100: b369 293e 8d00 ab3c bff8 023e f1f9 9b3d
00000110: f260 ff3b 925f 4b3d dfdb 5dbd 0dea fabc
00000120: fc36 c93d d147 69bc b76c 80bd 8919 c4bd
00000130: 05b1 9bbd 976a 18be c6ce 06be ae14 593d
00000140: 78b5 e8bd a9c6 943d b1bf 953d aaf4 6c3d
00000150: 94af 893d 07f4 a43c 8325 bd3d 13d7 2dbe
00000160: 74fc 963c a6ce 383e 1ed3 c93d ed62 08be
00000170: 9aa6 4fbe 842e d73d cfc8 febd 872d 14be
00000180: 2d66 873c d588 8b3d 0e12 ce3d 37ee 16be
00000190: 0305 b63d 1cbf 4dbb 554a d6ba e33a 573c
000001a0: 2e64 b93d d918 b63c e486 563d 75f9 05be
000001b0: 88ff 173d 9e40 ba3d 5a0c 903d e770 aabd
000001c0: fb34 8a3d 5b44 873c f618 2f3b 3bdd 883d
000001d0: a167 d1bd 9a68 e63d 92aa b7bd 3cc4 483d
000001e0: 054a 3f3d 9bbc 9ebd 1338 eebd 87a9 813c
000001f0: b574 e8bd 0635 17be 1e16 dbbd 6dfa a73d
00000200: 07c7 273d 9f35 95bc 9954 663c bd30 27bd
00000210: 85c2 06bc 4482 7a3d a758 143e 008c c33d
00000220: f2aa d23b 7924 9b3d 07e3 79bd 6738 33bc
00000230: 7b1a b13c f70e eabd 6a2a fdbb afbe 5b3d
00000240: d0f6 0fbd 0eb9 073e 1ea3 08be 6fce 693d
00000250: 1064 b13d 545b cfbd dcea e3bd 29db 6bbd
00000260: 6452 7a3c 14cb f33c 5e47 8dbc d6b0 97bd
00000270: 9593 69bd efce 09be 0f0f 5cbd 7abb e53d
00000280: 8aa9 e2bc 073b 24bc 064e 22be 6ee7 ce3d
00000290: b4b8 6abd 3920 60bd 6147 8fbd ce4e 093d
000002a0: d34a 00bd 8fe2 913d 779f d6bc d8c4 d3bd
000002b0: a7b3 6bbd a775 de3b c0ac 143e 48e9 c93d
000002c0: bd29 8d3c 2c93 cdbd d336 073e a634 873d
000002d0: a068 a73d 67ef bf3c 715d 0bbd 126c 18bd
000002e0: 1846 e93c 0e81 ef3d cf0d 883b fd22 9d3d
000002f0: 260a 983b c5ac 1bbc 49ce 8dbc ac35 b6bd
00000300: 2f61 c03d 38e0 0bbd 86c6 9bbd 53e8 d5bd
00000310: 11c6 b53c 5ca6 a2bd 3268 d53c b45d a4bc
00000320: d727 003e bed7 39be 3f93 3b3d f3a8 523d
00000330: 6663 053e 7a52 1cbe 6170 ad3d 3be3 fa3c
00000340: cb1e 3e3d 24d8 133e 126f 043e cdfd 3c3d
00000350: e33a 8bbd cd3f b1bd 4779 9bbd 1ef9 f3bc
00000360: 60c1 e7bd 9fc1 933c 6c31 cfbd 3388 b6bd
00000370: 33c9 e4bc 529a 06be 1ffc c53d d4aa 12bd
00000380: c74c 3dbd 2609 17be b8cb 243d 324b a8bb
00000390: 5a0f 6dbd e760 10be 88a8 babd 0fc2 d93d
000003a0: 2665 babc 2103 1bbe 41e4 b5bd 3253 053e
000003b0: 77a3 b03c 343c a4bb 25cc cabd e9b1 35be
000003c0: b0b5 de3d 4909 e33d 524f 27be 4de1 713d
000003d0: 68fd 023e 5199 85bc 9128 8d3d 3b7e 013e
000003e0: d53e a3bd 5f42 8d3d 5cc3 3d3d a9e5 ccbd
000003f0: bbe8 963d 5186 f5bd 5976 36bc 66a5 cb3d

bias f4 [512]
0.100417465 -0.13003762 -0.08719515 -0.074095316 0.05054157 -0.09327645 -0.09095691 0.04719087
-0.08868268 -0.094788395 0.1158897 0.08997778 -0.07762328 0.04138499 0.026082408 0.06303149
0.08549384 0.1271217 0.030708058 0.024867572 -0.025245374 0.03276766 -0.05955546 0.12541287
0.1290971 -0.008969034 0.022055935 -0.09195582 -0.09605694 -0.07960322 -0.021044783 0.070393875
-0.0020642846 -0.10704149 0.03457728 0.08446449 -0.103009425 -0.11303004 -0.05592077 0.02520631
0.039126858 -0.0687086 0.026807815 -0.016363759 -0.00929387 0.11539795 0.047709636 -0.017575266
0.022248607 -0.05892571 0.092233524 -0.004594466 0.07933154 -0.060223263 0.06917139 0.04556073
0.07331037 -0.0025292272 -0.051554825 0.050868038 0.10803783 -0.034193337 -0.030683873 0.010778418
0.08572527 0.03125612 -0.025998192 0.04526035 -0.031210853 -0.032902688 0.117541224 -0.083130896
-0.10467144 -0.00089748035 -0.099612735 0.0052578845 0.07753999 -0.010382368 0.022459056 0.11466913
-0.07417022 0.0739454 0.08761104 0.0380321 0.0806654 -0.08340659 0.019558925 -0.016761439
-0.06340027 0.03434757 -0.12237375 0.11003297 -0.11922943 0.14486493 0.041743297 0.09762673
-0.05953079 -0.07568228 0.024087073 -0.07733467 -0.09318572 -0.11941594 0.084753625 -0.0048689405
0.09656882 0.09838072 0.040325217 0.045934297 -0.063203774 0.03495417 -0.0067659863 -0.12478147
0.023726806 -0.1265294 -0.123805225 -0.07613671 -0.049527932 -0.10429851 0.051805027 -0.094988085
0.027741797 -0.08344363 0.0604391 0.07913282 0.024003213 -0.1117399 0.077064894 0.05486569
-0.09881348 0.0483596 -0.10695651 -0.09297189 -0.005510111 -0.067416616 -0.04717042 0.08005918
-0.031905927 0.025013208 -0.10384828 0.0104863215 0.04256445 -0.11896287 -0.046004053 -0.013694641
-0.10662276 -0.04471217 0.10576243 0.1283185 0.12978502 0.11765511 0.1350157 -0.08561313
0.06492517 -0.10725001 0.08631594 -0.013774292 0.117672846 -0.0039866758 -0.016204536 0.07336105
0.11871289 0.043444354 0.026646167 0.076546684 -0.086902805 0.0004577239 0.011969868 -0.07608388
0.045135424 0.020855146 -0.037958954 0.009712013 -0.10148321 0.0953884 -0.029112145 0.098994054
-0.09971977 0.018847954 -0.059125703 -0.115828015 0.09758886 0.028626345 -0.04877193 0.071612
-0.088093854 0.11092791 -0.083942324 -0.015746588 0.055629876 -0.112324156 0.08416046 0.021216135
-0.042304028 0.06599298 -0.08380658 -0.018260004 -0.070321225 -0.015928114 -0.04335798 -0.034808915
0.048559975 0.03825223 -0.080063194 -0.0072735148 0.098012745 -0.056055706 0.040432796 -0.092622824
0.09411458 0.030970538 -0.04606594 0.0859987 0.021670591 0.037334476 -0.04847722 -0.024419276
-0.06545809 0.09877299 0.09491549 -0.055640277 -0.0011580307 0.042042807 0.044269547 -0.07346385
0.0031811083 0.06547511 -0.11990227 -0.02578801 0.047772072 0.09910751 -0.022826204 -0.06629362
0.027227934 0.029600466 0.12559064 0.0947854 -0.024877597 -0.015805298 0.014928541 -0.123809606
0.09815832 0.06703473 0.070389695 -0.08257701 0.010535985 0.09472728 0.08645138 -0.05243996
-0.025995664 -0.07993654 0.011765658 -0.12592475 0.08629516 -0.028238619 0.066673465 -0.03359542
00000000: aca7 cd3d 9528 05be 5f93 b2bd 49bf 97bd
00000010: ad04 4f3d b907 bfbd 9e47 babd 374b 413d
00000020: 449f b5bd 6b20 c2bd 9457 ed3d 4546 b83d
00000030: f4f8 9ebd 4f83 293d c6aa d53c a716 813d
00000040: 6517 af3d 312c 023e 778f fb3c 14b7 cb3c
00000050: 63cf cebc 6237 063d 6df0 73bd 3b6c 003e
00000060: 0832 043e dbf2 12bc a6ae b43c 5553 bcbd
00000070: 80b9 c4bd 0307 a3bd 1c66 acbc aa2a 903d
00000080: f348 07bb 9238 dbbd e8a0 0d3d b8fb ac3d
00000090: 9bf6 d2bd 4b7c e7bd 2d0d 65bd 777d ce3c
000000a0: 7c43 203d 18b7 8cbd 109c db3c 4a0d 86bc
000000b0: 5145 18bc c355 ec3d 2e6b 433d 01fa 8fbc
000000c0: b642 b63c 165c 71bd eee4 bc3d 2d8d 96bb
000000d0: 9378 a23d abac 76bd bba9 8d3d e39d 3a3d
000000e0: bf23 963d 64c1 25bb 272b 53bd 015b 503d
000000f0: f042 dd3d 500e 0cbd bf5c fbbc f697 303c
00000100: bb90 af3d 6b06 003d 29fa d4bc eb62 393d
00000110: e7ad ffbc f8c4 06bd 74b9 f03d 8840 aabd
00000120: fb5d d6bd e344 6bba c301 ccbd 554a ac3b
00000130: 49cd 9e3d cf1a 2abc 0efc b73c a6d7 ea3d
00000140: 8ee6 97bd b070 973d 6b6d b33d 8cc7 1b3d
00000150: e733 a53d 13d1 aabd 0a3a a03c 494f 89bc
00000160: 00d8 81bd 0ab0 0c3d 179f fabd f758 e13d
00000170: 8f2e f4bd 7957 143e 05fb 2a3d 86f0 c73d
00000180: 8fd6 73bd 50ff 9abd 4152 c53c a461 9ebd
00000190: 28d8 bebd 5890 f4bd 4f93 ad3d a28b 9fbb
000001a0: e0c5 c53d d57b c93d 0e2c 253d 9a25 3c3d
000001b0: fb70 81bd 1b2c 0f3d 35b5 ddbb 6d8d ffbd
000001c0: b85e c23c ec90 01be 988d fdbd 90ed 9bbd
000001d0: cddd 4abd 759a d5bd 8231 543d 1d89 c2bd
000001e0: c442 e33c 7ee4 aabd fd8e 773d 6310 a23d
000001f0: 63a2 c43c e4d7 e4bd 33d4 9d3d d9ba 603d
00000200: b95e cabd b714 463d 040c dbbd 0c68 bebd
00000210: 298e b4bb b911 8abd c535 41bd 11f6 a33d
00000220: caaf 02bd 80e8 cc3c 68ae d4bd d2ce 2b3c
00000230: 1058 2e3d cea2 f3bd bf6e 3cbd 7d5f 60bc
00000240: 095d dabd 1c24 37bd f999 d83d ed65 033e
00000250: 5de6 043e 2af5 f03d 8e41 0a3e f055 afbd
00000260: 7df7 843d e5a5 dbbd 69c6 b03d 91ad 61bc
00000270: 76fe f03d a9a2 82bb 60bf 84bc 513e 963d
00000280: be1f f33d b5f2 313d 1049 da3c 82c4 9c3d
00000290: 19fa b1bd a9fa ef39 441d 443c ded1 9bbd
000002a0: ecdf 383d 69d8 aa3c d97a 1bbd 231f 1f3c
000002b0: 6ed6 cfbd fe5a c33d 987c eebc 65bd ca3d
000002c0: e139 ccbd 0667 9a3c cb2d 72bd 3d37 edbd
000002d0: abdc c73d cc81 ea3c 13c5 47bd 50a9 923d
000002e0: 8d6a b4bd 2c2e e33d f4e9 abbd fdfe 80bc
000002f0: 27dc 633d 350a e6bd 525c ac3d 76cd ad3c
00000300: fd46 2dbd 5427 873d c9a2 abbd 0196 95bc
00000310: 9304 90bd ad7b 82bc 2398 31bd cb93 0ebd
00000320: d3e6 463d 5fae 1c3d 2cf8 a3bd aa56 eebb
00000330: e8ba c83d ab9a 65bd dc9c 253d 09b1 bdbd
00000340: 25bf c03d edb5 fd3c a4af 3cbd 1620 b03d
00000350: 8686 b13c 09ec 183d 0d90 46bd ef0a c8bc
00000360: e40e 86bd 7e49 ca3d 0d63 c23d 0fe7 63bd
00000370: 10c9 97ba 1435 2c3d fc53 353d 3774 96bd
00000380: 247a 503b d117 863d 528f f5bd 6041 d3bc
00000390: a6ac 433d e1f8 ca3d 05fe babc f3c4 87bd
000003a0: 1e0d df3c ad7c f23c d59a 003e d91e c23d
000003b0: 1acc cbbc 1d7a 81bc d796 743c e48f fdbd
000003c0: 3b07 c93d 8149 893d 7928 903d 231e a9bd
000003d0: 209f 2c3c 6000 c23d 6c0d b13d 49cb 56bd
000003e0: dcf4 d4bc c5b5 a3bd bfc4 403c 6bf2 00be
000003f0: 84bb b03d ad54 e7bc 198c 883d 5a9b 09bd

weight f4 [62, 512]
-0.06521798 0.026533568 0.02619942 0.026196053 0.062258624 0.10921639 0.099665515 0.02662326
-0.036238946 -0.05746525 0.060885243 -0.00979977 -0.060735587 0.00048743264 0.0076820175 -0.0039533875
0.08086442 -0.006132855 0.07664314 0.015560654 -0.016774401 -0.059815645 -0.05010391 0.039523646
-0.04750005 -0.031313706 -0.020944893 0.027636647 -0.021629963 -0.023286806 -0.07108827 0.07103521
-0.0009473167 0.018220048 -0.009546808 -0.0030118718 0.007999719 -0.019648835 -0.037829157 -0.009542548
0.02916181 0.03160966 -0.019805396 -0.018548703 0.034026865 -0.017869463 0.035628032 -0.027516056
0.06570231 -0.051918983 -0.064162984 0.009929754 0.0078897495 0.01253049 -0.03364528 0.051560383
-0.007952115 -0.011695917 -0.0074648526 0.0659102 -0.086380124 0.013371941 -0.048153985 -0.042800903
-0.03590048 -0.06931152 -0.036597252 0.03267663 0.037498437 -0.05763727 0.06551069 0.03473377
-0.005621948 -0.019663855 -0.018442243 -0.016510045 -0.00088835444 -0.03855261 -0.022395583 -0.03267455
0.02501132 -0.050098184 0.019650703 0.0046644635 0.0061722356 0.03052627 -0.02025745 0.04490807
-0.00279017 -0.022224538 -0.03055525 -0.0077895736 -0.008905873 0.073772885 0.054855328 0.044947874
0.1458256 0.13232167 -0.032930184 -0.0047055376 -0.090785004 0.032525655 -0.051228613 -0.06941861
0.022501808 0.0030418937 0.014443683 -0.008769987 -0.019771991 0.041631944 -0.008903088 0.10978669
-0.009891908 0.011798576 0.040020246 -0.008192559 -0.016649779 -0.053764924 0.044806283 0.05280575
-0.033699244 -0.03480737 0.017051626 0.010345562 -0.04490375 -0.047987998 -0.066401504 -0.019795787
0.07572476 0.0069812774 0.035084594 -0.036347374 0.036882903 0.030433819 -0.0083622765 0.026741596
0.023396919 -0.044578712 -0.049824007 -0.02383399 -0.06971084 -0.057289883 0.011929118 0.0011435985
-0.03484859 0.049068745 -0.023507118 0.10615171 -0.0021248078 0.03632136 0.018531216 -0.033342693
0.058244266 0.046394482 0.05067858 -0.031656306 -0.020049058 -0.030944614 0.065107055 -0.018154794
0.021374706 -0.036134515 -0.011292613 -0.0013513241 -0.013309227 0.06246905 0.040045943 0.016094087
0.0025642542 -0.028256627 -0.01670348 -0.017499428 0.0704366 -0.0051981816 0.0031248098 -0.04640177
-0.024018863 0.0527658 -0.030237231 -0.031906724 -0.007568544 -0.07139924 -0.044698138 -0.019875605
-0.008197582 -0.03254909 0.08451766 -0.025655448 0.05422944 0.03819299 -0.024151156 -0.050495245
0.025908686 -0.043191116 -0.0074001877 0.009726807 -0.011508672 -0.043081537 0.03529548 -0.04161502
-0.009324415 -0.016256006 0.08608171 0.04652914 0.13941213 0.027636074 0.01951221 -0.046842285
0.023292618 0.008336347 0.00045564363 -0.01870153 -0.04391421 0.049612693 0.0069796 -8.08614e-06
-0.008625806 -0.049282726 0.17338003 -0.043239024 0.07343597 -0.03584662 0.0181704 0.005625549
-0.0030685235 -0.06971036 0.022896044 -0.05891712 0.055678934 0.106991306 0.018599708 0.02546795
-0.05024065 -0.008672101 0.028398497 0.09117754 -0.04843658 -0.029521994 -0.067644306 0.015488091
0.0910691 -0.01293482 0.079031006 -0.01791771 -0.061126024 0.011627379 0.06695755 0.0019633276
-0.016734095 0.035332445 0.078710616 0.10152109 0.022244059 -0.054352254 -0.013894271 0.0061298613
00000000: 0191 85bd ed5c d93c 2ba0 d63c 1b99 d63c
00000010: e602 7f3d d8ac df3d 6f1d cc3d 0619 da3c
00000020: 4a6f 14bd af60 6bbd ce62 793d 378f 20bc
00000030: e1c5 78bd 1a8e ff39 6fb9 fb3b 6b8b 81bb
00000040: 3f9c a53d 1ef6 c8bb 14f7 9c3d 1df2 7e3c
00000050: 786a 89bc 4001 75bd c239 4dbd 8ce3 213d
00000060: 6a8f 42bd cd42 00bd a094 abbc 4066 e23c
00000070: 5231 b1bc f9c3 bebc ba96 91bd e87a 913d
00000080: 5955 78ba 3642 953c 376a 1cbc d362 45bb
00000090: 4111 033c 98f6 a0bc bff2 1abd 5958 1cbc
000000a0: c0e4 ee3c 2179 013d ed3e a2bc 73f3 97bc
000000b0: c15f 0b3d fb62 92bc b3ee 113d 5a69 e1bc
000000c0: ef8e 863d 00a9 54bd e267 83bd 68b0 223c
000000d0: 0244 013c af4c 4d3c a2cf 09bd fb30 533d
000000e0: 9649 02bc 3ba0 3fbc b99b f4bb edfb 863d
000000f0: 10e8 b0bd fc15 5b3c 1d3d 45bd 0050 2fbd
00000100: 620c 13bd 33f3 8dbd 00e7 15bd eed7 053d
00000110: f697 193d 0f15 6cbd 782a 863d ff44 0e3d
00000120: 5138 b8bb 1816 a1bc 3014 97bc 1340 87bc
00000130: 75e0 68ba 57e9 1dbd f176 b7bc c0d5 05bd
00000140: 8ae4 cc3c c133 4dbd 83fa a03c 5bd8 983b
00000150: 7740 ca3b 3a12 fa3c f4f2 a5bc 86f1 373d
00000160: 49db 36bb 3c10 b6bc 014f fabc ae3f ffbb
00000170: f0e9 11bc 3d16 973d fbaf 603d 431b 383d
00000180: 4e53 153e 557f 073e cde1 06bd e930 9abb
00000190: 7ded b9bd 9f39 053d 18d5 51bd 582b 8ebd
000001a0: b655 b83c 825a 473b 33a5 6c3c feaf 0fbc
000001b0: dff8 a1bc 4286 2a3d 42de 11bc d8d7 e03d
000001c0: ab11 22bc d14e 413c 45ec 233d 153a 06bc
000001d0: 1e65 88bc 9c38 5cbd cb86 373d d84a 583d
000001e0: 3808 0abd 2c92 0ebd daaf 8b3c 6f80 293c
000001f0: ffec 37bd 108f 44bd 83fd 87bd c62a a2bc
00000200: 9515 9b3d 33c3 e43b ddb4 0f3d fce0 14bd
00000210: 8712 173d 5850 f93c ee01 09bc 3111 db3c
00000220: e5aa bf3c 2b98 36bd 4214 4cbd 803f c3bc
00000230: 8fc4 8ebd cca8 6abd 5972 433c cce4 953a
00000240: 65bd 0ebd 4ffc 483d 0092 c0bc 1166 d93d
00000250: 5c40 0bbb b5c5 143d c7ce 973c 5992 08bd
00000260: 8a91 6e3d 2408 3e3d 5894 4f3d 0baa 01bd
00000270: ec3d a4bc 8f7f fdbc d956 853d 5db9 94bc
00000280: 021a af3c c901 14bd a704 39bc ea1e b1ba
00000290: f20e 5abc 8cdf 7f3d 3707 243d bfd7 833c
000002a0: 0c0d 283b 717a e7bc bdd5 88bc f65a 8fbc
000002b0: 1041 903d 8255 aabb 9cc9 4c3b c80f 3ebd
000002c0: 35c3 c4bc f420 583d 12b4 f7bc a0b0 02bd
000002d0: 8c01 f8bb c439 92bd 6515 37bd 2ad2 a2bc
000002e0: 274f 06bc 3252 05bd 9817 ad3d 602b d2bc
000002f0: b01f 5e3d 4170 1c3d a5d8 c5bc 1ad4 4ebd
00000300: 743e d43c 2be9 30bd 467d f2bb 2f5d 1f3c
00000310: de8e 3cbc 4476 30bd fe91 103d 8374 2abd
00000320: 6ec5 18bc 512b 85bc 9c4b b03d 5795 3e3d
00000330: 0ec2 0e3e 0c65 e23c 12d8 9f3c b2dd 3fbd
00000340: 29d0 be3c 2c95 083c 74e3 ee39 f333 99bc
00000350: 63df 33bd ae36 4b3d 21b5 e43b b5a9 07b7
00000360: 4153 0dbc afdc 49bd 898a 313e 671b 31bd
00000370: 9965 963d e8d3 12bd 17da 943c 8656 b83b
00000380: 4819 49bb 4ec4 8ebd 7c90 bb3c 1453 71bd
00000390: 980f 643d 421e db3d 6a5e 983c 2aa2 d03c
000003a0: 24c9 4dbd 6e15 0ebc f7a3 e83c 4abb ba3d
000003b0: 6f65 46bd 1cd8 f1bc 1989 8abd c3c1 7d3c
000003c0: 7082 ba3d 91ec 53bc 02db a13d 29c8 92bc
000003d0: 485f 7abd c380 3e3c 0a21 893d 2cab 003b
000003e0: f115 89bc c1b8 103d 0833 a13d 4aea cf3d
000003f0: 2c39 b63c 78a0 5ebd cca4 63bc 01dd c83b

bias f4 [62]
0.009109205 -0.0075961933 0.12399139 -0.0054725087 -0.0383615 -4.6883724e-05 0.017924102 0.10445921
-0.054801054 -0.032996517 0.020584974 -0.025818048 0.04162069 -0.054387704 0.044979565 0.0033360966
-0.021048535 -0.007385464 -0.03212933 0.00092901546 -0.002163123 -0.040769313 0.0055454397 -0.030122127
-0.04422452 -0.012504243 0.020936206 0.004357227 0.02153297 0.016685067 -0.03219051 -0.027950296
-0.050700516 0.07406417 -0.00620162 -0.02220437 -0.03209271 -0.0001273346 -0.06801687 -0.048550375
-0.05486278 0.013230476 0.06708505 0.003362495 0.03839052 0.008703378 0.012297429 0.005154569
-0.05672322 0.10185196 0.027970288 0.0108737005 -0.049568176 0.011827018 0.025102708 -0.049675297
-0.051284324 0.020514142 -0.054663282 -0.033103056 0.0019880687 -0.035289552
00000000: c63e 153c 7de9 f8bb 33ef fd3d bb52 b3bb
00000010: f320 1dbd 04a5 44b8 91d5 923c b6ee d53d
00000020: 1277 60bd 5b27 07bd d2a1 a83c 5f80 d3bc
00000030: 757a 2a3d a4c5 5ebd 7e3c 383d 6aa2 5a3b
00000040: fa6d acbc c301 f2bb 0b9a 03bd 2c89 733a
00000050: 2fc3 0dbb b9fd 26bd 85b6 b53b aec2 f6bc
00000060: c524 35bd 99de 4cbc 6882 ab3c 12c7 8e3b
00000070: e965 b03c 1faf 883c 32da 03bd 05f8 e4bc
00000080: 58ab 4fbd f5ae 973d f636 cbbb f0e5 b5bc
00000090: a573 03bd 1f85 05b9 6e4c 8bbd c2dc 46bd
000000a0: cbb7 60bd a3c4 583c e363 893d 4e5d 5c3b
000000b0: 613f 1d3d 9d98 0e3c 287b 493c a9e7 a83b
000000c0: 9b56 68bd c397 d03d f221 e53c 9b27 323c
000000d0: 0008 4bbd 1cc6 413c 32a4 cd3c 5378 4bbd
000000e0: 830f 52bd 460d a83c 9be6 5fbd 1297 07bd
000000f0: 424a 023b c78b 10bd
