system/models/EMNIST/CNN/FedPer_BaseHeadSplit_EMNIST_client_7.pt (torch, 476764 bytes, 8 tensors)

weight f4 [32, 1, 5, 5]
00000000: f85b e9bc 722b 7bbe 656b 1ebf 4e63 f9be
00000010: c306 78be 2d23 783e 3c73 74be 8320 9abe
00000020: 37f6 e0be d53d 6ebe 6600 e33e 4d3d c03c
00000030: c642 f5be 0e79 09bf e596 e1be 7387 2b3f
00000040: 7849 073f d366 863e 2894 81be 67b3 adbe
00000050: 73f3 153f b6a1 493f 444b 113f 0f35 0a3f
00000060: 2f69 a23d 6776 74bd cc96 a2bc 310f 5dbe
00000070: e0d1 34be 8b40 49be c888 84bd 95af b7bc
00000080: afe9 6fbe 454b f2bd a316 38be 2f69 d9bd
00000090: b7b0 53be 15a0 e6bd 910c fbbd 22a8 26bd
000000a0: d583 68bd ec07 3dbe 8184 fdbd b9a6 25be
000000b0: 5c14 90bd de4b 90be 1dd0 b6bd 9235 afbd
000000c0: 52af 95bd 4497 053d 8377 a23d f543 8b3e
000000d0: 1a38 6c3d 8f60 d5bd 2aa6 463e 9fa1 6abd
000000e0: 9bb8 d93d 149e 5abe 30df a8be a475 cfbd
000000f0: fe20 093e a760 873d ddcd 34be defe de3c
00000100: 01f1 553e 5895 79be d505 a1be a0d2 99bd
00000110: 8739 db3e bb88 013f b8e4 10bf 08d8 00bf
00000120: 7906 513d f712 0b3f ae85 bb3e c0e2 083e
00000130: 467c e23d 8d67 95be e486 f3be 97fe 20bf
00000140: 90a1 01be bfb9 1d3f 2d0b b93e b70a 12bf
00000150: f643 07bf 597c 523d d818 133f 63ba 993e
00000160: ac34 93be dca8 3dbf ee18 253d 1045 2a3f
00000170: 3521 113f 4920 38be c6b6 2ebf 3657 06be
00000180: 576b 273f 496a 1c3f 4602 c3bd aa04 a7be
00000190: 9678 363f ead6 ef3e c88e 77be fa60 a0be
000001a0: 4af2 3abe 8f24 4d3e 8d36 06bf 4daf 39bf
000001b0: cc53 80be 9472 8a3e 0bc3 8fbe 39d3 b1be
000001c0: 8f7a abbe 1168 063f f817 1c3f 5f47 bbbe
000001d0: 3e51 8bbd b7d8 ea3e 3805 fa3e bbcd 683d
000001e0: 6a90 e13d 2416 9a3e 7cbf 813e 40f2 fabc
000001f0: 3e2d 38bf 45d8 79be 1930 eebe c7a9 16bf
00000200: 8fa7 f7be 0938 c7be e7ae 59be e11c e4be
00000210: 9238 0fbf 9814 45be 8491 193e 3d0c 133e
00000220: f9c4 9b3c 96cc 313e 735a cd3e a670 cc3e
00000230: b708 343f b827 383f 0b1d 3a3f 1714 923e
00000240: 986a c1bd dbcf 393e e1c8 bc3e 94fd 0bbd
00000250: d1ff 9fbe 47a0 82be 2124 c7be f502 99be
00000260: 5e59 33be 05ca f5bc b5fd 1c3d b2ba 8fbe
00000270: 6974 70bd 9607 8bbe f8b0 95bd 9b21 b0bc
00000280: 39ea 33be 7cd2 1bbe 2a72 69be 6f1a 2ebe
00000290: 73ce 47bc ae0b f1bd d7f5 11be ba98 02be
000002a0: 5277 9dbe aadf 75bd 98ca fc3b 7aa5 59be
000002b0: f4e8 2cbe 4660 29be 0351 78be a3dc be3e
000002c0: 1708 8d3e 5916 863e 698e c63e 91f1 0ebe
000002d0: c83f ba3e e742 9f3e 9ac4 cc3e 49c9 263d
000002e0: a173 0ebe 4003 ac3e 08f3 5b3d 8c2c f6bd
000002f0: 8c46 c9be da6d 56be 6eae 663e e8cc 58bd
00000300: 7c5b c4be 3738 4dbe 9bdc bcbe 71a1 87be
00000310: 7f76 dabe 3472 4bbe 4125 96be 73a9 28be
00000320: 24f2 513e aa2d ae3d c0fa d8be d18a d4be
00000330: 113a 8dbe 5d26 dd3e 8a7e a53b c89c 7f3d
00000340: 25f6 17be 7f1f 3ebe 3ff7 863e 8860 c83d
00000350: 86d2 0e3d bc1f 56be 997d 66be eb45 803e
00000360: f121 cc3c b1ea c4bc 606b 983d a764 acbe
00000370: 1a0c 133e 06d1 d83e dbf9 8c3e c2fc 813d
00000380: b222 7fbe 1468 0b3e c06c 5fbe 40fd 3ebe
00000390: a1d7 80be 9c09 7ebe 8a87 0b3e e22f e93e
000003a0: d53c df3e d57b 1c3f 7946 e83e 467d 1bbe
000003b0: 44e8 343e 9354 003c 3c63 073e 103e d03e
000003c0: 6163 0ebe 4ec1 c3bd 9591 ccbe bc57 83be
000003d0: fe2a 153e 5be3 a5be f47f 603b 646f d5be
000003e0: 23a9 70be ab38 c7bd 0060 a0bd 45d1 173e
000003f0: 105c 923e 5d3a 9fbe 99bb 1cbf 41aa 80bd
-0.028486237 -0.24528292 -0.6188262 -0.48708576 -0.2422133 0.24232168 -0.23872083 -0.3010293
-0.43937847 -0.23265775 0.4433624 0.02346673 -0.47902507 -0.5370034 -0.44060436 0.67003554
0.5284648 0.26250324 -0.25308347 -0.33925936 0.585746 0.78762376 0.5675547 0.5398721
0.079302184 -0.05968323 -0.019847296 -0.21587826 -0.17658186 -0.19653527 -0.064714015 -0.022422591
-0.23428987 -0.11830763 -0.17977385 -0.10615765 -0.2067288 -0.11261002 -0.12258256 -0.040687688
-0.05676635 -0.18460053 -0.12378789 -0.16176881 -0.07035133 -0.28182882 -0.08926413 -0.085551396
-0.0730883 0.03261496 0.07932951 0.27200285 0.05767069 -0.10418808 0.19399324 -0.05728304
0.10630914 -0.21349365 -0.3298278 -0.1012986 0.13391492 0.06610232 -0.17656656 0.02722114
0.20892717 -0.24373376 -0.31449762 -0.07510877 0.42817327 0.5059926 -0.56599 -0.5032964
0.051031563 0.54325813 0.36625427 0.13367748 0.110588595 -0.29180565 -0.4756385 -0.62888473
-0.12659287 0.6161155 0.3614134 -0.570476 -0.52838075 0.05138812 0.57459784 0.30025014
-0.28751123 -0.74085784 0.040306978 0.6651163 0.56691295 -0.17981066 -0.6824764 -0.13119206
0.6539816 0.6109968 -0.09521918 -0.32620746 0.7127775 0.46843654 -0.2417556 -0.31323987
-0.18256488 0.20033477 -0.5242699 -0.7253311 -0.25063932 0.2704054 -0.28078493 -0.34731463
-0.33491942 0.5250254 0.60974073 -0.3657789 -0.06802605 0.45868465 0.48832107 0.056836825
0.11013873 0.30095017 0.25341403 -0.030633092 -0.71944034 -0.24398907 -0.4652107 -0.5885281
-0.48370025 -0.3890994 -0.21258126 -0.44553283 -0.55945694 -0.19246137 0.14996916 0.14360137
0.019014822 0.173632 0.4010807 0.39929694 0.703258 0.71935606 0.72700566 0.28530952
-0.09444159 0.18145697 0.36872008 -0.034177378 -0.3124986 -0.25512907 -0.38894752 -0.2988507
-0.1751456 -0.030003557 0.03832789 -0.28072125 -0.058704767 -0.27154225 -0.07309145 -0.0215004
-0.17569818 -0.15217012 -0.22797456 -0.17002271 -0.012195217 -0.11769806 -0.14253937 -0.12753573
-0.30755097 -0.060027756 0.0077145807 -0.2125453 -0.1688574 -0.16540632 -0.24249654 0.37277707
0.27545235 0.26188925 0.38780525 -0.13959338 0.36376786 0.3110573 0.39993745 0.040719304
-0.13911296 0.3359623 0.05369857 -0.120202154 -0.39311635 -0.20940343 0.22527477 -0.05292979
-0.38351047 -0.20040976 -0.3688706 -0.26490358 -0.4266853 -0.19867784 -0.29325297 -0.1647089
0.20502526 0.085048035 -0.42378807 -0.4151216 -0.27583364 0.4319333 0.005050485 0.062405378
-0.1483999 -0.18566702 0.2636051 0.09784037 0.03486874 -0.20910543 -0.22508849 0.25053343
0.024918528 -0.02403769 0.07442355 -0.33670542 0.14360085 0.42346972 0.27534375 0.06347038
-0.24915579 0.13613921 -0.21818829 -0.18651295 -0.25164512 -0.24808353 0.13625923 0.45544344
0.436011 0.6112645 0.45366266 -0.15184507 0.17666727 0.007832664 0.13221449 0.4067235
-0.13905098 -0.09558354 -0.3995482 -0.25652874 0.14567181 -0.3240002 0.0034255954 -0.41686547
-0.2350202 -0.097276054 -0.078308105 0.14825924 0.28585863 -0.31099215 -0.6122375 -0.06282473

bias f4 [32]
00000000: cecc 2cbe 0e38 3abf 368e 483e c75d cabe
00000010: 3cd8 8bbd 856c f2bc 3b06 31bf e519 a2be
00000020: a50d 68bd e404 93bd a7a8 93be 98a5 8ebd
00000030: ffa4 85bd fce6 ed3c e2f0 2dbe 1c21 2dbd
00000040: f40a edbd 47f0 57bf 1921 703c 8a31 fbbb
00000050: e5d5 3f3d eafc 4dbe 9d6e a43d ce05 61be
00000060: 5ea2 02be dc2d 08be c6ca f6bd ad94 963d
00000070: 7020 77bc 6965 1abe 244a 823c f515 0cbf
-0.16875002 -0.7274178 0.19585499 -0.3952467 -0.06828353 -0.029592762 -0.6915013 -0.3166038
-0.056653637 -0.07178667 -0.2883961 -0.06965178 -0.06525611 0.029040806 -0.16986421 -0.042267904
-0.11574355 -0.8435101 0.014656329 -0.0076658176 0.046834845 -0.2011601 0.0802891 -0.2197487
-0.1275725 -0.13298744 -0.12050395 0.073525764 -0.015083417 -0.15077747 0.015904494 -0.54721004

weight f4 [64, 32, 5, 5]
00000000: f119 053d cf7e 96bb 2afd 80bc 56ff 93bc
00000010: ae5c 83bd d46b 963d ac28 4dbc 5cbe c1bc
00000020: 4804 32bd 5a11 adbc 423c 9b3d 06bd 0e3c
00000030: a0c9 21bd 0113 88bd 801a 81bc 94ea 1b3c
00000040: d894 15bd 0dc5 1bbd 7a3e 3bbd 9866 7abc
00000050: 6a25 863c 36d6 b9bc 2e53 79bc 8881 8ebd
00000060: ec1f 26bd 5863 02bc b387 1a3c eb6c 4dbd
00000070: 1b99 d33c 9564 ec3c 442b 803b e689 c2bc
00000080: 06ed 9d3c 2b04 a6bc ff5d 96bc 6c51 17bd
00000090: a80d 09bd 4a13 3b39 b652 b7bc 5a69 10bd
000000a0: 0523 4abd 8a06 7abc 9d23 95bc 0ddb 06bd
000000b0: bc54 943c c533 eb3c 7f51 41bd a44a 2abd
000000c0: 343c 3abd aa42 48bd 1336 2abd 708d 523d
000000d0: ae0a 3c3d fa9a 503d 34ea a43d 9042 95bd
000000e0: 5f3c 9abc 0edc f63c 9657 c03c 6a5e 9e3d
000000f0: 7933 96bc ace8 a0bc e0c3 64bc 802f 6f3d
00000100: 04e5 d6bc 461c 22ba 6550 ad3c d9a2 113d
00000110: 11c7 c03c 6ba8 963c 1539 633d 655b 4b3d
00000120: f4d5 383d 261f 05bc eade c3bc 9791 a2bc
00000130: 46a0 59bb 5682 cd3b d36a 913b da46 e6bc
00000140: 5a48 77bc e0f1 9cbc d8b9 0a3d c5c4 28bc
00000150: e46c 4dbd 824e 51bd a9e1 2abd 5096 16bd
00000160: 8f49 98bc 5f42 f4bc 2321 debd f882 89bd
00000170: b0e8 37bd 0723 88bd afa3 07bc f645 d4bd
00000180: 8289 8fbd d402 69bd 8fec 8ebb 9b94 afbd
00000190: 61fe a7bd f31b 283c 653f 563d 1cab b73d
000001a0: 2de7 0a3e 7f05 c3bd 4849 3ebb 14cf f1bc
000001b0: cf41 193d 2caf 2c3d bc8b 8cbd 64da 27bd
000001c0: c843 c5bc 2261 0a3d 0947 0c3d 2505 a2bd
000001d0: b96d a7bb 9894 323c 8192 b93c af64 faba
000001e0: 8222 533a 118c 813c 57df 873d 3cba 2f3c
000001f0: 4f05 c23c 503e b5bd a336 eabc 30fd 07bc
00000200: 36ae b5bc 48ed 283d f738 193d 5a2f 01bd
00000210: b41b 32bd 1978 fc3b 15dc a33d eab1 813d
00000220: efc9 903d b492 0e3d 2056 a93c ab05 f63c
00000230: 2c35 983d fabd a43d 3248 393d 5f04 973d
00000240: 8e80 d53c 08e9 0b3e 1d03 e03d 26a0 0c3e
00000250: 09e1 503d b340 bebc 939e 593d fa9c 9bbc
00000260: 072c c7bc ba63 3abd 5d36 86bd ce8b 2f3d
00000270: 146d a7bb ed8a 23b9 923e 02bc 93d8 e0bb
00000280: 6972 d33b f95b eebc 30f0 c93b 8030 07bd
00000290: 4e8b 59bd bca3 e3bc f8f2 02bd fa7d 32bd
000002a0: 68e3 85bd 8925 a9bd b648 a73b 5bca 80bd
000002b0: e60a 91bd ca66 48bd bcfa 92bd 3aba c1bd
000002c0: ec5b 01bd 31d5 9f3b 8dd6 493d 66fa 0e3d
000002d0: 5cc8 38bd 70de 5bbd f5b4 67bb 3fbc 053d
000002e0: 9173 443d d4c7 3bbc f089 65bc 31c7 923c
000002f0: 0f69 da3c 2e9b 1dbc fd3e 1c3c 3a0a e03c
00000300: eab8 19bc df7c 23bd 27f6 743c caeb 223b
00000310: ddd0 843c 746e 763d e8c3 5d3d 0d44 293d
00000320: 8938 713b 729f f8bb 0b12 2f3c efbf 383b
00000330: 7c60 75bd 2049 b0ba 46ae 33bd 6b00 573c
00000340: 8810 0abd 5fc7 aa3b 89cf 99bc c53f 60bd
00000350: b530 8dbc dead a1bc 96a3 9b3c 1a7f debc
00000360: 51d6 aabd bb5c debc ba33 1cbd 75ef a8bc
00000370: 59f7 70bc 0ae3 c5bc d8b6 a0bd 61f6 f2bc
00000380: f850 9d3c e7e3 103d cbfd 0c3d 8486 dbbc
00000390: 646d 1abd dcf8 2f3c 5974 403d 2963 673d
000003a0: cc0a 28bc 4ab1 bfbc 971c 53bc ebe9 bf3c
000003b0: 064d 393d ed9f 1a3d bc07 49b9 32a6 35bd
000003c0: e4b6 ae3d 5c04 c5b9 8977 203d ad85 4cbd
000003d0: 6e5a 90bd 6c77 093c ea7c 2e3d 5016 8b3c
000003e0: 11f3 913c 70fd 0cbd d9d1 573d 1e61 273d
000003f0: 9ed9 663c 68d3 643b d457 79bc 9fc1 d33c
0.032495443 -0.0045927535 -0.015745718 -0.01806609 -0.064141616 0.07344785 -0.012521904 -0.02365034
-0.043461114 -0.021126438 0.07579853 0.008712059 -0.039498925 -0.0664425 -0.015759706 0.009516377
-0.0365189 -0.03802972 -0.04571388 -0.015283249 0.016375262 -0.022685152 -0.0152175855 -0.069583
-0.040557787 -0.007958256 0.009431767 -0.0501527 0.025829842 0.028856555 0.0039114077 -0.023747396
0.01927806 -0.02026566 -0.018355368 -0.036942884 -0.03346029 0.00017840895 -0.022378307 -0.03525672
-0.049349803 -0.015260348 -0.018205458 -0.032923747 0.01810681 0.02871121 -0.04719686 -0.04157509
-0.04546757 -0.0488917 -0.041555475 0.051404417 0.045908622 0.050929047 0.08052483 -0.072880864
-0.018827615 0.030134227 0.023479264 0.07732852 -0.018335091 -0.019642197 -0.013962716 0.05839491
-0.02623225 -0.00061840226 0.0211565 0.035555694 0.023532422 0.018390855 0.05547436 0.049647707
0.045125917 -0.008125102 -0.023910005 -0.019844813 -0.0033207103 0.006271641 0.0044377833 -0.028109957
-0.015092934 -0.019158304 0.03386864 -0.01030082 -0.050152674 -0.05110026 -0.041719113 -0.036764443
-0.018589763 -0.029816804 -0.10846164 -0.067144334 -0.044899642 -0.06647306 -0.008278771 -0.103649065
-0.070086494 -0.056887463 -0.004361696 -0.08573266 -0.08202816 0.01026057 0.05230655 0.089681834
0.13564749 -0.09522533 -0.0029035378 -0.029517688 0.037416276 0.042159244 -0.0686259 -0.040979758
-0.024080172 0.03378404 0.034247432 -0.079111375 -0.0051095155 0.010899685 0.022652866 -0.0019103492
0.00080541533 0.01581386 0.066343956 0.010725554 0.023684172 -0.08849776 -0.028590506 -0.008300111
-0.022177797 0.041241914 0.03740784 -0.0315393 -0.04348345 0.0077047464 0.08000962 0.063327625
0.07069766 0.034807876 0.02067095 0.030032 0.07432017 0.08044048 0.045234866 0.073738806
0.026062276 0.13663113 0.10938094 0.13732967 0.05099586 -0.02322421 0.053129744 -0.01899575
-0.024312986 -0.045505263 -0.06553338 0.042857938 -0.0051094387 -0.00015596645 -0.007949488 -0.006861755
0.0064528477 -0.02909659 0.006162666 -0.033005238 -0.053111367 -0.027788036 -0.031969994 -0.04357717
-0.06537515 -0.082591124 0.0051051034 -0.06288596 -0.07082157 -0.048926152 -0.0717673 -0.09459348
-0.031581804 0.0048777093 0.049276877 0.034906767 -0.045112953 -0.05367893 -0.0035355662 0.03265023
0.047961775 -0.011461217 -0.014009938 0.017917247 0.026661424 -0.009619517 0.009536502 0.027348626
-0.009382466 -0.03991401 0.014951265 0.002485978 0.016212875 0.06016393 0.05414191 0.041324664
0.003680738 -0.0075873667 0.010685454 0.0028190573 -0.059906468 -0.0013449527 -0.043867372 0.013122658
-0.03370717 0.005211755 -0.018775718 -0.054748315 -0.01723514 -0.019736227 0.018998902 -0.027160216
-0.08341659 -0.027143827 -0.038135268 -0.020621995 -0.01470741 -0.024156112 -0.07847375 -0.029658498
0.019203648 0.035373595 0.034421723 -0.02679754 -0.03770198 0.010740485 0.046985958 0.05649105
-0.01025648 -0.023399968 -0.012885234 0.02342697 0.04523947 0.037750173 -0.00019171735 -0.04434795
0.08530977 -0.00037578016 0.039176498 -0.04993217 -0.07048498 0.008390289 0.042599596 0.016978413
0.017816098 -0.034421384 0.05269036 0.040864103 0.01408997 0.0034916047 -0.015218694 0.025849162

bias f4 [64]
00000000: 63ed d9bb 9d5e 9c3c d61d 013d 991a ae3c
00000010: fb8a c2bc 6a29 86bb bd4d 94bc 6e86 0bbd
00000020: 5248 8abc 6bcb 803c 7b05 4fbd e6fd 85bb
00000030: 5c2e 6cbc 724e a93b 55fc 41bd 043e c23c
00000040: 58b3 983c e6f3 dbbb 5a74 8fbc a62d 3a3c
00000050: 8f6a 0abc c426 06bd 4f3a 023d a55f 53bd
00000060: a924 69bc 4cbb fdbc 5e4d 05bd 1ccd 9e3c
00000070: 8083 c63b 4e84 423d 0c5b 18bc a611 1bbb
00000080: eda9 293c 26f0 253d 33a9 1bbd 9927 353d
00000090: 14d2 8a3c 7e58 e83c d9ca 2ebd cffb dc3c
000000a0: c011 253c 63ce a63c cbbd 2ebd 0bcd f0bb
000000b0: 8a8b 8b3a cfac a43c 4c39 7f3c 798d 1bbd
000000c0: 502e f3bc c274 ec3c 32e2 903c 8414 eebc
000000d0: 2dd6 13bd f765 52bc 6a6f 9c3a f625 b7bc
000000e0: 5afc c2bc 4205 d1bc 384d d53a 7c4e 72bd
000000f0: f9a9 ce39 3da3 253d 194b 0fbd 6430 20bc
-0.006650613 0.019088084 0.031522594 0.021252917 -0.023747912 -0.0040942924 -0.018103475 -0.03406375
-0.016880188 0.015721997 -0.050542336 -0.004089105 -0.01441535 0.005166822 -0.047359783 0.023711212
0.018640205 -0.0067124246 -0.017511535 0.0113634225 -0.008448257 -0.032751814 0.03179389 -0.051604886
-0.014229932 -0.0309731 -0.032544486 0.019384913 0.0060581565 0.047489457 -0.009299051 -0.0023661642
0.010355455 0.040512227 -0.038003158 0.044227216 0.016945876 0.028362509 -0.04267392 0.02697554
0.010075033 0.020362085 -0.04266147 -0.007348662 0.0010646444 0.020101933 0.0155776255 -0.037976716
-0.02968517 0.028864268 0.017685983 -0.029062517 -0.036092926 -0.012841693 0.001193506 -0.022356968
-0.023801971 -0.025515202 0.0016273623 -0.05915688 0.0003941802 0.04043888 -0.034983728 -0.009777162

weight f4 [512, 64]
00000000: 3c24 da3d 7638 6cbe 7a01 46bd 7051 0ebe
00000010: fb57 283e 9dcc b73d 1443 903d 89c7 da3d
00000020: 0a41 14be 78e2 39bd 2485 c13c 4097 463b
00000030: 6075 fe3d b660 023d f726 babd b122 cb3d
00000040: 70c2 d83d b17c 453e a4f7 4d3d 74c3 4cbc
00000050: a53d 46be 55bb ae3c ea2b df3d 9eec 023e
00000060: 79b4 96ba 42e1 643d 3eec 8c3d 70cd db3d
00000070: 63c4 c73c 5b54 e5bd d080 6ebe 28e9 2b3e
00000080: 851c 32be 4f96 3d3d 5105 063e 6d3e 25be
00000090: 2c14 df3c 7823 373d c95c bebd 3116 5bbd
000000a0: b65a d73d 1dbb 6f3c c716 ff3d 9dea 323d
000000b0: ec38 c9bd 70bb e43d ca6c 8f3d 7eb2 213e
000000c0: 25a2 51be 0df1 193e 64c2 8cbd 5c95 3c3d
000000d0: 2112 be3d f9fe a3bc 8bca a6bd 53ee 49be
000000e0: bebf 433d cb98 c53c 6c8c 0c3e 8a88 d8bd
000000f0: 553d bcbd 38dd ff3d 2a83 db3c 9598 32bd
00000100: 3557 493e c4ec 953c bd05 123e b233 cb3d
00000110: b79d 4d3c 5416 943d 722c f9bc 98fd 13bd
00000120: a98e b83d 5961 94bc 54cd 99bd b2d5 b5bd
00000130: 67b8 51bd 8ca3 18be a612 e4bd deff 9d3d
00000140: 1267 f6bd 7744 983d 1523 953d 7bfe 3f3d
00000150: 8e4d 583d 5f69 063d 3b92 d43d 4eed 1cbe
00000160: a24c f73c 1722 2d3e c319 f13d 5f98 0cbe
00000170: 9671 5ebe 361e b23d 1979 e7bd e762 0fbe
00000180: 1bc7 1c3d 65c1 ed3c 45ee 023e f0c8 19be
00000190: f118 963d fbf0 963c 63d5 b33b bf28 273d
000001a0: c184 e03d ee52 aa3c eecf 593d 9b57 ccbd
000001b0: 0b8a 203d 43a3 f23d 455a e33d 9c85 afbd
000001c0: 80d8 d63d 023d 8e3c 0c93 b23b 6cdc a93d
000001d0: b3db a5bd 97ce 0f3e b8f7 cabd 1ed0 973d
000001e0: d01b 3b3d ea3f 25bd c615 07be 6dbd 1d3d
000001f0: 1b08 dbbd 9e2a 13be 52e2 9abd 72ed a83d
00000200: ec0d 323d 8623 29bd 8f5a 0b3b aece 67bd
00000210: 8446 95bc 4bab 5b3d 98ff 1a3e 11a7 c13d
00000220: 0470 223c 71b6 9b3d 4209 b6bd c3a8 02bc
00000230: 4a6a 7a3c da50 f5bd 8f64 553c 177b d13c
00000240: e939 4bbd 30d8 013e f63c 0bbe 5efe 583d
00000250: 858d ab3d 811c cebd d735 d7bd 1a55 76bd
00000260: 9426 a33c 60c5 103d 040d 5bbc 3fff 8cbd
00000270: cf9d 26bd 15d4 11be e308 51bd 9d01 f33d
00000280: a446 c6bc fb2a 6cbc 2d94 11be 1d90 c83d
00000290: a994 92bd e74f 55bd df73 3abd 1b37 0b3d
000002a0: 4fa7 e8bc 7552 803d 123b 99bc 244a afbd
000002b0: 8fc1 72bd 9406 483a cf5f 163e 2834 af3d
000002c0: b550 953c 3476 bebd 83f8 0f3e 47a1 863d
000002d0: 5cd4 ac3d f644 553c 60a1 28bd e845 5fbd
000002e0: 0f7e ce3c eacc 0b3e b0e2 1b3c 926f 9b3d
000002f0: 3c95 eeba 8427 ecbb 2854 36bc d103 afbd
00000300: 4d25 ec3d 7792 0ebd 05ac 4dbd ff39 dbbd
00000310: 67f5 a93c 0bb4 7ebd 6493 183d 5e36 fbbc
00000320: 1467 053e ff30 24be 9922 5a3d 447f 3f3d
00000330: 5056 083e 5469 15be e5e7 ba3d 7a54 af3c
00000340: 1711 863d 0098 1d3e 8c51 0c3e 7f49 4d3d
00000350: bf4c 85bd 3e07 85bd 7f43 86bd 50fe 9fbc
00000360: 82d4 e1bd 7f01 0a3d b944 cbbd 6596 b3bd
00000370: 6eae 0cbd 952f 0abe f8ee d93d 1c13 02bd
00000380: a895 e0bc e94b 0bbe 58c3 043d ce42 ccbb
00000390: 055f 56bd 0f59 07be 5302 a4bd 195f ed3d
000003a0: 99c5 90bc 4416 16be 3f23 9abd 53b8 053e
000003b0: bce8 093d 1ea8 17bb 7638 cebd fc60 33be
000003c0: 1317 d73d 1502 e53d 74e6 13be 67dc 7a3d
000003d0: 27e3 133e a836 fd3a 338b a23d e1e1 083e
000003e0: c646 92bd 4fc0 bd3d c9bd 413d fb89 bdbd
000003f0: a385 8c3d 855b d3bd 41de 023b 33ec c63d
0.106514424 -0.23068413 -0.048341252 -0.13898253 0.16439812 0.08974574 0.07044044 0.106825896
-0.14477935 -0.045381993 0.023623057 0.0030302554 0.12424731 0.031830512 -0.09089463 0.09918726
0.10583961 0.19285847 0.050284997 -0.0124977715 -0.19359453 0.021329561 0.10897048 0.12785575
-0.0011497877 0.055878885 0.06880997 0.107325435 0.024385637 -0.1119773 -0.23291326 0.16788161
-0.17393692 0.046285924 0.13087966 -0.16137095 0.027231298 0.04471156 -0.09295041 -0.05348796
0.105153486 0.014632014 0.12455516 0.043680776 -0.0982531 0.11168563 0.07003172 0.15790746
-0.2047201 0.1503336 -0.068730146 0.046040878 0.092808016 -0.020019041 -0.08144101 -0.1971982
0.04779028 0.024120709 0.13725442 -0.10572918 -0.09191386 0.12493366 0.026795942 -0.043602545
0.19662173 0.018301375 0.14260001 0.099219695 0.012549809 0.07230821 -0.030416701 -0.036130518
0.09011585 -0.018112825 -0.07509866 -0.0887865 -0.05120125 -0.14906138 -0.111363694 0.077148184
-0.12031378 0.07434934 0.07282082 0.04687355 0.052808337 0.032815333 0.10379454 -0.153249
0.030187909 0.16907535 0.11772492 -0.1373 -0.21723017 0.086971685 -0.113023944 -0.14002572
0.03827582 0.029022882 0.12786205 -0.15018058 0.07328976 0.018425455 0.005488084 0.040810343
0.10962821 0.020791497 0.053176813 -0.09977647 0.039194148 0.11847546 0.11101202 -0.08570406
0.10490513 0.017363075 0.0054496583 0.08293995 -0.08098545 0.14043652 -0.0991053 0.07412742
0.04568082 -0.040344156 -0.131919 0.03851073 -0.10694905 -0.14371726 -0.075626984 0.08248414
0.04347031 -0.041293643 0.0021263694 -0.05659359 -0.018222101 0.053630155 0.15136564 0.094556935
0.009914402 0.07603157 -0.088884845 -0.007974806 0.01528413 -0.11978312 0.013024463 0.02557139
-0.049615774 0.12680125 -0.13597474 0.05297696 0.08376602 -0.100640304 -0.10508316 -0.060139753
0.019915856 0.03534448 -0.013369802 -0.06884622 -0.04067784 -0.14241059 -0.051033866 0.11865542
-0.024203606 -0.014414544 -0.14216681 0.097931124 -0.07157261 -0.052078154 -0.04552066 0.0339881
-0.028400091 0.062657274 -0.018704925 -0.08559063 -0.059266623 0.0007630375 0.14684986 0.0855487
0.01822696 -0.09299889 0.14059643 0.0657373 0.08438942 0.01301693 -0.041169524 -0.054510027
0.025206594 0.13652387 0.009514496 0.0758964 -0.0018202434 -0.007206859 -0.011128463 -0.0854565
0.11530552 -0.03480765 -0.05021288 -0.10704421 0.0207469 -0.06218342 0.037249938 -0.030665573
0.13027602 -0.16034316 0.05325565 0.04675223 0.13314176 -0.1459096 0.091262616 0.021402586
0.065462284 0.15390015 0.13702983 0.05011892 -0.06508779 -0.06495522 -0.065558426 -0.019530445
-0.11026861 0.033692833 -0.09925217 -0.0876892 -0.034346037 -0.13494714 0.10641283 -0.031756505
-0.027415112 -0.13603176 0.032412857 -0.0062335497 -0.05233671 -0.13217567 -0.08008256 0.11590404
-0.017672347 -0.14656931 -0.07526254 0.13058595 0.03366922 -0.0023140977 -0.10069363 -0.17517465
0.10502448 0.11182038 -0.1444338 0.06124535 0.1444212 0.0019318657 0.079367064 0.13367416
-0.07142405 0.092651956 0.047300134 -0.09254833 0.06861427 -0.1032019 0.00199689 0.0971302

bias f4 [512]
00000000: 7cd4 d23d cd79 01be 7596 b2bd cd7c 90bd
00000010: 52cb 563d b001 babd 5c9d b8bd caa0 453d
00000020: e8c9 adbd 885b c7bd 11fd f53d 1b32 b23d
00000030: 5744 a1bd 5407 3f3d 1307 db3c 825d 7a3d
00000040: 8af5 ad3d f92b 043e 285f ee3c 8469 cc3c
00000050: 6450 82bc 8433 e13c 0f5c 5abd dbd7 fd3d
00000060: 04d4 073e c631 b5bb f4cc b23c 4eff bebd
00000070: f951 cabd b930 a7bd 1b5d d6bc 9b2c 903d
00000080: 067a 5cbb ab5f debd 745d 0c3d 0f68 af3d
00000090: 29e0 d7bd 89dc dbbd 4b8d 54bd b78b ce3c
000000a0: 5d63 3e3d 18b7 8cbd 7d49 f13c fb6c 63bc
000000b0: d18c 36bc f5c1 ee3d 3c84 483d 8ddb aabc
000000c0: 4bbf c53c 39a4 6dbd b8ce b83d 26ba 6dbb
000000d0: 2206 a23d 965a 5cbd 925a 7c3d 6f23 403d
000000e0: 8f6f 913d 0722 2f3a 3ada 46bd feb4 5f3d
000000f0: 0f5c e63d 42fa 00bd 9b6a edbc 016b 253c
00000100: c2d1 ad3d 2fe2 0d3d 4321 d7bc c91c 3f3d
00000110: 09a0 f6bc 797a 07bd 696e eb3d deb8 a7bd
00000120: 58df d3bd c807 dbbb fbb4 c9bd 0b6a 883b
00000130: 72da 9c3d d6f2 27bc 32c1 c33c a382 f23d
00000140: 2436 9bbd 624f 9c3d 7fdc b73d 0516 1c3d
00000150: 1b97 983d 5ff3 aabd a685 9c3c 7261 6fbc
00000160: 378b 8cbd b9ee 0b3d d5a8 f7bd c094 d83d
00000170: 8f2e f4bd abbe 143e 56fb 3d3d efd5 c53d
00000180: a876 76bd d0f9 a8bd 9d0d cb3c f2a1 9ebd
00000190: 9e78 b6bd d0f4 f2bd ba6a ab3d 7e6e 55ba
000001a0: 60c2 c03d ade0 c83d ce92 2c3d 789f 3b3d
000001b0: c393 81bd 8ade 153d ab6f eebb 441c fcbd
000001c0: c1fd 933c f594 00be ba32 02be e267 9cbd
000001d0: 6dd4 36bd fa54 d8bd 699e 3e3d 7fca c2bd
000001e0: 2edb c23c ebf3 aabd 0e16 513d a71f a13d
000001f0: 2eaa bc3c 30a0 eebd 63cc 983d e411 5c3d
00000200: a904 c3bd 5d62 4c3d db54 d8bd 9638 bcbd
00000210: ba97 90bb ffa4 82bd e799 30bd a0d8 a73d
00000220: 15a7 14bd e39a 003d 1b02 cdbd a302 7e3c
00000230: 2c74 293d 56d0 f1bd 75be 44bd 6ede 1dbc
00000240: 41fe d7bd cee0 22bd 61d2 d13d f326 003e
00000250: 7f33 043e a769 f63d ca36 0d3e 81f0 a7bd
00000260: bc0e 863d 9c32 cdbd ff4f c23d 049c 4fbc
00000270: 41a9 eb3d a834 c8bb 8429 7cbc 32b7 9a3d
00000280: 217c f43d 5cf5 253d 09a7 b63c 1478 a43d
00000290: 9cb5 abbd 2c03 c8ba c01c 283c 6cea a3bd
000002a0: a26f 393d ac75 ae3c 79cb 1cbd 71eb 1e3c
000002b0: 371d d0bd 1c35 cc3d 0a4f eebc 803c ce3d
000002c0: b6fa ccbd 33e7 c43c 03c2 71bd bbae f7bd
000002d0: 50fc c43d 46e4 f63c dab5 34bd 7651 8f3d
000002e0: 9c44 b5bd 8692 dc3d 602a b0bd 26d6 6bbc
000002f0: ef75 503d f27b efbd a782 bd3d 5cb4 a23c
00000300: c217 22bd fde8 7a3d a29b b0bd ad14 89bc
00000310: e309 84bd a0fd 8fbc eb80 3fbd e41e 1bbd
00000320: 3807 383d bea7 203d 34ef a1bd d29e 21bc
00000330: 2637 c63d 72d0 62bd 9ecb 3d3d 4bfc bbbd
00000340: 3908 bc3d 77b1 fd3c 8865 2dbd b3aa a43d
00000350: 35a9 813c 9b9a 283d 127d 3cbd b77f cebc
00000360: 6456 87bd 0ded d13d 816b c83d d3e3 57bd
00000370: 8f22 f2bb 7587 3b3d 0e26 353d 7da1 95bd
00000380: 9260 6a3b 7a49 863d d3cd f9bd 0445 a8bc
00000390: 8fdf 473d 4729 c93d 844d b5bc 284f 8cbd
000003a0: 23e0 e63c a043 c63c 71eb 053e 8f1e c53d
000003b0: b336 d9bc 464a 81bc a81f ae3c c471 02be
000003c0: 7987 c33d 206a 873d 46b4 903d c6ae a7bd
000003d0: 3659 643c f999 bb3d e76a b73d ccf7 55bd
000003e0: 2f12 d3bc 2d02 a3bd 8efb 5e3c 48ea f4bd
000003f0: f1e5 af3d 4ba1 0cbd a920 8b3d dcbd 09bd
0.102944344 -0.1264412 -0.08720104 -0.07055054 0.052439995 -0.09082353 -0.09014389 0.048249044
-0.08485776 -0.09734255 0.12011159 0.08700963 -0.07874363 0.046637848 0.026736772 0.061124332
0.084940985 0.12907399 0.029098108 0.024952658 -0.015907474 0.027490385 -0.05331045 0.12394687
0.13264471 -0.005529615 0.021826245 -0.09326039 -0.09878916 -0.0816359 -0.026167443 0.07039758
-0.0033642068 -0.10858091 0.03426881 0.085647695 -0.10540802 -0.10735423 -0.05189256 0.025213106
0.04648148 -0.0687086 0.029453987 -0.013880963 -0.011141972 0.11658088 0.048954234 -0.020856643
0.024139067 -0.058017943 0.090238035 -0.0036274283 0.07911326 -0.053797327 0.061609812 0.046908792
0.07101356 0.00066807907 -0.04854796 0.054615967 0.112480275 -0.031488664 -0.028981498 0.0100963125
0.08487274 0.034639534 -0.026260978 0.04665831 -0.030105608 -0.033075783 0.114956684 -0.081895575
-0.10345334 -0.006684277 -0.098489724 0.004163032 0.07658853 -0.010250768 0.023895834 0.11841323
-0.07578686 0.076323286 0.08977603 0.038106937 0.07450696 -0.083472006 0.019106697 -0.014610635
-0.068624906 0.03416321 -0.12092749 0.10575247 -0.11922943 0.14525859 0.04638227 0.09659945
-0.060171753 -0.08250773 0.024786765 -0.07745732 -0.08909725 -0.118631005 0.08369966 -0.000814177
0.09412074 0.098084785 0.04213219 0.045806378 -0.063270114 0.036589183 -0.0072764955 -0.12310079
0.018065335 -0.12556823 -0.12714663 -0.076370016 -0.04463618 -0.10563083 0.04653779 -0.09511279
0.023786154 -0.08347305 0.051046424 0.07867365 0.023030367 -0.11651647 0.07460859 0.053728
-0.09522373 0.049898494 -0.1056306 -0.091904804 -0.0044126185 -0.06379127 -0.043115523 0.08195615
-0.036292154 0.03139771 -0.10010167 0.015503558 0.041370556 -0.11807315 -0.048033196 -0.009635551
-0.10546542 -0.03976517 0.10245205 0.12514858 0.12910269 0.1203187 0.13790432 -0.08200169
0.06545779 -0.100194186 0.09487914 -0.012671474 0.11506892 -0.0061097927 -0.0153907575 0.07554473
0.11937738 0.040517196 0.022296445 0.080307156 -0.083842486 -0.0015259734 0.010260761 -0.08003697
0.045272477 0.021296345 -0.038279984 0.009699688 -0.10161822 0.09971067 -0.029090423 0.10070133
-0.10008757 0.024036026 -0.059022915 -0.12093874 0.09618437 0.030138146 -0.04411874 0.06997959
-0.08850977 0.10770135 -0.086018324 -0.014394319 0.05089372 -0.116935626 0.092534356 0.019861393
-0.03957344 0.06125735 -0.086234346 -0.016733492 -0.06447198 -0.017576993 -0.046753805 -0.037871256
0.04492876 0.03922247 -0.079069525 -0.009864526 0.096784875 -0.05537457 0.046336763 -0.091789804
0.09181256 0.03096841 -0.042333156 0.08040371 0.015827755 0.04116307 -0.046017714 -0.025207384
-0.066082746 0.10250292 0.0978613 -0.052707504 -0.0073893736 0.04578348 0.044225745 -0.07306192
0.0035763127 0.06556983 -0.12197461 -0.020540722 0.048797186 0.09822326 -0.022131689 -0.06851035
0.028183049 0.024202168 0.13078095 0.09624969 -0.02651534 -0.015782487 0.02125533 -0.1273871
0.09547324 0.066120386 0.070656344 -0.08187632 0.013937285 0.09160227 0.08955937 -0.05223827
-0.025765507 -0.07959399 0.01360978 -0.11958748 0.0858878 -0.03433351 0.06793339 -0.03362833

weight f4 [62, 512]
00000000: 9963 05bd 6c0d 31bd 53e7 eb3c 12d7 cf3c
00000010: fcbd d73c a49a 063d 09c3 463c 4e83 a33b
00000020: 0459 593c e117 f3bc 1e17 70bc 0b7f 0bbc
00000030: 295c b8bc 89e6 48bc 50f9 33bb da72 5eba
00000040: 9d69 32bb 89d8 aabc 83b3 193d acf7 7e3c
00000050: 89f6 15bc 74ed f2bc 0dbc 4ebd 39eb 993c
00000060: 2e46 44bd 5fb9 6bbc 349a b7bc f2cc 53bc
00000070: f378 11bd 20c6 82bc 55a8 e9bc 2fcc c43a
00000080: a976 1d3b 24df f2bc f281 53bb d205 2ebd
00000090: f1a1 b9bc 17cf 9abc 3d22 19bd 69fa 89bb
000000a0: 646a babb 2179 013d 3d9e 97bc 25ae 31bc
000000b0: e80c 0a3d 753d 8fbc 65c3 e13c 8cfd 6ebb
000000c0: 303b 213c f109 34bd b3ab 27bd 8395 1e3d
000000d0: c903 b53c 16bf 60bb 67e3 92bc d64d 203d
000000e0: 0ce0 ba3b d26d 09bc d5d8 f73b abde 6a3c
000000f0: aaf9 11bd 3ace a83c d356 1bbd 03fa 23bd
00000100: 50d6 acbc 58b1 7abd 717c b8bc 01d8 18bb
00000110: e34c 293d bb88 07bd da13 163d d9aa 1b3c
00000120: c7a2 50bb c119 81ba fead 06bd 033d 1cbd
00000130: 136f 32ba 5748 0cbb e3bb c2bc 2d0b a5bc
00000140: be0d 113d 3536 37bd 2542 113d 62d8 983b
00000150: b63b 60bd 54b7 69bc ab6d c5bc 288d af3c
00000160: 7b24 cf3c b57a adbc 7856 ccbc 8845 46bb
00000170: 08f4 11bc 4ecd d23b ab93 cb3c 590d 0f3c
00000180: 8d8d c43c fe56 983c e259 efbc 26c8 2abd
00000190: 617e 5bbd 1df0 173d 2a60 37bb 87b4 0ebd
000001a0: e7b8 9b3c ee1e 9d3b 0120 adbc 06a9 0fbc
000001b0: 0ecb 23bc 12e3 143d b5fe e6bc 608f b13c
000001c0: 76aa eabc 573d be3c 2f3a 263d 2a90 073c
000001d0: 08a9 5fbc 4567 32bd d35d a53c bdc2 c43c
000001e0: e367 92bb 958a 12bd a929 96bc 9361 e83c
000001f0: fb11 23bd ef6a 21bd d297 f2bc 0537 49bb
00000200: a514 d83c b869 173d a900 103d 9e46 6fbc
00000210: 6bd0 293b 6eaf d03c 75c8 22bc 9d45 073d
00000220: 50ff 6a3c 609d 18bd f316 1bbd 1ee6 b0ba
00000230: 6451 63bd 64f2 eabc e799 eb3b 6b32 da3a
00000240: 9b7b f3bc 9e5b 32bd 7cce 74bc e649 fc3c
00000250: 971c a7bc 4134 273d fddc 06bd c024 f6bc
00000260: 520d 553c 211a 0abb c887 f9bc 1e7c cc37
00000270: 34f0 ebbc dafe 2dbb 2e33 27bc fac2 393b
00000280: 214b c73c de54 1bbd b497 27bb b2a4 673c
00000290: 58e1 febb 7ff2 b33c 31da ec3c 3c19 053d
000002a0: 8486 803c 2226 d33b e685 f5bb 445a 8fbc
000002b0: 20d5 1a3d cbd8 cabc a0c9 4c3b 3901 18bd
000002c0: 2053 b6bc b0ea aaba bf1f f8bc 7e0e c5bc
000002d0: fbb0 d63b 5ab1 57bd a534 10bd 8b08 eb3b
000002e0: a4f5 973b 630e 05bc 7dfb 213d 702b afbc
000002f0: 43af 22bd 7d65 173d 4df2 85bc d750 b0bc
00000300: aabc f7ba 8fe5 32bd 3455 12bd b6a0 093c
00000310: 7983 783c 8b56 4cbc 112b 1cbd e1af 0fbd
00000320: 2d83 723b 6434 49bd 86ba 1b3d 72df e83c
00000330: 6687 4cbb 887f dfbc 2014 c73c 04b2 3abd
00000340: 2b80 24bd 4694 083c 2e23 7a3b 0182 dcbc
00000350: 14ff 55bb 203a bc3b a494 6ebc 7407 bfbc
00000360: 88e4 f739 e5a9 45bd cdf8 a33b 3b69 d2bc
00000370: d21d e33c 2bc3 5cbd 80da 943c 4375 e53c
00000380: 5ed2 e7bc 9073 05bd ce32 9e3c ed06 95bc
00000390: aac0 08bd cbc6 b03c 1adc a13c 2732 983c
000003a0: d179 22bd 5162 d2bc 58ab a43c 6083 1f3d
000003b0: 0bb5 25bd f6d7 f1bc 4f7e 3bbd 33fa f03c
000003c0: d037 023d 94f3 2c3b d8d8 d43c 5513 30bc
000003d0: 81fe 12bd c087 02bc 7812 53ba 45a7 003b
000003e0: 32f5 00bc a311 c9bc 848d 123b b18f 193d
000003f0: a37c f43a 08e8 41bd 551f 3cbd ee30 6d3a
-0.032565687 -0.04322569 0.028796827 0.025371108 0.026335709 0.03286232 0.012131461 0.004990018
0.013265852 -0.029674472 -0.014653949 -0.008514176 -0.022504883 -0.012261995 -0.0027461834 -0.0008485742
-0.0027223595 -0.020855205 0.03752471 0.015561979 -0.009153017 -0.029654242 -0.050472308 0.01878892
-0.04791849 -0.014387458 -0.022412397 -0.012927281 -0.035515737 -0.015963614 -0.02852265 0.0015014465
0.0024027026 -0.029647417 -0.0032273498 -0.04248602 -0.022660227 -0.018897576 -0.037386168 -0.0042107594
-0.0056889523 0.03160966 -0.018508071 -0.010844742 0.033703715 -0.01748536 0.027558992 -0.0036467044
0.009840772 -0.043954793 -0.04093523 0.038716804 0.022096531 -0.0034293584 -0.0179307 0.03913673
0.005702978 -0.008388 0.00756369 0.014335315 -0.03563849 0.020606149 -0.0379246 -0.04003335
-0.021098286 -0.061204284 -0.022520276 -0.0023322108 0.04133309 -0.03308938 0.036640026 0.0095011825
-0.0031835304 -0.0009849594 -0.032880776 -0.038144123 -0.00068067125 -0.0021405423 -0.023771232 -0.02014693
0.035413496 -0.04472943 0.03546347 0.0046644667 -0.054744445 -0.0142649 -0.024100145 0.021429613
0.02528595 -0.021176675 -0.024943575 -0.0030253846 -0.008908279 0.0064331656 0.024850687 0.00873121
0.023993278 0.018596169 -0.029217664 -0.041694783 -0.05358732 0.037094224 -0.0027980902 -0.034840133
0.019009067 0.004794947 -0.021133425 -0.008768326 -0.0099971425 0.036349364 -0.028197626 0.021674812
-0.028645735 0.023222608 0.040582832 0.0082741175 -0.01365114 -0.043555517 0.02018634 0.02401864
-0.0044679507 -0.035776693 -0.018330412 0.02836684 -0.03981207 -0.03940862 -0.02961341 -0.003070296
0.026377032 0.036966056 0.03515688 -0.014604239 0.002591158 0.025474276 -0.009935488 0.033025373
0.014343098 -0.03725946 -0.037863683 -0.0013496315 -0.055497542 -0.028680034 0.0071899774 0.0016647106
-0.029722026 -0.043544404 -0.014941808 0.030796956 -0.020399375 0.040821318 -0.032925595 -0.03004682
0.013003664 -0.0021072703 -0.030460253 2.4376492e-05 -0.028801061 -0.0026549608 -0.010205073 0.0028344975
0.024327816 -0.037922733 -0.00255726 0.0141383875 -0.007778328 0.021966217 0.028912636 0.03249477
0.015689142 0.006443755 -0.0074927686 -0.017499097 0.037800908 -0.024761578 0.0031248108 -0.03711054
-0.022256434 -0.0013039913 -0.030288575 -0.024054762 0.0065518594 -0.05265937 -0.035206456 0.0071726493
0.004637437 -0.008121106 0.03954648 -0.021383017 -0.039717924 0.03696202 -0.01635089 -0.021522922
-0.0018900831 -0.043675955 -0.035725787 0.008400133 0.015168064 -0.012471805 -0.03812701 -0.03507984
0.0037004456 -0.04912223 0.03801968 0.02842686 -0.0031208633 -0.027282491 0.024301589 -0.045579925
-0.040161293 0.008336132 0.0038167941 -0.02691746 -0.003265326 0.0057442337 -0.014561806 -0.023318984
0.0004728178 -0.048257727 0.0050040246 -0.025684943 0.02772418 -0.053897064 0.018170595 0.028010016
-0.028298553 -0.032580912 0.019311335 -0.018191779 -0.033386864 0.021579167 0.019758273 0.018578602
-0.039666954 -0.025681647 0.020101234 0.03894365 -0.04045586 -0.029521924 -0.045774754 0.02941618
0.03179151 0.00263903 0.025982305 -0.010746797 -0.035887245 -0.007966936 -0.0008051763 0.001963095
-0.007870959 -0.024544543 0.0022362182 0.03749055 0.0018652867 -0.047340423 -0.045928318 0.00090481236

bias f4 [62]
00000000: 8ec7 0f39 fbef 36bc 7610 0ebd 2566 07bc
00000010: ee39 2fbd 0093 a9bc b8ab 3dbd 7e2f 8b3c
00000020: 2b4a 89bd 818d 13bd 9c8d 35bc 91b7 ff3d
00000030: e3f8 0bbd a167 48bd 7352 e03d e879 b7bc
00000040: 8429 b7bc 6e94 57bc 1f85 a7bd f337 5fbc
00000050: e212 52bd 082c c4bc b876 c8bc eec6 fdbc
00000060: aea6 85bc 6786 03bb 65e8 1f3c 0bc4 0f3e
00000070: 67ae fa3d e79d fdbc f1ec 1fbd c53d 03bd
00000080: 7917 60bd a5b3 43bc 587a 123c 991e f4bb
00000090: 624e 0c3b c8e8 0f3b 2507 52bd 1277 113d
000000a0: da28 35bd 541a 9e3c ea2d 16bd b81f 62bd
000000b0: 6645 8d3c 4e77 3e37 7270 033c 162a 3e3d
000000c0: f6d6 e1bd 3038 fb3d 9d60 363d dc6e f43b
000000d0: 9215 2f3d b1f2 0a3c bd95 82bd 2ff8 5dbd
000000e0: 3319 ac3d b36d e63c dd5c a3bd 0e11 c73d
000000f0: 2a91 c2bb 36ad 833c
0.00013711883 -0.011165614 -0.034683667 -0.008264099 -0.042779855 -0.020699978 -0.046306342 0.01699042
-0.067035995 -0.03602362 -0.011081126 0.124861844 -0.034172904 -0.048926953 0.10953226 -0.022396997
-0.022358663 -0.013157947 -0.08179688 -0.013624179 -0.05128754 -0.023946777 -0.024470672 -0.030978646
-0.01631483 -0.0020069124 0.009759997 0.14039628 0.12240296 -0.030959083 -0.039044324 -0.03204133
-0.054709885 -0.011944686 0.008940302 -0.0074499366 0.0021409024 0.0021958817 -0.051276345 0.035513945
-0.044228412 0.019299664 -0.03666488 -0.05520603 0.017245006 1.135266e-05 0.0080224145 0.046426855
-0.11027329 0.12266576 0.04452573 0.0074595045 0.04274518 0.008480714 -0.063762166 -0.054191764
0.08403244 0.02812848 -0.07976697 0.0972005 -0.005937715 0.016073804
