system/models/EMNIST/CNN/FedPer_BaseHeadSplit_EMNIST_client_3.pt (torch, 476764 bytes, 8 tensors)

weight f4 [32, 1, 5, 5]
0	0x3cc6694b	0.02422013
1	0xbe477e2a	-0.19481722
2	0xbf144b37	-0.5792727
3	0xbeefb350	-0.46816492
4	0xbe7f86ad	-0.24953718
5	0x3e97aaec	0.2962259
6	0xbe4496b0	-0.19198108
7	0xbe8f669c	-0.28007972
8	0xbee54878	-0.44781852
9	0xbe8cc409	-0.27493313
10	0x3ef2826e	0.47365135
11	0x3d0d2d3b	0.034466963
12	0xbefa89be	-0.48933214
13	0xbf13b8b7	-0.5770373
14	0xbefc73c2	-0.49307066
15	0x3f32c9eb	0.6983935
16	0x3f046486	0.51715887
17	0x3e7aecef	0.24504445
18	0xbe90fd46	-0.28318232
19	0xbec4edad	-0.38462582
20	0x3f1d45a2	0.61434376
21	0x3f468692	0.7754909
22	0x3f0be273	0.5464241
23	0x3f01d429	0.50714356
24	0x3d12ecc4	0.03587033
25	0xbd01ea67	-0.031717684
26	0x3c427871	0.011869536
27	0xbe49cfa5	-0.19708116
28	0xbe3338d5	-0.17502148
29	0xbe4ee4dd	-0.20204492
30	0xbd285b56	-0.04110273
31	0x3b5164b0	0.0031950884
32	0xbe603c69	-0.21898045
33	0xbdf564b9	-0.11982102
34	0xbe3ca915	-0.18423875
35	0xbdc81ae9	-0.09770758
36	0xbe49e368	-0.19715655
37	0xbdcc9cf2	-0.099908724
38	0xbe0099c4	-0.12558657
39	0xbd3f3350	-0.046679795
40	0xbd50485b	-0.050850254
41	0xbe391d76	-0.18077645
42	0xbde69e16	-0.11260621
43	0xbe208726	-0.15676555
44	0xbd87aed9	-0.066251464
45	0xbe8c1759	-0.27361563
46	0xbdaf6974	-0.085650355
47	0xbd9d060f	-0.07667171
48	0xbd8a24f3	-0.06745329
49	0x3d29f99c	0.04149781
50	0x3d79c2ac	0.06097667
51	0x3e8b7353	0.27236423
52	0x3db9f3d5	0.090797104
53	0xbd85bd26	-0.06530218
54	0x3e5562e7	0.2083851
55	0xbdb299f0	-0.087207675
56	0x3dbfd1cb	0.09366187
57	0xbe4ba002	-0.19885257
58	0xbea0d8a4	-0.31415284
59	0xbdbbbd8e	-0.09167014
60	0x3df4ed50	0.11959326
61	0x3d7743ee	0.060367517
62	0xbe2cdef1	-0.1688192
63	0x3d08329f	0.0332514
64	0x3e5f92fc	0.21833414
65	0xbe81f4d0	-0.2538209
66	0xbea63b3f	-0.32467076
67	0xbd91f8f6	-0.07127564
68	0x3edead50	0.43491602
69	0x3f04d25a	0.5188347
70	0xbf14513d	-0.5793646
71	0xbf02678d	-0.50939256
72	0x3d6bf88d	0.057610083
73	0x3f0c60ca	0.5483519
74	0x3ebd878f	0.37017485
75	0x3e00ec03	0.12590031
76	0x3ddc6997	0.10762327
77	0xbe96cb59	-0.29452017
78	0xbef12ebc	-0.47105968
79	0xbf229874	-0.63513875
80	0xbe1291e6	-0.14313468
81	0x3f1bb7f7	0.60827583
82	0x3eb43b24	0.3520137
83	0xbf12529a	-0.5715729
84	0xbf0748d0	-0.5284548
85	0x3d2d3b4f	0.04229289
86	0x3f10a2a7	0.5649819
87	0x3e9846e0	0.29741573
88	0xbe918aed	-0.28426304
89	0xbf3cb1bf	-0.7370872
90	0x3d437371	0.047717515
91	0x3f2a8ad6	0.66618097
92	0x3f15be7e	0.58493793
93	0xbe20644d	-0.15663262
94	0xbf2a33aa	-0.66485083
95	0xbe021530	-0.12703395
96	0x3f2acf74	0.667228
97	0x3f20df89	0.6284109
98	0xbdd66a27	-0.10469466
99	0xbeb3d75f	-0.35125253
100	0x3f2efcd3	0.6835453
101	0x3ee65fc7	0.44994947
102	0xbe6cd4ac	-0.23128003
103	0xbea69d1a	-0.32541734
104	0xbe496133	-0.19665985
105	0x3e2e26e3	0.17007022
106	0xbf0bde5c	-0.5463617
107	0xbf3d8b81	-0.7404099
108	0xbe8a872e	-0.2705626
109	0x3e850f84	0.259884
110	0xbe8f5d4b	-0.28000864
111	0xbeb0714f	-0.34461448
112	0xbea9d073	-0.33166847
113	0x3f03d1ad	0.51491815
114	0x3f18f342	0.5974618
115	0xbeb6da7f	-0.35713574
116	0xbd5e3ea9	-0.054258976
117	0x3eec01c2	0.4609509
118	0x3ef4cf62	0.4781447
119	0x3d744f96	0.05964621
120	0x3df5ab35	0.11995546
121	0x3e9cb99a	0.30610353
122	0x3e79fe6c	0.2441346
123	0xbcb2517c	-0.02176737
124	0xbf308c99	-0.68964535
125	0xbe95cff0	-0.29260206
126	0xbef99382	-0.48745352
127	0xbf1917fb	-0.59802216
128	0xbef57967	-0.47944185
129	0xbec181e0	-0.377944
130	0xbe721d9c	-0.23644108
131	0xbedf6650	-0.43632746
132	0xbf0bf06e	-0.5466374
133	0xbe34dc0d	-0.17662068
134	0x3e1fc263	0.15601496
135	0x3e0a6a8a	0.13517204
136	0x3d030129	0.03198353
137	0x3e3a4005	0.18188484
138	0x3ed52ab7	0.4163415
139	0x3ecb2c20	0.39682102
140	0x3f2e50aa	0.68091834
141	0x3f35ef03	0.7106783
142	0x3f391079	0.7229076
143	0x3e9915e2	0.29899508
144	0xbdbd852f	-0.092539184
145	0x3e2349ba	0.15946093
146	0x3eb95787	0.3619959
147	0xbc9f4178	-0.019440398
148	0xbe8b7ee1	-0.27245238
149	0xbe6dceab	-0.23223369
150	0xbeb543cd	-0.3540329
151	0xbe8f0045	-0.27929893
152	0xbe325d96	-0.17418513
153	0xbd071a41	-0.032984022
154	0x3d01853a	0.031621195
155	0xbe878378	-0.2646749
156	0xbd5a62bc	-0.053316817
157	0xbe8ba494	-0.27274
158	0xbda3f2e5	-0.08005313
159	0xbd0dbb13	-0.034602236
160	0xbe339a60	-0.17539358
161	0xbe20f54b	-0.15718572
162	0xbe656a2f	-0.22403787
163	0xbe30292d	-0.17203207
164	0xbc9ad9fc	-0.018902771
165	0xbdd022b2	-0.101628676
166	0xbe05f5d6	-0.1308206
167	0xbdd1938e	-0.10233222
168	0xbe926f87	-0.28600714
169	0xbd382696	-0.044958673
170	0x3cd7cbc9	0.02634229
171	0xbe485d5a	-0.19566861
172	0xbe0bb17d	-0.13641925
173	0xbe0d1f77	-0.13781534
174	0xbe621ca9	-0.22081245
175	0x3ebd34f1	0.36954454
176	0x3e8c8e98	0.2745254
177	0x3e8296ec	0.2550577
178	0x3ecd613e	0.40113252
179	0xbe01b1ef	-0.12665533
180	0x3eb4118f	0.35169646
181	0x3e9fb0df	0.3118963
182	0x3ed04725	0.4067928
183	0x3d6ab60e	0.057302527
184	0xbe008f73	-0.12554722
185	0x3ea44e55	0.32091013
186	0x3d6d5645	0.0579436
187	0xbddc3761	-0.1075275
188	0xbec08bdf	-0.37606713
189	0xbe54d000	-0.2078247
190	0x3e4e02d4	0.20118266
191	0xbd5f2511	-0.05447871
192	0xbec1e562	-0.37870318
193	0xbe4babd0	-0.1988976
194	0xbec4755d	-0.3837079
195	0xbe92eb93	-0.28695354
196	0xbed99b8a	-0.4250148
197	0xbe46efe7	-0.19427453
198	0xbe961ed6	-0.293204
199	0xbe3a5674	-0.18197042
200	0x3e4f4254	0.20240146
201	0x3d90f9b4	0.07078877
202	0xbee137be	-0.4398784
203	0xbedb5d6a	-0.42844707
204	0xbe96a5b0	-0.29423285
205	0x3edb12d7	0.4278781
206	0xbba9bfea	-0.0051803486
207	0x3d4aa536	0.049473964
208	0xbe1d839a	-0.15382233
209	0xbe438103	-0.19092183
210	0x3e8a251a	0.2698143
211	0x3dbe0863	0.092789434
212	0x3cf083aa	0.029359657
213	0xbe53fda5	-0.20702226
214	0xbe5fc4b7	-0.21852385
215	0x3e8968f1	0.26837876
216	0x3cf1cd97	0.029516978
217	0xbcb62e5f	-0.022238908
218	0x3da626be	0.08112858
219	0xbea724a2	-0.32645136
220	0x3e3137fb	0.17306511
221	0x3edfb11f	0.4368982
222	0x3e908e9a	0.28233796
223	0x3d8c7c7a	0.068596795
224	0xbe80f101	-0.2518387
225	0x3e0e0f99	0.13873138
226	0xbe57b4bc	-0.21065038
227	0xbe39570a	-0.18099609
228	0xbe80e8bd	-0.25177565
229	0xbe748833	-0.23880081
230	0x3e048d90	0.12944627
231	0x3ee3f58a	0.4452327
232	0x3ed822d5	0.42214075
233	0x3f19b7f0	0.6004629
234	0x3eedfc2d	0.46481457
235	0xbe209736	-0.15682682
236	0x3e236ff1	0.15960671
237	0xbc48d0f3	-0.012256849
238	0x3df9cbca	0.12197073
239	0x3ed6911d	0.41907588
240	0xbe1c44e0	-0.15260649
241	0xbdeb3f0a	-0.11486633
242	0xbec8d56a	-0.39225322
243	0xbe690140	-0.22754383
244	0x3e38199e	0.17978522
245	0xbeb70850	-0.3574853
246	0xbc6e8882	-0.014558913
247	0xbecd3991	-0.40082982
248	0xbe549d2a	-0.20763078
249	0xbd97e1c1	-0.07416106
250	0xbdde70e5	-0.10861377
251	0x3df95a48	0.12175423
252	0x3e9e6252	0.30934387
253	0xbe88733d	-0.2665042
254	0xbf1822f9	-0.59428364
255	0xbdc65609	-0.09684379

bias f4 [32]
0	0xbe3eace0	-0.18620634
1	0xbf3dec9c	-0.7418916
2	0x3e6e97c7	0.23300086
3	0xbec754fd	-0.38932028
4	0xbd98e89e	-0.07466243
5	0xbbdb474a	-0.006691848
6	0xbf373594	-0.7156613
7	0xbea88a2d	-0.3291792
8	0xbd841e00	-0.064510345
9	0xbd77c59e	-0.060491197
10	0xbe748779	-0.23879804
11	0xbd5bd179	-0.053666566
12	0xbd3b35ce	-0.04570561
13	0x3c95c06c	0.01828023
14	0xbe1f9af5	-0.15586455
15	0xbd84f996	-0.06492917
16	0xbdbac5b6	-0.091197416
17	0xbf6098d8	-0.8773322
18	0x3cbd241f	0.023088513
19	0x3c2618dd	0.010137764
20	0x3d7b2ea4	0.061323777
21	0xbe4d2d3e	-0.2003679
22	0x3d6d5bb9	0.0579488
23	0xbe37adc6	-0.17937383
24	0xbe0554f5	-0.1302069
25	0xbe0e34a1	-0.13887264
26	0xbdede34b	-0.11615618
27	0x3da6ff7d	0.08154199
28	0xbbb271c9	-0.005445693
29	0xbe1c9eb4	-0.15294915
30	0x3d27ba34	0.04094906
31	0xbf0eddcd	-0.5580719

weight f4 [64, 32, 5, 5]
0	0x3d50f4be	0.051014654
1	0xbad88ad8	-0.0016520871
2	0xbce4ac0b	-0.027914068
3	0xbd43b244	-0.04777743
4	0xbdb1e9f4	-0.08687201
5	0x3daa905e	0.08328317
6	0xbc05a63d	-0.00815731
7	0xbd04657c	-0.032323346
8	0xbd8b9b67	-0.0681675
9	0xbceff6cb	-0.029292485
10	0x3da18fdf	0.07888769
11	0x3c9b3684	0.018946894
12	0xbce08375	-0.027406434
13	0xbd9c7d2a	-0.07641061
14	0xbcd6d5d6	-0.026225012
15	0x3c3a7ddf	0.011382549
16	0xbd507e97	-0.050901975
17	0xbd1b6709	-0.03794006
18	0xbd310bdd	-0.043224204
19	0xbc9bf4c3	-0.01903761
20	0xb8b800c8	-8.773949e-05
21	0xbd586419	-0.052829836
22	0xbce55181	-0.027992966
23	0xbd94ab1c	-0.07259199
24	0xbd1ea5e3	-0.03873242
25	0xb9d5507d	-0.00040686494
26	0x3cacd8d8	0.021099493
27	0xbd28ade2	-0.041181453
28	0x3d147951	0.03624851
29	0x3d42cfad	0.047561336
30	0x3c4296bb	0.011876757
31	0xbc8efbc1	-0.01745403
32	0x3cf98449	0.030458586
33	0xbb141c50	-0.0022599883
34	0xbb1e888f	-0.0024190282
35	0xbce311e9	-0.027718501
36	0xbcc2bce9	-0.02377172
37	0x3bfd8402	0.007736684
38	0xbbba8176	-0.0056917025
39	0xbcc94f80	-0.024574041
40	0xbd287786	-0.04112961
41	0xbc592dc9	-0.013255545
42	0xbc92a913	-0.017902886
43	0xbcddab76	-0.027059298
44	0x3ce198ec	0.02753874
45	0x3d1bae5a	0.03800807
46	0xbd123951	-0.035699192
47	0xbd137225	-0.03599753
48	0xbd25e27a	-0.040499188
49	0xbd5b9536	-0.053609096
50	0xbd3562e1	-0.04428375
51	0x3d3b24aa	0.045689262
52	0x3d0719ac	0.032983467
53	0x3d2962b3	0.041353893
54	0x3db6a4b3	0.08918133
55	0xbd9e4a13	-0.07728972
56	0xbcb46f6a	-0.022025783
57	0x3ce20a69	0.027592855
58	0x3cc31d1c	0.023817591
59	0x3d95d2be	0.073155865
60	0xbcaa383a	-0.020778764
61	0xbc3bed41	-0.01147014
62	0xbc45df14	-0.012077112
63	0x3d3ba638	0.045812815
64	0xbce9f720	-0.028560221
65	0xbc24ad08	-0.0100510195
66	0x3cbf4a95	0.023350993
67	0x3cc6d300	0.024270535
68	0x3c367420	0.011136085
69	0x3cc1f40b	0.023675939
70	0x3d10dbfd	0.035366047
71	0x3d384a39	0.04499266
72	0x3d21ed22	0.039532788
73	0x3997b49f	0.00028935538
74	0xbc9bd9f2	-0.019024823
75	0xbb2df65a	-0.0026544542
76	0xbb8df142	-0.0043317387
77	0xbcacfd85	-0.021116981
78	0xbd03a989	-0.032144103
79	0xbd91f6d6	-0.07127158
80	0xbba911df	-0.005159601
81	0xbcdc4750	-0.026889473
82	0x3c89e2ce	0.016831782
83	0xbd12e4fd	-0.03586291
84	0xbdc10680	-0.09425068
85	0xbd5a8dcc	-0.053357884
86	0xbd2ff029	-0.042953644
87	0xbd158561	-0.036504153
88	0xbcfee7e0	-0.031116426
89	0xbd904478	-0.070443094
90	0xbde021c4	-0.1094394
91	0xbd8db68d	-0.069195844
92	0xbd1a3c1c	-0.03765498
93	0xbd940b45	-0.07228712
94	0xbca8a916	-0.020588439
95	0xbddf170c	-0.10893068
96	0xbdad1571	-0.08451355
97	0xbd783363	-0.06059588
98	0xbc72666f	-0.01479493
99	0xbd975f7d	-0.0739126
100	0xbdc13daa	-0.094355896
101	0x3c031bd4	0.00800224
102	0x3d5c8799	0.053840254
103	0x3da0fc4a	0.0786062
104	0x3e14e13d	0.14539047
105	0xbdb6535e	-0.0890262
106	0xbbb1559a	-0.005411816
107	0xbd3fca34	-0.046823695
108	0x3ce32cf7	0.027731402
109	0x3d307d2b	0.04308812
110	0xbd994e4a	-0.074856356
111	0xbd3f21c4	-0.04666306
112	0xbcaa0ae7	-0.020757152
113	0x3c9b5b4d	0.018964434
114	0x3aa3b8f0	0.0012491029
115	0xbda5e296	-0.080998585
116	0xbc558cd0	-0.013034061
117	0xbbfca11f	-0.007709637
118	0xbbcdda03	-0.0062820925
119	0xbc8597cf	-0.01630774
120	0xbcc37951	-0.02386156
121	0xbc8401dc	-0.016114168
122	0x3d2aabb5	0.04166766
123	0x3991d8ba	0.0002781803
124	0x3c1b4a99	0.009478235
125	0xbdb2c670	-0.08729255
126	0xbceac84e	-0.028659966
127	0xbc590f01	-0.013248206
128	0xbd046c8e	-0.03233009
129	0x3d34a1fd	0.044099797
130	0x3d1bc653	0.038030934
131	0xbcc0350f	-0.0234628
132	0xbd42a8b6	-0.047524177
133	0xbc183ed3	-0.009292322
134	0x3d9f131c	0.07767317
135	0x3d263967	0.040582087
136	0x3d5df06b	0.05418436
137	0x3cfcd7ff	0.030864714
138	0x3c973fe4	0.018463083
139	0x3caccf2e	0.021094885
140	0x3da2b745	0.07945112
141	0x3da8068b	0.08204373
142	0x3d360e97	0.044447508
143	0x3d8587f7	0.06520074
144	0x3cf23e6d	0.029570783
145	0x3df70926	0.12062292
146	0x3d958520	0.07300782
147	0x3dc604c8	0.09668881
148	0x3d0e0a7f	0.03467798
149	0xbcaf9790	-0.021434575
150	0x3d807e6d	0.06274114
151	0xbb6f31bc	-0.003649815
152	0xbc481d4f	-0.012214019
153	0xbd0d3995	-0.034478743
154	0xbd50452e	-0.050847225
155	0x3d57bfe4	0.052673236
156	0x3b8e5f42	0.0043448517
157	0x3c616ea0	0.013759285
158	0x3c46ae61	0.012126536
159	0x3c9a9690	0.018870622
160	0x3ca04d5b	0.019568136
161	0xbc87f72e	-0.016597357
162	0x3c85f1c4	0.016350634
163	0xbc4c4b26	-0.012469089
164	0xbcf10d6f	-0.029425351
165	0xbc89ade0	-0.016806543
166	0xbcc61cdf	-0.024183689
167	0xbd1d9a08	-0.038476974
168	0xbd57dca2	-0.052700646
169	0xbd8eaab9	-0.069661565
170	0x3ccd3098	0.025047585
171	0xbd1da5c1	-0.038488153
172	0xbd738d5f	-0.059460994
173	0xbd2cd8f4	-0.04219909
174	0xbd88d0b7	-0.06680434
175	0xbdb3cf51	-0.08779777
176	0xbcde1820	-0.027111113
177	0x3beceef4	0.007230634
178	0x3d612e50	0.054975808
179	0x3d3f8e31	0.046766464
180	0xbd0841ef	-0.033266004
181	0xbd3e8118	-0.046509832
182	0x3bd0958d	0.006365484
183	0x3cef7ea8	0.0292352
184	0x3d2adeb1	0.04171628
185	0xbae25964	-0.0017269072
186	0xbba75b78	-0.0051073395
187	0x3ca39298	0.019967362
188	0x3caecde9	0.02133842
189	0xbbfbec6b	-0.0076880953
190	0x3c18241c	0.009285953
191	0x3c95ba94	0.018277444
192	0xbca7f129	-0.020500736
193	0xbd3c7f2e	-0.046019726
194	0xbb9144b8	-0.0044332407
195	0xbbe357ae	-0.0069379425
196	0x3b47570b	0.0030416872
197	0x3d4b16fc	0.049582466
198	0x3d0d05d1	0.034429375
199	0x3d06f8ef	0.032952245
200	0x3c75f043	0.015010896
201	0xbbc4601b	-0.005992902
202	0xba83f0a2	-0.0010066221
203	0xbc450dbc	-0.0120272
204	0xbd8f7fae	-0.07006775
205	0x3c00a63f	0.007852136
206	0xbd38f493	-0.04515512
207	0x3be20fbf	0.0068988497
208	0xbd36028b	-0.04443602
209	0xbb424f24	-0.0029649222
210	0xbc95e571	-0.018297883
211	0xbd5cd3de	-0.05391299
212	0xbc63c6be	-0.013902364
213	0xbcc9c2e2	-0.02462906
214	0x3bd21cb5	0.0064121136
215	0xbcd41023	-0.0258866
216	0xbdb49cbd	-0.08818958
217	0xbcdb4d23	-0.02677018
218	0xbd26c6b2	-0.040716834
219	0xbcdbce0b	-0.026831647
220	0xbc768d0d	-0.015048278
221	0xbceb176e	-0.028697696
222	0xbda20174	-0.079104334
223	0xbcee4df1	-0.0290899
224	0x3cb62167	0.022232724
225	0x3d0ae768	0.033912092
226	0x3cfb064a	0.030642647
227	0xbd14608f	-0.036224898
228	0xbd5ef720	-0.054434896
229	0x3bc7da83	0.0060990467
230	0x3d5bf291	0.053698126
231	0x3d79df4c	0.061003968
232	0xbc8fdb71	-0.017560693
233	0xbd285b08	-0.04110244
234	0xbce257c9	-0.02762975
235	0x3cd1ca89	0.025609272
236	0x3d3177af	0.04332703
237	0x3cec5192	0.02884749
238	0xbc3fdc91	-0.011710302
239	0xbd569670	-0.052389562
240	0x3da75204	0.0816994
241	0xbbda4b89	-0.0066618365
242	0x3cdbe697	0.026843352
243	0xbd81dce3	-0.06340959
244	0xbda9d01b	-0.08291646
245	0x3c25e4e6	0.010125374
246	0x3d2091f4	0.03920169
247	0x3c726139	0.0147936875
248	0x3c7e7704	0.015531305
249	0xbd1b55f7	-0.03792378
250	0x3d55af5a	0.05216918
251	0x3d0dd627	0.03462806
252	0x3b181112	0.0023203534
253	0xbc9824d2	-0.018572245
254	0xbd3bbe6b	-0.045835894
255	0x3cf8f910	0.0303922

bias f4 [64]
0	0xb9de9546	-0.00042454357
1	0x3c95f40c	0.018304847
2	0x3d1056c3	0.035238992
3	0x3cda98de	0.02668422
4	0xbccb84f3	-0.024843669
5	0x3a5c4d3e	0.0008403844
6	0xbc544c7e	-0.01295769
7	0xbd13c003	-0.03607179
8	0xbc63164a	-0.013860295
9	0x3c84946b	0.016184052
10	0xbd506a70	-0.050882757
11	0xbc0783d0	-0.008271173
12	0xbc5d1a7a	-0.013495082
13	0x3bf93986	0.0076057343
14	0xbd2932cb	-0.041308206
15	0x3cac856d	0.021059716
16	0x3ca15d03	0.019697672
17	0xbb3849d2	-0.0028120172
18	0xbcad21d5	-0.021134296
19	0x3c25a1d8	0.010109387
20	0xbc312a5a	-0.01081332
21	0xbd065701	-0.032797817
22	0x3d0ec69d	0.03485738
23	0xbd472b5c	-0.048625335
24	0xbc83fa52	-0.016110573
25	0xbd000dfb	-0.031263333
26	0xbd06d3af	-0.03291672
27	0x3cc2ce45	0.023779998
28	0x3b6649e0	0.0035139248
29	0x3d3ebd04	0.046566978
30	0xbc3c5caa	-0.011496702
31	0x3a53f144	0.00080849626
32	0x3c6d026c	0.014465909
33	0x3d289fc7	0.041168
34	0xbd19daff	-0.037562367
35	0x3d243f3f	0.04009938
36	0x3c83eade	0.016103204
37	0x3cd01b26	0.02540357
38	0xbd3ffc2e	-0.046871357
39	0x3cdb66f0	0.026782483
40	0x3c517db3	0.012786317
41	0x3cb2914b	0.021797797
42	0xbd290ed3	-0.041273903
43	0xbc449e60	-0.01200065
44	0x3b0b45ef	0.00212514
45	0x3cd5695e	0.02605122
46	0x3c8bd185	0.01706768
47	0xbd16ee57	-0.036848392
48	0xbce473d3	-0.02788726
49	0x3cf3f0fe	0.029778
50	0x3c6cad6b	0.014445643
51	0xbcf34260	-0.029694736
52	0xbd27113c	-0.04078792
53	0xbc6b0044	-0.014343325
54	0x3b0f54dd	0.002187065
55	0xbcc01fd6	-0.02345268
56	0xbcd25dea	-0.025679547
57	0xbcf2b103	-0.029625421
58	0x3a16e730	0.00057564955
59	0xbd75d794	-0.060020044
60	0xb98e2bc5	-0.0002711696
61	0x3d1b77c8	0.03795603
62	0xbcfe5d40	-0.031050324
63	0xbc1563d0	-0.009118035

weight f4 [512, 64]
0	0x3d93748f	0.07199966
1	0xbe9473ad	-0.28994504
2	0xbd43a42c	-0.04776399
3	0xbdfbc04d	-0.12292538
4	0x3e183bd5	0.14866574
5	0x3d897dad	0.06713424
6	0x3da60513	0.081064366
7	0x3deffcd5	0.11718146
8	0xbe1726d5	-0.14760907
9	0xbd9d9fdc	-0.076965064
10	0xbc603be6	-0.013686156
11	0x3cd4c28a	0.02597167
12	0x3dde622d	0.10858569
13	0xbbc270a5	-0.0059338384
14	0xbd9d1202	-0.0766945
15	0x3dcfb3c0	0.101417065
16	0x3daff518	0.0859167
17	0x3e41e472	0.18934801
18	0x3d49408e	0.04913383
19	0xbcba2f7b	-0.022727719
20	0xbe532e6b	-0.20623176
21	0x3ce46200	0.027878761
22	0x3dc60cfb	0.096704446
23	0x3e13251c	0.14369625
24	0x3d0f44b3	0.034977626
25	0x3d7129b3	0.058877658
26	0x3d992b15	0.0747892
27	0x3db5a457	0.08869236
28	0x3ce5ccfa	0.028051842
29	0xbdcb42b2	-0.099248305
30	0xbe8040e8	-0.2504952
31	0x3e24191f	0.16025208
32	0xbe3a1a9b	-0.18174212
33	0x3d0d8af0	0.03455633
34	0x3de140e6	0.109987065
35	0xbe1290df	-0.14313076
36	0x3b5b5bfa	0.003347157
37	0x3d14e2ec	0.036349222
38	0xbdaf5bf4	-0.085624605
39	0xbd8ec74e	-0.06971608
40	0x3dcbb38f	0.099463575
41	0x3d172119	0.0368968
42	0x3e0f594c	0.13998908
43	0x3d28d649	0.041219983
44	0xbdc7423d	-0.09729431
45	0x3dd47e94	0.10375705
46	0x3d71bde8	0.059019
47	0x3e328e68	0.17437136
48	0xbe529e27	-0.20568143
49	0x3e0e6eb8	0.13909423
50	0xbdc691bd	-0.09695766
51	0x3d35ea96	0.04441317
52	0x3db21f83	0.08697417
53	0x3ad0e9ec	0.0015938855
54	0xbdb6a01d	-0.08917258
55	0xbe51115d	-0.2041678
56	0x3d7f49d0	0.062326252
57	0x3ca9212f	0.020645706
58	0x3e0b7415	0.136185
59	0xbde6741f	-0.11252617
60	0xbde50977	-0.11183446
61	0x3e0af87b	0.1357135
62	0x3c849916	0.016186278
63	0xbd65ab78	-0.05607173
64	0x3e2f30d4	0.1710847
65	0x3cff8e80	0.031195879
66	0x3e069d7c	0.13146013
67	0x3db542ca	0.0885063
68	0x3cc7965e	0.024363693
69	0x3d810d2e	0.06301342
70	0xbceabafa	-0.02865361
71	0xbcb1d2d3	-0.021706974
72	0x3debb263	0.11508634
73	0xbc940108	-0.018066898
74	0xbd827ed0	-0.06371844
75	0xbdb51597	-0.088420086
76	0xbd64eff2	-0.055892892
77	0xbe188465	-0.14894255
78	0xbe011e57	-0.1260923
79	0x3d8c7392	0.06857981
80	0xbdd97229	-0.106174774
81	0x3d8c7b17	0.06859415
82	0x3da48aca	0.080342844
83	0x3d42aad0	0.04752618
84	0x3d80a753	0.062819146
85	0x3cbab3d4	0.022790827
86	0x3de62e2f	0.112392776
87	0xbe1baf61	-0.1520362
88	0x3cbb90bd	0.022896165
89	0x3e275407	0.16340648
90	0x3deeea6c	0.11665806
91	0xbdf31e20	-0.1187098
92	0xbe3caaf2	-0.18424585
93	0x3dba278c	0.09089574
94	0xbdcd373f	-0.10020303
95	0xbe169340	-0.14704609
96	0x3cc1373b	0.023585906
97	0x3d769c9e	0.060207956
98	0x3dfba6c7	0.1228767
99	0xbe092eda	-0.13396779
100	0x3db01755	0.085982
101	0x3c42d7ee	0.011892302
102	0x3904973b	0.00012644839
103	0x3d0549f8	0.032541245
104	0x3dd32cff	0.10311317
105	0x3c3f569c	0.011678364
106	0x3d328804	0.043586746
107	0xbdc42ad2	-0.0957848
108	0x3d66e5a4	0.056371346
109	0x3dd0bc63	0.10192182
110	0x3da82603	0.08210375
111	0xbda573af	-0.080787055
112	0x3db21826	0.08696012
113	0x3cb18d08	0.021673694
114	0x3c2b8db8	0.0104708
115	0x3d8125e4	0.06306055
116	0xbdaba353	-0.08380761
117	0x3e0e91d0	0.1392281
118	0xbdcc428e	-0.09973632
119	0x3d6465b7	0.055761065
120	0x3d1ddc18	0.038539976
121	0xbd53d604	-0.051717773
122	0xbdf3e52c	-0.119089454
123	0x3ccbcd86	0.024878275
124	0xbdc2d500	-0.09513283
125	0xbe010eb6	-0.12603268
126	0xbdc9ab7a	-0.0984716
127	0x3dbc4c15	0.09194199
128	0x3d339062	0.043838866
129	0xbcd8186a	-0.026378829
130	0x3c1c58e9	0.009542682
131	0xbd54c7b1	-0.051948253
132	0xbbaae2dd	-0.0052150325
133	0x3d5eb2d6	0.05436977
134	0x3e123500	0.1427803
135	0x3dc9f3e6	0.09860973
136	0x3c498f51	0.012302236
137	0x3dcc4a92	0.09975161
138	0xbd80f34c	-0.06296405
139	0xbcc55310	-0.024087459
140	0x3ca5640d	0.02018931
141	0xbdef3830	-0.11680639
142	0x39970c35	0.0002881006
143	0x3d058e62	0.03260649
144	0xbd550088	-0.05200246
145	0x3e09ae40	0.13445377
146	0xbe0b3e4c	-0.13597983
147	0x3d5a0caa	0.053234734
148	0x3da8e1d1	0.08246196
149	0xbdca5185	-0.0987883
150	0xbdc6b033	-0.09701576
151	0xbd7119cd	-0.058862496
152	0x3c65fcdc	0.014037337
153	0x3d19b251	0.03752357
154	0xbc1f5f7c	-0.009727355
155	0xbd975503	-0.073892616
156	0xbd48c51d	-0.049016107
157	0xbe181eae	-0.14855453
158	0xbd6813fe	-0.05665969
159	0x3e06bef8	0.13158786
160	0xbca2fea6	-0.019896816
161	0xbad1e09f	-0.0016012377
162	0xbe1d8571	-0.15382935
163	0x3de03c0e	0.109489545
164	0xbd6a66e3	-0.057227027
165	0xbd44b4f0	-0.048024118
166	0xbd8012c0	-0.06253576
167	0x3cdb761c	0.026789717
168	0xbcc1eeec	-0.023673497
169	0x3da70956	0.081560776
170	0xbba47a8f	-0.005019493
171	0xbdae64f0	-0.08515346
172	0xbd46f82a	-0.04857651
173	0xbb26fab2	-0.0025479016
174	0x3e1db2c3	0.15400223
175	0x3dd3439a	0.10315628
176	0x3cb7c2db	0.022431782
177	0xbdde22f2	-0.10846509
178	0x3e130f89	0.14361395
179	0x3d7f2dec	0.062299654
180	0x3dadb6bc	0.084821194
181	0x3c72d7cc	0.014821958
182	0xbcde3e5b	-0.027129343
183	0xbd04180b	-0.03224949
184	0x3d12b500	0.035817146
185	0x3e045c6f	0.12925886
186	0x3cb9d629	0.022685127
187	0x3d9cbc85	0.07653145
188	0xbbf97dfc	-0.0076138955
189	0xbc9400ce	-0.01806679
190	0xbca31cac	-0.019911133
191	0xbdc18013	-0.09448256
192	0x3df4e88b	0.119584166
193	0xbcb488f8	-0.022037968
194	0xbd96772a	-0.073469475
195	0xbdd3d4f4	-0.10343352
196	0x3cea5f7f	0.02860999
197	0xbd906d96	-0.07052152
198	0x3d031ff1	0.032012884
199	0xbc8ebb55	-0.017423311
200	0x3e0372e0	0.1283679
201	0xbe2062f0	-0.15662742
202	0x3d78c77c	0.060737118
203	0x3d63765a	0.05553279
204	0x3e0b1ad5	0.13584454
205	0xbe122f30	-0.14275813
206	0x3da92e65	0.08260802
207	0x3cf5db2b	0.030011734
208	0x3d5f62ef	0.05453771
209	0x3e1f4ea6	0.15557346
210	0x3de7e7af	0.11323487
211	0x3d1b0094	0.03784235
212	0xbd6371df	-0.055528518
213	0xbd9a1530	-0.075235724
214	0xbd8a10ce	-0.067414865
215	0xbbf46121	-0.0074578677
216	0xbdd8c74a	-0.10584886
217	0x3d007ec2	0.031370886
218	0xbda36543	-0.079782985
219	0xbda3a000	-0.07989502
220	0xbcdeba94	-0.027188577
221	0xbe06fddf	-0.13182782
222	0x3df71b86	0.120657966
223	0xbcef6c9f	-0.0292266
224	0xbcf44814	-0.029819526
225	0xbe0e2820	-0.13882494
226	0x3d324aae	0.04352825
227	0xbac48399	-0.0014992832
228	0xbd31f172	-0.04344315
229	0xbe09472e	-0.13406059
230	0xbdad6d6f	-0.084681384
231	0x3ddd747f	0.108132355
232	0xbc2f468a	-0.01069797
233	0xbe179ea0	-0.14806604
234	0xbd93d977	-0.072192125
235	0x3e1b301d	0.15155073
236	0x3d0e8e44	0.034803644
237	0xbb528358	-0.0032121744
238	0xbdb69d5f	-0.08916735
239	0xbe2cabb8	-0.1686238
240	0x3de671fd	0.1125221
241	0x3df6f56f	0.120585315
242	0xbe1d0f26	-0.1533781
243	0x3d8798ee	0.06620966
244	0x3e0592f5	0.13044341
245	0xbb79b203	-0.0038100488
246	0x3dab427f	0.083622925
247	0x3dff1663	0.12455442
248	0xbda0ce67	-0.07851868
249	0x3d8ff248	0.07028633
250	0x3d64c8e9	0.055855665
251	0xbde6cda7	-0.11269694
252	0x3d96f543	0.07370999
253	0xbdd50e70	-0.10403144
254	0x3b95127e	0.0045493236
255	0x3de9ffb9	0.11425728

bias f4 [512]
0	0x3dd10255	0.10205523
1	0xbdff4a0d	-0.12465296
2	0xbdb2dd2a	-0.0873359
3	0xbd912708	-0.07087523
4	0x3d536587	0.051610496
5	0xbda7c98b	-0.08192738
6	0xbdb256f0	-0.08707988
7	0x3d3b8302	0.045779236
8	0xbdc30d87	-0.095240645
9	0xbdc5c58e	-0.09656821
10	0x3dee34c8	0.11631161
11	0x3db69256	0.0891463
12	0xbda10469	-0.07862169
13	0x3d1d91bc	0.03846906
14	0x3ceb37a5	0.028713057
15	0x3d8027a7	0.06257563
16	0x3da4a1a1	0.08038641
17	0x3e06da00	0.13169098
18	0x3cecf9ea	0.028927762
19	0x3ccbf179	0.024895417
20	0xbc921e43	-0.017836696
21	0x3cc93e95	0.024565974
22	0xbd6b4a39	-0.05744383
23	0x3df9a414	0.121894985
24	0x3e09ce4c	0.13457602
25	0xbc0cc46f	-0.008591755
26	0x3ca15c7d	0.019697422
27	0xbdc65085	-0.09683327
28	0xbdcde504	-0.10053447
29	0xbda34ddf	-0.07973837
30	0xbcb8759e	-0.022517022
31	0x3d93a271	0.072087176
32	0xbb384e64	-0.0028122896
33	0xbdd0c03d	-0.101929165
34	0x3cf039c0	0.029324412
35	0x3db916e5	0.0903757
36	0xbdd2f384	-0.10300353
37	0xbde115a4	-0.10990456
38	0xbd4b3129	-0.04960743
39	0x3cca3d4b	0.02468743
40	0x3d43cc68	0.04780236
41	0xbd8ce1fc	-0.068790406
42	0x3ce6dab6	0.028180461
43	0xbca57a16	-0.020199817
44	0xbc21ed48	-0.009883232
45	0x3df8ade0	0.12142539
46	0x3d469e11	0.048490588
47	0xbcb70ead	-0.022345865
48	0x3cb623ec	0.022233926
49	0xbd5f2b44	-0.05448462
50	0x3db9b442	0.090675846
51	0xbc1bc736	-0.009507945
52	0x3da533e2	0.080665365
53	0xbd73f8ba	-0.059563376
54	0x3d81f94f	0.0634638
55	0x3d4b8dd1	0.049695794
56	0x3d8eeffd	0.06979368
57	0x3bd11cf4	0.0063816253
58	0xbd57a8d8	-0.052651256
59	0x3d52a356	0.0514253
60	0x3dddcc11	0.10829938
61	0xbcf3eeed	-0.029777015
62	0xbce55dc1	-0.027998807
63	0x3c40c7e6	0.0117664095
64	0x3db31c19	0.087455936
65	0x3cee16b8	0.029063568
66	0xbccd9123	-0.02509362
67	0x3d36b100	0.044602394
68	0xbd0a38ab	-0.03374545
69	0xbcfbae6a	-0.030722816
70	0x3def4fa7	0.11685114
71	0xbdadc4ee	-0.08484827
72	0xbdd10449	-0.102058955
73	0xbb94dd9d	-0.00454302
74	0xbdc70277	-0.09717267
75	0x3b8eaeb9	0.0043543247
76	0x3d9b8211	0.075931676
77	0xbbca2f39	-0.00617018
78	0x3ccdf047	0.025138987
79	0x3de8c406	0.113655135
80	0xbda55fa0	-0.0807488
81	0x3d9ccd87	0.07656389
82	0x3db5613a	0.08856435
83	0x3d1b88b0	0.037972152
84	0x3da0fe85	0.07861046
85	0xbda81bd8	-0.08208436
86	0x3c9f486f	0.019443719
87	0xbc942031	-0.018081756
88	0xbd8164e5	-0.06318072
89	0x3d145b4f	0.03621989
90	0xbdfc1d70	-0.12310302
91	0x3ddd485c	0.10804817
92	0xbdf42e8f	-0.11922943
93	0x3e15af2f	0.14617608
94	0x3d26f3b6	0.040759765
95	0x3dc21e55	0.094784416
96	0xbd6ca077	-0.05777022
97	0xbd9b5ea0	-0.07586408
98	0x3cc8f5c5	0.024531255
99	0xbd9d8693	-0.076916836
100	0xbdcd82c7	-0.100347094
101	0xbdf04f0d	-0.11733828
102	0x3da6af90	0.08138955
103	0xbb416e2a	-0.0029515126
104	0x3dc3a5dc	0.095531195
105	0x3dce7bc7	0.100822024
106	0x3d1eb5f1	0.03874773
107	0x3d3ab621	0.045583848
108	0xbd6ce445	-0.057834882
109	0x3d06beac	0.032896683
110	0xbbf246b6	-0.0073936833
111	0xbe021b54	-0.12705737
112	0x3c8bbc55	0.017057577
113	0xbe03e05a	-0.12878552
114	0xbe0084f1	-0.12550713
115	0xbd9d271d	-0.07673476
116	0xbd1f71b1	-0.038926784
117	0xbdce0e6b	-0.10061344
118	0x3d4d8767	0.050177958
119	0xbdce841b	-0.10083791
120	0x3cd912aa	0.026498158
121	0xbdab0ce6	-0.083520696
122	0x3d626970	0.055276334
123	0x3da644f5	0.08118621
124	0x3cbacae7	0.02280183
125	0xbde5b13e	-0.11215447
126	0x3d9a1437	0.07523387
127	0x3d615b76	0.055018865
128	0xbdc06683	-0.093945526
129	0x3d3fb1e2	0.0468005
130	0xbdda6795	-0.10664288
131	0xbdc11446	-0.09427695
132	0xbbd02375	-0.006351883
133	0xbd87563e	-0.06608246
134	0xbd383994	-0.044976786
135	0x3da7432e	0.081671104
136	0xbd15eb16	-0.03660115
137	0x3d02771e	0.03185188
138	0xbdc69be5	-0.09697703
139	0x3c231631	0.009954021
140	0x3d34f4a2	0.044178613
141	0xbdf71ad8	-0.12065667
142	0xbd4d92f5	-0.050188977
143	0xbc5b6c17	-0.01339247
144	0xbddfc100	-0.10925484
145	0xbd0bf2be	-0.034167044
146	0x3dcf7a6e	0.101307735
147	0x3e08d4ed	0.13362475
148	0x3e0009f8	0.12503803
149	0x3ded33e2	0.115821615
150	0x3e136c4c	0.1439678
151	0xbdb1384b	-0.08653315
152	0x3d7cdbe3	0.061733138
153	0xbdd4e468	-0.103951275
154	0x3dbc43fa	0.09192653
155	0xbc07ff87	-0.008300669
156	0x3df2545a	0.11832495
157	0xbb8ea30c	-0.004352933
158	0xbc820c97	-0.015875144
159	0x3d943df6	0.072383806
160	0x3df24b7f	0.11830806
161	0x3d2d8bf0	0.042369783
162	0x3c88ebea	0.016714055
163	0x3da4d580	0.080485344
164	0xbdb01480	-0.0859766
165	0xbac3ef95	-0.001494872
166	0x3c4b5248	0.012409754
167	0xbda2eb1f	-0.07955002
168	0x3d3516f6	0.04421135
169	0x3c9cb9a1	0.019131484
170	0xbd23e5c2	-0.040014036
171	0x3c1de0d9	0.009636127
172	0xbdcb07df	-0.09913611
173	0x3dc9dddf	0.09856772
174	0xbcf2609e	-0.029587086
175	0x3dcda36b	0.10040935
176	0xbdcdee07	-0.10055166
177	0x3cab2769	0.020892816
178	0xbd72ed71	-0.059308473
179	0xbdfd2b1c	-0.12361738
180	0x3dc4aed6	0.0960366
181	0x3cc13399	0.023584174
182	0xbd51a613	-0.05118377
183	0x3d90962f	0.07059895
184	0xbdbbb38b	-0.091651045
185	0x3deaf4ed	0.11472497
186	0xbda095fe	-0.07841109
187	0xbc800bed	-0.015630687
188	0x3d50e6bd	0.0510013
189	0xbdf0919b	-0.11746522
190	0x3dae2225	0.08502606
191	0x3c8f4110	0.017487079
192	0xbd2767ec	-0.040870592
193	0x3d8510bb	0.06497332
194	0xbdb0f515	-0.08640496
195	0xbca1a8f2	-0.01973388
196	0xbd9053de	-0.070472464
197	0xbc99967f	-0.01874852
198	0xbd46c2d8	-0.04852566
199	0xbd272977	-0.04081103
200	0x3d43b7e1	0.047782782
201	0x3d27a6e5	0.040930647
202	0xbda7c601	-0.08192063
203	0xbc1e955c	-0.009679165
204	0x3dc931d8	0.0982396
205	0xbd6002f9	-0.054690335
206	0x3d4426cb	0.04788856
207	0xbdb2605d	-0.08709786
208	0x3dbacd97	0.091212444
209	0x3cfde09c	0.030990891
210	0xbd317eac	-0.043333694
211	0x3da57428	0.08078796
212	0x3c9315d3	0.017954743
213	0x3d25df97	0.040496435
214	0xbd55e632	-0.052221484
215	0xbcd9ebe7	-0.026601745
216	0xbd86fb1e	-0.065908656
217	0x3dcb4bf5	0.09926597
218	0x3dc4b1c8	0.096042216
219	0xbd6412d9	-0.055682037
220	0xbbd35b1a	-0.006450069
221	0x3d31300b	0.043258708
222	0x3d35bb4c	0.044368073
223	0xbd8eb59a	-0.069682315
224	0x3bcf1b55	0.006320397
225	0x3d9180c6	0.0710464
226	0xbdf29ed0	-0.11846697
227	0xbcc7de20	-0.02439791
228	0x3d438a1f	0.047739144
229	0x3dc3a4a0	0.09552884
230	0xbccc6434	-0.024950124
231	0xbd866cf3	-0.06563749
232	0x3d023b1a	0.031794645
233	0x3ce227b5	0.027606824
234	0x3e019902	0.12656024
235	0x3dc7f0f4	0.09762755
236	0xbcd0c008	-0.025482193
237	0xbc80b526	-0.015711378
238	0x3c7c6c3e	0.015406666
239	0xbe02d745	-0.12777431
240	0x3dcafdba	0.09911676
241	0x3d84e0b1	0.06488169
242	0x3d90fa40	0.070789814
243	0xbda06cd7	-0.078332596
244	0x3c5df7b5	0.0135478275
245	0x3dc55465	0.096352376
246	0x3db15ecf	0.086606614
247	0xbd55c6c6	-0.05219152
248	0xbcd84ab8	-0.026402816
249	0xbda67c80	-0.08129215
250	0x3c577c87	0.013152248
251	0xbdf17626	-0.11790113
252	0x3db490fe	0.088167176
253	0xbcec5546	-0.028849255
254	0x3d859120	0.06521821
255	0xbd0696fe	-0.03285884

weight f4 [62, 512]
0	0xbe3e1420	-0.18562365
1	0x3e4843c7	0.19557105
2	0x3da8cad6	0.08241813
3	0x3e1fbbf2	0.15599039
4	0x3e6e3667	0.2326294
5	0x3c92650e	0.017870452
6	0x3e09c6e1	0.13454773
7	0xbd79dc14	-0.0610009
8	0xbda224a8	-0.07917148
9	0xbd6977eb	-0.05699913
10	0x3e46ad2f	0.19402002
11	0x3dc6dcc4	0.097100765
12	0xbd655a78	-0.05599448
13	0x3b023923	0.0019870482
14	0xb6018fa7	-1.9306115e-06
15	0x3d969f52	0.07354607
16	0x3d9f02af	0.07764184
17	0x3d45f710	0.04833132
18	0x3d536638	0.051611155
19	0x3be9c110	0.0071336105
20	0xbd6c21a2	-0.057649262
21	0xbd56e33c	-0.0524628
22	0xbd71e7ca	-0.059058942
23	0xbb0df7e6	-0.0021662652
24	0xbdac2806	-0.08406071
25	0x3d64f68f	0.0558992
26	0xbd540bce	-0.05176907
27	0x3c32f216	0.010921976
28	0xbd6e9e3e	-0.05825638
29	0xbbe98a2b	-0.0071270666
30	0x3d1b2f70	0.037887037
31	0x3cc644f5	0.024202803
32	0xba7a3bc3	-0.00095456484
33	0x3cc44e0d	0.023962999
34	0x3ca8f95f	0.020626722
35	0x3c7a9bf8	0.015295975
36	0xbda03573	-0.07822695
37	0x3ccf8ed1	0.025336655
38	0x3bdfbbdf	0.006827816
39	0xbc65556f	-0.01399742
40	0x3daf95d7	0.085735016
41	0x3d0178c5	0.031609315
42	0xbda81a44	-0.08208135
43	0xbcc54f96	-0.024085801
44	0x3c36b75d	0.011152116
45	0x3d2896fe	0.041159622
46	0x3d873b10	0.06603062
47	0xbcb0fc7a	-0.021604765
48	0xbd6e11a2	-0.058122285
49	0xbe11e42d	-0.14247198
50	0xbabb911a	-0.0014310211
51	0xbcd0b2d6	-0.0254759
52	0x3dbb4294	0.09143558
53	0xbde64eba	-0.11245485
54	0xbc2e3e02	-0.010634901
55	0x3e0f6a52	0.14005402
56	0x3bbb4d62	0.005716012
57	0xbd98767a	-0.074444726
58	0xbcb02718	-0.021503016
59	0x3e300a0c	0.17191333
60	0x3c44eefc	0.012019869
61	0x3cf8c3b9	0.030366765
62	0xbe04a190	-0.12952256
63	0xbdca1554	-0.09867349
64	0xbd15f1b7	-0.03660747
65	0x3ddc6baf	0.107627265
66	0xbdcacfef	-0.099029414
67	0x3d8c4db5	0.06850759
68	0x3cd7c5a9	0.026339369
69	0xbdcc91ce	-0.099887475
70	0x3d0a9e26	0.03384223
71	0xbc8a3879	-0.016872631
72	0xbbba6604	-0.0056884307
73	0x3c3f1121	0.011661799
74	0x3deea443	0.11652424
75	0x3bba0d6b	0.005677869
76	0xba3a3037	-0.00071025215
77	0xbe376999	-0.17911376
78	0xbc1a10b5	-0.009403397
79	0xbe18e43e	-0.14930817
80	0x3ded3243	0.11581852
81	0x3d4630f4	0.04838653
82	0x3caa9083	0.020820862
83	0x3b971af6	0.0046113683
84	0xbded1b8b	-0.11577519
85	0x3d586027	0.052826073
86	0xbdc5ba82	-0.09654714
87	0x3c47f864	0.012205217
88	0x3c202a8f	0.009775772
89	0xbcfbc5d4	-0.03073398
90	0xbd215212	-0.03938491
91	0xbd023947	-0.031792905
92	0xbc11e9f0	-0.008905873
93	0xbd453a36	-0.048151217
94	0x3e410aa4	0.18851715
95	0xbd218d34	-0.039441302
96	0x3e31ed58	0.17375696
97	0x3d1a1698	0.037619203
98	0xbd9d021e	-0.076664194
99	0x3c6056ca	0.013692567
100	0xbc25e77f	-0.010125994
101	0x3cd99cfb	0.026564112
102	0x3db631fa	0.08896251
103	0xbd5a8b1f	-0.053355332
104	0x3e0ff119	0.14056815
105	0x3e23d016	0.15997347
106	0xbd89fc33	-0.06737556
107	0xbc0fb273	-0.008770573
108	0x3c409875	0.011755099
109	0xbd8c1f84	-0.06841949
110	0x3c54c3a3	0.012986097
111	0xbcfe8f7c	-0.031074278
112	0x3d911476	0.07083981
113	0xbde29594	-0.11063686
114	0x3d436bc8	0.04771021
115	0xbd5fea2c	-0.054666683
116	0xbb3b9d11	-0.0028627554
117	0xbd4c4d39	-0.049878333
118	0x3dbf6fdf	0.093475096
119	0x3c99a3f7	0.018754942
120	0xbc00253d	-0.007821378
121	0xbd0f5a20	-0.03499806
122	0xbe1bc5a1	-0.15212108
123	0x3c7d6fa8	0.015468515
124	0xbce48007	-0.02789308
125	0xbd83c54c	-0.06434116
126	0xbd2cac2c	-0.042156383
127	0xbc5a8d48	-0.013339348
128	0x3cdf4587	0.027254833
129	0x3d69980c	0.05702977
130	0x3d31fb96	0.04345282
131	0x3cd46a56	0.025929611
132	0x3dc94075	0.09826747
133	0x3cf12aec	0.029439412
134	0x3b2c730b	0.0026313688
135	0x3d8f8efd	0.07009695
136	0x3d02e50b	0.031956714
137	0x3c8530d1	0.016258629
138	0x3ddf4ce8	0.109033406
139	0xbd990764	-0.07472113
140	0xbdc1c388	-0.09461123
141	0xbd43d5e6	-0.04781141
142	0xbc7b2c14	-0.015330333
143	0xbe03420b	-0.12818162
144	0xbcf41221	-0.0297938
145	0x3cf66ad6	0.03008024
146	0xbdef8f1f	-0.1169722
147	0x3e2f20bf	0.17102335
148	0xbb8445ed	-0.004036656
149	0x3d158d26	0.036511563
150	0xbd6af636	-0.05736371
151	0xbe833f42	-0.256342
152	0x3e0ccc7f	0.13749884
153	0xbd98c24c	-0.07458934
154	0x3d1db457	0.038502064
155	0x3d50f3c9	0.05101374
156	0xbc8224e3	-0.01588673
157	0xbc9d46f9	-0.019198881
158	0xbb406e29	-0.0029362536
159	0xbc68981b	-0.014196421
160	0x3c79e80d	0.015253079
161	0xbdc721d4	-0.09723249
162	0xbd17e2d6	-0.037081562
163	0xbda43118	-0.080171764
164	0xbce9be70	-0.02853319
165	0x3dfa8cf1	0.12233914
166	0xbd851833	-0.06498756
167	0x3dde8468	0.10865098
168	0xbd4a95ac	-0.049459144
169	0x3dad2581	0.08454419
170	0x3cd35e0f	0.025801687
171	0xbc8f5a1d	-0.017499024
172	0x3de5b506	0.11216168
173	0xbdeb2a04	-0.11482623
174	0x3b4b68fe	0.0031037922
175	0x3cf63d46	0.030058514
176	0xbbd15562	-0.0063883523
177	0x3df69fd0	0.120422006
178	0xbcf7c1cf	-0.030243782
179	0xbc4daa38	-0.01255279
180	0xbdfbbcd0	-0.122918725
181	0xbdea09f5	-0.114276804
182	0xbd2648e1	-0.040596846
183	0xbd01ebfd	-0.031719197
184	0xbc04fa46	-0.00811631
185	0x3da3d225	0.07999066
186	0x3e0b82ed	0.13624163
187	0x3da66a7b	0.08125778
188	0xbd0020a1	-0.031281117
189	0x3e1a32cf	0.15058444
190	0xbda391ac	-0.07986769
191	0xbdfeb3df	-0.124366514
192	0x3d3b8f95	0.045791227
193	0xbc7a441f	-0.01527503
194	0xbd2e9fe8	-0.042632967
195	0x3c486072	0.012230026
196	0x3a8aae71	0.0010580552
197	0xbd9780e4	-0.07397631
198	0x3ccdf293	0.025140082
199	0xbd2d197b	-0.04226063
200	0x3c1026cd	0.008798313
201	0xbc7046b9	-0.014665299
202	0xbd4b5b0e	-0.049647383
203	0x3c7ea1d5	0.015541513
204	0x3d5c0f3e	0.053725474
205	0xbd9df629	-0.07712967
206	0x3b0badd6	0.002131333
207	0xbd809017	-0.06277483
208	0xbe06deb2	-0.13170889
209	0x3c08951e	0.008336334
210	0xbc8d55d5	-0.017252842
211	0xbe11ff8c	-0.1425764
212	0xbc40bc98	-0.011763714
213	0xbd3d1431	-0.046161834
214	0x3ca4aaca	0.02010097
215	0xbd8dc4aa	-0.06922276
216	0xbb86e203	-0.004116298
217	0xbdd4fc78	-0.10399717
218	0x3d73990e	0.059472136
219	0x3d862368	0.06549722
220	0xbdc4592a	-0.09587319
221	0xbdcc6721	-0.09980608
222	0x3c936c5d	0.017996008
223	0xbca30d69	-0.019903855
224	0x3b28cf6f	0.0025758406
225	0xbe106755	-0.14101918
226	0x3e028123	0.12744574
227	0xbd841b46	-0.064505145
228	0x3d90d768	0.070723355
229	0x3e397478	0.18110836
230	0x3c3f306a	0.011669258
231	0x3e0f9477	0.14021479
232	0xbdd45769	-0.10368235
233	0xbd7df353	-0.06199963
234	0xba016567	-0.00049360696
235	0x3d044b0d	0.032298137
236	0xbd810723	-0.06300189
237	0xbcf210fe	-0.029549118
238	0xbdff9d45	-0.12481169
239	0xbb714666	-0.0036815642
240	0x3d5a562b	0.053304832
241	0xbcf4dde6	-0.029890966
242	0x3d78c82e	0.06073778
243	0xbdbcad97	-0.09212797
244	0x3ced3e53	0.028960383
245	0x3d421ddb	0.047391754
246	0x3dc290c0	0.09500265
247	0x3afdb0c4	0.0019355048
248	0xbce7e682	-0.028308157
249	0x3d6d1cd2	0.057888813
250	0x3d62f743	0.05541159
251	0x3d46bde9	0.048520956
252	0x3db12c3b	0.086510144
253	0xbd0b766c	-0.034048483
254	0xbd356da3	-0.04429401
255	0xbbef715f	-0.007307216

bias f4 [62]
0	0xbd55e8a3	-0.052223813
1	0xbc3b1184	-0.01141775
2	0xbc15e5f5	-0.009149064
3	0xbc1ac009	-0.009445199
4	0xbd1aa8da	-0.037758686
5	0xbd1c9286	-0.038225673
6	0xbd54df56	-0.051970802
7	0x3d5eb5b5	0.054372508
8	0xbd6bee8e	-0.05760055
9	0xbd17d429	-0.037067566
10	0x3dca3e20	0.09875131
11	0xbc4e4110	-0.012588754
12	0xbd09cb68	-0.03364125
13	0xbd011bf7	-0.03152081
14	0xbc8f6462	-0.017503921
15	0xbcc8d308	-0.02451469
16	0xbcc2ad45	-0.023764262
17	0xbc6056ac	-0.013692539
18	0x3d434eab	0.047682445
19	0xbd7e341a	-0.062061407
20	0x3a15a6f6	0.0005708778
21	0xbd12ba74	-0.035822347
22	0x3b4f8e14	0.0031670379
23	0xbcc22340	-0.02369845
24	0x3db4e73e	0.088331684
25	0xbc7c5194	-0.015400309
26	0xbcf26f31	-0.029594036
27	0xbc5703b5	-0.013123442
28	0x3bd05f03	0.0063589825
29	0xbd3140cd	-0.04327469
30	0x3d9391af	0.07205521
31	0xbd021caf	-0.031765636
32	0xbd6388f6	-0.055550538
33	0xbc3972b9	-0.011318856
34	0x3c030e8d	0.007999075
35	0x3c2f3114	0.0106928535
36	0xbccc2bb3	-0.024923181
37	0xbbb74ceb	-0.005593886
38	0xbd557a99	-0.05211887
39	0xbb552073	-0.0032520562
40	0x3e02983d	0.12753387
41	0x3d22d60d	0.039754916
42	0x3ce25ae1	0.027631225
43	0xbcdbb11c	-0.02681785
44	0x3c8b95c0	0.01703918
45	0x3c4fa54a	0.012673685
46	0xbaa43864	-0.0012529013
47	0xbd681dea	-0.056669153
48	0xbdf6415a	-0.120241836
49	0xbc85af5b	-0.016318968
50	0x3e8d1781	0.27556995
51	0x3acacaa4	0.0015471769
52	0x3d6349ad	0.055490185
53	0x3e00a90c	0.12564486
54	0x3cb5e0b4	0.022201873
55	0xbd598d97	-0.053113546
56	0xbd6119e6	-0.05495634
57	0x3c8475b4	0.016169406
58	0xbd6e7843	-0.05822016
59	0xbd12144c	-0.035663888
60	0xbb082b92	-0.0020777923
61	0xbd287c31	-0.041134063
