system/models/EMNIST/CNN/FedPer_BaseHeadSplit_EMNIST_client_6.pt (torch, 476764 bytes, 8 tensors)

weight f4 [32, 1, 5, 5]
00000000: 87db 06bc e700 5cbe 6f90 18bf ef33 f8be
00000010: b878 7cbe 940a 823e 9f5d 56be 4f09 90be
00000020: 30af e3be 4ba3 78be 41fa e53e 28fe 303d
00000030: a017 f1be e10c 0cbf 1535 e1be e999 2d3f
00000040: c9c6 053f 91e9 803e f6e9 89be ab7f afbe
00000050: 632f 163f 3ca4 423f a6d6 073f 79e1 003f
00000060: 361d 703d c634 00bd 9ac2 293c d1f3 4dbe
00000070: b861 2ebe 60dd 46be 1f4a 2ebd 97b4 a93a
00000080: 5030 68be ded2 fabd 3e29 3dbe b360 c2bd
00000090: c5b9 4abe 3ee4 d1bd 9b0a fabd d33d 41bd
000000a0: dbb5 52bd 6232 3dbe 63cc e7bd f060 24be
000000b0: c880 8ebd 6012 91be 421d bcbd e0ac a4bd
000000c0: 2fe6 8dbd 9576 293d 2791 923d 2970 863e
000000d0: 96f0 a23d 0689 87bd 4ed0 573e cf1b adbd
000000e0: 3284 ad3d 212f 59be 697c a1be 2369 d4bd
000000f0: 0eaa e93d e451 743d 6a21 2bbe 4d5d 053d
00000100: 48ae 4d3e d47a 84be b847 a0be 76c9 8dbd
00000110: a919 d83e 5c35 003f 14ec 13bf b5fb 01bf
00000120: e751 1c3d ac39 043f a6c0 b73e 9891 143e
00000130: e523 f73d b8a4 96be f652 f5be dee4 22bf
00000140: 4c80 f9bd 018c 1c3f 9fae b33e 5580 13bf
00000150: a911 08bf 2b80 843d 597b 113f 30e0 923e
00000160: 3b63 92be 0d9d 3dbf c8cb 763d 0a4d 283f
00000170: 57a5 103f 1c30 31be df1e 2fbf 3141 01be
00000180: cee4 243f c84e 193f 980f eebd 62d0 b4be
00000190: 88ae 2c3f 45e7 dc3e f207 6abe 52ed a1be
000001a0: 9792 45be 9a18 2b3e 9a69 03bf 5274 31bf
000001b0: 4f1a 7fbe a996 7e3e 1a98 91be 0d31 a7be
000001c0: 625a a1be 94a3 ff3e 1fda 133f fd63 b8be
000001d0: 4be7 83bd 41e7 de3e 45b1 ef3e 08e3 893d
000001e0: 86f8 f53d decd 953e 4e7a 6a3e dd24 88bc
000001f0: b497 2dbf 116a 8fbe 45eb f4be 708b 14bf
00000200: b862 e3be 05e9 afbe fc6e 71be a368 e0be
00000210: 959d 0abf e683 1ebe 2880 383e d22e e13d
00000220: 4a5d c13b f59f 203e 8a18 d03e 1255 ce3e
00000230: a727 273f 9798 2d3f edbe 343f ae39 983e
00000240: 5236 afbd 4dff 153e 9486 b33e 0a6d 21bc
00000250: 287a 88be ede1 73be 8c21 b3be f625 92be
00000260: 90b6 2abe a0eb 9abc f2bf 493d 60f7 87be
00000270: 75a0 4abd 42f2 86be b0f5 87bd 4db7 c0bc
00000280: bc49 2dbe 9288 17be 8bbe 5fbe 6b09 29be
00000290: 7758 76bc 710e e9bd 6ac4 15be 47be e0bd
000002a0: d17f 95be 5a21 34bd f9e0 6e3c 39d6 57be
000002b0: 6c12 13be 5989 08be c5ae 58be 1524 b63e
000002c0: d202 8b3e b172 7e3e 184e c63e bb65 04be
000002d0: fa45 a73e 1bf9 9a3e e578 c93e 6904 393d
000002e0: 421a febd b01c 9e3e 2fe3 643d 06fa dcbd
000002f0: 8f9e c2be aef8 53be 1d22 5b3e 1dea 12bd
00000300: 341e bbbe 711a 44be 502f c0be a951 85be
00000310: ab4c cfbe c72d 35be 45f0 8ebe 59ba 2dbe
00000320: 3e8c 4b3e 8e5d 9a3d 1083 dcbe 04a4 dabe
00000330: 2218 95be ac56 d73e b4aa 8abb 48af 703d
00000340: 6cd7 1bbe d861 3ebe 327a 843e dfec c73d
00000350: 4610 193d 3835 51be 027f 5abe c7d1 803e
00000360: edde eb3c 09f6 7bbc 5cb6 a63d 5f91 a7be
00000370: 30d2 193e f243 dc3e 76e9 8f3e f015 793d
00000380: f15d 82be 8565 073e 3f14 54be f550 2fbe
00000390: 4d73 6ebe a500 69be 3e9d ff3d 0199 e03e
000003a0: 80e7 d23e 98e2 163f a0b5 e23e 3ddc 22be
000003b0: f03f 1e3e a14f a4bc e9f9 dd3d 1e88 c53e
000003c0: b7d0 12be ca3f d4bd c86e c6be b92d 71be
000003d0: 1bde 1c3e be93 b2be b210 5abc 9ac8 cdbe
000003e0: f27d 56be 6458 a1bd 4f41 96bd cdba 1c3e
000003f0: e91d 993e 4803 96be 5f5b 16bf ba24 80bd
-0.00823105 -0.21484719 -0.5959539 -0.48477122 -0.24655426 0.25398695 -0.20934151 -0.28132102
-0.44469595 -0.24281041 0.4491749 0.043211132 -0.47088337 -0.5470715 -0.4398581 0.67812973
0.5225645 0.25178197 -0.2693631 -0.3427709 0.58666056 0.7603185 0.530619 0.50344044
0.058621608 -0.03130033 0.010361338 -0.2011254 -0.17029464 -0.19420385 -0.042551156 0.0012947497
-0.2267468 -0.12247251 -0.18472764 -0.094911 -0.19797428 -0.10248612 -0.12209054 -0.0471781
-0.051442962 -0.18476251 -0.113182805 -0.16052604 -0.06958157 -0.28334332 -0.09185268 -0.08040786
-0.0692867 0.041372854 0.07156592 0.26257446 0.079560444 -0.06617932 0.21075556 -0.0845257
0.0847248 -0.21209385 -0.3154023 -0.10371616 0.114093885 0.05964841 -0.16711965 0.03255968
0.20086014 -0.2587496 -0.31304717 -0.06923191 0.42207077 0.5008142 -0.577821 -0.507747
0.038164046 0.516505 0.35889167 0.14508665 0.12067393 -0.29422545 -0.47914857 -0.63630474
-0.12182674 0.6115113 0.35094163 -0.57617694 -0.5315195 0.064697586 0.5682884 0.28686666
-0.28591332 -0.74067765 0.060252935 0.6574255 0.5650229 -0.17303509 -0.6840648 -0.12622525
0.6441163 0.59885836 -0.11624068 -0.35315233 0.67453814 0.43145195 -0.22854593 -0.31626374
-0.19294201 0.16708604 -0.5133301 -0.69318116 -0.2491238 0.2486216 -0.28436357 -0.3265461
-0.3151427 0.49929488 0.577547 -0.36013785 -0.064406 0.43535808 0.46814933 0.06732756
0.12010293 0.29258627 0.22898218 -0.01661914 -0.67809606 -0.2801061 -0.47835746 -0.58025265
-0.44411254 -0.34357467 -0.23577493 -0.4382983 -0.541467 -0.15480003 0.18017638 0.109952584
0.0059010135 0.15686019 0.40643722 0.40299278 0.6529488 0.6781096 0.7060383 0.29731506
-0.08555283 0.14648171 0.35063612 -0.009852657 -0.26655698 -0.23816653 -0.34986532 -0.28544587
-0.16671205 -0.018911183 0.04925532 -0.2655592 -0.04946943 -0.26356703 -0.06638658 -0.023524905
-0.16922659 -0.14798191 -0.2185003 -0.16507499 -0.01503574 -0.113797076 -0.14625707 -0.109737925
-0.2919908 -0.04397712 0.014580005 -0.21077813 -0.14362496 -0.13333644 -0.2116042 0.35574403
0.2715059 0.24848439 0.38731456 -0.12929432 0.32670575 0.30268177 0.39350048 0.04517022
-0.12407352 0.30881262 0.05588072 -0.10789876 -0.38011596 -0.20700333 0.21399732 -0.0358678
-0.3654648 -0.19150712 -0.37536097 -0.26038864 -0.4048818 -0.17693244 -0.27917686 -0.16965617
0.19877717 0.075373754 -0.43068743 -0.4270326 -0.29119974 0.42058313 -0.004231775 0.05876091
-0.15218896 -0.18592012 0.25874478 0.097619765 0.037369035 -0.20430458 -0.21337512 0.25160047
0.028792823 -0.015378484 0.08140251 -0.32728097 0.15021586 0.43020588 0.28107804 0.060811937
-0.25462297 0.1322232 -0.20710848 -0.17120726 -0.23286171 -0.22754152 0.124811634 0.43866733
0.41192245 0.58939505 0.44279194 -0.15904327 0.15454078 -0.020057501 0.10838682 0.38580412
-0.14337431 -0.10363729 -0.38756394 -0.23552598 0.15319102 -0.34878343 -0.013309645 -0.4019211
-0.20946482 -0.07878187 -0.073366754 0.15305634 0.29905632 -0.29299378 -0.5873317 -0.06257005

bias f4 [32]
00000000: cd75 28be abc2 36bf 2f48 6b3e cdd4 b3be
00000010: 18c6 6cbd efc6 123c 2b24 30bf c0c8 9abe
00000020: fb85 20bd d7f5 19bd fd37 85be ee1f 79bd
00000030: c7d5 23bd 59a7 f53c 6f98 16be 89b8 a03b
00000040: 48ee a2bd 80af 55bf e7c3 de3c ad8f 8f3c
00000050: f91e a23d e96a 54be 5c1d 7f3d 6598 32be
00000060: e850 f6bd 058e 07be c420 c7bd d7be 883d
00000070: ed5a 4ebc 7abb 0dbe 0b15 1c3d 823d 09bf
-0.16451187 -0.7139079 0.22976755 -0.35123292 -0.057806104 0.008958562 -0.6880519 -0.30231285
-0.039190274 -0.037587967 -0.26019278 -0.060821466 -0.039998796 0.029987024 -0.14706586 0.004904811
-0.07955605 -0.83470917 0.027193023 0.017524565 0.07916064 -0.20743908 0.06228386 -0.17440946
-0.120271504 -0.1323777 -0.097230464 0.06677025 -0.012594921 -0.13841048 0.038106006 -0.5360948

weight f4 [64, 32, 5, 5]
00000000: 250e e13c 0de0 80bc 58cd b4bc bbe1 99bc
00000010: d6ed 39bd efc0 8a3d db07 88bc 31f9 96bc
00000020: bea6 20bd 72ed 1abc 5b0a b33d ddce 723c
00000030: e5d6 ccbc fbc9 7bbd 3c7d 82bc a635 c13c
00000040: dce8 32bd a8d6 12bd 71ae 13bd 7545 38bc
00000050: 7b34 b63b 978e 27bd 36b8 a1bc 6ba1 75bd
00000060: 6057 dcbc 2728 f43b 0fbe c63c be36 1fbd
00000070: 58cd 193d 1d12 343d 1e5c 893c abe9 5bbc
00000080: c8f9 033d 9835 ffbb 8e50 37bc 587f e6bc
00000090: 43c9 c2bc 8637 cd3b 1c88 58bc 676a e8bc
000000a0: 3f83 43bd 16fc 50bc b643 96bc 299f d1bc
000000b0: 2640 de3c 7914 f93c a125 21bd 2f56 0abd
000000c0: 1d9c 15bd ea57 46bd d76d 3abd 095d 423d
000000d0: 88be 1a3d 0cf2 453d 64dd a43d fa9b 91bd
000000e0: 9525 83bc 8313 0a3d 8841 953c 0b26 893d
000000f0: c58d 7ebc 3d18 42bc 1ad6 a4bc a208 063d
00000100: 12fe 0bbd 1b18 c9bb cb72 733c 9f20 b83c
00000110: 35bd 4a3c 9c84 cb3c 302b 273d e13e 363d
00000120: 1978 393d f652 913a 03c0 c9bc 4b08 d7bc
00000130: 9c89 25bc 65a3 20bb b794 d139 41c7 febc
00000140: 2043 80bc 4622 b2bc d57b ff3c 68a1 3cbc
00000150: c1fb 88bd 8aff 4dbd 4048 28bd 1cfe ffbc
00000160: 492c 98bc cbc2 72bd fefc c9bd 813b 80bd
00000170: d5bd 10bd 4ef7 8ebd 067c dfbc 3cc4 c4bd
00000180: efbf 87bd c111 52bd b054 fbbb 4342 9dbd
00000190: 4296 bebd 04bf 4f3b e6d8 153d 94fe 913d
000001a0: f267 013e c2fc babd 0a3c 81bb 328f 2abd
000001b0: 0531 133d c6c2 0b3d de25 88bd a96c 18bd
000001c0: 7eeb 80bc e366 863c 58d1 243b 5907 8fbd
000001d0: 20a6 e3bb 2e70 d5bb 5133 01bc 68bc 3cbb
000001e0: 6847 63bc 8d06 39bc 12b8 3a3d c7a1 4f3c
000001f0: 0afd b73c 9f8b bcbd 43cd 2dbd 4aef f5bc
00000200: fc76 1ebd 121d 323d d9c1 053d d368 12bd
00000210: 2f6e 41bd 3865 543c 6786 b83d fcb6 5a3d
00000220: e52e 7e3d 18f7 2d3d 81d0 ed3c 7efe da3c
00000230: 74af b53d 05e8 bb3d cb8f 3e3d 370a 663d
00000240: ea57 b83c 7273 013e c03d 923d bec4 ba3d
00000250: ffbf c63c 9228 8dbc 70a5 933d 5d1a ca3a
00000260: 45b9 cdbb 1705 edbc 63d3 3bbd 4af9 713d
00000270: cf67 0b3c e33d 853c 3674 0b3c a453 363c
00000280: 7f18 913c 7f63 77bc 030c 873c e80e 98bc
00000290: d7f6 0ebd d4cd c6bc b55c cbbc 6371 19bd
000002a0: 24dc 57bd e20f 89bd 1a2e 893c 7de7 41bd
000002b0: 3b2b 6ebd 8b1d 11bd 726f 73bd 7be5 c3bd
000002c0: 25ab 30bd e628 c3ba 1c44 333d 0815 103d
000002d0: e2d7 1bbd 551f 6cbd 0cdf 8dbb 844f be3c
000002e0: c5c5 1e3d 3a32 3dbc 99b3 93bc f471 3c3c
000002f0: 96c1 953c 7d29 cebb bc0b 1f3b 9ba8 9c3c
00000300: 743e 02bc c830 02bd 8c17 9b39 b22b 793c
00000310: 013f fb3c 2623 8f3d c127 363d b867 ff3c
00000320: 03ae c03a 21a6 85bc e86c 873b 78ec 983a
00000330: ee4a 56bd 0b57 e5ba 3f88 51bd 09c7 393c
00000340: 92be 07bd c313 dc3b 7725 83bc 6151 67bd
00000350: 13a5 40bc e803 8dbc e97e 4b3c b1b6 98bc
00000360: 4724 a8bd e63e a8bc 4bc9 0ebd 5676 c0bc
00000370: 001e 31bc 52ea afbc d10a 9cbd 2410 d4bc
00000380: 916b aa3c f217 f53c ae3e 013d 80ae dbbc
00000390: 58c1 18bd 2edb 3f3c 8f64 433d 82ef 623d
000003a0: f884 63bc ec25 e2bc b95a 8bbc 36fb 3a3c
000003b0: 87d7 153d c1f4 fe3c 4e83 04b9 db88 10bd
000003c0: 7171 aa3d 0e1a af3a c533 303d ce91 2cbd
000003d0: 4329 73bd 43aa ec3c ee05 693d a490 ea3c
000003e0: c191 e53c a5e2 c8bc 3221 3d3d 7a30 113d
000003f0: 426b 683c 375f dd3b 4816 7cbc 1d29 be3c
0.027472565 -0.015731836 -0.022070572 -0.018784394 -0.045392834 0.067750804 -0.016605308 -0.01842937
-0.039221518 -0.009456025 0.087422095 0.014819828 -0.025004813 -0.06147192 -0.015928857 0.023585152
-0.043679103 -0.035849243 -0.036055032 -0.011247029 0.0055604554 -0.04090747 -0.019741159 -0.059968393
-0.026897132 0.0074510756 0.024260549 -0.038870566 0.037549347 0.043962587 0.016767558 -0.01342241
0.03222063 -0.0077883713 -0.011188639 -0.028136894 -0.02377761 0.0062627224 -0.013216045 -0.02837105
-0.047732588 -0.0127554145 -0.018342834 -0.025588589 0.027130198 0.03040527 -0.039342526 -0.033773597
-0.036525834 -0.048423685 -0.045514908 0.047452006 0.03777936 0.048326537 0.080500394 -0.07109828
-0.016009131 0.033710014 0.018219724 0.06696709 -0.01553673 -0.011846599 -0.020121623 0.032723077
-0.034177847 -0.006136907 0.014858912 0.022476492 0.012374212 0.024843507 0.04081267 0.04449356
0.04528055 0.0011087346 -0.024627691 -0.026249072 -0.010103609 -0.0024511453 0.00039974388 -0.031100871
-0.015657008 -0.021744858 0.031186977 -0.011513092 -0.06688643 -0.05029253 -0.041084528 -0.031249098
-0.018575804 -0.0592678 -0.098627076 -0.062613495 -0.035337288 -0.069807634 -0.027280819 -0.09607741
-0.06628405 -0.051286463 -0.0076700076 -0.07678654 -0.09306003 0.0031699548 0.036583804 0.07128635
0.12637308 -0.09130241 -0.003943925 -0.041640468 0.03593542 0.034121297 -0.066478476 -0.037213
-0.015737291 0.016406482 0.0025149193 -0.06983823 -0.006947294 -0.006513617 -0.00788577 -0.0028798822
-0.013872005 -0.011293066 0.0455857 0.012672848 0.022459526 -0.09206318 -0.04243208 -0.030021328
-0.03868769 0.043484755 0.03265557 -0.0357445 -0.04722422 0.012963586 0.0901001 0.053397164
0.06205644 0.042471975 0.029030086 0.02673268 0.08871356 0.091751136 0.04652385 0.056162085
0.022502858 0.12641695 0.07140684 0.09119557 0.024261473 -0.01723126 0.07209289 0.0015419234
-0.0062781894 -0.028933091 -0.04585589 0.05907563 0.008508637 0.016264861 0.008511594 0.01112834
0.017711876 -0.015099405 0.01648522 -0.018561795 -0.034903374 -0.024268068 -0.02482448 -0.03746165
-0.052700177 -0.066924825 0.016745616 -0.047339905 -0.058146697 -0.035428565 -0.059432454 -0.09565254
-0.043131966 -0.0014889508 0.043766126 0.035176307 -0.03804768 -0.057647068 -0.004329568 0.023231275
0.038762826 -0.0115476195 -0.018029975 0.011501778 0.018280786 -0.006291567 0.002426847 0.019123366
-0.00794946 -0.031784803 0.00029581448 0.015208172 0.030669691 0.06989126 0.044471506 0.031177387
0.0014700297 -0.016314568 0.0041328557 0.0011667153 -0.052317552 -0.0017497254 -0.051155325 0.011338958
-0.033140726 0.006716223 -0.016009076 -0.056474093 -0.011758107 -0.017213777 0.012420394 -0.018641802
-0.08210044 -0.020537805 -0.034859937 -0.023493927 -0.010810375 -0.021474037 -0.076192506 -0.025886603
0.020803245 0.029918645 0.031553917 -0.026816607 -0.037293762 0.011709971 0.047703322 0.055404194
-0.013886683 -0.027605973 -0.017011033 0.011412432 0.036582496 0.031122567 -0.00012637416 -0.035286766
0.083224185 0.0013359205 0.04301812 -0.042131238 -0.059365522 0.02888978 0.05689042 0.028633423
0.028023602 -0.024522135 0.046174236 0.03544662 0.0141857285 0.0067557353 -0.015386172 0.023212964

bias f4 [64]
00000000: e783 76ba 9f25 853c 82f5 053d a1aa af3c
00000010: 5676 b4bc bc36 3dba a888 82bc b86a 0bbd
00000020: 77b7 27bc d1b9 7b3c 1961 5dbd c90d 55bb
00000030: 1da3 3bbc 5cf0 a93b ea64 33bd de27 d13c
00000040: 8273 903c a7bb a2bb 3e59 84bc 84c1 213c
00000050: 36e9 23bc c93d 11bd ae90 d83c c3f6 44bd
00000060: 87ef 71bc 1ab2 c7bc a0e5 f8bc 3f43 b23c
00000070: d361 9e3b c355 393d a84d 2cbc 31cb 0c3a
00000080: ead6 433c 4bca 233d dea8 15bd 958d 283d
00000090: e9a3 673c 5ed3 e53c a060 33bd 1369 f73c
000000a0: 5333 2f3c a56c bb3c f2c2 1cbd f360 2bbc
000000b0: 3272 523a 7672 c83c d10a 923c 2a7c 19bd
000000c0: 2f0f efbc 0790 f33c 20d6 893c 9c2e d5bc
000000d0: 0b53 29bd 2ed0 57bc 214e fbba da6e c5bc
000000e0: f0c2 bbbc e147 dfbc 727a 073b 0ded 71bd
000000f0: a97e 08bb 7d31 193d 0b1c f5bc ab16 36bc
-0.000940381 0.01625329 0.032704838 0.021443667 -0.022029083 -0.0007217934 -0.015934303 -0.03403732
-0.0102366125 0.015364126 -0.054047678 -0.0032509437 -0.011452463 0.005186124 -0.04379741 0.025531705
0.017633203 -0.0049662176 -0.016155835 0.009872798 -0.010004332 -0.035459314 0.026436176 -0.048086893
-0.01476658 -0.024376918 -0.030382931 0.021760581 0.004833439 0.045247804 -0.010516562 0.0005370854
0.011953095 0.039987843 -0.036537997 0.04115065 0.0141382 0.02805489 -0.04379332 0.03020147
0.010693389 0.022878954 -0.03827185 -0.010460126 0.00080278807 0.024468642 0.017827423 -0.037471928
-0.029182045 0.029731764 0.016825736 -0.026023202 -0.04133896 -0.0131721925 -0.0019173065 -0.02410071
-0.022920102 -0.027255954 0.0020672348 -0.05906396 -0.0020827448 0.03740071 -0.029920598 -0.011113803

weight f4 [512, 64]
00000000: e819 b13d 1e90 80be 405c 75bd cb40 e5bd
00000010: 5186 223e 3667 b53d bc44 8f3d a59e e53d
00000020: 181b 17be d7b7 73bd 8acf 3d3c 7ea6 b4bb
00000030: f270 eb3d c0b5 fa3c 7003 c6bd 45cb d23d
00000040: ff8c cf3d efb3 323e dbb3 633d 5bb1 7bbc
00000050: 3aa4 4bbe c190 a23c b9b5 b93d db9e f93d
00000060: 2b1a 833b 7e4a 883d 24f7 913d 5d13 d43d
00000070: 4cbb a13c b7de d5bd 1212 6dbe fdef 263e
00000080: 9f72 33be 8ee5 073d 5fe8 e83d 2138 23be
00000090: d43d 7f3c a703 6a3d f960 b8bd 5f46 65bd
000000a0: b9c7 cf3d 844a c93c 33f9 ff3d 91be 003d
000000b0: a18a b4bd 7bac d13d 4d19 903d 8682 273e
000000c0: 6b8d 51be c6fd 0d3e 4626 afbd 3184 193d
000000d0: 0ca5 be3d 3eae d43a 9394 83bd 9af6 40be
000000e0: d5c4 2e3d 29c9 d93c 40fe 073e f85e e7bd
000000f0: 6175 adbd 62bd ff3d e137 9d3c 111d 43bd
00000100: 83a1 263e 3062 ae3c 98ec eb3d 6b82 ab3d
00000110: 570f 3cbb 021a 693d c98a 12bd 2f19 1ebd
00000120: 8c5c a23d d73b b4bc 4380 95bd 16a2 cfbd
00000130: 258e 87bd c87a 1ebe 9571 06be 2458 823d
00000140: c753 e6bd a02b 923d 2d41 763d 485c e53c
00000150: 22c8 593d be90 a83c 10a0 d73d 0be5 23be
00000160: 37ef 7b3c 953c 2a3e da30 f03d 88cf 02be
00000170: 66c9 48be 7739 ab3d 6fc0 04be baaf 1dbe
00000180: d06e 723c c0ac 523d 4a2d da3d fd13 0abe
00000190: 263c a03d 7054 d7bb ca70 59bc 96fa c03c
000001a0: ee50 ab3d d1b3 c93b dc43 233d 83e4 dcbd
000001b0: b4fc 543d f9a9 bf3d 9940 a33d d381 b5bd
000001c0: 5263 8f3d 9f7f 943b 1edc ed39 75e2 893d
000001d0: 6ae7 bcbd 40a3 023e 9406 c1bd 3247 693d
000001e0: 875c 453d 00aa 86bd d2ed 00be ab63 983c
000001f0: e16e fcbd 74ae 11be d67f bfbd 0e00 8e3d
00000200: 3879 543d 3b8c e9bc 5074 823b ee86 4bbd
00000210: f0b5 babb 1bc7 553d a93d 163e b95d bb3d
00000220: d99b 4d3c 5791 b43d d6e8 8cbd 5e6b 21bc
00000230: da8f 9d3c 386c e0bd 8d13 0c3b 6a83 083d
00000240: c60f 23bd 5ed3 043e 934a 08be 8a6c 723d
00000250: 0ed4 b33d 5521 c3bd 393c c0bd 1e3d 6cbd
00000260: bcd0 7d3c 603d 083d 13de 4bbc 073c 97bd
00000270: 8695 5abd 08e3 07be 53c4 5cbd aae4 f53d
00000280: e2d8 e0bc aa28 ddbb 13c2 11be c30d d13d
00000290: 647c 5fbd 0ed0 56bd 495f 68bd 84d9 d63c
000002a0: 9437 a9bc 1e9b 8e3d 3bce 69bc 05f3 b7bd
000002b0: ed40 65bd b846 cc3b a94d 133e 8c81 c63d
000002c0: 3d1c a93c 53f7 c2bd c6c9 0e3e 9fc7 893d
000002d0: 65c8 af3d a5ea 573c 5be3 11bd cc8e 14bd
000002e0: 48ee e53c 2172 073e 033f 543c 88b4 a23d
000002f0: c2c9 233b b7e4 75bb 6ce9 8ebc cfc1 b5bd
00000300: 0262 eb3d 59af 0abd f7ec 5dbd 6b35 d1bd
00000310: 8f0e bd3c 86b3 92bd 1923 e83c de1c f4bc
00000320: abdc 073e 3909 20be 2d13 7c3d 3ed2 543d
00000330: 5972 0e3e b485 13be 67fe b93d a376 083d
00000340: fa4e 803d 0c77 1e3e 4f42 063e 5f5b 183d
00000350: a735 7dbd 1aaa 8abd 9c89 79bd f0aa 7bbc
00000360: 194d e7bd 6cbd 053d 69bf cbbd ec48 a3bd
00000370: 2e02 efbc 8916 05be f65a d13d bc22 c9bc
00000380: 242c e8bc 5c11 05be fe21 0d3d cf48 feba
00000390: abb3 47bd c611 04be b471 9dbd d01d d73d
000003a0: e200 a1bc 7d44 11be 9218 92bd efb6 0c3e
000003b0: e064 e03c b8b2 3eba b660 c7bd f607 25be
000003c0: 4bc9 d93d 0f54 e53d da56 15be 2ad4 813d
000003d0: cf84 103e 0b47 4dba 889f 9b3d 8558 fe3d
000003e0: 07ab 85bd 5356 9f3d 7276 543d ca20 bdbd
000003f0: b209 983d 7e60 e4bd c223 6c3b 21e2 c93d
0.08647519 -0.25109953 -0.05990243 -0.11193999 0.1587155 0.088575765 0.06995532 0.112119
-0.14756429 -0.059501495 0.011585126 -0.0055130115 0.11496152 0.030604243 -0.096686244 0.10292677
0.10134315 0.17451452 0.055591445 -0.015362109 -0.19886866 0.019844415 0.09067864 0.121885024
0.004000922 0.06654833 0.071272165 0.10355256 0.01974263 -0.1044287 -0.23151425 0.16302486
-0.17524193 0.033177905 0.11372446 -0.1593938 0.015578706 0.05713239 -0.09002871 -0.055975314
0.10145516 0.024571665 0.12498703 0.03143174 -0.08815504 0.10237976 0.07036076 0.16358384
-0.20464103 0.13866338 -0.08552222 0.037479583 0.09308824 0.0016226245 -0.06424823 -0.18844071
0.042668182 0.026585178 0.13280582 -0.11297411 -0.08469654 0.12487294 0.019191684 -0.04763514
0.1627255 0.021287054 0.11519736 0.08374485 -0.0028695667 0.05690957 -0.035776887 -0.038598236
0.07927808 -0.02200119 -0.072998546 -0.10138337 -0.06618909 -0.15476525 -0.13129266 0.06364468
-0.11246448 0.07137227 0.06012075 0.027998105 0.053169377 0.020576831 0.105285764 -0.16005342
0.0153768575 0.16624673 0.11728068 -0.1277448 -0.19608077 0.0836057 -0.12964033 -0.15399066
0.014796928 0.05143428 0.106531695 -0.13484187 0.078239724 -0.006571345 -0.01327152 0.023556989
0.083650455 0.006155469 0.039859638 -0.10785773 0.05199881 0.093585916 0.079713054 -0.08862653
0.07001366 0.004531815 0.00045368163 0.067326464 -0.09223826 0.12757587 -0.09425083 0.056952663
0.048183944 -0.06575394 -0.12590721 0.018602213 -0.12325836 -0.14226705 -0.09350555 0.06933604
0.051873416 -0.02850925 0.0039811507 -0.049689226 -0.005697958 0.052191835 0.14671959 0.091487356
0.012549364 0.08816784 -0.068803474 -0.0098522585 0.019233633 -0.10958141 0.0021373958 0.03332845
-0.039809965 0.12971255 -0.13309698 0.059185542 0.087806806 -0.09527842 -0.093864866 -0.057675473
0.015491661 0.033261657 -0.012443083 -0.07384496 -0.053365253 -0.132702 -0.053898167 0.12006505
-0.027447168 -0.0067492323 -0.1423419 0.10207703 -0.054561988 -0.05244451 -0.056731496 0.026226766
-0.020656385 0.0696318 -0.014270361 -0.08981899 -0.05597012 0.0062340163 0.14385094 0.09692678
0.020643348 -0.095198296 0.13944158 0.06727528 0.08583144 0.013178502 -0.035617214 -0.036268994
0.028067723 0.1322713 0.012954476 0.0794459 0.0024992083 -0.0037520358 -0.017445289 -0.08874857
0.11493303 -0.03385863 -0.054181065 -0.10215267 0.023078231 -0.07163148 0.028337048 -0.029798921
0.13267772 -0.15628518 0.061541725 0.051958315 0.13910808 -0.14406472 0.090817265 0.033316266
0.062650636 0.154751 0.13111232 0.037196513 -0.061818745 -0.067707255 -0.06092225 -0.015360579
-0.11294002 0.03265135 -0.09948618 -0.07972893 -0.029175844 -0.12996878 0.102224275 -0.024552695
-0.02834136 -0.12994903 0.034456246 -0.0019400361 -0.04875533 -0.12897405 -0.07687703 0.10503733
-0.019653741 -0.14186282 -0.07133593 0.13741659 0.027391851 -0.0007274556 -0.09735243 -0.16116318
0.10634097 0.111976735 -0.14583912 0.06339295 0.14113162 -0.00078307156 0.075987875 0.124192275
-0.065267615 0.07780137 0.05187077 -0.0923477 0.07423724 -0.11151217 0.0036032056 0.09857584

bias f4 [512]
00000000: 2039 d93d de27 03be b42e aebd b74c 8fbd
00000010: a692 4d3d ca93 bdbd 53c6 b8bd a840 403d
00000020: dd2f b2bd 2c27 c7bd fdfe f43d fd44 c03d
00000030: 9c20 a8bd e77b 343d 0c17 d93c 33de 853d
00000040: b9dd a53d df4e 043e 46bf 013d 8dd8 cb3c
00000050: 6b83 90bc 7108 e13c 6955 5bbd 249c ff3d
00000060: 5121 0d3e 4338 13bc be71 ac3c 78bb b6bd
00000070: 1fbd c9bd 83cf a3bd 3c82 c2bc 42c6 983d
00000080: 9ca6 67bb dfd5 d0bd 22a7 fa3c f10e ae3d
00000090: 30a7 d3bd 798b e5bd b2f7 4abd 9ee9 cc3c
000000a0: 87a1 2d3d 18b7 8cbd 5a69 dd3c 3f7b 7bbc
000000b0: 736e ffbb a4e8 f73d 1a32 433d 88a0 91bc
000000c0: f8b4 cc3c 34a1 62bd 324a c13d b707 dabb
000000d0: cc4a a63d 6ffe 64bd 026e 833d 8adf 3d3d
000000e0: fdb8 8f3d 39c9 403a 222c 5cbd 22a6 5d3d
000000f0: b3e2 de3d 403b 01bd a6df e8bc 2c27 303c
00000100: 7007 b03d 55dd 183d 81fc e3bc db4f 3b3d
00000110: 7403 ebbc 50e6 12bd 7c9f eb3d 38f9 acbd
00000120: 7fff d8bd 8188 f73a c103 ccbd 0aea 703b
00000130: 95f7 9b3d 314f 41bb 37ac b03c aa24 e63d
00000140: 3610 9ebd b3af 9d3d 58af b73d 8732 1d3d
00000150: 93c6 a13d f7f7 abbd 606c a13c fb24 87bc
00000160: 5b18 87bd 7731 0c3d cf53 f9bd f8f3 e23d
00000170: 8f2e f4bd 3d95 143e 5def 2a3d 09df c73d
00000180: f21b 7bbd c906 9cbd 85a1 bf3c 1427 9ebd
00000190: d93f babd 7f89 f3bd 4c76 b03d 49fa 6dbb
000001a0: 2082 be3d 2618 c63d ed35 273d 626e 3b3d
000001b0: d82b 74bd 6a64 0f3d 8285 0bbc 83b6 f9bd
000001c0: 3586 ab3c f12a 01be 7807 01be 5f26 9bbd
000001d0: fb3e 30bd 94ed d4bd 7dfc 3f3d 839b c2bd
000001e0: 578b b63c 9e7a aabd 8876 563d 35ee a73d
000001f0: 31d7 b43c 0686 e8bd b9a7 983d 565a 673d
00000200: 665c c8bd f12b 433d 2d1f dbbd 2ac6 bfbd
00000210: 7f04 d7bb 1bd7 83bd f234 37bd 480d a13d
00000220: 73c2 11bd 80be e13c 20b1 cebd 024c 5e3c
00000230: 537e 303d d1d8 f7bd 1f5d 44bd 0528 60bc
00000240: ccc2 d9bd f287 2bbd a409 ce3d f540 023e
00000250: 396c 023e 1a53 f23d b74a 0c3e 602a b5bd
00000260: db4f 843d 8a54 dabd 2063 b73d 6f58 63bc
00000270: 00b4 f03d 444e 8bbb c778 8dbc f62e 973d
00000280: a792 ee3d cbe8 3d3d 03af c73c 397f a33d
00000290: e697 b4bd cb95 ab3b 8f3c 663c 6baf a4bd
000002a0: 849d 3d3d dc9f 8e3c f0ea 05bd 66a9 203c
000002b0: 3cd4 c6bd 82d7 cb3d 7445 eebc 7026 ca3d
000002c0: 3749 cbbd 93ea 953c 800f 73bd 31d4 edbd
000002d0: 8d28 c33d ded7 ea3c 4193 47bd bf23 943d
000002e0: 7fb6 b7bd 7910 d83d 4dec a6bd e2fb 4abc
000002f0: e6b6 543d 9d15 e3bd 6396 b23d 105e 913c
00000300: 74e5 1abd 5331 803d 5f0b a2bd 9e00 9cbc
00000310: 2a89 92bd fe5e acbc ff1a 3cbd 6a81 15bd
00000320: a05b 4b3d 7d26 2a3d 1277 acbd e401 d8bb
00000330: d5ef c53d 091d 61bd 52b1 263d b18b babd
00000340: f923 bc3d dfb5 fd3c 113f 31bd 4389 a63d
00000350: 32db 883c 9b04 203d c6f9 4dbd 5564 c8bc
00000360: 9b6e 8abd 7365 cd3d 1e62 ca3d f171 6ebd
00000370: 835b abbb 577c 343d 0fe9 343d 3a43 8fbd
00000380: 157f e73b 1ae2 863d 0009 f7bd 282a c2bc
00000390: 38be 3f3d 3a94 c63d 5bc1 d9bc 302e 88bd
000003a0: 327a ea3c bf6c cf3c 5e05 fe3d bbca c73d
000003b0: 9415 f0bc 3c75 81bc 5faf 7f3c 7337 fdbd
000003c0: 84ba c03d 7253 833d 4d37 943d 47fe a8bd
000003d0: 1b32 9a3c 302a c53d c93f b63d fbde 55bd
000003e0: a15c d0bc 71bd a1bd 1e06 763c 9ac8 f1bd
000003f0: e126 b93d b246 e8bc 0d85 883d 2d12 09bd
0.10606599 -0.12808177 -0.08505002 -0.06997054 0.050188683 -0.09256704 -0.09022202 0.04693666
-0.087005354 -0.09724268 0.11962698 0.093881585 -0.08209345 0.044063475 0.026500247 0.06536522
0.08098931 0.12920712 0.031676553 0.024883533 -0.01764079 0.027469845 -0.05354825 0.12480953
0.1378224 -0.008985582 0.02105033 -0.089224756 -0.09850525 -0.07998564 -0.023743741 0.0745969
-0.003534711 -0.10197043 0.030597273 0.084989436 -0.10334623 -0.11208243 -0.049552627 0.025013741
0.042390373 -0.0687086 0.027027775 -0.015349208 -0.007795149 0.121049196 0.047655202 -0.017776743
0.024988636 -0.055329517 0.0943798 -0.0066537517 0.08119735 -0.05590671 0.06417467 0.04635576
0.070177056 0.0007354203 -0.053753026 0.054113515 0.10883083 -0.031550646 -0.028426956 0.010751527
0.085951686 0.037320454 -0.027830364 0.045730453 -0.02868817 -0.035864174 0.115050286 -0.08445972
-0.10595607 0.0018885286 -0.099616535 0.0036760592 0.07615582 -0.0029496665 0.021566493 0.11237462
-0.07717936 0.076995276 0.08968991 0.038378265 0.07899203 -0.08396905 0.019704998 -0.016497126
-0.06596442 0.03422686 -0.12174188 0.110816896 -0.11922943 0.14510055 0.04173218 0.097593375
-0.061305948 -0.07618482 0.023392448 -0.07722297 -0.09094209 -0.1189146 0.08616313 -0.0036312512
0.09302163 0.09672575 0.040822912 0.045759566 -0.059612125 0.03500787 -0.008515717 -0.121930145
0.020938018 -0.12614037 -0.12600505 -0.07575678 -0.043028813 -0.10396877 0.04687165 -0.09502318
0.02228324 -0.083241686 0.052359134 0.08199731 0.022075268 -0.11353688 0.074538656 0.056482635
-0.097832486 0.047649328 -0.10699306 -0.09363969 -0.0065618153 -0.064375125 -0.044728227 0.07863861
-0.03558583 0.027556658 -0.10092378 0.013567926 0.043089222 -0.12101901 -0.04794037 -0.013681416
-0.10632858 -0.041877694 0.100604326 0.12720092 0.12736596 0.118322566 0.13700376 -0.08845973
0.06460544 -0.10660656 0.089544535 -0.013876065 0.11753082 -0.0042512733 -0.017269505 0.07382004
0.116490655 0.046364587 0.024375444 0.0798325 -0.08818035 0.0052363626 0.014052524 -0.08041271
0.046292797 0.017410211 -0.032694757 0.009806013 -0.09708449 0.09953214 -0.029085852 0.098706126
-0.09926074 0.01830033 -0.059340954 -0.11612738 0.09529219 0.028667387 -0.048724417 0.072333805
-0.08970355 0.10550017 -0.081505395 -0.012389155 0.051932238 -0.11088107 0.0872009 0.017745048
-0.03781648 0.06259408 -0.07912325 -0.019043263 -0.07155068 -0.02104139 -0.045924183 -0.036500372
0.049647927 0.04154061 -0.08421148 -0.0065920223 0.09664885 -0.05495933 0.04069645 -0.09108675
0.09186549 0.030970512 -0.043273035 0.08131649 0.016706083 0.039066892 -0.05028703 -0.024461905
-0.067593776 0.100291155 0.098819956 -0.05821413 -0.005229415 0.044063892 0.044167574 -0.06995244
0.00706471 0.06586094 -0.120622635 -0.023701742 0.046812266 0.09696241 -0.026581457 -0.066494346
0.02862272 0.025320409 0.124033675 0.09755465 -0.029307164 -0.015802972 0.015605777 -0.12364092
0.09410575 0.064124 0.0723711 -0.082516246 0.01882272 0.09627187 0.08898885 -0.052214604
-0.025434794 -0.07897461 0.015016107 -0.1180584 0.09040619 -0.028354023 0.066660024 -0.0334646

weight f4 [62, 512]
00000000: 777e b6bc 9052 06bd 46b0 ea3c 8df6 cc3c
00000010: c757 e13c 23da 213d 72a4 e43b 693c b63b
00000020: 9197 993c 37c0 cbbc 52fd 05bc b65c d5bb
00000030: 6024 babc 3ee4 b4bb df7d eaba a255 32bb
00000040: e98e 883a 04a6 acbc be5f 203d 20e1 7e3c
00000050: b518 18bc 9bf3 01bd 3c7a 13bd cc6d 923c
00000060: f361 22bd cfe1 68bc af86 c9bc bc23 4ebc
00000070: 9250 0ebd 742b 65bc abbb b7bc a44d 2d3a
00000080: bd57 2f3a d406 b3bc 3ad0 ae3b 4682 dcbc
00000090: 5dc3 3dbc 5826 97bc 4113 19bd 4574 8abb
000000a0: acf4 28bb 2179 013d a4a8 95bc 44c3 2bbc
000000b0: db0e 213d 7146 37bc 6d7c e53c f7aa d6ba
000000c0: 662f 8d3c ab40 2ebd a273 2abd bcbd 253d
000000d0: 4959 e23c 9854 b43b 6d6e abbc 9e23 1c3d
000000e0: a6bf c93b b65a aabb 7413 4e3c 56c4 a13c
000000f0: 846d f4bc 03da d63c 4027 21bd f8c8 22bd
00000100: a335 d0bc 32e5 56bd 03b9 b5bc 5575 813a
00000110: 008e 2b3d 3c77 09bd 4833 173d 170f 1c3c
00000120: 6ef1 27bb de1a 803b c083 00bd d731 1dbd
00000130: f8c3 2fba d426 f0b9 85c2 c1bc c3a8 a9bc
00000140: 8d50 133d f498 14bd a88d 113d 6ed2 983b
00000150: a46b 2cbd 8c3c 08bc 52aa c1bc 76f8 a73c
00000160: c159 043d 7242 adbc 09ea ccbc cd86 25bb
00000170: f0e9 11bc 2604 663c 7e29 e43c aac0 8a3c
00000180: c65c cf3c 0307 953c d89a d7bc c1b7 24bd
00000190: b94a 2abd 44af 203d 65b5 03bb a0b8 11bd
000001a0: 6475 013d 8244 153c f220 c3bc 96a7 0fbc
000001b0: 5029 7cbb ec6a 203d a091 eebc e1e3 b53c
000001c0: ede1 cabc 666c be3c a3d3 263d 6f40 053c
000001d0: a28b 48bc 1973 32bd 0a15 af3c d183 cf3c
000001e0: 14d8 c1bb 462f 0fbd 28fb 36bc d5fc e43c
000001f0: 6697 20bd 6ba2 1fbd 0e3e eabc e6e0 cb39
00000200: 3477 013d cc6e 1b3d cb04 103d f050 66bc
00000210: e99e 563b a4a9 cf3c 147d babb 3153 083d
00000220: cd79 6c3c fa44 06bd 1d27 18bd bd51 573a
00000230: 1c80 48bd 17e3 c1bc 0341 053c 57e5 523c
00000240: 6a4c f3bc 84eb 21bd abb6 40bc 4ed6 173d
00000250: 8d7b 84bc 8d99 273d f9e0 f5bc 38bd bdbc
00000260: 3194 993c 6df5 fab9 fb2c bebc 886d e43b
00000270: a209 f9bc 461b e7ba 23c2 25bc e686 133b
00000280: 8fb1 b63c 959e 14bd 7389 49bb 4552 233c
00000290: 1d39 f4bb 443b d83c 4000 233d 89ad 053d
000002a0: b945 8b3c 25d8 623b 387b 02bc b059 8fbc
000002b0: f2be 2e3d 5792 88bc b4c2 4c3b 5040 ffbc
000002c0: 0e40 b6bc b58b 143c 6ba1 f7bc 35da abbc
000002d0: d8de 4b3c 3d2d 26bd 1aab 0abd ae7e 593c
000002e0: 4ea2 9a3b b238 60bb 08d6 1f3d f585 abbc
000002f0: c011 23bd c47b 263d 56fa 2fbc 122d 96bc
00000300: 33d4 073b 6c37 27bd b97a f2bc a9df 093c
00000310: fbf5 be3c 98fa 5cbc cbd8 1bbd 24f0 0fbd
00000320: f3a0 793a e912 2ebd a70b 163d be5a 053d
00000330: 11a3 aeba c170 78bc 43ee c33c 0f68 2cbd
00000340: f3c8 b8bc 2c95 083c 4a5c 503c e3fb aebc
00000350: 53aa 17bb a4d9 2f3c 4169 3ebc fcec a8bc
00000360: f46d f939 f577 2fbd 6a08 413c 10d2 d2bc
00000370: 043b 0c3d 5ab5 3fbd 04cb 943c 5fc8 133d
00000380: 033d a1bc 16ba 03bd acaf d43c ea9b b4bc
00000390: a8b6 f4bc 2a1f b23c cd07 a23c 98b4 763c
000003a0: 5ac7 1ebd 6c22 acbc 2eef 123d a031 283d
000003b0: d876 1abd f6d7 f1bc 20bb 2ebd 21e9 053d
000003c0: 4246 fd3c 8dc4 c83b 71cc d53c 07f6 18bb
000003d0: 4b45 1dbd 335f f6bb 019e 843b 6fa3 003b
000003e0: 1a2d 85bb 9a7b c2bc 624e 873b 8d85 233d
000003f0: 7d58 143c ca13 34bd 76d4 10bd af0b 8b3a
-0.0222771 -0.03279358 0.028648507 0.025019908 0.027507676 0.039514672 0.006977611 0.0055614007
0.01874903 -0.024871929 -0.008178072 -0.006511296 -0.022722423 -0.0055203727 -0.0017890296 -0.0027211686
0.0010418567 -0.021075256 0.039153807 0.015556604 -0.009283234 -0.03172646 -0.036005244 0.01787462
-0.039644193 -0.014213993 -0.024600355 -0.012581762 -0.034744807 -0.013987411 -0.022428354 0.00066109956
0.0006688794 -0.021853842 0.005334881 -0.026917588 -0.011582223 -0.0184509 -0.037371878 -0.004225286
-0.0025780601 0.03160966 -0.01826889 -0.010483567 0.039320808 -0.011186228 0.028013432 -0.0016377856
0.017234515 -0.04254214 -0.041614182 0.040464148 0.027630465 0.0055032484 -0.020926679 0.038119905
0.0061568795 -0.005198802 0.01257788 0.01974694 -0.029837377 0.026227003 -0.039344072 -0.03974244
-0.025416201 -0.05246467 -0.022182947 0.0009876887 0.04188347 -0.033560976 0.03691414 0.009525082
-0.002562608 0.003909453 -0.031375647 -0.03837761 -0.0006704922 -0.00045805296 -0.023652324 -0.020710355
0.03596549 -0.03627868 0.035535485 0.004663757 -0.04209484 -0.008315217 -0.023640785 0.020504218
0.03231216 -0.021149848 -0.02501394 -0.002525735 -0.008905873 0.014039075 0.027851816 0.016937573
0.025312793 0.01819182 -0.026318952 -0.040214304 -0.041575167 0.039229646 -0.0020097133 -0.035576463
0.031606093 0.009110572 -0.02381942 -0.008767983 -0.0038476773 0.03916447 -0.029122174 0.022203388
-0.024765933 0.023245048 0.040729176 0.008133038 -0.012240322 -0.043566797 0.021372337 0.02533141
-0.005915651 -0.034957193 -0.011168279 0.027952591 -0.039206885 -0.038973253 -0.028594043 0.0003888674
0.03160782 0.03794746 0.03516082 -0.014057383 0.0032748526 0.025349446 -0.00569118 0.033282463
0.014433336 -0.032780625 -0.037146676 0.0008213779 -0.0489503 -0.023667855 0.008133176 0.012872062
-0.029699523 -0.039531246 -0.011762301 0.03706961 -0.016172195 0.04091792 -0.030014502 -0.023161516
0.018747421 -0.00047866572 -0.023214808 0.006971065 -0.030400101 -0.001763203 -0.010117087 0.0022510826
0.022301463 -0.036284048 -0.0030752092 0.009968345 -0.0074530975 0.026395448 0.03979516 0.0326362
0.01700102 0.0034613695 -0.007963948 -0.017498821 0.04266257 -0.016671343 0.0031243982 -0.031158596
-0.02224734 0.009066512 -0.030228337 -0.020978073 0.012443267 -0.040570486 -0.03385458 0.013274832
0.0047190553 -0.003421348 0.039022475 -0.0209379 -0.03981185 0.040645376 -0.010740837 -0.018332038
0.0020725846 -0.04082434 -0.029599534 0.008415141 0.023310652 -0.013487481 -0.038048547 -0.035141125
0.00095225795 -0.042498503 0.036632206 0.03255724 -0.0013323744 -0.015163601 0.023917323 -0.042091426
-0.022556758 0.008336347 0.012717316 -0.021360343 -0.0023142293 0.010733042 -0.011621774 -0.020620815
0.00047574902 -0.04283901 0.011781791 -0.025734931 0.03423597 -0.04680381 0.018163212 0.03607976
-0.019682413 -0.032159887 0.025962673 -0.022047002 -0.029872254 0.021743376 0.01977911 0.015057705
-0.038764335 -0.021012507 0.03587263 0.04106295 -0.037710994 -0.029521924 -0.042658925 0.032693032
0.03091729 0.0061269463 0.026098462 -0.0023340003 -0.03839616 -0.007518673 0.004047156 0.0019628664
-0.0040642144 -0.023740578 0.004129217 0.039922286 0.0090543 -0.043964185 -0.03535887 0.001060834

bias f4 [62]
00000000: 4f32 013c a5eb 9e3d 9fa7 35bd 0b00 153d
00000010: eaa1 3dbc da28 f4bc 130e 41bd e8fe da3c
00000020: 5f1a 9b3e 22e7 aabb e766 f03c bcf8 053b
00000030: 0e6e d1bc da8d 19bd 20bd 04bd 761c 6b3d
00000040: 22e0 77bc 47f5 5bbb 963f 5bbd c371 9cbb
00000050: 7746 193c 92f8 a0bc 8514 383c 0142 c8bc
00000060: 6360 20bd 88c3 cfbb 9fcf aabc 8e91 adbb
00000070: 26d7 d73c 43dc 943c 29a8 eabc 3866 bebc
00000080: a635 3cbd 019a 5abb 7600 9b3c 08ff 773a
00000090: 5750 debc ebec 443b 57f1 2bbd 6a50 3abd
000000a0: 2599 4abd 4097 953b 5b1b dbbc 3904 94bc
000000b0: ed96 d53c f91c 863c aee6 873c 737b 2e3c
000000c0: 0c65 4ebd d8da cfbc 26b5 053d fc9b 803c
000000d0: 46d3 35bd e2b6 873c 1b68 043d 983b 36bd
000000e0: 29ed 3cbd 6de7 cf3c 908e 4abd 336d eebc
000000f0: 4314 ed3b f5a1 fdbc
0.00788553 0.077597894 -0.04434931 0.036376994 -0.011574248 -0.029804636 -0.047132563 0.026732877
0.30293557 -0.0052155415 0.029345943 0.0020442447 -0.025565173 -0.037488796 -0.032406926 0.05740019
-0.015129121 -0.0033562945 -0.053527437 -0.0047743036 0.009355179 -0.019649778 0.011235361 -0.024445536
-0.03915442 -0.006340448 -0.020850955 -0.0052968925 0.026347708 0.018171435 -0.028644638 -0.023242101
-0.0459496 -0.0033355954 0.018921118 0.0009460305 -0.027137918 0.003004844 -0.041978206 -0.045486845
-0.049462456 0.0045651495 -0.026746443 -0.01806842 0.026072944 0.016371237 0.016589489 0.01064955
-0.050389335 -0.025372908 0.03264346 0.01569938 -0.04439094 0.016566698 0.032325845 -0.044490427
-0.04612461 0.025378907 -0.049452364 -0.029104805 0.0072350814 -0.030961016
