system/models/EMNIST/CNN/FedPer_BaseHeadSplit_EMNIST_client_1.pt (torch, 476764 bytes, 8 tensors)

weight f4 [32, 1, 5, 5]
000000 76 99 d9 bc 60 da 82 be 11 4c 1f bf 88 fb f9 be
       -0.026562434 -0.25557232 -0.62225443 -0.48824716
000010 f0 34 62 be 35 81 74 3e 7d 00 80 be f1 c0 9f be
       -0.22090507 0.23877414 -0.25000373 -0.3120189
000020 b4 80 e6 be 6b 35 68 be 23 5a e3 3e 2a c7 6c 3c
       -0.45020068 -0.22676627 0.44404706 0.014451781
000030 23 b7 fb be 27 cf 0d bf ca 79 df be 5f 73 2f 3f
       -0.4916316 -0.55394214 -0.43647605 0.6853542
000040 01 44 08 3f 08 21 89 3e f4 18 7c be 4c b2 a5 be
       0.53228766 0.26783013 -0.24618894 -0.32362592
000050 ff 8f 17 3f 8e ed 4b 3f e0 e5 12 3f 1a 25 0c 3f
       0.59204096 0.79659355 0.5738201 0.5474411
000060 6b 13 ae 3d 21 bf 18 bd a4 ef 5f 3b 87 f7 46 be
       0.084997974 -0.03729165 0.0034169937 -0.19430362
000070 b2 6e 1d be 74 d3 3c be 8f 85 21 bd 25 ca 10 3a
       -0.15374258 -0.18440038 -0.039434012 0.0005523286
000080 b2 b0 5e be 57 9e dd bd ec f5 2e be cb 18 ac bd
       -0.21747091 -0.108212166 -0.17085999 -0.084031664
000090 80 18 44 be 63 c4 d0 bd fd cd f2 bd 06 3a 0e bd
       -0.19149971 -0.10193708 -0.118556954 -0.034723304
0000a0 be ec 3e bd 1f c4 38 be f8 c0 ef bd 0f b6 25 be
       -0.046612494 -0.18043564 -0.11706728 -0.16182731
0000b0 16 46 7b bd 4f 00 8a be 8e 34 a8 bd 5c e9 a9 bd
       -0.061346136 -0.2695336 -0.08213149 -0.08296463
0000c0 6f 34 95 bd d3 43 5c 3d bc d1 8e 3d cf b8 83 3e
       -0.072853915 0.05377562 0.069735974 0.25726935
0000d0 73 33 2f 3d 80 cd d9 bd 0c 9f 46 3e 40 ea a3 bd
       0.042773675 -0.10634899 0.19396609 -0.08003664
0000e0 5e 93 b0 3d f3 0a 71 be 53 97 ac be aa 21 d6 bd
       0.08621858 -0.23539333 -0.337092 -0.1045564
0000f0 3b 2c f0 3d 14 29 87 3d c4 44 2f be fd 0b 07 3d
       0.11727186 0.06599632 -0.17116076 0.032970417
000100 c9 d3 5a 3e e6 02 80 be ae 30 9c be 2c 35 7a bd
       0.21369852 -0.2500221 -0.3050589 -0.061085865
000110 b7 f7 da 3e 4d 53 02 3f ad 5c 11 bf ee 41 f9 be
       0.42767116 0.50908357 -0.56782037 -0.48683113
000120 87 4a 85 3d 5c 37 09 3f 78 96 bf 3e 31 97 0e 3e
       0.065083556 0.53600097 0.37419486 0.13924862
000130 17 21 04 3e ff 28 9c be 82 41 f7 be ab 20 21 bf
       0.12903248 -0.30500028 -0.48292166 -0.6294047
000140 9a 9e 0e be e4 6b 1d 3f 41 d9 b1 3e 06 5e 11 bf
       -0.13927689 0.61492753 0.34736064 -0.56784093
000150 3f fc 06 bf a8 e3 11 3d 04 51 10 3f 3c e8 94 3e
       -0.52728647 0.0356175 0.5637362 0.2908343
000160 ef 1b 92 be 29 25 3e bf 07 ff 05 3d e2 0c 28 3f
       -0.28536937 -0.7427545 0.032713916 0.6564466
000170 ce 02 13 3f fd 65 23 be 1b 4e 29 bf ad 49 0f be
       0.57426155 -0.15956874 -0.66134804 -0.13992949
000180 78 6b 2a 3f b3 1a 24 3f ca d4 9c bd e0 1e a3 be
       0.66570234 0.6410324 -0.07657774 -0.31859493
000190 ca d7 32 3f 98 04 e9 3e ef 1d 80 be c9 55 b4 be
       0.6986052 0.45511317 -0.25022838 -0.352217
0001a0 2d a7 59 be 62 48 4a 3e bd 1f 05 bf 52 47 35 bf
       -0.21255179 0.19754174 -0.52001554 -0.7081195
0001b0 45 61 6e be 8c d8 8e 3e 34 cf 99 be c6 3c bb be
       -0.23279293 0.27899587 -0.30040896 -0.36569804
0001c0 66 be 9e be fb 62 0d 3f c7 2c 1f 3f db 7e c8 be
       -0.31004637 0.5522916 0.621777 -0.39159283
0001d0 32 77 b6 bd 77 69 ec 3e 8d 24 00 3f 53 d6 97 3d
       -0.089094535 0.46174213 0.5005577 0.07413926
0001e0 8a 77 c6 3d e1 f0 97 3e c1 72 74 3e e2 8d be bc
       0.09690769 0.29675964 0.238719 -0.023261014
0001f0 cb 9b 32 bf c7 0b 79 be da 9e ef be 96 77 15 bf
       -0.6976897 -0.24320899 -0.46800882 -0.583856
000200 3a 4a f1 be e4 1d b8 be 5d 3d 5e be db 05 e5 be
       -0.47126943 -0.35960305 -0.21703096 -0.4473103
000210 5e 72 0d bf 26 b2 27 be 34 31 3b 3e 11 dc 0c 3e
       -0.55252635 -0.16376552 0.18280488 0.13755824
000220 11 3e 6b 3c d0 4d 36 3e 84 f0 d7 3e 44 dd d2 3e
       0.0143580595 0.1780312 0.42175686 0.41184437
000230 14 bf 2e 3f 15 85 35 3f 8f 0a 39 3f 68 cf 8e 3e
       0.6826031 0.7090619 0.72281736 0.27892613
000240 35 58 ef bd c0 ea 24 3e 88 80 b7 3e 4c 90 3a bd
       -0.11686746 0.16105175 0.3584025 -0.04554777
000250 8f 16 a6 be 00 50 90 be 97 a9 b8 be fc 82 8c be
       -0.32439086 -0.28186035 -0.36066887 -0.27443683
000260 04 ee 1d be da f8 61 bc a8 0a 12 3d 44 3f 84 be
       -0.15422827 -0.013792241 0.035654694 -0.25829518
000270 bf c6 25 bd 4a 58 85 be 79 f4 6d bd d7 f5 1c bc
       -0.040472742 -0.26043922 -0.058094475 -0.009580097
000280 de f0 21 be fc a7 11 be f9 bb 60 be 97 b9 22 be
       -0.1581454 -0.14224237 -0.21946706 -0.1589111
000290 cd 2f a7 3b 0f f1 cb bd 40 e8 06 be af ec dc bd
       0.005102134 -0.09958088 -0.13174534 -0.10787331
0002a0 d1 9d 92 be 48 90 c4 bc 7c d9 f0 3c 43 ba 45 be
       -0.2863603 -0.02399458 0.02940058 -0.19309334
0002b0 82 db 17 be ad 07 08 be b3 33 42 be 7d 08 b2 3e
       -0.1482983 -0.13284178 -0.18965034 0.347721
0002c0 63 41 8c 3e 23 aa 81 3e ad cb c0 3e 87 a1 10 be
       0.27393636 0.25325117 0.37655392 -0.14124118
0002d0 b2 70 ab 3e 0f 24 a1 3e 01 f7 c6 3e 0a cf d7 3c
       0.33484417 0.31472823 0.38860324 0.026343841
0002e0 1f a2 09 be ee ce a2 3e 79 d1 74 3d f8 0f ff bd
       -0.1344075 0.317985 0.05977008 -0.12454218
0002f0 41 ad cc be 6c e6 56 be 8a d2 6a 3e 29 6d ff bc
       -0.39975932 -0.20986336 0.22931877 -0.031179981
000300 6d 07 bf be 1e f7 4a be ad d2 be be 4b 4d 7d be
       -0.37310353 -0.1982083 -0.37270108 -0.24736516
000310 a9 10 ca be 67 0b 31 be 30 9b 8e be 6d c2 26 be
       -0.39465836 -0.17289506 -0.27852774 -0.16285105
000320 e9 4c 49 3e 59 1a 83 3d 46 4b e2 be 25 56 d8 be
       0.19658245 0.0640151 -0.44198054 -0.42253223
000330 1b 17 8d be 5c b6 d2 3e bf 7a 45 bc 9a 6a 5e 3d
       -0.2755669 0.41154754 -0.012053191 0.054300882
000340 37 a9 12 be dc d5 34 be 82 34 83 3e a1 85 c9 3d
       -0.14322363 -0.17659706 0.25625998 0.09839941
000350 4e 29 28 3d cb b9 48 be e3 66 5a be 8a 1d 82 3e
       0.041055016 -0.19602124 -0.2132831 0.25413162
000360 67 b7 09 3d 95 d2 19 bc 5e 8e b8 3d 9c 75 a6 be
       0.03362217 -0.009388586 0.090115294 -0.32511604
000370 d8 7c 16 3e de 4d dd 3e e0 2e 94 3e 2d d5 96 3d
       0.14696062 0.4322347 0.28942013 0.07364879
000380 c7 cc 7e be 83 c2 1d 3e 99 eb 4e be 6b 11 2b be
       -0.24882804 0.15406232 -0.20207061 -0.16705863
000390 5a ae 62 be d8 56 6a be cf 31 11 3e 81 47 eb 3e
       -0.22136822 -0.22884691 0.14179157 0.4595299
0003a0 cd 64 df 3e e5 61 1c 3f 09 12 e7 3e 98 87 1b be
       0.43631592 0.61086875 0.45130947 -0.15188444
0003b0 e0 b8 2b 3e 21 7f 0f bb de 50 ea 3d fb aa c8 3e
       0.16769743 -0.0021895843 0.114412054 0.39192948
0003c0 d4 50 15 be c6 a1 d9 bd e7 8e ca be 02 1d 87 be
       -0.14581615 -0.10626559 -0.3956215 -0.2638932
0003d0 d2 ca 0f 3e 30 82 b0 be 08 dd 5c bc e7 9d d4 be
       0.14042214 -0.34474325 -0.013480432 -0.4152672
0003e0 c1 d7 77 be 2b 65 bf bd b7 11 a1 bd 8f 4c 15 3e
       -0.24203397 -0.09345468 -0.07864707 0.14579986
0003f0 14 64 98 3e 74 cc 99 be 74 2f 1a bf 04 e7 8a bd
       0.29763854 -0.30038798 -0.6022866 -0.06782344

bias f4 [32]
000000 a0 46 29 be 01 0a 3c bf e3 d2 3b 3e 52 7c c6 be
       -0.16530848 -0.73452765 0.18342166 -0.38766724
000010 11 3b 9d bd d4 b2 a6 bc 16 36 39 bf 90 fe a4 be
       -0.07677282 -0.020348944 -0.72348154 -0.32225466
000020 cc 79 5a bd 24 e6 88 bd 65 7d 9e be 66 57 a1 bd
       -0.05333881 -0.06684521 -0.30955043 -0.07877998
000030 5b 8e 8c bd 09 ba c7 3c 30 e8 24 be ab 99 de bc
       -0.0686309 0.0243807 -0.16104198 -0.027172884
000040 bb 87 fb bd f7 0d 60 bf 4b 37 dd 3c 18 d7 da bc
       -0.12281748 -0.8752131 0.027003905 -0.026713893
000050 20 9e a5 3d 1d 40 65 be 10 cd 5c 3d 4f 01 6a be
       0.080868006 -0.22387739 0.0539065 -0.22852062
000060 e5 c8 fe bd cc 06 0a be 98 6e f0 bd e1 c7 82 3d
       -0.12440661 -0.13479155 -0.11739844 0.0638578
000070 f1 bf ca bc 3a cb 1b be b9 2d 00 3a 8d 4b 0e bf
       -0.024749728 -0.15214244 0.00048896257 -0.5558403

weight f4 [64, 32, 5, 5]
000000 16 9e 68 3d ad 32 ad ba ea 41 82 bc 94 ad dd bb
       0.056791387 -0.0013213955 -0.01590057 -0.006765077
000010 2b 3f 8e bd 19 ae af 3d 70 25 d4 3b d3 6f 81 bc
       -0.06945642 0.08578128 0.0064741895 -0.015800392
000020 b5 3e 09 bd 43 72 af bc f8 4a 4e 3d c8 39 04 3c
       -0.033507068 -0.021416789 0.050364465 0.008070417
000030 ba 3f 23 bd 70 ae 94 bd 7f a6 23 bd 6e f7 18 3c
       -0.039855696 -0.07259834 -0.039953705 0.009336336
000040 26 69 4c bd 45 a8 db bc 45 d5 d6 bc 18 dc c2 bc
       -0.049904965 -0.026813636 -0.026224742 -0.02378659
000050 fb c2 bd 3a a3 30 3f bd d6 a5 a9 bc e6 1d 56 bd
       0.0014477664 -0.046677243 -0.02070896 -0.052274607
000060 1a 50 21 bd c7 41 97 3b 3d 74 ed 3c 54 a4 21 bd
       -0.03938303 0.0046159956 0.02898609 -0.039463356
000070 d2 2a 29 3d 1b 05 42 3d 51 d1 12 3c 5e 30 8b bc
       0.041300602 0.04736815 0.008961038 -0.016990837
000080 d1 d3 dd 3c 87 9b b8 bb 36 f5 29 bc fd 29 00 bd
       0.027078541 -0.0056337747 -0.010373404 -0.031290043
000090 f1 9a bc bc 8b 9c d8 3b 2a 08 d8 bb 87 0d d1 bc
       -0.0230231 0.0066104583 -0.00659277 -0.025519146
0000a0 a2 dd 2f bd 28 27 10 bc 43 fa 7c bc 50 92 bc bc
       -0.042935975 -0.008798398 -0.015440526 -0.023018986
0000b0 53 b7 e1 3c 9d f9 00 3d 1b 5f 22 bd e0 aa 25 bd
       0.027553236 0.03148805 -0.03964148 -0.040446162
0000c0 77 c9 29 bd 60 75 59 bd a9 52 43 bd 91 ef 36 3d
       -0.041451897 -0.053090453 -0.047686253 0.044662062
0000d0 17 0f f1 3c 06 e5 eb 3c a7 70 a7 3d 89 a4 8f bd
       0.02942614 0.02879573 0.081757836 -0.070138045
0000e0 06 28 c2 bc cd af ad 3c 62 1c 1f 3b 07 8a 96 3d
       -0.023700725 0.021201992 0.0024278392 0.073505454
0000f0 95 33 b1 bc 68 4a 20 bc fa c3 e0 bc 34 97 fd 3c
       -0.021631042 -0.009783365 -0.027437199 0.030955888
000100 0a 98 c3 bc 60 cf fe bb 65 7e da 3c 99 e6 c9 3c
       -0.023876209 -0.007776186 0.026671598 0.02464609
000110 cb cd 42 3c 95 2a e4 3c 2e 04 0b 3d 51 aa 5c 3d
       0.011889885 0.027852336 0.033939533 0.053873364
000120 ed f9 3c 3d ff ac ae 3b 44 52 4e bc 44 21 12 bc
       0.046136785 0.0053306813 -0.012592856 -0.008919064
000130 db 10 96 bc ce 1f 43 b9 3e ea b3 b8 e5 a7 4c bd
       -0.018318584 -0.00018608497 -8.579016e-05 -0.049964804
000140 e8 06 67 3b b2 c8 8e bc 23 04 dc 3c c6 b9 79 bc
       0.003525192 -0.017429683 0.026857441 -0.015242046
000150 70 4a b0 bd 9a c3 60 bd 37 22 27 bd 28 7c 36 bd
       -0.08607948 -0.05487404 -0.040804114 -0.044552
000160 f8 f0 15 bd c9 12 a4 bd 78 fd e9 bd 43 93 85 bd
       -0.03660676 -0.080113955 -0.114252985 -0.065222286
000170 92 7b 24 bd c4 80 a0 bd 63 26 38 bd 34 68 e4 bd
       -0.04015691 -0.0783706 -0.044958483 -0.11152688
000180 65 f4 a2 bd 88 d4 65 bd ef f8 29 bc 15 20 ab bd
       -0.07956771 -0.05611089 -0.010374292 -0.083557285
000190 15 13 ae bd 48 5d 8a 3b 8a e2 0a 3d cd c0 8f 3d
       -0.08499733 0.004222546 0.03390745 0.07019196
0001a0 60 98 07 3e 57 bc b4 bd 11 4b f8 bb 7c 83 3a bd
       0.1324172 -0.088249855 -0.007577308 -0.04553555
0001b0 5b 3b d4 3c c8 4b 11 3d 76 65 a4 bd 95 53 4b bd
       0.02590721 0.03547266 -0.08027165 -0.049640257
0001c0 d5 93 e0 bc 8d af 2b 3c bf 55 c8 3c 9b bf 98 bd
       -0.027414242 0.010478866 0.02445495 -0.07458421
0001d0 58 90 72 3b ae 20 37 3b 27 d8 34 3c 4c 30 95 3c
       0.0037012305 0.0027943063 0.011037863 0.018211506
0001e0 4d 07 54 bc 17 c8 ae 3b ab a9 88 3d 05 c0 96 3c
       -0.012941194 0.005333911 0.066729866 0.018402109
0001f0 36 ca 00 3d a8 e9 a9 bd da ed 13 bd b3 9f 0a bd
       0.031442843 -0.082965195 -0.036115505 -0.033843707
000200 bb ba 2a bd 7e 37 0e 3d cf e9 61 3d 90 05 49 bc
       -0.041681986 0.03472089 0.055154618 -0.012269393
000210 a2 47 1f bd f1 30 c6 3c 8f 6f cc 3d 8e 28 ef 3c
       -0.038886674 0.024193259 0.099822156 0.029194143
000220 3b f5 6d 3d 1e 57 1d 3d 5f 9a 07 3d f7 6e 20 3d
       0.058095198 0.03841316 0.033106204 0.039168324
000230 0c 39 8f 3d 90 84 a9 3d 56 f1 62 3d dd 7c a3 3d
       0.06993303 0.082772374 0.055405937 0.079828
000240 83 91 0c 3d f1 ab 12 3e ab 5c bf 3d 56 67 ff 3d
       0.03431846 0.14323403 0.09343847 0.12470882
000250 b6 e3 68 3d a3 b4 ec 3b a3 f3 84 3d a6 90 f4 3b
       0.056857787 0.007223682 0.064917825 0.0074635325
000260 1b 28 84 bb 16 44 d0 bc 20 e9 2a bd 91 89 36 3d
       -0.0040331013 -0.02542309 -0.04172623 0.044564787
000270 09 35 82 3b f9 3f 30 3c 39 81 45 3c 47 28 7e 3c
       0.0039736074 0.01075744 0.012054735 0.015512533
000280 b2 a3 56 3c 58 40 86 bc d6 59 92 3c 92 ab 3c bc
       0.013100551 -0.016388103 0.017865103 -0.011515515
000290 3f 33 08 bd ce 37 81 bc a6 d1 9f bc 67 18 08 bd
       -0.033251997 -0.01577368 -0.019509148 -0.033226397
0002a0 9b c0 4d bd 8e e0 8b bd c1 18 b3 3c 47 b4 36 bd
       -0.05023251 -0.0682994 0.02186239 -0.04460552
0002b0 3d 5b 8b bd be f8 3a bd a1 c3 83 bd 53 0d c4 bd
       -0.06804512 -0.045647375 -0.06433798 -0.09572854
0002c0 86 63 42 bd 4c d9 87 bb 6d 98 28 3d 1a 20 eb 3c
       -0.047458194 -0.004145777 0.04116099 0.02870183
0002d0 29 3d 3f bd 9a 60 80 bd 56 c9 39 bc a0 35 5e 3c
       -0.046689186 -0.06268425 -0.011339506 0.01356259
0002e0 98 d4 fe 3c 29 a6 16 bc 77 ba 80 bc 2c 3d 42 3c
       0.031107232 -0.009194889 -0.015713913 0.011855405
0002f0 9c 85 8a 3c 24 2e 36 bc e1 d5 e1 3a 14 b5 92 3c
       0.016909413 -0.011119399 0.0017229879 0.01790861
000300 12 f4 4d bc e5 2a db bc d2 3d 1c ba b6 66 11 3c
       -0.012570398 -0.026753852 -0.00059601397 0.008874586
000310 68 28 d3 3c 09 b1 87 3d dd 0d 3b 3d 91 48 08 3d
       0.025776103 0.06625564 0.045667518 0.03327233
000320 36 4d 7f 3c f6 18 47 bc d6 e4 73 3b c6 7d c9 3b
       0.015582373 -0.012151947 0.0037215254 0.0061490266
000330 22 69 84 bd 79 b9 07 3c 55 aa 30 bd 86 b1 41 3c
       -0.06465365 0.008283966 -0.04313119 0.01182211
000340 e8 7a f2 bc 05 f1 bb bb b4 ea c3 bc b0 a2 56 bd
       -0.029599622 -0.005735519 -0.023915626 -0.052401245
000350 b4 84 7a bc bc 54 c0 bc a8 67 bf 39 dd d2 ec bc
       -0.015290428 -0.023477904 0.0003650759 -0.028909141
000360 30 ec a9 bd 7e b5 ab bc 47 95 21 bd 4f c0 09 bd
       -0.08297002 -0.020960566 -0.039449003 -0.033630665
000370 96 7a 99 bc c8 4b e8 bc 44 95 a5 bd 6e f8 e3 bc
       -0.018735211 -0.028356448 -0.08085111 -0.027828421
000380 5f 90 82 3c 2a df c8 3c 55 65 fa 3c 42 bb fe bc
       0.015937982 0.024520475 0.030565897 -0.03109515
000390 1e 38 26 bd 44 dc 5b 3c 1f 06 2b 3d 25 52 52 3d
       -0.04058086 0.013419215 0.041753884 0.05134787
0003a0 70 9d 8a bc 42 02 e6 bc cf 7f 81 bc c3 27 ee 3c
       -0.016920775 -0.028077248 -0.015808014 0.029071694
0003b0 8f 13 4a 3d 82 87 29 3d 01 08 83 3b f4 6a 0f bd
       0.04933506 0.041388996 0.003998757 -0.035014108
0003c0 f7 4d a2 3d ba 36 83 3b 8c 84 42 3d 33 d3 37 bd
       0.07925027 0.0040043266 0.047489688 -0.04487915
0003d0 7e 8e 85 bd 7b c8 15 3d b7 c8 90 3d 02 3f 32 3d
       -0.06521319 0.036568146 0.07069533 0.04351712
0003e0 b3 05 21 3d b4 ad c0 bc 69 ba 39 3d b2 52 bd 3c
       0.039312076 -0.023520328 0.04534379 0.023110721
0003f0 5a f9 2b 3c a8 da 0c bc 86 b8 ad bc 84 12 fe 3c
       0.010496462 -0.008597054 -0.021206152 0.031014688

bias f4 [64]
000000 1b ea 3d bb ee e3 8a 3c 4a c1 17 3d 12 1a af 3c
       -0.002897865 0.016954388 0.03704957 0.021374736
000010 eb eb d1 bc af be b8 bb 65 fc b1 bc 38 6a 07 bd
       -0.02562519 -0.0056379656 -0.021726796 -0.033060282
000020 ae da 56 bc 8c f7 67 3c 4a 36 52 bd b8 12 b2 bb
       -0.013113661 0.014158141 -0.051321305 -0.0054343604
000030 14 2f 72 bc d1 72 de 3b f2 48 2d bd df 6e ba 3c
       -0.014781732 0.0067885895 -0.042305894 0.022757946
000040 c1 58 9f 3c 8a 3e c7 bb 40 f0 94 bc 8a c3 12 3c
       0.0194515 -0.0060804533 -0.018180966 0.008957753
000050 81 b6 26 bc f2 96 0e bd 94 3c dc 3c 7d 21 5b bd
       -0.010175348 -0.03481192 0.026884355 -0.053498734
000060 c1 8a 4b bc a9 c5 e9 bc 51 2a 08 bd 8e 29 a1 3c
       -0.012423218 -0.028536635 -0.03324348 0.019673135
000070 60 fa 24 3b 4a 19 36 3d a9 52 1a bc 1a 42 2e bb
       0.002517365 0.04445771 -0.009419122 -0.0026589693
000080 f9 55 f1 3b 1c e6 26 3d 6f e4 1c bd 2b 99 33 3d
       0.007364985 0.040746793 -0.03830379 0.043847244
000090 94 1c 6a 3c 7e c1 ee 3c 26 0d 3c bd ad 65 02 3d
       0.01428904 0.029144999 -0.045910977 0.031835247
0000a0 b4 2d 53 3c 88 be be 3c 30 6d 20 bd a4 44 14 bc
       0.012889314 0.023284212 -0.03916663 -0.009049568
0000b0 82 9e 36 ba e3 23 dc 3c bd 04 93 3c 36 dd 21 bd
       -0.00069663685 0.02687258 0.017946595 -0.039517604
0000c0 c1 37 d2 bc 88 66 ee 3c 0c aa a5 3c cd 25 e6 bc
       -0.025661351 0.029101625 0.020222686 -0.028094197
0000d0 f8 27 26 bd ea 8a 48 bc a9 71 98 39 59 7d cc bc
       -0.04056546 -0.012240151 0.00029076383 -0.024962114
0000e0 e4 df d0 bc 9c ab e5 bc b4 88 07 3b e7 2a 84 bd
       -0.025497384 -0.028035931 0.0020680847 -0.064534955
0000f0 27 5f 06 3a 83 f5 1d 3d 76 0b 0e bd f1 c6 3d bc
       0.0005125873 0.038564216 -0.0346789 -0.011583076

weight f4 [512, 64]
000000 ce 98 e6 3d b9 58 81 be 97 24 96 bd 2b aa f5 bd
       0.11259614 -0.25263003 -0.07331198 -0.119953476
000010 71 02 1d 3e 0d 96 8c 3d 2a 63 89 3d 02 18 d2 3d
       0.15332963 0.068645574 0.06708367 0.102584854
000020 f9 75 24 be c3 3c 65 bd e9 9c a0 3c 69 31 47 bc
       -0.16060628 -0.05596615 0.01960607 -0.012157776
000030 f8 07 eb 3d 20 54 de 3c 3a e3 ff bd 81 0f b6 3d
       0.11476129 0.027139723 -0.12494512 0.08889676
000040 e1 7c b6 3d 72 88 34 3e ba 23 5f 3d 47 f3 91 3b
       0.089105375 0.17630175 0.05447743 0.0044540497
000050 e4 0f 49 be 12 7c e4 3c 24 e7 cb 3d e1 22 02 3e
       -0.19634968 0.027891193 0.09956196 0.12708618
000060 f0 5b 2c 3c 14 16 90 3d 19 4f 7e 3d 77 97 df 3d
       0.0105199665 0.07035461 0.062087152 0.109175615
000070 b8 bb d2 3c 6b 98 e6 bd e3 fa 71 be df c4 2c 3e
       0.025724277 -0.1125954 -0.23630862 0.16871975
000080 5a 76 34 be 91 25 21 3d 44 eb f2 3d 7e 2e 23 be
       -0.17623273 0.039342467 0.118612796 -0.15935704
000090 65 23 66 3c eb a8 88 3d 09 11 b2 bd cb 48 5e bd
       0.014046525 0.066728435 -0.086946554 -0.05426864
0000a0 75 e0 b9 3d dd f2 6a 3c 60 b7 07 3e 16 73 25 3d
       0.09076015 0.01434013 0.13253546 0.040392958
0000b0 54 cc 95 bd a7 a8 cb 3d 9c d1 8a 3d aa 4c 2a 3e
       -0.07314363 0.09944277 0.06778261 0.16630808
0000c0 40 8a 4e be c0 ca 12 3e 85 a6 91 bd 23 b6 b5 3c
       -0.20169926 0.14335155 -0.07111839 0.022181576
0000d0 18 2c af 3d ff 27 ec bb 74 37 8e bd e4 b8 56 be
       0.08553332 -0.0072069163 -0.069441706 -0.20968968
0000e0 3e 4f 61 3d de 24 bf 3c ec 51 0c 3e 1c bd e8 bd
       0.055007212 0.02333301 0.13703126 -0.11364195
0000f0 72 48 d0 bd 5d 8f e1 3d 67 ad 8d 3c b1 0b 3e bd
       -0.10170068 0.110136725 0.017294599 -0.04639787
000100 05 33 33 3e 84 ea 27 3d bb d3 01 3e 21 bd d1 3d
       0.17499931 0.040995136 0.12678425 0.102411516
000110 a3 89 e0 3b 75 d2 90 3d a4 fa 2e bd 68 e7 80 bc
       0.006852345 0.070713915 -0.0427195 -0.015735343
000120 9c 7f e1 3d 57 a5 9e ba 35 2e 9b bd 48 54 b5 bd
       0.11010668 -0.0012103718 -0.07577173 -0.08853966
000130 26 00 82 bd 9a a9 17 be c2 57 fa bd 50 53 9f 3d
       -0.063476846 -0.14810792 -0.1222377 0.077795625
000140 c4 0d da bd c7 3a af 3d 8a 6c a4 3d dc ae 41 3d
       -0.10647157 0.08556133 0.08028515 0.0472859
000150 a4 35 86 3d 66 bc bf 3c 88 dc eb 3d 87 10 16 be
       0.065532 0.023405265 0.115166724 -0.14654742
000160 7a 8b 33 3c e4 e6 30 3e 1b f7 e2 3d ad 9c e1 bd
       0.010958547 0.17275578 0.11082288 -0.11016212
000170 d2 ac 47 be 95 a0 bd 3d b0 b1 c1 bd b5 e7 15 be
       -0.1949952 0.09259144 -0.09457719 -0.1463917
000180 a0 0f c8 3c 00 c4 82 3d f1 27 ea 3d 8a be 0b be
       0.024421513 0.0638504 0.114333995 -0.13646904
000190 ed eb c3 3d 7c 8e da 3b 1b 9f c8 bb 9f 99 03 3d
       0.09566484 0.0066698175 -0.0061224825 0.032128926
0001a0 00 4b d4 3d 6c 4f d0 3c 48 cf 59 3d 7a 4d da bd
       0.103658676 0.025428496 0.053176194 -0.10659309
0001b0 70 e5 24 3d 22 6b d3 3d 4c 83 ba 3d 9b fd 9b bd
       0.04025787 0.10323168 0.09107074 -0.07616731
0001c0 80 b2 cf 3d 8d 9f 3d 3c 6d e1 a7 3a a6 38 8c 3d
       0.10141468 0.011573684 0.0012808271 0.06846742
0001d0 40 2d b2 bd 40 24 0c 3e 31 e5 c8 bd 93 0c 91 3d
       -0.08700037 0.13685703 -0.0980934 0.070824765
0001e0 54 20 2f 3d f0 aa 83 bd a3 b3 fa bd 1f 0b 07 3d
       0.04275544 -0.06429088 -0.12241294 0.03296959
0001f0 f3 e7 ba bd a9 43 0a be 3c 0b b4 bd 4d 61 94 3d
       -0.09126272 -0.13502373 -0.08791205 0.07245121
000200 2b 14 33 3d eb 59 35 bd 0d ea 6a 3c e9 dc 4e bd
       0.043720406 -0.044275206 0.014338029 -0.050503645
000210 e5 ef f2 bb 30 15 38 3d 51 3c 0e 3e 09 d6 bf 3d
       -0.0074138516 0.04494208 0.13890196 0.09366996
000220 71 1d 6f 3c 82 1a ab 3d d5 db af bd ae c7 be bc
       0.014594422 0.08354665 -0.085868515 -0.023288574
000230 1f 7d 22 3c e5 11 ea bd 5a 76 1f 3c e4 fc 0c 3d
       0.0099175265 -0.11429194 0.009732807 0.034420863
000240 a0 e1 0c bd 44 18 f5 3d fa f2 09 be 2c 06 73 3d
       -0.03439486 0.11967519 -0.13471594 0.059332058
000250 6c 68 ac 3d d5 50 b9 bd b1 77 cf bd ba c6 a0 bd
       0.084183544 -0.090486206 -0.10130251 -0.07850404
000260 8f 19 29 3c f8 2f 13 3d 8f 16 9b bc 0c b5 a2 bd
       0.010321035 0.03593442 -0.018931655 -0.07944688
000270 37 c5 62 bd 4a a5 0a be e3 3b 59 bd d3 fc e6 3d
       -0.05536386 -0.13539615 -0.053035628 0.11278691
000280 58 12 d9 bc 13 53 86 bb d1 ab 26 be ec 30 d9 3d
       -0.026498005 -0.0040992587 -0.1627648 0.10605034
000290 a7 7b 50 bd d2 77 82 bd 3c 89 79 bd 50 da cb 3c
       -0.050899174 -0.0637051 -0.060921893 0.024884373
0002a0 64 02 f7 bc fe 59 95 3d 66 59 45 bc 8c a8 cc bd
       -0.030152507 0.07292555 -0.01204524 -0.09993085
0002b0 47 fa 7f bd 32 aa e9 3a f1 a1 12 3e 7f 27 cc 3d
       -0.062494542 0.0017827211 0.14319588 0.09968471
0002c0 3a 47 38 3c a3 6d d9 bd dc 50 16 3e a4 55 8d 3d
       0.0112474505 -0.10616615 0.14679283 0.069011
0002d0 e7 b1 a8 3d 45 00 70 3c 4a 7a 12 bd 4b 06 0d bd
       0.08237057 0.014648502 -0.035761155 -0.03442983
0002e0 42 dc ca 3c 8c 63 f8 3d 96 7a 61 3c d7 0a 90 3d
       0.02476323 0.12128362 0.013762137 0.070333175
0002f0 4a 98 bf 3b 03 64 4e bc d8 0c bb bc 1f f2 b9 bd
       0.0058470117 -0.012597087 -0.022833273 -0.09079384
000300 50 3b e2 3d 8d 1a 27 bd 47 04 20 bd 1b 04 df bd
       0.11046469 -0.040796805 -0.03906658 -0.10889455
000310 c5 a2 99 3c 2c 89 93 bd be 20 08 3d 67 f1 ea bc
       0.018754372 -0.07203898 0.03323435 -0.028679563
000320 24 e9 f9 3d 9e 47 27 be 69 d8 6e 3d 5c 47 1f 3d
       0.12202671 -0.16335914 0.058311854 0.038886413
000330 ea 4d 02 3e cc 01 1b be 2c 4a b1 3d f7 4d 81 3c
       0.12725034 -0.15137404 0.08656725 0.015784247
000340 98 4f 88 3d af 4f 2b 3e d2 d4 f6 3d 7a f0 38 3d
       0.06655806 0.16729616 0.12052311 0.04515121
000350 f0 e5 88 bd 8c 58 88 bd 2a 9b 64 bd db 49 55 bc
       -0.06684482 -0.06657514 -0.05581204 -0.013018097
000360 82 30 eb bd 1c 26 18 3d 54 ef e4 bd 07 20 ae bd
       -0.114838615 0.03714572 -0.11178461 -0.085022025
000370 56 a7 2b bd ba 5f 08 be d1 71 d0 3d 95 23 bb bc
       -0.04190763 -0.13317767 0.10177959 -0.022844115
000380 44 5f 05 bd 9c 20 06 be 20 e6 10 3d 05 cb aa bb
       -0.032561556 -0.13098377 0.035375714 -0.00521219
000390 90 72 67 bd a0 79 03 be 45 e2 92 bd f4 bb dc 3d
       -0.05650574 -0.12839365 -0.07172064 0.10778037
0003a0 a8 93 d7 bc 11 8c 1f be 06 29 a2 bd 14 34 0f 3e
       -0.026315525 -0.15580775 -0.07917981 0.1398471
0003b0 4d 8a e0 3c f5 55 ee bb bd 46 c8 bd 2e 08 37 be
       0.027409697 -0.0072734305 -0.09779117 -0.17874214
0003c0 17 ed d1 3d b8 1d eb 3d e3 b7 12 be 3c 9b 77 3d
       0.102502994 0.11480278 -0.1432796 0.060450777
0003d0 f7 c9 10 3e cb 15 72 3b cf 9e b2 3d de a9 01 3e
       0.14139543 0.003693926 0.087216966 0.12662455
0003e0 36 19 96 bd aa eb c6 3d 77 c8 48 3d cc 43 af bd
       -0.07329027 0.09712918 0.049019303 -0.08557853
0003f0 1b b1 8c 3d dc 9c f3 bd 76 12 4c bb 6b 1e c9 3d
       0.06869718 -0.11895153 -0.0031138933 0.09820255

bias f4 [512]
000000 9b fe d0 3d c8 7c fb bd 98 49 b2 bd 42 c4 92 bd
       0.10204812 -0.122796595 -0.08705443 -0.071663395
000010 a6 89 44 3d 04 0b bc bd e1 43 b6 bd 97 c4 4b 3d
       0.047982834 -0.091817886 -0.088996656 0.04974803
000020 f4 c4 b3 bd 39 be cb bd 73 a5 ea 3d c6 26 ba 3d
       -0.087778 -0.099483915 0.11457338 0.09089427
000030 13 64 a4 bd 1a 75 3c 3d 11 38 d9 3c 98 9b 84 3d
       -0.080269 0.046010114 0.026515992 0.0647499
000040 ad c4 ae 3d 92 d1 02 3e a4 7a f5 3c 7c b7 c9 3c
       0.08533607 0.12775257 0.029965706 0.024623625
000050 02 92 80 bc 7c 86 c0 3c 0f 8b 6b bd 6d a6 fe 3d
       -0.015694622 0.023501627 -0.057505663 0.12434087
000060 42 bb 0a 3e 43 a3 04 bc f1 f2 e4 3c 3e 7e b8 bd
       0.13547996 -0.008095565 0.027947875 -0.09008454
000070 13 20 ca bd a0 9f a3 bd 21 66 9d bc 78 55 95 3d
       -0.09869399 -0.079894304 -0.019213738 0.072916925
000080 60 d4 a9 bb a5 dd cd bd e7 a0 1b 3d 05 4c a9 3d
       -0.005182788 -0.10052041 0.037995245 0.08266453
000090 2a 8a da bd ea fd e3 bd 67 04 48 bd cc ff b8 3c
       -0.10670884 -0.11132415 -0.048832323 0.022582911
0000a0 92 5e 2f 3d 18 b7 8c bd 74 2d dd 3c 7b 00 86 bc
       0.0428148 -0.0687086 0.026999213 -0.016357651
0000b0 ff b9 4b bc cc ad e9 3d 39 92 56 3d 95 6a bf bc
       -0.012434482 0.11410102 0.052385543 -0.023366252
0000c0 07 46 a9 3c 24 47 6e bd df 64 bf 3d 53 ed 6e bb
       0.020663274 -0.058173314 0.093454115 -0.0036457374
0000d0 36 b3 9b 3d 82 31 68 bd c7 71 8b 3d f9 ac 35 3d
       0.07602541 -0.05668784 0.06808811 0.044354413
0000e0 5d ee 8c 3d b0 30 94 3b ff 5a 55 bd c4 97 5b 3d
       0.06881402 0.0045224056 -0.052088734 0.05361153
0000f0 58 65 e6 3d 24 f4 fc bc 15 6c e3 bc bc 92 3a 3c
       0.112497985 -0.030878134 -0.027761498 0.011387523
000100 86 bc ae 3d a6 93 ee 3c 19 22 d0 bc 50 d7 3a 3d
       0.08532052 0.029123139 -0.025406884 0.045615494
000110 c1 eb dc bc 39 89 07 bd f7 2a ed 3d 42 fe ac bd
       -0.026967885 -0.03308985 0.115804605 -0.08446933
000120 57 8d d9 bd e9 f0 28 bb 45 c6 c8 bd 01 e9 1a 3b
       -0.106226616 -0.002577836 -0.09803442 0.0023637416
000130 96 b0 9c 3d 01 c1 35 bb 5b 93 ab 3c 90 9f ee 3d
       0.076508686 -0.0027733447 0.020944288 0.11651528
000140 a9 f3 9d bd ef 6c 96 3d 05 6d ba 3d b0 82 1c 3d
       -0.0771249 0.07344996 0.09102825 0.03821057
000150 06 b5 9d 3d 54 7a ae bd df 61 af 3c 5b 0c 5d bc
       0.07700543 -0.08519426 0.021408973 -0.013491715
000160 00 60 84 bd 1f 1d 0d 3d 5f 63 f9 bd d5 7f e6 3d
       -0.06463623 0.0344516 -0.12177157 0.11254851
000170 8f 2e f4 bd 5e 16 11 3e d9 8d 2b 3d 33 6e c4 3d
       -0.11922943 0.14168689 0.041883323 0.09591331
000180 bc 25 7a bd 9d 8c 9f bd 57 52 cc 3c cb 65 a0 bd
       -0.061071143 -0.07790492 0.024941606 -0.078319155
000190 5c 2a bf bd 21 6c f5 bd e7 22 ad 3d eb 2b 9e bb
       -0.09334251 -0.119835146 0.08453923 -0.004827013
0001a0 c7 1e c7 3d e9 63 c4 3d 9a bf 2b 3d eb 6a 3b 3d
       0.09722667 0.09589369 0.041930772 0.04575626
0001b0 d8 ba 6a bd 21 80 05 3d fb 85 8c bb a2 af f7 bd
       -0.057307094 0.032592896 -0.0042884327 -0.12094046
0001c0 67 11 b2 3c 22 4d 00 be 69 9b ff bd 03 1a 8f bd
       0.021736814 -0.12529424 -0.12480814 -0.06987383
0001d0 c5 4f 3c bd 31 ca d4 bd 40 83 40 3d c4 5b c6 bd
       -0.04597451 -0.103901275 0.04700017 -0.09685472
0001e0 85 5a c9 3c d2 03 aa bd dd af 60 3d b2 0e af 3d
       0.024579296 -0.0830151 0.054855216 0.08547725
0001f0 31 e8 b6 3c ab b6 e5 bd 31 5d 9a 3d 1f 21 52 3d
       0.022327514 -0.11216482 0.07537306 0.051301118
000200 d1 e4 c5 bd 24 98 31 3d 46 be dc bd b2 f8 c2 bd
       -0.09662784 0.043357983 -0.10778479 -0.09520091
000210 f5 bb f0 bb 74 94 84 bd 22 a3 44 bd bc ec a5 3d
       -0.007346625 -0.06473628 -0.048007138 0.08101794
000220 7c 45 0b bd 41 c1 f5 3c 18 f2 ca bd 13 30 49 3c
       -0.034001812 0.029999377 -0.09909457 0.012279528
000230 70 61 34 3d 25 2c f9 bd 14 df 3c bd b2 a0 82 bc
       0.044038236 -0.12166623 -0.04611118 -0.015945766
000240 1d 22 d5 bd b2 d4 2b bd 28 d1 d8 3d a6 1f 02 3e
       -0.10406897 -0.04195089 0.105867684 0.12707385
000250 e7 12 02 3e a9 3c ed 3d 0a 6a 10 3e e9 10 b2 bd
       0.12702523 0.11583836 0.1410295 -0.086946316
000260 74 db 89 3d 78 fe c9 bd 41 6d b9 3d 95 4b 80 bc
       0.067313105 -0.09862989 0.09054042 -0.01566104
000270 61 6a f7 3d 99 8a 67 bb 13 0b 4d bc db aa 99 3d
       0.12080837 -0.0035330413 -0.012514847 0.07503291
000280 e0 ae f8 3d 78 a7 31 3d bd 57 ce 3c 5b 9a b1 3d
       0.1214273 0.0433726 0.025188321 0.08672019
000290 c9 00 b8 bd 36 49 08 3b a7 6d 81 3c 4a e9 a6 bd
       -0.08984525 0.002079559 0.015799357 -0.08149965
0002a0 23 4e 45 3d 5e dd af 3c 67 57 1b bd 25 04 24 3c
       0.04817022 0.02146786 -0.03792515 0.010010754
0002b0 80 20 cb bd 92 8f d1 3d 3c 38 ee bc 80 30 c7 3d
       -0.09918308 0.10232462 -0.029079549 0.097260475
0002c0 cf 88 cb bd 3d cd a7 3c cb da 72 bd 01 d2 f3 bd
       -0.099382035 0.020483607 -0.05929069 -0.119052894
0002d0 b2 a0 cc 3d a7 c9 f3 3c 81 4b 44 bd ee 40 8a 3d
       0.09991588 0.029759241 -0.04792357 0.067506656
0002e0 ae 73 af bd 61 18 d4 3d 5f 7d a8 bd 3b a2 29 bc
       -0.08566986 0.103562124 -0.08227038 -0.01035362
0002f0 c7 8c 59 3d db d7 e6 bd 8d ea b8 3d 1b c0 a1 3c
       0.05311277 -0.1127164 0.09029112 0.019744923
000300 34 fc 2c bd e2 68 7d 3d 7e 62 a8 bd 84 49 9d bc
       -0.042232707 0.061867602 -0.08221911 -0.019200094
000310 80 c4 8d bd 14 01 84 bc 2c 49 4d bd 83 88 0d bd
       -0.06922245 -0.016113795 -0.05011861 -0.034554016
000320 43 ee 56 3d 11 45 24 3d 39 e8 b0 bd 98 2b 2c bc
       0.052473318 0.04010493 -0.08638043 -0.01050844
000330 ff 6b c0 3d 5c 12 54 bd 10 37 31 3d 8c 2f bd bd
       0.093955986 -0.05177532 0.043265402 -0.092375845
000340 f3 8c b7 3d ff c0 fe 3c 83 3b 3a bd 79 68 aa 3d
       0.08962431 0.031097887 -0.04546691 0.08320708
000350 0e c5 a9 3c 22 9b 2e 3d 1e ba 32 bd 41 31 cd bc
       0.020723846 0.042628415 -0.043634526 -0.0250479
000360 23 1d 8a bd 5a 19 ce 3d 71 47 c5 3d 42 97 66 bd
       -0.06743839 0.10063429 0.09632767 -0.056296594
000370 38 db b3 ba 02 d4 24 3d 2e 5b 35 3d 86 7b 93 bd
       -0.0013721948 0.04024125 0.04427641 -0.072012946
000380 3e 22 4f 3b 26 3d 87 3d 3a a9 f4 bd b9 fc d7 bc
       0.0031606103 0.0660346 -0.1194634 -0.026365625
000390 fa 06 31 3d 08 99 c8 3d 66 0c c1 bc bc 4b 8a bd
       0.043219544 0.097948134 -0.023565482 -0.067527264
0003a0 fc 83 ef 3c 41 12 a0 3c bc 9f fd 3d ae 74 cd 3d
       0.02923774 0.019539954 0.123839825 0.100320205
0003b0 65 87 eb bc ff a4 81 bc 89 91 83 3c f5 c0 fd bd
       -0.028751085 -0.015825747 0.016060608 -0.12390319
0003c0 82 27 cc 3d 27 f0 8a 3d 26 89 94 3d 51 17 b2 bd
       0.09968473 0.06784087 0.072527215 -0.086958535
0003d0 93 57 2c 3c 14 dc c2 3d 2d 1d ac 3d 69 df 53 bd
       0.010518926 0.09514633 0.08404002 -0.051726732
0003e0 5b ae de bc 4d 12 a3 bd 26 24 6b 3c cf 0f f1 bd
       -0.027182749 -0.07962475 0.01435188 -0.117705934
0003f0 5b e0 b0 3d 9c 55 f7 bc f9 55 85 3d a1 9f f8 bc
       0.086365424 -0.030192189 0.065105386 -0.030349554

weight f4 [62, 512]
000000 f8 93 43 be c0 b6 d1 3d ec 69 74 3c 95 02 b8 3b
       -0.19099414 0.10239935 0.014917832 0.005615542
000010 2c 1b 84 3e ab 1b 98 3d 72 56 d4 3d d3 b0 a5 bb
       0.2580198 0.07427152 0.10368051 -0.0050564795
000020 01 59 87 bd 6f b4 41 bd a1 ef 43 3e bc 8e 59 3d
       -0.06608773 -0.047291216 0.1913438 0.053114638
000030 c4 c6 cb bd 8c a1 69 3d 3b fe c3 3d e2 bc 42 bd
       -0.09950021 0.05703883 0.09569975 -0.047543414
000040 62 53 64 3c bd e4 43 3c f6 22 3d 3e c3 04 1d bd
       0.013935896 0.011956391 0.18470368 -0.03833462
000050 85 dc 1e bd 77 e5 f9 bd 2c 38 96 3b ef b4 c3 3b
       -0.038784523 -0.1220197 0.004584333 0.0059724967
000060 e6 32 48 bd 59 eb e1 3b f7 bd 83 3d 2e a1 78 bd
       -0.048876666 0.0068945107 0.06432717 -0.060700588
000070 c7 cc 61 bd ac e5 8e bc 84 51 93 bc 15 3e 9f 3d
       -0.05512693 -0.0174435 -0.017983206 0.07775513
000080 50 93 8d bc 58 00 18 3d df 9c dc 3d 12 8c 32 bc
       -0.017282158 0.037109703 0.10772108 -0.010897653
000090 71 8e 16 3d 78 08 c1 bc fb 2c d1 bd 02 a2 06 bd
       0.036756936 -0.023563609 -0.102136575 -0.032869346
0000a0 ea 1d 2d 3c 21 79 01 3d 6b 16 a5 bd 60 f6 31 bd
       0.010566214 0.03160966 -0.080609165 -0.043447852
0000b0 ca e2 60 3d e0 72 3f 3c 55 7e ec 3d 1d e7 94 bc
       0.054903783 0.011685103 0.115475334 -0.01817661
0000c0 7c ad 6a 3d ae e4 39 be 09 f8 0a bd 5e ea 1c bc
       0.057294354 -0.1815364 -0.03392795 -0.009577362
0000d0 13 71 56 3d 66 c6 4d 3d 2f 83 fa bd e9 83 ee 3d
       0.05235393 0.050238036 -0.122320525 0.116462536
0000e0 7c 11 f2 3c 09 1b 91 bd 42 62 56 3d 48 7e 6e 3e
       0.029549353 -0.07085235 0.0523398 0.2329036
0000f0 8d 11 0b be 07 b6 63 bd 71 68 17 be ab f0 c8 bc
       -0.13580914 -0.055593517 -0.14785935 -0.024528822
000100 a0 d1 28 bd 9f fb 2c bd db 87 4c 3c 10 dd a8 3c
       -0.04121554 -0.042232152 0.012483562 0.020613223
000110 fa 30 1e bd ab 17 10 be c6 ac 2d 3e d0 9a de 3b
       -0.038620926 -0.14071529 0.16960439 0.0067933574
000120 32 e1 dc bb 7f d8 21 bd 96 95 21 bd 16 5b 78 3d
       -0.0067407126 -0.039513107 -0.039449297 0.06063374
000130 ec a2 46 ba 81 23 dc bd 7c 67 d6 bc b4 6e cd bd
       -0.0007577378 -0.10748959 -0.026172392 -0.100308806
000140 15 db 93 3d 39 ba b4 bd 9f 6a 9d 3c 2b c4 95 3b
       0.07219521 -0.08824582 0.01921588 0.004570504
000150 b3 05 cb bd 81 2b 13 3c 8a cf fc bc 1d 99 53 3c
       -0.099131964 0.00898254 -0.030860681 0.012914923
000160 6c 56 64 bd ec 4d ca 3c 56 f6 bd bd 4c 40 0c bd
       -0.05574648 0.02469536 -0.092755005 -0.034241006
000170 f0 e9 11 bc 19 56 c4 bb ef a3 60 3e e0 e7 3c bc
       -0.008905873 -0.005991709 0.21937536 -0.011529893
000180 41 53 63 3e 2b fe 0f 3e c4 02 da bd 8a e2 5f 3c
       0.22199728 0.14061801 -0.10645059 0.013664851
000190 39 e0 fa bc 50 5d 99 3d ea b7 2d 3d 71 db fa bd
       -0.030624496 0.07488501 0.042411722 -0.122488864
0001a0 5e df 33 3d 1f ee 1e 3e 36 4a 75 bd 11 ae 0f bc
       0.04391419 0.15520523 -0.059885226 -0.008769528
0001b0 75 c9 9f bd 79 b5 38 3c 1e 03 a3 bd ee 32 ea 3c
       -0.07802097 0.011273735 -0.07959579 0.028588738
0001c0 2f 2f e7 3d ba ed 84 bd 2d ea 1e 3d ea 2a 9d bd
       0.112882964 -0.06490655 0.038797546 -0.07674201
0001d0 e0 e7 70 bc 03 dc d6 bc 7e ea a0 bd 47 27 40 bc
       -0.014703721 -0.026227957 -0.07857226 -0.011728114
0001e0 b1 23 99 bd 30 77 14 bd 0a db 22 3b b5 6e 57 bc
       -0.07477511 -0.03624648 0.0024849796 -0.013148953
0001f0 54 d2 35 3d 80 60 b1 bd 37 1e 8d bc 2e b8 bf 3d
       0.044390038 -0.08660984 -0.017226322 0.09361301
000200 2e 1e 82 bd f3 0b 14 3d c6 d4 0a 3d 8f c8 a1 3c
       -0.063534126 0.03614421 0.033894323 0.019748954
000210 fc c6 35 3e c2 5e d6 bc 89 0f 1c bd 40 ce 11 be
       0.17751688 -0.02616823 -0.038100753 -0.14238834
000220 46 67 57 3d 04 30 a5 bd da 3f f2 3c 13 e4 a8 bc
       0.052588724 -0.08065799 0.029571462 -0.020616567
000230 b9 94 de bd a4 a7 d9 3d 28 4d 47 bc a1 a1 3b be
       -0.1086821 0.10627678 -0.012164392 -0.18323375
000240 19 d1 61 bd c9 9d e3 3c 1b dd 87 bd b9 8c 91 3d
       -0.05513105 0.027785199 -0.066339694 0.07106919
000250 6a 23 56 3d 8c 2d 36 3d 17 ad 45 bd 27 ca c7 bd
       0.052279867 0.04447703 -0.048260774 -0.097553544
000260 84 c6 52 3e 87 25 5f bd a1 28 23 3e 7a b1 57 bd
       0.2058354 -0.05447915 0.15933467 -0.05265949
000270 8d 88 52 bd d9 f3 6b bd 2e 76 9f 3d 34 42 e9 bd
       -0.051399756 -0.057605598 0.07786213 -0.1138958
000280 0c 20 33 bc cf 56 6a bd 96 8e 6d 3d b8 59 af bd
       -0.010932934 -0.057211693 0.05799731 -0.08562034
000290 0e d6 65 bd 52 3f 8b 3d a9 b1 0c bd 95 cc bc 3c
       -0.05611234 0.06799187 -0.034349117 0.023046771
0002a0 ff 30 1e 3a fc 80 d6 bd 32 68 76 3d c4 76 92 bc
       0.00060345227 -0.104738206 0.060157962 -0.017878897
0002b0 77 8c bc 3d 1b 01 da 3d c7 a0 42 3b 5f e3 15 bd
       0.09206479 0.10644742 0.0029697882 -0.03659379
0002c0 63 90 ac bc 80 d8 32 3e 45 61 fb bc c1 d3 14 be
       -0.021064943 0.174654 -0.03068603 -0.14533903
0002d0 23 ce d9 bc b1 a5 4b bd aa d9 96 3c a0 e1 62 bd
       -0.026587551 -0.049718563 0.018414337 -0.055390954
0002e0 e4 ca ca 3b eb 0d 31 bc 0e 92 a9 3d de d1 03 bc
       0.006188737 -0.010806541 0.08279811 -0.008045642
0002f0 8c d8 4f 3c 06 de bb 3d 72 1d 6c bd 1d dc 4a be
       0.012685906 0.09173207 -0.05764527 -0.19810529
000300 87 a7 fc 3d c3 68 04 be 31 43 e1 bd 1e 8e 81 bb
       0.12336641 -0.12930588 -0.10999144 -0.0039537093
000310 39 96 8f 3c cc 86 80 bd 7b 64 23 bd aa b4 e4 bd
       0.017527686 -0.062757105 -0.039890748 -0.111672714
000320 77 38 0e bc 59 b0 c4 3c 1d 64 85 bd cd 34 19 bd
       -0.008680454 0.02400987 -0.06513236 -0.03740387
000330 29 ab 40 3e d6 56 98 bd cd d5 83 bc d9 a1 98 bd
       0.18815292 -0.07438438 -0.01609316 -0.07452745
000340 f0 e5 7b 3d d8 c1 06 3c 6d de 5d bd 42 75 de 3b
       0.061498582 0.008224927 -0.0541672 0.0067888806
000350 d6 a4 f8 bd 1e 38 83 bd 83 52 c9 3d af 77 bf bd
       -0.12140815 -0.06407188 0.09830191 -0.09349
000360 6b 77 3b bb c8 85 0f be 8c 8a 88 3e 19 09 12 bd
       -0.0028605114 -0.14015877 0.26668203 -0.035653207
000370 d7 97 d8 bd e3 27 2a be c7 d4 94 3c 13 d9 96 3d
       -0.10575836 -0.16616778 0.018167866 0.07365622
000380 05 24 19 3c 02 af b3 bd d2 44 1f 3e d9 e0 e3 bd
       0.009346967 -0.087736145 0.15553597 -0.11126871
000390 b7 06 53 3d 4f 88 20 3e 6d 26 80 3c 3b 13 2f 3e
       0.051520076 0.15676998 0.015643323 0.1709718
0003a0 e6 5a a6 bd 08 f7 9b bd 10 60 2a bd 44 04 2f 3e
       -0.08122806 -0.07615477 -0.04159552 0.17091471
0003b0 47 bc c0 3c 2a d9 f1 bc 68 33 23 be 00 8c 33 3e
       0.023527278 -0.029522497 -0.15937579 0.17533875
0003c0 24 cc 3c 3d e5 7d db 3c 90 52 eb 3d 79 97 d4 bd
       0.04609312 0.02679343 0.11490357 -0.103804536
0003d0 3f ee d8 bc 75 ff 71 3d 96 d0 97 3d cb 24 d5 3a
       -0.026480792 0.059081513 0.074128315 0.0016261576
0003e0 37 20 d5 3c 11 e1 7f 3d 53 e2 ca 3b dc 5a a9 bc
       0.026016338 0.0624705 0.0061915307 -0.020673208
0003f0 85 a5 01 3e 2f 5b a4 bd 7d 51 ab 3d e5 65 3b bb
       0.12660797 -0.080252044 0.08365152 -0.002859467

bias f4 [62]
000000 c5 9c 7f 3d 6a 02 89 bd 97 4f 8f 3d f0 a2 1d 3d
       0.062405366 -0.066899136 0.069976024 0.038485467
000010 b5 df 20 bd 79 32 c6 bd 2d a8 58 bd b4 e1 1d bc
       -0.039275844 -0.09677596 -0.05289476 -0.009636331
000020 79 41 b3 bc 52 f2 63 bc e3 79 b7 3b 36 24 15 bd
       -0.021881806 -0.013912754 0.005599247 -0.036411487
000030 1a b3 30 bd 1b 76 ec bc ef a8 59 bc 97 be 7b 3c
       -0.043139555 -0.02886491 -0.013284906 0.015365264
000040 37 59 99 3c 6c 21 83 bc d7 b3 fd bd 10 f1 43 bc
       0.018719299 -0.016007148 -0.12387817 -0.011959329
000050 3c 41 93 3c d6 a2 c9 bc 81 97 a3 3b e7 e7 88 3c
       0.017975442 -0.024613779 0.004992426 0.016712142
000060 3e e5 37 bd 9f b3 57 3d 78 3e db bc c8 3b 24 bc
       -0.044896357 0.052661534 -0.026763186 -0.010024019
000070 0c d2 87 3e bc c3 36 3c af 3f a3 bc 49 81 ec bc
       0.2652744 0.011155065 -0.019927828 -0.028870242
000080 bd 02 44 3d 43 f6 80 3d 8e 2a d7 3c e7 f2 96 bb
       0.047854174 0.06296971 0.026265409 -0.004606593
000090 fe 8e ec bb 77 d0 93 bb d8 46 dc 3c b8 ae 50 bd
       -0.0072191944 -0.004510935 0.02688925 -0.050947875
0000a0 b1 eb 67 bd 90 cc 85 ba 9c 9c 07 bd 20 8e c4 bc
       -0.056621257 -0.0010208059 -0.03310834 -0.023993552
0000b0 0b 6e 55 3d 63 90 f0 3c e7 28 34 3c 40 b7 fb 3d
       0.0521069 0.029365724 0.01099608 0.122908115
0000c0 4a 58 66 bd dc a7 00 bd f3 33 d4 3c 74 7a 13 3c
       -0.056236543 -0.031410083 0.025903678 0.009001363
0000d0 d2 9f 4b bd 4a 5d 36 3c 7a fd d3 3c 6c 7c 4d bd
       -0.049712963 0.01113064 0.025877703 -0.050167486
0000e0 4f c3 53 bd 36 a0 a1 3c 76 b4 5f bd 4b c1 09 bd
       -0.051699933 0.019729715 -0.05461546 -0.033631604
0000f0 61 0d 0c 3b ae 4f 19 bd
       0.002137028 -0.037429504
