system/models/EMNIST/CNN/FedPer_BaseHeadSplit_EMNIST_client_5.pt (torch, 476764 bytes, 8 tensors)

weight f4 [32, 1, 5, 5]
-0.017506814 -0.22928476 -0.6075486 -0.47008365 -0.23857313 0.27741405 -0.21271817 -0.30144504
-0.45358038 -0.26169255 0.49754444 0.059595358 -0.48288724 -0.5816789 -0.49063566 0.7333533
0.5551478 0.25680023 -0.29533035 -0.3965122 0.5958684 0.7792352 0.5617618 0.5208265
0.040620364 -0.06747775 -0.019903816 -0.212986 -0.17361467 -0.20675005 -0.061956078 -0.022466334
-0.24141085 -0.12658322 -0.1875736 -0.1088601 -0.213726 -0.12104856 -0.13146989 -0.055379193
-0.07136809 -0.19971266 -0.12301532 -0.1614018 -0.073937476 -0.3034695 -0.10634779 -0.08989398
-0.07374451 0.023389941 0.068115786 0.27784434 0.09423006 -0.07494643 0.19190824 -0.08808887
0.10411778 -0.19083525 -0.32554048 -0.1212372 0.11127522 0.06882375 -0.15412709 0.034066454
0.1985021 -0.2665001 -0.3197158 -0.059970073 0.44734612 0.5146891 -0.584299 -0.5108585
0.058631197 0.55743146 0.37984508 0.13175167 0.12188342 -0.2793117 -0.48433012 -0.6512589
-0.12614153 0.61693954 0.36035693 -0.57772595 -0.55048543 0.04770266 0.58101 0.29935765
-0.30555707 -0.7696857 0.046507005 0.68447185 0.59590113 -0.1798556 -0.7060003 -0.15313709
0.6683787 0.66139066 -0.076585576 -0.34067866 0.7102863 0.46236122 -0.25372884 -0.37004185
-0.20408198 0.18232869 -0.5672735 -0.7707834 -0.28314528 0.29077458 -0.3015168 -0.37321657
-0.33848858 0.5413964 0.64527 -0.38411823 -0.058731217 0.5042667 0.5290577 0.07860708
0.115286745 0.32556304 0.28949702 -0.009047874 -0.71723527 -0.2515879 -0.46907952 -0.59279287
-0.4804325 -0.37354344 -0.2246139 -0.45864797 -0.5636406 -0.17573951 0.16969876 0.12726101
0.012971119 0.18887515 0.427835 0.40486607 0.6783908 0.7162512 0.74439895 0.3068189
-0.1106479 0.14043464 0.3456414 -0.023974994 -0.2942522 -0.2708366 -0.37282726 -0.29461616
-0.1778297 -0.012478065 0.054267097 -0.27345622 -0.066003345 -0.2828545 -0.06910223 -0.017849108
-0.18459459 -0.17007925 -0.24252447 -0.16273288 -0.021782193 -0.12555963 -0.15221217 -0.1243358
-0.2947524 -0.056909207 -0.0047002896 -0.2150689 -0.17269067 -0.15226088 -0.23679295 0.35421503
0.2727821 0.2706209 0.38975376 -0.16027491 0.33637857 0.31814426 0.40265414 0.019433562
-0.16835974 0.314044 0.061201476 -0.114670776 -0.40399358 -0.2281454 0.23120658 -0.025362547
-0.36787415 -0.19421707 -0.36829776 -0.25615382 -0.4025626 -0.18736607 -0.27874935 -0.15103577
0.2005295 0.08164125 -0.42150462 -0.41684934 -0.28958824 0.44177768 0.014974683 0.062661
-0.15074179 -0.19583297 0.28266168 0.114091925 0.034502365 -0.21868488 -0.2387826 0.27360737
0.04493736 -0.019358387 0.06492427 -0.35146984 0.14825532 0.42563865 0.27873018 0.06187979
-0.2634429 0.14469135 -0.22087686 -0.1877565 -0.2584559 -0.27047262 0.14219287 0.46472162
0.43893984 0.61630934 0.46136755 -0.1581236 0.17085053 -0.0013192736 0.12633605 0.41558766
-0.16833195 -0.117386445 -0.3983627 -0.24472791 0.16495882 -0.3551198 -0.004918719 -0.39896575
-0.21479528 -0.07514227 -0.069287784 0.15079713 0.287349 -0.31620616 -0.59875995 -0.056944624
00000000: 736a 8fbc a0c9 6abe 4e88 1bbf ceae f0be
00000010: 844c 74be 3709 8e3e cbd2 59be 0157 9abe
00000020: b03b e8be 91fc 85be 25be fe3e 431a 743d
00000030: ff3c f7be e9e8 14bf 9934 fbbe 0bbd 3b3f
00000040: 2b1e 0e3f 527b 833e 8a35 97be a603 cbbe
00000050: d58a 183f f57b 473f 9fcf 0f3f e354 053f
00000060: 8a61 263d c631 8abd 540d a3bc 0119 5abe
00000070: 0bc8 31be 49b6 53be a8c5 7dbd 510b b8bc
00000080: 6834 77be 089f 01be 4b13 40be 0bf2 debd
00000090: fdda 5abe 4fe8 f7bd 0ba0 06be 4bd5 62bd
000000a0: 6f29 92bd 7a81 4cbe 75ef fbbd 8346 25be
000000b0: 886c 97bd 5b60 9bbe dfcc d9bd 561a b8bd
000000c0: 5d07 97bd 439c bf3c 4a80 8b3d 9d41 8e3e
000000d0: b1fb c03d 847d 99bd 9883 443e f067 b4bd
000000e0: b43b d53d 516a 43be 3ead a6be 364b f8bd
000000f0: 43e4 e33d 77f3 8c3d 7ed3 1dbe 4489 0b3d
00000100: 2244 4b3e b372 88be cab1 a3be 2ea3 75bd
00000110: 8d0a e53e aac2 033f 9f94 15bf 9fc7 02bf
00000120: 4427 703d d4b3 0e3f 0e7b c23e e9e9 063e
00000130: 049e f93d f101 8fbe 1efa f7be e7b8 26bf
00000140: 3f2b 01be c0ef 1d3f b480 b83e d9e5 13bf
00000150: 9dec 0cbf dd63 433d 12bd 143f 6845 993e
00000160: fa71 9cbe 1f0a 45bf 217e 3e3d 8c39 2f3f
00000170: fa8c 183f 112c 38be 70bc 34bf f8cf 1cbe
00000180: de1a 2b3f e650 293f e6d8 9cbd 6f6d aebe
00000190: 53d5 353f 9cba ec3e bfe8 81be 2076 bdbe
000001a0: defa 50be 5fb4 3a3e d638 11bf 1052 45bf
000001b0: 6bf8 90be 68e0 943e 6960 9abe 3e16 bfbe
000001c0: 604e adbe f498 0a3f 6a30 253f 25ab c4be
000001d0: 2590 70bd 9f17 013f 5370 073f c0fc a03d
000001e0: 751b ec3d 33b0 a63e f438 943e 893d 14bc
000001f0: bb9c 37bf 21d0 80be 312b f0be 46c1 17bf
00000200: 40fb f5be 1641 bfbe 3001 66be e8d3 eabe
00000210: c04a 10bf 0ff5 33be 83c5 2d3e b650 023e
00000220: d184 543c 7d68 413e 300d db3e 9b4a cf3e
00000230: 05ab 2d3f 3d5c 373f ee90 3e3f 5e17 9d3e
00000240: 5e9b e2bd 19ce 0f3e e9f7 b03e 3567 c4bc
00000250: 39a8 96be 18ab 8abe 37e3 bebe eed7 96be
00000260: fd18 36be cc70 4cbc 2d47 5e3d 7402 8cbe
00000270: c32c 87bd 4ed2 90be 7885 8dbd 4b38 92bc
00000280: 5d06 3dbe 4129 2ebe 5658 78be 73a3 26be
00000290: 9270 b2bc b492 00be 82dd 1bbe c5a3 febd
000002a0: c9e9 96be a119 69bd e304 9abb 063b 5cbe
000002b0: d3d5 30be 47ea 1bbe da79 72be ac5b b53e
000002c0: 18aa 8b3e d38e 8a3e ce8d c73e 1b1f 24be
000002d0: d039 ac3e cee3 a23e af28 ce3e 2233 9f3c
000002e0: 7f66 2cbe 60ca a03e 66ae 7a3d 83d8 eabd
000002f0: 3fd8 cebe f39e 69be 6bc1 6c3e 1ec5 cfbc
00000300: 005a bcbe d7e0 46be 8691 bcbe 9826 83be
00000310: af1c cebe e4dc 3fbe 3cb8 8ebe 1fa9 1abe
00000320: 9b57 4d3e 8733 a73d 74cf d7be 476d d5be
00000330: e944 94be af30 e23e 5f58 753c 6954 803d
00000340: 0e5c 1abe 7088 48be 08b9 903e 07a9 e93d
00000350: 5a52 0d3d eeee 5fbe 6d83 74be 4416 8c3e
00000360: 3d10 383d 7b95 9ebc 04f7 843d dbf3 b3be
00000370: 3ed0 173e 4fed d93e b9b5 8e3e aa75 7d3d
00000380: fde1 86be f829 143e 8b2d 62be 3d43 40be
00000390: 5554 84be 637b 8abe 029b 113e feef ed3e
000003a0: b9bc e03e 73c6 1d3f 5e38 ec3e 27eb 21be
000003b0: 71f3 2e3e 7aeb acba 3d5e 013e e8c7 d43e
000003c0: 365f 2cbe 4e68 f0bd 32f6 cbbe f499 7abe
000003d0: f7ea 283e 43d2 b5be 352d a1bb 3d45 ccbe
000003e0: 4bf3 5bbe 31e4 99bd c1e6 8dbd 906a 1a3e
000003f0: 681f 933e c6e5 a1be 5548 19bf c43e 69bd

bias f4 [32]
-0.18587238 -0.7381891 0.20150505 -0.3950247 -0.08432898 -0.031281438 -0.7226911 -0.34266207
-0.06126513 -0.054181434 -0.2860945 -0.070416555 -0.07126687 0.036229298 -0.15121935 -0.10208968
-0.10654522 -0.87026626 0.013234995 -0.01093607 0.014209145 -0.18327457 0.03699304 -0.2012713
-0.12919736 -0.14148758 -0.13549349 0.085558884 -0.008817187 -0.16845773 0.005391234 -0.5574183
00000000: 5455 3ebe f6f9 3cbf 5757 4e3e ad40 cabe
00000010: acb4 acbd f720 00bd 4902 39bf 6771 afbe
00000020: 25f1 7abd 5aed 5dbd fa7a 92be 8e36 90bd
00000030: 5df4 91bd 2c65 143d 3fd9 1abe 6514 d1bd
00000040: 6134 dabd c5c9 5ebf 98d7 583c 342d 33bc
00000050: 79cd 683c 54ac 3bbe 0486 173d 101a 4ebe
00000060: 504c 04be 1fe2 10be cebe 0abe 7f39 af3d
00000070: f675 10bc 2f80 2cbe f3a8 b03b f7b2 0ebf

weight f4 [64, 32, 5, 5]
0.054159306 -0.016222417 -0.029697917 -0.02343668 -0.047244374 0.10513965 0.0042281374 -0.013901466
-0.051250257 -0.0030515871 0.08732009 -0.015289553 -0.05693493 -0.100996956 -0.045282114 0.036309425
-0.05127151 -0.049665764 -0.068401635 -0.06769543 0.027437441 -0.028997725 -0.026287258 -0.07154396
-0.05261508 -0.001842779 0.024676552 -0.037074886 0.033275083 0.033814568 0.0052133603 -0.019553844
0.025737898 -0.010420829 -0.014477422 -0.041715372 -0.03571409 -0.0052555343 -0.014154992 -0.032090332
-0.04995487 -0.015614792 -0.021194166 -0.022485374 0.030132312 0.01909631 -0.052277002 -0.038186498
-0.034513634 -0.04714158 -0.057398695 0.03908033 0.03396167 0.041919485 0.072177015 -0.07686667
-0.015636105 0.016896037 0.0045399754 0.067596376 -0.020503031 -0.007431823 -0.033905327 0.026716024
-0.02932028 0.0023322364 0.0071729976 0.008678933 0.004908213 0.034788523 0.044235304 0.03277703
0.032922823 3.245313e-05 -0.0087721795 -0.010883668 -0.01862027 -0.0114279725 -0.0018198293 -0.029447978
-0.0013569936 -0.027919304 0.021703716 -0.0130492225 -0.06984597 -0.054200247 -0.061550718 -0.053676747
-0.04638492 -0.072954334 -0.08984669 -0.07005918 -0.04377234 -0.10517628 -0.07152203 -0.078383334
-0.06577828 -0.0645135 -0.0310283 -0.11576753 -0.10000073 -0.0027766572 0.031682473 0.077123076
0.10464699 -0.098343275 -0.0038044099 -0.034310497 0.011938033 0.009587072 -0.066004366 -0.03896655
-0.026112728 -0.00033401445 0.0003867192 -0.06866528 -0.0070097977 -0.007983777 0.0055653146 -0.00046476236
-0.0012526516 -0.004887466 0.050805155 0.022917645 0.045817554 -0.10219815 -0.057772398 -0.043431282
-0.041887153 0.023120765 0.046576634 -0.024351614 -0.024977593 0.0031191257 0.073146224 0.06554557
0.07238662 0.051276192 0.01730438 0.022987416 0.07173275 0.0774164 0.025303964 0.0396225
-0.0032100468 0.14245354 0.0964944 0.104264215 0.03533457 -0.009627036 0.06248799 0.0004630833
-0.00785965 -0.036625583 -0.055013135 0.042764038 -0.00440961 0.0059146225 0.0037172234 0.009061088
-0.00103266 -0.036834665 -0.001032041 -0.024765557 -0.04179227 -0.029274076 -0.027320588 -0.0432435
-0.058841888 -0.07366405 0.0020946774 -0.059014626 -0.07232028 -0.045972466 -0.06829167 -0.09280308
-0.046252113 -0.004607487 0.04073047 0.03060419 -0.04408686 -0.06393493 -0.010380295 0.0147779845
0.037672333 -0.004678846 -0.020908432 0.01840638 0.02971313 0.00106445 -0.0053981 0.016986167
0.00859024 -0.0067606736 0.032006115 -0.0075951773 0.030112278 0.088110276 0.06598646 0.036325525
0.019028343 -0.014915825 0.0001975849 0.002252461 -0.049846817 0.010342377 -0.049607795 0.0115224775
-0.03394785 0.009806402 -0.0120496135 -0.06580193 -0.022622949 -0.028967446 0.0054578744 -0.009318905
-0.08397646 -0.023700025 -0.04821169 -0.050717764 0.0028231742 -0.018403498 -0.08087274 -0.03896612
-0.00068156637 0.027384462 0.023688326 -0.037231624 -0.046526548 0.010833864 0.044463616 0.04510053
-0.026914636 -0.037901573 -0.022387315 0.019605983 0.035965286 0.02377562 -0.006895145 -0.0381717
0.06559687 -0.015382662 0.030963317 -0.049625892 -0.06563245 0.01941292 0.04756313 0.021427782
0.016060429 -0.039884564 0.04598168 0.02871259 0.0077252504 -0.006648574 -0.017931059 0.021363668
00000000: 26d6 5d3d e0e4 84bc 0c49 f3bc 48fe bfbc
00000010: 5183 41bd 7553 d73d 308c 8a3b f9c2 63bc
00000020: caeb 51bd 23fd 47bb e0d4 b23d 0981 7abc
00000030: 9a34 69bd 7ed7 cebd bd79 39bd 31b9 143d
00000040: 1302 52bd 546e 4bbd 2816 8cbd e7a3 8abd
00000050: 7cc4 e03c a38c edbc 6058 d7bc a485 92bd
00000060: e982 57bd 6789 f1ba 7b26 ca3c d6db 17bd
00000070: 744b 083d 2581 0a3d d6d4 aa3b 622f a0bc
00000080: 49d8 d23c 20bc 2abc b632 6dbc bddd 2abd
00000090: f048 12bd 9e36 acbb 57ea 67bc 2771 03bd
000000a0: 7a9d 4cbd 2fd5 7fbc 639f adbc 3f33 b8bc
000000b0: 0ad8 f63c dd6f 9c3c 6920 56bd 7269 1cbd
000000c0: 2b5e 0dbd 8817 41bd e51a 6bbd b212 203d
000000d0: 641b 0b3d c4b3 2b3d 8bd1 933d 466c 9dbd
000000e0: 4a17 80bc 8f69 8a3c 13c4 943b f86f 8a3d
000000f0: f9f5 a7bc a686 f3bb 50e0 0abd 90db da3c
00000100: 1531 f0bc 6fd8 183b 770b eb3b 1532 0e3c
00000110: 13d5 a03b 697e 0e3d 1430 353d 3541 063d
00000120: 15da 063d 481e 0838 30b9 0fbc 6a51 32bc
00000130: 8989 98bc 643c 3bbc 5787 eeba e33c f1bc
00000140: 26dd b1ba 06b7 e4bc fecb b13c 68cc 55bc
00000150: 670b 8fbd 1401 5ebd 9b1c 7cbd 26dc 5bbd
00000160: 1dfe 3dbd 1569 95bd 8b01 b8bd 307b 8fbd
00000170: a04a 33bd a966 d7bd 247a 92bd 7187 a0bd
00000180: c3b6 86bd a71f 84bd 102f febc 8717 edbd
00000190: 2fcd ccbd 94f8 35bb 7bc5 013d b4f2 9d3d
000001a0: 2951 d63d 3368 c9bd 6853 79bb 2a89 0cbd
000001b0: bd97 433c 1813 1d3c 4c2d 87bd 649b 1fbd
000001c0: 5cea d5bc a91e afb9 93c0 ca39 62a0 8cbd
000001d0: 72b2 e5bb 63ce 02bc 3e5d b63b 59ab f3b9
000001e0: 0330 a4ba 0927 a0bb 1119 503d c9bd bb3c
000001f0: 30ab 3b3d 434d d1bd c0a2 6cbd 00e5 31bd
00000200: dd91 2bbd c267 bd3c 24c7 3e3d 097d c7bc
00000210: cf9d ccbc 3f6a 4c3b b0cd 953d c13c 863d
00000220: 703f 943d fc06 523d eac1 8d3c 1b50 bc3c
00000230: 9fe8 923d 7d8c 9e3d 424a cf3c 344b 223d
00000240: a65f 52bb 57df 113e db9e c53d 7a88 d53d
00000250: fbba 103d b7ba 1dbc 68f3 7f3d fdc9 f239
00000260: c3c5 00bc b504 16bd 7455 61bd 5829 2f3d
00000270: 7d7e 90bb 73cf c13b a99c 733b f574 143c
00000280: 525a 87ba f2df 16bd 8d45 87ba 23e1 cabc
00000290: 5f2e 2bbd 30d0 efbc 6dcf dfbc 1920 31bd
000002a0: 3104 71bd 2ddd 96bd db46 093b 52b9 71bd
000002b0: a81c 94bd a04d 3cbd 81dc 8bbd 8b0f bebd
000002c0: db72 3dbd 67fa 96bb fed4 263d a3b5 fa3c
000002d0: 6c94 34bd 51f0 82bd 1d12 2abc 5c1f 723c
000002e0: 4e4e 1a3d 0151 99bb 2948 abbc fac8 963c
000002f0: f368 f33c 0485 8b3a 8be2 b0bb 9326 8b3c
00000300: 14be 0c3c a488 ddbb d818 033d f7e0 f8bb
00000310: 06ae f63c 2973 b43d e923 873d 13ca 143d
00000320: 54e1 9b3c 8161 74bc cb2e 4f39 069e 133b
00000330: 2d2c 4cbd 1373 293c 8b31 4bbd c6c8 3c3c
00000340: e70c 0bbd 08ab 203c be6b 45bc 2ac3 86bd
00000350: c353 b9bc 234d edbc f8d7 b23b 52ae 18bc
00000360: dafb abbd 8e26 c2bc 9f79 45bd 6ebd 4fbd
00000370: 0105 393b efc2 96bc 9ba0 a5bd f09a 1fbd
00000380: 25ab 32ba 6155 e03c 050e c23c 3080 18bd
00000390: 9f92 3ebd 8580 313c 7b1f 363d 55bb 383d
000003a0: 157c dcbc ae3e 1bbd 9a65 b7bc ba9c a03c
000003b0: 5650 133d 17c5 c23c abf0 e1bb ee59 1cbd
000003c0: a757 863d 9007 7cbc c8a6 fd3c 8544 4bbd
000003d0: 4e6a 86bd d807 9f3c 8ed1 423d 5189 af3c
000003e0: 2991 833c ff5d 23bd 4957 3c3d aa36 eb3c
000003f0: 1924 fd3b 48dc d9bb 28e4 92bc dc02 af3c

bias f4 [64]
-0.006005018 0.017495591 0.03576464 0.02251725 -0.025013046 -0.006553006 -0.015373268 -0.034790702
-0.012022994 0.018105669 -0.054767463 -0.007087628 -0.016685827 0.0049871593 -0.046029318 0.023684278
0.017871078 -0.006891223 -0.019557334 0.012928774 -0.010554714 -0.03337865 0.02834969 -0.05012139
-0.015944969 -0.03576821 -0.034469225 0.019482544 0.002038184 0.04933781 -0.01118624 -0.0016098663
0.009571241 0.0400479 -0.04137854 0.04023754 0.015011652 0.024917081 -0.04598845 0.02996964
0.0120446645 0.021866579 -0.041669235 -0.009088637 0.0030119945 0.017899204 0.016236397 -0.03793888
-0.02959968 0.030020922 0.0176765 -0.025927389 -0.04252007 -0.013711603 -0.0028018507 -0.022471828
-0.027017051 -0.027847145 0.0017338964 -0.05677406 -0.0018413089 0.04166889 -0.03446859 -0.011244306
00000000: bec5 c4bb ea52 8f3c f17d 123d 1976 b83c
00000010: 29e8 ccbc 99ba d6bb 29e0 7bbc b280 0ebd
00000020: 18fc 44bc 5752 943c d953 60bd 553f e8bb
00000030: b7b0 88bc 536b a33b 3d89 3cbd 8805 c23c
00000040: 5e66 923c c5cf e1bb b436 a0bc 35d3 533c
00000050: aeed 2cbc 0db8 08bd 9c3d e83c 164c 4dbd
00000060: 069f 82bc b081 12bd 9a2f 0dbd db99 9f3c
00000070: 0e93 053b 7216 4a3d 7e46 37bc 2602 d3ba
00000080: b2d0 1c3c 4409 243d 8b7c 29bd 1ed0 243d
00000090: 6ff3 753c e81e cc3c 635e 3cbd e482 f53c
000000a0: fc56 453c 8a21 b33c 5cad 2abd 82e8 14bc
000000b0: e264 453b 5aa1 923c 3102 853c cd65 1bbd
000000c0: 077b f2bc 70ee f53c 4fce 903c ad65 d4bc
000000d0: 8629 2ebd a2a6 60bc 419f 37bb d716 b8bc
000000e0: dd52 ddbc b21f e4bc e943 e33a eb8b 68bd
000000f0: 1358 f1ba ffac 2a3d f02e 0dbd 0a3a 38bc

weight f4 [512, 64]
0.086565204 -0.2430044 -0.06785514 -0.12549415 0.14874636 0.062326495 0.07227085 0.122702606
-0.17312464 -0.07105876 -0.0032119723 -0.0033532465 0.100279436 0.018642094 -0.08577747 0.09377397
0.1167172 0.18665433 0.0501047 -0.010832091 -0.22026509 0.00039959687 0.10502642 0.13718402
0.0032773002 0.050373692 0.05961049 0.07456852 0.021043777 -0.089687265 -0.23781762 0.15826994
-0.17326707 0.048676778 0.11857754 -0.16010725 0.021211931 0.057512283 -0.113808416 -0.04929144
0.11483563 0.038356464 0.14810976 0.036206428 -0.0827394 0.093968384 0.084381096 0.17565404
-0.20794207 0.1578521 -0.078774095 0.029713312 0.08294237 -0.008785357 -0.043683536 -0.18340053
0.04480807 0.012677884 0.14052638 -0.123723224 -0.123683006 0.13116457 -0.014802102 -0.04810148
0.15369752 0.016417028 0.11708236 0.09587707 0.003985625 0.059529968 -0.03623525 -0.02490663
0.08341127 -0.012080958 -0.068959005 -0.11262626 -0.07281644 -0.15455772 -0.117717616 0.06521583
-0.10566498 0.06599667 0.060872678 0.05095526 0.05671845 -0.0005191805 0.14006762 -0.17815186
-0.00760947 0.16816409 0.11336238 -0.121356934 -0.20742163 0.08277716 -0.110769935 -0.15722498
0.012027415 0.040655527 0.10322629 -0.15596148 0.08072226 -0.01711571 0.0015917688 0.019327613
0.092067584 0.014607888 0.04750722 -0.111300044 0.04548686 0.0945628 0.095933944 -0.07671639
0.073606044 0.010308437 0.008141159 0.06888465 -0.08075032 0.11243363 -0.089646675 0.060617
0.044551995 -0.05011927 -0.13117182 0.024039015 -0.13184135 -0.15170833 -0.102978 0.08225721
0.0016809271 -0.032370057 0.036370154 -0.049398918 0.002169177 0.04927173 0.1400303 0.07853645
0.0014304795 0.089565545 -0.09042863 -0.020188741 0.0297944 -0.12798615 0.0013363607 0.046737455
-0.038387094 0.11528483 -0.14591329 0.05566292 0.085905574 -0.08521195 -0.11798926 -0.06599705
-0.010866101 0.036292396 -0.008967481 -0.071982384 -0.055644404 -0.1277366 -0.05762716 0.12669595
-0.05617828 -0.01514576 -0.15425077 0.11237496 -0.0435017 -0.06335076 -0.054850157 0.009384846
-0.017909253 0.09656785 -0.034038927 -0.08238586 -0.0650013 0.0035696004 0.13329037 0.11060863
0.020670488 -0.09560412 0.13140301 0.06653389 0.08319513 0.011915698 -0.059505995 -0.023537701
0.015302236 0.15992782 0.014680586 0.08930067 -0.016225064 0.011640025 -0.020735497 -0.088786155
0.11809361 -0.0242543 -0.04697134 -0.0993063 0.03445547 -0.047974017 0.036511753 -0.030962763
0.14468731 -0.14883398 0.08024278 0.071272075 0.1454255 -0.13422945 0.09384126 0.040081594
0.066912055 0.15833092 0.14039592 0.040488914 -0.047872275 -0.057009358 -0.045576014 -0.017038852
-0.10115474 0.038476866 -0.08711032 -0.066140145 -0.019369088 -0.107542075 0.10901699 -0.018699648
-0.028880203 -0.12806664 0.042142842 -0.0020673873 -0.037637163 -0.13359366 -0.080786 0.1183801
-0.027424153 -0.120402955 -0.07273931 0.13530232 0.02366627 0.004949891 -0.07257862 -0.15499021
0.104918614 0.123403616 -0.15462773 0.069691986 0.14483933 0.016322326 0.08769244 0.12590007
-0.08819722 0.090028554 0.044251706 -0.08069396 0.0987348 -0.10271682 0.0121623315 0.11254637
00000000: 1949 b13d 25d6 78be a3f7 8abd 8a81 00be
00000010: f750 183e 114a 7f3d bd02 943d 814b fb3d
00000020: 9647 31be 4187 91bd f47f 52bb 24c2 5bbb
00000030: 4e5f cd3d 4eb7 983c 19ac afbd 910c c03d
00000040: 6d09 ef3d 5022 3f3e 963a 4d3d 1579 31bc
00000050: 2c8d 61be fc80 d139 1718 d73d f879 0c3e
00000060: f9c7 563b a554 4e3d 212a 743d 61b7 983d
00000070: 0064 ac3c f5ad b7bd 7686 73be 8411 223e
00000080: ec6c 31be 4d61 473d c8d8 f23d 28f3 23be
00000090: a5c4 ad3c 0092 6b3d 6314 e9bd d2e5 49bd
000000a0: f12e eb3d ab1b 1d3d 16aa 173e 314d 143d
000000b0: 4673 a9bd 7f72 c03d ffcf ac3d a7de 333e
000000c0: c4ee 54be fba3 213e 5054 a1bd 5569 f33c
000000d0: b0dd a93d 75f0 0fbc 82ed 32bd 59cd 3bbe
000000e0: ab88 373d e6b6 4f3c 26e6 0f3e 9a62 fdbd
000000f0: 844d fdbd 0150 063e 8484 72bc 0f06 45bd
00000100: e262 1d3e 017d 863c e0c8 ef3d 335b c43d
00000110: d999 823b b2d5 733d 6a6b 14bd fd08 ccbc
00000120: 87d3 aa3d 36ef 45bc 613a 8dbd 99a8 e6bd
00000130: c920 95bd 6144 1ebe ef15 f1bd e18f 853d
00000140: e266 d8bd 4329 873d a155 793d 76b6 503d
00000150: 9b51 683d 9d19 08ba e36d 0f3e 716d 36be
00000160: dc58 f9bb 3533 2c3e 892a e83d fc89 f8bd
00000170: 5666 54be 1287 a93d 59db e2bd 96ff 20be
00000180: a30e 453c 6986 263d 4e68 d33d 5eb4 1fbe
00000190: b651 a53d 3f36 8cbc e6a2 d03a f154 9e3c
000001a0: ee8d bc3d ec55 6f3c ee96 423d 47f1 e3bd
000001b0: 6e50 3a3d 24aa c13d 0479 c43d 7c1d 9dbd
000001c0: c4be 963d b8e4 283c 7f62 053c 6513 8d3d
000001d0: 6c60 a5bd 9a43 e63d ad98 b7bd 8849 783d
000001e0: 277c 363d dd49 4dbd e851 06be 78ed c43c
000001f0: 6b01 07be 6e59 1bbe 21e6 d2bd 7876 a83d
00000200: 8e52 dc3a 7796 04bd dff8 143d 8556 4abd
00000210: c028 0e3b 27d1 493d 1a64 0f3e b8d7 a03d
00000220: ed7e bb3a 246e b73d a532 b9bd dc62 a5bc
00000230: 6313 f43c cd0e 03be d328 af3a c66f 3f3d
00000240: c93b 1dbd 741a ec3d 4b6a 15be cdfe 633d
00000250: 43ef af3d 9a83 aebd 5aa4 f1bd 7629 87bd
00000260: bb07 32bc 56a7 143d 57ec 12bc 806b 93bd
00000270: 63eb 63bd 62cd 02be 750a 6cbd 95bc 013e
00000280: 321b 66bd ec25 78bc eaf3 1dbe d824 e63d
00000290: d72e 32bd 0bbe 81bd 8faa 60bd e6c2 193c
000002a0: 6db6 92bc 5dc5 c53d 676c 0bbd ebb9 a8bd
000002b0: 671f 85bd f5ef 693b 457d 083e c786 e23d
000002c0: 2855 a93c 18cc c3bd 838e 063e ec42 883d
000002d0: 3562 aa3d 0f3a 433c 8fbc 73bd 23d2 c0bc
000002e0: 3bb6 7a3c 1ec4 233e d786 703c 45e3 b63d
000002f0: 6dea 84bc ceb5 3e3c 7ddd a9bc 84d5 b5bd
00000300: 10db f13d f4b0 c6bc 0565 40bd 1a61 cbbd
00000310: 2e21 0d3d 6780 44bd 598d 153d 9fa5 fdbc
00000320: e928 143e ef67 18be 5456 a43d 18f7 913d
00000330: 6cea 143e 7273 09be d92f c03d 992c 243d
00000340: 3009 893d 8021 223e f3c3 0f3e b4d7 253d
00000350: b815 44bd a582 69bd eaad 3abd 1095 8bbc
00000360: 372a cfbd eb99 1d3d e566 b2bd 7c74 87bd
00000370: ecab 9ebc 053f dcbd 4d44 df3d 0130 99bc
00000380: 2d96 ecbc e723 03be f99d 2c3d 017d 07bb
00000390: 6d29 1abd c7cc 08be 2173 a5bd 4471 f23d
000003a0: 9ea8 e0bc d395 f6bd 59f8 94bd b18c 0a3e
000003b0: c4df c13c b232 a23b 19a4 94bd c1b5 1ebe
000003c0: 92df d63d 09bb fc3d bb56 1ebe acba 8e3d
000003d0: c350 143e 66b6 853c 1898 b33d f3eb 003e
000003e0: bea0 b4bd e460 b83d 4741 353d e042 a5bd
000003f0: 7935 ca3d 325d d2bd 8444 473c b67e e63d

bias f4 [512]
0.0966446 -0.12618378 -0.0896932 -0.068068594 0.05643069 -0.09228905 -0.09030094 0.04550965
-0.08400327 -0.093675494 0.11642629 0.095993005 -0.0771605 0.046003006 0.029878248 0.061725155
0.08620225 0.12712589 0.029972568 0.024919711 -0.01890537 0.02632528 -0.056765676 0.12719515
0.13192081 -0.010430994 0.023243148 -0.09228552 -0.09584068 -0.08367723 -0.018453449 0.071292914
-0.0064139296 -0.10907927 0.027685963 0.09127609 -0.10495815 -0.110482916 -0.054457773 0.02326303
0.04331429 -0.0687086 0.029071799 -0.01566333 -0.014526593 0.11797702 0.05262212 -0.01840909
0.022237943 -0.05500479 0.08930405 -0.0033685635 0.086654775 -0.057826098 0.07150481 0.046800457
0.07261326 0.0024228902 -0.048059437 0.052873876 0.107180886 -0.029063597 -0.034203168 0.0072964975
0.077918425 0.027779229 -0.028136924 0.048192192 -0.02635806 -0.036207866 0.11371654 -0.08621112
-0.10555588 -0.002314669 -0.09473555 0.0016668149 0.077738315 -0.008326309 0.023134187 0.118312486
-0.07774846 0.071158394 0.090053625 0.038024034 0.080489546 -0.083783895 0.020058138 -0.015243357
-0.06877484 0.035658255 -0.122279696 0.1093971 -0.11922943 0.14103644 0.040228784 0.09445269
-0.056759425 -0.08261044 0.022730807 -0.07318402 -0.09110908 -0.11104868 0.08252315 0.001831587
0.09203682 0.092938945 0.040333074 0.04693599 -0.055674285 0.037373755 -0.006450428 -0.12015752
0.01967912 -0.12876335 -0.12561785 -0.06857202 -0.049942046 -0.10321576 0.04858423 -0.09571298
0.02107764 -0.08115343 0.047200054 0.08082875 0.028927324 -0.11420175 0.07111623 0.0623302
-0.09951359 0.04693348 -0.10683924 -0.09234322 -0.010490069 -0.063401885 -0.043447275 0.076498844
-0.037898332 0.027721053 -0.09814438 0.012092603 0.043150805 -0.119924106 -0.04964503 -0.01610038
-0.09984936 -0.04859886 0.1076513 0.12336383 0.12452749 0.120493256 0.14582735 -0.08893897
0.061489422 -0.10368852 0.09032764 -0.013923621 0.11401121 -0.008096552 -0.011796614 0.076812685
0.11766813 0.04150711 0.020675203 0.0831452 -0.08483619 -0.0020161401 0.016072063 -0.07438888
0.046691008 0.017816743 -0.038815796 0.009769964 -0.10045241 0.097482026 -0.029175745 0.100382306
-0.09731679 0.02716593 -0.059384383 -0.12190846 0.09489383 0.025531184 -0.048345633 0.074716695
-0.090575874 0.11023038 -0.0792176 -0.013701023 0.05008196 -0.114461906 0.08895415 0.020277701
-0.04169644 0.061072767 -0.08188918 -0.018572234 -0.071651496 -0.01859147 -0.04561527 -0.034935605
0.04421271 0.039999235 -0.080342524 -0.0077062696 0.10443355 -0.055357594 0.04161186 -0.08847032
0.09268121 0.030997626 -0.0424994 0.07362741 0.012998729 0.038150683 -0.050668355 -0.02463893
-0.065286025 0.10444904 0.09522097 -0.056619518 -0.0013291145 0.04757185 0.0445893 -0.06817073
0.00700131 0.06546576 -0.12375438 -0.024843693 0.049400274 0.105326384 -0.024157988 -0.072983064
0.03176666 0.024981663 0.13200618 0.10287063 -0.021496028 -0.015899789 0.018601801 -0.12340472
0.09588893 0.06950885 0.074744724 -0.08218853 0.012713039 0.094772615 0.08418371 -0.052186403
-0.023791911 -0.08185293 0.017250821 -0.11990605 0.08570621 -0.03138125 0.069287226 -0.032160338
00000000: 9bed c53d 5236 01be 12b1 b7bd 8c67 8bbd
00000010: de23 673d 0b02 bdbd b3ef b8bd 5468 3a3d
00000020: e809 acbd f0d8 bfbd e870 ee3d fb97 c43d
00000030: 5306 9ebd a66d 3c3d 3ac3 f43c 84d3 7c3d
00000040: ce8a b03d 4a2d 023e 0889 f53c 6c24 cc3c
00000050: 6fdf 9abc 1da8 d73c 2083 68bd 723f 023e
00000060: 4016 073e c3e6 2abc 6a68 be3c 3100 bdbd
00000070: 1e48 c4bd f85e abbd b02b 97bc 0502 923d
00000080: f12b d2bb f464 dfbd accd e23c f5ee ba3d
00000090: 4cf4 d6bd de44 e2bd 1d0f 5fbd 1c92 be3c
000000a0: 536a 313d 18b7 8cbd fb27 ee3c 6250 80bc
000000b0: f200 6ebc f09d f13d 4b8a 573d a9ce 96bc
000000c0: 592c b63c b44c 61bd 0be5 b63d 1ec3 5cbb
000000d0: 0f78 b13d 0fdb 6cbd 1d71 923d d6b1 3f3d
000000e0: 43b6 943d 5ac9 1e3b f9d9 44bd 4792 583d
000000f0: a781 db3d c816 eebc 9f18 0cbd 7517 ef3b
00000100: b293 9f3d 4491 e33c 687f e6bc 2d65 453d
00000110: dcec d7bc b34e 14bd 38e4 e83d 758f b0bd
00000120: ae2d d8bd b4b1 17bb b604 c2bd 0779 da3a
00000130: 4435 9f3d 126b 08bc e883 bd3c d14d f23d
00000140: 963a 9fbd 7ebb 913d 096e b83d 17bf 1b3d
00000150: b4d7 a43d e496 abbd f750 a43c 46bf 79bc
00000160: d3d9 8cbd 640e 123d c76d fabd 960b e03d
00000170: 8f2e f4bd db6b 103e f0c6 243d 6970 c13d
00000180: 927c 68bd aa2f a9bd f535 ba3c 81e1 95bd
00000190: 6697 babd 7e6d e3bd e601 a93d dd11 f03a
000001a0: cd7d bc3d c656 be3d 4b34 253d f43f 403d
000001b0: b80a 64bd 3915 193d 1d5e d3bb 2515 f6bd
000001c0: 1b36 a13c 8ada 03be f7a1 00be 7d6f 8cbd
000001d0: 0890 4cbd c962 d3bd 4200 473d 2b05 c4bd
000001e0: 04ab ac3c c533 a6bd d854 413d 8b89 a53d
000001f0: fff8 ec3c 9be2 e9bd 63a5 913d f44d 7f3d
00000200: c8cd cbbd 523d 403d 88ce dabd 711e bdbd
00000210: 8ade 2bbc d9d8 81bd c5f5 31bd 6dab 9c3d
00000220: 483b 1bbd 4317 e33c ecff c8bd 0e20 463c
00000230: e6be 303d c59a f5bd 9658 4bbd f2e4 83bc
00000240: d27d ccbd 990f 47bd 4978 dc3d 2da6 fc3d
00000250: 4508 ff3d 2bc5 f63d c453 153e a225 b6bd
00000260: 55dc 7b3d a65a d4bd b3fd b83d e61f 64bc
00000270: b67e e93d 67a7 04bc 9646 41bc f84f 9d3d
00000280: fdfb f03d 5c03 2a3d 0b5f a93c 0848 aa3d
00000290: 99be adbd 3821 04bb 8fa9 833c 3259 98bd
000002a0: 123f 3f3d 6bf4 913c 50fd 1ebd 3312 203c
000002b0: feb9 cdbd a8a4 c73d f901 efbc 3d95 cd3d
000002c0: 064e c7bd 168b de3c 0a3d 73bd 25ab f9bd
000002d0: b257 c23d c626 d13c 1206 46bd 1105 993d
000002e0: d87f b9bd 77c0 e13d d63c a2bd 417a 60bc
000002f0: be22 4d3d 016b eabd 982d b63d 6c1d a63c
00000300: e3c9 2abd 7027 7a3d 84b5 a7bd cc24 98bc
00000310: 05be 92bd 234d 98bc 14d7 3abd a318 0fbd
00000320: 6318 353d 3dd6 233d 9f8a a4bd e084 fcbb
00000330: 42e1 d53d a5be 62bd 3371 2a3d ed2f b5bd
00000340: a5cf bd3d bcee fd3c da13 2ebd f8c9 963d
00000350: 9ff8 543c e443 1c3d 9f89 4fbd 95d7 c9bc
00000360: aeb4 85bd 61e9 d53d 3603 c33d dee9 67bd
00000370: af35 aeba b3da 423d 45a3 363d 189d 8bbd
00000380: 3f6b e53b ea12 863d f072 fdbd 0085 cbbc
00000390: f157 4a3d 5cb5 d73d f9e6 c5bc 2578 95bd
000003a0: c21d 023d 58a6 cc3c a12c 073e d6ad d23d
000003b0: 7018 b0bc 4640 82bc ce62 983c 9dbb fcbd
000003c0: 6a61 c43d a85a 8e3d c313 993d 7652 a8bd
000003d0: 5a4a 503c 2518 c23d 8268 ac3d 69c1 55bd
000003e0: 41e7 c2bc 82a2 a7bd 9851 8d3c 4e91 f5bd
000003f0: bd86 af3d a089 00bd 76e6 8d3d 8fba 03bd

weight f4 [62, 512]
-0.26568875 0.0018935114 -0.042412873 0.2736629 0.24759015 0.052862525 0.010312013 -0.052041516
-0.13980456 -0.007863079 0.058982886 0.07097334 0.04905561 -0.036278218 -0.073141046 0.044441175
0.15548976 0.02079457 -0.10832863 0.015561938 -0.041571777 -0.16506799 -0.047663037 0.03413511
-0.05004008 0.16839693 -0.07056663 0.14843634 -0.010420442 -0.038380936 -0.11261246 0.1010798
-0.030453201 -0.024850234 0.23835373 -0.017289776 0.012138441 0.017117163 -0.09409387 -0.009888643
0.18101318 0.03160966 -0.14385603 -0.029003046 0.03225802 -0.15798198 0.15902047 -0.035896342
-0.033789486 -0.04230385 -0.14807676 -0.14226471 0.07012835 -0.06457237 0.0017799227 -0.110583834
0.05951451 -0.12950653 -0.08564907 0.2203139 -0.064601846 -0.05966113 -0.21109898 0.041351266
0.022675922 -0.012353049 0.00014609561 0.029115714 0.030060092 0.050540254 0.09566151 0.0034031407
-0.011540069 0.01137714 0.110799976 -0.00667604 -0.0019516937 -0.12481847 0.036180135 -0.10217461
0.12155195 -0.040602945 0.00013955036 0.0046320474 -0.15167576 0.06285399 -0.015606769 0.0547922
-0.009854253 -0.057082567 -0.012057349 -0.059819534 -0.008906025 0.02252165 0.2793974 -0.038003378
0.1706713 0.1059723 -0.090951644 0.2142939 -0.08031226 0.07544318 0.079659544 -0.39444655
0.1490688 -0.0033322715 -0.046715256 -0.008776796 -0.17707157 0.040416036 0.07712551 0.0032178531
0.120787166 -0.007131205 0.064670786 -0.13446645 -0.0040496434 -0.03679216 0.07588435 0.103799805
-0.042311247 -0.057046674 -0.16045786 -0.055321403 0.07881545 -0.12243208 -0.13638747 -0.12559393
0.07579094 0.036949538 0.033675898 0.0051829447 0.09492269 0.03392039 -0.07755231 -0.037020836
0.13066594 0.07024336 -0.2738683 -0.30206788 0.030092744 -0.10819239 -0.017685903 -0.05775167
-0.15894994 0.12954119 0.012667968 -0.10433096 0.029279461 0.07804292 -0.086720474 -0.095666476
0.088968255 0.058662456 -0.024659898 -0.0048901383 0.059287693 0.00887571 0.09944069 0.02741025
-0.026788138 -0.070528336 0.01909093 -0.076807536 0.15914482 0.042746462 -0.04174241 0.01279793
-0.0110234525 -0.23221277 0.11383307 -0.01749482 0.251671 -0.017410127 0.003114572 0.12266423
-0.031370007 0.1363975 -0.030279122 0.030967424 -0.031783935 -0.1982867 0.002320454 -0.14554442
0.006889814 -0.06858023 0.10003138 -0.0066767307 0.07353575 0.02595601 0.045714356 -0.24769828
-0.0023708295 -0.1524809 -0.12127108 0.005559884 -0.023536943 -0.04273776 0.02598426 -0.042136475
0.05463802 0.12093037 0.06519088 -0.017547455 0.1519392 0.12127519 0.023059646 0.05702505
-0.12130353 0.008335154 -0.14641595 -0.07501054 -0.0050718524 -0.011764314 -0.14298075 -0.047288954
-0.040243678 -0.18338141 0.2350885 0.010099805 -0.10185635 -0.12934346 0.01807603 -0.19551815
0.052197628 -0.12010519 0.10789805 0.01977921 -0.0032589394 0.18991888 0.006633907 0.21425366
0.08145568 -0.2575459 -0.11521955 0.07698518 -0.25777012 -0.029539883 -0.23950267 0.06679177
0.16497907 -0.15283109 0.0004917612 -0.1489487 -0.007941058 0.041396737 0.009284451 0.0019436198
-0.050436214 0.107263885 0.14054066 -0.015230101 0.15472211 -0.038093027 -0.03572326 -0.028257381
00000000: 5b08 88be b32f f83a 1fb9 2dbd 8b1d 8c3e
00000010: 4688 7d3e 6086 583d b8f3 283c 7c29 55bd
00000020: ed28 0fbe 25d4 00bc 0a98 713d 785a 913d
00000030: 89ee 483d 7898 14bd f9ca 95bd f307 363d
00000040: b538 1f3e 6059 aa3c 67db ddbd 80f7 7e3c
00000050: 2b47 2abd 9507 29be 513a 43bd 42d1 0b3d
00000060: d4f6 4cbd 3f70 2c3e 3d85 90bd b2ff 173e
00000070: 80ba 2abc 5435 1dbd 5da1 e6bd ed02 cf3d
00000080: fe78 f9bc b892 cbbc 0013 743e 4aa3 8dbc
00000090: 50e0 463c 4b39 8c3c 49b4 c0bd fa03 22bc
000000a0: 855b 393e 2179 013d ff4e 13be cc97 edbc
000000b0: fc20 043d 07c6 21be 43d6 223e 0b08 13bd
000000c0: d866 0abd cd46 2dbd 6fa1 17be d7ad 11be
000000d0: 749f 8f3d 853e 84bd 4c4c e93a c779 e2bd
000000e0: 7dc5 733d 5c9d 04be c868 afbd f899 613e
000000f0: f94d 84bd 3b5f 74bd 552a 58be f25f 293d
00000100: dbc2 b93c 7164 4abc 3e31 1939 1484 ee3c
00000110: 9540 f63c 4c03 4f3d 2fea c33d 3a07 5f3b
00000120: 8f12 3dbc 2f67 3a3c 19eb e23d afc2 dabb
00000130: f9cf ffba d3a0 ffbd 9f31 143d ec40 d1bd
00000140: 3bf0 f83d 464f 26bd 4454 1239 6ec8 973b
00000150: e450 1bbe 98b9 803d 89b3 7fbc c96d 603d
00000160: bc73 21bc 69cf 69bd 308c 45bc 5405 75bd
00000170: 94ea 11bc 537f b83c 2d0d 8f3e 6ea9 1bbd
00000180: 75c4 2e3e 0108 d93d db44 babd dc6f 5b3e
00000190: c17a a4bd f481 9a3d 8b24 a33d e6f4 c9be
000001a0: 7ea5 183e 3d62 5abb 7f58 3fbd 8dcc 0fbc
000001b0: 4052 35be 498b 253d fbf3 9d3d 9ee2 523b
000001c0: 435f f73d e2ac e9bb 1e72 843d 93b1 09be
000001d0: dfb2 84bb 60b3 16bd 4169 9b3d fe94 d43d
000001e0: 8f4e 2dbd c6a9 69bd 114f 24be b298 62bd
000001f0: ff69 a13d acbd fabd 28a9 0bbe b29b 00be
00000200: 4838 9b3d 6658 173d bdef 093d b1d5 a93b
00000210: d466 c23d 1bf0 0a3d bfd3 9ebd 29a3 17bd
00000220: 4bcd 053e c0db 8f3d 7738 8cbe a4a8 9abe
00000230: 0f85 f63c f993 ddbd 07e2 90bc 048d 6cbd
00000240: c6c3 22be 72a6 043e 4f8d 4f3c 78ab d5bd
00000250: 7bdb ef3c f7d4 9f3d 819a b1bd c9ec c3bd
00000260: fd34 b63d 0b48 703d 8e03 cabc 743d a0bb
00000270: a7d7 723d 6d6b 113c 8fa7 cb3d 768b e03c
00000280: cc72 dbbc 2971 90bd 9564 9c3c 454d 9dbd
00000290: dcf6 223e ea16 2f3d 17fa 2abd 69ae 513c
000002a0: b69b 34bc 2fc9 6dbe 5021 e93d 4c51 8fbc
000002b0: 05db 803e af9f 8ebc d91d 4c3b 6237 fb3d
000002c0: d67d 00bd c9ab 0b3e ec0b f8bc 65af fd3c
000002d0: df2f 02bd ab0b 4bbe c212 183b 9909 15be
000002e0: f3c3 e13b cb73 8cbd 41dd cc3d 7ac8 dabb
000002f0: e999 963d b3a1 d43c fa3e 3b3d 9ea4 7dbe
00000300: eb5f 1bbb f423 1cbe f95c f8bd b02f b63b
00000310: 8cd0 c0bc ca0d 2fbd f1dc d43c 4c97 2cbd
00000320: 1ecc 5f3d 58aa f73d cc82 853d aebf 8fbc
00000330: f395 1b3e 205f f83d 95e7 bc3c 1993 693d
00000340: fc6d f8bd 2b90 083c 10ee 15be 209f 99bd
00000350: c831 a6bb 1cbf 40bc 8c69 12be 10b2 41bd
00000360: 8ed6 24bd 56c8 3bbe 0abb 703e a779 253c
00000370: 109a d0bd 9d72 04be 2f14 943c e935 48be
00000380: 2ecd 553d b6f9 f5bd a7f9 dc3d 0308 a23c
00000390: ee93 55bb 187a 423e 3f61 d93b 5065 5b3e
000003a0: 3cd2 a63d 0edd 83be 3af8 ebbd 68aa 9d3d
000003b0: 72fa 83be a0fd f1bc 3040 75be 20ca 883d
000003c0: 46f0 283e c17f 1cbe 89e9 003a 0286 18be
000003d0: 361b 02bc a08f 293d cf1d 183c 0fc1 fe3a
000003e0: 3496 4ebd 2bad db3d e4e9 0f3e ac87 79bc
000003f0: 796f 1e3e 6f07 1cbd 8e52 12bd 067c e7bc

bias f4 [62]
-0.18928413 -0.018979402 -0.07372552 -0.039384276 -0.04861708 -0.044177428 -0.092652746 0.01073466
0.01849449 -0.041499235 -0.01829376 0.035658713 -0.040519707 -0.0503089 -0.06782676 0.031141054
-0.02784208 -0.0027513069 -0.08014524 -0.01913665 -0.006201593 -0.0034580815 -0.003188172 -0.031676445
0.42219034 0.0035485588 0.057262823 0.1355334 -0.004292973 -0.009647254 -0.035805754 0.090029925
-0.0616569 -0.017969994 -0.079795726 -0.012978825 0.1960688 0.070155434 -0.06421773 -0.06848622
-0.06498905 -0.009779433 -0.040593475 0.023508068 0.03490434 0.03961927 -0.022535447 -0.020457683
-0.062751435 -0.031340208 0.04186732 0.021743933 -0.07156162 0.02923848 0.0159569 -0.059069175
-0.011004813 0.04049788 -0.021818003 -0.040771928 0.11733022 0.050400957
00000000: b3d3 41be b17a 9bbc 68fd 96bd 6851 21bd
00000010: b422 47bd 64f3 34bd b9c0 bdbd 6de0 2f3c
00000020: c281 973c 1afb 29bd ccdc 95bc df0e 123d
00000030: fef7 25bd b510 4ebd c2e8 8abd 861b ff3c
00000040: 1315 e4bc 454f 34bb 3023 a4bd 77c4 9cbc
00000050: bc36 cbbb fba0 62bb a6f0 50bb 29bf 01bd
00000060: 5529 d83e f08e 683b 6c8c 6a3d 45c9 0a3e
00000070: 11ac 8cbb 840f 1ebc 0ea9 12bd 9c61 b83d
00000080: f28b 7cbd cf35 93bc f16b a3bd 23a5 54bc
00000090: 42c6 483e a7ad 8f3d 9684 83bd 8142 8cbd
000000a0: fb18 85bd ea39 20bc 5845 26bd fe93 c03c
000000b0: daf7 0e3d d147 223d 429c b8bc df96 a7bc
000000c0: d383 80bd 975e 00bd 117d 2b3d 5520 b23c
000000d0: e68e 92bd 8985 ef3c 0bb8 823c 85f2 71bd
000000e0: 884d 34bc 1be1 253d abbb b2bc 7700 27bd
000000f0: d44a f03d 3c71 4e3d
