system/models/EMNIST/CNN/FedPer_BaseHeadSplit_EMNIST_client_4.pt (torch, 476764 bytes, 8 tensors)

weight f4 [32, 1, 5, 5]
0.0010140291 -0.20688407 -0.5863454 -0.47641072 -0.247232 0.28347698 -0.18999319 -0.28227878
-0.45048824 -0.25820488 0.47461882 0.05105231 -0.49045962 -0.57109815 -0.4624139 0.684802
0.51890564 0.23195235 -0.280223 -0.3517658 0.5793198 0.75432736 0.52831584 0.51364535
0.06754296 -0.038025767 0.00570807 -0.19895075 -0.1674158 -0.19539562 -0.045591533 -2.9407362e-05
-0.22215414 -0.11904553 -0.18729794 -0.100210845 -0.19678429 -0.09799098 -0.11359831 -0.04436967
-0.056083314 -0.18408105 -0.11218438 -0.15437886 -0.068016194 -0.28629974 -0.091303594 -0.079972126
-0.06954669 0.04096385 0.064250246 0.26825452 0.08558496 -0.07130229 0.20552589 -0.083020985
0.0898441 -0.20671749 -0.31652838 -0.10166527 0.12160234 0.064535506 -0.16261812 0.03424066
0.20784794 -0.24340244 -0.3024061 -0.059205525 0.42724723 0.50344515 -0.5645295 -0.49400893
0.05228804 0.52259904 0.3569806 0.15970355 0.14357503 -0.27469882 -0.46605298 -0.62017083
-0.0959498 0.63827354 0.36417317 -0.5692591 -0.51638544 0.0729116 0.57586825 0.28510398
-0.29512003 -0.7388059 0.057583533 0.65662473 0.55812 -0.18223599 -0.6828964 -0.13768637
0.63249 0.594397 -0.11327844 -0.35146332 0.66750354 0.4311597 -0.23196156 -0.31189838
-0.18034747 0.17162625 -0.510335 -0.6891854 -0.24000724 0.27077356 -0.2659084 -0.30766767
-0.3049812 0.50543797 0.5885705 -0.3464935 -0.047157235 0.45171425 0.47510502 0.06965084
0.13037674 0.31126404 0.25656524 0.008232192 -0.66674566 -0.26932207 -0.4695876 -0.5831537
-0.45619002 -0.35728547 -0.2154401 -0.43019074 -0.55046725 -0.17334905 0.16044514 0.13161059
0.014746146 0.15978666 0.39814374 0.38510576 0.6644964 0.6927226 0.71699387 0.29567215
-0.09942832 0.14693382 0.3540859 -0.011642487 -0.26774698 -0.2328948 -0.35973206 -0.28993037
-0.16597688 -0.014563024 0.050293524 -0.2727075 -0.05166328 -0.2605915 -0.06280325 -0.016608013
-0.17822863 -0.15165891 -0.21945837 -0.16127588 -0.010997193 -0.11589069 -0.13838448 -0.10404793
-0.2880061 -0.04409999 0.008478034 -0.2097489 -0.14970845 -0.1425457 -0.2200507 0.35132098
0.26702198 0.24707559 0.3907415 -0.1282712 0.32120016 0.30004615 0.3925645 0.048285883
-0.12221968 0.3058546 0.05276003 -0.11021403 -0.37846133 -0.20427185 0.21406722 -0.036621444
-0.36741444 -0.19083935 -0.37066245 -0.25784257 -0.40348926 -0.18027924 -0.27805775 -0.16434386
0.20534481 0.0886931 -0.41828927 -0.42187977 -0.2898788 0.43195784 0.012324192 0.06402021
-0.15366492 -0.19484927 0.26882988 0.10737422 0.037871856 -0.21256958 -0.2257075 0.2591835
0.031077536 -0.02082413 0.07496174 -0.32874724 0.14552745 0.41690683 0.26792878 0.059616406
-0.25017217 0.12939626 -0.21857841 -0.19263841 -0.25441504 -0.2464684 0.11943085 0.4301822
0.40014833 0.58000076 0.4469805 -0.16442744 0.15480447 -0.020118086 0.10922183 0.4021655
-0.15147409 -0.10178879 -0.38415253 -0.2263129 0.17216639 -0.35310575 -0.0032605007 -0.38849607
-0.19229728 -0.060316686 -0.082178436 0.13303882 0.28728378 -0.29233482 -0.5858367 -0.07876094
00000000: 2ce9 843a 6bd9 53be bb1a 16bf 1bec f3be
00000010: 632a 7dbe e523 913e 938d 42be d886 90be
00000020: 65a6 e6be 6e33 84be 3d01 f33e 3a1c 513d
00000030: 861d fbbe 7d33 12bf 84c1 ecbe 2f4f 2f3f
00000040: 00d7 043f eb84 6d3e 6479 8fbe a61a b4be
00000050: 4d4e 143f 991b 413f b53f 073f 437e 033f
00000060: f753 8a3d e8c0 1bbd c30a bb3b bfb9 4bbe
00000070: 0c6f 2bbe ca15 48be 30be 3abd d4af f6b7
00000080: 607c 63be 25ce f3bd 08cb 3fbe 583b cdbd
00000090: d281 49be 7faf c8bd 3ba6 e8bd f9bc 35bd
000000a0: 9eb7 65bd be7f 3cbe edc0 e5bd 7e15 1ebe
000000b0: 134c 8bbd e195 92be 61fd babd 6dc8 a3bd
000000c0: 7f6e 8ebd b6c9 273d a295 833d a858 893e
000000d0: 2b47 af3d ef06 92bd 6175 523e e806 aabd
000000e0: 2f00 b83d c0ad 53be 0210 a2be e235 d0bd
000000f0: a60a f93d 312b 843d 5d85 26be ef3f 0c3d
00000100: 17d6 543e 7d3e 79be f9d4 9abe 7e81 72bd
00000110: 26c0 da3e c8e1 003f 0185 10bf bdee fcbe
00000120: fc2b 563d 0dc9 053f 29c6 b63e 5489 233e
00000130: 5505 133e 53a5 8cbe 7f9e eebe 84c3 1ebf
00000140: 5481 c4bd e565 233f e874 ba3e f7ba 11bf
00000150: d631 04bf ad52 953d 1a6c 133f 26f9 913e
00000160: f919 97be 6222 3dbf b6dc 6b3d 8f18 283f
00000170: f4e0 0e3f 129c 3abe 4cd2 2ebf a8fd 0cbe
00000180: ddea 213f 672a 183f 87fe e7bd 00f3 b3be
00000190: 83e1 2a3f f7c0 dc3e 5587 6dbe 25b1 9fbe
000001a0: 02ad 38be cbbe 2f3e 51a5 02bf 746e 30bf
000001b0: 75c4 75be d5a2 8a3e 2525 88be 9e86 9dbe
000001c0: 7f26 9cbe 6264 013f 8eac 163f 9967 b1be
000001d0: f227 41bd 1747 e73e f740 f33e 19a5 8e3d
000001e0: 7b81 053e 005e 9f3e 855c 833e 51e0 063c
000001f0: d8af 2abf 95e4 89be c96d f0be 9049 15bf
00000200: bd91 e9be 1fee b6be 549c 5cbe f641 dcbe
00000210: 6ceb 0cbf 6a82 31be bb4b 243e edc4 063e
00000220: d299 713c 1d9f 233e 7fd9 cb3e 952c c53e
00000230: 701c 2a3f 4556 313f e98c 373f 5762 973e
00000240: 13a1 cbbd d275 163e bf4a b53e 21c0 3ebc
00000250: 2216 89be f97b 6ebe cd2e b8be c171 94be
00000260: d8f5 29be c099 6ebc 9500 4e3d 51a0 8bbe
00000270: e09c 53bd 406c 85be fe9e 80bd 870d 88bc
00000280: 9181 36be 794c 1bbe b2b9 60be 8125 25be
00000290: 922d 34bc 1958 edbd a9b4 0dbe 1517 d5bd
000002a0: 8975 93be 31a2 34bd 74e7 0a3c 6ac8 56be
000002b0: 2c4d 19be 80f7 11be f854 61be 58e0 b33e
000002c0: 1bb7 883e 6201 7d3e 450f c83e 8759 03be
000002d0: 5974 a43e a69f 993e 37fe c83e 6bc7 453d
000002e0: 504e fabd f998 9c3e e71a 583d e5b7 e1bd
000002f0: afc5 c1be a42c 51be 7034 5b3e 5e00 16bd
00000300: bf1d bcbe 646b 43be 78c7 bdbe f103 84be
00000310: 2596 cebe 1f9b 38be 965d 8ebe c249 28be
00000320: e945 523e baa4 b53d 032a d6be a000 d8be
00000330: fe6a 94be 9429 dd3e 68eb 493c 071d 833d
00000340: 565a 1dbe 9186 47be 12a4 893e 04e7 db3d
00000350: 851f 1b3d d7ab 59be de1f 67be b3b3 843e
00000360: 5196 fe3c 5e97 aabc 8a85 993d 8f51 a8be
00000370: 2605 153e d074 d53e f62d 893e 5530 743d
00000380: 9116 80be 7480 043e 05d3 5fbe 0143 45be
00000390: b042 82be 3662 7cbe 2998 f43d d740 dc3e
000003a0: 3ee0 cc3e ee7a 143f a1da e43e ab5f 28be
000003b0: 1085 1e3e afce a4bc b2af df3d a3e8 cd3e
000003c0: 061c 1bbe a476 d0bd a4af c4be 92be 67be
000003d0: 634c 303e 47ca b4be 20ae 55bb f5e8 c6be
000003e0: 94e9 44be a10e 77bd 2b4d a8bd 543b 083e
000003f0: dc16 933e e9ac 95be 65f9 15bf 6a4d a1bd

bias f4 [32]
-0.17861798 -0.7157319 0.21665762 -0.36741477 -0.08998642 -0.0007314604 -0.6831953 -0.30210316
-0.051228084 -0.05161393 -0.26147923 -0.06898775 -0.048940986 0.028625472 -0.13988753 -0.01748078
-0.08162526 -0.833546 0.029445501 0.011715059 0.06639843 -0.2137959 0.064589426 -0.19536275
-0.10855044 -0.14123383 -0.11982593 0.07127948 -0.019861486 -0.13291354 0.024516266 -0.54321957
00000000: a2e7 36be 353a 37bf 7fdb 5d3e ca1d bcbe
00000010: cd4a b8bd 7abf 3fba e3e5 2ebf 44ad 9abe
00000020: 8ad4 51bd 2169 53bd 9be0 85be 7349 8dbd
00000030: 5876 48bd f77f ea3c ad3e 0fbe da33 8fbc
00000040: 252b a7bd 4563 55bf b137 f13c 85f0 3f3c
00000050: e6fb 873d 50ed 5abe 7647 843d 2c0d 48be
00000060: b14f debd 9a9f 10be 4c67 f5bd fafa 913d
00000070: 8eb4 a2bc 7d1a 08be 56d6 c83c 7010 0bbf

weight f4 [64, 32, 5, 5]
0.04210887 -0.009587087 -0.019435134 -0.014488154 -0.04389302 0.07910517 -0.007166111 -0.012012745
-0.033426013 0.0028374137 0.09409993 0.01465391 -0.019161005 -0.064529225 -0.021189645 0.038486317
-0.027314084 -0.022116546 -0.038715854 -0.03201842 0.012533579 -0.036148086 -0.022983484 -0.06275798
-0.037251502 0.0070809354 0.02684683 -0.035098113 0.042634938 0.047631867 0.012499487 -0.013079332
0.030773642 -0.0030696802 -0.0050249007 -0.027053619 -0.019129857 0.009212623 -0.0074830707 -0.025727857
-0.04701739 -0.011991375 -0.018312592 -0.025567068 0.02448766 0.029490214 -0.041264527 -0.036396988
-0.03909246 -0.04817715 -0.050044507 0.0429288 0.031601105 0.038260635 0.06455022 -0.07665713
-0.02694038 0.015536114 0.003373121 0.06936772 -0.021573026 -0.012683854 -0.027921163 0.03682133
-0.027986135 -0.005285414 0.018431572 0.027666677 0.0078574335 0.020972487 0.04222809 0.0440953
0.040665712 0.0015620359 -0.024114612 -0.022351393 -0.017428095 -0.009794685 -0.00019877279 -0.02465901
-0.007758851 -0.022680515 0.025694162 -0.012498584 -0.049934257 -0.041117415 -0.034900397 -0.03770263
-0.03332974 -0.049429383 -0.08608089 -0.05863334 -0.038115244 -0.08559875 -0.03640767 -0.08826844
-0.070030205 -0.054462682 -0.012949862 -0.087685965 -0.093948886 -0.0049763843 0.032806724 0.0694247
0.11692229 -0.09248578 -0.0067671114 -0.049641423 0.015301408 0.0134223085 -0.07315142 -0.05340321
-0.033475123 0.012716936 0.01351799 -0.08186105 -0.009831785 -0.004678766 0.007643072 0.00025897496
-0.012085265 -0.006938686 0.04485875 0.0054884995 0.025559783 -0.086836904 -0.046234217 -0.035074163
-0.03854034 0.038915347 0.0442741 -0.027013488 -0.0469165 -0.0012908453 0.066188306 0.04817329
0.05077342 0.030263383 0.017570399 0.038767822 0.07379402 0.0859654 0.05650743 0.08825247
0.044616904 0.13809177 0.09077378 0.1226974 0.046319675 -0.0044824267 0.07117998 0.00565877
-0.00055504823 -0.021357205 -0.038349528 0.05258828 0.007389894 0.01881605 0.017394362 0.02099611
0.019889541 -0.00929164 0.02445818 -0.011000203 -0.031887125 -0.024335392 -0.02184312 -0.03586171
-0.051224437 -0.0706326 0.015510449 -0.045531716 -0.057696972 -0.038931128 -0.06257465 -0.10097282
-0.048654873 -0.0086238505 0.03898004 0.030196795 -0.046351884 -0.06359823 -0.011250075 0.019039433
0.032691214 -0.010920418 -0.020473205 0.008301025 0.011546318 -0.023770384 0.008355006 0.023396168
-0.013170219 -0.03369262 0.009224216 0.013482446 0.019718088 0.0660859 0.054099094 0.046806533
0.0031088744 -0.019937363 -0.00040565312 0.0020336376 -0.05150274 0.0020176885 -0.04945989 0.011035529
-0.03196111 0.010666005 -0.007693042 -0.051812693 -0.009179724 -0.01810312 0.01147987 -0.013150768
-0.078614 -0.018463954 -0.038361702 -0.032062203 -0.005747191 -0.018385375 -0.07519069 -0.027668586
0.017009413 0.0250819 0.025930943 -0.031579565 -0.040800452 0.009359698 0.040103104 0.050886586
-0.013227731 -0.024888955 -0.018541291 0.015145474 0.037879936 0.03141812 -0.003424385 -0.04219925
0.08558602 0.0073748375 0.04593609 -0.04110707 -0.0522735 0.024952067 0.05899366 0.03328136
0.02576312 -0.02980314 0.040135473 0.025998576 0.010222162 -0.000105860585 -0.019754397 0.018449912
00000000: 5a7a 2c3d 2813 1dbc 6e36 9fbc b95f 6dbc
00000010: 2bc9 33bd e401 a23d b2d1 eabb 1bd1 44bc
00000020: b7e9 08bd e7f3 393b 77b7 c03d f416 703c
00000030: 8af7 9cbc e627 84bd e895 adbc d4a3 1d3d
00000040: c9c1 dfbc c22d b5bc 8494 1ebd bf25 03bd
00000050: a459 4d3c 0410 14bd dc47 bcbc 4187 80bd
00000060: 0895 18bd 3107 e83b e2ed db3c 0ac3 0fbd
00000070: f9a1 2e3d a219 433d a6ca 4c3c b24a 56bc
00000080: 0119 fc3c b02c 49bb eca7 a4bb 8d9f ddbc
00000090: 38b6 9cbc 8bf0 163c 8c34 f5bb 3ac3 d2bc
000000a0: 4f95 40bd 7977 44bc 4a04 96bc 0772 d1bc
000000b0: 589a c83c 7695 f13c fe04 29bd 0215 15bd
000000c0: 6a1f 20bd 6755 45bd 78fb 4cbd 1cd6 2f3d
000000d0: 2970 013d 2fb7 1c3d e832 843d 6afe 9cbd
000000e0: 12b2 dcbc 2f8b 7e3c 940f 5d3b aa10 8e3d
000000f0: eab9 b0bc f1cf 4fbc ecba e4bc f7d1 163d
00000100: 2e43 e5bc 4431 adbb cffd 963c 3aa5 e23c
00000110: 77bc 003c 7ece ab3c 5df7 2c3d 469d 343d
00000120: 1791 263d 3abd cc3a 028c c5bc 451a b7bc
00000130: 5dc5 8ebc e379 20bc aa6d 50b9 b101 cabc
00000140: f63d febb 7dcc b9bc 907c d23c dcc6 4cbc
00000150: dd87 4cbd bc6a 28bd b8f3 0ebd 136e 1abd
00000160: c484 08bd 7776 4abd 2d4b b0bd 8329 70bd
00000170: bb1e 1cbd 664e afbd 3520 15bd 15c6 b4bd
00000180: ff6b 8fbd 4314 5fbd a82b 54bc b394 b3bd
00000190: 4668 c0bd f010 a3bb 5860 063d 8a2e 8e3d
000001a0: f474 ef3d 2f69 bdbd a5be ddbb ce54 4bbd
000001b0: c2b2 7a3c 3ee9 5b3c 69d0 95bd 53bd 5abd
000001c0: 361d 09bd b25a 503c 8f7a 5d3c c4a6 a7bd
000001d0: 7f15 21bc 5550 99bb bc72 fa3b 08c7 8739
000001e0: 4601 46bc eb5d e3bb cfbd 373d dfd8 b33b
000001f0: c062 d13c 8cd7 b1bd 1760 3dbd eda9 0fbd
00000200: 7adc 1dbd b365 1f3d c258 353d 644b ddbc
00000210: 842b 40bd 9531 a9ba bc8d 873d 5b51 453d
00000220: caf7 4f3d eaea f73c ccef 8f3c 02cb 1e3d
00000230: 5221 973d a10e b03d 5674 673d b6bd b43d
00000240: 37c0 363d ee67 0d3e 9be7 b93d c648 fb3d
00000250: b3b9 3d3d 52e1 92bb cfc6 913d 346d b93b
00000260: a880 11ba 4ef5 aebc 6514 1dbd cf66 573d
00000270: ed26 f23b 1e24 9a3c 9f7e 8e3c 0900 ac3c
00000280: 64ef a23c f63b 18bc 855c c83c 323a 34bc
00000290: 139c 02bd 045b c7bc 58f0 b2bc bae3 12bd
000002a0: b7d0 51bd d3a7 90bd 8a1f 7e3c 777f 3abd
000002b0: a953 6cbd 3f76 1fbd 2327 80bd d6ca cebd
000002c0: 554a 47bd 0d4b 0dbc 89a9 1f3d 455f f73c
000002d0: 79db 3dbd ca3f 82bd 3c52 38bc 96f8 9b3c
000002e0: 39e7 053d 8eeb 32bc 6cb7 a7bc 0601 083c
000002f0: c52c 3d3c 1cba c2bc 6fe3 083c 52a9 bf3c
00000300: e7c7 57bc 4601 0abd 2b21 173c 7ae5 5c3c
00000310: d487 a13c 0b58 873d 0397 5d3d 35b8 3f3d
00000320: 42be 4b3b ae53 a3bc d7ad d4b9 c746 053b
00000330: 89f4 52bd 323b 043b 7496 4abd 5dce 343c
00000340: a7e9 02bd 78c0 2e3c ea15 fcbb 8c39 54bd
00000350: 8e66 16bc ff4c 94bc 1116 3c3c 5276 57bc
00000360: 6000 a1bd b841 97bc 2921 1dbd a853 03bd
00000370: ef52 bcbb ed9c 96bc 94fd 99bd 3ba9 e2bc
00000380: 5357 8b3c 8f78 cd3c 216d d43c 9359 01bd
00000390: 601e 27bd 6b59 193c 2743 243d 746e 503d
000003a0: 20b9 58bc ece3 cbbc e8e3 97bc b924 783c
000003b0: fe27 1b3d 49b0 003d a66b 60bb 1fd9 2cbd
000003c0: b947 af3d 9fa8 f13b 7b27 3c3d e35f 28bd
000003d0: bd1c 56bd 4768 cc3c 56a3 713d 0952 083d
000003e0: 2e0d d33c b725 f4bc 1865 243d f7fa d43c
000003f0: db7a 273c 7801 deb8 f9d3 a1bc 4524 973c

bias f4 [64]
-0.0013386633 0.019716179 0.030723676 0.02283586 -0.023542104 -0.0031694942 -0.020391367 -0.029224603
-0.011836761 0.01457537 -0.050575145 -0.0072093713 -0.013753938 0.004667621 -0.044512212 0.023225632
0.020263094 -0.0061592264 -0.018149287 0.010478128 -0.0091733495 -0.032758657 0.027980486 -0.047907896
-0.014967042 -0.028598059 -0.034418337 0.019664766 0.0014142356 0.046810556 -0.009838161 -0.001831609
0.012430288 0.03775422 -0.037800986 0.041464474 0.0138561325 0.03151183 -0.043479253 0.03083541
0.01241936 0.021073403 -0.03737217 -0.009802608 0.00078135805 0.0224851 0.017749732 -0.038310695
-0.026645118 0.028586859 0.018800654 -0.027382737 -0.039110202 -0.01280925 -0.0005376669 -0.023205241
-0.024073113 -0.026695115 6.581173e-05 -0.05817797 0.0006407798 0.03604307 -0.029726384 -0.011740363
00000000: 1676 afba d383 a13c 38b0 fb3c 4512 bb3c
00000010: 5fdb c0bc 4ab7 4fbb cc0b a7bc 6f68 efbc
00000020: f9ee 41bc 88cd 6e3c e227 4fbd 973c ecbb
00000030: 3258 61bc d8f2 983b 7052 36bd ae43 be3c
00000040: cafe a53c 56d3 c9bb d0ad 94bc 74ac 2b3c
00000050: d14b 16bc f12d 06bd 5537 e53c 123b 44bd
00000060: 5338 75bc 7a46 eabc 3efa 0cbd 0118 a13c
00000070: df5d b93a 6dbc 3f3d 3d30 21bc 9a12 f0ba
00000080: 68a8 4b3c 2ba4 1a3d 35d5 1abd a7d6 293d
00000090: d504 633c 8c12 013d 4d17 32bd 8b9a fc3c
000000a0: 927a 4b3c 21a2 ac3c 8f13 19bd 1e9b 20bc
000000b0: 0dd4 4c3a ac32 b83c e367 913c adeb 1cbd
000000c0: dd46 dabc fd2e ea3c d403 9a3c c351 e0bc
000000d0: 0532 20bd e3dd 51bc 37f2 0cba eb18 bebc
000000e0: fa34 c5bc b7af dabc 6704 8a38 064c 6ebd
000000f0: 01fa 273a e6a1 133d bf84 f3bc a75a 40bc

weight f4 [512, 64]
0.094280586 -0.24602953 -0.056471247 -0.10923123 0.15526226 0.071274266 0.06969703 0.11499972
-0.13981164 -0.05490439 0.026254782 -0.0024219167 0.11667641 0.022432547 -0.09440265 0.097041786
0.09411947 0.1856077 0.05886974 -0.0009141063 -0.19207491 0.015257424 0.10215282 0.13184077
0.009531182 0.06512006 0.079716675 0.093239486 0.026679974 -0.11042627 -0.22224094 0.17341347
-0.17613928 0.035046313 0.11264927 -0.14384307 0.017354092 0.06488281 -0.07265092 -0.050778877
0.106476635 0.023020849 0.12840939 0.045959335 -0.08123979 0.10364873 0.07174793 0.17569369
-0.19765927 0.1461454 -0.08501442 0.05491984 0.09035842 0.011675561 -0.07627463 -0.1953298
0.04534662 0.041505907 0.13961552 -0.10778039 -0.07701195 0.12872711 0.013250114 -0.04814428
0.16619617 0.03235847 0.13431291 0.100549035 0.023362983 0.048866272 -0.040619764 -0.012125129
0.12017547 -0.012748541 -0.06156895 -0.084498174 -0.05529986 -0.13658264 -0.11945946 0.08753684
-0.09885453 0.062115718 0.07355414 0.046841223 0.05996216 0.019758705 0.12506934 -0.15952279
0.028535368 0.16949737 0.121072724 -0.11172166 -0.19435453 0.105311334 -0.09707117 -0.1420454
0.021321537 0.053713135 0.1254281 -0.13896523 0.09380276 -0.0034243471 -0.0029244744 0.031625357
0.103985004 0.025939802 0.046598192 -0.09712416 0.04543328 0.10544712 0.10030435 -0.06861975
0.09415847 0.019017376 0.0007523634 0.07651641 -0.08846603 0.13062413 -0.085196525 0.0629111
0.03797639 -0.06908755 -0.11689633 0.015297618 -0.10451894 -0.14592388 -0.09033729 0.074605845
0.044278715 -0.032268636 0.016701922 -0.05305797 0.0016894069 0.05382085 0.15013298 0.0955322
0.0149921505 0.08478628 -0.06953736 -0.010462117 0.021406036 -0.109179415 0.00821886 0.039309125
-0.034369748 0.13797964 -0.13535324 0.058528144 0.0874771 -0.0913565 -0.09437979 -0.061611146
0.021166239 0.034176532 -0.014297429 -0.070905015 -0.050578285 -0.13706079 -0.059239276 0.1256972
-0.03350325 -0.0102668395 -0.14357123 0.10666607 -0.054215923 -0.052091386 -0.054165404 0.031636436
-0.015534356 0.0731007 -0.014833761 -0.08372 -0.049688306 0.010544652 0.14338458 0.10161462
0.022506101 -0.091514 0.13721663 0.070444226 0.08708335 0.022042003 -0.033380788 -0.034713052
0.026549766 0.13714269 0.018285876 0.077086344 0.0032302227 -0.004019853 -0.015214376 -0.08849454
0.12632856 -0.03447318 -0.05798432 -0.11102985 0.027406815 -0.07643766 0.02734949 -0.027010666
0.14297327 -0.156779 0.06534404 0.06189794 0.13266407 -0.14606619 0.09059257 0.030486062
0.06561019 0.15733755 0.13287371 0.04087672 -0.061129563 -0.064001374 -0.053226728 -0.024801327
-0.10890832 0.027609672 -0.10561473 -0.08160625 -0.03457444 -0.12272962 0.10742769 -0.015594839
-0.026026865 -0.13227677 0.030594237 -0.0061574043 -0.045058507 -0.13562985 -0.07394595 0.11298927
-0.01566114 -0.14554831 -0.08633268 0.13466355 0.03647946 0.0040856344 -0.09524925 -0.15868795
0.10078566 0.113318145 -0.15804034 0.0717094 0.13974215 0.0037889855 0.07828839 0.121072814
-0.079181306 0.07527003 0.051762924 -0.094759926 0.07406224 -0.10938043 -0.0014081245 0.105935276
00000000: 2e16 c13d 2aef 7bbe 654e 67bd a0b4 dfbd
00000010: 12fd 1e3e 3ef8 913d 51bd 8e3d f984 eb3d
00000020: c82a 0fbe 6de3 60bd 4514 d73c 05b9 1ebb
00000030: 0bf4 ee3d 76c4 b73c 2d56 c1bd d8bd c63d
00000040: b5c1 c03d f20f 3e3e 6621 713d a3a0 6fba
00000050: 49af 44be 46fa 793c 7f35 d13d 4401 073e
00000060: ad28 1c3c ab5d 853d 7f42 a33d 58f4 be3d
00000070: f68f da3c 2b27 e2bd 2193 63be 4d93 313e
00000080: db5d 34be b98c 0f3d a9b4 e63d 994b 13be
00000090: 2b2a 8e3c 47e1 843d 01ca 94bd 83fd 4fbd
000000a0: 6c10 da3d 3896 bc3c c07d 033e db3f 3c3d
000000b0: 0c61 a6bd c945 d43d 94f0 923d 0ce9 333e
000000c0: 3167 4abe 24a7 153e 0a1c aebd a0f3 603d
000000d0: d60d b93d da4a 3f3c e035 9cbd 8904 48be
000000e0: 61bd 393d 1902 2a3d 5ff7 0e3e f7bb dcbd
000000f0: 71b8 9dbd 0ad1 033e 0217 593c f032 45bd
00000100: 542f 2a3e 518a 043d 5389 093e a7ec cd3d
00000110: ba63 bf3c 0028 483d e960 26bd 7aa8 46bc
00000120: 8f1e f63d 42df 50bc b92f 7cbd 610d adbd
00000130: 1b82 62bd 52dc 0bbe 29a7 f4bd 8446 b33d
00000140: 3e74 cabd 0d6d 7e3d 8ea3 963d 95dc 3f3d
00000150: e29a 753d 02dd a13c 2d12 003e f159 23be
00000160: 01c3 e93c b890 2d3e faf4 f73d 53ce e4bd
00000170: e004 47be 78ad d73d 40cd c6bd 5974 11be
00000180: 81aa ae3c 4e02 5c3d 3970 003e e74c 0ebe
00000190: a91b c03d 036b 60bb 8aa8 3fbb 9789 013d
000001a0: 17f6 d43d b57f d43c bfdd 3e3d 08e9 c6bd
000001b0: 3f18 3a3d a9f4 d73d 5e6c cd3d 8388 8cbd
000001c0: 28d6 c03d 54ca 9b3c 413a 453a a3b4 9c3d
000001d0: ae2d b5bd 55c2 053e 847b aebd 89d7 803d
000001e0: 228d 1b3d c67d 8dbd 5867 efbd dca2 7a3c
000001f0: 070e d6bd 126d 15be c202 b9bd f3ca 983d
00000200: 995d 353d 1e2c 04bd 78d2 883c 5053 59bd
00000210: 176f dd3a 4073 5c3d 76bc 193e 63a6 c33d
00000220: a3a1 753c 6ea4 ad3d 9a69 8ebd 4d69 2bbc
00000230: b65b af3c 7599 dfbd 66a8 063c 9b02 213d
00000240: 4bc7 0cbd 894a 0d3e 0a9a 0abe 35bb 6f3d
00000250: 3227 b33d 1e19 bbbd 314a c1bd f85b 7cbd
00000260: d264 ad3c b1fc 0b3d c33f 6abc a636 91bd
00000270: 2d2b 4fbd aa59 0cbe e2a4 72bd c4b6 003e
00000280: b43a 09bd 3f36 28bc 5604 13be be73 da3d
00000290: 8411 5ebd c75d 55bd 8bdc 5dbd 3595 013d
000002a0: d083 7ebc d2b5 953d 4e09 73bc 6475 abbd
000002b0: f785 4bbd 7ac3 2c3c 68d3 123e 531b d03d
000002c0: b75e b83c b16b bbbd 8482 0c3e 1045 903d
000002d0: c158 b23d 6e91 b43c 4bba 08bd 462f 0ebd
000002e0: e57e d93c 226f 0c3e 43cc 953c 72df 9d3d
000002f0: 25b2 533b f9b8 83bb b845 79bc a03c b5bd
00000300: 465c 013e c033 0dbd f780 6dbd 9e63 e3bd
00000310: 4284 e03c 598b 9cbd 0a0c e03c 7945 ddbc
00000320: 9667 123e ad8a 20be 19d3 853d b288 7d3d
00000330: 17d9 073e 6092 15be 9988 b93d e8bd f93c
00000340: a35e 863d 181d 213e 0c10 083e 596e 273d
00000350: fe62 7abd 2713 83bd 4504 5abd 272c cbbc
00000360: 530b dfbd ae2d e23c 894c d8bd 2d21 a7bd
00000370: ee9d 0dbd ab59 fbbd 0c03 dc3d 7f81 7fbc
00000380: 4b36 d5bc 9073 07be c4a0 fa3c 0dc4 c9bb
00000390: 458f 38bd 8de2 0abe f970 97bd eb66 e73d
000003a0: cb4b 80bc 9e0a 15be 30cf b0bd 3ee5 093e
000003b0: 7c6b 153d c9e0 853b 0a12 c3bd 187f 22be
000003c0: b668 ce3d 5813 e83d 54d5 21be 61dc 923d
000003d0: 9118 0f3e a150 783b aa55 a03d 06f5 f73d
000003e0: cf29 a2bd 2c27 9a3d 5c05 543d 7e11 c2bd
000003f0: f2ad 973d d902 e0bd d190 b8ba 98f4 d83d

bias f4 [512]
0.10341202 -0.1265418 -0.08407029 -0.07052458 0.050364915 -0.093190774 -0.09096181 0.05082739
-0.086262725 -0.094199926 0.11935116 0.09114963 -0.078346066 0.044832774 0.027789854 0.06490866
0.0825046 0.1283925 0.030673558 0.024906734 -0.01594107 0.027147457 -0.05464987 0.12345984
0.13493809 -0.0086580785 0.02421488 -0.08801363 -0.096921936 -0.08015345 -0.01900666 0.072476864
-0.0033607767 -0.10585417 0.034881704 0.086264275 -0.10175533 -0.11219756 -0.055460107 0.025851948
0.045710247 -0.06870749 0.028130032 -0.01565565 -0.010303824 0.12063779 0.05018201 -0.019057
0.02388411 -0.05343125 0.09344711 -0.009159868 0.080076054 -0.056068912 0.06423451 0.04513247
0.07083202 0.0012341917 -0.052261088 0.053615242 0.10804708 -0.03319912 -0.029904388 0.010246017
0.08662969 0.03252261 -0.0236279 0.047142383 -0.02727687 -0.032256868 0.113950536 -0.08500455
-0.10547946 -0.002370577 -0.09480404 0.0036426682 0.076806575 -0.0092273485 0.021850616 0.11407408
-0.07992815 0.079060435 0.0905511 0.037993524 0.07741013 -0.08711513 0.02056371 -0.01644057
-0.06310006 0.03387192 -0.12179865 0.109759994 -0.11922943 0.1458654 0.046297666 0.09562857
-0.059815362 -0.07699994 0.024059752 -0.0780499 -0.09077685 -0.118086375 0.07957511 -0.00075203564
0.09365835 0.0983542 0.041568056 0.04576116 -0.05965913 0.0347494 -0.006581438 -0.120316595
0.024168318 -0.12678254 -0.12214818 -0.07594097 -0.046991464 -0.10434105 0.05127895 -0.09949002
0.025109464 -0.083356366 0.05552123 0.08141277 0.021693615 -0.11385046 0.073849715 0.053577017
-0.09541703 0.048151955 -0.10672407 -0.092228 -0.0054021575 -0.06487343 -0.04736124 0.081450246
-0.036271133 0.027696906 -0.09906162 0.013741543 0.04511367 -0.11959829 -0.047151566 -0.014707164
-0.10506855 -0.043822777 0.10537376 0.12603776 0.12640347 0.11707338 0.13640288 -0.089116536
0.063409075 -0.10117695 0.090200245 -0.011476533 0.11697947 -0.003928075 -0.014690907 0.07756748
0.11774758 0.04432609 0.022980977 0.08024997 -0.087947205 0.0030744881 0.014837091 -0.0812529
0.047040273 0.019341392 -0.035975955 0.00981427 -0.098906 0.096790045 -0.029107645 0.0966066
-0.09917324 0.02646132 -0.058831625 -0.12180206 0.09426605 0.029673724 -0.04746449 0.07161809
-0.08896165 0.10759621 -0.08352166 -0.012810512 0.050892577 -0.11263082 0.08457928 0.014775985
-0.038186863 0.06409792 -0.08409305 -0.019134365 -0.067615636 -0.018064668 -0.04628125 -0.038086124
0.047445018 0.042171944 -0.08352682 -0.0070951497 0.098817885 -0.057184197 0.050447334 -0.091995634
0.088568024 0.030970538 -0.042925913 0.08464305 0.015393478 0.034812603 -0.049174454 -0.02203057
-0.06579535 0.096602775 0.09773152 -0.058489293 -0.0033613988 0.035864297 0.044148583 -0.073278464
0.0052266307 0.06404335 -0.119006544 -0.023071183 0.047791123 0.09620259 -0.023420727 -0.06405523
0.028835155 0.021835012 0.12219868 0.09829803 -0.022850102 -0.015791692 0.018244745 -0.12246327
0.097163774 0.0661697 0.07084149 -0.079436444 0.015299869 0.093834564 0.08723381 -0.05232064
-0.02535352 -0.07965566 0.011758124 -0.116731934 0.09047319 -0.03320235 0.06877716 -0.033766896
00000000: aec9 d33d 2c94 01be 0b2d acbd 316f 90bd
00000010: 714b 4e3d ceda bebd 2f4a babd 6230 503d
00000020: 83aa b0bd e4eb c0bd 626e f43d a8ac ba3d
00000030: e773 a0bd 92a2 373d 8ca7 e33c d5ee 843d
00000040: 2cf8 a83d 5379 033e 1d47 fb3c 3509 cc3c
00000050: d996 82bc 5864 de3c 8bd8 5fbd 83d8 fc3d
00000060: 362d 0a3e 9dda 0dbc 495e c63c 7d40 b4bd
00000070: 027f c6bd 7e27 a4bd dbb3 9bbc c06e 943d
00000080: 7a40 5cbb 12ca d8bd 1ee0 0e3d 53ab b03d
00000090: 1965 d0bd d6c7 e5bd 232a 63bd 77c7 d33c
000000a0: ab3a 3b3d 83b6 8cbd f470 e63c 4740 80bc
000000b0: 5fd1 28bc f210 f73d a78b 4d3d 6d1d 9cbc
000000c0: 9ca8 c33c bada 5abd 3361 bf3d 4513 16bc
000000d0: eafe a33d 84a8 65bd 628d 833d d3dc 383d
000000e0: 6110 913d 9ac4 a13a b90f 56bd a89b 5b3d
000000f0: ca47 dd3d cdfb 07bd 0cfa f4bc e9de 273c
00000100: e86a b13d 6e36 053d 4c8f c1bc 5f18 413d
00000110: be73 dfbc c71f 04bd e65e e93d de16 aebd
00000120: 9d05 d8bd af5b 1bbb 9f28 c2bd d5b9 6e3b
00000130: c44c 9d3d 4e2e 17bc 1000 b33c ac9f e93d
00000140: 5fb1 a3bd 70ea a13d db72 b93d 199f 1b3d
00000150: 3489 9e3d 6b69 b2bd 3a75 a83c 60ae 86bc
00000160: 9b3a 81bd 48bd 0a3d 9271 f9bd d9c9 e03d
00000170: 8f2e f4bd bd5d 153e 9fa2 3d3d e9d8 c33d
00000180: f400 75bd 25b2 9dbd f518 c53c a0d8 9fbd
00000190: 37e9 b9bd 45d7 f1bd 46f8 a23d 4224 45ba
000001a0: f3cf bf3d ed6d c93d 4443 2a3d 0e70 3b3d
000001b0: 225d 74bd 6355 0e3d 1aa9 d7bb 8c68 f6bd
000001c0: a3fc c53c 48d3 01be d328 fabd f086 9bbd
000001d0: 1f7a 40bd c3b0 d5bd e009 523d 6cc1 cbbd
000001e0: 5db2 cd3c beb6 aabd 3b6a 633d bdbb a63d
000001f0: cfb6 b13c 6e2a e9bd 853e 973d 9373 5b3d
00000200: 016a c3bd fc3a 453d 2692 dabd 09e2 bcbd
00000210: 9504 b1bb 5cdc 84bd dcfd 41bd 63cf a63d
00000220: 0a91 14bd 9fe4 e23c d2e0 cabd 3524 613c
00000230: 1dc9 383d f3ef f4bd 0022 41bd 51f6 70bc
00000240: 2e2e d7bd 837f 33bd 33ce d73d 0b10 013e
00000250: e96f 013e 2bc4 ef3d 32ad 0b3e bb82 b6bd
00000260: 9edc 813d dc35 cfbd e8ba b83d 1108 3cbc
00000270: ef92 ef3d 15b7 80bb 21b2 70bc b3db 9e3d
00000280: a525 f13d 468f 353d 9a42 bc3c 195a a43d
00000290: aa1d b4bd 5a7d 493b 4517 733c ec67 a6bd
000002a0: 4dad 403d d771 9e3c 865b 13bd 08cc 203c
000002b0: 3b8f cabd dc39 c63d 2873 eebc aed9 c53d
000002c0: 571b cbbd 69c5 d83c 6ef9 70bd 5c73 f9bd
000002d0: 8f0e c13d 4f16 f33c 206a 42bd 81ac 923d
000002e0: 8731 b6bd 675b dc3d 670d abbd 2fe3 51bc
000002f0: bc74 503d fdaa e6bd e737 ad3d f916 723c
00000300: d469 1cbd c545 833d fa38 acbd acbf 9cbc
00000310: 117a 8abd 5bfc 93bc 6891 3dbd 3200 1cbd
00000320: b555 423d 7dbc 2c3d 1c10 abbd 6e7e e8bb
00000330: 0861 ca3d fa39 6abd dda1 4e3d 3568 bcbd
00000340: 2763 b53d edb5 fd3c 15d3 2fbd 5659 ad3d
00000350: ed34 7c3c a997 0e3d 276b 49bd 7479 b4bc
00000360: b6bf 86bd add7 c53d 7727 c83d 7892 6fbd
00000370: ea4a 5cbb 71e6 123d 25d5 343d 0513 96bd
00000380: 2844 ab3b 2929 833d b4b9 f3bd c7ff bcbc
00000390: a0c0 433d dd05 c53d d3dc bfbc 632f 83bd
000003a0: b437 ec3c 57df b23c 4d43 fa3d 7a50 c93d
000003b0: 2330 bbbc 945d 81bc 0176 953c 06ce fabd
000003c0: cdfd c63d fb83 873d 5815 913d 93af a2bd
000003d0: 4dac 7a3c 562c c03d a4a7 b23d 2b4e 56bd
000003e0: 2fb2 cfbc 8222 a3bd 26a5 403c 2711 efbd
000003f0: 024a b93d 30ff 07bd 0adb 8c3d 284f 0abd

weight f4 [62, 512]
-0.15670837 0.14552134 0.06130025 0.250236 0.25269607 -0.14485523 0.044095036 -0.106244065
-0.13497502 0.12516217 0.21046077 0.2633611 0.01977146 0.13836655 -0.053320292 -0.031493526
-0.01834032 -0.044975936 0.10083592 0.015561973 -0.088730186 -0.11756111 0.06898081 -0.070409395
-0.06762687 0.009633094 0.014165465 -0.004892817 -0.23231794 -0.025763774 -0.11725977 -0.006858428
0.00306274 0.30776852 0.12640746 0.08359842 -0.26786375 -0.012941268 -0.12126657 -0.010931811
0.13004631 0.03160966 -0.05240862 -0.06290101 0.19296098 0.044604268 0.03533918 -0.028886516
0.06425566 -0.28821984 -0.15465774 0.17690888 0.16203088 -0.082095 -0.07006583 0.08013986
0.12685357 -0.023162147 0.028894437 0.24372658 -0.041718636 -0.07148837 -0.16329195 -0.0045222607
0.23431921 -0.010494391 -0.030126927 0.17711388 0.07040773 -0.044571925 0.13711827 -0.14097412
0.043483105 0.020241596 0.032845337 -0.085700594 -0.008087785 -0.08222717 -0.0075150877 0.067155994
0.096919164 0.040402588 0.097004026 0.0042530787 -0.07243497 0.13605823 0.07440234 -0.009260792
0.03427102 -0.02202618 -0.03610493 0.008232575 -0.008959048 0.14120363 0.19724828 0.14360777
0.2732217 0.16696976 -0.2356976 -0.117997564 -0.12004615 -0.042698305 -0.037623715 -0.2033962
0.09419307 0.15357208 0.0012755623 -0.008795677 -0.26865837 0.12676622 -0.03077317 0.009382781
0.041419204 -0.02078831 0.22113559 0.016435878 -0.18517466 -0.05118494 0.0002847614 0.18062831
0.026728973 -0.044176895 -0.0007107107 0.04100147 -0.03468089 -0.08152882 0.09444741 -0.018902423
0.15161894 -0.039878115 0.035221476 -0.023799796 0.16836102 0.010952153 -0.26985857 0.0063226647
0.07749587 -0.07874883 -0.102943644 -0.13829501 -0.154759 0.036822677 0.0757391 -0.094852924
0.0025907517 -0.033940837 -0.01961676 0.024661738 -0.023606608 0.008306063 0.027750494 0.06836805
0.25080746 0.0692062 0.28332955 -0.062193044 0.026680514 -0.1568789 0.069877535 -0.15730388
0.010161307 -0.20285195 -0.029459802 -0.087061554 -0.08731819 0.037139855 -0.18683645 0.055105522
-0.09523388 -0.004656762 -0.029458512 -0.017498927 0.36104 0.27030608 0.0031246434 -0.049820963
-0.024569875 0.24568318 -0.032286294 -0.13034798 -0.16090114 0.0904415 -0.08564943 -0.10867274
-0.02252996 -0.00034813382 0.21540403 0.007929317 -0.07371326 0.14116323 -0.10287756 -0.038271837
0.012351619 -0.106831074 -0.11042506 0.003909768 -0.000813692 -0.09446969 -0.042143896 -0.1440498
0.01984415 -0.14865416 -0.04817254 0.12536258 0.1745522 -0.11102638 0.25779867 -0.12356156
0.03752976 0.008336347 -0.21062323 -0.09213076 -0.0749443 -0.238742 0.004252612 0.19212808
-0.020353965 -0.17598695 0.25864094 0.010847878 -0.041576244 -0.14746477 0.017890615 0.20002396
0.24093337 -0.22182797 -0.015339051 -0.06298253 -0.0042892373 0.15301083 0.017126653 0.20813857
-0.022896804 -0.15391487 -0.02533143 0.18619978 -0.16792117 -0.029522214 -0.15398917 0.18215837
0.08704639 0.09611609 0.10685149 -0.23829392 -0.07065356 0.073265485 0.10865997 0.0019396126
-0.008472107 -0.08152206 -0.14151302 0.15367267 0.06309956 -0.1673483 -0.13236961 0.07783728
00000000: 2978 20be 8c03 153e f915 7b3d ef1e 803e
00000010: 6161 813e ee54 14be ff9c 343d 7d96 d9bd
00000020: e436 0abe 832a 003e 0783 573e 44d7 863e
00000030: c2f7 a13c f6af 0d3e 6166 5abd 5bff 00bd
00000040: 703e 96bc b038 38bd 1083 ce3d a5f7 7e3c
00000050: 2cb8 b5bd e1c3 f0bd d045 8d3d cd32 90bd
00000060: f57f 8abd 20d4 1d3c 4416 683c ed53 a0bb
00000070: c1e4 6dbe 8d0e d3bc e425 f0bd aabc e0bb
00000080: 40b8 483b d693 9d3e f570 013e a635 ab3d
00000090: 7025 89be 9d07 54bc 9c5a f8bd 571b 33bc
000000a0: dc2a 053e 2179 013d 6caa 56bd 3fd2 80bd
000000b0: 9097 453e f7b2 363d d1bf 103d 6aa3 ecbc
000000c0: 7998 833d 8d91 93be 995e 1ebe 9a27 353e
000000d0: 6ceb 253e 6c21 a8bd ad7e 8fbd 5e20 a43d
000000e0: e7e5 013e 8bbe bdbc 07b4 ec3c 7693 793e
000000f0: 29e1 2abd 7f68 92bd 0136 27be 792f 94bb
00000100: 60f1 6f3e abf0 2bbc bfcc f6bc 575d 353e
00000110: ee31 903d 0d91 36bd bb68 0c3e 855b 10be
00000120: 571b 323d b4d1 a53c d588 063d cb83 afbd
00000130: a182 04bc b866 a8bd 2041 f6bb 1589 893d
00000140: 8e7d c63d 2f7d 253d 0caa c63d 695d 8b3b
00000150: c958 94bd d952 0b3e 4160 983d 94ba 17bc
00000160: c55f 0c3d 3f70 b4bc c3e2 13bd ece1 063c
00000170: f9c8 12bc af97 103e 74fb 493e ea0d 133e
00000180: b7e3 8b3e 1ffa 2a3e b65a 71be b5a8 f1bd
00000190: c2da f5bd 6be4 2ebd 531b 1abd 1847 50be
000001a0: 4ce8 c03d 0042 1d3e c530 a73a be1b 10bc
000001b0: 978d 89be 01cf 013e 0418 fcbc 3cba 193c
000001c0: 2fa7 293d 3f4c aabc 5e71 623e 89a4 863c
000001d0: 6d9e 3dbe 4da7 51bd 074c 9539 a1f6 383e
000001e0: b8f6 da3c d5f2 34bd fd4e 3aba 28f1 273d
000001f0: 8d0d 0ebd 95f8 a6bd a56d c13d 41d9 9abc
00000200: ff41 1b3e 3c57 23bd 6544 103d caf7 c2bc
00000210: d566 2c3e a970 333c e72a 8abe 5b2e cf3b
00000220: 28b6 9e3d 1147 a1bd 1ed4 d2bd 359d 0dbe
00000230: 2579 1ebe 60d3 163d 1a1d 9b3d 4042 c2bd
00000240: 9ac9 293b 8c05 0bbd 54b3 a0bc 6a07 ca3c
00000250: a562 c1bc 2716 083c 0155 e33c 8c04 8c3d
00000260: d669 803e fbbb 8d3d 9210 913e 22be 7ebd
00000270: 1891 da3c dda4 20be f41b 8f3d 4514 21be
00000280: 9c7b 263c 6cb8 4fbe af55 f1bc 544d b2bd
00000290: e1d3 b2bd f61f 183d 0e52 3fbe 54b6 613d
000002a0: fb09 c3bd c097 98bb fa52 f1bc e959 8fbc
000002b0: 3cda b83e 8f65 8a3e d1c6 4c3b 1111 4cbd
000002c0: c346 c9bc 5f94 7b3e a23e 04bd f179 05be
000002d0: 45c3 24be 6539 b93d f868 afbd d08f debd
000002e0: c090 b8bc bb85 b6b9 e092 5c3e f7e9 013c
000002f0: faf6 96bd 188d 103e 78b1 d2bd eec2 1cbd
00000300: 725e 4a3c 40ca dabd 8926 e2bd 831d 803b
00000310: f24d 55ba 5379 c1bd 149f 2cbd ca81 13be
00000320: 3390 a23c cc38 18be 9250 45bd 0c5f 003e
00000330: d0bd 323e cc61 e3bd 30fe 833e d80d fdbd
00000340: ceb8 193d 2c95 083c 9ead 57be 0daf bcbd
00000350: 667c 99bd c878 74be 7f59 8b3b 39bd 443e
00000360: 5cbd a6bc ec35 34be 966c 843e 4cbb 313c
00000370: da4b 2abd 0101 17be 578f 923c 15d3 4c3e
00000380: 3db7 763e df26 63be a550 7bbc fcfc 80bd
00000390: bb8c 8cbb dfae 1c3e 324d 8c3c 4722 553e
000003a0: 1492 bbbc dc9b 1dbe dc83 cfbc 28ab 3e3e
000003b0: 87f3 2bbe 92d8 f1bc 56af 1dbe b987 3a3e
000003c0: 6145 b23d 83d8 c43d f4d4 da3d 5203 74be
000003d0: d0b2 90bd 370c 963d 1e89 de3d 993a fe3a
000003e0: 98ce 0abc 0af5 a6bd cae8 10be 5e5c 1d3e
000003f0: 583a 813d 5a5d 2bbe e68b 07be 2769 9f3d

bias f4 [62]
0.12973237 0.05618691 0.0015495413 0.013833189 -0.04317773 -0.06908447 -0.04710883 0.022113267
-0.019467693 -0.028072782 0.118214644 0.05457358 0.074096404 0.06403284 -0.007928346 -0.014368253
-0.014789542 -0.004099208 -0.05311727 -0.005072645 0.01018023 -0.019858211 0.011681177 -0.02407819
-0.039163865 -0.00580099 -0.02072448 -0.0050623757 0.026832728 0.018775657 -0.028871635 -0.023512796
-0.045591317 -0.004155098 0.017966868 0.0008822379 -0.027355418 0.0037768432 -0.04242574 -0.045400534
-0.049038798 0.004356797 -0.026090218 -0.018221835 0.026521774 0.015148411 0.016977549 0.0117280185
-0.051957928 -0.025577389 0.0330969 0.016746601 -0.04454526 0.015508453 0.032535445 -0.04427671
-0.046602335 0.026170364 -0.049393628 -0.029458309 0.0072989026 -0.030870976
00000000: 90d8 043e 3f24 663d fa19 cb3a 9aa4 623c
00000010: 22db 30bd 297c 8dbd 30f5 40bd e226 b53c
00000020: b67a 9fbc e4f8 e5bc 851a f23d 8c88 5f3d
00000030: dbbf 973d a623 833d e5e5 01bc d268 6bbc
00000040: d64f 72bc a652 86bb 7f91 59bd 6e38 a6bb
00000050: fbca 263c b0ad a2bc 6862 3f3c a03f c5bc
00000060: 4a6a 20bd 3b16 bebb 62c6 a9bc 49e2 a5bb
00000070: 4fd0 db3c 68cf 993c 3584 ecbc e89d c0bc
00000080: f6bd 3abd 7d27 88bb 412f 933c fc45 673a
00000090: 7818 e0bc ea84 773b 9dc6 2dbd e9f5 39bd
000000a0: e8dc 48bd 76c3 8e3b 27bb d5bc f545 95bc
000000b0: 3144 d93c 0a31 783c 8014 8b3c e026 403c
000000c0: d6d1 54bd ac87 d1bc 9d90 073d 2b30 893c
000000d0: 1775 36bd 2b17 7e3c e343 053d 7f5b 35bd
000000e0: 17e2 3ebd 3b63 d63c f950 4abd 8d52 f1bc
000000f0: a22b ef3b 21e5 fcbc
